data/train_data/td_best_model.pt (torch, 508253 bytes, 31 tensors)

att_weights f4 [5]
0	0x3f967a4b	1.1756071
1	0x3f29d10c	0.66334605
2	0x3f24a56d	0.6431492
3	0x3f81a135	1.0127321
4	0x3f8651a5	1.0493666

weight f4 [64, 4]
0	0xbe13447d	-0.14381595
1	0xbe521a1a	-0.2051777
2	0xbbf9cae1	-0.007623062
3	0xbe679985	-0.22617157
4	0xbe989e44	-0.29808247
5	0xbeab53be	-0.33462328
6	0xbe41638a	-0.18885627
7	0xbeb42ca6	-0.35190314
8	0x3b5574dc	0.0032570874
9	0x3d1abd45	0.037778158
10	0xbdf1e3ff	-0.11811065
11	0xbebf9bfa	-0.37423688
12	0x3e96a49c	0.29422462
13	0x3d1dc282	0.038515575
14	0x3d34428d	0.04400878
15	0xbd215442	-0.039386995
16	0xbc299c25	-0.010352169
17	0xbe636187	-0.22205172
18	0xbe17e9d0	-0.14835286
19	0xbe702c33	-0.2345436
20	0xbd96a88b	-0.07356366
21	0x3de23ea2	0.110471025
22	0xbdcc1955	-0.09965769
23	0x3d75b8cd	0.059990693
24	0xbe87fd69	-0.26560524
25	0xbe9d0303	-0.3066636
26	0xbe6740f5	-0.22583373
27	0x3d8539cc	0.065051645
28	0x3e78aa04	0.24283606
29	0x3e1d0fab	0.15338008
30	0x3e307bbc	0.17234701
31	0xbd2a4f74	-0.04157968
32	0x3e11e2b4	0.14246637
33	0x3cef51b7	0.02921377
34	0xbe0fcede	-0.14043757
35	0x3dce833c	0.10083625
36	0xbe84f155	-0.25965372
37	0xbe50319b	-0.20331423
38	0x3ddad641	0.10685397
39	0xbe8f7201	-0.28016666
40	0x3e52804f	0.20556758
41	0xbe158d84	-0.14604765
42	0x3e2541e5	0.16138418
43	0x3e926d39	0.28598955
44	0x3e4c606a	0.19958654
45	0xbe9b1987	-0.30292913
46	0xbea49628	-0.3214581
47	0xbda039ad	-0.07823501
48	0xbd61ab1e	-0.05509483
49	0xbdabdce9	-0.08391745
50	0xbe6731a2	-0.22577527
51	0xbe9dc558	-0.30814624
52	0x3e8f1435	0.27945104
53	0x3bfeddb7	0.0077778953
54	0xbc4edfce	-0.012626601
55	0x3e657ff3	0.2241209
56	0xbe93c55d	-0.28861514
57	0x3cb5c5cb	0.022189042
58	0xbecb8cea	-0.39755946
59	0xbeb48dec	-0.35264528
60	0x3e5cf935	0.2157944
61	0x3e074c51	0.13212706
62	0xbd42ab8d	-0.047526885
63	0xbdf6cc98	-0.12050742
64	0x3e768ddb	0.24077551
65	0x3de27f78	0.11059469
66	0x3e72bb29	0.23704208
67	0x3e6e96aa	0.23299661
68	0x3e90efa1	0.28307822
69	0x3e292e81	0.16521646
70	0x3e94d554	0.29069006
71	0x3e273d51	0.16331984
72	0x3e764ac9	0.24051966
73	0xbd8bb72e	-0.06822048
74	0x3e54eda6	0.2079378
75	0x3ca6d4d4	0.020365156
76	0xbe114dd8	-0.14189851
77	0xbd028a12	-0.031869955
78	0x3dc50efc	0.09621999
79	0x3e90f6fc	0.28313434
80	0xbe89bbc5	-0.2690107
81	0xbdf4ce2a	-0.11953385
82	0xbe79211c	-0.24329036
83	0xbdf557a4	-0.11979607
84	0xbd420b23	-0.047373902
85	0x3dbde94e	0.09273015
86	0x3d974d3e	0.0738778
87	0xbe88a226	-0.2668621
88	0xbdc1b732	-0.0945877
89	0xbd631ccd	-0.05544739
90	0x3e3ffc81	0.18748666
91	0x3e8a5e82	0.2702523
92	0x3ea22075	0.31665388
93	0x3d0d4ab1	0.03449506
94	0xbddb133d	-0.10697029
95	0x3e6b08aa	0.22952524
96	0x3ea00f67	0.3126175
97	0xbe4a162f	-0.19735025
98	0xbe4aa21f	-0.19788407
99	0x3cd06c33	0.025442218
100	0x3e8b628c	0.27223623
101	0xbe65dd84	-0.22447783
102	0xbd0ff63c	-0.035146937
103	0x3e4a150c	0.19734591
104	0x3b7f2f2f	0.0038938036
105	0x3e478ac9	0.19486536
106	0x3ea7aad8	0.3274753
107	0x3d85a4cc	0.06525573
108	0x3e251433	0.16120987
109	0x3e659a41	0.22422124
110	0xbd1247ab	-0.03571288
111	0x3e216146	0.15759763
112	0xbd30fd94	-0.04321058
113	0x3e770e6e	0.24126598
114	0x3e581886	0.21103105
115	0x3d33d717	0.043906298
116	0xbe9ea5f1	-0.30985978
117	0x3e38dd8e	0.18053266
118	0xbdb1c3a3	-0.08679893
119	0x3d86b351	0.06577171
120	0x3e51d710	0.20492196
121	0xbc3c595c	-0.011495914
122	0xbbff4bdb	-0.007791025
123	0x3db1993c	0.08671805
124	0xbecf3d4b	-0.4047645
125	0x3be74251	0.007057466
126	0x3d2a2a77	0.041544404
127	0xbea93c14	-0.33053648
128	0xbe322b52	-0.17399338
129	0xbea53e52	-0.3227411
130	0x3cc1b39c	0.023645215
131	0x3db8d6d7	0.090253524
132	0x3ea60db8	0.32432342
133	0x3e80a9f8	0.25129676
134	0xbd56d240	-0.052446604
135	0x3e297480	0.16548347
136	0xbeab58cc	-0.33466184
137	0xbecf5be2	-0.4049979
138	0x3e25608d	0.16150112
139	0xbea870c6	-0.3289854
140	0x3e94259e	0.2893495
141	0x3e464fe4	0.19366413
142	0x3e8b4149	0.27198246
143	0xbe539325	-0.206616
144	0xbe3db028	-0.1852423
145	0xbeacd1ca	-0.33753806
146	0xbe897f65	-0.26855007
147	0xbe9d8766	-0.30767363
148	0x3e2294ae	0.1587703
149	0x3e94e015	0.2907721
150	0x3dfc5003	0.123199485
151	0x3e81fbf2	0.25387532
152	0xbdcdd2c8	-0.10049969
153	0x3ec785ad	0.38969174
154	0x3eb6d3eb	0.35708556
155	0xbd9f68ee	-0.077836856
156	0xbe221a52	-0.15830353
157	0x3e7f3c65	0.24925382
158	0xbe311d0c	-0.17296237
159	0x3e56ed17	0.2098888
160	0x3e9be9cb	0.30451807
161	0xbdfbeee6	-0.12301426
162	0x3ebba07f	0.36645886
163	0x3e2c3e99	0.16820754
164	0xbd58e7c1	-0.052955393
165	0x3d6573e2	0.056018718
166	0x3e904d60	0.28184032
167	0x3ea3c494	0.31985915
168	0x3e9912e2	0.2989722
169	0xbdce8bb9	-0.10085244
170	0x3e204690	0.15651917
171	0x3d0af869	0.03392831
172	0xbe4237a3	-0.18966536
173	0xbd82b5ad	-0.06382308
174	0x3e36fc76	0.17869744
175	0xbe0de53c	-0.13856977
176	0x3d1133e7	0.03544989
177	0xbe3f02b3	-0.18653373
178	0xbe6e9e09	-0.23302473
179	0xbdb97e8a	-0.090573385
180	0xbe8d2dc9	-0.27573994
181	0xbdca10ed	-0.098665096
182	0x3e1b4df0	0.1516645
183	0x3cd5900a	0.02606966
184	0xbe52aa95	-0.20572884
185	0xbe91e795	-0.28496996
186	0xbe801b9c	-0.25021064
187	0x3e40df90	0.18835282
188	0x3eb1d5ff	0.3473358
189	0x3e63d57f	0.22249411
190	0xbd096f34	-0.033553317
191	0xbe196c55	-0.14982732
192	0xbe49d906	-0.19711694
193	0xbe372003	-0.17883305
194	0x3e20dcbe	0.15709206
195	0x3e59be57	0.21264015
196	0xbdae8571	-0.08521546
197	0xbde8a64e	-0.11359845
198	0xbe3d0d2f	-0.1846206
199	0x3e1d6fbf	0.15374659
200	0x3e557631	0.20845868
201	0x3e7b2556	0.24525961
202	0x3e0d8dea	0.13823667
203	0xbb07491c	-0.0020642942
204	0x3e5a639a	0.21327057
205	0x3ea62c18	0.32455516
206	0xbc94a930	-0.018147081
207	0x3e5c2af2	0.21500757
208	0xbea37491	-0.3192487
209	0x3ae344c8	0.0017339224
210	0xbea76866	-0.32696837
211	0x3a3ce2e6	0.00072054414
212	0x3e9fd3aa	0.31216174
213	0x3eafbf3a	0.34325582
214	0x3e9d55fe	0.3072967
215	0xbda4047a	-0.08008666
216	0x3e7c09b6	0.2461308
217	0x3ebbe65e	0.36699194
218	0xbe1ea9fa	-0.15494528
219	0x3e2e1f2d	0.1700408
220	0x3dd976f7	0.10618394
221	0x3eaf847a	0.3428076
222	0x3e4841d1	0.19556357
223	0x3d9e01f5	0.07715217
224	0x3ea63055	0.3245875
225	0x3d159408	0.036518127
226	0xbdfc81ac	-0.123294204
227	0x3e93feff	0.28905484
228	0x3d929b22	0.071584955
229	0xbd4645a1	-0.048406247
230	0xbe52ee38	-0.20598686
231	0xbe5aa2a1	-0.213511
232	0xbd520c56	-0.051281296
233	0x3d97ebd6	0.07418029
234	0xbe5a8468	-0.21339571
235	0xbdc9efd8	-0.098602
236	0xbdc99d99	-0.098445125
237	0xbe9034e8	-0.28165364
238	0xbe85b886	-0.26117343
239	0xbd967e12	-0.07348265
240	0xbea67460	-0.32510662
241	0xbe32dbaf	-0.17466615
242	0xbe58572a	-0.21127
243	0xbe92ab3b	-0.28646263
244	0x3d1b516e	0.037919454
245	0x3eb4f7e1	0.35345367
246	0xbd8cacde	-0.06868909
247	0xbd91fea0	-0.07128644
248	0xbe6a99b1	-0.22910191
249	0xbddc7d04	-0.10766032
250	0xbe993efd	-0.2993087
251	0xbcb8cbee	-0.022558179
252	0xbdd57b74	-0.104239374
253	0xbd121f48	-0.035674363
254	0xbe602121	-0.21887638
255	0xbe8c0b8f	-0.27352569

bias f4 [64]
0	0xbe2c272a	-0.16811815
1	0x3efb94d9	0.49137
2	0xbe5ad9aa	-0.21372095
3	0xbba8ac05	-0.0051474595
4	0xbe96e8a1	-0.29474357
5	0x3ea7be89	0.32762554
6	0x3e7c30c7	0.24627982
7	0x3de3df3d	0.11126564
8	0x3d49780d	0.049186755
9	0x3dcfec44	0.10152486
10	0xbe81ca5f	-0.2534971
11	0x3e4465f0	0.19179511
12	0x3dbc36f0	0.09190166
13	0x3e9ea0e9	0.3098214
14	0xbd11d9f5	-0.03560825
15	0xbe4cc422	-0.19996694
16	0xbec58fbb	-0.3858622
17	0x3e062c75	0.13102897
18	0xbe8a4c68	-0.27011418
19	0x3e5d6161	0.21619178
20	0xbe8d6075	-0.27612653
21	0x3eba938e	0.364407
22	0x3e4eef09	0.20208372
23	0x3e99b274	0.3001896
24	0x3ecc36e1	0.3988562
25	0x3dece599	0.1156723
26	0x3db0e25c	0.086369246
27	0x3e4d56e0	0.20052671
28	0xbe4f5269	-0.2024628
29	0xbe5dcbf0	-0.21659827
30	0xbeccf6af	-0.40031955
31	0x3ec2c4ef	0.38040873
32	0x3d477458	0.04869494
33	0xbec807cb	-0.39068446
34	0x3e93aa29	0.2884076
35	0x3e8c89d8	0.27448916
36	0xba9458dc	-0.0011317986
37	0xbea5b97c	-0.32368076
38	0x3eb83922	0.3598109
39	0xbcd56a10	-0.026051551
40	0xbec6c2a8	-0.38820386
41	0xbee90142	-0.45508772
42	0xbec86595	-0.3914
43	0xbd16ec39	-0.036846373
44	0x3d8a4f77	0.06753438
45	0x3eca94f1	0.39566758
46	0xbdd6e1b5	-0.10492269
47	0x3ea2a914	0.3176962
48	0xbe9f14ed	-0.31070653
49	0x3d34b100	0.044114113
50	0x3e58c04c	0.21167105
51	0xbe4df1ed	-0.20111819
52	0x3d1a0553	0.037602734
53	0xbf067ccc	-0.52534175
54	0xbef21445	-0.4728109
55	0x3d097c0f	0.033565577
56	0xbe96c301	-0.2944565
57	0xbe8b759f	-0.27238175
58	0x3e01e9ad	0.12686796
59	0xbd94e3e3	-0.072700284
60	0xbdb9877d	-0.090590455
61	0xbe86cc78	-0.26327872
62	0xbea979c5	-0.33100715
63	0xbedd0d8e	-0.43174404

weight f4 [64, 7]
0	0x3d1f6f92	0.03892476
1	0x3debd916	0.11516015
2	0xbe394161	-0.18091346
3	0xbccd3739	-0.025050746
4	0x3e094d1b	0.1340832
5	0x3b8690ce	0.0041066175
6	0xbe00d861	-0.12582542
7	0x3d404e24	0.04694952
8	0x3e2c12da	0.16804066
9	0xbd8f30c6	-0.06991725
10	0x3e29180b	0.16513078
11	0x3e85aad9	0.2610691
12	0xbe637e3c	-0.22216123
13	0xbdd1e92d	-0.10249553
14	0xbd13e388	-0.036105663
15	0x3de575b6	0.11204092
16	0x3bf1f602	0.0073840627
17	0x3e2f7518	0.17134511
18	0xbe1b2070	-0.15149093
19	0x3d65b465	0.05608024
20	0x3c8a6541	0.016893985
21	0xbc33dad3	-0.010977465
22	0x3da3ac36	0.07991831
23	0xbdcaae4a	-0.09896524
24	0x3e0c7165	0.13715132
25	0xbd0f1208	-0.034929305
26	0x3ddd6da7	0.1081193
27	0x3d88b27e	0.0667467
28	0xbd5f6c4a	-0.054546632
29	0xbd95bc9b	-0.07311364
30	0xbd443142	-0.04789854
31	0xbd11d4a5	-0.035603184
32	0x3d3213c6	0.04347589
33	0xbd829ce4	-0.06377581
34	0xbe37cfe2	-0.17950395
35	0x3dcdd282	0.10049917
36	0xbebca63c	-0.36845577
37	0x3db01a62	0.08598782
38	0x3e37566e	0.17904064
39	0xbe3757d1	-0.17904593
40	0xbd95bd24	-0.07311466
41	0xbcf89840	-0.030346036
42	0x3db873ae	0.09006439
43	0x3e4efc4b	0.2021343
44	0xbdfdb677	-0.12388318
45	0x3e37614a	0.17908207
46	0xbe41869f	-0.1889901
47	0xbd41cbb2	-0.0473134
48	0xbd984826	-0.07435636
49	0x3d88a1f1	0.06671513
50	0xbde26126	-0.11053686
51	0x3ca938e7	0.020657016
52	0x3e3ff18a	0.18744484
53	0x3d8a1261	0.06741787
54	0xbe1e8dee	-0.1548383
55	0xbd0345f5	-0.032049138
56	0x3deb1721	0.11479021
57	0xbe79631a	-0.2435421
58	0xbe160c92	-0.14653233
59	0x3e8374f8	0.25675178
60	0xbe3a89d0	-0.18216634
61	0xbe073f07	-0.13207637
62	0xbdb52b7c	-0.088461846
63	0x3d914128	0.07092506
64	0x3e2c2fc6	0.16815099
65	0xbd2b2cdd	-0.04179083
66	0xbcac384e	-0.021022942
67	0x3de8157c	0.11332223
68	0x3ccb4965	0.02481527
69	0xbe409f45	-0.18810757
70	0x3df43cf5	0.11925689
71	0xbdbbdddb	-0.09173175
72	0x3ded3158	0.11581677
73	0x3e6c9529	0.23103775
74	0xbd895d65	-0.06707267
75	0xbd9a30dd	-0.07528851
76	0xbdf86ab9	-0.12129731
77	0xbe0aff28	-0.13573897
78	0x3ddf1164	0.10891989
79	0x3e6ac2cf	0.22925876
80	0x3d3098bb	0.043114405
81	0xbd82efcc	-0.06393394
82	0xbd2b2b5b	-0.041789394
83	0xbdfd2012	-0.123596326
84	0xbd55f126	-0.05223193
85	0x3cb1dd99	0.021712111
86	0xbe3b5590	-0.18294358
87	0xbd51fb75	-0.0512652
88	0x3e0c0ed2	0.13677529
89	0xbdfcbdf5	-0.12340919
90	0x3d71b0b4	0.059006408
91	0xbd4c7c36	-0.049923144
92	0x3e737e29	0.23778595
93	0xbceac1c6	-0.028656852
94	0x3c0c1f9a	0.008552456
95	0x3d8a876d	0.06764112
96	0x3e28b7d4	0.16476375
97	0x3e2ec45d	0.17067094
98	0x3db2cb82	0.08730222
99	0xbe2271e8	-0.15863764
100	0xbd073c33	-0.033016395
101	0xbe2c5b39	-0.16831674
102	0xbe0c0673	-0.13674335
103	0x3e732f83	0.23748593
104	0x3e32a0f4	0.17444211
105	0xbe0882df	-0.13331173
106	0xbe3a3ede	-0.18188044
107	0x3dac661a	0.08417912
108	0x3dffe89b	0.12495538
109	0xbe736d6e	-0.23772213
110	0xbc87a3ee	-0.01655766
111	0x3e1f9331	0.15583493
112	0xbdc95778	-0.098311365
113	0x3e8a65d7	0.27030823
114	0xbbbdc34c	-0.0057911035
115	0x3cc20d22	0.023687903
116	0xbd9e60b4	-0.077332884
117	0x3ddb5253	0.107090615
118	0xbd6cfa5e	-0.057855956
119	0x3df541d5	0.11975447
120	0xbe443e6b	-0.19164436
121	0x3e905c6e	0.28195518
122	0xbdc71100	-0.09720039
123	0xbdf6b664	-0.12046507
124	0x3cf74909	0.030186193
125	0x3d47febe	0.048826925
126	0xbc2dc0f0	-0.010605082
127	0xbdb11267	-0.08646088
128	0xbe6cd693	-0.23128729
129	0xbcbe758d	-0.023249412
130	0x3d91cd10	0.07119191
131	0xbd1bd9b0	-0.0380494
132	0xbdb55e2b	-0.08855852
133	0xbe184b23	-0.14872412
134	0x3e284983	0.16434292
135	0x3d9740c2	0.073853984
136	0x3dc6b559	0.09702558
137	0xbe4db86f	-0.20089887
138	0x3d177350	0.036975205
139	0x3c937148	0.017998353
140	0x3b253368	0.0025207642
141	0xbe2638b2	-0.16232565
142	0xbe07337f	-0.13203238
143	0x3e07975f	0.13241337
144	0xbd61b938	-0.05510828
145	0x3de175f9	0.110088296
146	0x3cf64fae	0.030067291
147	0x3da8b38d	0.082373716
148	0xbd9d306e	-0.07675253
149	0xbe3e0119	-0.18555106
150	0x3db6c806	0.0892487
151	0x3e60bb06	0.21946344
152	0xbe5362b0	-0.20643115
153	0x3dc5e062	0.09661938
154	0x3e1d0da4	0.15337235
155	0x3e8962de	0.26833242
156	0xbe2dea3e	-0.16983888
157	0xbe00e8d6	-0.1258882
158	0x3db306f9	0.08741564
159	0xbd5aa664	-0.05338134
160	0xbd147dad	-0.036252666
161	0xbdb08fb5	-0.0862116
162	0x3db62352	0.088934556
163	0x3e50ef69	0.20403828
164	0x3e111f24	0.14172035
165	0xbe0c03ea	-0.13673368
166	0xbdde7718	-0.10862559
167	0x3d2d1a4d	0.04226141
168	0xbde31a4a	-0.110889986
169	0x3e8cb140	0.2747898
170	0xbd5eb33c	-0.05437015
171	0x3c841c44	0.01612676
172	0x3e1a7596	0.15083918
173	0xbe6ff90f	-0.23434852
174	0xbe056bed	-0.13029452
175	0x3d917ccc	0.07103881
176	0x3eb133c7	0.34609815
177	0xbbec2434	-0.007206464
178	0x3e482483	0.19545178
179	0xbb89b105	-0.0042020106
180	0x3d2da1cd	0.042390633
181	0xbe027160	-0.12738562
182	0x3dd4514f	0.10367071
183	0x3d56be2b	0.052427452
184	0x3c6207fb	0.013795848
185	0xbe5c4d0b	-0.21513765
186	0x3e18d56b	0.14925162
187	0xbe147383	-0.14497189
188	0x3d45aa28	0.048257977
189	0xbd48f932	-0.049065776
190	0xbe8277d9	-0.25482062
191	0xbdffac27	-0.12484007
192	0x3c0e5bab	0.008688848
193	0x3df17b5a	0.117911056
194	0x3cae7478	0.021295771
195	0x3d1e0ad1	0.038584534
196	0x3dffcc4e	0.1249014
197	0xbe6e1c4f	-0.23252986
198	0xbe28008a	-0.16406456
199	0x3e83e67d	0.25761786
200	0x3e854430	0.26028585
201	0xbe31478a	-0.17312446
202	0xbdca754f	-0.09885656
203	0xbcf9d3e0	-0.030496538
204	0xbd2e4c09	-0.04255298
205	0x3c420a86	0.011843329
206	0x3e3367db	0.17520086
207	0x3d4081d0	0.0469988
208	0x3d5470c2	0.051865347
209	0x3adef023	0.0017008822
210	0x3e1fa358	0.15589654
211	0xbd93e8c1	-0.07222129
212	0x3d01dc0b	0.03170399
213	0xbdb632fa	-0.08896442
214	0xbc92c0df	-0.017914234
215	0x3e3ba67b	0.18325226
216	0xbdabef40	-0.08395243
217	0xbcdb6335	-0.026780704
218	0xbda5fc04	-0.08104709
219	0xbc7929f0	-0.015207753
220	0xbe01247d	-0.12611575
221	0x3db42b8d	0.08797369
222	0xbd9c271c	-0.07624647
223	0xbcc20975	-0.02368615
224	0xbe34a5f7	-0.17641436
225	0xbd968bea	-0.07350905
226	0xbe73b282	-0.23798564
227	0x3e265567	0.16243516
228	0x3cda78bd	0.0266689
229	0xbdd02ec8	-0.10165173
230	0x3c805d30	0.015669435
231	0xbd3903ac	-0.045169517
232	0x3e4872c3	0.19575028
233	0xbde9a27b	-0.11407944
234	0xbc5ff550	-0.013669327
235	0xbd6843f9	-0.05670545
236	0x3d16c1f0	0.036806047
237	0xbda631d4	-0.08114973
238	0x3da80c17	0.08205431
239	0xbea698ca	-0.32538444
240	0x3d97876f	0.07398879
241	0x3b4bcbe8	0.003109688
242	0x3d1ac946	0.037789606
243	0xbd12e22b	-0.03586022
244	0x3d08ebb9	0.033427928
245	0x3e074115	0.1320842
246	0xbd31c500	-0.043400764
247	0xbe4cc710	-0.19997811
248	0x3e3ba933	0.18326263
249	0xbd9b1331	-0.0757202
250	0x3def6746	0.1168962
251	0xbe0d2e42	-0.13787177
252	0xbd92ea57	-0.07173603
253	0x3d818662	0.063244596
254	0x3d65354d	0.055959035
255	0xbcecdad6	-0.028912943

bias f4 [64]
0	0xbe481f47	-0.19543181
1	0x3e848aa9	0.2588704
2	0xbe41b1e4	-0.18915516
3	0xbe9284e4	-0.28617013
4	0x3cfda26c	0.030961238
5	0x3d917179	0.07101721
6	0xbcd32ea6	-0.02577908
7	0x3e706dd9	0.23479404
8	0x3e14db5b	0.14536802
9	0xbe393cac	-0.1808955
10	0xbe8c85a7	-0.2744572
11	0xbe8463d9	-0.25857428
12	0x3e700720	0.23440218
13	0xbe7964c8	-0.24354851
14	0xbe9e9e0a	-0.3097995
15	0x3e5c32f0	0.21503806
16	0xbd2a68e4	-0.041603938
17	0x3c8a77e5	0.016902873
18	0x3d823860	0.06358409
19	0xbcb5702e	-0.022148218
20	0x3d9deb1d	0.0771086
21	0xbc92c192	-0.017914567
22	0x3d7e2e78	0.062056035
23	0xbe521ad7	-0.20518051
24	0xbe80fa8f	-0.2519116
25	0x3eb2e3de	0.34939474
26	0xbeb4060e	-0.3516087
27	0x3e6a5df3	0.22887401
28	0x3ca7c8a5	0.020481417
29	0x3e9bde01	0.30442813
30	0xbe0e64c0	-0.1390562
31	0x3ea387d3	0.31939563
32	0x3e627811	0.22116114
33	0xbeac09d4	-0.33601248
34	0x3e77e09c	0.24206775
35	0xbdfb9b85	-0.12285522
36	0xbd99d17d	-0.0751066
37	0x3ea03870	0.31293058
38	0x3e1bd391	0.15217425
39	0x3c91e4aa	0.01780923
40	0xbe795510	-0.24348855
41	0xbd9f7fa8	-0.0778802
42	0x3dacf4cf	0.08445131
43	0xbe4a478e	-0.19753858
44	0xbd901ea9	-0.07037098
45	0xbe85ef86	-0.26159304
46	0x3e9d0e89	0.30675152
47	0xbdbfc37a	-0.09363456
48	0xbe03985d	-0.1285109
49	0x3e3a2ed8	0.18181932
50	0xbe977c65	-0.29587093
51	0xbe238a77	-0.15970789
52	0x3c313b10	0.010817304
53	0x3df97581	0.12180615
54	0xbe421ea7	-0.18957005
55	0xbe2a959e	-0.16658637
56	0xbe980d7f	-0.29697797
57	0xbe1f1034	-0.15533525
58	0x3dbb0aae	0.09132896
59	0x3e75207c	0.23938173
60	0xbd863e7e	-0.06554888
61	0x3e8d7411	0.27627614
62	0x3ea7ffa1	0.32812217
63	0x3e6e1bcc	0.23252791

weight f4 [64, 7]
0	0xbd8759f8	-0.06608957
1	0x3e464a65	0.19364317
2	0xbc106717	-0.008813641
3	0x3d0a2cdf	0.0337342
4	0x3e5e4cab	0.21708934
5	0x3dfb4592	0.12269129
6	0x3e1bfbe4	0.15232807
7	0x3da89045	0.08230642
8	0xbe073a95	-0.13205941
9	0x3d0b365a	0.03398738
10	0x3d87e927	0.06636267
11	0x3d2b3f77	0.04180857
12	0xbe20259d	-0.15639348
13	0xbe427dca	-0.18993297
14	0xbd9061ce	-0.07049905
15	0xbe0243f1	-0.1272123
16	0x3e18b685	0.14913376
17	0xbd4b7a4a	-0.04967717
18	0xbd897f7c	-0.06713769
19	0x3e5c671b	0.21523707
20	0xbc01752c	-0.007901471
21	0x3cfc16f1	0.030772658
22	0xbe10e6d5	-0.14150555
23	0xbd5d7afb	-0.05407236
24	0xbda8e0d5	-0.08246008
25	0xbe2607dd	-0.16213937
26	0xbd78f219	-0.060777757
27	0xbe201d62	-0.15636209
28	0xbdcbc26f	-0.09949195
29	0x3e8485c5	0.25883308
30	0xbbd4abb1	-0.006490194
31	0x3d2fa1c9	0.0428789
32	0xbcbbc31f	-0.02292019
33	0x3e4aef42	0.19817832
34	0xbe59631c	-0.21229213
35	0x3b437196	0.0029822341
36	0x3d0bf1af	0.034166034
37	0xbbbfd94d	-0.0058547617
38	0xbdb82ab5	-0.08992521
39	0x3e4ba03e	0.19885346
40	0x3e48dd77	0.19615732
41	0xbd2dc004	-0.04241945
42	0x3e20b4b8	0.15693939
43	0x3e071855	0.13192876
44	0x3da84324	0.08215931
45	0x3e0223e1	0.12708999
46	0xbddc3d95	-0.10753933
47	0x3cfbf524	0.03075654
48	0xbe6645d5	-0.22487576
49	0x3d5db4ed	0.054127622
50	0xbe4bbe52	-0.1989682
51	0x3dc0b1a0	0.09408879
52	0x3d6cdb90	0.05782658
53	0x3e2489d2	0.160682
54	0xbe13cdaa	-0.14433923
55	0x3d50307e	0.050827496
56	0xbd85a665	-0.06525878
57	0x3e0bacb8	0.13640106
58	0x3c6be298	0.014397286
59	0x3e329190	0.1743834
60	0x3beaaaba	0.0071614655
61	0x3c20c1ef	0.009811862
62	0x3e3cc019	0.18432654
63	0x3dcddac6	0.10051493
64	0x3e09be94	0.13451606
65	0x3d9413b8	0.072303236
66	0x3d2215af	0.03957146
67	0xbd3566a9	-0.044287357
68	0xbd3c16d8	-0.045920223
69	0xbe11bac9	-0.14231409
70	0x3d9c8882	0.07643224
71	0xbe17f208	-0.14838421
72	0x3bce3d98	0.0062939636
73	0xbda4c80b	-0.08045968
74	0x3df7f4f5	0.12107269
75	0x3e170dcf	0.14751361
76	0x3e3656b9	0.1780652
77	0x3e1cfc41	0.15330602
78	0xbe14f22a	-0.14545503
79	0xbbb1a0ad	-0.0054207654
80	0x3df0f0a3	0.11764648
81	0x3e2391ad	0.1597354
82	0xbdfc6fb2	-0.12325992
83	0x3c32189b	0.010870124
84	0x3e551ec0	0.20812511
85	0x3df49739	0.11942906
86	0x3ccd7124	0.025078364
87	0xbdd96085	-0.10614113
88	0x3d6f72a8	0.058458954
89	0x3d4e4c01	0.05036545
90	0x3deaed85	0.114710845
91	0x3dc3b81f	0.09556603
92	0x3d5fb1c1	0.05461288
93	0xbd9e2be6	-0.07723217
94	0xbd78d015	-0.060745317
95	0xbcdb3180	-0.026757002
96	0xbbcca290	-0.006244965
97	0xbdda174b	-0.10648974
98	0x3ca0460e	0.019564655
99	0xbd1b4a68	-0.037912756
100	0xbcb1b49a	-0.021692563
101	0x3d864698	0.065564334
102	0x3d42b5d6	0.047536694
103	0xbda1ea99	-0.07906074
104	0xbde2ccb5	-0.11074201
105	0x3df00f67	0.11721688
106	0x3e32e55f	0.1747031
107	0x3da9ef4b	0.08297595
108	0xbdf9c770	-0.12196243
109	0x3d908835	0.070572294
110	0x3dcccd13	0.10000052
111	0x3dd27a2e	0.1027721
112	0x3d212cd4	0.039349392
113	0x3de15ea4	0.110043794
114	0xbc8b33a1	-0.016992392
115	0x3dc83e06	0.09777455
116	0x3e2d62c2	0.16932204
117	0x3e284200	0.16431427
118	0x3e50f6f3	0.20406704
119	0x3d461e97	0.048369016
120	0xbe0289f2	-0.12747934
121	0xbcc62bf0	-0.024190873
122	0x3c939dbe	0.018019553
123	0x3e1d5448	0.15364182
124	0x3d042723	0.032263886
125	0x3e61dd11	0.22056986
126	0x3e3ff8e1	0.18747284
127	0xbdb5a359	-0.08869047
128	0x3e113ff9	0.1418456
129	0x3e2857ce	0.16439745
130	0xbd63b389	-0.05559114
131	0xbe466201	-0.19373323
132	0xbe1bf066	-0.15228423
133	0x3c0b40fc	0.00849938
134	0xbcd9ae1b	-0.026572278
135	0xbd723758	-0.05913481
136	0xbe39bc47	-0.18138228
137	0xbe193f8b	-0.14965646
138	0x3e06792e	0.13132164
139	0x3e5d2b24	0.21598488
140	0x3d4b200f	0.04959112
141	0xbd27bd7d	-0.040952194
142	0x3e1ccc91	0.15312411
143	0x3bb2f6e6	0.0054615615
144	0x3cb26b16	0.021779578
145	0x3daf0c6a	0.0854729
146	0x3de7def4	0.11321822
147	0x3ce8f0dc	0.028435163
148	0xbe2e40b8	-0.17016876
149	0xbdc03f02	-0.09387018
150	0x3e31cea4	0.17363983
151	0xbd837120	-0.06418061
152	0xbd809f70	-0.0628041
153	0xbd23730c	-0.03990464
154	0x3e2b80de	0.16748378
155	0x3e35e285	0.17762192
156	0xbd63e90c	-0.055642173
157	0xbd907c10	-0.07054913
158	0x3e5e8934	0.21732026
159	0xbe3ea367	-0.1861702
160	0xbdeb29e2	-0.11482598
161	0x3c7fda0e	0.015615953
162	0xbdd1b9d2	-0.102405205
163	0x3d06ad9e	0.032880418
164	0x3dc48c50	0.09597075
165	0x3dc3b5e6	0.09556179
166	0x3e096c4a	0.13420215
167	0xbd554421	-0.052066926
168	0x3c922452	0.017839584
169	0x3e63ae5a	0.22234479
170	0x3dbb6800	0.09150696
171	0xbe267e61	-0.16259147
172	0xbd981b30	-0.074270606
173	0x3e2ccd66	0.16875228
174	0xbe3050e9	-0.17218365
175	0x3de30d7d	0.11086557
176	0xbe52d71b	-0.20589869
177	0x3d80ef7d	0.06295679
178	0xbe16fe12	-0.14745358
179	0xbdaa45b1	-0.08314074
180	0x3e0f308d	0.13983364
181	0xbe1ad1d3	-0.15119104
182	0x3cef2f77	0.029197438
183	0x3e3e5e10	0.1859057
184	0x3d5dda7c	0.05416344
185	0xbd5a2f70	-0.053267896
186	0x3da779a9	0.08177502
187	0x3c769b98	0.015051745
188	0xbc8e6bf8	-0.017385468
189	0x3ddd232e	0.107977256
190	0xbdfad7c0	-0.12248182
191	0x3d28034b	0.041018765
192	0xbe25d418	-0.16194189
193	0xbb613848	-0.0034365822
194	0x3e1b056d	0.15138789
195	0xbdf37b25	-0.11888722
196	0xbc002989	-0.007822403
197	0xbdd701a8	-0.10498363
198	0xbddf3425	-0.10898618
199	0xbde37b1a	-0.11107464
200	0xbd4fa2ab	-0.05069224
201	0xbe614294	-0.21998054
202	0xbe57d955	-0.21079
203	0x3d68bfde	0.056823604
204	0xbd8e4d8b	-0.06948384
205	0x3e15d4ef	0.14632009
206	0x3d9d1d93	0.076716565
207	0xbb875a2f	-0.004130624
208	0x3de8bb45	0.11363844
209	0x3c9a828d	0.01886108
210	0x3c84115b	0.016121557
211	0xbe4ee587	-0.20204745
212	0x3bb2c217	0.005455266
213	0x3d1a2883	0.03763629
214	0x3df4f19d	0.119601466
215	0xbb4c33e7	-0.0031158866
216	0x3e4ab76b	0.19796531
217	0xbbe93f62	-0.0071181515
218	0x3e375749	0.1790439
219	0x3d1f88e3	0.038948905
220	0xbd4cfa50	-0.050043404
221	0xbcb54fb6	-0.022132736
222	0xbb8ea343	-0.0043529584
223	0x3ded82a2	0.11597182
224	0x3e39a21f	0.1812825
225	0x3ce269ed	0.0276384
226	0xbd694338	-0.05694887
227	0xbd1f128b	-0.038836043
228	0xbe48b395	-0.19599755
229	0xbe01668d	-0.12636776
230	0xbe40a9a2	-0.1881471
231	0x3ddc8583	0.10767653
232	0x3e391977	0.1807612
233	0xbd08d0c5	-0.033402223
234	0x3d771661	0.060324077
235	0x3d8b3a2e	0.06798206
236	0xbd36dffd	-0.044647206
237	0x3e2e8021	0.17041065
238	0x3c29cd00	0.010363817
239	0xbdf17fb2	-0.11791934
240	0x3cbfff6c	0.023437224
241	0xbdb73e64	-0.08947447
242	0x3d127b75	0.03576227
243	0xbe1e57d5	-0.15463193
244	0x3e2b48b3	0.16726951
245	0x3e0b2bac	0.13590878
246	0x3dc5daba	0.096608594
247	0xbc67a574	-0.014138568
248	0x3d8cef90	0.068816304
249	0xbd498d83	-0.04920722
250	0x3e36b850	0.17843747
251	0x3d7bdd39	0.06149027
252	0xbd90c475	-0.07068721
253	0xbbaed812	-0.005335816
254	0x3cfecada	0.031102587
255	0x3d5ef6c9	0.05443457

bias f4 [64]
0	0x3e513c17	0.20433079
1	0x3e07eea5	0.1327463
2	0x3ec42970	0.38312864
3	0xbdfe3116	-0.12411706
4	0x3e91c936	0.28473824
5	0x3e7b6afa	0.24552527
6	0x3e9cc4e6	0.30618972
7	0xbd13de53	-0.036100697
8	0xbe6dbd6a	-0.23216787
9	0xbe2bad8d	-0.16765423
10	0xbeba29d8	-0.3636005
11	0xbe924a47	-0.28572294
12	0xbe2bbe27	-0.16771756
13	0x3e8422d2	0.25807816
14	0xbe1eac79	-0.1549548
15	0x3dbb4914	0.09144798
16	0xbe3757af	-0.17904542
17	0x3e4095c1	0.18807127
18	0xbd386c31	-0.045025054
19	0x3d793fdd	0.06085192
20	0x3e3c784e	0.18405268
21	0x3ea5b9f0	0.32368422
22	0xbeb0d4f8	-0.34537482
23	0x3e006d73	0.12541752
24	0xbebf992f	-0.37421557
25	0xbe2f7651	-0.17134978
26	0xbeb690d3	-0.35657367
27	0xbe73c720	-0.23806429
28	0xbe85c17c	-0.2612418
29	0x3e46a040	0.19397068
30	0xbe2fa6dd	-0.17153497
31	0x3d0b8b17	0.034068193
32	0xbe8bdfca	-0.27319175
33	0xbe665f9f	-0.22497414
34	0xbc932800	-0.01796341
35	0xbe16f09a	-0.1474022
36	0xbe9ef031	-0.31042627
37	0x3d8f4555	0.06995646
38	0x3eb88092	0.3603559
39	0x3d8e5d9e	0.0695145
40	0xbe94182c	-0.28924692
41	0xbd52de52	-0.051481552
42	0xbe823d27	-0.2543728
43	0xbe54bfcc	-0.2077629
44	0x3b9ecbf2	0.0048460895
45	0xbeb73a10	-0.35786486
46	0xbd194a49	-0.03742436
47	0x3e095245	0.1341029
48	0x3eb5f476	0.3553807
49	0xbe4e5a64	-0.20151669
50	0x3e9c947b	0.30582032
51	0x3e958d67	0.29209444
52	0x3e7a59e6	0.24448356
53	0xbc1173e1	-0.008877725
54	0x3e61c9e2	0.22049668
55	0x3e3c6ac1	0.18400098
56	0xbe53a4f1	-0.20668389
57	0xbea2f1cd	-0.31825104
58	0x3e5e6e0c	0.21721667
59	0xbd788c8d	-0.060680915
60	0xbdfe32b4	-0.124120146
61	0x3e4ecb1f	0.20194672
62	0x3da1ee52	0.07906784
63	0xbe9991fc	-0.2999419

weight f4 [64, 4]
0	0x3c1c5112	0.009540813
1	0xbe93742d	-0.28799573
2	0xbdafd66b	-0.08585819
3	0xbd33d10d	-0.04390054
4	0x3e26f0db	0.16302817
5	0x3dc225bd	0.09479854
6	0x3e4a0753	0.19729356
7	0x3dcfae26	0.10140638
8	0xbe18abc0	-0.14909267
9	0xbe865706	-0.2623827
10	0x3d98056e	0.07422911
11	0x3e93bdc1	0.28855708
12	0xbc848e2c	-0.016181074
13	0x3e190457	0.14943062
14	0xbe2d2ab8	-0.16910827
15	0xbe2aacbb	-0.16667454
16	0x3c3e17e6	0.0116023775
17	0x3e459d2a	0.19298235
18	0x3d65e322	0.056124814
19	0xbdd96e7b	-0.106167756
20	0x3c955655	0.018229643
21	0xbe806f66	-0.2508499
22	0xbe9c9ea7	-0.30589792
23	0x3d9554f3	0.072915934
24	0x3e0fb8ab	0.14035289
25	0xbe90b2f1	-0.2826152
26	0xbe113130	-0.1417892
27	0xbdee9f9e	-0.11651538
28	0x3e7e1747	0.24813567
29	0xbe19d372	-0.15022066
30	0x3dc21fef	0.09478747
31	0xbe3a4360	-0.18189764
32	0x3e3e517e	0.18585774
33	0xbd252c79	-0.040325616
34	0x3e612291	0.21985842
35	0xbd64f1f3	-0.055894803
36	0xbe23c378	-0.15992534
37	0xbea65be9	-0.32491997
38	0xbd70d036	-0.058792315
39	0x3d8de4c7	0.069284014
40	0x3e0cf62c	0.13765782
41	0x3e51468e	0.2043707
42	0xbe2fe4f4	-0.17177182
43	0xbe46b2b7	-0.19404112
44	0xbeb15cea	-0.346412
45	0xbd88e4d3	-0.0668427
46	0xbe899773	-0.2687336
47	0xbdc07cb6	-0.09398787
48	0xbd055016	-0.03254708
49	0xbe2c06d1	-0.16799475
50	0x3e873ba2	0.26412684
51	0x3e68425d	0.22681566
52	0xbdc131ab	-0.094333015
53	0xbe073739	-0.1320466
54	0x3e6661f6	0.22498307
55	0x3e9eea59	0.31038168
56	0x3d37b8f7	0.04485413
57	0xbe8c6e3a	-0.27427846
58	0xbec2365c	-0.37932098
59	0xbe33c138	-0.17554176
60	0x3b67c1e9	0.0035363382
61	0x3e741298	0.23835218
62	0xbe5620f3	-0.20911007
63	0xbb4015ba	-0.0029309825
64	0xbe4d0928	-0.20023024
65	0xbe28b48a	-0.1647512
66	0x3e17473f	0.14773272
67	0x3e84edd1	0.2596269
68	0x3e153552	0.14571121
69	0x3c41bb0f	0.011824383
70	0xbe274ce7	-0.1633793
71	0xbe15be40	-0.14623356
72	0x3e592407	0.2120515
73	0xbc1f0602	-0.009706022
74	0x3c350bdb	0.01105019
75	0x3d515546	0.051106714
76	0xbcebb0ac	-0.028770767
77	0x3dddef52	0.10836662
78	0xbe280d82	-0.16411403
79	0xbe613210	-0.21991754
80	0xbdfe2138	-0.1240868
81	0xbe942508	-0.28934503
82	0xbe4892ef	-0.195873
83	0x3cb31a92	0.021863256
84	0xbe4d5d83	-0.20055203
85	0xbe02b815	-0.12765534
86	0xbde5b3c4	-0.11215928
87	0xbe68e4e0	-0.22743559
88	0xbd11e946	-0.035622858
89	0x3e2754bc	0.16340917
90	0xbd59474a	-0.053046502
91	0xbe23d601	-0.15999605
92	0x3e61277e	0.21987721
93	0x3e4d98fc	0.2007789
94	0x3d7308c7	0.059334543
95	0x3e6d2ccd	0.23161621
96	0xbd0367d0	-0.032081425
97	0x3e150126	0.1455122
98	0xbcb9f249	-0.022698538
99	0xbd7e0a45	-0.062021513
100	0xbcf9d9bb	-0.03049933
101	0x3cb59737	0.022166831
102	0x3df23f6c	0.11828503
103	0xbe4d6126	-0.2005659
104	0x3e2c5f5d	0.16833253
105	0x3ea23b84	0.31686032
106	0xbe1108c3	-0.14163499
107	0xba008d17	-0.00049038365
108	0x3ce61575	0.028086403
109	0x3e0c0526	0.13673839
110	0xbd0e40c6	-0.03472974
111	0x3e1fa7ec	0.15591401
112	0xbe8995a6	-0.26871985
113	0xbe3c8db8	-0.18413436
114	0x3ded82c9	0.11597211
115	0xbe3f87d4	-0.18704158
116	0xbd875b45	-0.06609205
117	0xbdb7bd6e	-0.08971678
118	0xbe32e6da	-0.17470875
119	0x3e39da2b	0.1814963
120	0x3d9e654e	0.07734166
121	0x3bf13782	0.0073613534
122	0x3e4ab05f	0.19793843
123	0xbd99ab5c	-0.07503387
124	0xbea9e087	-0.33179113
125	0x3e24e07f	0.16101263
126	0xbea117d5	-0.31463495
127	0xbde460d1	-0.11151279
128	0x3e57b905	0.21066673
129	0xbe749a1f	-0.23886918
130	0x3d7a1b66	0.061061285
131	0xbe3e9f2b	-0.18615405
132	0xbd536278	-0.05160758
133	0x3e91a9e4	0.2844993
134	0x3df01b3b	0.11723944
135	0x3d79b3b7	0.060962405
136	0x3df3e33a	0.119085744
137	0x3dd0f8a7	0.10203677
138	0x3e2d88bd	0.16946693
139	0xbe332016	-0.17492709
140	0xbded3100	-0.11581612
141	0x3e051993	0.12998037
142	0xbe7e43e2	-0.24830583
143	0x3e01d6c3	0.12679581
144	0xbe345e75	-0.17614157
145	0x3e0ff6a0	0.14058924
146	0x3e680b57	0.22660576
147	0x3d9b5994	0.07585445
148	0xbe4bb824	-0.19894463
149	0xbe115e1b	-0.14196055
150	0xbe2282d7	-0.15870224
151	0x3e5cb0c5	0.21551807
152	0xbd79236c	-0.060824797
153	0x3da3c63f	0.07996797
154	0xbb00e72a	-0.0019669035
155	0x3a32e727	0.00068246055
156	0x3dc6bac4	0.097035915
157	0x3bb163e8	0.005413521
158	0xbe13fefd	-0.14452739
159	0xbda7ebe0	-0.081992865
160	0x3e7de4f1	0.24794365
161	0xbe3545c8	-0.177024
162	0x3e904e7f	0.28184888
163	0xbe472ab3	-0.19449882
164	0xbd53b976	-0.05169054
165	0xbe538029	-0.20654358
166	0xbc42f500	-0.011899233
167	0x3e0ee3a7	0.1395403
168	0xbcb34075	-0.021881321
169	0x3e7969eb	0.24356811
170	0x3dfab006	0.12240605
171	0xbe455848	-0.19271958
172	0xbe5d514a	-0.2161304
173	0x3e7c9b2f	0.24668573
174	0xbd24544a	-0.040119447
175	0x3d5913d8	0.05299744
176	0xbd73fb3f	-0.05956578
177	0x3e75e812	0.24014309
178	0x3d8971e4	0.06711176
179	0xbe3e6be4	-0.18595845
180	0xbe342d54	-0.17595416
181	0xbe663d40	-0.22484303
182	0x3b8cee4c	0.004300868
183	0x3d8e658e	0.06952964
184	0xbe310b3e	-0.17289445
185	0x3e8022ba	0.25026494
186	0xbdcaa72a	-0.09895165
187	0x3ea0470b	0.313042
188	0x3e8f9b8b	0.28048357
189	0x3e164825	0.14675958
190	0x3e8b8140	0.27247047
191	0xbbaade3c	-0.0052144807
192	0xbda69736	-0.0813431
193	0xbde6d700	-0.11271477
194	0x3c8870e9	0.016655402
195	0xbe4528a2	-0.19253781
196	0xbe435cf9	-0.19078435
197	0xbe8ea07d	-0.27856818
198	0xbda5f664	-0.08103636
199	0x3c083cfc	0.008315321
200	0x3d1af2f3	0.03782935
201	0x3d80486f	0.062638156
202	0xbdce519f	-0.10074162
203	0xbe41829e	-0.18897483
204	0x3e1e3363	0.1544929
205	0x3dd1befc	0.102415055
206	0x3da52dd0	0.08065379
207	0xbe1a9143	-0.15094475
208	0x3e7a7541	0.24458791
209	0xbe640bfd	-0.22270198
210	0xbdbfadd9	-0.09359331
211	0x3df7b405	0.12094883
212	0xbe819f7a	-0.25316983
213	0xbdb0e861	-0.08638073
214	0xbe062f5f	-0.13104008
215	0x3e395fb0	0.18102908
216	0x3dee5f41	0.11639262
217	0xbe8bbc5a	-0.27292138
218	0x3e466d14	0.19377548
219	0xbdff5aaa	-0.12468465
220	0xbd91cdc3	-0.07119324
221	0xbd9d5d48	-0.076838076
222	0xbddb0fb4	-0.106963545
223	0x3e524252	0.20533112
224	0x3e7a005f	0.24414204
225	0x3e9d7e78	0.3076055
226	0x3e767913	0.24069624
227	0x3e942435	0.28933874
228	0x3e274196	0.16333613
229	0x3e066eb1	0.13128163
230	0x3c57238c	0.013131034
231	0xbe90fb48	-0.28316712
232	0xbe18cb36	-0.14921269
233	0x3e1ecdca	0.1550819
234	0xbd4c1f00	-0.04983425
235	0x3e64a6a0	0.22329187
236	0x3cbbfafc	0.022946827
237	0xbd096b4e	-0.0335496
238	0xbe1d9637	-0.15389334
239	0x3e4b49f1	0.19852425
240	0xbe9c79f2	-0.30561787
241	0xbe763cc6	-0.2404662
242	0xbe7173c5	-0.23579319
243	0xbe0185af	-0.12648652
244	0x3e10c458	0.14137399
245	0xbdde214b	-0.10846194
246	0xbdfe64cf	-0.124215715
247	0x3dbb8511	0.0915624
248	0x3e23a3e1	0.15980484
249	0x3e027bf5	0.12742598
250	0x3d3200d3	0.043457817
251	0xbe171d7d	-0.14757343
252	0xbda9e0dc	-0.08294842
253	0xbcb86ccc	-0.022512816
254	0xbe5c4bcb	-0.21513288
255	0xbdcdff54	-0.100584656

bias f4 [64]
0	0xbe722de3	-0.23650317
1	0xbea86db7	-0.32896206
2	0x3ebf8694	0.37407362
3	0xbee49505	-0.44644943
4	0x3f0ea233	0.55716246
5	0xbe99ef23	-0.3006526
6	0xbe1e1889	-0.15439047
7	0xbee37474	-0.44424784
8	0xbdbaedff	-0.091274254
9	0xbd4e69a0	-0.0503937
10	0x3e92f707	0.28704092
11	0x3eccf6cc	0.4003204
12	0xbe7ee375	-0.24891455
13	0xbce3a7af	-0.027789919
14	0xbed3661d	-0.41288844
15	0x3e52d87a	0.20590392
16	0x3e862420	0.26199436
17	0x3e09bc56	0.1345075
18	0x3dfd3511	0.12363637
19	0x3e681b92	0.22666767
20	0xbef0594f	-0.46943137
21	0x3ea9a25c	0.33131683
22	0x3e2a5d6e	0.16637203
23	0xbdfcc746	-0.12342696
24	0x3e500c0d	0.20317097
25	0xbeb9b705	-0.36272445
26	0xbd265fbb	-0.04061864
27	0x3ca84421	0.020540299
28	0x3e43b113	0.19110517
29	0x3e4e57e8	0.20150721
30	0x3ea5f2ee	0.32411903
31	0xbda62a91	-0.08113588
32	0x3f078ebc	0.5295217
33	0xbc83cd41	-0.016089084
34	0x3e853d63	0.26023397
35	0xbe9cd27e	-0.30629343
36	0x3eb8eeb2	0.3611961
37	0x3ef96b25	0.48714557
38	0x3dd45c3e	0.10369156
39	0x3e666725	0.22500284
40	0xbd827220	-0.06369424
41	0xbe269816	-0.16268954
42	0x3ed20f7f	0.41027448
43	0x3ee9f337	0.4569337
44	0xbedceaa3	-0.43147764
45	0x3eba496b	0.36384138
46	0xbec9c87a	-0.39410764
47	0xbe81ab5a	-0.25326043
48	0x3ceb83bb	0.028749337
49	0xbec764d9	-0.38944128
50	0x3e85e590	0.26151705
51	0x3edf0dae	0.43565124
52	0xbdd30ea8	-0.1030553
53	0x3de1c598	0.11024016
54	0x3ea9dd64	0.3317672
55	0xbedf1029	-0.43567017
56	0xbd509498	-0.05092296
57	0xb9bdb9b1	-0.0003618724
58	0x3d990633	0.074718855
59	0x3da7c032	0.08190955
60	0xbedb9e6e	-0.4289431
61	0x3c8e7b5e	0.01739281
62	0x3e081da4	0.13292557
63	0xbe685e5a	-0.22692242

weight f4 [64, 2]
0	0xbe73f052	-0.23822144
1	0x3e8364bf	0.256628
2	0xbdb40bba	-0.08791299
3	0xbe1de9f5	-0.15421279
4	0xbdaa258a	-0.08307941
5	0x3dfc8e0d	0.123317815
6	0xbe97e6fe	-0.2966842
7	0x3dd95b98	0.10613173
8	0x3e2328e7	0.15933572
9	0x3a61dbfc	0.0008615849
10	0xbe3990b9	-0.18121614
11	0x3c5c8ec5	0.013461773
12	0xbe91be43	-0.2846547
13	0x3e151242	0.14557746
14	0x3e2c1a5c	0.1680693
15	0x3d3089cf	0.043100175
16	0x3dc429f8	0.095783174
17	0x3e1e6104	0.15466696
18	0x3cdc4ce0	0.026892126
19	0xbdde1ab4	-0.10844937
20	0xbe805cee	-0.250709
21	0xbb61ea0f	-0.0034471785
22	0x3e2ced17	0.16887318
23	0x3dfdb909	0.12388808
24	0x3dc22db3	0.09481373
25	0x3cc45548	0.023966447
26	0x3e8a101c	0.26965415
27	0x3e35d902	0.17758563
28	0xbe4e894e	-0.20169565
29	0xbd8813e5	-0.066444196
30	0xbe40689e	-0.18789908
31	0x3daf2597	0.085520916
32	0xbdef1f04	-0.11675838
33	0x3d56e969	0.05246869
34	0xbe8f7d9c	-0.2802552
35	0xbdcf9ff5	-0.10137931
36	0x3e0b033f	0.13575457
37	0xbdbab9ee	-0.091174945
38	0xbdfba2ae	-0.12286888
39	0x3e227a72	0.15867022
40	0x3c24d164	0.010059688
41	0xbda1c330	-0.07898557
42	0x3da5adc3	0.08089783
43	0xbe5d9eb3	-0.2164257
44	0x3e61cdbe	0.2205114
45	0x3e0db4cf	0.13838504
46	0x3e728826	0.23684749
47	0x3c84c136	0.016205411
48	0xbe42980f	-0.19003318
49	0xbe735ba0	-0.23765421
50	0x3ba08704	0.0048989076
51	0x3e4a4593	0.19753103
52	0xbe372939	-0.17886819
53	0x3e73f08f	0.23822235
54	0xbe8ab92c	-0.270944
55	0xbda2e451	-0.07953704
56	0x3d763d3c	0.06011699
57	0xbe238c77	-0.15971552
58	0xbe62d7fd	-0.22152705
59	0x3dadfd33	0.084955595
60	0x3e14d648	0.14534867
61	0xbd963109	-0.073335715
62	0x3e9f9b53	0.3117319
63	0xbd788155	-0.060670216
64	0x3e819d4d	0.25315323
65	0x3b97b89c	0.0046301614
66	0x3de3d905	0.111253776
67	0x3db7a16b	0.08966335
68	0xbdebc8db	-0.115129195
69	0x3d9f1584	0.07767776
70	0xbe283922	-0.16428044
71	0x3e1696fd	0.14706035
72	0xbe5aa1e8	-0.21350825
73	0x3e82755a	0.25480157
74	0xbdbf52a0	-0.09341931
75	0xbd215be8	-0.03939429
76	0xbd4c177b	-0.04982708
77	0x3e47d1a9	0.19513573
78	0xbd8bd741	-0.06828166
79	0x3e857f86	0.26073855
80	0x3c4b59ee	0.012411578
81	0xbd7ddf8d	-0.061980773
82	0x3d398a82	0.045298107
83	0x3e2b86c4	0.16750628
84	0x3e3d9080	0.18512154
85	0x3c17e44e	0.009270741
86	0x3e2ae67d	0.16689487
87	0xbe39327e	-0.18085667
88	0xbe22f005	-0.15911873
89	0x3e1270f1	0.14300896
90	0xbde800f1	-0.113283046
91	0xbe357be8	-0.17723048
92	0x3e48cd2b	0.19609515
93	0x3e286363	0.16444163
94	0x3c502f2f	0.012706562
95	0xbcad88ec	-0.021183454
96	0x3e15b089	0.14618124
97	0x3e0293fd	0.12751766
98	0xbe41bfd2	-0.1892083
99	0xbc973052	-0.018455658
100	0xbcd42079	-0.02589439
101	0x3e259155	0.16168721
102	0xbe34874c	-0.17629737
103	0xbdcbaca6	-0.099450395
104	0x3eb32437	0.34988567
105	0x3cebcb2e	0.028783407
106	0xbe260ff7	-0.16217028
107	0xbe0436bf	-0.12911509
108	0xbd4d164f	-0.050070103
109	0xbd870c37	-0.06594127
110	0xbe585c7a	-0.21129027
111	0x3bebc775	0.007195408
112	0x3e3e7d70	0.18602538
113	0x3e282132	0.16418913
114	0xbe075305	-0.13215263
115	0xbcb5e904	-0.022205837
116	0x3d8b8e71	0.06814278
117	0x3e3a3a12	0.18186215
118	0x3e0242cf	0.12720798
119	0xbc1e0e8f	-0.009647026
120	0xbb37c5ea	-0.002804155
121	0xbe33b916	-0.17551073
122	0xbc015f55	-0.007896264
123	0x3d6ec2c7	0.058291223
124	0xbd2c4a30	-0.04206294
125	0x3db62432	0.088936225
126	0x3e5cabde	0.21549937
127	0x3e54211c	0.20715755

bias f4 [64]
0	0x3f12b3a3	0.57305354
1	0xbef33b13	-0.47506008
2	0x3e37188a	0.17880455
3	0xbf088c81	-0.5333939
4	0x3e397792	0.18112019
5	0xbf107180	-0.5642319
6	0xbef50da2	-0.47861964
7	0xbef866a7	-0.48515818
8	0xbe97e6b1	-0.2966819
9	0x3f02ece4	0.51142716
10	0xbcc79c22	-0.024366442
11	0x3d4ae712	0.049536772
12	0xbef15563	-0.47135457
13	0x3e506cea	0.20354047
14	0xbf18ef03	-0.597397
15	0xbe891005	-0.26770034
16	0x3eb80673	0.3594242
17	0xbeb81d4a	-0.35959846
18	0xbd594866	-0.05304756
19	0x3e6c2345	0.2306033
20	0xbeac6033	-0.33667144
21	0xbdf05e2b	-0.11736711
22	0x3e7ae10e	0.24499914
23	0xbc884874	-0.01663611
24	0xbc1e2135	-0.009651472
25	0x3ed139ac	0.40864313
26	0xbf2a62da	-0.66557086
27	0xbe929d29	-0.2863553
28	0x3deec90d	0.11659441
29	0x3da9c5f5	0.082897104
30	0x3eefc5a5	0.46830478
31	0x3f16bdd3	0.588834
32	0xbe68075b	-0.22659056
33	0x3e8a97cc	0.27068937
34	0x3f39d94e	0.72597206
35	0xbb498ebc	-0.0030755242
36	0x3d6f12f1	0.058367673
37	0x3ed2e008	0.41186547
38	0x3e027cb1	0.12742878
39	0xbf0241fa	-0.5088192
40	0x3efe29d5	0.4964129
41	0xbede5288	-0.4342234
42	0xbf066a32	-0.5250579
43	0xbee922ce	-0.45534366
44	0x3e760eaf	0.24029039
45	0xbec72f5f	-0.3890333
46	0x3f3992a2	0.7248937
47	0x3ead6c4b	0.33871683
48	0x3f02babb	0.5106618
49	0x3dfdac0a	0.123863295
50	0x3e9029ce	0.28156894
51	0x3eb7b2af	0.35878512
52	0x3e9018f3	0.28144035
53	0xbf30ad3d	-0.6901434
54	0xbf3a03b8	-0.72661924
55	0xbf2e1b26	-0.68010175
56	0x3f19fde3	0.60153025
57	0x3ea959bb	0.3307627
58	0xbf01bd19	-0.50679165
59	0x3f08c53c	0.53425956
60	0xbf2257f6	-0.6341547
61	0x3ef07310	0.46962786
62	0x3f28a739	0.6588016
63	0x3eac1dea	0.33616573

weight f4 [64]
0	0x3f671a0b	0.90274113
1	0x3f7934ac	0.97345996
2	0x3f518b1c	0.8185289
3	0x3f6d0e6e	0.9260014
4	0x3f6aad8b	0.91671056
5	0x3f5234d4	0.8211186
6	0x3f69e308	0.9136205
7	0x3f63987f	0.88904566
8	0x3f5ee8ed	0.87074167
9	0x3f5edc25	0.87054664
10	0x3f75fb42	0.96086514
11	0x3f4c3992	0.79775345
12	0x3f588a7b	0.84586304
13	0x3f5b4303	0.85649127
14	0x3f770d7d	0.96504956
15	0x3f52ad33	0.8229553
16	0x3f563e6d	0.83689004
17	0x3f4c61c8	0.798367
18	0x3f58a2f6	0.8462366
19	0x3f5f7915	0.8729413
20	0x3f794879	0.9737621
21	0x3f663ce4	0.8993666
22	0x3f483950	0.7821245
23	0x3f642435	0.8911775
24	0x3f461a5b	0.77383965
25	0x3f5cb5f7	0.86215156
26	0x3f6fec60	0.93720055
27	0x3f49b6b4	0.7879441
28	0x3f429b45	0.7601817
29	0x3f532f16	0.8249372
30	0x3f4c444e	0.79791725
31	0x3f7ed45a	0.9954277
32	0x3f507499	0.81427914
33	0x3f5c09b9	0.85952336
34	0x3f82919e	1.0200689
35	0x3f4a8a84	0.7911761
36	0x3f714e9f	0.9426059
37	0x3f577383	0.8416063
38	0x3f6891e1	0.90847594
39	0x3f520d59	0.82051617
40	0x3f52b906	0.82313573
41	0x3f69112e	0.9104184
42	0x3f60e7f8	0.87853956
43	0x3f36d6c0	0.7142143
44	0x3f4641e4	0.7744429
45	0x3f4cf1a1	0.80056196
46	0x3f6b9106	0.92018163
47	0x3f5e0678	0.8672862
48	0x3f45de43	0.7729227
49	0x3f49f983	0.7889635
50	0x3f5eb05d	0.8698786
51	0x3f5ef9cf	0.8709993
52	0x3f550a41	0.8321877
53	0x3f751d36	0.957477
54	0x3f7423df	0.95367235
55	0x3f644636	0.89169633
56	0x3f71fe95	0.94529086
57	0x3f555ef2	0.83348
58	0x3f43e828	0.7652612
59	0x3f68525c	0.9075067
60	0x3f7d2660	0.9888668
61	0x3f5be8e6	0.8590225
62	0x3f5c8913	0.8614666
63	0x3f58ee13	0.8473827

bias f4 [64]
0	0x3db06011	0.08612073
1	0x3b2a175f	0.0025953872
2	0xbc8f7b1f	-0.017514763
3	0x3dadc329	0.084844895
4	0x39df0362	0.00042536395
5	0x3d7cfb0c	0.061762854
6	0x3c0efc5c	0.008727159
7	0x3c72ef93	0.014827627
8	0xbceae835	-0.028675178
9	0xbd493fe6	-0.049133204
10	0x3ca8ae1a	0.02059083
11	0xbd8d6770	-0.06904495
12	0x3db5260a	0.08845146
13	0xbcb8b6ec	-0.022548161
14	0x3db555ba	0.08854242
15	0x3d1c8576	0.038213216
16	0xbd08e0cb	-0.033417504
17	0x3ce5cca9	0.028051691
18	0x3d8715d8	0.06595963
19	0xbdf3182d	-0.118698455
20	0xbb8e49ba	-0.004342285
21	0xbdd3e93b	-0.103472196
22	0xbe0517ca	-0.12997356
23	0xbdd059f5	-0.10173408
24	0xbcdb8eea	-0.026801545
25	0x3c6d5916	0.014486572
26	0x3d979ea7	0.074033074
27	0x3c792c2b	0.015208284
28	0x3d728c49	0.059215818
29	0xbc6c5a18	-0.014425777
30	0xbd0b01fa	-0.033937432
31	0xbd717e4e	-0.058958344
32	0x3cdc1176	0.026863795
33	0xbc40d51e	-0.011769561
34	0xbd5dde1f	-0.05416691
35	0xbd1593b3	-0.03651781
36	0x3cfe8b00	0.03107214
37	0xbc9fa3f2	-0.019487355
38	0xbd8b5ddc	-0.06805012
39	0x3d679407	0.056537654
40	0x3d7ccb8b	0.06171755
41	0x3d8a98f5	0.067674555
42	0xbc08f48a	-0.008359084
43	0xbbfc6ed0	-0.0077036396
44	0x3d3b5bb1	0.04574174
45	0x3c354b19	0.011065268
46	0xbc19d303	-0.009388688
47	0xbd85f56c	-0.06540951
48	0x3b3954b4	0.0028279247
49	0x3de953c3	0.113929294
50	0xbdc3423c	-0.095341176
51	0xbd4e60f0	-0.050385416
52	0xbc26b235	-0.010174324
53	0x3d169ebe	0.036772482
54	0x39dc23ba	0.00041988288
55	0x3df1ecc8	0.118127406
56	0xbc9185f9	-0.017764078
57	0x3d679c8d	0.056545783
58	0xbd0c051c	-0.03418456
59	0xbd1458db	-0.03621755
60	0x3d888980	0.06666851
61	0xbe2029a3	-0.15640883
62	0x3bef003a	0.007293728
63	0x3d856294	0.06512943

pe f4 [1, 189, 64]
0	0x00000000	0.0
1	0x3f800000	1.0
2	0x00000000	0.0
3	0x3f800000	1.0
4	0x00000000	0.0
5	0x3f800000	1.0
6	0x00000000	0.0
7	0x3f800000	1.0
8	0x00000000	0.0
9	0x3f800000	1.0
10	0x00000000	0.0
11	0x3f800000	1.0
12	0x00000000	0.0
13	0x3f800000	1.0
14	0x00000000	0.0
15	0x3f800000	1.0
16	0x00000000	0.0
17	0x3f800000	1.0
18	0x00000000	0.0
19	0x3f800000	1.0
20	0x00000000	0.0
21	0x3f800000	1.0
22	0x00000000	0.0
23	0x3f800000	1.0
24	0x00000000	0.0
25	0x3f800000	1.0
26	0x00000000	0.0
27	0x3f800000	1.0
28	0x00000000	0.0
29	0x3f800000	1.0
30	0x00000000	0.0
31	0x3f800000	1.0
32	0x00000000	0.0
33	0x3f800000	1.0
34	0x00000000	0.0
35	0x3f800000	1.0
36	0x00000000	0.0
37	0x3f800000	1.0
38	0x00000000	0.0
39	0x3f800000	1.0
40	0x00000000	0.0
41	0x3f800000	1.0
42	0x00000000	0.0
43	0x3f800000	1.0
44	0x00000000	0.0
45	0x3f800000	1.0
46	0x00000000	0.0
47	0x3f800000	1.0
48	0x00000000	0.0
49	0x3f800000	1.0
50	0x00000000	0.0
51	0x3f800000	1.0
52	0x00000000	0.0
53	0x3f800000	1.0
54	0x00000000	0.0
55	0x3f800000	1.0
56	0x00000000	0.0
57	0x3f800000	1.0
58	0x00000000	0.0
59	0x3f800000	1.0
60	0x00000000	0.0
61	0x3f800000	1.0
62	0x00000000	0.0
63	0x3f800000	1.0
64	0x3f576aa4	0.84147096
65	0x3f0a5141	0.54030234
66	0x3f2e7ace	0.68156135
67	0x3f3b54b0	0.731761
68	0x3f087dba	0.53316844
69	0x3f58940d	0.8460091
70	0x3ed190f1	0.40930894
71	0x3f6992c6	0.91239583
72	0x3e9f393e	0.3109836
73	0x3f734e6b	0.9504153
74	0x3e708f25	0.23492105
75	0x3f78d5f1	0.9720145
76	0x3e35233a	0.17689219
77	0x3f7bf683	0.9842302
78	0x3e0825f3	0.13295726
79	0x3f7dba28	0.99112177
80	0x3dcc7576	0.099833414
81	0x3f7eb898	0.9950042
82	0x3d996f36	0.07491915
83	0x3f7f47d1	0.9971896
84	0x3d6636ae	0.05620449
85	0x3f7f9868	0.9984193
86	0x3d2cacfa	0.04215715
87	0x3f7fc5bd	0.999111
88	0x3d01815b	0.031617504
89	0x3f7fdf3c	0.99950004
90	0x3cc23ea5	0.023711512
91	0x3f7fed93	0.99971884
92	0x3c91ab42	0.017781857
93	0x3f7ff5a3	0.99984187
94	0x3c5a7a49	0.013334819
95	0x3f7ffa2c	0.99991107
96	0x3c23d657	0.009999833
97	0x3f7ffcb9	0.99995
98	0x3bf5b916	0.0074988706
99	0x3f7ffe28	0.99997187
100	0x3bb8445a	0.0056233825
101	0x3f7ffef7	0.9999842
102	0x3b8a2e5a	0.0042169513
103	0x3f7fff6b	0.9999911
104	0x3b4f3e1c	0.0031622713
105	0x3f7fffac	0.999995
106	0x3b1b6903	0.0023713715
107	0x3f7fffd1	0.9999972
108	0x3ae91520	0.0017782785
109	0x3f7fffe6	0.99999845
110	0x3aaec98b	0.0013335211
111	0x3f7ffff1	0.9999991
112	0x3a83126d	0.0009999998
113	0x3f7ffff8	0.9999995
114	0x3a449489	0.000749894
115	0x3f7ffffb	0.9999997
116	0x3a136a13	0.0005623411
117	0x3f7ffffd	0.9999998
118	0x39dd1721	0.00042169637
119	0x3f7fffff	0.99999994
120	0x39a5cb61	0.00031622782
121	0x3f7fffff	0.99999994
122	0x3978a80d	0.00023713727
123	0x3f800000	1.0
124	0x393a7753	0.00017782794
125	0x3f800000	1.0
126	0x390bd46d	0.00013335208
127	0x3f800000	1.0
128	0x3f68c7b7	0.9092974
129	0xbed51133	-0.41614684
130	0x3f7f5ad9	0.99748
131	0x3d914d53	0.070948265
132	0x3f66f20a	0.9021307
133	0x3edce8b2	0.43146282
134	0x3f3f3512	0.74690354
135	0x3f2a3902	0.66493237
136	0x3f17541b	0.5911271
137	0x3f4e7bec	0.8065784
138	0x3ee9d3b5	0.45669332
139	0x3f63be69	0.8896242
140	0x3eb247f6	0.34820527
141	0x3f6ffaa6	0.93741834
142	0x3e86f082	0.26355368
143	0x3f76f2f5	0.96464473
144	0x3e4b6ff8	0.19866931
145	0x3f7ae5a5	0.9800666
146	0x3e1900d3	0.1494172
147	0x3f7d204f	0.98877424
148	0x3de5d986	0.1122313
149	0x3f7e61f3	0.9936821
150	0x3dac85ae	0.08423935
151	0x3f7f170e	0.99644554
152	0x3d8170c8	0.063203394
153	0x3f7f7cf9	0.9980007
154	0x3d4230aa	0.04740969
155	0x3f7fb64e	0.9988755
156	0x3d11a55c	0.03555809
157	0x3f7fd68e	0.9993676
158	0x3cda7550	0.026667267
159	0x3f7fe8b1	0.99964434
160	0x3ca3d43e	0.019998666
161	0x3f7ff2e5	0.9998
162	0x3c75b751	0.014997319
163	0x3f7ff8a1	0.9998875
164	0x3c38439b	0.011246587
165	0x3f7ffbdb	0.99993676
166	0x3c0a2e0a	0.008433828
167	0x3f7ffdab	0.9999644
168	0x3bcf3dd8	0.006324511
169	0x3f7ffeb1	0.99998003
170	0x3b9b68e7	0.00474273
171	0x3f7fff43	0.99998873
172	0x3b691508	0.0035565514
173	0x3f7fff96	0.9999937
174	0x3b2ec980	0.0026670396
175	0x3f7fffc4	0.9999964
176	0x3b031268	0.0019999985
177	0x3f7fffdf	0.99999803
178	0x3ac49485	0.0014997876
179	0x3f7fffed	0.99999887
180	0x3a936a12	0.0011246821
181	0x3f7ffff5	0.99999934
182	0x3a5d171f	0.0008433926
183	0x3f7ffffa	0.99999964
184	0x3a25cb60	0.0006324556
185	0x3f7ffffd	0.9999998
186	0x39f8a80c	0.0004742745
187	0x3f7ffffe	0.9999999
188	0x39ba7753	0.00035565588
189	0x3f7fffff	0.99999994
190	0x398bd46d	0.00026670416
191	0x3f800000	1.0
192	0x3e1081c3	0.14112
193	0xbf7d7026	-0.9899925
194	0x3f473cde	0.7782725
195	0xbf20bfce	-0.6279267
196	0x3f7e45d7	0.9932532
197	0xbded7fab	-0.11596616
198	0x3f742163	0.95363444
199	0x3e9a1863	0.3009673
200	0x3f5009c2	0.8126489
201	0x3f152f58	0.58275366
202	0x3f2724b7	0.652904
203	0x3f41e7a2	0.7574407
204	0x3f022f6c	0.5085361
205	0x3f5c6d29	0.86104065
206	0x3ec768a7	0.3894703
207	0x3f6bc937	0.92103904
208	0x3e974e6c	0.2955202
209	0x3f7490ef	0.9553365
210	0x3e646de2	0.22307542
211	0x3f798c92	0.9748012
212	0x3e2beed7	0.16790329
213	0x3f7c5d9e	0.9858035
214	0x3e01332c	0.12617177
215	0x3f7df443	0.9920084
216	0x3dc1ffc0	0.094726086
217	0x3f7ed94f	0.99550337
218	0x3d919306	0.071081206
219	0x3f7f5a3a	0.9974705
220	0x3d5a694e	0.053323083
221	0x3f7fa2c3	0.9985773
222	0x3d23d1c5	0.039994974
223	0x3f7fcb90	0.99919987
224	0x3cf5b91f	0.0299955
225	0x3f7fe283	0.99955004
226	0x3cb84747	0.022494925
227	0x3f7fef6b	0.999747
228	0x3c8a31c6	0.016869437
229	0x3f7ff6ad	0.9998577
230	0x3c4f4446	0.012650555
231	0x3f7ffac1	0.99991995
232	0x3c1b6e0d	0.009486687
233	0x3f7ffd0d	0.999955
234	0x3be91d13	0.0071140616
235	0x3f7ffe58	0.9999747
236	0x3baecfa8	0.005334813
237	0x3f7fff11	0.99998575
238	0x3b831713	0.0040005534
239	0x3f7fff7a	0.999992
240	0x3b449b92	0.0029999954
241	0x3f7fffb5	0.9999955
242	0x3b136f60	0.0022496805
243	0x3f7fffd6	0.9999975
244	0x3add1f17	0.0016870227
245	0x3f7fffe8	0.99999857
246	0x3aa5d156	0.0012650888
247	0x3f7ffff3	0.9999992
248	0x3a78b110	0.00094868336
249	0x3f7ffff9	0.9999996
250	0x3a3a7e09	0.00071141176
251	0x3f7ffffc	0.99999976
252	0x3a0bd97e	0.0005334838
253	0x3f7ffffe	0.9999999
254	0x39d1bea4	0.00040005625
255	0x3f7fffff	0.99999994
