data/train_data/td_best_model.pt (torch, 508253 bytes, 31 tensors)

att_weights f4 [5]
1.0519063 0.9445188 0.9501375 1.0102108 0.9937682
00000000: dea4 863f fccb 713f 363c 733f 964e 813f
00000010: 9867 7e3f

weight f4 [64, 4]
-0.13392974 0.07150663 -0.22144479 0.034699377 0.12763716 -0.28485122 0.06502527 -0.12274403
0.119299136 0.22279309 -0.11740706 -0.21454023 0.2996607 0.14910999 -0.26184934 -0.25117475
-0.18187797 0.3038593 0.2932455 -0.082353264 -0.055652972 0.15398195 -0.2324867 -0.11006227
0.23551358 -0.044699803 0.08444765 0.20937523 0.13328797 -0.12567315 0.085413724 -0.2717914
0.28950614 0.021052493 0.30920938 0.09149326 0.25300455 -0.045463037 0.26191396 -0.17144851
-0.11272403 0.19488606 0.31089595 -0.15713729 -0.27403298 -0.20514487 -0.13332647 -0.04647433
-0.20216824 -0.29101995 -0.07540883 -0.2829028 0.15533581 0.0018924102 -0.06569962 0.029424667
0.2034059 -0.14591178 0.2698148 -0.15349707 -0.15720691 -0.2636767 -0.05219901 0.10729691
0.12152107 -0.22395195 0.05477964 -0.05148723 0.031439573 -0.18469682 0.028486196 -0.02578091
-0.2667857 -0.15802272 -0.1084008 0.10631202 0.31765118 0.17069168 0.16078651 -0.20175777
0.06435258 0.0744935 0.016105793 0.0903162 -0.06526098 -0.22746052 0.17638072 -0.30301112
-0.17839982 0.26652762 -0.18514164 -0.22522716 0.2813718 -0.15628569 -0.1892963 0.07242429
0.25493744 -0.008958341 -0.034562837 0.26825315 0.2175452 0.32142773 -0.021806069 0.15687294
0.16979386 -0.21163 0.05908712 0.008103628 -0.08725443 -0.0023630208 0.2744301 -0.00923198
0.08237279 -0.20797591 0.053948063 -0.08608825 0.1872317 0.093014 0.26696762 -0.07113117
0.020350402 0.2509701 0.1499922 0.013226766 -0.2131733 -0.08664652 0.113634795 0.00371643
0.19777218 -0.19778162 0.30416292 0.118144386 -0.034793492 0.25865504 0.28080505 0.18550307
0.2783417 0.26287234 0.30180648 -0.05167431 -0.2446094 0.15634878 -0.25485376 -0.019904817
-0.28544888 0.05943183 0.2222167 -0.0850241 -0.03610052 0.20191981 0.27666005 -0.08091389
-0.19496977 0.10500966 -0.056659814 -0.07917578 0.041656096 0.21990533 -0.10470304 -0.09408486
-0.16194132 -0.045997176 0.26039562 0.2663525 -0.30495483 0.1863533 -0.24863698 -0.236102
0.15571775 -0.28173104 -0.104915746 -0.050819922 -0.014664825 -0.15793829 0.25153205 0.05898095
0.1398496 0.13395458 0.21626627 0.011465996 -0.116687104 0.06516603 0.00914711 -0.23142861
-0.03305773 -0.031920504 -0.18553323 -0.14022674 -0.26285914 0.2838712 0.10018676 0.08349253
0.120713055 0.080020845 -0.17951927 -0.1616967 0.1842477 -0.31266555 -0.29493943 -0.12228512
0.19749221 0.20474185 -0.15920702 -0.14685236 0.30190518 0.26726234 0.17976573 0.23511617
0.06581122 -0.10823113 -0.1855709 -0.19523685 0.22371289 -0.21781944 0.09205851 0.15885426
-0.26164797 0.0009843087 -0.056875695 0.028000144 0.22729935 -0.044141117 0.035885975 -0.13925251
-0.02922553 -0.0099722985 0.11186039 -0.21397412 0.18268795 0.008494534 -0.14177932 -0.24008182
-0.1881869 0.1370955 -0.031734575 -0.24388315 -0.08985033 -0.285808 0.25749245 0.1493672
0.1912197 0.10601142 0.0889541 -0.058731064 -0.30197948 0.11259434 0.08712852 -0.16965705
-0.2073557 0.25166538 -0.018329514 0.030434785 -0.21224168 0.18664572 0.07562699 0.064920455
00000000: e124 09be 1172 923d 6cc2 62be ef20 0e3d
00000010: 51b3 023e 05d8 91be f82b 853d 3961 fbbd
00000020: 1b53 f43d df23 643e 1d73 f0bd 6fb0 5bbe
00000030: 216d 993e 4ab0 183e 1e11 86be fa99 80be
00000040: 383e 3abe 7293 9b3e 4624 963e d4a8 a8bd
00000050: 5ff4 63bd 72ad 1d3e fe10 6ebe 5468 e1bd
00000060: 792a 713e 2417 37bd e4f2 ac3d 7666 563e
00000070: a47c 083e 76b0 00be 64ed ae3d 3e28 8bbe
00000080: 263a 943e 4776 ac3c b150 9e3e d160 bb3d
00000090: d089 813e 7337 3abd 9619 863e 3390 2fbe
000000a0: dbdb e6bd 3690 473e c12d 9f3e 99e8 20be
000000b0: 0d4e 8cbe 7f11 52be bc86 08be de5b 3ebd
000000c0: 3105 4fbe 9100 95be f26f 9abd a3d8 90be
000000d0: 5a10 1f3e c00a f83a 868d 86bd 000c f13c
000000e0: a349 503e e669 15be 2a25 8a3e 562e 1dbe
000000f0: d9fa 20be a200 87be a1ce 55bd 7bbe db3d
00000100: 0ae0 f83d a953 65be 9e60 603d 46e4 52bd
00000110: c8c6 003d 2a21 3dbe e25b e93c 7d32 d3bc
00000120: 2398 88be b5d0 21be 3d01 debd 1eba d93d
00000130: 2da3 a23e cdc9 2e3e 38a5 243e 9799 4ebe
00000140: 49cb 833d 0c90 983d 4cf0 833c b3f7 b83d
00000150: 8ca7 85bd 69eb 68be 269d 343e 4624 9bbe
00000160: 71ae 36be 4f76 883e c595 3dbe f3a1 66be
00000170: f70f 903e 5b09 20be e4d6 41be 3053 943d
00000180: 2987 823e 01c6 12bc c391 0dbd 7a58 893e
00000190: 2bc4 5e3e 2d92 a43e a4a2 b2bc 4da3 203e
000001a0: 71de 2d3e 89b5 58be 5605 723d 14c5 043c
000001b0: 73b2 b2bd e9dc 1abb 1a82 8c3e bb41 17bc
000001c0: 11b3 a83d a3f7 54be a5f8 5c3d 094f b0bd
000001d0: abb9 3f3e 207e be3d fbaf 883e 38ad 91bd
000001e0: e3b5 a63c 277f 803e 8e97 193e 14b5 583c
000001f0: 1a4a 5abe bb73 b1bd 5cb9 e83d 598f 733b
00000200: ca84 4a3e 4487 4abe 3ebb 9b3e aff5 f13d
00000210: 9f83 0ebd 6f6e 843e aec5 8f3e 84f4 3d3e
00000220: ce82 8e3e 3497 863e 6186 9a3e 71a8 53bd
00000230: e37a 7abe e519 203e 317c 82be 6d0f a3bc
00000240: 5b26 92be ca6e 733d c68c 633e 1e21 aebd
00000250: 24de 13bd 11c4 4e3e 63a6 8d3e 2eb6 a5bd
00000260: 28a6 47be 4e0f d73d 1f14 68bd e926 a2bd
00000270: 959f 2a3d dd2e 613e 8c6e d6bd 90af c0bd
00000280: f2d3 25be 8967 3cbd 9352 853e 5b5f 883e
00000290: 0a23 9cbe 66d3 3e3e b19a 7ebe b9c4 71be
000002a0: 7974 1f3e 0d3f 90be 11de d6bd 8d28 50bd
000002b0: bc44 70bc 93ba 21be cfc8 803e 0296 713d
000002c0: bc34 0f3e 642b 093e e874 5d3e dfdb 3b3c
000002d0: a6f9 eebd c475 853d c3dd 153c 9ffb 6cbe
000002e0: 8b67 07bd 13bf 02bd 6cfc 3dbe 9997 0fbe
000002f0: 7995 86be 9157 913e b72e cd3d 22fe aa3d
00000300: 6838 f73d f8e1 a33d e6d3 37be d293 25be
00000310: 6eab 3c3e b315 a0be 4d02 97be 9f70 fabd
00000320: 663b 4a3e d9a7 513e 2a07 23be 7760 16be
00000330: 5193 9a3e 9cd6 883e 8214 383e 4bc2 703e
00000340: 08c8 863d 48a8 ddbd 4c06 3ebe 2bec 47be
00000350: fe14 653e 0f0c 5fbe 2c89 bc3d b1aa 223e
00000360: b9f6 85be eb03 813a 7df6 68bd 8f60 e53c
00000370: 29c1 683e 51cd 34bd 2cfd 123d 3698 0ebe
00000380: 616a efbc da62 23bc 0f17 e53d 081c 5bbe
00000390: 8d12 3b3e a82c 0b3c 992e 11be 02d8 75be
000003a0: 11b4 40be c362 0c3e 1dfc 01bd 81bc 79be
000003b0: 7303 b8bd 6d55 92be 0dd6 833e b7f3 183e
000003c0: 19cf 433e 841c d93d 912d b63d fc8f 70bd
000003d0: 0e9d 9abe dd97 e63d 7070 b23d 94ba 2dbe
000003e0: 0d55 54be 49da 803e c727 96bc 5f52 f93c
000003f0: e255 59be 0e20 3f3e 53e2 9a3d 04f5 843d

bias f4 [64]
-0.23070501 0.45453587 0.053782407 0.31583795 -0.19074333 0.40858418 0.4606025 0.25788614
-0.13260716 0.38970858 0.39455387 -0.22562394 0.504468 0.007977872 -0.46001935 0.12651691
0.39729416 -0.085391976 0.033683162 -0.13485478 0.076655954 -0.21006635 -0.14792734 0.1593721
-0.2600412 0.2173021 0.21406108 0.06724498 -0.22287524 0.28016534 0.43330744 0.136383
0.124427706 -0.3221472 0.39896822 -0.068745166 -0.22561896 -0.12836397 -0.014117059 -0.20748812
-0.1926233 -0.39513758 0.1629437 -0.3292875 -0.101508416 0.15864599 -0.4364892 -0.4905078
0.29941875 -0.34050074 -0.15692943 -0.05897921 0.085102804 -0.43495724 0.17110163 -0.005325235
-0.08734793 -0.33030817 -0.26833013 0.10376377 0.1882135 0.12093368 -0.32910734 -0.09071083
00000000: ef3d 6cbe edb8 e83e f14a 5c3d 83b5 a13e
00000010: 3852 43be f231 d13e 17d4 eb3e a709 843e
00000020: 2cca 07be e287 c73e f702 ca3e f609 67be
00000030: d124 013f 9fb5 023c a887 ebbe a68d 013e
00000040: 246a cb3e fde1 aebd 5bf7 093d 5f17 0abe
00000050: ccfd 9c3d a21b 57be 447a 17be 7132 233e
00000060: 1f24 85be 7184 5e3e d432 5b3e bcb7 893d
00000070: 6839 64be d571 8f3e 79da dd3e fca7 0b3e
00000080: f4d3 fe3d 7af0 a4be 9045 cc3e 44ca 8cbd
00000090: a808 67be d871 03be 3d4b 67bc c477 54be
000000a0: 0b3f 45be 794f cabe b7da 263e 5f98 a8be
000000b0: a5e3 cfbd 1874 223e 837b dfbe d723 fbbe
000000c0: 6a4d 993e 1d56 aebe 1cb2 20be 2f94 71bd
000000d0: 614a ae3d b7b2 debe 4435 2f3e 4f7f aebb
000000e0: 79e3 b2bd 271e a9be 9162 89be 1982 d43d
000000f0: 0abb 403e 14ac f73d c280 a8be 9ac6 b9bd

weight f4 [64, 7]
-0.05343479 0.13575332 -0.039824076 -0.17465393 -0.123541184 0.08340748 -0.26526758 -0.2564458
0.26118523 -0.039650764 -0.2178105 0.09604822 -0.26172322 0.25449368 -0.012779053 -0.031233372
-0.16160475 0.28033066 0.009748301 -0.08349236 0.08568155 0.1760083 0.102705985 -0.09303024
-0.073341236 0.039985266 0.041869596 0.12233497 0.0818092 0.14438212 0.0057564927 -0.18469371
0.2331724 -0.26244432 0.26745343 0.16517092 0.14974953 0.24534129 -0.11684836 0.14113718
0.21864875 0.20198531 -0.2551126 0.2795989 -0.17234497 -0.009897715 0.22294918 -0.0063662613
0.27776095 0.25291166 0.2293984 -0.029718332 0.24655671 0.063252956 0.17788169 -0.09824444
0.20272693 -0.25031683 0.13816261 -0.08691565 0.123916626 -0.20808573 0.22184755 -0.18419863
0.26371628 -0.12945208 -0.121051736 -0.068431735 0.26652217 -0.25136933 -0.012620272 0.1436996
0.058069114 -0.15634592 0.10453819 -0.17505226 -0.23455456 0.039483048 0.13399775 -0.0038064413
-0.28362808 -0.10816179 -0.011595934 -0.27788007 -0.09242428 -0.14016755 0.15564007 0.111660704
0.0673363 0.046285182 -0.13954096 -0.25759965 0.0039657704 -0.077284515 -0.11015674 -0.08202861
-0.05955105 0.24547179 -0.22719313 0.18765463 -0.019059336 -0.2452138 -0.13523673 -0.026084598
-0.25438786 0.2562729 0.15962759 0.023057187 0.2116191 0.24770355 0.22058368 -0.15733568
0.092942886 -0.28146708 0.014425903 -0.19855666 -0.14421631 0.012215424 0.30222064 -0.27674145
0.0537094 -0.26636422 0.27369088 0.033356484 0.12001121 -0.12955491 0.16110487 0.21273303
-0.23886433 -0.2631944 0.20028147 0.18590693 -0.099870205 -0.2943861 0.11729566 0.15998895
0.027337292 0.26024786 0.06731829 0.21098697 0.27949697 -0.10750743 0.1790719 0.2603588
-0.16110206 0.07881529 0.26590988 0.21081081 0.17589664 -0.020444917 -0.24652238 0.082226664
-0.21180809 0.20851094 0.23457378 -0.19032353 0.13843197 0.27795544 0.046232756 0.117964774
-0.121527486 0.07085492 0.26521343 -0.02486005 -0.0482484 0.124305 0.08022817 -0.10147027
0.06474383 -0.27115417 -0.06774993 0.0820975 -0.22231025 -0.22295368 0.256862 -0.15268312
-0.09821197 0.104747884 -0.10201548 -0.25713372 0.2917466 -0.046318147 0.07241892 -0.14392728
-0.2691914 0.26381233 0.18509293 0.08782166 0.14748882 0.2049959 0.004224303 -0.03231442
-0.1356397 0.06652602 -0.22237685 0.13771518 0.077168025 0.04997676 -0.20113906 -0.11693275
-0.09946151 -0.24163267 -0.1311919 0.22292309 0.21113074 0.08286433 0.10481607 -0.022044966
0.05793062 0.057111856 0.028236149 0.121135615 0.06671005 -0.04273262 -0.26181915 0.07383266
0.1405924 0.18719962 -0.049041722 0.101281635 0.06297706 0.18187842 0.14419205 -0.21013714
0.19265246 -0.22980875 -0.07991423 -0.030578695 0.22610596 0.028664216 0.01858094 0.20553012
0.17155401 0.13497151 -0.16323172 -0.10147176 0.21314138 -0.11132875 0.16736226 -0.25633478
-0.10227395 0.13891861 -0.22977972 0.23455662 0.15424232 0.12143542 -0.28646323 -0.15496081
0.014952471 -0.0031736104 -0.08769361 -0.028503215 -0.18967342 -0.18086213 0.11842782 -0.19075026
00000000: 70de 5abd eb02 0b3e 921e 23bd 7bd8 32be
00000010: 2903 fdbd 8ad1 aa3d 27d1 87be dd4c 83be
00000020: 12ba 853e d768 22bd b709 5fbe eeb4 c43d
00000030: 9600 86be ff4c 823e 3c5f 51bc 21dd ffbc
00000040: b77b 25be 8087 8f3e 56b7 1f3c 0bfe aabd
00000050: cf79 af3d 853b 343e 8457 d23d a386 bebd
00000060: ee33 96bd 97c7 233d 747f 2b3d c28a fa3d
00000070: 958b a73d e8d8 133e f6a0 bc3b 5920 3dbe
00000080: bfc4 6e3e 1a5f 86be a8ef 883e 9122 293e
00000090: f157 193e bf3a 7b3e 314e efbd 4486 103e
000000a0: 75e5 5f3e 3dd5 4e3e 1e9e 82be 9627 8f3e
000000b0: 337b 30be 072a 22bc ca4c 643e 129c d0bb
000000c0: af36 8e3e a37d 813e 6ae7 6a3e dc73 f3bc
000000d0: 5d79 7c3e c48a 813d 9e26 363e 6234 c9bd
000000e0: a697 4f3e 8729 80be 807a 0d3e d500 b2bd
000000f0: 00c8 fd3d 6d14 55be 012c 633e 919e 3cbe
00000100: d205 873e 168f 04be f9e9 f7bd f025 8cbd
00000110: 9875 883e 7bb3 80be 42c5 4ebc fd25 133e
00000120: e1d9 6d3d 2519 20be 1e18 d63d e640 33be
00000130: 122f 70be fab8 213d b536 093e 7d75 79bb
00000140: b337 91be ee83 ddbd dffc 3dbc 4c46 8ebe
00000150: f148 bdbd 1588 0fbe 1c60 1f3e 5eae e43d
00000160: 9de7 893d 8895 3d3d d3e3 0ebe 1ae4 83be
00000170: 4bf3 813b 5847 9ebd db99 e1bd 9efe a7bd
00000180: cdeb 73bd f55c 7b3e 51a5 68be 8928 403e
00000190: 5322 9cbc 5419 7bbe 7f7b 0abe 5eaf d5bc
000001a0: 203f 82be 3436 833e 6a75 233e 6de2 bc3c
000001b0: adb2 583e 00a6 7d3e b0e0 613e 9b1c 21be
000001c0: d758 be3d 741c 90be 9f5a 6c3c 7052 4bbe
000001d0: 71ad 13be 3423 483c aabc 9a3e 0eb1 8dbe
000001e0: 63fe 5b3d e460 88be 3621 8c3e cfa0 083d
000001f0: 70c8 f53d 0baa 04be adf8 243e b0d6 593e
00000200: da98 74be 6bc1 86be 9616 4d3e 635e 3e3e
00000210: c088 ccbd c6b9 96be b538 f03d 25d4 233e
00000220: 75f2 df3c 353f 853e 2cde 893d f80c 583e
00000230: 3a1a 8f3e db2c dcbd a05e 373e c04d 853e
00000240: f0f7 24be e969 a13d 5725 883e cade 573e
00000250: 401e 343e 197c a7bc 5d70 7cbe 7466 a83d
00000260: 38e4 58be e483 553e 1c34 703e 2ce4 42be
00000270: 1cc1 0d3e 2d50 8e3e 8f5e 3d3d 8497 f13d
00000280: 67e3 f8bd 621c 913d 0eca 873e 4ea7 cbbc
00000290: 1da0 45bd 9f93 fe3d ab4e a43d a5cf cfbd
000002a0: 6a98 843d b8d4 8abe 7ac0 8abd bc22 a83d
000002b0: 4ca5 63be f84d 64be 6b83 833e f758 1cbe
000002c0: 5b23 c9bd 0f86 d63d 7eed d0bd 08a7 83be
000002d0: cf5f 953e 19b8 3dbd 5f50 943d ac61 13be
000002e0: 75d3 89be 6912 873e 0089 3d3e d8db b33d
000002f0: 4f07 173e 72ea 513e 066c 8a3b 205c 04bd
00000300: 22e5 0abe cb3e 883d c2b6 63be 3505 0d3e
00000310: 450a 9e3d 6eb4 4c3d 66f7 4dbe 707a efbd
00000320: 7ab2 cbbd 8e6e 77be 2b57 06be f345 643e
00000330: a832 583e c6b4 a93d cfa9 d63d a597 b4bc
00000340: a848 6d3d 1fee 693d 7f4f e73c f315 f83d
00000350: 479f 883d 6608 2fbd 290d 86be 9435 973d
00000360: 74f7 0f3e 42b1 3f3e f9df 48bd bf6c cf3d
00000370: 1efa 803d 563e 3a3e 15a7 133e 312e 57be
00000380: b046 453e fc52 6bbe 12aa a3bd 2c80 fabc
00000390: 5288 673e 38d1 ea3c 0e37 983c 7d76 523e
000003a0: dbab 2f3e f935 0a3e 3726 27be 6dd0 cfbd
000003b0: bc41 5a3e 5400 e4bd 0361 2b3e 503e 83be
000003c0: 0175 d1bd ae40 0e3e 604b 6bbe 9c2f 703e
000003d0: b3f1 1d3e 22b3 f83d 4fab 92be 0cae 1ebe
000003e0: 35fb 743c 59fc 4fbb b598 b3bd 937f e9bc
000003f0: c039 42be ec33 39be 498a f23d 0954 43be

bias f4 [64]
-0.18346508 0.04603093 -0.26767704 -0.34729108 0.028426725 -0.1853142 -0.009977882 -0.22761476
-0.3425499 -0.006263536 0.098827735 0.1809444 -0.03139395 0.37338275 -0.27432376 -0.20497097
0.26170877 -0.29346144 0.35044417 -0.25866535 0.3038986 0.1684195 0.13375525 -0.09302148
0.25425863 0.32774153 0.3126434 -0.01893644 -0.077021085 -0.28582907 -0.2585056 -0.3301928
-0.12875934 -0.1563002 -0.047201335 -0.37099454 -0.11591901 -0.13087516 -0.27700612 0.12543593
0.012655623 0.044530008 0.09292935 -0.10398211 -0.20961906 0.17984976 0.079927765 0.06878491
-0.12864883 0.28528488 -0.1418253 0.19655792 0.18659523 -0.02980667 -0.35529506 0.25576666
-0.16660094 -0.301408 0.23467772 0.24665986 -0.16723685 0.038070448 -0.10960603 0.0809845
00000000: 45de 3bbe ee8a 3c3d f70c 89be 23d0 b1be
00000010: 2adf e83c 01c3 3dbe 457a 23bc d813 69be
00000020: b362 afbe 593e cdbb 3266 ca3d 7d49 393e
00000030: f196 00bd 062c bf3e 2a74 8cbe e9e3 51be
00000040: b1fe 853e 9440 96be 6b6d b33e c96f 84be
00000050: 9998 9b3e 2976 2c3e 23f7 083e 0c82 bebd
00000060: 302e 823e bdcd a73e cc12 a03e 9820 9bbc
00000070: 3bbd 9dbd 3058 92be d95a 84be 080f a9be
00000080: 7dd9 03be 290d 20be 3056 41bd fff2 bdbe
00000090: f266 edbd 2304 06be bfd3 8dbe 4772 003e
000000a0: 8859 4f3c 1965 363d be51 be3d 93f4 d4bd
000000b0: 61a6 56be 892a 383e 2bb1 a33d 1adf 8c3d
000000c0: 85bc 03be dc10 923e a73a 11be 7b46 493e
000000d0: d212 3f3e 1e2d f4bc 3ce9 b5be d9f3 823e
000000e0: 7099 2abe 2652 9abe 5b4f 703e 6794 7c3e
000000f0: 2340 2bbe c2ef 1b3d 2079 e0bd 34db a53d

weight f4 [64, 7]
-0.04205 -0.18364888 0.24113315 -0.2368096 0.29395795 -0.035712257 0.046760656 -0.06876766
-0.026745714 -0.14679292 -0.040038675 -0.08917679 0.0353106 0.10381518 -0.0029159242 -0.1829795
0.21182257 0.2557563 0.20474103 -0.09605534 -0.21960138 -0.03948206 0.12663184 -0.22071443
0.24396268 0.18731609 0.27202 -0.1175415 0.09586646 -0.21583755 0.16668463 0.016288977
-0.2609322 0.22842674 0.09783132 0.011656872 0.108411655 -0.25127155 -0.1878728 0.05414376
0.09934929 0.22882198 -0.1024315 -0.042096987 -0.057836726 -0.14974603 0.16024037 -0.04926663
-0.032323018 0.15866645 -0.27544627 0.047613636 0.14642046 -0.21880333 0.12007479 0.22672616
-0.10240042 0.20995927 -0.012228453 -0.08243471 -0.18951413 0.040680416 0.21913652 -0.13140266
-0.042356163 -0.2693885 -0.058229696 0.051548917 -0.22113997 -0.00817134 -0.22442265 0.13726169
-0.051078286 -0.23818739 -0.04832467 -0.11493504 -0.20572253 0.089714095 0.22963607 -0.25465962
-0.17807308 -0.25044015 0.2494308 -0.026690032 0.23564914 0.13936767 0.027587779 0.13902994
0.18503012 -0.21032977 0.2820987 -0.18558243 0.20948564 -0.19447128 -0.26677492 -0.2266081
0.18938835 0.11748474 -0.15056169 0.23614061 -0.027787507 -0.23380615 -0.01165976 0.07861626
0.15526754 -0.01850757 0.13958065 0.12320014 -0.21177967 -0.10281306 0.27840164 -0.16069575
-0.18852742 0.16334 0.11859062 -0.2712383 0.081603184 0.2741826 0.15773916 -0.19629471
-0.01675761 -0.10588413 0.25566322 0.11160526 0.11604799 0.29760733 0.08385702 0.14350256
-0.2373306 -0.04789123 0.2554999 0.12157577 0.08225203 -0.05355994 0.26577935 0.06680384
0.21547854 -0.0375831 -0.07794441 -0.092297874 -0.13371138 0.064431176 0.22766764 0.20705733
-0.01943447 0.1196335 0.20266187 -0.056738768 -0.16353889 -0.18477415 -0.25150332 -0.15312377
0.09189482 -0.009909123 -0.17017445 0.044917885 0.23399028 0.08286577 0.02758649 -0.2429197
-0.24672155 0.2060282 0.13834907 -0.044229463 -0.22374128 -0.11465942 -0.27509922 0.20903441
-0.19911516 0.05238008 0.08502288 -0.27583048 -0.019714123 0.009548944 0.21403687 0.071951054
-0.0892159 -0.12285125 0.12718402 -0.22256567 0.109643415 0.054141916 -0.25132972 -0.06724511
-0.14751868 0.17241688 0.28155684 -0.09506286 0.07601117 0.13755819 -0.09049714 -0.06005707
-0.17636028 -0.12187304 -0.20831642 0.14373411 0.009420915 -0.016766343 -0.23069224 0.20540279
0.011833826 -0.14518483 0.2702729 -0.074490525 -0.16985878 0.22906476 -0.16172697 0.25169882
0.27407917 0.14749703 0.10595459 -0.25683138 0.08980693 0.0769292 -0.20397274 0.06669906
0.17066586 0.0077407914 -0.25235668 0.047157638 0.02577147 -0.08678519 -0.22454475 0.13090122
-0.01173831 0.19247968 0.023914201 0.0627715 -0.0752738 -0.1542792 -0.010302041 0.10175197
0.24226435 0.20138404 -0.23677067 0.08937822 0.119260505 0.12395804 0.06755192 0.25309777
0.016802382 -0.090016685 -0.18243405 -0.094093464 0.1740581 -0.178693 0.2064305 -0.012698168
-0.22278409 -0.07340279 0.14914863 -0.16638 -0.19378085 -0.047706526 0.1650019 0.08994964
00000000: 9f3c 2cbd 740e 3cbe 9ceb 763e 377e 72be
00000010: a881 963e 0447 12bd 1a88 3f3d 0fd6 8cbd
00000020: d419 dbbc e250 16be 98ff 23bd 52a2 b6bd
00000030: d9a1 103d 0e9d d43d 1719 3fbb fa5e 3bbe
00000040: 04e8 583e 7df2 823e a2a7 513e a9b8 c4bd
00000050: 2fdf 60be f1b7 21bd c7ab 013e f702 62be
00000060: 5ad1 793e cacf 3f3e 3546 8b3e 99b9 f0bd
00000070: a255 c43d 8504 5dbe 60af 2a3e 7670 853c
00000080: e898 85be b3e8 693e c95b c83d 77fc 3e3c
00000090: ee06 de3d aaa6 80be ba61 40be d9c5 5d3d
000000a0: a477 cb3d 4f50 6a3e 9bc7 d1bd e46d 2cbd
000000b0: 34e6 6cbd 0657 19be 0d16 243e cecb 49bd
000000c0: 2465 04bd 7579 223e 4b07 8dbe 8406 433d
000000d0: 3fef 153e fb0d 60be c6e9 f53d e72a 683e
000000e0: 50b7 d1bd 90ff 563e d959 48bc 87d3 a8bd
000000f0: fe0f 42be 82a0 263d 5365 603e 6b8e 06be
00000100: a87d 2dbd 4aed 89be 4382 6ebd f524 533d
00000110: 8472 62be 16e1 05bc 0dcf 65be 548e 0c3e
00000120: 7737 51bd 65e7 73be 17f0 45bd 1063 ebbd
00000130: eda8 52be 06bc b73d b825 6b3e bf62 82be
00000140: ca58 36be b139 80be ca6a 7f3e 0ea5 dabc
00000150: 024e 713e 66b6 0e3e c4ff e13c dd5d 0e3e
00000160: 8978 3d3e b060 57be 3e6f 903e 5209 3ebe
00000170: 6783 563e 7b23 47be b996 88be f40b 68be
00000180: 05ef 413e d79b f03d d82c 1abe d8ce 713e
00000190: a0a2 e3bc e16a 6fbe 9408 3fbc 9001 a13d
000001a0: 74fe 1e3e 309d 97bc 3bee 0e3e 5b50 fc3d
000001b0: c5dc 58be a78f d2bd a98a 8e3e 6d8d 24be
000001c0: 550d 41be 9a42 273e a4df f23d bfdf 8abe
000001d0: 921f a73d a961 8c3e 6086 213e 7b01 49be
000001e0: 4147 89bc c7d9 d8bd 4ae6 823e 4c91 e43d
000001f0: 92aa ed3d fd5f 983e 3bbd ab3d 56f2 123e
00000200: cb06 73be 9829 44bd e2d0 823e b8fc f83d
00000210: c173 a83d ab61 5bbd 3b14 883e 74d0 883d
00000220: 68a6 5c3e bdf0 19bd 52a1 9fbd ab06 bdbd
00000230: a3eb 08be 7ef4 833d b521 693e d606 543e
00000240: 0a35 9fbc 6902 f53d 9886 4f3e e966 68bd
00000250: bd76 27be 6f35 3dbe 0bc5 80be 7acc 1cbe
00000260: 5a33 bc3d e059 22bc 3642 2ebe d1fb 373d
00000270: 269b 6f3e 87b5 a93d 10fd e13c f1bf 78be
00000280: 93a4 7cbe 0ef9 523e 61ab 0d3e f429 35bd
00000290: 6f1c 65be 8fd2 eabd ced9 8cbe 1e0d 563e
000002a0: d8e4 4bbe 7f8c 563d 7a20 ae3d a739 8dbe
000002b0: 837f a1bc 2d73 1c3c 7b2c 5b3e 135b 933d
000002c0: d3b6 b6bd 7099 fbbd 873c 023e 41e8 63be
000002d0: ba8c e03d eac3 5d3d 4aae 80be ceb7 89bd
000002e0: 230f 17be 0d8e 303e 3828 903e 51b0 c2bd
000002f0: bfab 9b3d 0edc 0c3e 9156 b9bd 67fe 75bd
00000300: ca97 34be 9398 f9bd e650 55be 092f 133e
00000310: 2e5a 1a3c 9259 89bc 963a 6cbe 1c55 523e
00000320: aae2 413c 55ab 14be 3661 8a3e 7d8e 98bd
00000330: 76ef 2dbe f48f 6a3e c19b 25be abde 803e
00000340: 1b54 8c3e 7609 173e b8fe d83d 677f 83be
00000350: b2ec b73d 0e8d 9d3d 3bde 50be 8499 883d
00000360: 08c3 2e3e 77a6 fd3b e534 81be 5e28 413d
00000370: b11e d33c 6fbc b1bd 0fef 65be f80a 063e
00000380: 0a52 40bc 6519 453e b7e7 c33c 588e 803d
00000390: 2629 9abd 5efb 1dbe e4c9 28bc 5663 d03d
000003a0: 2514 783e 9e37 4e3e 0374 72be ee0b b73d
000003b0: da3e f43d b6dd fd3d a958 8a3d 0896 813e
000003c0: 26a5 893c ab5a b8bd fecf 3abe 13b4 c0bd
000003d0: 493c 323e 4cfb 36be 8462 533e fa0b 50bc
000003e0: 8321 64be 3454 96bd 6bba 183e 855f 2abe
000003f0: 7d6e 46be eb67 43bd 42f6 283e 8437 b83d

bias f4 [64]
0.3510869 -0.25365672 0.09127425 0.049859524 -0.065834895 -0.22724085 -0.28798032 0.30487117
-0.30037168 -0.025751306 -0.21877891 -0.31693426 0.18724391 0.29697773 0.23201922 0.38028097
-0.3268808 -0.037596367 -0.16668057 0.3252258 -0.07877955 0.16863513 -0.28795126 0.14954747
0.26654294 -0.043745264 0.13942689 -0.3238637 -0.28143886 0.014662463 0.09847888 -0.20876995
0.3711269 -0.20562035 -0.08451318 -0.06463208 -0.20778836 -0.24788758 0.36130148 0.1514918
-0.3584423 -0.20471042 0.27113134 0.30715987 -0.0010594483 -0.028351093 -0.085930176 -0.2954155
-0.3420882 -0.14230639 0.35136884 0.07076379 -0.33424982 0.20898631 0.0867565 0.16448665
-0.33095443 -0.35597643 0.25449058 0.081137605 0.16349365 -0.350717 -0.0025613355 0.27130848
00000000: aac1 b33e 4bdf 81be feed ba3d 8039 4c3d
00000010: 72d4 86bd d3b1 68be 2872 93be 1318 9c3e
00000020: 51ca 99be 67f4 d2bc 9407 60be 3545 a2be
00000030: debc 3f3e 770d 983e 7296 6d3e 30b4 c23e
00000040: ec5c a7be a6fe 19bd 50ae 2abe ff83 a63e
00000050: 2c57 a1bd b0ae 2c3e 596e 93be f922 193e
00000060: 5178 883e 3c2e 33bd ecc5 0e3e 76d1 a5be
00000070: c118 90be d43a 703c 4caf c93d cac7 55be
00000080: 5804 be3e 248e 52be 3f15 adbd d35d 84bd
00000090: 79c6 54be 3ed6 7dbe 82fc b83e ab20 1b3e
000000a0: c085 b7be 9c9f 51be bad1 8a3e 0f44 9d3e
000000b0: 30dd 8aba 8d40 e8bc 29fc afbd b340 97be
000000c0: 2f26 afbe c4b8 11be 9ee6 b33e 9bec 903d
000000d0: cb22 abbe 8200 563e 64ad b13d 306f 283e
000000e0: dc72 a9be 8b42 b6be 974c 823e 792b a63d
000000f0: e16a 273e 2e91 b3be 14dc 27bb f2e8 8a3e

weight f4 [64, 4]
0.07092869 0.10863929 -0.11149693 -0.13414364 0.09271826 0.05142495 0.10317143 -0.10458467
0.03661499 -0.16919225 0.26277196 -0.041430894 -0.14512122 -0.0028681855 0.2441685 0.096686676
-0.18721004 -0.21489781 0.31788507 -0.24117145 0.26619527 0.027741248 -0.029033735 -0.24197689
0.3037494 0.23610325 -0.090745576 0.09526886 0.20528036 -0.29118025 -0.10854494 0.25938824
-0.19262297 -0.0910455 -0.0869339 0.27797064 0.038472436 -0.11652247 -0.22778489 -0.054733373
-0.22780028 0.20012055 -0.12766807 -0.2125254 0.015548657 0.008775281 0.09588722 -0.11966675
-0.16929738 -0.25402576 -0.23199153 0.060177255 -0.18233342 -0.23524676 -0.0034975535 -0.29046255
0.21682242 -0.13772637 0.011157551 -0.06922145 -0.13977566 0.27995872 -0.30347946 0.083491884
-0.2067327 -0.188597 0.23606397 -0.22221549 0.07914174 -0.24518798 0.28535002 0.25347435
0.008607082 0.1771822 -0.27737582 0.124780536 0.14638436 -0.24474639 0.120877534 -0.0018598881
0.21520802 0.020113155 0.11441559 -0.27603284 -0.24610156 0.05195764 -0.057224568 -0.24542814
0.04006019 0.047100052 -0.14399853 0.08003368 0.08734817 0.13018958 0.26576558 -0.015547101
0.21221918 0.05436207 0.07259846 -0.20285137 -0.2553458 0.03852855 0.16722974 -0.2215084
-0.2818811 -0.09230893 -0.11736201 0.084075786 0.14958036 -0.08913538 -0.13239495 0.29338625
0.23752485 -0.14411867 0.13463318 0.2543359 0.055615954 -0.2823956 -0.24666066 -0.061028205
-0.2104895 -0.16260071 0.09770089 -0.0036520492 0.1498576 -0.11510939 0.19012327 -0.25452456
-0.23131393 0.05266481 -0.16667634 -0.27057296 -0.2699796 0.24238124 -0.10062756 0.27240157
-0.11726578 -0.079069026 0.07847728 -0.1611534 0.2014867 0.057061113 -0.03244731 -0.24848264
-0.13915183 0.1583918 -0.25717005 0.11483819 0.01925806 0.11519336 -0.05028127 0.18380858
0.179474 -0.23833199 0.07896571 -0.2808837 -0.2014328 -0.23799132 -0.031914104 0.057898577
0.21480864 0.14416713 -0.16104926 -0.2797552 0.24414004 0.13512127 0.17349339 -0.19856715
-0.18391478 -0.10152472 -0.15101801 -0.012635626 -0.058535296 -0.013310984 0.14310716 -0.08474295
0.2780273 0.1051483 -0.27832934 -0.2130213 -0.19046126 0.11243169 -0.048371516 -0.06496815
-0.020662729 0.22757083 0.15545078 -0.03193105 0.29514554 -0.19024253 -0.19957264 0.21143664
0.076726176 0.16152813 0.28915992 0.03953884 -0.28157046 0.15436274 -0.040778905 -0.24549134
0.13773607 -0.22831686 0.26499057 -0.28030303 -0.19799668 -0.23021229 -0.024377141 0.20039096
-0.08088146 -0.059915006 -0.2541712 -0.30847633 0.094166584 0.2766052 -0.046388857 -0.21114595
-0.2560447 -0.23922876 -0.018655375 -0.1454925 -0.19891717 -0.17897214 -0.043157157 0.03229509
0.15926126 0.17001328 -0.09295115 -0.077464655 -0.22835483 0.1902351 0.14103487 -0.19754855
-0.18071957 0.027220417 0.104537606 -0.029194832 -0.064283684 0.10464285 -0.14774056 0.11450779
-0.14180991 0.014103078 -0.18014395 -0.22448726 -0.014038229 0.21842133 -0.2989009 0.07301554
0.22992527 0.021061366 0.0354268 0.09883274 -0.18274565 -0.18502723 -0.06160641 -0.07123595
00000000: 1043 913d 477e de3d 8158 e4bd f35c 09be
00000010: 12e3 bd3d f8a2 523d 8b4b d33d 7d30 d6bd
00000020: 9af9 153d bc40 2dbe 0c8a 863e 71b3 29bd
00000030: a89a 14be 2bf8 3bbb 4f07 7a3e aa03 c63d
00000040: fdb3 3fbe 2c0e 5cbe d5c1 a23e a6f5 76be
00000050: bf4a 883e 9d41 e33c 28d8 edbc cac8 77be
00000060: 0b85 9b3e 0dc5 713e d1d8 b9bd 521c c33d
00000070: 0435 523e 9415 95be cf4c debd 89ce 843e
00000080: f53e 45be 1076 babd 670a b2bd 2b52 8e3e
00000090: 4695 1d3d 55a3 eebd 7140 69be 1a30 60bd
000000a0: 7a44 69be 67ec 4c3e 6bbb 02be 42a0 59be
000000b0: cbbf 7e3c 32c6 0f3c 8560 c43d d713 f5bd
000000c0: 4b5c 2dbe aa0f 82be 308f 6dbe 6d7c 763d
000000d0: 9db5 3abe 87e4 70be 3637 65bb 82b7 94be
000000e0: b206 5e3e 2408 0dbe 29ce 363c fac3 8dbd
000000f0: 5a21 0fbe c056 8f3e a961 9bbe cbfd aa3d
00000100: bdb1 53be 921f 41be c1ba 713e 758c 63be
00000110: 1115 a23d 8f12 7bbe 6619 923e 64c7 813e
00000120: b804 0d3c 406f 353e 3404 8ebe f08c ff3d
00000130: c8e5 153e cc9e 7abe a48e f73d 7dc7 f3ba
00000140: 7e5f 5c3e 58c4 a43c b952 ea3d 2d54 8dbe
00000150: 0c02 7cbe 89d1 543d 4f64 6abd 8451 7bbe
00000160: 2716 243d fceb 403d 5a74 13be b3e8 a33d
00000170: 99e3 b23d 6b50 053e 6d12 883e 45b9 7ebc
00000180: fc4f 593e c3aa 5e3d 80ae 943d 45b8 4fbe
00000190: afbc 82be 1dd0 1d3d 463e 2b3e 19d3 62be
000001a0: b852 90be 770c bdbd 7e5b f0bd ed2f ac3d
000001b0: 982b 193e 9c8c b6bd 8b92 07be b936 963e
000001c0: b739 733e d893 13be 48dd 093e 5138 823e
000001d0: 8ecd 633d 2896 90be 9d94 7cbe b6f8 79bd
000001e0: 8f8a 57be cd80 26be 6717 c83d 3857 6fbb
000001f0: 4574 193e 79be ebbd adaf 423e 0b51 82be
00000200: 8fdd 6cbe 0eb7 573d 34ad 2abe 8a88 8abe
00000210: c43a 8abe ca32 783e d215 cebd 3878 8b3e
00000220: 0b29 f0bd f1ee a1bd b2b8 a03d 6605 25be
00000230: 8852 4e3e eab8 693d 78e7 04bd 3c72 7ebe
00000240: d17d 0ebe 7631 223e cbab 83be 4930 eb3d
00000250: 14c3 9d3c 7fea eb3d bcf3 4dbd 5138 3c3e
00000260: 08c8 373e 4d0d 74be c6b8 a13d fdcf 8fbe
00000270: 6644 4ebe ffb3 73be 5db8 02bd 0f27 6d3d
00000280: ccf6 5b3e 8ca0 133e 19ea 24be 133c 8fbe
00000290: d9ff 793e 3b5d 0a3e 40a8 313e 3055 4bbe
000002a0: 2854 3cbe 31ec cfbd 77a4 1abe a805 4fbc
000002b0: b5c2 6fbd 5016 5abc af8a 123e b68d adbd
000002c0: 9859 8e3e fe57 d73d 2f81 8ebe 4122 5abe
000002d0: 4708 43be 9642 e63d 3621 46bd 050e 85bd
000002e0: e244 a9bc 5408 693e 7d2e 1f3e 22ca 02bd
000002f0: 511d 973e f0ce 42be c55c 4cbe d982 583e
00000300: 9d22 9d3d a167 253e c50c 943e 7bf3 213d
00000310: 012a 90be 4411 1e3e c807 27bd 1562 7bbe
00000320: af0a 0d3e e5cb 69be d8ac 873e e183 8fbe
00000330: a4bf 4abe c5bc 6bbe 92b2 c7bc 4a33 4d3e
00000340: 2ea5 a5bd 7069 75bd ba22 82be 9cf0 9dbe
00000350: 69da c03d 329f 8d3e 3e02 3ebd a536 58be
00000360: 4a18 83be 62f8 74be 28d3 98bc fcfb 14be
00000370: f1b0 4bbe 7944 37be 8fc5 30bd db47 043d
00000380: 6215 233e f617 2e3e 2c5d bebd caa5 9ebd
00000390: d9d5 69be fdcc 423e 726b 103e 2b4a 4abe
000003a0: 8d0e 39be 5afd de3c d017 d63d 002a efbc
000003b0: 2aa7 83bd fe4e d63d 4d49 17be 0f83 ea3d
000003c0: 9e36 11be 9910 673c a877 38be fddf 65be
000003d0: 9a00 66bc d7a9 5f3e 8a09 99be 2c89 953d
000003e0: 8871 6b3e e388 ac3c b11b 113d d268 ca3d
000003f0: ad21 3bbe c777 3dbe 0157 7cbd 27e4 91bd

bias f4 [64]
-0.14746672 0.4259304 0.4744728 0.1538682 -0.24013361 -0.2517701 -0.30441815 0.3213829
0.23368882 0.30171242 -0.007063875 0.03736006 0.3576975 -0.077586465 -0.40226993 -0.42154694
-0.37553093 -0.48904523 -0.23471047 0.46451855 0.25225785 0.058651436 -0.118645504 -0.33409673
-0.17637075 0.32594723 -0.39224958 0.48005 -0.20139517 -0.11409274 -0.3043793 0.3834
-0.16252798 -0.08845262 0.039882615 0.39488608 0.09195575 -0.3544498 -0.47391874 -0.302111
0.16190764 0.032197095 0.39745292 -0.005427699 0.12065666 0.4161311 -0.3318261 -0.40885067
-0.3781729 -0.203307 0.1874139 -0.14005162 0.011900879 0.46109128 0.41383046 -0.20949365
0.37945563 0.25238293 -0.17094095 -0.14790198 0.13045646 -0.39960992 -0.42031822 -0.006816287
00000000: 8401 17be 8d13 da3e 19ee f23e a08f 1d3e
00000010: 96e5 75be 03e8 80be b2dc 9bbe 4d8c a43e
00000020: 1f4c 6f3e 0d7a 9a3e 1478 e7bb dd06 193d
00000030: 2024 b73e a7e5 9ebd 53f6 cdbe 00d5 d7be
00000040: 9745 c0be 2364 fabe f157 70be 60d5 ed3e
00000050: f127 813e 7d3c 703d 6afc f2bd ba0e abbe
00000060: 899a 34be 8ee2 a63e f0d4 c8be 1dc9 f53e
00000070: 893a 4ebe 74a9 e9bd 9bd7 9bbe 014d c43e
00000080: bc6d 26be a626 b5bd f45b 233d 822e ca3e
00000090: 4c53 bc3d 727a b5be 7aa5 f2be 4bae 9abe
000000a0: 1ecb 253e 1ae1 033d f37e cb3e d7da b1bb
000000b0: d71a f73d 230f d53e 1ce5 a9be e054 d1be
000000c0: e19f c1be b62f 50be 6ee9 3f3e b169 0fbe
000000d0: e8fb 423c 2814 ec3e 96e1 d33e 8185 56be
000000e0: 0248 c23e 5638 813e 250b 2fbe 9e73 17be
000000f0: 6196 053e ac99 ccbe f333 d7be 295b dfbb

weight f4 [64, 2]
0.07341646 -0.024133254 0.1188814 -0.1638419 0.09592606 0.04669132 -0.045116585 -0.050559394
-0.109651394 -0.021688337 -0.1928706 -0.16028464 -0.09067971 0.20289259 -0.07070255 -0.25437105
-0.22701006 0.26472908 -0.062287077 -0.1718368 -0.2523472 0.14147131 0.19138637 -0.081615634
0.30561635 0.2243506 0.18203266 0.12131954 -0.1672348 0.11445896 -0.29908863 0.1311869
-0.15941003 -0.18441077 0.25255528 -0.10342041 0.08661665 0.16820535 -0.10882962 -0.3023175
-0.18882903 -0.045240205 0.22410049 0.27983794 0.0721725 0.05328002 -0.06690407 -0.089934155
-0.2017271 -0.20452832 0.059655994 -0.22365941 -0.11196687 -0.20417619 -0.11006203 -0.30815288
0.0698678 0.13808335 -0.08953258 0.0167697 -0.2691488 0.02196721 0.22584401 -0.27281037
0.1472589 -0.24285276 -0.053818177 -0.1455893 -0.0949377 0.055095933 0.102027304 -0.038022134
-0.26404312 0.022007396 -0.013359883 -0.18713845 -0.05037632 0.18534432 -0.14029121 0.06743075
-0.061038315 0.010624792 -0.20338325 -0.19828731 -0.20724559 0.18812133 0.10925838 -0.22982287
0.112606496 -0.060885113 0.043105796 0.13974664 0.22656055 0.13008146 -0.113817945 0.09570415
-0.1511456 0.17434919 -0.17896442 -0.10692955 -0.22417486 0.007687966 -0.0017467885 0.15407063
-0.27313867 0.060239222 0.21871756 -0.21623732 0.1799329 -0.22044341 0.16219981 0.042824034
-0.24577387 -0.16786233 0.10308583 0.2221631 -0.2499585 -0.14094959 -0.24079104 -0.07764603
0.013109675 0.034170777 -0.21222046 0.011842903 -0.00085491163 -0.13213837 -0.03390257 -0.1418078
00000000: 5e5b 963d 1ab3 c5bc 1778 f33d 2cc6 27be
00000010: e274 c43d 663f 3f3d 2bcc 38bd 5e17 4fbd
00000020: e990 e0bd bdab b1bc df7f 45be a821 24be
00000030: 49b6 b9bd 13c3 4f3e 80cc 90bd ec3c 82be
00000040: 5375 68be 928a 873e bc20 7fbd fcf5 2fbe
00000050: a733 81be dbdd 103e cafa 433e 1926 a7bd
00000060: bf79 9c3e 2abc 653e c566 3a3e 6176 f83d
00000070: 993f 2bbe 7669 ea3d 2522 99be dc55 063e
00000080: 623c 23be 2dd6 3cbe ed4e 813e 14ce d3bd
00000090: 1264 b13d 063e 2c3e 10e2 debd 5cc9 9abe
000000a0: 665c 41be cb4d 39bd 997a 653e eb46 8f3e
000000b0: 2dcf 933d 263c 5a3d 0005 89bd 662f b8bd
000000c0: 8d91 4ebe df6f 51be d859 743d f906 65be
000000d0: e34e e5bd 9013 51be 3468 e1bd 37c6 9dbe
000000e0: d916 8f3d b965 0d3e db5c b7bd 9c60 893c
000000f0: dfcd 89be 94f4 b33c a743 673e cdad 8bbe
00000100: 09cb 163e 65ae 78be 7370 5cbd 5d15 15be
00000110: b26e c2bd 46ac 613d b1f3 d03d 19bd 1bbd
00000120: a930 87be db48 b43c 69e3 5abc 39a1 3fbe
00000130: 6657 4ebd e7ca 3d3e 80a8 0fbe 2219 8a3d
00000140: 5003 7abd 9c13 2e3c b343 50be d40b 4bbe
00000150: 3038 54be e1a2 403e dcc2 df3d b056 6bbe
00000160: 3c9e e63d ab62 79bd b48f 303d be19 0f3e
00000170: 7dff 673e 1334 053e 6219 e9bd 8a00 c43d
00000180: eac5 1abe 9888 323e 7342 37be e1fd dabd
00000190: 188e 65be 55eb fb3b 7ff4 e4ba b1c4 1d3e
000001a0: d5d8 8bbe 67bd 763d 7ff7 5f3e 516d 5dbe
000001b0: 5540 383e ebbb 61be b517 263e 4168 2f3d
000001c0: 25ac 7bbe 1ae4 2bbe aa1e d33d b97e 633e
000001d0: 1ff5 7fbe 1755 10be ed91 76be e204 9fbd
000001e0: f6c9 563c a8f6 0b3d 5250 59be bc08 423c
000001f0: 261c 60ba 484f 07be 6cdd 0abd 1036 11be

bias f4 [64]
-0.29796034 0.511931 -0.34569642 0.6090664 0.6393256 0.502895 0.6186511 0.34393945
0.35728005 0.027035557 0.51708513 -0.30297986 -0.36492103 -0.68791234 0.3070903 -0.30615035
0.3888758 0.50227344 0.15376717 0.31016484 -0.033294514 0.6232693 -0.3238839 -0.26872697
0.09323641 0.5182909 0.37868825 0.06890993 -0.68472654 0.5325328 0.38084954 0.46781233
-0.2802016 -0.10232429 0.6394704 0.18436858 0.6778573 -0.23929675 0.43812513 0.4076582
0.2857303 0.5030209 -0.12603444 -0.60196066 0.6053773 -0.46954754 -0.055748466 0.3451836
0.55453956 -0.25199792 -0.37421274 0.6335408 0.43824926 0.10241935 0.66447693 0.36582658
0.3402153 -0.34219608 0.4150345 -0.2703415 0.5486576 -0.41520733 -0.04600463 0.3956337
00000000: 428e 98be e90d 033f 1fff b0be c7eb 1b3f
00000010: d8aa 233f babd 003f eb5f 1e3f d518 b03e
00000020: 69ed b63e ac79 dd3c b15f 043f 2d20 9bbe
00000030: eed6 babe 061b 30bf f13a 9d3e bdbf 9cbe
00000040: bb1a c73e fe94 003f 2475 1d3e edcd 9e3e
00000050: d45f 08bd 948e 1f3f 1cd4 a5be 9596 89be
00000060: bbf2 be3d b6ae 043f 6de3 c13e a620 8d3d
00000070: 3d4a 2fbf 1254 083f b6fe c23e 1985 ef3e
00000080: 9676 8fbe 668f d1bd 55b4 233f 1ecb 3c3e
00000090: 0e88 2d3f 350a 75be f051 e03e 93b8 d03e
000000a0: 3e4b 923e fac5 003f 2c0f 01be 181a 1abf
000000b0: 02fa 1a3f 8968 f0be 8158 64bd e8bb b03e
000000c0: 4ef6 0d3f df05 81be d098 bfbe bb2f 223f
000000d0: 3562 e03e 3cc1 d13d 291b 2a3f 9f4d bb3e
000000e0: b330 ae3e 5334 afbe 677f d43e 336a 8abe
000000f0: d374 0c3f 0e96 d4be 5a6f 3cbd 8090 ca3e

weight f4 [64]
0.98084986 1.0071926 0.9875681 0.9974346 0.99123305 1.0016025 1.0079721 0.97956204
1.0089723 0.98243356 0.9967844 1.0002676 1.0295914 0.989466 0.9983461 0.9943564
1.0237195 0.99273986 0.9877013 1.00257 0.9794262 1.0244069 0.99438226 1.0129597
0.99457496 1.0023328 0.9861728 0.9834346 0.99980795 0.9930917 0.995632 0.98252696
0.99859625 1.0276967 0.9919408 1.0218598 0.9985372 1.0005124 0.98532915 0.97476655
1.003868 0.9917107 1.00261 0.9973446 0.9817202 0.9998589 0.98799205 1.0073618
0.9923873 1.0156109 0.99139243 1.0004041 1.0071955 0.98647654 1.0201175 0.98865986
0.98880386 0.98445785 0.9920019 0.9825986 0.98633105 0.9864255 0.9836965 0.98218703
00000000: fa18 7b3f b0eb 803f 43d1 7c3f e057 7f3f
00000010: 73c1 7d3f 8334 803f 3b05 813f 94c4 7a3f
00000020: 0126 813f c480 7b3f 432d 7f3f c508 803f
00000030: a7c9 833f a54d 7d3f 9c93 7f3f 248e 7e3f
00000040: 3e09 833f 3324 7e3f fed9 7c3f 3754 803f
00000050: adbb 7a3f c41f 833f d68f 7e3f aaa8 813f
00000060: 779c 7e3f 714c 803f d275 7c3f 5fc2 7b3f
00000070: 6af3 7f3f 423b 7e3f bde1 7e3f e386 7b3f
00000080: 01a4 7f3f 918b 833f d5ef 7d3f 4dcc 823f
00000090: 22a0 7f3f ca10 803f 883e 7c3f 4d8a 793f
000000a0: bf7e 803f c1e0 7d3f 8655 803f fa51 7f3f
000000b0: 0452 7b3f c1f6 7f3f 0ced 7c3f 3bf1 803f
000000c0: 180d 7e3f 8aff 813f e5cb 7d3f 3e0d 803f
000000d0: c8eb 803f ba89 7c3f 3693 823f d018 7d3f
000000e0: 4022 7d3f 6e05 7c3f d6f3 7d3f 958b 7b3f
000000f0: 3180 7c3f 6286 7c3f 89d3 7b3f 9c70 7b3f

bias f4 [64]
0.001630506 0.006347325 -0.0004945972 -0.005367629 0.018347008 -0.009345624 -0.009799404 -0.011108378
-0.0013828166 -0.0067278813 0.007803565 0.011261317 0.020646328 0.008705858 -0.011351262 0.007139028
0.004006943 0.007384142 0.00914129 -0.0023007775 -0.010052833 -0.006581067 0.010832194 -0.010727781
-0.00026702273 -0.019760985 -0.019642781 -0.00927873 0.00059755304 -0.0027616518 -0.0061149956 -0.01353132
0.009009008 0.0067391912 -0.01552747 -0.0007192499 0.0021530208 -0.008351727 -0.0023900457 0.0037927509
-0.0063192695 -0.00037142556 0.000394903 0.0008991854 0.0008479627 0.0071278815 0.004985733 0.01210712
0.013240348 -0.010307144 0.012731454 -0.03029745 -0.0064065075 -0.017925171 0.011023787 0.004622228
0.0042452384 0.019639837 -0.02270809 0.005970937 -0.010651299 0.015360242 0.022088746 -0.014877824
00000000: b4b6 d53a 39fd cf3b dba7 01ba f0e2 afbb
00000010: 774c 963c 631e 19bc ae8d 20bc eaff 35bc
00000020: a03f b5ba 8f75 dcbb 0cb5 ff3b 6381 383c
00000030: 7d22 a93c 04a3 0e3c a5fa 39bc 82ee e93b
00000040: ad4c 833b acf6 f13b 59c5 153c a4c8 16bb
00000050: a3b4 24bc fea5 d7bb 8479 313c 93c3 2fbc
00000060: 2fff 8bb9 cae1 a1bc e6e9 a0bc d005 18bc
00000070: 1ba5 1c3a d4fc 34bb 4d60 c8bb 78b2 5dbc
00000080: 859a 133c 6fd4 dc3b ee66 7ebc 0b8c 3cba
00000090: b219 0d3b afd5 08bc 50a2 1cbb cd8f 783b
000000a0: e011 cfbb e5bb c2b9 fc0a cf39 50b7 6b3a
000000b0: d049 5e3a 0191 e93b 5c5f a33b f15c 463c
000000c0: 0bee 583c 4cdf 28bc 9797 503c 5c32 f8bc
000000d0: aeed d1bb cfd7 92bc 1d9d 343c 0f76 973b
000000e0: a41b 8b3b b9e3 a03c 5106 babc daa7 c33b
000000f0: c982 2ebc 86a9 7b3c 75f3 b43c 1ec2 73bc

pe f4 [1, 189, 64]
0.0 1.0 0.0 1.0 0.0 1.0 0.0 1.0
0.0 1.0 0.0 1.0 0.0 1.0 0.0 1.0
0.0 1.0 0.0 1.0 0.0 1.0 0.0 1.0
0.0 1.0 0.0 1.0 0.0 1.0 0.0 1.0
0.0 1.0 0.0 1.0 0.0 1.0 0.0 1.0
0.0 1.0 0.0 1.0 0.0 1.0 0.0 1.0
0.0 1.0 0.0 1.0 0.0 1.0 0.0 1.0
0.0 1.0 0.0 1.0 0.0 1.0 0.0 1.0
0.84147096 0.54030234 0.68156135 0.731761 0.53316844 0.8460091 0.40930894 0.91239583
0.3109836 0.9504153 0.23492105 0.9720145 0.17689219 0.9842302 0.13295726 0.99112177
0.099833414 0.9950042 0.07491915 0.9971896 0.05620449 0.9984193 0.04215715 0.999111
0.031617504 0.99950004 0.023711512 0.99971884 0.017781857 0.99984187 0.013334819 0.99991107
0.009999833 0.99995 0.0074988706 0.99997187 0.0056233825 0.9999842 0.0042169513 0.9999911
0.0031622713 0.999995 0.0023713715 0.9999972 0.0017782785 0.99999845 0.0013335211 0.9999991
0.0009999998 0.9999995 0.000749894 0.9999997 0.0005623411 0.9999998 0.00042169637 0.99999994
0.00031622782 0.99999994 0.00023713727 1.0 0.00017782794 1.0 0.00013335208 1.0
0.9092974 -0.41614684 0.99748 0.070948265 0.9021307 0.43146282 0.74690354 0.66493237
0.5911271 0.8065784 0.45669332 0.8896242 0.34820527 0.93741834 0.26355368 0.96464473
0.19866931 0.9800666 0.1494172 0.98877424 0.1122313 0.9936821 0.08423935 0.99644554
0.063203394 0.9980007 0.04740969 0.9988755 0.03555809 0.9993676 0.026667267 0.99964434
0.019998666 0.9998 0.014997319 0.9998875 0.011246587 0.99993676 0.008433828 0.9999644
0.006324511 0.99998003 0.00474273 0.99998873 0.0035565514 0.9999937 0.0026670396 0.9999964
0.0019999985 0.99999803 0.0014997876 0.99999887 0.0011246821 0.99999934 0.0008433926 0.99999964
0.0006324556 0.9999998 0.0004742745 0.9999999 0.00035565588 0.99999994 0.00026670416 1.0
0.14112 -0.9899925 0.7782725 -0.6279267 0.9932532 -0.11596616 0.95363444 0.3009673
0.8126489 0.58275366 0.652904 0.7574407 0.5085361 0.86104065 0.3894703 0.92103904
0.2955202 0.9553365 0.22307542 0.9748012 0.16790329 0.9858035 0.12617177 0.9920084
0.094726086 0.99550337 0.071081206 0.9974705 0.053323083 0.9985773 0.039994974 0.99919987
0.0299955 0.99955004 0.022494925 0.999747 0.016869437 0.9998577 0.012650555 0.99991995
0.009486687 0.999955 0.0071140616 0.9999747 0.005334813 0.99998575 0.0040005534 0.999992
0.0029999954 0.9999955 0.0022496805 0.9999975 0.0016870227 0.99999857 0.0012650888 0.9999992
0.00094868336 0.9999996 0.00071141176 0.99999976 0.0005334838 0.9999999 0.00040005625 0.99999994
00000000: 0000 0000 0000 803f 0000 0000 0000 803f
00000010: 0000 0000 0000 803f 0000 0000 0000 803f
00000020: 0000 0000 0000 803f 0000 0000 0000 803f
00000030: 0000 0000 0000 803f 0000 0000 0000 803f
00000040: 0000 0000 0000 803f 0000 0000 0000 803f
00000050: 0000 0000 0000 803f 0000 0000 0000 803f
00000060: 0000 0000 0000 803f 0000 0000 0000 803f
00000070: 0000 0000 0000 803f 0000 0000 0000 803f
00000080: 0000 0000 0000 803f 0000 0000 0000 803f
00000090: 0000 0000 0000 803f 0000 0000 0000 803f
000000a0: 0000 0000 0000 803f 0000 0000 0000 803f
000000b0: 0000 0000 0000 803f 0000 0000 0000 803f
000000c0: 0000 0000 0000 803f 0000 0000 0000 803f
000000d0: 0000 0000 0000 803f 0000 0000 0000 803f
000000e0: 0000 0000 0000 803f 0000 0000 0000 803f
000000f0: 0000 0000 0000 803f 0000 0000 0000 803f
00000100: a46a 573f 4151 0a3f ce7a 2e3f b054 3b3f
00000110: ba7d 083f 0d94 583f f190 d13e c692 693f
00000120: 3e39 9f3e 6b4e 733f 258f 703e f1d5 783f
00000130: 3a23 353e 83f6 7b3f f325 083e 28ba 7d3f
00000140: 7675 cc3d 98b8 7e3f 366f 993d d147 7f3f
00000150: ae36 663d 6898 7f3f faac 2c3d bdc5 7f3f
00000160: 5b81 013d 3cdf 7f3f a53e c23c 93ed 7f3f
00000170: 42ab 913c a3f5 7f3f 497a 5a3c 2cfa 7f3f
00000180: 57d6 233c b9fc 7f3f 16b9 f53b 28fe 7f3f
00000190: 5a44 b83b f7fe 7f3f 5a2e 8a3b 6bff 7f3f
000001a0: 1c3e 4f3b acff 7f3f 0369 1b3b d1ff 7f3f
000001b0: 2015 e93a e6ff 7f3f 8bc9 ae3a f1ff 7f3f
000001c0: 6d12 833a f8ff 7f3f 8994 443a fbff 7f3f
000001d0: 136a 133a fdff 7f3f 2117 dd39 ffff 7f3f
000001e0: 61cb a539 ffff 7f3f 0da8 7839 0000 803f
000001f0: 5377 3a39 0000 803f 6dd4 0b39 0000 803f
00000200: b7c7 683f 3311 d5be d95a 7f3f 534d 913d
00000210: 0af2 663f b2e8 dc3e 1235 3f3f 0239 2a3f
00000220: 1b54 173f ec7b 4e3f b5d3 e93e 69be 633f
00000230: f647 b23e a6fa 6f3f 82f0 863e f5f2 763f
00000240: f86f 4b3e a5e5 7a3f d300 193e 4f20 7d3f
00000250: 86d9 e53d f361 7e3f ae85 ac3d 0e17 7f3f
00000260: c870 813d f97c 7f3f aa30 423d 4eb6 7f3f
00000270: 5ca5 113d 8ed6 7f3f 5075 da3c b1e8 7f3f
00000280: 3ed4 a33c e5f2 7f3f 51b7 753c a1f8 7f3f
00000290: 9b43 383c dbfb 7f3f 0a2e 0a3c abfd 7f3f
000002a0: d83d cf3b b1fe 7f3f e768 9b3b 43ff 7f3f
000002b0: 0815 693b 96ff 7f3f 80c9 2e3b c4ff 7f3f
000002c0: 6812 033b dfff 7f3f 8594 c43a edff 7f3f
000002d0: 126a 933a f5ff 7f3f 1f17 5d3a faff 7f3f
000002e0: 60cb 253a fdff 7f3f 0ca8 f839 feff 7f3f
000002f0: 5377 ba39 ffff 7f3f 6dd4 8b39 0000 803f
00000300: c381 103e 2670 7dbf de3c 473f cebf 20bf
00000310: d745 7e3f ab7f edbd 6321 743f 6318 9a3e
00000320: c209 503f 582f 153f b724 273f a2e7 413f
00000330: 6c2f 023f 296d 5c3f a768 c73e 37c9 6b3f
00000340: 6c4e 973e ef90 743f e26d 643e 928c 793f
00000350: d7ee 2b3e 9e5d 7c3f 2c33 013e 43f4 7d3f
00000360: c0ff c13d 4fd9 7e3f 0693 913d 3a5a 7f3f
00000370: 4e69 5a3d c3a2 7f3f c5d1 233d 90cb 7f3f
00000380: 1fb9 f53c 83e2 7f3f 4747 b83c 6bef 7f3f
00000390: c631 8a3c adf6 7f3f 4644 4f3c c1fa 7f3f
000003a0: 0d6e 1b3c 0dfd 7f3f 131d e93b 58fe 7f3f
000003b0: a8cf ae3b 11ff 7f3f 1317 833b 7aff 7f3f
000003c0: 929b 443b b5ff 7f3f 606f 133b d6ff 7f3f
000003d0: 171f dd3a e8ff 7f3f 56d1 a53a f3ff 7f3f
000003e0: 10b1 783a f9ff 7f3f 097e 3a3a fcff 7f3f
000003f0: 7ed9 0b3a feff 7f3f a4be d139 ffff 7f3f
