data/train_data/td_best_model.pt (torch, 821475 bytes, 31 tensors)

att_weights f4 [5]
0	0x3f8c39a4	1.095509
1	0x3f429f57	0.76024383
2	0x3f513ccd	0.817334
3	0x3f75bca1	0.9599095
4	0x3f7ac530	0.97957134

weight f4 [128, 4]
0	0x3e75c8b5	0.24002345
1	0x3e4580fe	0.19287488
2	0xbde69c57	-0.11260288
3	0x3e7c01a4	0.24610001
4	0xbe170c4a	-0.14750782
5	0xbc4baf97	-0.012432001
6	0xbca752b7	-0.020425184
7	0xbe3c3b30	-0.18381953
8	0xbe84c9e7	-0.2593529
9	0x3d62bc13	0.055355143
10	0xbe750038	-0.23925865
11	0xbda6ff60	-0.08154178
12	0xbc256c6d	-0.0100966515
13	0xbe4a0a14	-0.19730407
14	0xbe5a60fa	-0.21326056
15	0xbe3607da	-0.17776433
16	0xbdb6c274	-0.08923808
17	0xbe0315fc	-0.12801355
18	0xbcb2457f	-0.021761654
19	0xbd2cf344	-0.042224184
20	0xbac642d9	-0.0015126123
21	0x3d44d741	0.048056845
22	0x3d4fb8fc	0.050713524
23	0x3ced0189	0.028931396
24	0xbe1715eb	-0.14754455
25	0xbd341a2d	-0.043970276
26	0x3dce557a	0.10074897
27	0xbe182549	-0.14857973
28	0x3e77ffa3	0.24218611
29	0x3dbb6694	0.091504246
30	0x3e6c347c	0.23066896
31	0xbcf310f4	-0.02967117
32	0x3e3db909	0.18527617
33	0xbd2ee3d8	-0.042697757
34	0xbd8a6ca7	-0.06759005
35	0x3dd009d9	0.10158128
36	0xbe040b87	-0.12895022
37	0xbdfbd68c	-0.12296781
38	0xbe16e167	-0.14734422
39	0xbd861e0c	-0.065487
40	0xbcb23ba3	-0.021756953
41	0xbdb6c91a	-0.08925076
42	0xbc6f4f6d	-0.014606339
43	0x3e4db6b2	0.20089224
44	0x3d341930	0.043969333
45	0xbe37293d	-0.17886825
46	0x3c8bcf78	0.017066702
47	0xbd35ef11	-0.044417445
48	0x3dbf8cb7	0.09353011
49	0xbe65f8ad	-0.22458144
50	0xbe5fe1d9	-0.21863498
51	0xbd5cf43b	-0.053943854
52	0xbe1b5e9b	-0.15172808
53	0xbd9b05f1	-0.075694926
54	0xbb200f34	-0.0024423124
55	0x3d867b33	0.06566467
56	0xbd4615a1	-0.04836047
57	0xbc9c03ec	-0.019044839
58	0x3e11af14	0.14226943
59	0xbdd7fc7e	-0.10546206
60	0xbdac494d	-0.084124185
61	0xbe58516f	-0.21124814
62	0xbe41492c	-0.18875569
63	0x3dd04144	0.101686984
64	0xbd15fa49	-0.036615644
65	0xbd9dd46f	-0.07706534
66	0x3e286de7	0.16448174
67	0x3df54f76	0.119780466
68	0xbdd3c930	-0.10341108
69	0x3e2fb453	0.17158632
70	0xbe0866b8	-0.13320434
71	0xbd273e5c	-0.040830955
72	0x3dfc9936	0.1233391
73	0x3e321775	0.1739176
74	0x3e4a8b80	0.19779778
75	0xbd5a5a53	-0.053308796
76	0xbdf6253d	-0.120188214
77	0x3d71d632	0.059042163
78	0xbd3e8104	-0.046509758
79	0xbe482cae	-0.19548294
80	0x3cdea8e9	0.027180152
81	0x3d51937c	0.051166043
82	0xbe45b849	-0.1930858
83	0xbe354d2e	-0.17705223
84	0xbd00a2cf	-0.031405266
85	0x3dc33847	0.095322184
86	0x3e27fec6	0.16405782
87	0xbdaa0017	-0.083007984
88	0xbd1c57d2	-0.03816969
89	0xbe2d06af	-0.16897081
90	0x3d715422	0.058918126
91	0xbe63109f	-0.22174309
92	0x3d8c2196	0.068423435
93	0x3e2b9f80	0.16760063
94	0xbdf027ad	-0.117263176
95	0x3dddc256	0.10828082
96	0x3e264d54	0.16240436
97	0xbca24479	-0.019808041
98	0x3e33a8ba	0.17544833
99	0x3db5e3d5	0.08881346
100	0x3d20835b	0.03918777
101	0x3e013d84	0.12621123
102	0xbdb78730	-0.08961332
103	0x3e5a15e8	0.21297419
104	0x3cc864b2	0.024462078
105	0x3ddb9407	0.10721593
106	0x3dc63c76	0.09679501
107	0x3e06701b	0.13128702
108	0xbe42740b	-0.1898958
109	0xbd9499eb	-0.0725592
110	0xbdddc42e	-0.10828434
111	0xbe017aac	-0.12644452
112	0xbdb45e35	-0.08807031
113	0xbe1ec275	-0.15503867
114	0x3c13f7d5	0.009031256
115	0xbe48fd95	-0.19627984
116	0x3dfafd88	0.122553885
117	0x3dc924e2	0.09821488
118	0x3e0bf627	0.13668118
119	0x3e43e68a	0.19130912
120	0x3e314ae6	0.17313728
121	0x3d8b88fd	0.06813238
122	0x3e1a142a	0.15046754
123	0x3dc82381	0.09772397
124	0xbd5b5bd1	-0.05355436
125	0x3d9e3b64	0.077261716
126	0xbd0410db	-0.032242637
127	0xbc59dbbb	-0.013297017
128	0xbe3a698e	-0.18204328
129	0xbe0cede8	-0.13762629
130	0xbcbe64d5	-0.02324144
131	0x3d847a23	0.06468608
132	0xbdff1b7d	-0.12456415
133	0xbe0eaf25	-0.13934
134	0xbd319579	-0.04335544
135	0x3c8a73b2	0.016900871
136	0xbdc5cbb8	-0.09657997
137	0xbe18563a	-0.14876643
138	0x3d1ddc05	0.038539905
139	0xbe2969b8	-0.16544235
140	0xbe1548de	-0.14578578
141	0xbe5f09c9	-0.21781076
142	0xbc8bfcc3	-0.0170883
143	0xbe53bc08	-0.20677197
144	0xba1c87a8	-0.0005971142
145	0x3dbf8ed7	0.093534164
146	0x3d942644	0.07233861
147	0xbcbc8d8e	-0.023016717
148	0x3e1f2840	0.15542698
149	0x3e00cb22	0.12577489
150	0x3e0f2525	0.13979013
151	0x3d3ff792	0.04686696
152	0xbe11a1ae	-0.14221832
153	0xbe613d15	-0.21995957
154	0xbe524313	-0.205334
155	0xbdbddd7e	-0.09270762
156	0x3dd80637	0.105480604
157	0x3d9dbe1a	0.077022746
158	0x3db3720f	0.08761989
159	0xbbd0034b	-0.006348049
160	0x3daf7dee	0.08568941
161	0x3d42f7aa	0.047599472
162	0xbdc9fe2e	-0.09862934
163	0xbe4546fb	-0.19265358
164	0xbd0259b4	-0.03182383
165	0xbdf891d7	-0.12137192
166	0x3d1b02ae	0.037844352
167	0x3b9d24d6	0.004795651
168	0x3e264565	0.1623741
169	0x3dba8b00	0.091085434
170	0xbe0a0920	-0.13480043
171	0x3da5dc7a	0.08098693
172	0x3dcd5f2e	0.1002792
173	0x3e2c5ef6	0.168331
174	0x3e395a0d	0.18100758
175	0x3e35c211	0.17749812
176	0xbe431a5f	-0.19053029
177	0x3c9caa11	0.019124063
178	0xbdb38f3d	-0.08767555
179	0x3de072f7	0.10959428
180	0x3df4fffc	0.11962888
181	0x3e0a9d6c	0.13536614
182	0x3e04dc1d	0.12974592
183	0x3d923f62	0.071409956
184	0x3dead7d2	0.11466946
185	0xbc7720a7	-0.0150834685
186	0xbdeef355	-0.11667506
187	0xbddaae7a	-0.1067781
188	0x3d02063d	0.03174423
189	0x3e4e98b4	0.20175439
190	0x3e312643	0.17299752
191	0x3e06ab1b	0.13151209
192	0xbe0684da	-0.13136616
193	0xbd21c9f4	-0.039499238
194	0x3d69cf05	0.057082195
195	0xbe5d394d	-0.2160389
196	0x3e2395b0	0.1597507
197	0x3e2ef412	0.17085293
198	0x3def80f3	0.11694517
199	0x3e4912be	0.19636056
200	0x3d830dae	0.063990936
201	0x3ccad802	0.024761204
202	0xbe36368c	-0.17794245
203	0x3d5dedd5	0.054181892
204	0xbdc112df	-0.094274275
205	0x3e0363e3	0.12831073
206	0x3db09337	0.08621829
207	0xbdeaa553	-0.11457314
208	0xbcd44dda	-0.025916029
209	0x3dc76f9a	0.09738083
210	0x3d89217d	0.066958405
211	0xbdecb3fe	-0.11557768
212	0x3e054d13	0.13017683
213	0x3deffad6	0.11717765
214	0xbe0e190d	-0.13876744
215	0xbc252ea2	-0.010081919
216	0x3e0295dd	0.12752481
217	0x3da09fc4	0.07842973
218	0xbcb9bacc	-0.02267208
219	0xbcba4c22	-0.022741381
220	0x3e233c01	0.15940858
221	0x3dcb52af	0.0992788
222	0x3d9a8f5d	0.075468756
223	0x3da025d1	0.07819713
224	0xbe3b5cf1	-0.18297173
225	0x3c712aa0	0.014719635
226	0xba4b4819	-0.0007754579
227	0xbe0dd515	-0.13850816
228	0x3cedaa91	0.029011996
229	0x3d8511b4	0.06497517
230	0xbd93c493	-0.07215228
231	0xbe2da8d3	-0.16958933
232	0x3e12da9c	0.14341205
233	0x3e243368	0.16035235
234	0x3e356df8	0.17717731
235	0x3e768be4	0.24076802
236	0xbe3d9c2e	-0.18516609
237	0xbd2192d5	-0.03944667
238	0xbe37671c	-0.17910427
239	0x3d9ef520	0.07761598
240	0x3e0cfd20	0.13768435
241	0x3e4a474a	0.19753757
242	0x3e08d099	0.13360824
243	0x3d4e6e50	0.05039817
244	0xbd9bf803	-0.07615664
245	0xbdfebd4a	-0.12438448
246	0xbda75cda	-0.08172007
247	0xbe24c20d	-0.1608965
248	0xbd4f4d71	-0.050610963
249	0xbe66c845	-0.22537334
250	0xbb13c954	-0.002255042
251	0xbe2f02e8	-0.17090952
252	0xbe0f7bed	-0.14012118
253	0x3d1475e9	0.03624526
254	0x3b2c100f	0.002625469
255	0xbdc59023	-0.096466325

bias f4 [128]
0	0x3dadce6a	0.08486636
1	0xbe6501fc	-0.22364038
2	0x3eb15236	0.34633034
3	0xbec6b823	-0.3881236
4	0x3d2bd4c5	0.04195096
5	0x3e84d283	0.25941858
6	0xbe3c8257	-0.18409096
7	0x3eb68fc3	0.35656556
8	0xbe8b4753	-0.27202854
9	0xbdaa48e1	-0.08314682
10	0xbeb31f7b	-0.34984955
11	0x3e2c515a	0.16827908
12	0x3a4e9de7	0.00078818056
13	0xbe8360eb	-0.2565988
14	0x3e64697f	0.22305869
15	0xbe289e3d	-0.16466613
16	0xbcc82bb3	-0.0244349
17	0x3ead10cf	0.33801886
18	0xbcf06808	-0.029346481
19	0xbe95212a	-0.29126865
20	0x3e94b2fd	0.29042807
21	0x3e64a42e	0.22328255
22	0x3eb94f43	0.36193284
23	0x3e92fcd2	0.28708512
24	0xbe2d6804	-0.1693421
25	0x3e6aa29a	0.2291359
26	0xbe04439b	-0.12916414
27	0x3d272e83	0.04081584
28	0xbe540e26	-0.20708522
29	0x3d843599	0.064555354
30	0x3e2d0076	0.16894707
31	0x3c37144a	0.011174271
32	0x3eafa474	0.34305155
33	0xbea1e697	-0.3162124
34	0xbc2a7d05	-0.010405784
35	0x3ad896c3	0.0016524423
36	0xbe5bbff1	-0.21459939
37	0xbe93cda3	-0.28867826
38	0x3e60dbce	0.21958849
39	0x3eaeb496	0.3412215
40	0xbea1369e	-0.31486982
41	0x3e013bcd	0.12620468
42	0x3e9adbde	0.3024587
43	0xbe951b43	-0.29122362
44	0x3e39f57f	0.18160056
45	0x3ed07668	0.40715337
46	0x3e657bb1	0.22410466
47	0xbecd6349	-0.4011481
48	0xbe83e601	-0.25761417
49	0x3eb4f336	0.35341805
50	0x3e0ea91d	0.13931699
51	0x3d848255	0.06470171
52	0x3e6f8bd7	0.23393188
53	0xbe82dbe2	-0.25558382
54	0x3e822139	0.25415972
55	0x3df78f2f	0.12087857
56	0x3e0407f8	0.12893665
57	0xbde02d5d	-0.10946152
58	0xbda97cdf	-0.082757704
59	0x3ddfbdd2	0.10924877
60	0x3c115ff1	0.008872972
61	0xbe6f66f4	-0.23379117
62	0x3eb1687c	0.34650028
63	0xbd8658d8	-0.06559914
64	0x3dd26f9e	0.102751955
65	0x3e515d2b	0.20445697
66	0xbdfc0f0a	-0.12307556
67	0x3d55bb9e	0.05218088
68	0x3db758ec	0.089525074
69	0x3e957ab2	0.29195172
70	0x3eb0f86c	0.3456453
71	0x3e0b20e3	0.13586764
72	0x3e561d9d	0.20909734
73	0x3ed9eb66	0.42562407
74	0xbe60b657	-0.21944557
75	0x3e8804cf	0.2656617
76	0x3ec83d9b	0.391095
77	0xbda5b275	-0.080906786
78	0xbe44a38d	-0.19203015
79	0x3c854034	0.016265966
80	0xbca902ee	-0.02063128
81	0xbe0708bc	-0.13186926
82	0x3e543b07	0.20725642
83	0x3e10cdc0	0.14140987
84	0xbdffa761	-0.12483097
85	0x3d59ad91	0.05314404
86	0x3eb4568f	0.3522229
87	0x3e3386a4	0.1753183
88	0x3d7a279a	0.061072923
89	0xbe525c7c	-0.20543092
90	0xbe5653f0	-0.20930457
91	0xbe19fb5b	-0.15037291
92	0x3e5dd7d7	0.21664368
93	0xbe5688ae	-0.20950577
94	0xbe8cc352	-0.27492768
95	0xbea9fc94	-0.33200514
96	0xbdb36414	-0.08759323
97	0xbe88319c	-0.2660035
98	0x3e9a1ea3	0.301015
99	0xbd7212e3	-0.059100043
100	0x3ec1262e	0.3772444
101	0xbde1174a	-0.1099077
102	0x3b61d422	0.0034458716
103	0xbeba37d0	-0.36370707
104	0xbc1d9d44	-0.009620015
105	0x3ec4dad8	0.38448215
106	0xbdab87c5	-0.08375505
107	0x3ea22711	0.3167043
108	0x3e89bba4	0.2690097
109	0x3c5e97ef	0.0135860285
110	0x3ebc6605	0.36796585
111	0xbe7b5e80	-0.24547768
112	0x3d0b8851	0.03406555
113	0x3e8baeaa	0.27281696
114	0x3ebdd4f6	0.3707654
115	0xbd9f0f94	-0.07766643
116	0xbc9f0b1b	-0.019414475
117	0xbb553cdd	-0.0032537498
118	0xbdd33211	-0.10312284
119	0x3ebeca06	0.37263507
120	0xbe1df0ac	-0.1542384
121	0xbe99a587	-0.300091
122	0xbdf3b9c0	-0.119006634
123	0x3ea87509	0.3290179
124	0x3e992ac4	0.2991544
125	0xbbadc2b9	-0.0053027538
126	0xbdb3b44a	-0.08774622
127	0x3e80b4f5	0.2513806

weight f4 [128, 7]
0	0x3c8ca235	0.01716719
1	0x3e04f263	0.12983088
2	0x3d2e4483	0.042545807
3	0x3db2b6a7	0.087262444
4	0xbd828076	-0.06372158
5	0xbd8e20df	-0.069398634
6	0xbe115adb	-0.14194815
7	0x3ddd70d5	0.108125366
8	0xbdea4758	-0.11439389
9	0xbda140d9	-0.07873697
10	0xbd1926b8	-0.03739044
11	0x3c93341f	0.01796919
12	0x3ba98e30	0.005174421
13	0xbd8ecdf0	-0.06972873
14	0xbdaeaafa	-0.08528705
15	0x3dc47520	0.09592652
16	0xbddcff8c	-0.10790929
17	0xbc538dd8	-0.012912236
18	0x3c1f4c8b	0.009722839
19	0x3c361eca	0.011115739
20	0xbcea6d62	-0.02861661
21	0x3d2f473f	0.042792555
22	0xbdebf698	-0.115216434
23	0x3c287024	0.010280643
24	0x3dc7dee9	0.097593136
25	0x3da0f570	0.078593135
26	0xbe259d9a	-0.16173401
27	0x3dd8d4da	0.10587473
28	0xbd73c0d3	-0.059510063
29	0xbd4f50d0	-0.05061418
30	0x3cad6388	0.021165624
31	0xbd842586	-0.064524695
32	0x3c98b30c	0.018640064
33	0x3c1785ea	0.009248236
34	0x3b970e8c	0.0046098884
35	0xbe02c9fd	-0.12772365
36	0xbe06b8e9	-0.13156475
37	0xbe11d763	-0.1424232
38	0x3cef1eac	0.02918943
39	0x3bf585ca	0.0074927555
40	0xbdbee2c4	-0.09320596
41	0xbdf6fc31	-0.120598204
42	0xbcfaa58d	-0.030596519
43	0xbdcaf207	-0.09909444
44	0x3d150fcf	0.03639203
45	0xbdcd573c	-0.10026404
46	0xbdd3a3b1	-0.10333956
47	0x3dd42b74	0.103598505
48	0xbdf711d7	-0.120639496
49	0x3db66158	0.089052856
50	0x3e1ecbd5	0.15507443
51	0x3ce510f9	0.027962195
52	0x3de69168	0.11258203
53	0xbc581e29	-0.0131907845
54	0xbda4b2f9	-0.08041949
55	0xbde9d7da	-0.114181235
56	0x3dab8d57	0.08376568
57	0x3d80a4ee	0.06281458
58	0xbdd169b1	-0.10225237
59	0x3bd68a5d	0.006547256
60	0xbd3df7c0	-0.04637885
61	0x3da60846	0.08107047
62	0x3ccdbe68	0.025115207
63	0x3e18672d	0.14883108
64	0x3dccd635	0.10001794
65	0x3ca015c8	0.019541636
66	0x3d892903	0.066972755
67	0x3dac770b	0.08421143
68	0xbdf60129	-0.1201194
69	0xbd114908	-0.03547004
70	0xbd24bbad	-0.040218044
71	0x3e3b3166	0.18280563
72	0x3de18ab5	0.110127844
73	0x3d1d13a4	0.03834881
74	0x3d83a149	0.06427247
75	0xbc8f24d9	-0.017473625
76	0x3c249872	0.010046111
77	0x3d714ca7	0.058910992
78	0x3d3f00ab	0.046631496
79	0xbe0d7016	-0.13812289
80	0x3de11ea9	0.10992176
81	0xbc9ff6e2	-0.019526903
82	0xbdab734f	-0.08371603
83	0xbd28287a	-0.041054226
84	0x3d2b3a04	0.041803375
85	0xbdad1e90	-0.08453095
86	0xbd6e45e2	-0.058172114
87	0xbcdefa46	-0.027218949
88	0x3dc62802	0.096756
89	0xbe06b90e	-0.1315653
90	0xbdc60600	-0.09669113
91	0xbe143d7c	-0.1447658
92	0xbd8f3712	-0.06992926
93	0x3d6221b5	0.055207927
94	0x3d7ed660	0.062216163
95	0xbd2b61f9	-0.04184148
96	0x3cfc3224	0.030785628
97	0x3af2d647	0.0018526994
98	0x3e07c417	0.13258396
99	0x3dac5cf7	0.08416169
100	0x3def9b36	0.11699526
101	0x3d6bc20e	0.05755811
102	0xbdf7a96b	-0.12092861
103	0xbcee164d	-0.029063368
104	0xbcf80b44	-0.03027881
105	0x3d857ca9	0.06517918
106	0x3d9036b6	0.07041685
107	0x3d2d57c6	0.042320035
108	0xbded3701	-0.11582757
109	0xbd3b7a90	-0.04577118
110	0x3df01b9d	0.11724017
111	0xbde0f264	-0.10983732
112	0xbce42ca2	-0.027853314
113	0x3d2db08b	0.042404693
114	0xbdd0ce69	-0.101956196
115	0xbd6f0b01	-0.058360104
116	0xbdbbc102	-0.09167673
117	0x3d9740c6	0.073854014
118	0x3d1c6521	0.03818238
119	0x3e15148c	0.1455862
120	0x3e413267	0.18866883
121	0x3cf270f7	0.029594881
122	0x3c9d186e	0.019176688
123	0xbdaacdd7	-0.08340042
124	0xbb258922	-0.002525874
125	0xbd764c66	-0.060131453
126	0x3dc68a66	0.09694366
127	0x3dac4b73	0.08412828
128	0x3d418cca	0.047253408
129	0x3d0e7091	0.03477532
130	0xbdcfdfe3	-0.10150125
131	0xbd349a58	-0.044092506
132	0xbcbff296	-0.023431104
133	0x3ca6e06b	0.020370683
134	0xbe2164d6	-0.15761122
135	0xbdd18440	-0.10230303
136	0x3e064bdc	0.13114876
137	0xbe017489	-0.12642111
138	0x3dbe5e00	0.09295273
139	0xbdb139af	-0.086535804
140	0x3cf9ea52	0.03050724
141	0xbe2a9736	-0.16659245
142	0x3d262b31	0.040568534
143	0xbd8f9b23	-0.07012012
144	0xbdc5674a	-0.096388415
145	0xbcecc324	-0.028901644
146	0x3d152d92	0.036420412
147	0x3e02cde1	0.12773849
148	0xbc7bb736	-0.015363505
149	0xbd13361e	-0.035940282
150	0xbdde9649	-0.10868508
151	0xbdb4541c	-0.08805105
152	0x3e1386fa	0.14406958
153	0xbbe8c6fa	-0.007103798
154	0xbdd872b0	-0.1056875
155	0xbe1e5a6f	-0.15464185
156	0xbd868ba3	-0.06569602
157	0x3c0ac5ab	0.008469979
158	0xbddf87db	-0.10914584
159	0x3e08cd41	0.13359548
160	0xbca29480	-0.019846201
161	0x3d53570e	0.051596694
162	0xbdf793db	-0.12088748
163	0xbe1772b0	-0.14789844
164	0xbcdecae9	-0.027196364
165	0x3de45b43	0.11150219
166	0xbdea4382	-0.11438657
167	0x3df27536	0.118387625
168	0x3d122f97	0.035689916
169	0x3e129b55	0.14317067
170	0x3ba42a08	0.0050098933
171	0x3d7f4a4e	0.06232672
172	0xbcffec28	-0.031240538
173	0x3e15dbcd	0.14634629
174	0xbe1202a5	-0.14258821
175	0x3c1d48e4	0.009599898
176	0x3e456c5c	0.19279617
177	0x3e3084b7	0.17238127
178	0xbd2744bd	-0.04083704
179	0xbab25cdc	-0.0013607997
180	0x3c85f385	0.01635147
181	0x3c871ddf	0.016493736
182	0xbd04e677	-0.03244635
183	0xb966dfcc	-0.0002201788
184	0xbd8b0273	-0.067875765
185	0x3d2327af	0.039832767
186	0x3dc5b01d	0.096527316
187	0x3ccd4104	0.025055416
188	0x3dab9188	0.08377367
189	0x3d8564b3	0.065133475
190	0x3e1fd921	0.15610172
191	0xbd9688f1	-0.07350338
192	0xbdfbc204	-0.12292865
193	0xbddf2d46	-0.10897307
194	0x3dd3694c	0.10322818
195	0x3c9f334d	0.019433642
196	0x3d004c00	0.03132248
197	0xbdecc7da	-0.11561556
198	0xbc0221e6	-0.007942652
199	0xbd56fba8	-0.05248609
200	0xbc9275dc	-0.017878465
201	0x3ca1ec55	0.019766012
202	0xbd24fdc0	-0.040281057
203	0x3bd13743	0.0063847615
204	0xbd009252	-0.031389542
205	0xbe0b7d96	-0.13622126
206	0xbd8883eb	-0.06665786
207	0x3dc4476e	0.09583937
208	0x3dfc5038	0.12319988
209	0x3dd42be9	0.10359938
210	0x3e1ad5b7	0.15120588
211	0x3e5c8178	0.21533763
212	0x3e19bebe	0.15014169
213	0x3d2c8ef9	0.042128537
214	0xbcea33f5	-0.028589228
215	0xbe1167d3	-0.14199762
216	0x3b9d3697	0.0047977674
217	0xbc87a35e	-0.016557392
218	0x3ce020c2	0.02735937
219	0xbe170cb2	-0.14750937
220	0xbdd02990	-0.101641774
221	0x3db667d8	0.089065254
222	0x3db6b6a9	0.089215584
223	0x3e0fb858	0.14035165
224	0x3dce18ec	0.10063347
225	0x3e0fea4a	0.14054218
226	0xbdf441c2	-0.11926605
227	0xbdb2e056	-0.08734195
228	0xbd7c11d1	-0.06154043
229	0x3d90fa3e	0.0707898
230	0x3dbfaddb	0.09359332
231	0xbddc88e6	-0.10768299
232	0x3e01e228	0.12683928
233	0xbb70ab04	-0.0036723027
234	0xbd194849	-0.037422452
235	0xbd6f4ac8	-0.058420926
236	0xbd345580	-0.04402685
237	0x3d304327	0.04303279
238	0xbd672a5d	-0.056436885
239	0xbde564e5	-0.11200885
240	0x3c01b3e0	0.007916421
241	0xbcd72128	-0.026260927
242	0x3d917965	0.07103232
243	0x3c8f175c	0.017467193
244	0x3c28329d	0.010265973
245	0xbd56e0c2	-0.05246044
246	0xbc537826	-0.012907064
247	0x3c9ad880	0.018902063
248	0x3e030ae1	0.12797119
249	0xbde5ca5e	-0.11220239
250	0x3bbb08e0	0.005707845
251	0xbde7e01a	-0.11322041
252	0x3de7b90f	0.11314594
253	0x3cccd975	0.025006035
254	0x3daf5698	0.08561438
255	0xbdf6c5bf	-0.12049436

bias f4 [128]
0	0x3dd13931	0.102159865
1	0xbbf178f5	-0.0073691555
2	0x3cd87990	0.026425153
3	0xbe975ed1	-0.29564527
4	0xbdeac93c	-0.11464164
5	0xbe1dc8fe	-0.15408704
6	0xbdcfe9fb	-0.1015205
7	0x3e87e8e5	0.26544872
8	0xbd8e74ff	-0.06955909
9	0xbe970f54	-0.29503882
10	0xbd6b7664	-0.057485953
11	0xbe6f92b1	-0.23395802
12	0x3cbbda41	0.02293122
13	0xbe8631cf	-0.26209876
14	0x3e0d8eea	0.13824049
15	0x3a061ef6	0.0005116308
16	0xbda69be6	-0.08135204
17	0xbe604371	-0.21900727
18	0xbe66de70	-0.2254579
19	0x3e8b57ee	0.27215523
20	0x3e0a6279	0.13514127
21	0xbe73fc46	-0.23826703
22	0x3ea90ca2	0.3301745
23	0xbdb704bf	-0.08936452
24	0xbde6b7be	-0.11265515
25	0x3e4f5483	0.20247082
26	0x3e26835c	0.16261047
27	0xbe819882	-0.25311667
28	0xbdb43093	-0.08798327
29	0x3e7f6aef	0.24943136
30	0xbd852dde	-0.06502889
31	0xbce66630	-0.028124899
32	0x3dba38d5	0.09092871
33	0x3e1a8318	0.15089071
34	0xbdbb6797	-0.091506176
35	0x3eab0d82	0.33408743
36	0xbe90fc90	-0.2831769
37	0x3da07c29	0.07836182
38	0x3e5d93c4	0.216384
39	0xbd56ef7d	-0.052474488
40	0x3dea7b84	0.1144934
41	0x3da32dfe	0.07967757
42	0x3ddae11c	0.106874675
43	0xbdf3f92c	-0.1191276
44	0xbe07bff8	-0.13256824
45	0xbe93f001	-0.28894046
46	0xbe5bf065	-0.21478422
47	0x3dcdc068	0.10046464
48	0xbdb57cf9	-0.08861727
49	0x3ea809e3	0.32820043
50	0x3e19e83b	0.15029995
51	0xbd41b372	-0.047290273
52	0x3e3588d1	0.17727973
53	0x3cf21bf5	0.029554347
54	0x3d384893	0.044991087
55	0x3e930ae8	0.28719258
56	0xbe0bd082	-0.13653758
57	0xbe9720a4	-0.2951709
58	0xbd63144c	-0.05543928
59	0xbd071d1a	-0.032986738
60	0xbcee391d	-0.029079968
61	0x3d619c5f	0.055080768
62	0x3e421206	0.18952188
63	0x3d429722	0.047507413
64	0x3e01d798	0.12679899
65	0xbe2accfd	-0.1667976
66	0x3ea6cf72	0.32580143
67	0xbe5956f9	-0.21224584
68	0xbde1bb31	-0.11022032
69	0xbe2fa554	-0.17152911
70	0xbe8843b1	-0.26614144
71	0xbea71054	-0.32629645
72	0x3e37430f	0.17896675
73	0xbddc742d	-0.10764346
74	0x3c10b89a	0.008833075
75	0x3e83a429	0.25711182
76	0x3dcd457c	0.10023019
77	0x3de31069	0.11087114
78	0x3db3b797	0.08775251
79	0x3eb10d84	0.34580624
80	0x3e804d9e	0.25059217
81	0x3e70ccc1	0.23515607
82	0x3e537ad8	0.2065233
83	0xbcc94705	-0.024569998
84	0xbe8fc133	-0.28077087
85	0xbe6d88bb	-0.2319669
86	0x3e9ddf79	0.3083456
87	0xbe9914b3	-0.29898605
88	0xbe11d6b1	-0.14242055
89	0x3da5b64b	0.0809141
90	0xbe9b51a2	-0.30335718
91	0xbe365bf9	-0.17808522
92	0x3e1bad34	0.1520279
93	0xbe48ad18	-0.1959728
94	0xbbdbc1c6	-0.006706449
95	0x3b73ac22	0.0037181457
96	0xbe8731ba	-0.26405126
97	0x3e864c93	0.26230296
98	0x3e628141	0.22119619
99	0xbe1f94bd	-0.15584083
100	0xbc466170	-0.012108192
101	0xbdcb0e4e	-0.09914838
102	0x3e4bafc3	0.19891267
103	0xbd0f4c06	-0.03498461
104	0x3dd503d6	0.10401122
105	0xbe18ba9f	-0.1491494
106	0xbcc97bcc	-0.024595164
107	0xbbc5ad48	-0.0060326196
108	0xbe3c842b	-0.18409793
109	0xbe3745e4	-0.17897755
110	0xbe80c12b	-0.25147375
111	0x3e1ece41	0.15508367
112	0x3d955061	0.07290722
113	0xbe7e1728	-0.24813521
114	0x3c2429e6	0.010019755
115	0xbda523d5	-0.08063475
116	0x3d6348ab	0.055489223
117	0xbc5fa1a4	-0.013649378
118	0x3e18971c	0.14901394
119	0xbe89ca5b	-0.26912197
120	0xbe9a495a	-0.30134088
121	0x3e9eca52	0.31013733
122	0xbe326ea8	-0.17425025
123	0x3d0469a5	0.032327313
124	0x3bcd0abb	0.0062573827
125	0xbca5cee3	-0.020240253
126	0xbe358a7d	-0.1772861
127	0x3dd5bbc1	0.10436202

weight f4 [128, 7]
0	0x3c43c61c	0.011949088
1	0x3dbc9099	0.09207267
2	0x3d8f287d	0.069901444
3	0x3bb18eea	0.005418648
4	0xbdab56d6	-0.08366172
5	0x3d3bbcfa	0.04583452
6	0xbd87cb3d	-0.066305615
7	0x3dc43585	0.095805205
8	0x3df27ce2	0.11840226
9	0xbd6239f4	-0.05523105
10	0xbd3fa2b8	-0.04678604
11	0xbdc0f961	-0.09422565
12	0xbde19bfb	-0.11016079
13	0xbe2d940c	-0.16951007
14	0x3a54e8a2	0.0008121823
15	0x3d915af0	0.07097423
16	0x3b91bb76	0.004447396
17	0xbc477764	-0.012174461
18	0xbda7cea1	-0.08193708
19	0x3d3f9721	0.046774987
20	0xbe0dc5e1	-0.13845016
21	0x3c5bef5d	0.013423768
22	0xbd2d194f	-0.042260464
23	0x3c41b16d	0.011822087
24	0x3d55bae7	0.052180197
25	0xbd886eca	-0.06661756
26	0xbd4fe28c	-0.05075316
27	0xbd3f3ea6	-0.046690606
28	0x3d1ea47a	0.038731076
29	0xbccbcf90	-0.024879247
30	0x3be7e5c5	0.007076951
31	0xbd15ec2e	-0.03660219
32	0xbc73aaea	-0.014872292
33	0x3d9ab0d2	0.07553257
34	0xbe0b710b	-0.13617341
35	0xbd8811dd	-0.06644032
36	0x3dde1a5e	0.10844873
37	0x3dca3d15	0.09874932
38	0x3c7dddb4	0.015494753
39	0xbd85fb9f	-0.065421335
40	0xbc47f982	-0.012205483
41	0xbe006b0d	-0.12540837
42	0xbd19aac7	-0.03751638
43	0x3d0037e0	0.031303287
44	0x3c948537	0.018129928
45	0x3db1285a	0.086502746
46	0x3d876242	0.06610538
47	0x3c7cef8a	0.01543797
48	0x3db72ad3	0.08943715
49	0x3ccad854	0.024761356
50	0xbd3bf173	-0.04588456
51	0x3dcb1ee2	0.09918
52	0x3ce7e595	0.028307715
53	0x3d845359	0.0646121
54	0xbd387c57	-0.045040455
55	0x3cd3c95a	0.025852848
56	0x3d1af0b3	0.037827205
57	0x3c213967	0.009840346
58	0xbc8dfc2c	-0.017332159
59	0xbc6ff3dc	-0.014645543
60	0xbd90e0a8	-0.070741
61	0xbb43d392	-0.0029880744
62	0x3deeff6d	0.11669812
63	0xbc6478e8	-0.013944842
64	0xbd80bac4	-0.06285623
65	0x3cf60c26	0.03003509
66	0xbc5f2684	-0.013620023
67	0x3a76e7ff	0.00094187254
68	0x3aa57fd9	0.0012626603
69	0x3d7668a2	0.06015838
70	0x3de48787	0.11158662
71	0xbdd6b61b	-0.104839526
72	0xbe0ce209	-0.137581
73	0x3db559ce	0.088550195
74	0x3c1c5118	0.009540819
75	0x3d5adf52	0.05343563
76	0xbda27792	-0.079329625
77	0xbdc2a1c5	-0.09503511
78	0xbd451271	-0.04811329
79	0x3da7e937	0.08198779
80	0xbd8fd605	-0.07023243
81	0xbaf8a408	-0.0018969784
82	0xbc0ad526	-0.00847367
83	0xbda3459c	-0.07972261
84	0xbdbbe24e	-0.091740236
85	0xbc748bcf	-0.014925911
86	0x3d0bdec6	0.034148
87	0x3d6983ee	0.057010584
88	0x3d80f69a	0.062970355
89	0xbdefd7f4	-0.11711112
90	0x3d8fb76b	0.07017406
91	0xbbd3efd4	-0.0064677987
92	0xbc315326	-0.010823047
93	0xbdcdcc8f	-0.10048782
94	0x3d312dec	0.043256685
95	0x3c74322f	0.014904543
96	0x3d374be3	0.044750106
97	0x3dcdb01b	0.10043355
98	0xbd3e58b4	-0.046471313
99	0xbdc9243c	-0.09821364
100	0xbc8176d1	-0.015803726
101	0x3d38e3bf	0.04513907
102	0xbd5b9ffc	-0.05361937
103	0xbda11f56	-0.07867305
104	0xbdc18a78	-0.09450239
105	0xbdde507f	-0.10855197
106	0x3dd7a7ca	0.1053005
107	0xbd9ff802	-0.078109756
108	0x3da4807b	0.08032318
109	0x3d9b2312	0.075750485
110	0x3dca05f4	0.09864417
111	0xbe1ab6a2	-0.15108731
112	0x3cb36896	0.021900456
113	0x3d9d2435	0.076729216
114	0xbd81a7e5	-0.063308515
115	0xbdb16952	-0.086626664
116	0xbd726d66	-0.05918636
117	0x3d2f8b2b	0.04285733
118	0x3d0abe8f	0.033873137
119	0xbd33b9ee	-0.04387849
120	0xbda8b747	-0.082380824
121	0xbdf58748	-0.119886935
122	0xbd1ae47d	-0.03781556
123	0x3e120194	0.14258415
124	0xbd4de43c	-0.05026649
125	0x3e0e3890	0.13888764
126	0xbd03f1ce	-0.032213025
127	0x3dc26f22	0.09493853
128	0x3d3229fc	0.04349707
129	0xbdb6ed62	-0.08931996
130	0xbcb1de4a	-0.021712441
131	0x3c617804	0.013761524
132	0x3de8b6c9	0.113629885
133	0xbc684538	-0.014176659
134	0xbd571723	-0.0525123
135	0x3e05c171	0.13062073
136	0xbc21816c	-0.009857517
137	0x3d09dafd	0.03365611
138	0xbd81a7f3	-0.06330862
139	0x3da4afd0	0.08041346
140	0x3c06e40c	0.008233082
141	0x3c968c95	0.018377582
142	0x3de6d758	0.11271542
143	0x3dc4fc09	0.096183844
144	0x3995d0d3	0.0002857508
145	0x3da52e6b	0.08065494
146	0xbc41778e	-0.011808289
147	0x3d160d44	0.036633745
148	0xbd854d32	-0.065088645
149	0x3ca662fb	0.02031087
150	0xbca27be2	-0.019834463
151	0xbb953921	-0.0045539294
152	0xbd4efcc1	-0.050534014
153	0xbd7d15ff	-0.061788555
154	0x3d2db4ca	0.042408742
155	0xbdb8705f	-0.09005808
156	0x3dbb88c9	0.09156949
157	0xbdab88f7	-0.08375733
158	0xbd0d2521	-0.034459237
159	0x3c5ebfb1	0.0135955075
160	0xbdc09051	-0.09402526
161	0xbcbe7fcf	-0.023254303
162	0x3dc8bbb4	0.098014265
163	0xbc121d89	-0.008918175
164	0x3d1f1318	0.03883657
165	0xbd1cc95a	-0.03827796
166	0x3a5c0717	0.00083933905
167	0x3d413d46	0.047177576
168	0xbda0e097	-0.07855337
169	0x3cb822f3	0.022477603
170	0xbc97fcf4	-0.018553235
171	0x3cdf0224	0.0272227
172	0x3dbf56b0	0.09342706
173	0x3d813cfa	0.063104585
174	0xbdb94842	-0.09046985
175	0xbd87c2d5	-0.06628958
176	0xbe05f3ff	-0.13081358
177	0x3d8b15b0	0.06791246
178	0x3c4e41ca	0.0125889275
179	0xbda7d1f3	-0.081943415
180	0x3c5bc87d	0.013414499
181	0x3da82d99	0.08211822
182	0x3cbcdec9	0.023055451
183	0x3d94f524	0.07273319
184	0x3d7b9649	0.06142262
185	0x3d822e72	0.06356515
186	0x3dd5d1e5	0.10440425
187	0x3ca0f928	0.019650057
188	0x3dac1af4	0.084035784
189	0x3d7f7ca6	0.062374733
190	0x3ded8e56	0.11599414
191	0xbddf137c	-0.10892388
192	0x3db99a0e	0.09062587
193	0x3dbb0a9f	0.09132885
194	0x3d92b458	0.07163304
195	0x3de92615	0.11384217
196	0x3d5a73f7	0.05333325
197	0xbcc8b80f	-0.024501828
198	0x3d749cbf	0.059719797
199	0xbc2d03ed	-0.010560018
200	0xbdbcfc3e	-0.09227799
201	0x3d105365	0.03523578
202	0xbdc3dc94	-0.09563556
203	0x3d653b0d	0.05596452
204	0x3d300500	0.04297352
205	0xbc5339a4	-0.012892161
206	0xbc233ea5	-0.009963666
207	0x3dc1cb62	0.0946262
208	0x3d354abc	0.044260725
209	0x3d9e397c	0.07725808
210	0xbc940655	-0.018069426
211	0xbde80219	-0.11328525
212	0xbdbedc89	-0.093194075
213	0xbc6e31a6	-0.014538204
214	0x3c72a9c6	0.014810985
215	0x3bebf900	0.007201314
216	0xbde04014	-0.10949722
217	0x3d39ff4b	0.045409482
218	0x3d9875c8	0.0744434
219	0x3dc0a670	0.094067454
220	0xbdb7ace9	-0.08968527
221	0x3d83933a	0.064245656
222	0x3cd6a96a	0.02620383
223	0xbdae723e	-0.08517884
224	0xbd5284bd	-0.05139612
225	0x3da038a2	0.07823302
226	0xbe0814bd	-0.13289161
227	0x3bf695a0	0.007525161
228	0x3d0d6e7b	0.03452919
229	0x3c54be42	0.012984814
230	0xbdc39871	-0.0955056
231	0xbd49f3f2	-0.04930491
232	0xbd8b6b75	-0.06807605
233	0xbc8b5821	-0.017009797
234	0x3de64468	0.11243516
235	0x3d7e74ce	0.062123112
236	0xbd4b5b18	-0.04964742
237	0x3df126cd	0.11774979
238	0xbcf9c93e	-0.030491468
239	0xbcbc53ba	-0.022989143
240	0xbd9331d3	-0.071872376
241	0x3c9ebd69	0.019377427
242	0xbd77034d	-0.060305882
243	0x3cf4ce94	0.02988366
244	0xbc2dbe35	-0.010604431
245	0xbc865140	-0.016396165
246	0x3cbbd8e4	0.02293057
247	0xbb8775e1	-0.0041339253
248	0xbc63c5f6	-0.013902178
249	0x3cb2881e	0.021793421
250	0x3d0c74fb	0.03429125
251	0x3d0784c7	0.03308561
252	0x3d199700	0.03749752
253	0xbd362413	-0.044467997
254	0x3d6ad010	0.05732733
255	0xbdf02f9a	-0.11727829

bias f4 [128]
0	0xbe5591ee	-0.20856449
1	0x3e312352	0.1729863
2	0xbd162374	-0.036654904
3	0x3d76e0bb	0.060272913
4	0x3e94e1b7	0.29078457
5	0x3e11c99a	0.14237061
6	0x3e85a4e8	0.26102376
7	0x3e8dfcd2	0.2773195
8	0xbbd8e18d	-0.0066186846
9	0xbb0b9bae	-0.002130251
10	0xbdff1d88	-0.124568045
11	0x3ddd6584	0.10810378
12	0x3e8e679e	0.2781343
13	0x3e7a5218	0.24445379
14	0x3e855467	0.26040956
15	0x3da0bfd3	0.078490876
16	0xbe618942	-0.22025016
17	0xbca3ddd8	-0.020003244
18	0x3c7e940b	0.015538226
19	0x3e7586dd	0.23977228
20	0x3e11d50a	0.14241424
21	0xbe8f89c6	-0.280348
22	0xbdfbf27e	-0.12302111
23	0xbe147546	-0.14497861
24	0x3e8c0ebe	0.27354997
25	0xbe1ef366	-0.15522537
26	0xbe158b55	-0.14603932
27	0x3eaed98e	0.34150356
28	0x3e1ed0a7	0.15509282
29	0x3dfc9e95	0.123349346
30	0x3e72d099	0.23712386
31	0xbe7f4777	-0.24929605
32	0x3e81372e	0.2523741
33	0xbe869820	-0.26287937
34	0xbc07ddef	-0.008292659
35	0x3d2f47e8	0.042793185
36	0x3bd1ab55	0.006398598
37	0x3e7b4770	0.2453897
38	0xbe6837d3	-0.22677545
39	0x3e81f978	0.25385642
40	0x3e76d066	0.24102935
41	0xbe1d6b89	-0.15373053
42	0xbc8c607e	-0.017135855
43	0xbdc0a906	-0.09407239
44	0xbd9a92b0	-0.0754751
45	0x3e7a8ac0	0.24466991
46	0x3da90812	0.082534924
47	0xbe89a8d7	-0.26886627
48	0x3e0ae37e	0.13563344
49	0x3ea7def3	0.32787284
50	0x3dcc74fe	0.09983252
51	0x3d97f496	0.07419698
52	0x3e3ec74b	0.18630712
53	0x3dd50f2f	0.10403287
54	0xbe6a7927	-0.22897778
55	0xbddf42cd	-0.10901413
56	0x3e8d364a	0.27580482
57	0xbdf8c624	-0.12147167
58	0x3d88b9e1	0.066760786
59	0xbe34ab37	-0.17643438
60	0x3e4e0723	0.2011991
61	0xbe852bf2	-0.2601009
62	0x3dc40707	0.09571653
63	0xbe280320	-0.16407442
64	0x3e80800c	0.25097692
65	0x3e420257	0.18946205
66	0x3e48b03d	0.1959848
67	0x3d3dc162	0.046327002
68	0xbc356ef7	-0.011073819
69	0xbc1b8aa9	-0.009493508
70	0xbe89dcb1	-0.26926187
71	0xbe267cc9	-0.1625854
72	0x3e855341	0.2604008
73	0xbe65e7e6	-0.22451743
74	0xbbe49540	-0.0069758
75	0x3e425ca5	0.18980654
76	0xbe95e030	-0.29272604
77	0x3e4efa35	0.20212634
78	0xbe88df15	-0.26732698
79	0xbe4b6c7e	-0.19865605
80	0xbd1c2cbe	-0.038128607
81	0xbd72f372	-0.0593142
82	0x3c9ad6ec	0.01890131
83	0x3d485c86	0.048916362
84	0x3e310211	0.17285945
85	0xbc41daf4	-0.011831988
86	0x3dd7b3bb	0.10532328
87	0x3e60e8dc	0.21963829
88	0xbd6ab583	-0.05730201
89	0xbd1079f4	-0.035272554
90	0xbe15cbe5	-0.14628561
91	0x3de25bdc	0.11052677
92	0x3ceb189b	0.028698256
93	0x3d8b104f	0.0679022
94	0xbe363ae3	-0.17795901
95	0x3e804bc3	0.25057802
96	0x3e6e833c	0.2329225
97	0xbe1e374c	-0.15450782
98	0xbc0eda51	-0.008719043
99	0x3e9d05be	0.30668443
100	0x3e8f69cc	0.28010404
101	0x3e9725e8	0.29521108
102	0x3d9fa422	0.07794978
103	0xbe989f3d	-0.2980899
104	0xbd1c6c13	-0.038189005
105	0xbd462c3d	-0.048382033
106	0xbdaa6196	-0.08319394
107	0xbde0341f	-0.10947441
108	0x3dd89ae7	0.1057642
109	0x3e369f2d	0.17834158
110	0xbe7fefcd	-0.2499382
111	0x3d5b3db1	0.05352563
112	0x3e2003d5	0.15626462
113	0xbe6e3426	-0.2326208
114	0x3b044b6c	0.0020186557
115	0xbe0cb5ff	-0.13741301
116	0xbeb55ece	-0.35423893
117	0x3e4f073f	0.20217608
118	0xbe4fe469	-0.20301975
119	0xbe8c7138	-0.2743013
120	0x3e627390	0.22114396
121	0xbe4e665b	-0.20156233
122	0xbce614db	-0.028086117
123	0xbd12ff17	-0.035887804
124	0x3d6080d7	0.05481037
125	0xbe5aae39	-0.21355523
126	0x3e27b2e1	0.1637683
127	0x3e776bd6	0.2416223

weight f4 [128, 4]
0	0x3e2cacf4	0.16862851
1	0xbe19f14b	-0.15033452
2	0x3d1c291b	0.03812514
3	0xbd3111bb	-0.0432298
4	0xbdf66ea8	-0.12032825
5	0xbc3ad91c	-0.011404302
6	0xbe23af39	-0.15984811
7	0x3d69817d	0.057008255
8	0xbe4db277	-0.2008761
9	0x3de94f5d	0.113920905
10	0x3daaac4f	0.083336465
11	0x3df2a498	0.118478
12	0xbd72588b	-0.059166472
13	0xbd8a6b28	-0.0675872
14	0x3d8be6cb	0.0683113
15	0x3c13d481	0.009022833
16	0x3cad96b1	0.02119002
17	0xbe400f90	-0.18755937
18	0x3c668c42	0.014071526
19	0xbd5452b9	-0.051836703
20	0xbdb6ea9a	-0.089314654
21	0x3d244f6a	0.040114798
22	0xbd2ef17a	-0.04271076
23	0x3d965174	0.07339755
24	0xbde3cede	-0.11123441
25	0xbe02ecc2	-0.12785628
26	0x3daa1ab2	0.08305873
27	0xbcc85dfb	-0.024458876
28	0x3d726f43	0.05918814
29	0xbc8d0464	-0.017214008
30	0x3d60163a	0.054708697
31	0x3e065ae8	0.13120615
32	0xbde36582	-0.111033455
33	0x3d2aaccd	0.041668702
34	0x3e256397	0.16151272
35	0xbda69b72	-0.081351176
36	0x3cf0140c	0.029306434
37	0xbe19fe9c	-0.15038532
38	0xbd9ba761	-0.07600284
39	0xbd17eea6	-0.037092827
40	0xbdf60539	-0.12012715
41	0x3d5b1e09	0.05349544
42	0xbdeedb79	-0.11662955
43	0xbe09b17b	-0.1344661
44	0xbcb341ec	-0.02188202
45	0xbd6f4fb0	-0.058425605
46	0xbd043d5d	-0.032285083
47	0xbdb7731f	-0.089575045
48	0xbcd456da	-0.02592032
49	0xbdae8744	-0.085218936
50	0xbe3c66d1	-0.18398596
51	0x3e092652	0.13393524
52	0x3d56dffc	0.052459702
53	0xbdf40583	-0.11915114
54	0xbe0f633c	-0.14002699
55	0xbdd1bc6b	-0.10241016
56	0x3debd3d4	0.115150124
57	0x3d7502b4	0.05981703
58	0xbd9a4131	-0.075319655
59	0xbdccc989	-0.09999377
60	0x3d62484c	0.05524473
61	0x3c8d1bc0	0.017225146
62	0xbddb3fdb	-0.10705539
63	0xbe1dbc7d	-0.15403934
64	0xbcc72eec	-0.024314366
65	0x3cd07c16	0.025449794
66	0x3dc1f354	0.09470239
67	0x3da0e03b	0.078552686
68	0x3d8347cd	0.06410179
69	0xbd6fe226	-0.05856528
70	0xbd7599cb	-0.05996112
71	0x3d0c2a35	0.03421994
72	0x3e3a77ca	0.18209758
73	0x3e0f5496	0.1399711
74	0xbd0c8f70	-0.03431648
75	0xbd496bed	-0.04917519
76	0xbe148421	-0.14503528
77	0xbd66a9ca	-0.056314267
78	0xbc5dadbb	-0.01353019
79	0x3cce66b7	0.025195463
80	0xbd2cedc4	-0.04221894
81	0xbc30a1a5	-0.010780727
82	0xbd3d7fa7	-0.046264317
83	0xbd56feb7	-0.05248901
84	0x3cbfd1dd	0.0234155
85	0xbc57fdc2	-0.013183059
86	0xbd12b211	-0.03581435
87	0xbd81fc61	-0.063469656
88	0x3e0d1504	0.13777548
89	0xbda03c70	-0.078240275
90	0x3bd08e60	0.0063646287
91	0x3d8a0444	0.06739095
92	0x3c5b65f3	0.013391006
93	0xbe04195d	-0.129003
94	0x3d19028b	0.03735594
95	0x3dd992cc	0.106237024
96	0x3e04d0c6	0.12970266
97	0x3df5065f	0.11964106
98	0x3caf2a74	0.021382548
99	0xbe0a1fee	-0.13488743
100	0x3d83f82a	0.06443818
101	0x3df5b66b	0.11997684
102	0x3dc380f4	0.0954608
103	0xbdf9b93d	-0.121935345
104	0xbdd64450	-0.10462248
105	0x3db3dcc6	0.087823436
106	0x3d12ca52	0.03583748
107	0x3ccd058d	0.02502706
108	0x3dd5a244	0.1043134
109	0x3da2bf42	0.07946636
110	0xbdedf5f3	-0.11619177
111	0x3daf763c	0.08567473
112	0x3d7cab8a	0.06168703
113	0x3d7bccc2	0.06147457
114	0xbd093545	-0.033498067
115	0xbdaea1d8	-0.08526963
116	0xbcb6db87	-0.022321476
117	0xbcfc6ca8	-0.03081353
118	0x3cf27cff	0.029600618
119	0x3d5a4c16	0.053295217
120	0xbdf3b9a0	-0.119006395
121	0xbd9e0ce3	-0.07717302
122	0xbca1354d	-0.019678736
123	0x3d3e67a9	0.046485577
124	0xbdd7a133	-0.10528793
125	0x3b71f538	0.0036919843
126	0xbdf5e0c4	-0.12005761
127	0x3c20f117	0.009823105
128	0xbdfe6741	-0.12422038
129	0x3dd87023	0.105682634
130	0x3cc7b6fb	0.024379244
131	0xbd99d17a	-0.075106576
132	0xbd546020	-0.051849484
133	0xbe0962a3	-0.13416533
134	0xbc5bdfe5	-0.01342008
135	0x3d5afb8e	0.053462557
136	0xbda04cde	-0.07827161
137	0x3d94ea26	0.07271223
138	0xbe19c608	-0.15016949
139	0xbd0a6bb0	-0.033794105
140	0x3e2452f6	0.16047272
141	0xbdc10b1f	-0.09425949
142	0x3d80cde5	0.06289271
143	0xbd02060e	-0.031744055
144	0x3e096e51	0.13420989
145	0x3c837e17	0.016051335
146	0x3cba5257	0.02274434
147	0xbdc6df24	-0.097105294
148	0xbdf79441	-0.12088824
149	0x3db2e4b8	0.08735031
150	0xbd690825	-0.056892533
151	0x3d9e846b	0.077401005
152	0xbe126fcc	-0.1430046
153	0xbe173305	-0.14765556
154	0x3d8bb481	0.06821538
155	0xbe3266e0	-0.17422056
156	0x3d71b4e5	0.059010405
157	0xbd178f7d	-0.037002075
158	0xbde0b45e	-0.10971902
159	0x3dd590da	0.10428019
160	0x3d1afe29	0.037840042
161	0xbddb91d8	-0.10721177
162	0xbd76a141	-0.060212377
163	0x3dde87aa	0.108657196
164	0x3c000dd0	0.007815793
165	0xbd33310c	-0.043747947
166	0x3d205fa5	0.039153714
167	0xbd1e84c4	-0.038700834
168	0x3bcbbcbd	0.0062175677
169	0x3dd30bbe	0.10304974
170	0xbe1e7d60	-0.15477514
171	0x3d3ec02a	0.04656998
172	0xbcb66732	-0.022266004
173	0x3e3b04f7	0.18263613
174	0xbdfd8095	-0.12378041
175	0x3e460314	0.19337112
176	0x3da20cac	0.07912573
177	0x3d122f16	0.035689436
178	0xbdd655ea	-0.104656056
179	0xbde08cc7	-0.10964351
180	0xbbb651f5	-0.0055639693
181	0x3e0e33b0	0.13886905
182	0x3da8f99a	0.08250733
183	0xbe031175	-0.12799628
184	0xbb91f48b	-0.0044542006
185	0xbdd890c8	-0.1057449
186	0x3dbb7b2d	0.09154353
187	0xbe12e68a	-0.14345756
188	0x3e2eb265	0.1706024
189	0xbb80de18	-0.0039327256
190	0x3d217313	0.039416384
191	0xbdea8176	-0.11450474
192	0xbe26cfff	-0.16290282
193	0xbd8a137c	-0.067419976
194	0xbdb86367	-0.090033345
195	0xbd1e98fe	-0.038720123
196	0x3e0d8286	0.13819322
197	0x3dd259d4	0.102710396
198	0x3cdf6e14	0.027274169
199	0xbdd40fe8	-0.103545964
200	0x3d33803f	0.043823477
201	0xbdcdff8a	-0.10058506
202	0xbdcfd5c5	-0.10148195
203	0xbe2c1dce	-0.16808245
204	0xbda3f01c	-0.080047816
205	0x3bcb3649	0.0062015397
206	0xbc15ed14	-0.009150762
207	0xbcfab3c3	-0.030603295
208	0xbd2e8cb3	-0.04261465
209	0x3bebeba5	0.007199722
210	0x3c96f8f4	0.018429257
211	0x3d1b564b	0.037924092
212	0x3d9b40ff	0.075807564
213	0x3b10a22b	0.0022069316
214	0xbcedd53b	-0.02903234
215	0x3d7a5b60	0.0611223
216	0x3d114bd1	0.035472695
217	0x3d422321	0.047396783
218	0x3d14e167	0.036347773
219	0x3db57a03	0.088611625
220	0x3de7a044	0.11309865
221	0x3d23c188	0.039979488
222	0x3e0fee4f	0.14055751
223	0x3e10bc77	0.14134394
224	0xbd1a1e8c	-0.037626788
225	0xbd46e6a2	-0.048559792
226	0x3d931431	0.071815856
227	0x3dba0e8d	0.090848066
228	0xbd60b6fc	-0.054862007
229	0x3d4ed5db	0.050496917
230	0xbde9cd23	-0.1141608
231	0x3da836ed	0.08213601
232	0xbdf9a66b	-0.12189945
233	0xbd335c07	-0.043788936
234	0xbc2aa00e	-0.010414137
235	0x3ddb7bec	0.107169956
236	0x3c1912d7	0.009342871
237	0xbdccab5c	-0.09993622
238	0xbc50332b	-0.012707512
239	0xbb3d75fe	-0.002890944
240	0xbd2b14ad	-0.041767765
241	0xbc8fd2d2	-0.017556582
242	0xbd65d673	-0.056112718
243	0xbd217608	-0.039419204
244	0xbd230e67	-0.039808657
245	0xbe0831b2	-0.13300207
246	0xbe37999a	-0.17929688
247	0x3df9b2fe	0.12192343
248	0x3da1c634	0.07899132
249	0xbe4c0259	-0.1992277
250	0xbd884f7b	-0.06655785
251	0xbe342c4c	-0.17595023
252	0x3da2e388	0.079535544
253	0x3d589824	0.052879468
254	0xbd1adb61	-0.037806872
255	0xbd46969c	-0.048483476

bias f4 [128]
0	0xbeaf319d	-0.3421754
1	0xbea272f5	-0.3172833
2	0x3e05221b	0.13001291
3	0xbec24e20	-0.3795023
4	0x3dbac90a	0.091203764
5	0x3e686c1b	0.22697489
6	0xbd8f6912	-0.070024624
7	0x3da061da	0.07831164
8	0xbeb2749f	-0.348546
9	0xbd18797b	-0.037225228
10	0x3e879ff0	0.2648921
11	0xbe3a9dd1	-0.18224265
12	0xbd8bf0e5	-0.06833056
13	0xbead3e16	-0.3383643
14	0x3e801447	0.2501547
15	0x3cfc8e1f	0.030829487
16	0x3e5efcef	0.21776174
17	0xbea18b46	-0.3155157
18	0xbe2dc5a3	-0.16969924
19	0xbea82e2f	-0.32847735
20	0xbebe00b1	-0.37109903
21	0x3ebd1d74	0.36936533
22	0x3eb492fa	0.35268384
23	0x3da426dd	0.08015225
24	0x3db1db15	0.08684365
25	0x3ebbd3e7	0.36685106
26	0x3eb3f369	0.35146645
27	0xbe0dd9c4	-0.13852602
28	0x3cffd5fe	0.03122997
29	0x3e8d8832	0.2764297
30	0x3e64b1ab	0.223334
31	0xbd0eff17	-0.03491124
32	0xbe381cc5	-0.17979725
33	0xbe96f008	-0.29480004
34	0x3d5a82f1	0.05334753
35	0xbe7e50aa	-0.24835458
36	0xbccb8024	-0.024841376
37	0xbcf4e40e	-0.029893901
38	0xbe1c7a6a	-0.15281072
39	0xbe328dcf	-0.17436908
40	0x3e13123e	0.14362428
41	0x3d976e48	0.07394081
42	0x3e615917	0.22006641
43	0xbd623882	-0.05522967
44	0xbe8d38eb	-0.27582487
45	0x3d40e4ae	0.047093086
46	0x3e78c24e	0.24292871
47	0xbe2bf752	-0.16793564
48	0x3e9e96b8	0.30974364
49	0x3dc9f935	0.098619856
50	0x3e23469f	0.15944909
51	0x3e0645f8	0.13112628
52	0xbdd6e163	-0.10492208
53	0xbd5f53fc	-0.054523453
54	0xbc1dad42	-0.009623827
55	0x3ec31c9e	0.3810777
56	0x3db59d01	0.08867837
57	0xbdd88174	-0.10571566
58	0x3e8bc181	0.2729607
59	0x3e0bd0e4	0.13653904
60	0xbea3f5e5	-0.3202354
61	0xbe489a94	-0.19590217
62	0x3eba1fd8	0.3635242
63	0xbd22a4b5	-0.039707858
64	0xbe5fc310	-0.21851754
65	0xbe6171f2	-0.22016123
66	0xbe752c47	-0.23942672
67	0xbdab4828	-0.08363372
68	0x3d94a618	0.07258242
69	0x3e767a65	0.24070127
70	0x3cdfafc0	0.027305484
71	0xbee50eeb	-0.44737944
72	0xbe7091c3	-0.23493104
73	0xbea4c7b5	-0.32183614
74	0x3e0fc19d	0.14038701
75	0x3d35c893	0.044380736
76	0xbecee090	-0.40405703
77	0x3d437e42	0.04772783
78	0x3e14e5b2	0.14540747
79	0x3e50307c	0.20330995
80	0x3e20525b	0.15656416
81	0x3eba8b77	0.36434528
82	0x3c6a9cc1	0.0143196
83	0xbe1a98f4	-0.1509741
84	0x3e2c853f	0.16847704
85	0x3ea78f7d	0.3272666
86	0x3a85c412	0.0010205528
87	0x3ea89f7c	0.32934177
88	0xbe6838b1	-0.22677876
89	0xbe116e5e	-0.14202258
90	0x3d6d3c0b	0.05791859
91	0xbe197663	-0.14986567
92	0x3dffbf84	0.124877006
93	0xbe153b3e	-0.1457338
94	0xbe925a8d	-0.2858471
95	0xbecfe3c1	-0.4060345
96	0xbec83d8a	-0.3910945
97	0x3daf7ebb	0.08569094
98	0x3ecbffcc	0.39843595
99	0xbe0f4c4e	-0.13993952
100	0xbdde39c5	-0.108508624
101	0xbe918527	-0.284219
102	0xbda17612	-0.07883848
103	0xbed48bce	-0.41512913
104	0x3e0000f4	0.12500364
105	0xbedc9ed8	-0.43089938
106	0xbe384265	-0.17994078
107	0xbc02c53a	-0.007981593
108	0x3e8e5609	0.27800015
109	0xbe17d01b	-0.1482548
110	0x3dfa5bf1	0.12224568
111	0x3e9c531b	0.30532154
112	0xbe213310	-0.15742135
113	0x3e35dab0	0.17759204
114	0x3d5025c9	0.050817285
115	0xbdfbb973	-0.12291231
116	0xbeaa844e	-0.33304065
117	0xbd1dfe97	-0.038572874
118	0xbe8a02f2	-0.26955372
119	0xbed1d5fd	-0.40983573
120	0xbe28fed8	-0.16503465
121	0xbea5835e	-0.32326788
122	0x3e3727a8	0.17886221
123	0xbeb94235	-0.36183324
124	0x3eb6131c	0.35561454
125	0x3e7ba879	0.24575986
126	0x3d77535d	0.060382236
127	0xbcf2c618	-0.029635474

weight f4 [128, 2]
0	0xbc327bba	-0.0108937565
1	0x3d4d7f98	0.05017051
2	0x3da85f48	0.082212985
3	0x3dd80677	0.10548108
4	0x3dbf1167	0.09329491
5	0x3c81ef73	0.015861249
6	0x3e1e2554	0.15443927
7	0xbda7e6ef	-0.08198344
8	0xbd65e558	-0.056126922
9	0x3d60da85	0.054895896
10	0x3e07c9a2	0.1326051
11	0xbdd44a68	-0.10365754
12	0x3da1f2d1	0.07907642
13	0x3de9f50d	0.11423693
14	0xbcf10eba	-0.029425967
15	0x3da437cc	0.08018455
16	0xbe2e0ce9	-0.16997112
17	0x3de113cc	0.10990104
18	0x3c806f32	0.015678022
19	0xbd3c7d03	-0.046017658
20	0x3e10c560	0.14137793
21	0xbd871c8c	-0.06597242
22	0x3d0d117f	0.034440514
23	0xbd504a3c	-0.050852045
24	0xbddfcea9	-0.10928089
25	0xbd614028	-0.054992825
26	0xbd94d4bf	-0.072671406
27	0x3e17c469	0.14821018
28	0x3c920123	0.017822808
29	0x3d825fd2	0.063659325
30	0xbb82d504	-0.0039926786
31	0xbdeea428	-0.11652404
32	0x3bf6765d	0.007521434
33	0x3d1869a5	0.037210125
34	0xbe0d0d84	-0.13774687
35	0xbdb2dd63	-0.087336324
36	0xbda9cdaa	-0.082911804
37	0xbd0192d7	-0.031634178
38	0x3c7a0201	0.015259267
39	0x3d519065	0.051163096
40	0x3bf30fc7	0.0074176523
41	0xbb5ad9de	-0.003339402
42	0xbd73aca0	-0.0594908
43	0x3d8918e9	0.06694204
44	0xbce0ef64	-0.0274579
45	0xbc688cdf	-0.014193743
46	0xbe06c52a	-0.1316115
47	0xbde7ef0f	-0.11324894
48	0x3c0573f3	0.00814532
49	0x3dfd2804	0.12361148
50	0xbd38d816	-0.04512795
51	0xbd66aff0	-0.05632013
52	0x3e46b471	0.1940477
53	0xbd004eec	-0.031325266
54	0x3d9acc54	0.07558504
55	0xbc335b5a	-0.010947073
56	0x3d8bf8b4	0.06834546
57	0xbddf36d0	-0.108991265
58	0xbd23069b	-0.03980122
59	0xbdee4597	-0.11634367
60	0xbd7421ef	-0.059602674
61	0x3da4c08a	0.080445364
62	0xbce1070e	-0.027469184
63	0x3bcba4ed	0.006214729
64	0x3bedc429	0.00725605
65	0x3c3b4689	0.011430391
66	0xbdf01b45	-0.11723951
67	0xbc9d392f	-0.019192306
68	0xbd9473bd	-0.07248638
69	0x3d998cc5	0.07497553
70	0x3c66e9e6	0.014093852
71	0x3cb4465d	0.022006208
72	0x3e0a988f	0.13534759
73	0x3da36d0b	0.07979783
74	0xbd8ef8c7	-0.06981044
75	0xbd31eb07	-0.04343703
76	0x3d88e4d0	0.066842675
77	0xbd352270	-0.044222295
78	0xbdf2c167	-0.11853295
79	0x3da26916	0.079302
80	0x3de13db1	0.10998095
81	0xbc50d5d9	-0.012746298
82	0x3d9f4e8b	0.07778653
83	0xbce8efd4	-0.028434671
84	0xbd2e9cac	-0.042629883
85	0x3d23eea4	0.040022507
86	0xbe2b3861	-0.16720726
87	0x3d9775bf	0.07395505
88	0xbcc76244	-0.024338849
89	0x3d3096ac	0.043112442
90	0x3da6be38	0.0814175
91	0x3d98cead	0.07461295
92	0xbe2a9b6f	-0.16660856
93	0xbcab67b1	-0.020923467
94	0x3d0852d2	0.03328211
95	0x3d6f3b33	0.058406066
96	0x3dae278a	0.08503635
97	0xbde2ebe6	-0.1108015
98	0x3e076824	0.1322332
99	0x3cefa1ea	0.029252011
100	0xbe36d288	-0.17853749
101	0xbdd51a50	-0.10405409
102	0x3d15a481	0.036533836
103	0x3c418f32	0.011813926
104	0x3cbce7e8	0.0230598
105	0xbd8d912a	-0.069124535
106	0x3e07e6c3	0.13271622
107	0x3cac0c79	0.021002041
108	0x3cc9e1b5	0.024643758
109	0xbd4a588b	-0.049400847
110	0xbe2cea77	-0.16886316
111	0xbdb1b091	-0.086762555
112	0xbd85ef2f	-0.06539761
113	0x3d64bd08	0.055844337
114	0x3df4e9d0	0.11958659
115	0x3d58d66f	0.052938875
116	0xbd2e4232	-0.042543598
117	0xbdd36b6e	-0.10323225
118	0xbdc89a66	-0.09795074
119	0x3d55f99e	0.052240007
120	0xbdfa5f50	-0.12225211
121	0xbd3563a5	-0.04428448
122	0xbe31cad3	-0.17362528
123	0x3be486b6	0.0069740666
124	0x3e018923	0.1264997
125	0x3bc48c88	0.005998198
126	0xbcd79872	-0.026317809
127	0x3ab9e5d2	0.0014182872
128	0xbd80d298	-0.062901676
129	0xbc7476f2	-0.014920937
130	0x3db09c15	0.0862352
131	0x3d6a2267	0.057161715
132	0x3e333edc	0.17504448
133	0xbc7b69e7	-0.015345073
134	0x3e3d5d15	0.18492539
135	0xbbcb5ab2	-0.00620588
136	0x3dabcab4	0.08388272
137	0x3de14379	0.109991975
138	0xbc8024ab	-0.015642485
139	0x3c26b4fd	0.010174987
140	0x3d27ca23	0.040964257
141	0x3d88533b	0.066565
142	0xbd96a058	-0.07354802
143	0x3dec256b	0.115305744
144	0xbe0c7c74	-0.1371935
145	0x3d3bb605	0.045827884
146	0x3db110ba	0.086457685
147	0x3ca4c529	0.020113545
148	0xbd910662	-0.070812955
149	0xbd63cf84	-0.055617824
150	0x3e224868	0.15847933
151	0x3b6c2032	0.0036029932
152	0xbd488e56	-0.048963867
153	0x3d2257b3	0.039634418
154	0x3c4aec1c	0.012385394
155	0x3d89a53c	0.06720969
156	0xbcbf38a0	-0.02334243
157	0xbdc52b2b	-0.09627374
158	0xbdb4fb02	-0.088369384
159	0x3d23149f	0.039814588
160	0xbdaeaa55	-0.08528582
161	0xbc4b70af	-0.012417003
162	0xbe196e0d	-0.14983387
163	0xbdc5bb98	-0.09654921
164	0xbe03e7c6	-0.12881383
165	0xbd8a7709	-0.067609854
166	0xbd7cdf1b	-0.061736207
167	0xbd1d1b73	-0.038356256
168	0x3dd8e345	0.10590223
169	0x3d74f1ca	0.0598009
170	0x3d8fb3dd	0.07016728
171	0x3d5c1f9f	0.053741094
172	0x3c5f576a	0.013631681
173	0xbd99c7a0	-0.075087786
174	0xbd0fe1bc	-0.035127386
175	0xbc50f0df	-0.012752741
176	0xbe00b435	-0.12568744
177	0xbdca718a	-0.09884937
178	0x3dbc325f	0.09189295
179	0xbd3a1f09	-0.045439754
180	0x3d9c36bd	0.07627628
181	0xbc923f9e	-0.0178526
182	0xbd4e1317	-0.050311174
183	0x3c0ed27e	0.008717177
184	0xbd8dc93a	-0.069231465
185	0x3dcae624	0.09907177
186	0xbdcf2f51	-0.10116447
187	0x3c6b431c	0.014359262
188	0xbba0dccb	-0.004909133
189	0xbd461d02	-0.048367508
190	0xbdfed47c	-0.12442872
191	0x3c75b4ef	0.014996751
192	0x3d8b3dd2	0.06798901
193	0x3d00d64f	0.03145438
194	0xbe296a2c	-0.16544408
195	0xbdf0d34f	-0.11759054
196	0x3daeb643	0.085308574
197	0x3d5e285b	0.054237705
198	0xbb874ee0	-0.0041292757
199	0x3b8124ef	0.0039411704
200	0xbdcfa044	-0.1013799
201	0x3dad73f7	0.08469384
202	0x3bab3f85	0.005226078
203	0xbd4371ab	-0.047715824
204	0x3de9f497	0.11423605
205	0xbc92b02d	-0.017906273
206	0x3dc14430	0.09436834
207	0x3d63dd33	0.055630874
208	0x3d3a2879	0.045448754
209	0xbcb07d96	-0.021544259
210	0x3d958f52	0.07302727
211	0xbda10703	-0.078626655
212	0xbb1b56b2	-0.0023702797
213	0xbda776c6	-0.08176951
214	0xbe1b4afa	-0.1516532
215	0xbd5a91b9	-0.05336163
216	0x3dbf5eb5	0.09344236
217	0xbd77f668	-0.060537726
218	0xbd7ecd45	-0.06220748
219	0xbcca14b6	-0.024668079
220	0x3d68dde0	0.05685222
221	0x3d26d25b	0.040727954
222	0xbbd7147f	-0.0065637226
223	0xbcb44f4b	-0.022010466
224	0xbdec8134	-0.11548081
225	0x3db7b073	0.08969202
226	0x3cfe28b3	0.031025266
227	0x3d59d3e5	0.053180594
228	0x3e003306	0.12519464
229	0xbd33a28f	-0.0438562
230	0x3d96f83c	0.07371566
231	0x3e1b1ad0	0.15146947
232	0xbe0b6fc3	-0.13616852
233	0x3d76a0b5	0.060211856
234	0xbe61eb27	-0.2206236
235	0x3d025bf8	0.03182599
236	0x3daf84de	0.08570264
237	0xbd8319d9	-0.064014144
238	0x3cf38908	0.029728428
239	0xbd6ed6c9	-0.058310304
240	0xbb962300	-0.004581809
241	0xbd546c9b	-0.051861387
242	0xbdc546ba	-0.09632631
243	0x3ced611a	0.028976966
244	0xbd319205	-0.043352146
245	0xbdc05a31	-0.09392203
246	0x3d80ddf9	0.06292338
247	0x3c33bb8d	0.010970009
248	0xbd14d02a	-0.036331333
249	0xbd9c40b0	-0.07629526
250	0xbd9681ce	-0.07348977
251	0x3d32d604	0.043661132
252	0xbe2a7e78	-0.16649806
253	0x3dc24cc5	0.09487299
254	0x3d8f9809	0.0701142
255	0x3d5c21e7	0.05374327
