data/train_data/td_best_model.pt (torch, 509853 bytes, 32 tensors)

att_weights f4 [5]
1.1535563 0.791497 0.7516397 0.98845065 1.0294569
00000000: bca7 933f 8c9f 4a3f 766b 403f 1a0b 7d3f
00000010: 3ec5 833f

weight f4 [64, 4]
-0.37218976 -0.14148329 -0.33513787 -0.27367267 0.16583116 -0.022428237 -0.1458389 -0.032187384
0.11147688 -0.22759233 -0.3243251 -0.08607742 -0.1514635 -0.045012724 -0.1720042 -0.24876852
0.3753466 0.19310638 0.13268712 -0.20432733 -0.16466542 0.109844096 -0.33348808 -0.2705914
-0.079955734 0.2678022 0.16768904 -0.19104213 -0.28814176 0.056431387 -0.13448358 -0.10750658
-0.20022388 -0.17072976 0.06594902 -0.09780303 0.1140149 -0.36319584 -0.28625214 -0.33741033
-0.08826482 -0.0324315 0.17225857 0.0022374457 0.06627488 0.2565694 0.2610613 0.26464102
0.0997423 -0.065471634 0.23683897 0.18089102 -0.25826073 -0.24920803 0.01061839 -0.06453846
-0.051536188 -0.08751742 0.09684782 -0.114347346 0.12037531 -0.21615435 0.1720454 -0.14344828
0.17395914 -0.10387584 0.06290289 -0.027023543 0.2850619 -0.09834581 0.27889264 0.10133719
-0.3422898 -0.16450374 0.053957883 -0.22955836 0.09417077 0.21722575 -0.20422179 0.038983908
-0.23952575 0.24238792 0.30949458 -0.24792638 0.06073088 -0.107891716 0.006275696 -0.0008652525
-0.06922886 -0.31852463 0.058786366 0.020716162 0.04827369 0.34682253 0.18784048 0.20647594
-0.011458282 0.06261722 0.16081652 -0.06890661 -0.31197977 -0.16460355 0.10799816 -0.35950854
-0.33534008 -0.041127533 -0.34612906 0.108335234 0.124196544 0.29327396 -0.018097686 0.21259525
-0.29253447 0.16982278 0.013911946 -0.026902119 0.25170603 -0.06645605 0.3358752 0.057983696
-0.05857261 0.22470094 -0.27465752 -0.30079794 -0.16489139 0.1508607 -0.13286725 -0.26602358
-0.1305209 0.039249897 0.12043339 0.0033720508 0.2438558 -0.023599323 0.31981358 -0.14517999
-0.26971 -0.09192202 -0.18855913 -0.056573913 0.13113923 0.21933122 0.33409593 -0.14988387
0.05109206 -0.33621714 0.0069325557 -0.19206887 -0.06261616 0.081861824 0.035572797 -0.10515715
0.31155995 0.26473144 0.09651315 0.2437417 -0.30539736 -0.20548812 -0.26057023 -0.012467921
-0.3423417 -0.1402068 -0.3866484 -0.11966272 0.26761788 -0.038694907 0.15034856 0.34155226
0.11258397 0.018252159 0.083423294 -0.12144701 0.08553218 -0.025768053 -0.27042818 -0.18923253
0.1664429 0.2787677 0.21156727 -0.0517725 0.09474214 -0.06706725 0.35698652 0.043927714
0.18766738 0.07709354 0.09112536 0.105200164 0.016895879 -0.17910665 0.054414272 0.19103691
-0.25385895 -0.36785528 0.14795007 0.10263971 -0.28312957 -0.107416496 -0.13339646 -0.23963949
0.27362815 0.33084112 0.2712872 0.16922094 0.25089854 0.2596087 -0.003763652 0.0921863
0.1525125 0.013547208 0.056356676 -0.058613013 0.16144073 0.079159886 -0.08175533 0.17844898
0.23438388 0.057601474 0.13942903 0.19830918 -0.07742822 -0.31638974 -0.20915692 -0.091735296
-0.08634804 0.30814055 0.1697752 0.021507956 -0.35406286 -0.05693096 0.044724137 -0.16435756
0.17217785 -0.06471805 0.1205031 -0.18976377 0.33148074 0.3763793 0.26001826 -0.08411739
-0.01869655 -0.264752 -0.19239473 -0.22680649 0.19094153 0.38446236 0.34990302 -0.07015988
-0.3034921 -0.15512408 -0.24073207 -0.14997275 -0.20953321 -0.20093682 -0.20831636 -0.26058146
00000000: a88f bebe ffe0 10be 3197 abbe d31e 8cbe
00000010: a5cf 293e 6cbb b7bc cb56 15be ebd6 03bd
00000020: fe4d e43d f70d 69be f10d a6be 5c49 b0bd
00000030: 3f19 1bbe 435f 38bd de21 30be 2dbd 7ebe
00000040: 6e2d c03e aebd 453e 22df 073e 2f3b 51be
00000050: 0d9e 28be f1f5 e03d f3be aabe f58a 8abe
00000060: d5bf a3bd 5f1d 893e adb6 2b3e 8ca0 43be
00000070: 5187 93be 9924 673d 10b6 09be 692c dcbd
00000080: 7d07 4dbe c8d3 2ebe 4810 873d f44c c8bd
00000090: a580 e93d cef4 b9be a48f 92be 0cc1 acbe
000000a0: 30c4 b4bd e4d6 04bd 8d64 303e 1ca2 123b
000000b0: 20bb 873d 105d 833e d4a9 853e 077f 873e
000000c0: b145 cc3d fe15 86bd ea85 723e 7f3b 393e
000000d0: c03a 84be 6430 7fbe c1f8 2d3c bd2c 84bd
000000e0: 9c17 53bd 553c b3bd 2658 c63d f12e eabd
000000f0: 5587 f63d 9157 5dbe ab2c 303e 1be4 12be
00000100: 5822 323e dbbc d4bd 3bd3 803d 7a60 ddbc
00000110: a2f3 913e 8769 c9bd 04cb 8e3e df89 cf3d
00000120: 9c40 afbe ab73 28be f102 5d3d 5911 6bbe
00000130: 9bdc c03d 6d70 5e3e 841f 51be 97ad 1f3d
00000140: 3d46 75be 8a34 783e 1376 9e3e 6ae0 7dbe
00000150: f1c0 783d 55f6 dcbd 5ba4 cd3b 1dd2 62ba
00000160: dcc7 8dbd a915 a3be f9c9 703d f1b4 a93c
00000170: a2ba 453d b992 b13e 4159 403e 6e6e 533e
00000180: 85bb 3bbc 753d 803d 16ad 243e e91e 8dbd
00000190: d0bb 9fbe d58d 28be 242e dd3d 8111 b8be
000001a0: b2b1 abbe 5875 28bd d437 b1be ddde dd3d
000001b0: c25a fe3d 0128 963e 9941 94bc 92b2 593e
000001c0: 14c7 95be 06e6 2d3e eeee 633c d561 dcbc
000001d0: 9ddf 803e 1c1a 88bd d6f7 ab3e 5080 6d3d
000001e0: d5e9 6fbd 0118 663e e99f 8cbe 3002 9abe
000001f0: 4ad9 28be 3a7b 1a3e 5a0e 08be 3e34 88be
00000200: 45a7 05be 80c4 203d c8a5 f63d a0fd 5c3b
00000210: 56b5 793e 5e53 c1bc 9bbe a33e 10aa 14be
00000220: 6e17 8abe 9d41 bcbd a515 41be 0cba 67bd
00000230: 5d49 063e 5d98 603e 9f0e ab3e 287b 19be
00000240: e845 513d a724 acbe 7e2a e33b b4ad 44be
00000250: e73c 80bd 2ca7 a73d c8b4 113d a25c d7bd
00000260: c984 9f3e e18a 873e b0a8 c53d 6d97 793e
00000270: 0b5d 9cbe 7a6b 52be 7669 85be 4046 4cbc
00000280: 6947 afbe 5f92 0fbe c7f6 c5be ba11 f5bd
00000290: 3605 893e 8d7e 1ebd f9f4 193e f0df ae3e
000002a0: 6d92 e63d 8d85 953c d5d9 aa3d 36b9 f8bd
000002b0: 7f2b af3d 8617 d3bc 9075 8abe 2cc6 41be
000002c0: 0270 2a3e a4ba 8e3e 17a5 583e 670f 54bd
000002d0: 2b08 c23d 8e5a 89bd f0c6 b63e 8ced 333d
000002e0: e12b 403e 38e3 9d3d ef9f ba3d 2f73 d73d
000002f0: 3a69 8a3c bc67 37be 80e1 5e3d 2e9f 433e
00000300: cdf9 81be 8757 bcbe 3980 173e c534 d23d
00000310: 5cf6 90be 2efd dbbd 1599 08be 0e64 75be
00000320: fd18 8c3e 0264 a93e 28e6 8a3e 4148 2d3e
00000330: c675 803e 6eeb 843e 9aa7 76bb 2ccc bc3d
00000340: 3d2c 1c3e 1cf5 5d3c 42d6 663d 3314 70bd
00000350: b850 253e 941e a23d 576f a7bd 54bb 363e
00000360: 5402 703e 86ef 6b3d 7cc6 0e3e 9011 4b3e
00000370: b092 9ebd d6fd a1be 3b2d 56be b7df bbbd
00000380: 3ed7 b0bd 99c4 9d3e 8dd9 2d3e 7431 b03c
00000390: ba47 b5be 7030 69bd a830 373d 594d 28be
000003a0: 644f 303e e68a 84bd 54ca f63d 6f51 42be
000003b0: d8b7 a93e cab4 c03e 1d21 853e bd45 acbd
000003c0: 8229 99bc 938d 87be 2003 45be f63f 68be
000003d0: 2d86 433e 40d8 c43e 7d26 b33e fcaf 8fbd
000003e0: 5163 9bbe d9d8 1ebe 7882 76be 7592 19be
000003f0: e08f 56be 62c2 4dbe e250 55be ef6a 85be

bias f4 [64]
0.3523842 0.12942587 0.25899145 -0.11884472 0.1684835 0.19814573 -0.09598147 0.14311254
-0.39822617 0.24383968 -0.41572967 0.003643494 0.097989894 0.41819927 -0.023335362 0.29621983
-0.11519527 0.36634642 0.26958346 0.2568509 -0.22349258 0.20216294 0.32599765 -0.4050285
-0.23242578 -0.21068144 0.36270094 0.31761298 -0.30410156 -0.052738752 -0.14162213 0.08507716
-0.29449096 0.14029136 0.037868958 -0.4084141 0.31576115 0.2237101 0.22258429 -0.032775875
0.32553688 0.18741609 0.47230244 -0.43588188 0.19650786 0.05038025 0.2633942 -0.14869453
0.053872973 -0.16832024 -0.036162935 0.012640358 0.28282854 -0.27801582 -0.087089516 -0.36783636
-0.22364268 0.38746566 0.23898302 0.29846334 -0.124547526 0.006446946 -0.3087389 -0.044548765
00000000: b46b b43e 3788 043e 879a 843e dc64 f3bd
00000010: f086 2c3e b7e6 4a3e ef91 c4bd 188c 123e
00000020: 4de4 cbbe 1cb1 793e 85da d4be b0c7 6e3b
00000030: edae c83d 371e d63e cd29 bfbc 20aa 973e
00000040: 7feb ebbd c291 bb3e d806 8a3e f681 833e
00000050: 3ddb 64be cd03 4f3e 2ae9 a63e e55f cfbe
00000060: 0601 6ebe e0bc 57be f0b3 b93e 2b9e a23e
00000070: 33b3 9bbe 9704 58bd 6405 11be ef3c ae3d
00000080: 85c7 96be 8aa8 0f3e 7b1c 1b3d a71b d1be
00000090: 72ab a13e 4314 653e 23ed 633e ff3f 06bd
000000a0: c5ac a63e 01ea 3f3e a0d1 f13e e92b dfbe
000000b0: 5b39 493e 855b 4e3d 9bdb 863e 6143 18be
000000c0: e8a9 5c3d 245c 2cbe 961f 14bd 8119 4f3c
000000d0: e7ce 903e 1758 8ebe fd5b b2bd 0c55 bcbe
000000e0: 9602 65be e661 c63e f7b7 743e 30d0 983e
000000f0: c612 ffbd e740 d33b 0613 9ebe c478 36bd

weight f4 [64, 7]
-0.12803793 -0.13589014 0.13766585 -0.15506454 -0.18914467 0.19924705 0.14367306 -0.034229044
-0.2942006 0.033892732 -0.25467408 -0.18852983 0.18107264 -0.11424258 0.0011928347 -0.2566732
-0.14814246 0.13169079 0.24285018 -0.19647928 -0.1260687 0.085190356 -0.07775422 0.22351412
-0.13734739 -0.088661626 -0.20382021 0.20029919 -0.17015661 -0.021571774 0.12443768 0.104674265
0.20187293 -0.2921003 -0.20518531 -0.13304128 0.24946491 0.22899444 -0.0062978426 -0.2165612
0.18981802 -0.14399111 -0.108037554 0.013255043 -0.21808702 -0.20505002 -0.06498054 0.18019512
0.15454046 -0.016328314 -0.3303864 -0.19059895 0.04929076 -0.21300277 -0.15273805 0.14784093
0.08521881 0.20703974 -0.005437985 -0.047670726 0.1455559 0.011479305 -0.24166743 -0.14617915
-0.055950057 -0.08330879 0.0382011 0.19734183 -0.14447212 0.09543059 -0.021305881 -0.19053963
-0.032677945 0.23339847 -0.16297857 -0.18107025 -0.24770936 -0.13428174 0.066865824 0.16900072
-0.21837471 0.036015794 0.11827958 0.11968973 -0.07621316 0.22761118 -0.066330604 -0.1902212
0.2532195 0.076432765 -0.10485165 0.01999895 -0.054657716 -0.17404364 0.14025383 0.19299795
-0.074540675 0.0768804 0.19082221 -0.27396026 -0.123508886 -0.07290687 0.12726252 -0.065094784
0.06513817 0.08098673 -0.010875151 -0.09353735 -0.063667476 -0.14866887 0.0044179875 0.25789446
0.073880516 0.07381553 -0.19869362 0.22271805 -0.19617769 -0.15020941 -0.14862382 0.15612185
0.0013018517 0.012409107 -0.06608984 0.14378798 -0.24599895 -0.107482925 -0.015083423 0.07604816
0.050352924 0.22671266 0.029320568 -0.16741987 -0.17194408 0.11060472 0.17997873 0.28227466
-0.11174708 -0.07106014 -0.03810047 0.16689646 0.15075819 -0.020970544 -0.09822623 0.17951986
0.23816454 -0.2712975 -0.18542022 -0.14940865 0.06683515 0.14574076 0.051068995 -0.031985853
-0.085445374 0.018189779 -0.14653902 -0.25131097 -0.024222273 0.1362494 -0.2542269 0.05392228
-0.18030843 -0.04088623 0.26511943 -0.0105386125 0.1347224 -0.15173648 0.14075299 -0.15825626
0.14237753 0.30853152 -0.030322835 0.004412188 -0.17167445 0.03568987 0.14422083 -0.24006857
-0.13233477 0.14104553 0.122999094 0.10079721 -0.12545244 -0.2832945 -0.060710784 -0.25007966
-0.24893808 0.155813 0.17169113 -0.08132102 0.07811523 -0.1955682 -0.19698666 0.09837129
-0.19438237 -0.095348485 -0.029954366 0.1717206 0.21701925 0.24081355 -0.08989327 0.027253605
-0.010305608 -0.13406076 0.14185934 -0.053557843 0.055744004 -0.019357435 0.1897815 -0.13085139
0.032158554 0.08505794 -0.19403417 0.08837261 0.048907015 0.17798412 -0.2228696 -0.08060702
0.18290517 0.08132378 0.23044798 -0.24591146 0.016014276 -0.14289501 -0.052910335 0.18934251
0.087488286 -0.12222833 -0.08950738 -0.09463789 -0.030414429 0.1727187 0.05590963 0.01086929
-0.009654479 0.19863199 0.07783129 0.2664522 0.013872403 -0.12911172 -0.06127859 0.11482626
-0.08062985 -0.020037895 -0.19548601 0.027469546 -0.19173816 -0.19048809 -0.16544035 -0.16810012
0.09714023 -0.14127925 0.16442294 0.087064534 0.07418631 -0.22780138 0.08536657 -0.122092746
00000000: 601c 03be c926 0bbe 47f8 0c3e 3dc9 1ebe
00000010: 24af 41be 6b07 4c3e 081f 133e c133 0cbd
00000020: 76a1 96be 1bd3 0a3d a464 82be f70d 41be
00000030: 1b6b 393e 04f8 e9bd e458 9c3a ab6a 83be
00000040: a8b2 17be f3d9 063e b8ad 783e dd31 49be
00000050: 2718 01be 4878 ae3d 9b3d 9fbd e3e0 643e
00000060: cba4 0cbe 3a94 b5bd 3fb6 50be 3b1b 4d3e
00000070: 893d 2ebe 4ab7 b0bc 2fd9 fe3d 765f d63d
00000080: c7b7 4e3e 2c8e 95be 191c 52be f93b 08be
00000090: bb73 7f3e 857d 6a3e 225e cebb 38c2 5dbe
000000a0: a85f 423e 6872 13be cb42 ddbd ae2b 593c
000000b0: 3452 5fbe a2f8 51be 8414 85bd 1285 383e
000000c0: db3f 1e3e f5c2 85bc 6828 a9be 5f2c 43be
000000d0: 1ce5 493d 661d 5abe 5d67 1cbe 9d63 173e
000000e0: 3387 ae3d 3a02 543e 2031 b2bb 6142 43bd
000000f0: 9b0c 153e b213 3c3c ab77 77be fdaf 15be
00000100: e32b 65bd cd9d aabd c278 1c3d fa13 4a3e
00000110: 80f0 13be 1d71 c33d ac89 aebc d21c 43be
00000120: 4fd9 05bd 0200 6f3e dbe3 26be 7b6a 39be
00000130: 86a7 7dbe 2781 09be f3f0 883d 860e 2d3e
00000140: 9f9d 5fbe 4c85 133d 903c f23d e41f f53d
00000150: a515 9cbd e812 693e 57d8 87bd 59c9 42be
00000160: fca5 813e c888 9c3d 76bc d6bd d7d4 a33c
00000170: c5e0 5fbd 7f38 32be b39e 0f3e 41a1 453e
00000180: c8a8 98bd 7973 9d3d e666 433e 8544 8cbe
00000190: 3af2 fcbd 3250 95bd 1b51 023e 6a50 85bd
000001a0: 2967 853d 5fdc a53d b02d 32bc 8390 bfbd
000001b0: 1864 82bd a73c 18be c4c4 903b be0a 843e
000001c0: ab4e 973d 992c 973d 5776 4bbe 3310 643e
000001d0: cee2 48be 7fd0 19be d830 18be 68de 1f3e
000001e0: e5a2 aa3a 914f 4b3c 1c5a 87bd 283d 133e
000001f0: 26e7 7bbe 0220 dcbd 7620 77bc 23bf 9b3d
00000200: de3e 4e3d 5d27 683e b031 f03c 1d70 2bbe
00000210: 1c12 30be ba84 e23d 584c 383e 4e86 903e
00000220: a7db e4bd fb87 91bd 3d0f 1cbd e8e6 2a3e
00000230: 5b60 1a3e 6bca abbc d52a c9bd 0ed4 373e
00000240: 68e1 733e 82e7 8abe ccde 3dbe 95fe 18be
00000250: dee0 883d 113d 153e b92d 513d 9903 03bd
00000260: fcfd aebd bb02 953c 530e 16be d5ab 80be
00000270: ca6d c6bc f684 0b3e 072a 82be 9cdd 5c3d
00000280: c6a2 38be 5278 27bd bcbd 873e 25aa 2cbc
00000290: abf4 093e cf60 1bbe 8d21 103e ee0d 22be
000002a0: 6acb 113e d8f7 9d3e 9867 f8bc 1e94 903b
000002b0: 6dcb 2fbe 8b2f 123d a0ae 133e 89d4 75be
000002c0: c482 07be 3d6e 103e f3e6 fb3d c56e ce3d
000002d0: 9b76 00be fa0b 91be dfab 78bd 710a 80be
000002e0: a0e9 7ebe 718d 1f3e cdcf 2f3e a38b a6bd
000002f0: e1fa 9f3d 0843 48be dfb6 49be e376 c93d
00000300: 2c0c 47be 1146 c3bd dc62 f5bc 86d7 2f3e
00000310: 4b3a 5e3e d497 763e f619 b8bd f442 df3c
00000320: dad8 28bc 3947 09be 9343 113e 785f 5bbd
00000330: d353 643d 7c93 9ebc 1556 423e e8fd 05be
00000340: b0b8 033d db32 ae3d e5b0 46be b3fc b43d
00000350: b952 483d 7841 363e ee37 64be 4b15 a5bd
00000360: 7e4b 3b3e 158d a63d 8efa 6b3e 37d0 7bbe
00000370: 5f30 833c 1253 12be 82b8 58bd 01e3 413e
00000380: 0f2d b33d d952 fabd a54f b7bd 83d1 c1bd
00000390: ae27 f9bc 2cdd 303e 7f01 653d 1b15 323c
000003a0: d22d 1ebc 2f66 4b3e 0366 9f3d 6c6c 883e
000003b0: 1349 633c dd35 04be 42ff 7abd 082a eb3d
000003c0: 4321 a5bd 8326 a4bc 7c2d 48be d007 e13c
000003d0: 0257 44be 4f0f 43be 3269 29be 7022 2cbe
000003e0: 75f1 c63d 82ab 10be 7d5e 283e e44e b23d
000003f0: feee 973d c444 69be abd4 ae3d c30b fabd

bias f4 [64]
0.39700007 0.2837736 -0.35173345 -0.20850767 -0.16830991 -0.2662155 -0.024473771 -0.119373664
0.038695518 0.12923424 -0.3167374 0.073272385 -0.11032046 -0.22390941 0.01226646 0.35322827
0.08145978 0.1509507 -0.1320242 -0.4046282 -0.36709654 0.32005972 0.13207354 -0.29394874
-0.28869167 -0.17401777 0.2891715 -0.07217714 0.292768 -0.3630314 0.040315773 -0.0023641703
0.21325697 -0.2704892 0.299084 -0.14490393 -0.12535949 -0.14954191 0.29668295 0.31665868
-0.061808366 0.26394674 0.27173615 -0.14781177 0.3324727 0.07282775 0.39758295 -0.23601879
-0.1418722 -0.042884164 0.07627237 -0.23908187 0.027457545 0.14176284 0.2918538 -0.12988925
0.1399632 0.07536615 -0.20967303 -0.32468212 0.29273215 -0.07702607 -0.20192367 0.049108956
00000000: 9843 cb3e c64a 913e 6816 b4be 0983 55be
00000010: 6f59 2cbe 664d 88be 387d c8bc 2e7a f4bd
00000020: 317f 1e3d fb55 043e 682b a2be d50f 963d
00000030: b1ef e1bd 8248 65be 43f9 483c 56da b43e
00000040: 63d4 a63d d292 1a3e 5a31 07be 6d2b cfbe
00000050: 14f4 bbbe dede a33e 493e 073e 7380 96be
00000060: 65cf 93be b731 32be 490e 943e 9cd1 93bd
00000070: b0e5 953e 40df b9be 2722 253d 32f0 1abb
00000080: 0960 5a3e 8f7d 8abe 8a21 993e b261 14be
00000090: 3d5e 00be 8421 19be d4e6 973e 1621 a23e
000000a0: c52a 7dbd 0724 873e 0021 8b3e f85b 17be
000000b0: dd39 aa3e b726 953d fe8f cb3e e9ae 71be
000000c0: f246 11be 4ea7 2fbd b034 9c3d e1d1 74be
000000d0: a5ee e03c 472a 113e dc6d 953e b001 05be
000000e0: 8352 0f3e 9159 9a3d 87b4 56be bc3c a6be
000000f0: fde0 953e d8bf 9dbd 14c5 4ebe 7926 493d

weight f4 [64, 7]
0.12296896 0.06975389 0.08835779 0.013419673 -0.003909288 -0.046080347 -0.0047720666 -0.06956959
0.18396302 0.15555666 0.19029011 0.08567637 -0.18188138 0.13489486 -0.089760095 0.12662414
0.1455969 0.22138555 0.102438286 0.24998316 -0.30556488 0.031089649 -0.02699479 -0.11414658
0.18100081 -0.11384736 0.23011348 -0.2841509 0.15818922 0.035432585 0.19326052 -0.20097664
0.029463587 0.047384374 -0.1688155 -0.07594864 0.014921499 -0.056688376 -0.0055035143 0.26162475
0.2500922 0.16566381 0.054330535 -0.058875334 0.051617157 0.024640266 -0.095171005 -0.09134038
-0.23684727 0.18540478 0.21644439 -0.059340607 -0.18355858 0.18769166 -0.11998102 -0.23301123
0.14712846 0.18111125 0.17486326 0.13829084 -0.09758076 -0.037256602 -0.083123855 -0.0055486853
-0.15181266 -0.09432483 -0.017202154 -0.117303245 0.15822493 0.07968834 0.04088642 -0.058438275
0.23818761 -0.19072524 -0.20720348 0.2649995 0.001492424 0.08760437 0.013949508 -0.009384389
-0.042548385 -0.1582111 0.0017553631 -0.20958798 0.0685285 0.015647307 -0.1169807 0.17685398
0.02511047 0.20418924 0.117048725 0.078872755 -0.13155289 -0.1372417 0.20021266 0.11221593
0.035965666 -0.2592589 0.16037676 -0.15539654 0.10228305 -0.020133069 -0.03399989 0.17750102
-0.21909277 0.058874033 -0.10306759 0.038636584 -0.06716437 -0.11078903 0.15660805 -0.11886665
0.1397822 -0.024781745 0.18611096 0.15351881 0.26157042 0.20870712 0.0074463817 -0.04856159
0.19087936 -0.04295202 0.03306865 -0.1168566 0.1816842 -0.06741452 -0.06520873 -0.04309408
0.12606259 -0.021665089 0.17216615 -0.23243494 -0.10754492 -0.2509278 -0.10502189 0.019978844
0.06301248 0.04546423 0.03645359 0.20791377 0.14714752 -0.22763667 -0.1425895 0.267863
-0.039336797 -0.15914452 -0.15972666 0.09662365 0.19565502 -0.0007085473 0.19602731 -0.1629076
-0.059998896 0.08723411 -0.18286537 -0.0052215415 0.19973241 -0.18975258 0.1711864 -0.23215489
0.08112323 -0.14440967 0.15490703 -0.05626385 0.15062912 0.07047581 -0.21543558 0.2856298
-0.0033601641 -0.016208043 0.039422996 -0.19147182 -0.19538218 -0.22459106 -0.17779098 0.18344173
0.18455547 0.02589317 -0.1522587 0.16275091 -0.11061339 -0.14394356 -0.033320233 0.13338181
-0.17273846 0.10408135 0.003655821 -0.24236007 0.14457066 0.057190232 0.1680431 0.27718627
0.18088542 -0.19488089 -0.15411903 0.04119464 -0.11617219 0.1689419 0.15660036 -0.0782147
0.19515133 0.25120878 -0.10350204 -0.12028297 -0.2360683 0.10406239 0.024552288 0.057461377
0.059321914 0.20036206 -0.17711101 -0.07794637 0.13349316 -0.030763386 0.13419217 0.15785512
-0.03637994 0.1155021 0.23931572 -0.14223583 0.08444827 0.03737126 0.24967854 0.044244215
-0.09833069 0.2648924 0.16736059 -0.10181841 -0.20972668 -0.0639508 -0.15454231 0.031665128
-0.17499195 0.16738348 -0.21238509 -0.010245942 0.09530359 -0.22839493 0.20781891 -0.050778497
-0.14145122 -0.16121876 -0.13024932 0.010899632 0.010033282 -0.04243506 0.20166343 0.035034154
-0.026070066 0.0067505348 -0.0034980867 0.2873741 -0.07519219 -0.25513542 0.18857653 0.21238421
00000000: 26d7 fb3d 21db 8e3d eef4 b43d 30de 5b3c
00000010: 7c19 80bb bfbe 3cbd ff5e 9cbb 807a 8ebd
00000020: cd60 3c3e 3f4a 1f3e 69db 423e 1877 af3d
00000030: 1d3f 3abe e121 0a3e 24d4 b7bd c2a9 013e
00000040: 5b17 153e e5b2 623e 2acb d13d 96fb 7f3e
00000050: 0073 9cbe b8af fe3c 2e24 ddbc afc5 e9bd
00000060: 4758 393e ce28 e9bd dea2 6b3e 3a7c 91be
00000070: 5bfc 213e c221 113d 16e6 453e d2cc 4dbe
00000080: 9f5d f13c 1e16 423d f8dd 2cbe f68a 9bbd
00000090: 4e79 743c 1232 68bd d356 b4bb aef3 853e
000000a0: 160c 803e c6a3 293e b289 5e3d 4327 71bd
000000b0: 836c 533d 62da c93c 04e9 c2bd aa10 bbbd
000000c0: 1788 72be c0da 3d3e 99a3 5d3e 230f 73bd
000000d0: c8f6 3bbe 3e32 403e 9cb8 f5bd 7f9a 6ebe
000000e0: d8a8 163e 3a75 393e 5b0f 333e 1d9c 0d3e
000000f0: 6cd8 c7bd 619a 18bd d73c aabd bfd1 b5bb
00000100: c774 1bbe 602d c1bd 88eb 8cbc af3c f0bd
00000110: b705 223e a433 a33d 8578 273d f95c 6fbd
00000120: 74e7 733e 7a4d 43be 262d 54be 04ae 873e
00000130: 719d c33a ec69 b33d 7a8c 643c fbc0 19bc
00000140: 3747 2ebd 1702 22be 3614 e63a 3b9e 56be
00000150: ac58 8c3d c82e 803c 9493 efbd 3619 353e
00000160: 79b4 cd3c fc16 513e 3eb7 ef3d 0a88 a13d
00000170: cdb5 06be 1789 0cbe 8c04 4d3e 77d1 e53d
00000180: bc50 133d 95bd 84be ce39 243e 4520 1fbe
00000190: c779 d13d 1bee a4bc 7843 0bbd d4c2 353e
000001a0: db59 60be e625 713d 1a15 d3bd 6541 1e3d
000001b0: 798d 89bd 5ce5 e2bd dc5d 203e 5c70 f3bd
000001c0: 1123 0f3e 1603 cbbc df93 3e3e 0934 1d3e
000001d0: 8fec 853e 52b7 553e c700 f43b 85e8 46bd
000001e0: e175 433e 75ee 2fbd fe72 073d 8352 efbd
000001f0: 6c0b 3a3e a010 8abd 288c 85bd 6b83 30bd
00000200: 8d16 013e fc7a b1bc 534c 303e 6d03 6ebe
00000210: 8340 dcbd 9c79 80be b715 d7bd acaa a33c
00000220: b00c 813d b338 3a3d 5c50 153d 59e7 543e
00000230: d7ad 163e 9619 69be fb02 12be 5725 893e
00000240: 9f1f 21bd c8f6 22be 638f 23be 9fe2 c53d
00000250: ca59 483e cebd 39ba 62bb 483e 40d1 26be
00000260: 67c1 75bd cca7 b23d 0f41 3bbe 7719 abbb
00000270: a786 4c3e 804e 42be 7d4b 2f3e 03ba 6dbe
00000280: f023 a63d 21e0 13be f39f 1e3e ec74 66bd
00000290: 853e 1a3e 9f55 903d 259b 5cbe 123e 923e
000002a0: 3336 5cbb bbc6 84bc 027a 213d 3011 44be
000002b0: 4412 48be 33fb 65be d70e 36be 26d8 3b3e
000002c0: 1cfc 3c3e ea1d d43c b4e9 1bbe 2da8 263e
000002d0: 4689 e2bd f165 13be cc7a 08bd 3e95 083e
000002e0: 5ae2 30be 9a28 d53d 8096 6f3b 3d2d 78be
000002f0: 550a 143e 4e40 6a3d 7e13 2c3e 5ceb 8d3e
00000300: 073a 393e db8e 47be 61d1 1dbe b6bb 283d
00000310: afeb edbd 1bff 2c3e d85b 203e 072f a0bd
00000320: c0d5 473e 709e 803e e1f8 d3bd eb56 f6bd
00000330: e3bb 71be aa1e d53d e121 c93c 9f5c 6b3d
00000340: 89fb 723d b62b 4d3e 975c 35be 59a2 9fbd
00000350: 6eb2 083e 7f03 fcbc ac69 093e c6a4 213e
00000360: 2203 15bd 5d8c ec3d 2e0f 753e 45a6 11be
00000370: 37f3 ac3d 9b12 193d bbab 7f3e 6c39 353d
00000380: 9a61 c9bd fa9f 873e 9360 2b3e 2c86 d0bd
00000390: 97c2 56be a3f8 82bd 5740 1ebe 4bb3 013d
000003a0: 1731 33be 9366 2b3e 7a7b 59be 98de 27bc
000003b0: 872e c33d 5ce0 69be 7bce 543e 1dfd 4fbd
000003c0: 97d8 10be 8816 25be 1460 05be 5f94 323c
000003d0: a362 243c 63d0 2dbd dc80 4e3e f97f 0f3d
000003e0: e490 d5bc 9733 dd3b 2840 65bb b322 933e
000003f0: 5dfe 99bd 1ca1 82be 351a 413e 3f7b 593e

bias f4 [64]
0.20781913 -0.19308706 -0.09846607 -0.05465275 -0.06481765 -0.19580905 0.28033513 -0.22292028
0.32887197 0.17500174 -0.34499112 -0.34389973 -0.011991529 -0.09213776 0.08755106 -0.2890842
0.22009166 -0.34787515 0.011673578 -0.24570753 -0.2692066 0.25072634 -0.3239939 -0.014656582
0.286674 -0.15468928 -0.37873825 -0.17658336 -0.17185529 -0.39016137 0.34682375 -0.2811503
-0.1609892 0.3081731 -0.14296088 0.22761427 -0.079140455 0.07181509 -0.24409835 0.22272477
-0.070932314 -0.41223538 0.33789566 -0.13844539 0.25615752 -0.23524432 0.31573194 -0.25631052
0.031324767 -0.04455727 -0.2326596 -0.3043483 0.07295935 -0.19026424 -0.20851599 0.14057568
0.3337922 0.0016159541 -0.2868538 0.085100025 0.18059964 -0.049601134 0.34319282 -0.24807146
00000000: 8ace 543e 9db8 45be 94a8 c9bd 90db 5fbd
00000010: 1ebf 84bd 2b82 48be 1688 8f3e 3745 64be
00000020: e861 a83e a833 333e ada2 b0be a013 b0be
00000030: 1e78 44bc b9b2 bcbd f84d b33d d802 94be
00000040: b55f 613e b11c b2be 8942 3f3c c19a 7bbe
00000050: 73d5 89be 345f 803e 87e2 a5be 2922 70bc
00000060: efc6 923e de66 1ebe fbe9 c1be 45d2 34be
00000070: d5fa 2fbe 3bc3 c7be e292 b13e eff2 8fbe
00000080: 5ada 24be ddc8 9d3e 5664 12be b713 693e
00000090: 6414 a2bd ca13 933d ebf4 79be f611 643e
000000a0: f644 91bd 8410 d3be a900 ad3e a1c4 0dbe
000000b0: 1427 833e e3e3 70be 9ea7 a13e 223b 83be
000000c0: 664e 003d af81 36bd 513e 6ebe 8ad3 9bbe
000000d0: b66b 953d a1d4 42be 3785 55be 12f3 0f3e
000000e0: d0e6 aa3e 6cce d33a 80de 92be ec48 ae3d
000000f0: 1def 383e 8f2a 4bbd f8b6 af3e 7206 7ebe

weight f4 [64, 4]
0.22505035 -0.20963088 -0.1070827 -0.15819812 0.016566677 -0.106638886 0.027734246 0.14794232
0.045282304 0.084188655 -0.3604378 -0.2879958 -0.11965834 0.08210647 -0.1464511 0.071125954
0.22469757 0.007495321 -0.115078494 0.006564323 -0.05809605 0.038379066 0.08875188 -0.24074067
-0.23747587 0.23581798 -0.006191605 0.08381642 0.043963533 0.15974987 0.02493469 0.16899653
0.16963114 0.022308232 -0.00864634 -0.24685228 -0.20667481 0.21330127 0.13551506 0.14469524
-0.0907143 -0.21270344 0.08416348 -0.053322446 -0.047180675 -0.2111116 0.21841343 -0.27205727
-0.104134545 0.2606199 0.10561081 0.20820802 0.19886248 0.02725696 0.11040904 0.11905215
0.09420174 -0.2880186 0.19118164 0.01301227 0.16538383 0.00067226525 -0.23807849 -0.23395623
-0.13614446 0.13888827 0.13522913 -0.09932893 0.19546683 0.120922476 -0.068396725 0.110900074
-0.19712608 -0.08883866 -0.01599112 0.2213434 0.20991695 -0.12169758 0.26455113 -0.05058181
-0.17934886 0.31363812 0.09329144 -0.23414688 -0.27903685 0.14498447 0.17820972 -0.046297
0.0025643858 -0.14217527 -0.039569914 0.0736082 0.042019255 -0.07103422 0.025464533 -0.23194386
0.083049856 -0.15802367 -0.21026872 0.110767014 0.1363191 -0.32156438 0.21510777 0.06763496
0.0063577304 0.03190979 0.029482128 0.14662981 -0.10237833 -0.1773354 0.038798943 0.026944105
0.10682209 0.0005023856 -0.053992778 -0.1606817 0.19996268 -0.1282214 0.08949666 0.11979614
-0.21356152 0.103296004 -0.15229654 -0.20985794 0.0791916 0.04659068 0.105715364 -0.2526661
0.24371628 0.06107126 0.24773711 -0.10831419 0.0816978 0.25132367 0.15144451 -0.19904976
0.20807777 -0.1417822 -0.09028889 -0.25359556 -0.11602963 0.26402238 -0.07678621 0.22942439
-0.12164922 -0.28561518 -0.26986766 -0.14144252 -0.22804497 0.11970093 -0.07941955 -0.24442424
0.10346696 0.20628348 0.003996357 -0.15816157 0.07108471 -0.27672884 -0.07367908 0.04988905
0.11067085 -0.26526856 0.20889637 -0.2201194 -0.16462505 0.04765746 -0.12303874 -0.11851436
-0.0052596186 0.1262783 -0.21817662 0.22703126 0.115613475 -0.011963864 -0.1364775 -0.2732127
0.24236134 -0.07179613 -0.03317809 0.20433553 -0.060135335 0.33691728 0.043449942 0.27448562
-0.11062842 -0.027995296 0.29712158 -0.14605132 -0.14523235 -0.07161692 -0.16968298 -0.051298663
0.1323447 -0.22139859 -0.32081544 0.2168995 0.19622849 9.5774325e-05 -0.111874975 0.019967971
-0.13453029 0.18165891 0.14939767 -0.1254365 0.12227559 -0.03263405 -0.24069607 0.19500029
-0.13004786 -0.12024709 0.11055239 0.0055342815 -0.19098395 0.124047086 0.25131705 0.030543286
-0.10228847 0.11309266 -0.12949604 0.09275762 0.024943287 0.27664384 0.19069296 0.0001396343
-0.067117 0.11451476 -0.17872803 -0.19088094 0.033206575 -0.07507571 -0.11311408 -0.06263561
0.21163571 0.085768774 0.109291054 -0.055755805 -0.095377885 -0.1732148 0.24473926 -0.1431589
-0.14741233 0.14980629 -0.07384013 0.116667084 0.3341046 -0.0019847187 0.11396214 -0.23957503
0.22172754 -0.040940635 0.14612982 -0.21477053 0.10501379 -0.025361933 0.12747706 0.0842704
00000000: 9973 663e 7aa9 56be 2d4e dbbd b0fe 21be
00000010: d7b6 873c 7d65 dabd ee32 e33c 317e 173e
00000020: f079 393d 1a6b ac3d 4e8b b8be 2f74 93be
00000030: 6f0f f5bd 7027 a83d 47f7 15be 7caa 913d
00000040: 1f17 663e 4f9b f53b 46ae ebbd 8819 d73b
00000050: 20f6 6dbd 5e33 1d3d 8cc3 b53d b984 76be
00000060: e02c 73be 457a 713e f2e2 cabb f1a7 ab3d
00000070: 1b13 343d 7895 233e d643 cc3c 6d0d 2d3e
00000080: c9b3 2d3e c1bf b63c 61a9 0dbc d8c6 7cbe
00000090: 90a2 53be a66b 5a3e 76c4 0a3e fd2a 143e
000000a0: 6bc8 b9bd eece 59be e75d ac3d a368 5abd
000000b0: 8640 41bd a42d 58be c5a7 5f3e 174b 8bbe
000000c0: 7e44 d5bd f96f 853e 7b4a d83d 7c34 553e
000000d0: 9ba2 4b3e fd49 df3c 221e e23d 9dd1 f33d
000000e0: d8ec c03d 2d77 93be 1fc5 433e 6b31 553c
000000f0: 615a 293e f53a 303a d9ca 73be 3992 6fbe
00000100: 7469 0bbe ba38 0e3e 8179 0a3e f76c cbbd
00000110: 7528 483e 34a6 f73d 9513 8cbd 941f e33d
00000120: 6bdb 49be 0bf1 b5bd cfff 82bc d8a7 623e
00000130: 78f4 563e 953c f9bd 3f73 873e df2e 4fbd
00000140: 3aa7 37be 2d95 a03e 950f bf3d 33c4 6fbe
00000150: ebdd 8ebe cf76 143e 9c7c 363e eca1 3dbd
00000160: 410f 283b 6596 11be 1014 22bd e5bf 963d
00000170: 621c 2c3d 647a 91bd ff9a d03c b182 6dbe
00000180: 0b16 aa3d f5d0 21be af50 57be d1d9 e23d
00000190: 3c97 0b3e 16a4 a4be 3645 5c3e 3384 8a3d
000001a0: 8254 d03b d7b3 023d 8184 f13c 2026 163e
000001b0: bbab d1bd 6997 35be a4eb 1e3d e2b9 dc3c
000001c0: 8ac5 da3d 87b2 033a 8827 5dbd be89 24be
000001d0: 04c3 4c3e 784c 03be 064a b73d ae57 f53d
000001e0: dfaf 5abe db8c d33d a0f3 1bbe 00e5 56be
000001f0: 352f a23d ded5 3e3d 4c81 d83d 735d 81be
00000200: c390 793e dc25 7a3d ccae 7d3e d4d3 ddbd
00000210: 2d51 a73d 7fad 803e 4514 1b3e b3d3 4bbe
00000220: 5712 553e 5a2f 11be 62e9 b8bd 47d7 81be
00000230: f1a0 edbd f12d 873e 1742 9dbd 3aee 6a3e
00000240: 3a23 f9bd 273c 92be 182c 8abe 4fd6 10be
00000250: 9f84 69be c325 f53d b8a6 a2bd 594a 7abe
00000260: 7ce6 d33d fa3b 533e dff3 823b 1bf5 21be
00000270: dc94 913d 67af 8dbe 0fe5 96bd 7658 4c3d
00000280: 66a7 e23d 48d1 87be eee8 553e fb66 61be
00000290: 7893 28be 7834 433d bcfb fbbd a8b7 f2bd
000002a0: e158 acbb 194f 013e b169 5fbe e27a 683e
000002b0: c2c6 ec3d 1504 44bc c2c0 0bbe 89e2 8bbe
000002c0: 922d 783e d909 93bd c0e5 07bd 553d 513e
000002d0: 7850 76bd 6c80 ac3e 91f8 313d 6189 8c3e
000002e0: 2791 e2bd 6456 e5bc 5220 983e 7a8e 15be
000002f0: cab7 14be e4ab 92bd 60c1 2dbe 8c1e 52bd
00000300: 5e85 073e 50b6 62be ec41 a4be e71a 5e3e
00000310: 1ff0 483e 73da c838 b51e e5bd df93 a33c
00000320: 4fc2 09be cb04 3a3e b4fb 183e 6d72 00be
00000330: a06b fa3d 48ab 05bd 0879 76be 28ae 473e
00000340: 442b 05be 1b44 f6bd 4b69 e23d eb58 b53b
00000350: 4c91 43be 660c fe3d a1ac 803e ea35 fa3c
00000360: 9e7c d1bd 209d e73d 9c9a 04be b5f7 bd3d
00000370: dd55 cc3c 43a4 8d3e 0445 433e cc6a 1239
00000380: a374 89bd b786 ea3d 7b04 37be 4b76 43be
00000390: 9e03 083d 4bc1 99bd 5ba8 e7bd 1947 80bd
000003a0: 08b7 583e 8aa7 af3d fdd3 df3d 3360 64bd
000003b0: 7b55 c3bd 385f 31be ee9c 7a3e 3f98 12be
000003c0: 42f3 16be d266 193e 7e39 97bd 27ef ee3d
000003d0: c20f ab3e 0e12 02bb fc64 e93d 2853 75be
000003e0: 8b0c 633e 5eb1 27bd 0ea3 153e ceec 5bbe
000003f0: 7811 d73d d4c3 cfbc 5989 023e f695 ac3d

bias f4 [64]
0.51105946 0.086356066 0.21945044 -0.24130763 -0.07103339 -0.25060427 -0.08286122 0.31318912
0.03713939 -0.32620957 -0.043233685 -0.50822955 -0.15016663 0.0679245 0.40720016 -0.2868606
-0.064138375 -0.061540972 0.45558527 -0.20727083 -0.09771772 -0.46627012 -0.42611653 -0.20823722
-0.34065112 -0.25835726 -0.10034866 -0.34129015 0.029844612 -0.26889312 0.02301525 -0.3406268
-0.04392515 0.09349625 -0.26717559 -0.07242397 -0.4409473 0.35130882 -0.50370723 0.3534407
-0.3709789 0.35255933 0.19729964 -0.23402637 -0.040446386 -0.40373194 -0.22455175 0.027562642
0.31058228 -0.38685116 -0.17812505 -0.05255117 -0.24498147 0.29295132 -0.2210198 0.21708757
0.18933222 0.4388248 0.272938 -0.0064833285 -0.27450678 0.32519427 -0.1734731 0.22900975
00000000: cbd4 023f 73db b03d 9eb7 603e 5919 77be
00000010: f479 91bd 344f 80be 25b3 a9bd 535a a03e
00000020: 791f 183d f104 a7be ce15 31bd 551b 02bf
00000030: 48c5 19be 001c 8b3d 8a7c d03e 64df 92be
00000040: fb5a 83bd 6312 7cbd 7942 e93e ce3e 54be
00000050: 3a20 c8bd f5ba eebe f22b dabe 233c 55be
00000060: d369 aebe 6747 84be 9983 cdbd 95bd aebe
00000070: b07c f43c 5cac 89be 7a8a bc3c a366 aebe
00000080: dcea 33bd f67a bf3d 3dcb 88be 0553 94bd
00000090: d8c3 e1be c0de b33e f5f2 00bf 2ef6 b43e
000000a0: f2f0 bdbe a882 b43e eb08 4a3e 9ca4 6fbe
000000b0: 1cab 25bd f4b5 cebe e5f0 65be 0dcb e13c
000000c0: a404 9f3e 5b11 c6be 6a66 36be e53f 57bd
000000d0: 6cdc 7abe b7fd 953e 0453 62be 344c 5e3e
000000e0: 4ee0 413e a5ad e03e 88be 8b3e 1a72 d4bb
000000f0: 278c 8cbe dd7f a63e efa2 31be 8881 6a3e

weight f4 [64, 2]
0.22825177 0.2267901 0.008963594 0.19529235 -0.26046792 -0.38297203 -0.26116377 -0.07472583
-0.23794208 0.112622134 0.022271289 0.10730962 -0.035114575 0.1393325 -0.24864742 -0.015176565
0.067912646 0.28846854 0.22504725 -0.17439884 0.17239742 0.1595563 -0.07009373 -0.21531679
0.06494503 0.0020796666 -0.14214581 -0.061422575 -0.0077552884 -0.15317419 -0.08282751 -0.10275764
0.20046899 -0.32155445 -0.11232779 0.05308716 -0.06297084 -0.07085806 0.22252595 -0.2419533
0.085307956 -0.17970188 0.011471415 -0.0884644 -0.21617304 0.16974108 -0.16990398 0.0878502
0.010690733 0.31713375 -0.06266769 0.08992304 -0.24128143 0.10956349 -0.05694757 0.14721617
0.079711735 0.13901463 0.06447847 -0.089781925 0.25656772 0.06126225 -0.25047705 -0.13274147
0.0740624 -0.07500079 0.19448645 -0.1860627 0.11495043 0.15697522 0.1473068 -0.051749453
-0.08428461 -0.07994957 -0.22532281 -0.1739992 -0.23874971 -0.0466574 0.050518595 0.15993026
-0.16927491 -0.18203603 0.12653407 0.17394193 0.15546753 -0.21217361 -0.17957155 -0.1602002
0.10926801 0.273858 -0.14308432 -0.11798844 -0.117111124 0.1351694 0.2064947 -0.03839698
0.04111053 0.16391295 -0.19475266 -0.014071385 -0.12917101 -0.1528676 0.112716444 0.008347143
0.14807002 0.15711501 -0.12816653 0.36127982 -0.1252458 0.119912244 -0.13356315 -0.11638537
0.05511855 0.12667264 -0.18267727 -0.18924469 0.04956067 -0.21955395 0.16782276 0.26642582
0.22323605 -0.031992253 0.17144357 0.14352353 0.2699141 -0.043510117 -0.04277466 -0.2449841
00000000: d5ba 693e aa3b 683e 0adc 123c b8fa 473e
00000010: 0d5c 85be e914 c4be 42b7 85be db09 99bd
00000020: 17a7 73be 6fa6 e63d 4772 b63c 25c5 db3d
00000030: 4dd4 0fbd 2ead 0e3e 6e9d 7ebe 21a7 78bc
00000040: c915 8b3d 26b2 933e c972 663e 9c95 32be
00000050: f388 303e ba62 233e 4d8d 8fbd 017c 5cbe
00000060: e601 853d 044b 083b ac8e 11be 3d96 7bbd
00000070: 1320 febb b2d9 1cbe 78a1 a9bd 9972 d2bd
00000080: be47 4d3e c9a2 a4be 1d0c e6bd ec71 593d
00000090: dbf6 80bd 081e 91bd d8dd 633e 9bc2 77be
000000a0: f0b5 ae3d c503 38be 9af2 3b3c d32c b5bd
000000b0: 775c 5dbe 9bd0 2d3e 4ffb 2dbe ceea b33d
000000c0: 2f28 2f3c 5b5f a23e eb57 80bd 9229 b83d
000000d0: 7b12 77be d362 e03d db41 69bd d6bf 163e
000000e0: e83f a33d da59 0e3e 4a0d 843d 96df b7bd
000000f0: d85c 833e 20ee 7a3d 873e 80be 61ed 07be
00000100: 07ae 973d 049a 99bd 7527 473e 3887 3ebe
00000110: 226b eb3d 1dbe 203e 98d7 163e 3cf7 53bd
00000120: 699d acbd 9abc a3bd 06bb 66be d92c 32be
00000130: ce7a 74be d41b 3fbd 96ec 4e3d c2c4 233e
00000140: 6756 2dbe a767 3abe 2692 013e d51d 323e
00000150: e132 1f3e 0a44 59be 9be1 37be 850b 24be
00000160: e8c7 df3d 1e37 8c3e b284 12be eca3 f1bd
00000170: f5d7 efbd d969 0a3e 5973 533e 2746 1dbd
00000180: 8463 283d ccd8 273e 3e6d 47be ab8b 66bc
00000190: 6845 04be 5389 1cbe e1d7 e63d 75c2 083c
000001a0: ab9f 173e c2e2 203e 163e 03be abf9 b83e
000001b0: 6f40 00be 8d94 f53d c7c4 08be 745b eebd
000001c0: fdc3 613d 79b6 013e c00f 3bbe 5cc9 41be
000001d0: 2100 4b3d c0d2 60be bbd9 2b3e f768 883e
000001e0: fe97 643e 4f0a 03bd e78e 2f3e d5f7 123e
000001f0: 2e32 8a3e aa37 32bd 7b34 2fbd 1ddd 7abe

bias f4 [64]
0.2855644 0.36022294 -0.1367648 0.29786292 -0.5245818 -0.30198076 -0.58257794 0.40903968
-0.121948086 0.41818252 -0.15603065 -0.16443719 0.6416559 -0.36959714 -0.227328 0.11374245
-0.105511725 -0.26535326 0.34870282 0.29029706 0.42150757 -0.12004992 -0.5651608 -0.5303166
0.43750125 0.68279225 -0.6085994 -0.34942308 0.3917375 -0.5334368 0.26140913 -0.26904038
0.23907743 0.6121801 0.4128955 0.52373564 0.55165356 0.06565257 -0.046753008 -0.6923128
-0.1568372 -0.2755832 0.23179364 -0.18920034 0.19804387 -0.62042344 0.100592606 0.5716547
0.52170706 -0.43760273 0.26128197 0.044980735 0.35001495 0.39699775 -0.637378 0.7204414
0.43369755 0.061611407 -0.56919575 0.5393773 -0.6048547 -0.5420807 0.6778288 0.59866154
00000000: 7f35 923e 246f b83e 120c 0cbe 7d81 983e
00000010: fe4a 06bf 399d 9abe d423 15bf a66d d13e
00000020: ebbf f9bd 051c d63e 80c6 1fbe 3962 28be
00000030: 9043 243f d63b bdbe acc8 68be cdf1 e83d
00000040: 8816 d8bd 62dc 87be 2d89 b23e d1a1 943e
00000050: d7cf d73e bcdc f5bd 61ae 10bf d4c2 07bf
00000060: 2a00 e03e 79cb 2e3f 2ccd 1bbf 95e7 b2be
00000070: d191 c83e 508f 08bf 6bd7 853e a9bf 89be
00000080: b7d0 743e d6b7 1c3f 0a67 d33e 8a13 063f
00000090: 2b39 0d3f db74 863d 1580 3fbd 693b 31bf
000000a0: ee99 20be 3e19 8dbe 505b 6d3e bcbd 41be
000000b0: 03cc 4a3e 12d4 1ebf 7f03 ce3d f657 123f
000000c0: 988e 053f 770d e0be c0c6 853e b83d 383d
000000d0: 2935 b33e 4a43 cb3e 342b 23bf d96e 383f
000000e0: 9b0d de3e 3e5c 7c3d d0b6 11bf a114 0a3f
000000f0: c2d7 1abf cdc5 0abf 3086 2d3f e241 193f

weight f4 [64]
1.0594666 0.87269104 1.0106257 0.9401531 1.0444849 0.9307021 0.9196921 0.90864074
0.9084941 1.0707577 0.9510837 0.9461414 0.8857289 0.91120386 0.8651772 0.8343223
0.90856457 0.9419397 1.0671892 0.9849752 0.9173703 0.89185363 0.93229765 0.9667447
0.90981954 0.92138714 0.9094049 0.96588504 0.8742541 1.0367153 0.8670847 0.91791946
0.8323576 0.92907214 0.9278805 0.9369743 0.8717511 0.90498346 0.9720097 0.988705
1.0091373 0.993692 0.9388793 0.9056846 1.0251524 0.96536255 0.93174523 0.87706286
0.9941655 0.95015055 0.9993153 0.99800265 0.903958 0.8653942 0.94422436 0.9418537
0.9966598 0.9649803 0.9407001 0.9326982 0.92875123 1.0032835 0.96063304 0.9567583
00000000: 9a9c 873f ae68 5f3f 2f5c 813f e0ad 703f
00000010: aeb1 853f 7e42 6e3f f170 6b3f ae9c 683f
00000020: 1293 683f 970e 893f 397a 733f 5336 723f
00000030: 21bf 623f a844 693f 417c 5d3f 2596 553f
00000040: b097 683f f622 713f a899 883f 5627 7c3f
00000050: c8d8 6a3f 8550 643f 0fab 6e3f 957c 773f
00000060: efe9 683f 07e0 6b3f c2ce 683f 3e44 773f
00000070: 1ecf 5f3f 16b3 843f 43f9 5d3f c5fc 6a3f
00000080: 6315 553f acd7 6d3f 9489 6d3f 8cdd 6f3f
00000090: 152b 5f3f ffac 673f a1d5 783f c51b 7d3f
000000a0: 692b 813f 9962 7e3f 655a 703f f2da 673f
000000b0: 3238 833f 0022 773f db86 6e3f 3187 603f
000000c0: a181 7e3f 113d 733f 21d3 7f3f 1a7d 7f3f
000000d0: cb69 673f 798a 5d3f b0b8 713f 531d 713f
000000e0: 1925 7f3f f308 773f b9d1 703f 4fc5 6e3f
000000f0: a4c2 6d3f 986b 803f 0cec 753f 1dee 743f

bias f4 [64]
-0.04769923 -0.13003749 -0.05570046 -0.037914183 -0.0122065395 0.08590409 0.06931065 -0.05260914
-0.008139479 -0.013474133 0.07830895 0.008833084 -0.105272986 0.033456195 -0.056868866 0.02634623
0.005456322 -0.02755499 -0.028869057 -0.06889276 0.060741242 -0.06301107 0.08948184 0.116581224
-0.019874236 0.020729963 0.023775626 0.02987927 -0.0031109853 0.047333192 -0.02965963 0.13103865
-0.0018341676 -0.10789806 -0.029149849 -0.03841501 0.014431014 0.015890539 -8.072638e-05 -0.036382545
0.055804983 -0.08450432 -0.08882266 0.13563965 -0.081748545 0.104494765 0.008235401 0.029877674
-0.022806417 0.10011604 -0.013853088 -0.008097194 -0.10045458 0.021889994 0.07881432 0.02961529
-0.015289398 -0.02050885 0.05897391 -0.032281563 0.024498058 -0.014711146 0.019782808 0.02236085
00000000: 4560 43bd 8c28 05be 2a26 64bd e74b 1bbd
00000010: f0fd 47bc 7cee af3d bef2 8d3d ae7c 57bd
00000020: 735b 05bc 9cc2 5cbc 7160 a03d a4b8 103c
00000030: 5d99 d7bd 5d09 093d 54ef 68bd 0dd4 d73c
00000040: f2ca b23b 01bb e1bc cd7e ecbc a617 8dbd
00000050: cfcb 783d f30b 81bd 4142 b73d 23c2 ee3d
00000060: 4bcf a2bc e2d1 a93c 1ac5 c23c 5fc5 f43c
00000070: ace1 4bbb 73e0 413d c1f8 f2bc ff2e 063e
00000080: 7468 f0ba a8f9 dcbd aacb eebc 0f59 1dbd
00000090: 0f70 6c3c e02c 823c a54b a9b8 dd05 15bd
000000a0: c493 643d 9a10 adbd a8e8 b5bd 1fe5 0a3e
000000b0: c86b a7bd 5a01 d63d c6ed 063c 06c2 f43c
000000c0: 86d4 babc a309 cd3d 10f8 62bc 18aa 04bc
000000d0: 21bb cdbd a552 b33c 6769 a13d c49b f23c
000000e0: 6280 7abc 2d02 a8bc a08e 713d ac39 04bd
000000f0: 27b0 c83c 0507 71bc 8e0f a23c 1a2e b73c

pe f4 [1, 189, 64]
0.0 1.0 0.0 1.0 0.0 1.0 0.0 1.0
0.0 1.0 0.0 1.0 0.0 1.0 0.0 1.0
0.0 1.0 0.0 1.0 0.0 1.0 0.0 1.0
0.0 1.0 0.0 1.0 0.0 1.0 0.0 1.0
0.0 1.0 0.0 1.0 0.0 1.0 0.0 1.0
0.0 1.0 0.0 1.0 0.0 1.0 0.0 1.0
0.0 1.0 0.0 1.0 0.0 1.0 0.0 1.0
0.0 1.0 0.0 1.0 0.0 1.0 0.0 1.0
0.84147096 0.54030234 0.68156135 0.731761 0.53316844 0.8460091 0.40930894 0.91239583
0.3109836 0.9504153 0.23492105 0.9720145 0.17689219 0.9842302 0.13295726 0.99112177
0.099833414 0.9950042 0.07491915 0.9971896 0.05620449 0.9984193 0.04215715 0.999111
0.031617504 0.99950004 0.023711512 0.99971884 0.017781857 0.99984187 0.013334819 0.99991107
0.009999833 0.99995 0.0074988706 0.99997187 0.0056233825 0.9999842 0.0042169513 0.9999911
0.0031622713 0.999995 0.0023713715 0.9999972 0.0017782785 0.99999845 0.0013335211 0.9999991
0.0009999998 0.9999995 0.000749894 0.9999997 0.0005623411 0.9999998 0.00042169637 0.99999994
0.00031622782 0.99999994 0.00023713727 1.0 0.00017782794 1.0 0.00013335208 1.0
0.9092974 -0.41614684 0.99748 0.070948265 0.9021307 0.43146282 0.74690354 0.66493237
0.5911271 0.8065784 0.45669332 0.8896242 0.34820527 0.93741834 0.26355368 0.96464473
0.19866931 0.9800666 0.1494172 0.98877424 0.1122313 0.9936821 0.08423935 0.99644554
0.063203394 0.9980007 0.04740969 0.9988755 0.03555809 0.9993676 0.026667267 0.99964434
0.019998666 0.9998 0.014997319 0.9998875 0.011246587 0.99993676 0.008433828 0.9999644
0.006324511 0.99998003 0.00474273 0.99998873 0.0035565514 0.9999937 0.0026670396 0.9999964
0.0019999985 0.99999803 0.0014997876 0.99999887 0.0011246821 0.99999934 0.0008433926 0.99999964
0.0006324556 0.9999998 0.0004742745 0.9999999 0.00035565588 0.99999994 0.00026670416 1.0
0.14112 -0.9899925 0.7782725 -0.6279267 0.9932532 -0.11596616 0.95363444 0.3009673
0.8126489 0.58275366 0.652904 0.7574407 0.5085361 0.86104065 0.3894703 0.92103904
0.2955202 0.9553365 0.22307542 0.9748012 0.16790329 0.9858035 0.12617177 0.9920084
0.094726086 0.99550337 0.071081206 0.9974705 0.053323083 0.9985773 0.039994974 0.99919987
0.0299955 0.99955004 0.022494925 0.999747 0.016869437 0.9998577 0.012650555 0.99991995
0.009486687 0.999955 0.0071140616 0.9999747 0.005334813 0.99998575 0.0040005534 0.999992
0.0029999954 0.9999955 0.0022496805 0.9999975 0.0016870227 0.99999857 0.0012650888 0.9999992
0.00094868336 0.9999996 0.00071141176 0.99999976 0.0005334838 0.9999999 0.00040005625 0.99999994
00000000: 0000 0000 0000 803f 0000 0000 0000 803f
00000010: 0000 0000 0000 803f 0000 0000 0000 803f
00000020: 0000 0000 0000 803f 0000 0000 0000 803f
00000030: 0000 0000 0000 803f 0000 0000 0000 803f
00000040: 0000 0000 0000 803f 0000 0000 0000 803f
00000050: 0000 0000 0000 803f 0000 0000 0000 803f
00000060: 0000 0000 0000 803f 0000 0000 0000 803f
00000070: 0000 0000 0000 803f 0000 0000 0000 803f
00000080: 0000 0000 0000 803f 0000 0000 0000 803f
00000090: 0000 0000 0000 803f 0000 0000 0000 803f
000000a0: 0000 0000 0000 803f 0000 0000 0000 803f
000000b0: 0000 0000 0000 803f 0000 0000 0000 803f
000000c0: 0000 0000 0000 803f 0000 0000 0000 803f
000000d0: 0000 0000 0000 803f 0000 0000 0000 803f
000000e0: 0000 0000 0000 803f 0000 0000 0000 803f
000000f0: 0000 0000 0000 803f 0000 0000 0000 803f
00000100: a46a 573f 4151 0a3f ce7a 2e3f b054 3b3f
00000110: ba7d 083f 0d94 583f f190 d13e c692 693f
00000120: 3e39 9f3e 6b4e 733f 258f 703e f1d5 783f
00000130: 3a23 353e 83f6 7b3f f325 083e 28ba 7d3f
00000140: 7675 cc3d 98b8 7e3f 366f 993d d147 7f3f
00000150: ae36 663d 6898 7f3f faac 2c3d bdc5 7f3f
00000160: 5b81 013d 3cdf 7f3f a53e c23c 93ed 7f3f
00000170: 42ab 913c a3f5 7f3f 497a 5a3c 2cfa 7f3f
00000180: 57d6 233c b9fc 7f3f 16b9 f53b 28fe 7f3f
00000190: 5a44 b83b f7fe 7f3f 5a2e 8a3b 6bff 7f3f
000001a0: 1c3e 4f3b acff 7f3f 0369 1b3b d1ff 7f3f
000001b0: 2015 e93a e6ff 7f3f 8bc9 ae3a f1ff 7f3f
000001c0: 6d12 833a f8ff 7f3f 8994 443a fbff 7f3f
000001d0: 136a 133a fdff 7f3f 2117 dd39 ffff 7f3f
000001e0: 61cb a539 ffff 7f3f 0da8 7839 0000 803f
000001f0: 5377 3a39 0000 803f 6dd4 0b39 0000 803f
00000200: b7c7 683f 3311 d5be d95a 7f3f 534d 913d
00000210: 0af2 663f b2e8 dc3e 1235 3f3f 0239 2a3f
00000220: 1b54 173f ec7b 4e3f b5d3 e93e 69be 633f
00000230: f647 b23e a6fa 6f3f 82f0 863e f5f2 763f
00000240: f86f 4b3e a5e5 7a3f d300 193e 4f20 7d3f
00000250: 86d9 e53d f361 7e3f ae85 ac3d 0e17 7f3f
00000260: c870 813d f97c 7f3f aa30 423d 4eb6 7f3f
00000270: 5ca5 113d 8ed6 7f3f 5075 da3c b1e8 7f3f
00000280: 3ed4 a33c e5f2 7f3f 51b7 753c a1f8 7f3f
00000290: 9b43 383c dbfb 7f3f 0a2e 0a3c abfd 7f3f
000002a0: d83d cf3b b1fe 7f3f e768 9b3b 43ff 7f3f
000002b0: 0815 693b 96ff 7f3f 80c9 2e3b c4ff 7f3f
000002c0: 6812 033b dfff 7f3f 8594 c43a edff 7f3f
000002d0: 126a 933a f5ff 7f3f 1f17 5d3a faff 7f3f
000002e0: 60cb 253a fdff 7f3f 0ca8 f839 feff 7f3f
000002f0: 5377 ba39 ffff 7f3f 6dd4 8b39 0000 803f
00000300: c381 103e 2670 7dbf de3c 473f cebf 20bf
00000310: d745 7e3f ab7f edbd 6321 743f 6318 9a3e
00000320: c209 503f 582f 153f b724 273f a2e7 413f
00000330: 6c2f 023f 296d 5c3f a768 c73e 37c9 6b3f
00000340: 6c4e 973e ef90 743f e26d 643e 928c 793f
00000350: d7ee 2b3e 9e5d 7c3f 2c33 013e 43f4 7d3f
00000360: c0ff c13d 4fd9 7e3f 0693 913d 3a5a 7f3f
00000370: 4e69 5a3d c3a2 7f3f c5d1 233d 90cb 7f3f
00000380: 1fb9 f53c 83e2 7f3f 4747 b83c 6bef 7f3f
00000390: c631 8a3c adf6 7f3f 4644 4f3c c1fa 7f3f
000003a0: 0d6e 1b3c 0dfd 7f3f 131d e93b 58fe 7f3f
000003b0: a8cf ae3b 11ff 7f3f 1317 833b 7aff 7f3f
000003c0: 929b 443b b5ff 7f3f 606f 133b d6ff 7f3f
000003d0: 171f dd3a e8ff 7f3f 56d1 a53a f3ff 7f3f
000003e0: 10b1 783a f9ff 7f3f 097e 3a3a fcff 7f3f
000003f0: 7ed9 0b3a feff 7f3f a4be d139 ffff 7f3f
