data/train_data/td_best_model.pt (torch, 508253 bytes, 31 tensors)

att_weights f4 [5]
000000 a4 8e 9b 3f 35 ee 1c 3f ca 87 47 3f 3b ec 86 3f
       1.2152905 0.61300975 0.7794157 1.0540842
000010 47 c8 7a 3f
       0.9796185

weight f4 [64, 4]
000000 86 c5 79 be ff 30 ae be d9 37 87 be a6 e2 29 3e
       -0.24391755 -0.34021756 -0.26409796 0.16590366
000010 f6 85 37 3e d0 62 b2 be 0e 5f 94 3d 04 06 ce bd
       0.17922196 -0.34841013 0.07244693 -0.10059741
000020 6f 90 c4 bd 5c 36 0e 3d 2a 88 cf 3d 73 c0 70 be
       -0.09597861 0.03471981 0.10133393 -0.23510914
000030 50 c8 5f 3e 53 0c c6 3d e5 e2 9a 3d 45 2c 82 bd
       0.21853757 0.096703194 0.07562808 -0.063561
000040 7c 4c ac 3e 4c 44 94 3e 6c ab 1d 3e 15 af b1 bd
       0.33652103 0.28958356 0.15397424 -0.08675972
000050 bd 1a 9c 3e e4 e4 bf 3e ee 2c 8a 3e 85 ef c1 3d
       0.3048915 0.37479317 0.26987404 0.09469513
000060 34 87 b5 3d 34 f7 55 3d 80 f6 11 3e 99 c7 cb 3e
       0.088636786 0.052237704 0.14254189 0.39800718
000070 27 d5 17 bc ff 1c 28 3e 08 c7 ab 3c fa ed 8c 3e
       -0.009267128 0.16417311 0.020968929 0.27525312
000080 d5 c6 65 be 07 6c 4d be 2a 5d 2b bc 7b fd 10 3e
       -0.2243913 -0.2006074 -0.010459224 0.14159195
000090 4a 3a 6b be e0 c6 cd 3d 61 ad 65 be c1 69 91 be
       -0.22971454 0.10047698 -0.2242942 -0.28400996
0000a0 fa a5 21 bb 0b 0f 91 be 64 cc 28 be d1 20 06 bd
       -0.002466558 -0.2833179 -0.16484219 -0.03274614
0000b0 32 c1 e0 bd ba 89 11 3e b8 c8 3f 3e 52 4d 0a be
       -0.10974349 0.14212695 0.18728912 -0.13506058
0000c0 9b 39 5a 3d 4d db 9f 3e 9e 21 6a bd 3f 2c 70 be
       0.053277593 0.31222 -0.057160966 -0.23454379
0000d0 df 1c f4 3d 15 fa 8d bd d2 d8 97 3e 54 b7 94 3d
       0.11919569 -0.06932465 0.29657608 0.072615296
0000e0 36 3a e3 3d d9 c1 0a 3d d8 b1 1d be ef ac 4d be
       0.11095087 0.033876274 -0.15399873 -0.200855
0000f0 17 20 4d bd d4 a0 24 be 6e d4 30 3e 63 57 59 be
       -0.05007943 -0.16076976 0.17268535 -0.21224742
000100 13 e3 23 3e a9 db 70 3e 7d 51 59 3e 4e fd 67 3e
       0.1600459 0.23521294 0.21222492 0.22655222
000110 e3 ab 00 3c ff 28 98 be cf 42 1e be 7d 19 61 3e
       0.007853481 -0.29718778 -0.15455173 0.2198238
000120 c2 49 fd bd 1b df 70 be ce 57 8b be a3 f7 26 bd
       -0.12367584 -0.23522608 -0.27215427 -0.04076351
000130 94 00 a1 bd eb 28 44 bd e8 ca 63 3e 74 3d 30 3e
       -0.078614384 -0.047890585 0.22245371 0.17210943
000140 9a fa a0 3d 7d ff c0 3c 2a 0a 4b 3e 38 c5 56 3e
       0.078602985 0.023559326 0.19828096 0.2097367
000150 6b 77 9c be 22 2b 7b be 56 65 ff bd d2 36 c5 be
       -0.3055986 -0.24528173 -0.124705 -0.38518387
000160 bf 0d 5f bd 06 a8 3d be ca 4c ab be c2 de 7b 3d
       -0.05445647 -0.18521127 -0.33457023 0.061491735
000170 6d b4 d1 3d 1f 91 68 3d 6c a7 09 3e ee 66 4c be
       0.102394916 0.056779023 0.13442773 -0.1996114
000180 12 6d 9a 3e 17 2d f6 3d 31 d1 56 bd 73 e0 20 3d
       0.3016134 0.12020319 -0.052445594 0.03927655
000190 a6 a2 3c 3e d3 80 af 3c c0 6b b4 3e 81 87 1e 3e
       0.1842142 0.021423733 0.35238457 0.15481378
0001a0 07 59 40 3a 7a 74 37 be 40 ba 02 bd fe ee 88 be
       0.0007337485 -0.17915526 -0.031915903 -0.26744837
0001b0 fe 1b 55 3e 1a da 08 3e 4b 9c 81 bc 02 95 86 be
       0.2081146 0.13364449 -0.015821597 -0.2628556
0001c0 54 41 9c 3e be e7 82 3e db 13 44 be f4 64 ad 3d
       0.3051859 0.2556743 -0.191482 0.08466521
0001d0 d6 d3 11 be da 28 b5 bd 93 96 6f 3e e6 99 af 3e
       -0.14240965 -0.088456824 0.23397283 0.34297103
0001e0 c3 15 86 3e 4f 7d 9f 3d 7d 67 1d 3d e5 d6 31 be
       0.26188478 0.077875726 0.038428772 -0.17367132
0001f0 76 32 fe bd 9d 89 7c be 4c bb 7e 3e a9 f2 b9 3d
       -0.124119684 -0.2466187 0.24876136 0.09079487
000200 7e d1 b9 3d 08 b5 aa bd f9 dc a0 bd 8a 8e de bd
       0.090731606 -0.0833531 -0.07854647 -0.10867031
000210 e4 4e 7d 3e da b6 8c 3d 42 48 17 3d ce c8 9d 3e
       0.24737126 0.06870814 0.036934145 0.30817264
000220 4c 09 0e 3e 73 f0 46 3e 3c 3f 44 be 51 2a 8a 3d
       0.13870734 0.19427662 -0.19164747 0.067463525
000230 52 1f 80 be 72 1e f1 bd d8 c5 e9 bd 40 2b 15 be
       -0.25023896 -0.11773385 -0.11414689 -0.1456728
000240 19 af 8f 3d e7 36 d3 3e 31 70 a1 3e 53 de a6 3e
       0.07015819 0.41252825 0.31530908 0.32591495
000250 2b ad a3 be 53 91 f9 bd 9c 76 82 be 8d 72 04 bc
       -0.31968054 -0.121859215 -0.25481117 -0.008083952
000260 46 c9 81 be f2 af 5f be 39 57 84 be c1 7a b9 3d
       -0.25348872 -0.21844462 -0.25847796 0.090566166
000270 e9 7b 3d 3e da aa 2d be 14 40 c3 bd 2c ab 07 be
       0.18504299 -0.16959706 -0.09533706 -0.1324889
000280 0d 4a 40 3e a6 24 36 be 68 be 03 be 35 39 d1 bd
       0.18778248 -0.17787418 -0.12865603 -0.102159895
000290 91 43 43 3e 91 71 93 be 9d ba 8a bd 4f 65 9a be
       0.19068743 -0.28797582 -0.06773875 -0.30155417
0002a0 8c 61 f0 bc 24 f2 0e 3e a4 c5 04 be 2b 3a 86 be
       -0.029343389 0.13959557 -0.12966019 -0.26216254
0002b0 13 f6 ac be 15 9d 2e be 73 7f a8 be 24 3c 28 be
       -0.3378149 -0.1705211 -0.32909736 -0.16429192
0002c0 8e 53 81 be 2f e6 1b bd ef fa 86 be 08 7a 9a 3c
       -0.2525906 -0.038061317 -0.26363322 0.018857017
0002d0 4a 25 ee bd 16 5a 88 3e c6 7b aa 3e 4b 21 39 3e
       -0.11628206 0.2663123 0.33297557 0.18079107
0002e0 d6 d3 c1 bd 7c 5b ee 3c 23 af 6d bc ec 56 81 be
       -0.094642326 0.029096358 -0.014507088 -0.2526163
0002f0 ee ff 28 3e 48 2d 8d 3e d9 80 45 3e a7 49 80 3e
       0.1650388 0.2757361 0.19287433 0.25056192
000300 51 94 bd bd b4 37 eb 3b 14 e2 94 be 16 29 93 be
       -0.09256805 0.007178271 -0.29078734 -0.28742284
000310 c8 19 b1 3e 63 39 33 3e d5 56 96 3e 79 80 58 be
       0.34589982 0.1750236 0.29363123 -0.21142758
000320 73 3c 7b be f5 2e 55 3e 46 aa 88 bd 8c 7e d4 bb
       -0.24534778 0.20818694 -0.06673102 -0.006484812
000330 45 8d 8b bd 76 7d ff 3d f6 eb b8 3e 33 4b 9e 3e
       -0.068140544 0.12475102 0.36117524 0.30916747
000340 4a 76 3a 3e eb 98 95 be 3a 2e 58 be 24 e8 2b 3e
       0.18209186 -0.2921823 -0.21111384 0.16787773
000350 4a 28 8c bb c4 b5 9e be c3 a4 c6 3d 1e ee a8 be
       -0.004277264 -0.3099805 0.096993946 -0.3299417
000360 6e 79 33 3e 06 d6 25 be 52 b8 17 bd ed 59 95 3d
       0.1752679 -0.16194925 -0.037041016 0.072925426
000370 61 00 a1 3e 99 b2 dc bc 6a 06 a9 3e a2 24 5b 3e
       0.31445602 -0.02694063 0.33012706 0.21400693
000380 cb ef 94 be 55 55 75 be 18 81 20 bd 9d 6e 2c 3e
       -0.29089198 -0.23958333 -0.039185613 0.1683907
000390 a9 9f 45 be 8b 6f a5 be 99 f8 b0 bd 0e 92 60 3d
       -0.19299187 -0.32311663 -0.08641166 0.05482679
0003a0 ec 40 42 be 26 bd 27 be f2 8a 98 be ea 1b 33 be
       -0.18970078 -0.16380748 -0.29793507 -0.17491117
0003b0 cc 37 3b 3d 37 a7 3b be fa b0 da bd 3b b2 af be
       0.04570751 -0.18325506 -0.10678287 -0.34315667
0003c0 58 13 b5 3e 7d 31 ec bc e4 fa 83 3e da 23 d1 3d
       0.3536632 -0.028832192 0.25777352 0.10211916
0003d0 11 f5 53 be e1 75 8f 3e 91 6e 48 3e 10 33 b0 3e
       -0.20698954 0.28019622 0.19573428 0.34413958
0003e0 d1 31 5a be f7 ef 3f 3e f9 9a 08 3d 92 e2 66 3e
       -0.21308066 0.18743883 0.03335092 0.22547367
0003f0 88 bf 21 be 20 d6 67 3d 46 2d 02 3d fd 50 d9 3d
       -0.1579572 0.05660069 0.031781457 0.106111504

bias f4 [64]
000000 85 9c a6 be 4d 27 95 be 86 5d 86 3e 20 9f 7a 3e
       -0.3254129 -0.29131547 0.26243228 0.24474764
000010 ee 83 6f be fa 1d 06 bf 47 6f bb 3c cb 34 c5 be
       -0.23390171 -0.5238949 0.02288021 -0.3851684
000020 11 9f eb 3e dd ff b7 be 69 7a 49 be 65 47 cd bd
       0.46019796 -0.35937396 -0.19675602 -0.10023383
000030 5e d2 c7 bd c2 12 9f be 50 4d 50 be a7 68 9a be
       -0.09756921 -0.31069 -0.20341992 -0.30157968
000040 ab d0 0f bf 7c 66 be 3e 7a 43 a0 be 1d 75 b3 3e
       -0.5617778 0.37187564 -0.3130148 0.35050288
000050 01 3c e9 3d 5d 01 d2 be 52 4b 19 be 87 b1 1b be
       0.11388398 -0.41016665 -0.14970139 -0.1520444
000060 85 c1 a0 bd 76 7a 2d 3d 58 06 a4 3e 11 9b db 3b
       -0.07849411 0.042353116 0.3203609 0.006701835
000070 d7 2b cf 3e 5d a8 97 be 2c a6 03 be de d6 9b be
       0.40463135 -0.29620638 -0.12856358 -0.30437368
000080 78 da 4b be b8 e1 8e 3d e1 2a 6a 3e 62 f1 9e be
       -0.19907558 0.06976646 0.2286792 -0.31043535
000090 d4 d1 f3 be 0d ac b4 be 42 85 a8 3e 7c 10 1d 3e
       -0.47621024 -0.35287514 0.32914168 0.1533832
0000a0 f1 54 af be 1a 30 b9 bd ab 37 cb be 52 04 d1 3e
       -0.34244493 -0.09042378 -0.3969091 0.4082361
0000b0 ef 98 eb 3e 87 0a cf bd 59 b5 7b 3e bc 72 09 be
       0.46015117 -0.1010943 0.24580897 -0.13422674
0000c0 97 ae 9d be 0b 95 a0 3e 13 06 cc be d8 55 a9 3c
       -0.30797264 0.3136371 -0.39848384 0.020670816
0000d0 b9 32 17 be c5 cf 6b 3e a6 e2 ce 3e 53 2f dd be
       -0.14765443 0.23028477 0.40407294 -0.43200168
0000e0 3f bb df 3e ef 59 ed 3e 7e a7 71 be 8b d0 71 be
       0.43697545 0.46357676 -0.2359905 -0.23614709
0000f0 41 83 9a be 22 13 a1 be 07 32 7a be fd c1 bc 3e
       -0.30178264 -0.3145991 -0.24433146 0.3686675

weight f4 [64, 7]
000000 9a e6 e3 bd ae 17 9d be 70 b5 bb bc 18 b5 de 3d
       -0.11127968 -0.3068213 -0.022913665 0.10874385
000010 28 46 ef bc 56 f5 eb bd 3f 9f 6b be 73 cf 9f 3d
       -0.029208258 -0.115214035 -0.23009966 0.0780324
000020 a8 95 c6 be b9 8a ef 3d c1 b0 42 bd 97 0b 03 be
       -0.38786054 0.11696381 -0.047531847 -0.1279739
000030 04 f9 94 bd e8 cd fd 3d a1 99 31 3e 7d 4a 70 bb
       -0.072740585 0.12392789 0.17343761 -0.0036665492
000040 4b 96 a2 bd a6 71 0f 3e 65 5a dd bd 17 eb 2d 3e
       -0.07938822 0.14008197 -0.10808257 0.16984211
000050 a3 33 13 3e d8 06 60 be 81 e8 89 3e 8b 9b 9f bd
       0.14375167 -0.2187761 0.269352 -0.07793339
000060 c9 dd 84 3e 44 a2 2c 3d 37 c6 71 3d ad 64 22 bd
       0.2595046 0.042146936 0.059026923 -0.039646793
000070 b7 fa 19 be 28 37 e8 bd bd 37 45 3e a8 de 5a 3d
       -0.15037046 -0.11338645 0.19259544 0.053434998
000080 3f 64 b0 3b 10 d2 7f bd f7 99 4a be c9 c9 b0 bd
       0.005383044 -0.06245619 -0.19785295 -0.086322375
000090 e2 c4 61 3e d4 2e 2e 3d df 2f 11 3e f6 cd 13 be
       0.22047761 0.042525128 0.14178418 -0.14434037
0000a0 a9 3b a2 3d f4 89 00 be 9e 39 3f 3d 32 bf 35 3e
       0.079215355 -0.12552625 0.046685807 0.17748716
0000b0 44 2f 3c bd c6 86 60 be eb 1c 84 bc bb 80 81 3e
       -0.045943514 -0.21926412 -0.01612707 0.25293526
0000c0 84 ab 44 3e ac ff 8b 3d 4a 53 88 3e 90 e4 56 3e
       0.19206053 0.06835875 0.26626045 0.20985627
0000d0 7c f3 ef 3d f0 d3 93 bd ab fc 28 be 5a d2 1a bd
       0.11716363 -0.07218158 -0.16502635 -0.037798263
0000e0 9d 7d b7 3d df 6b 26 3e 8e 0e 88 bd 86 8c a5 be
       0.08959506 0.16252087 -0.06643401 -0.32333773
0000f0 7a 18 2f be ff e0 ca 3d 02 e9 37 3e b9 86 3b 3e
       -0.17099181 0.09906196 0.17959979 0.18313111
000100 e0 93 77 3e ae ca 79 3e ae e6 ac bc 8a bd 83 bc
       0.24177504 0.24393722 -0.02110609 -0.01608159
000110 18 12 9e 3d a2 33 91 3c d0 60 6f bd ef 3f 4f 3e
       0.07718295 0.017724816 -0.058441937 0.20239232
000120 3a 37 8b be e0 c2 29 3e 12 3a 4c 3e b5 9c 63 3e
       -0.27190572 0.16578245 0.19944027 0.22227748
000130 97 9f 62 3e f2 a3 67 bd 05 1f 24 3e 3d 60 77 bd
       0.22131191 -0.056552835 0.16027458 -0.060394514
000140 d3 f5 d5 3d 83 c3 80 3e 09 f2 b3 bd 52 13 6e bd
       0.10447278 0.25149164 -0.08786399 -0.058123894
000150 b0 33 0b be f0 85 90 bd dc 11 12 3e 38 e7 b7 3d
       -0.13593936 -0.070567966 0.14264625 0.08979648
000160 4a 82 05 be 07 3b 85 be d5 02 37 be 67 9a 4f bd
       -0.13037983 -0.26021597 -0.17872174 -0.05068436
000170 e7 c1 44 3e db 4a 25 3e 9f 96 0e be 0a 37 3c be
       0.19214593 0.16141836 -0.13924645 -0.1838037
000180 0e a0 56 3e ef f4 89 ba 44 4a ff bd 06 2a 97 bd
       0.20959494 -0.0010525266 -0.12465337 -0.07381062
000190 f8 6f 7f be 18 8c 7e bd 83 65 21 3e 6a f4 a7 bc
       -0.24945056 -0.062145323 0.1576138 -0.020502288
0001a0 c4 0f 50 3d ad cf 7b be 67 6f 97 bd 65 c9 4a bb
       0.050796285 -0.24590941 -0.07394295 -0.0030942794
0001b0 64 bc f3 bd c7 c7 5b be 03 ca 5d 3e c0 f5 40 3e
       -0.11901167 -0.21462928 0.21659093 0.18843746
0001c0 15 5c 7a 3e db e8 ce 3d 4b 9f 13 3e d6 c9 ce 3d
       0.24449189 0.101030074 0.14416234 0.10097091
0001d0 33 da 07 3e c5 35 47 be db f6 bc 3d f0 c4 85 be
       0.1326683 -0.19454105 0.092267714 -0.26126814
0001e0 1b b6 86 be ee c7 71 3e cc 02 32 bd 45 7b 0e bd
       -0.2631081 0.23611423 -0.0434597 -0.034785528
0001f0 39 58 46 3e 74 a6 5b 3e 1e e6 ae 3d 09 57 83 be
       0.19369592 0.21450216 0.08539985 -0.2565234
000200 15 ef 50 3d 4a 38 1b be 0f 99 5b bd 5b 30 f3 3d
       0.051009256 -0.15158191 -0.053612765 0.118744574
000210 26 be 5b 3e ba 36 d4 3d 31 d4 6d be 82 5f 36 be
       0.21459255 0.10362001 -0.23225476 -0.17809871
000220 10 9b 2d be 42 f8 27 3c 86 85 26 3d fd 0c 07 be
       -0.16953683 0.01025206 0.04065468 -0.13188548
000230 9d 7d 15 3d f6 1d 56 3d 98 a7 b4 bd 50 7e 18 3e
       0.036496747 0.052274667 -0.088210285 0.14891934
000240 26 ed 79 bd ae f5 a1 3d bf 49 01 be 83 ef 01 bd
       -0.061017178 0.07908188 -0.12625788 -0.031722557
000250 da 5c 45 bd fa f5 82 3d 19 96 87 be 9d be 77 3d
       -0.048184253 0.063945726 -0.26481703 0.060484517
000260 9d a9 8b bd 52 d7 f4 bd 3e 88 49 3e fe 67 00 3e
       -0.068194605 -0.119551316 0.19680879 0.1253967
000270 3e 2a 45 be 8a 6e 55 bd 0c 48 0d be 66 d9 5f 3d
       -0.19254395 -0.05210737 -0.13797015 0.054650687
000280 98 e6 58 3e 7c 24 88 be 78 69 8c 3e 94 46 c6 bd
       0.21181715 -0.26590335 0.27424216 -0.096814305
000290 1f 34 fe 3c b0 ed 6d 3e e7 de b7 bd 02 95 43 be
       0.031030713 0.23235202 -0.08978062 -0.1909981
0002a0 27 bf 44 be 9c c4 be 3d 34 82 8d 3d 1d ec 1e bc
       -0.19213544 0.09314844 0.069096 -0.0096998485
0002b0 d3 34 63 be 07 fe f1 3d 9a ad 65 be 56 6e bc 3d
       -0.2218812 0.1181603 -0.22429505 0.092007324
0002c0 a6 d1 38 bc c9 8c c5 bd bd 94 43 3e 12 76 fe bc
       -0.011280453 -0.09645993 0.19099708 -0.03106216
0002d0 f2 36 26 3e 1c ea 4b 3e 33 fc 33 be 7d 31 ab be
       0.16231897 0.19913524 -0.17576675 -0.33436194
0002e0 54 a6 0a be 5c 96 83 3e 52 40 40 be 94 e7 07 3e
       -0.13540012 0.25700653 -0.18774536 0.13271934
0002f0 5d 39 46 3e 1d 97 e3 bd f2 0c 2c 3e b2 38 18 be
       0.1935782 -0.11112807 0.16801813 -0.14865378
000300 4f 02 51 3e 22 ff 66 be 48 33 26 bd 94 17 ea bd
       0.20411037 -0.22558263 -0.04057625 -0.114302784
000310 58 0d 5a be ae d4 a2 3c 85 af 28 3e bc fb 4f 3e
       -0.21294153 0.019876804 0.16473205 0.20310873
000320 16 d2 90 bd 04 97 6f 3e 2d c0 55 3e dd ee 8e 3a
       -0.07071321 0.23397452 0.2087409 0.0010904927
000330 2a 60 f0 3d 5a 6f 7d 3e b2 ef d0 3d f8 9f 09 3e
       0.11737092 0.24749509 0.10201968 0.1343993
000340 69 ef 66 be 1e 26 37 be ab 7e 1b 3e 7b db 81 3e
       -0.22552265 -0.17885634 0.15185039 0.25362763
000350 d1 61 78 be 40 ef 4c be 78 05 60 bd 2b b4 64 3e
       -0.24256064 -0.20013142 -0.054692715 0.22334354
000360 4b 60 3e be 7c 7a 11 be b3 12 49 be d1 7b ee bd
       -0.1859142 -0.1420688 -0.1963604 -0.1164471
000370 e6 75 c7 bd 81 8b 06 be e4 bf f2 3d f2 97 87 3d
       -0.09739284 -0.13139154 0.118530065 0.06620778
000380 8d 49 ce bd 5f f8 66 3e 7c 4b 22 be d5 a4 4a bd
       -0.100726224 0.22555684 -0.15849108 -0.049473602
000390 ff 1a 24 3e dd 2a 8b bd 5e bd 74 3e 60 6c 34 be
       0.16025923 -0.06795285 0.23900363 -0.17619467
0003a0 b9 8a 69 3e b0 62 e6 3c a5 af 43 3e 09 89 4d be
       0.22806825 0.02812323 0.19109972 -0.20071806
0003b0 09 aa 26 bd 52 2b 89 bb e9 3c 4c be 48 8c 91 be
       -0.040689502 -0.0041860724 -0.1994511 -0.2842734
0003c0 87 58 14 be 74 8e 07 3e 07 7d b8 bd eb 62 b7 3b
       -0.14486896 0.13237935 -0.09008222 0.0055965087
0003d0 b5 7c d9 bd bb ec c9 bd 8b 9d 42 3e fd 55 5f 3d
       -0.10619489 -0.09859606 0.1900541 0.054525364
0003e0 71 bd 34 be 0f d2 59 3b ec d8 3b 3d 7c 97 f8 bd
       -0.17650391 0.0033236777 0.04586117 -0.12138268
0003f0 70 e1 f7 bc f6 64 d3 3d a8 87 b3 3c cd 94 12 bd
       -0.030258864 0.10321991 0.021915272 -0.03578644

bias f4 [64]
000000 2f 12 cc bd 0e ef 60 3c 1a 56 51 be 88 e3 6d 3e
       -0.09964406 0.01372887 -0.20443001 0.23231328
000010 87 c6 70 3e 29 6e 93 be e8 01 bf bd 28 bd 8f be
       0.23513232 -0.28794983 -0.093265355 -0.28074002
000020 26 e5 56 3e bb 9f 77 bc eb 63 4e be 2b b1 2a 3e
       0.2098585 -0.015113766 -0.20155303 0.16669147
000030 d3 ba dc bd a7 34 b0 3e fa 22 95 3e dc cc c6 3b
       -0.107778214 0.3441517 0.29128247 0.0060669016
000040 02 f3 e1 be 89 d2 5f 3d 2b 61 22 3e 77 95 81 be
       -0.44130713 0.05464414 0.15857379 -0.25309345
000050 91 d2 36 3e 37 75 9e 3e 1d 89 d6 bb 7d 59 61 3d
       0.17853762 0.30948803 -0.006547107 0.055016983
000060 a0 60 8e bd 1b 5c 8f 3d f1 da 8f be 97 76 6a 3c
       -0.069520235 0.069999896 -0.28096727 0.014310501
000070 a8 94 7f be 42 a9 3e 3e db c7 16 3e d3 05 51 3d
       -0.24959052 0.18619254 0.14724676 0.051030945
000080 6a c9 f3 bc 50 a7 f2 3d 12 c4 6d 3e d3 78 42 3e
       -0.029759128 0.118483186 0.23219326 0.18991403
000090 1e aa e1 be 24 51 bb be cf 7b b5 3e d9 0a 89 be
       -0.44075102 -0.36585343 0.3544602 -0.2676609
0000a0 4c 9f 7e 3e 59 7d 9c 3e 70 46 65 bc ab 75 34 3d
       0.24865454 0.30564383 -0.013993844 0.04405753
0000b0 93 53 86 3e 6b c1 bf 3d c4 81 aa be c6 88 51 3e
       0.26235637 0.093630634 -0.33302128 0.20462331
0000c0 5f e4 75 3e e4 7f 95 be 18 32 03 bd 1e 4a 81 3d
       0.24012898 -0.29199135 -0.032030195 0.06312965
0000d0 2a 06 7f 3e a0 88 e5 3d ab 44 ac 38 45 8a 0f 3e
       0.24904695 0.112077 8.2143895e-05 0.1401759
0000e0 88 90 a3 3e b0 d4 c3 3e 97 1b 7b 3e 96 77 af 3e
       0.31946206 0.38248205 0.24522243 0.34270924
0000f0 7e 9d 54 be 09 e1 97 3e d5 d9 a3 be 38 d9 82 be
       -0.20763204 0.29663876 -0.3200213 -0.2555635

weight f4 [64, 7]
000000 7a d8 b9 3d 8e 97 4a bd 55 37 91 3d 76 5b 20 3e
       0.09074493 -0.04946094 0.07090632 0.1565989
000010 2a 8e 0b be e1 41 9f bb f3 98 4f be 7e 1e 1e be
       -0.1362845 -0.0048601483 -0.20273189 -0.1544132
000020 23 8a e5 bd 63 4c 3c 3e 35 e5 aa bd 3f 8b 11 bd
       -0.11207988 0.18388514 -0.08344499 -0.035533186
000030 da 7c b5 3d 15 6e 90 3c 9d 35 38 3e e7 46 1e 3d
       0.08861704 0.017630616 0.17989202 0.038641836
000040 71 e1 17 3e ec ef 95 3d 1a 6a aa 3d b0 cd 5a bc
       0.14832093 0.07321152 0.083210185 -0.013354704
000050 04 ff 09 3e 80 7f 79 3d 4f 08 5b 3e 4c da 25 be
       0.13476187 0.06091261 0.21389888 -0.16196555
000060 96 24 3e be d3 c0 16 be 76 15 77 3b 78 97 5a bd
       -0.18568644 -0.14721994 0.0037702 -0.053367108
000070 e4 f6 7b 3c 53 35 e4 3d 39 32 25 be 5c 9c 6e 3e
       0.0153786875 0.11142983 -0.1613244 0.23301834
000080 85 19 86 bd 5e 2d 41 bd 58 dc f4 3c 57 0c 3f 3d
       -0.06547836 -0.047162406 0.029890224 0.046642628
000090 cd 29 97 bd ae 76 ac 3d ad d0 76 3d 11 52 5d be
       -0.0738102 0.08421074 0.060257602 -0.21613337
0000a0 8b 8c a0 ba 52 22 8d 3c f2 76 47 3e f3 bc b4 bd
       -0.0012248916 0.01722828 0.19478968 -0.08825102
0000b0 e7 1c 9c bd 3b de 4d 3c 42 7a 68 3c 04 c3 51 be
       -0.076227 0.012565191 0.014189305 -0.20484549
0000c0 b2 38 df 3d b7 e8 0a 3e d1 16 5e 3e da de c4 bd
       0.10899486 0.13565336 0.21688391 -0.09612818
0000d0 88 26 5a 3e cd b0 56 be 52 95 09 be 7a 41 5a be
       0.21303761 -0.20965882 -0.13435867 -0.2131404
0000e0 94 94 48 bd af 41 62 3e 05 45 9f bc af 57 0d 3e
       -0.04896982 0.22095369 -0.01944209 0.1380298
0000f0 87 31 05 3e df ee 55 3d 86 41 3c 3e a5 1d 26 3b
       0.13007174 0.05222976 0.1838437 0.002534726
000100 b2 ce 4a be e8 9e 1a 3e 95 f7 63 bd 6a 0b b1 bb
       -0.1980541 0.1509968 -0.055656034 -0.005402972
000110 3c c1 37 be a4 88 16 bc 22 a9 06 be 51 be c3 bd
       -0.17944807 -0.009187851 -0.13150457 -0.09557784
000120 ab f4 0c be c2 5a f2 3c a5 47 ee bd 89 dd 42 3e
       -0.13765208 0.029584292 -0.11634759 0.19029821
000130 7b b1 f9 3d d6 51 53 3c 57 a1 d7 3d 98 2f f7 bd
       0.12192055 0.012897929 0.1052882 -0.12069625
000140 ff be 60 bd 93 f9 4e 3e 37 1e 2c 3e cb bc 9f bd
       -0.054869648 0.20212393 0.16808401 -0.07799681
000150 25 8a ae bd 65 21 34 3e da d7 31 be 7f ac 10 3c
       -0.08522443 0.17590864 -0.17367497 0.008830189
000160 7a 34 fd bd ce 47 0c 3e dd f7 c7 3d d7 ef be bc
       -0.12363525 0.13699266 0.09764073 -0.023307724
000170 bc be 77 bd 2a 6e 61 3d a8 79 7d 3e ba cc f0 3d
       -0.060484633 0.0550367 0.2475344 0.117577985
000180 61 64 2b bd 4b 6f 9e 3e 48 39 cb 3d ad 65 07 3d
       -0.041843776 0.30944285 0.09923035 0.03305595
000190 11 2f 45 be bf 5c e4 bc 6f f1 be bc a2 86 2b be
       -0.19256236 -0.027876256 -0.023308484 -0.16750577
0001a0 7d bb 8f be ce 3a 65 3e 66 ff 24 3e 2c 83 b0 3d
       -0.2807273 0.22385713 0.16113052 0.08618769
0001b0 75 86 5e 3d ae ba 74 be 96 a0 59 be f8 db a1 bd
       0.054327447 -0.23899338 -0.21252665 -0.07903284
0001c0 68 62 ca 3c 1d d2 80 3b 4d 19 25 3e 04 31 db bc
       0.024705127 0.0039312975 0.16122933 -0.02675677
0001d0 7a e2 06 be 6b bb a8 3d c2 e2 9e be 22 4f 4a be
       -0.13172331 0.08238872 -0.31032377 -0.1975675
0001e0 cf 63 61 bd 81 40 07 be 05 a4 35 3c 53 f8 11 3e
       -0.055026826 -0.132082 0.011086469 0.14254884
0001f0 36 13 6b 3e 1a 1f 90 be ad fd ce 3d bf 28 17 be
       0.22956547 -0.2814873 0.101069786 -0.14761637
000200 b3 0b 4e 3b 3a 7a 5e bd 4b a9 77 3d b0 df fb 3d
       0.0031440079 -0.054315783 0.060464185 0.122985244
000210 9d 18 a6 be 10 b6 ca bd 37 7e ad 3e a4 e1 e7 bb
       -0.32440653 -0.09898007 0.33885357 -0.007076459
000220 e8 40 81 3e 94 4b a0 bd 5f 92 6d be a4 c3 8b 3d
       0.25244832 -0.078269154 -0.23200367 0.06824425
000230 c2 52 c3 bd d9 85 14 3d a6 ed 0b 3e b8 fb 9a bc
       -0.09537269 0.03626046 0.13664874 -0.018918857
000240 08 4c f2 bd 39 26 d9 3d b2 df 3a 3e f0 1f 1f 3d
       -0.11830908 0.106029935 0.18249395 0.038848817
000250 c8 5f 62 3e 65 ef 11 3e 29 87 b7 3d 97 e9 3d be
       0.2210685 0.14251478 0.08961327 -0.18546139
000260 c3 da 46 be d0 29 44 be 48 48 67 3e f3 96 ba 3d
       -0.19419388 -0.19156575 0.22586167 0.091108225
000270 d6 09 a2 3c c5 03 f9 3c 5a 36 f1 3c e6 7d 9d 3d
       0.01978008 0.030397305 0.029444862 0.07690029
000280 fe 4e 4b bd e2 ac 57 3e ba d8 23 3d dc df 5a be
       -0.04963588 0.21062043 0.04000161 -0.21374458
000290 d3 cc a3 bc fd 98 89 be 1a 13 eb bd 14 19 16 be
       -0.019995129 -0.26874533 -0.11478253 -0.14658004
0002a0 2f 09 5d bd 3c 98 0b 3e 95 6b 20 bd 0a e3 6d 3e
       -0.053963836 0.13632292 -0.0391651 0.2323114
0002b0 8c 35 c4 bd 57 1f c0 bd 1e 13 71 3e 0c 4a 32 bd
       -0.09580526 -0.093809776 0.23542449 -0.043527648
0002c0 6e 37 34 be cc ca 7c bc 24 e8 d9 3d d9 bf c5 bd
       -0.1759927 -0.01542921 0.106399804 -0.09655733
0002d0 d9 a0 3c be b0 c5 1a 3c 13 f0 cc bd dd ed ed 3d
       -0.18420734 0.009446546 -0.10006728 0.116176344
0002e0 77 97 e7 bd 33 c7 b6 3d 3e 63 80 bd 6b d1 dd bd
       -0.113081865 0.08924713 -0.06268929 -0.10830959
0002f0 0c c6 e5 bd 9c ba 1d bd 07 53 d3 3d 20 36 1e bd
       -0.11219415 -0.038508043 0.103185706 -0.038625836
000300 c3 c5 3e be 45 12 81 be 3a ba a6 bd ea d0 35 3e
       -0.18630128 -0.2520925 -0.08140989 0.17755476
000310 4d aa 86 3c dc 62 d4 bd e8 cb de 3d 04 7d d1 3d
       0.016438628 -0.103704184 0.10878736 0.10228923
000320 1f ff ce bd 1b 4e f5 3d 4c b6 45 bd 24 83 d0 bc
       -0.10107254 0.11977788 -0.048269555 -0.025453158
000330 bf 70 db bd 7d 91 a7 3d 5b 11 03 bd 41 c2 bc bb
       -0.10714864 0.081820466 -0.031998973 -0.0057604616
000340 7b 6d 34 3e 7f 53 63 3e 45 fa 69 bd fe 1d 64 be
       0.17619888 0.2219982 -0.05712344 -0.22277066
000350 30 fd 1c 3e c6 ce e2 3d ee 47 04 3e d6 ba 25 3e
       0.15330958 0.11074595 0.12918064 0.16184554
000360 74 90 1a 3e 4a 88 5a 3e 65 7a 31 bc b0 c3 3d be
       0.15094167 0.21341053 -0.010832404 -0.1853168
000370 fd a6 2c 3d 6a f5 54 be d4 e6 83 be 6c 08 f3 3c
       0.04215144 -0.20796743 -0.25762045 0.029667102
000380 6a e8 9e 3d df 10 57 3e a4 5b 58 3e 5f c8 46 be
       0.07759173 0.2100253 0.21128708 -0.19412373
000390 fc db 52 be 16 54 ed 3d a7 50 92 be 73 99 64 3e
       -0.2059173 0.11588304 -0.28577158 0.22324161
0003a0 c8 67 37 be 10 81 03 3e 8c 4f b6 3c 3b a6 2f 3e
       -0.17910683 0.12842202 0.022254728 0.17153256
0003b0 db 31 21 3e f4 86 01 3e c2 8b 3a 3d 86 a5 1d be
       0.15741675 0.12649137 0.04554344 -0.15395173
0003c0 44 82 f6 bd 65 a8 5b 3d e7 30 56 3e 73 ec 41 3e
       -0.12036565 0.05362739 0.20917092 0.18937854
0003d0 10 a1 58 3e 44 fc 45 be d2 b0 c9 bb c2 c9 28 3d
       0.2115519 -0.19334513 -0.006155112 0.041208036
0003e0 f5 cb 08 3e 23 b2 e7 3d 0d fe 4e 3e b4 a6 89 bc
       0.13359053 0.11313274 0.202141 -0.016803123
0003f0 de ea f2 bc 4b 7e ef bc 8e 54 4b b9 b5 03 27 3e
       -0.029653009 -0.029235026 -0.00019391088 0.16310008

bias f4 [64]
000000 ae 19 d1 3c ac 3f 2a be d9 b2 7b bd 2b c5 1c 3d
       0.02552494 -0.16625851 -0.06144986 0.03827397
000010 d6 b8 21 bd 47 94 27 be dc 2e 52 3e 6b e2 a2 be
       -0.039482914 -0.16365157 0.20525688 -0.31813368
000020 30 c8 1b 3d 0a c1 12 3e 8b 30 a7 3e 50 35 37 be
       0.03803271 0.14331451 0.32654223 -0.17891431
000030 a2 67 4c 3e 9c f1 a6 bc 94 67 96 be 26 62 25 3d
       0.19961408 -0.02037888 -0.293759 0.040376805
000040 80 8e 86 be 80 3c 55 be c2 71 3b be c1 f0 8d be
       -0.26280594 -0.2082386 -0.18305114 -0.27722743
000050 a7 9f 8d 3d 6d 1a f7 3d 8e cb 37 3e ea a3 ab 3d
       0.06915217 0.12065587 0.17948744 0.083808735
000060 e7 69 5f 3e 3c 24 1c 3e 74 9f a1 be 96 00 54 3d
       0.21817742 0.15248197 -0.31566966 0.05175837
000070 96 59 b4 3e ee 5e c8 3d 4b b6 88 3e 4f 3a 8c 3c
       0.352246 0.097837314 0.26701578 0.017117647
000080 55 37 d6 bd be a6 c7 3d c8 f6 c4 be bd bd 9f be
       -0.104597725 0.097486004 -0.3846953 -0.31199446
000090 06 eb b4 be a6 55 35 3e d0 25 7f be 52 bd a3 3e
       -0.3533556 0.17708454 -0.24916768 0.31980377
0000a0 e6 19 71 3e 51 65 d1 3a 02 0b 3f 3d 06 c3 a4 3e
       0.23545036 0.0015975629 0.046641357 0.3218004
0000b0 95 15 f9 3d c6 0e e6 bd d4 5b 9d 3d 08 0e 36 be
       0.121623196 -0.112332866 0.076835304 -0.1777879
0000c0 da 71 c4 3d a3 ba 4e be be c2 f7 bc ae 42 a3 3e
       0.09592028 -0.20188384 -0.030244227 0.3188681
0000d0 da 53 4a be 29 f6 66 3e 7c 07 c9 bd 0a 85 1e 3b
       -0.1975855 0.2255484 -0.09815881 0.0024188184
0000e0 eb 14 19 be 9b a0 9f 3e 44 67 78 3e 09 1d 0c be
       -0.14949386 0.3117722 0.24258143 -0.13682951
0000f0 db 9f b6 3e f7 43 71 3e 59 59 83 3e 7b cb cc bc
       0.35668835 0.23561083 0.25654104 -0.02499937

weight f4 [64, 4]
000000 cf ff e8 ba e2 1b 5b be 80 f7 3f be 67 25 9f 3c
       -0.0017776432 -0.21397355 -0.18746758 0.019427015
000010 0e 2a 6a 3e 30 34 9c 3e 22 ec 9a bd e2 87 f3 bb
       0.22867605 0.30508566 -0.0756457 -0.00743197
000020 6b 3e 69 be ad de 96 be 88 c9 82 bd bd 24 80 be
       -0.22777717 -0.29466763 -0.06386095 -0.2502803
000030 89 44 e1 3d 80 7c 1a 3e 1a b5 4e 3e d7 30 1a be
       0.109994 0.15086555 0.20186272 -0.15057693
000040 3c 62 9d 3e 77 bd 89 3e 0c 57 ae 3e 16 5d 95 3e
       0.3073901 0.26902363 0.34050786 0.2917258
000050 97 64 83 3e 4a 5e 4b 3e 43 ad 7b be 5b 0a 05 3e
       0.2566268 0.19860187 -0.24577813 0.12992232
000060 33 91 6f 3e b8 79 a7 bd f1 42 8e 3d 7f 7d ed bd
       0.23395233 -0.08177513 0.06946362 -0.11596202
000070 ed fe 44 bd db dd 85 bd 75 21 ce bd 01 80 44 bd
       -0.04809468 -0.06536456 -0.10064975 -0.047973637
000080 d2 c1 85 3c 03 1d 8d be dc a7 72 bc bd e5 50 be
       0.016327772 -0.27561197 -0.014810529 -0.20400138
000090 07 d4 cc 3d 2f 69 bf 3d 0b 27 68 be fc 79 8e 3d
       0.100013785 0.09346234 -0.22671144 0.069568604
0000a0 c0 45 2b 3e 0c 65 65 3e 70 2a 9d 3c 87 a6 b3 3d
       0.16725826 0.22401828 0.019185275 0.08771997
0000b0 52 1b 58 be b3 b4 29 bd f2 15 55 3e d4 40 8d 3e
       -0.21104172 -0.041432094 0.20809153 0.27588522
0000c0 d8 6f a4 bd ab d6 92 3e 56 02 41 3c a9 e1 e7 3d
       -0.08029145 0.28679404 0.011780342 0.11322338
0000d0 e5 a6 18 3e c0 bc 80 3d 4e 3b c2 bd 65 d1 a9 3e
       0.14907415 0.06286001 -0.09483968 0.33167568
0000e0 7d b5 a7 bd d3 bf 23 be 71 54 76 be 8e 17 60 3e
       -0.08188913 -0.15991144 -0.2405565 0.21883985
0000f0 a1 78 ef bd a4 31 46 be cb 42 e9 bd 94 99 0c bd
       -0.1169293 -0.19354874 -0.11389693 -0.03432615
000100 86 6c 66 3e 6e 44 84 bd 11 90 69 3e 3d 5f 35 3d
       0.22502336 -0.064583644 0.22808863 0.04428028
000110 b5 26 76 be 04 77 75 be 73 96 89 bd 49 9d c1 bb
       -0.24038203 -0.23971182 -0.06718149 -0.0059086424
000120 75 aa 9f be be c8 8a 3c a2 05 16 be 5f e4 81 bd
       -0.31184736 0.016941424 -0.14650586 -0.063423865
000130 a2 21 49 3e 8a d3 8c bd a7 4d 2c be 4f 57 ea 3c
       0.19641736 -0.068762854 -0.16826497 0.028606085
000140 2b f9 b2 3d db dd 1a 3e 92 a9 73 bd f7 c3 54 3e
       0.08738931 0.15123694 -0.059487887 0.2077788
000150 93 15 51 bc 80 99 56 be 1c 79 68 bd d2 d8 01 3d
       -0.012761491 -0.20956993 -0.056756124 0.031700917
000160 6b e8 8c be 51 4d 36 be 95 f2 71 3e bd 76 11 3e
       -0.2752107 -0.17802931 0.23627694 0.14205451
000170 84 57 63 be 41 a2 4e be d9 88 61 be ef e8 04 be
       -0.22201353 -0.20179082 -0.2202486 -0.12979482
000180 a8 0c 3b be 4b 30 ef 3c 79 dd 71 bd aa 9f a1 bd
       -0.18266547 0.029197833 -0.059049103 -0.07891782
000190 84 34 3c 3d 05 c2 76 bc 73 d2 16 be c9 ee da 3d
       0.04594852 -0.015060906 -0.14728718 0.10690076
0001a0 7b f7 ec bd 18 71 ba bc 2c cf 22 be 09 b6 75 be
       -0.11570641 -0.022759005 -0.15899342 -0.23995222
0001b0 ee 0c 0a be 3e d4 5b 3e 75 59 7f be a5 33 e7 3c
       -0.13481495 0.21467683 -0.24936469 0.028222868
0001c0 d2 89 8c 3e 5e 38 6f 3e af a6 a7 3e 41 ba 8d 3d
       0.274489 0.23361346 0.32744357 0.06920291
0001d0 58 af 7a 3e 05 a1 8b 3b f8 5e 81 3d ba 7e 52 be
       0.24480951 0.0042611384 0.06316942 -0.20556155
0001e0 53 7b c3 3d e8 1f 14 3e 43 d0 a4 bd ec 6f 86 be
       0.095450066 0.14465296 -0.08047535 -0.26257265
0001f0 47 58 20 bd 17 1b 7a bd 95 01 23 3d b8 78 69 3d
       -0.039146688 -0.06106099 0.03979643 0.056999892
000200 58 08 10 be 71 e1 76 be c8 a5 5e be 93 aa 49 3e
       -0.14065683 -0.24109437 -0.21742928 0.19693975
000210 ae 6c 20 bc 7e 92 fb bd 94 75 10 be be 84 8d 3e
       -0.009791536 -0.122838005 -0.14107352 0.27640337
000220 3a f3 66 3d 5c af 1f 3e cd 5a bc bd e9 45 8e be
       0.056384303 0.15594238 -0.091970064 -0.27787712
000230 98 31 76 be d0 54 c8 3d b7 bf 90 bc 72 ea 26 3e
       -0.24042356 0.09781802 -0.017669542 0.16300371
000240 bf 6a 83 bd ac f5 4b be d0 c5 0b be 8e 86 49 be
       -0.064168446 -0.19917935 -0.13649678 -0.19680235
000250 fc 14 89 3e 20 b2 60 3e 15 d2 49 be 00 8e 4a 3e
       0.26773822 0.2194295 -0.19709046 0.19780731
000260 4a b1 93 be d6 be 7a be f8 9a 15 3e 58 c7 d7 3c
       -0.28846198 -0.2448686 0.14609897 0.026340172
000270 2a 39 95 be 72 e5 8c bb a0 75 c3 bd 72 c1 2b be
       -0.29145175 -0.004299813 -0.095439196 -0.16773012
000280 94 f8 a6 bd a5 35 77 3e af a4 0e 3e 0b 71 04 be
       -0.08152881 0.24141558 0.1393001 -0.12933747
000290 c0 02 67 3e e1 4f fb bd 03 af 4e bc 72 ee 68 be
       0.22559643 -0.12271095 -0.012614968 -0.2274721
0002a0 a9 da 99 bc 7d 54 5f be 30 d3 ee 3d 0e 70 20 be
       -0.018781023 -0.21809573 0.116613746 -0.15667745
0002b0 b3 f6 bf bd 8b 73 11 3e d3 56 8e be fc 53 18 3e
       -0.09373226 0.14204232 -0.27800617 0.14875787
0002c0 e3 c5 b6 bc 52 53 1e be 2e fc a7 3d 90 fe 3b 3c
       -0.022311157 -0.15461472 0.08202396 0.011474267
0002d0 c6 44 20 be f2 ce 54 be e0 95 54 be 4b 30 fa 3a
       -0.15651235 -0.20782068 -0.20760298 0.0019087879
0002e0 59 cf 24 be 60 7b 89 be 0b 39 f8 3d 4d 2c 48 bd
       -0.16094722 -0.2685194 0.12120255 -0.048870374
0002f0 1c a2 87 3d be f7 f4 bd fa 09 65 be 35 a4 65 be
       0.06622717 -0.119613156 -0.22367087 -0.22425921
000300 f4 75 a4 3c be 48 25 be 9d 8d 61 3d 64 2a 6a be
       0.020075776 -0.1614103 0.055066694 -0.22867733
000310 5e fd 56 bb 20 d8 6a be d3 bb 96 3e 1e 7f a3 bd
       -0.0032804827 -0.22934008 0.29440174 -0.0798323
000320 f0 ce 69 3e 42 7d 0f 3d ea 4b 05 be 71 6b 16 3e
       0.22832847 0.035031565 -0.1301724 0.14689423
000330 93 60 4e be 3d 5d 4e be de 15 70 bd fd e2 80 3e
       -0.20154028 -0.20152755 -0.058614604 0.25173178
000340 c0 37 e9 3d 5f 9e 72 3e 92 75 16 3e ad 10 7b be
       0.113875866 0.23693226 0.14693287 -0.2451808
000350 ee 19 53 be 86 21 eb bc b5 b3 4c 3e af 6a 75 bd
       -0.2061536 -0.028702509 0.19990428 -0.059916195
000360 00 e2 8e 3d 96 fb 1a 3a 77 8b 8d 3d 5a 1d 58 3d
       0.069767 0.0005912123 0.069113664 0.052762367
000370 5c d0 48 be 3b b6 b5 3d b0 25 36 3e e2 06 8d be
       -0.19610733 0.08872648 0.17787814 -0.27544314
000380 62 36 71 be bc 4b a3 be 0d ba 08 be 8a 06 49 be
       -0.23555902 -0.31893718 -0.13352223 -0.196314
000390 10 3f 73 bd 52 25 06 be 71 7a 63 be 14 49 8b 3e
       -0.059386313 -0.13100174 -0.22214676 0.27204192
0003a0 72 16 58 be 8c 25 8e 3c af 7e 7b bc 3d f3 26 3d
       -0.21102312 0.017351888 -0.015350028 0.040759314
0003b0 23 4e 9d 3d e7 3e ec 3d ff 6e d4 bd 6d 4f a4 3d
       0.07680919 0.11535435 -0.10372733 0.08022962
0003c0 af 66 5d be ed 15 8e bd 4f 6d 79 3e bf 31 db bd
       -0.21621202 -0.06937776 0.24358104 -0.10702848
0003d0 6f 2a 59 3e 6d 70 c9 3d be 52 d0 bd 8d 32 0e bd
       0.21207593 0.09835897 -0.10172032 -0.034716178
0003e0 f7 6d 91 3d f5 e1 11 3e 30 37 3e 3e 5b cc 63 be
       0.07101052 0.14246352 0.1857574 -0.22245924
0003f0 a4 08 1c be af f0 a8 3d 59 c5 25 3e be bb 83 be
       -0.15237671 0.08249032 0.16188563 -0.25729173

bias f4 [64]
000000 f3 8b a8 bd e6 e2 9e be 7d 41 a2 3e d2 3b ac be
       -0.08229818 -0.31032485 0.3169059 -0.3363939
000010 eb 42 3d 3e 26 b3 3a bd 2e 43 95 be ec 68 fa 3e
       0.18482558 -0.045581006 -0.29152817 0.48908174
000020 2f f5 91 bd 65 29 a8 be 3d 97 64 bd c2 2d a6 bc
       -0.07126843 -0.32844082 -0.055808295 -0.02028549
000030 61 8c ef bd 74 a7 2d 3e 99 44 3a be 94 4c f4 3e
       -0.11696697 0.1695841 -0.1819023 0.47714674
000040 a1 02 3e 3e 17 6e 37 be fb 27 ac be f8 72 da bd
       0.1855569 -0.1791309 -0.33624253 -0.1066646
000050 27 b2 8c be 6f 06 61 be 02 ea e2 3e 1f 2f 05 be
       -0.2747967 -0.2197511 0.4431916 -0.13006257
000060 ea 41 75 be 6a 29 da be 96 58 ff bd 4d af ef 3b
       -0.23950925 -0.4260972 -0.12468068 0.0073145987
000070 30 cb 9a be 3c 7e f8 be cf e6 d0 be bc 5f 5c 3e
       -0.30233145 -0.4853381 -0.40801093 0.21520895
000080 dc 5b e5 be d1 73 d8 be a8 de 09 be 00 41 b8 be
       -0.44796646 -0.4227586 -0.13463843 -0.3598709
000090 89 3a 5b be 7a 96 ac 3e 15 1f ec 3e c4 8a 2b be
       -0.21409048 0.33708555 0.46117464 -0.16752154
0000a0 31 cb 8d 3e 60 17 0e 3e 55 7d 89 be 59 e1 8d 3e
       0.27694085 0.13876104 -0.26853433 0.2771099
0000b0 76 5d 50 be a5 49 de be 79 e1 f4 be 0c f4 84 bc
       -0.20348153 -0.4341556 -0.47828272 -0.016229652
0000c0 d2 56 b0 3e f3 fa 8c be e9 bc e2 be f1 b2 a2 3e
       0.3444124 -0.2753521 -0.44284752 0.31777146
0000d0 f4 7d d6 3e 24 4c d3 bd a4 ba ce be c9 d8 ea be
       0.4189297 -0.10317257 -0.4037677 -0.4586852
0000e0 50 06 c5 3e db be 7f be 10 a1 ec be 12 7d 5d be
       0.3848138 -0.2497515 -0.4621663 -0.21629742
0000f0 92 b7 93 3e 3e 55 ac bd e7 4c 09 bd f3 38 8a bb
       0.2885099 -0.08414696 -0.033520605 -0.0042182147

weight f4 [64, 2]
000000 43 45 e2 bc 8a 88 67 be 53 05 90 3e d0 1a 1d 3c
       -0.027620917 -0.2261068 0.28129062 0.009588912
000010 6f ca 4f be 5b 27 68 3d ef d5 16 be 9c d4 a8 bd
       -0.20292066 0.056678157 -0.14730047 -0.08243677
000020 88 e8 96 be 86 db b9 bd 8e db 02 3e 5d da 4d 3e
       -0.29474282 -0.09075074 0.12779066 0.2010283
000030 a8 b1 4f 3e 0e 5c 21 3d cc 0b 19 3e 90 51 3a be
       0.20282614 0.03939443 0.14945906 -0.18195176
000040 82 de 9e 3b 36 79 f5 3c af c2 ab 3d f9 45 25 be
       0.0048483023 0.029965024 0.08386742 -0.16139974
000050 79 26 08 be e0 dd 31 3e d0 fd 60 be 0f c1 11 3d
       -0.13295926 0.17369795 -0.21971822 0.035584506
000060 44 e7 1a be 06 c0 49 3e 80 2d aa 3e ef ff 6b 3e
       -0.15127283 0.19702157 0.3323784 0.2304685
000070 ce 96 11 be ea 3c 67 3d fd 58 89 3e 15 d4 50 be
       -0.14217684 0.056454577 0.26825705 -0.20393403
000080 75 29 07 3b 51 92 7a be d6 26 d1 3d e2 0b 91 3d
       0.0020624076 -0.24469878 0.102124855 0.070823446
000090 15 bf 11 be 4c 40 dd bd d8 1b 83 be bc 5e 84 be
       -0.14233048 -0.10803279 -0.2560718 -0.25853527
0000a0 f0 96 a5 bb 52 ed 2a bd 0b ca 55 3e df 98 4d be
       -0.0050533935 -0.041730233 0.20877855 -0.20077847
0000b0 f5 75 9b 3d 96 d7 73 3e 8a ed bc bd 3c d0 85 3e
       0.07590858 0.23812708 -0.092249945 0.26135433
0000c0 c7 72 0b 3e a9 e8 96 be f8 76 23 be ec dd 34 be
       0.13618003 -0.2947438 -0.15963352 -0.17662781
0000d0 29 73 65 be 48 c2 3f be d2 3e 5f bd fd 4d fd bd
       -0.22407211 -0.18726456 -0.05450327 -0.12368391
0000e0 cc 44 9c 3c 57 e5 9e bc 90 21 5e 3e 37 64 ba bc
       0.019075774 -0.019396467 0.2169249 -0.022752864
0000f0 18 dc cb 3d b0 73 fb 3d e2 7e fc bd c1 4b 71 3e
       0.09954089 0.12277925 -0.123288885 0.23564054
000100 f4 aa 1d 3e bb 34 4a 3c af b0 42 bd e0 5e 4f be
       0.15397245 0.0123416735 -0.04753178 -0.20251036
000110 4b e8 84 be 85 db 32 3e 15 08 12 be 99 32 35 3e
       -0.25958475 0.17466553 -0.14260896 0.17695083
000120 f1 ea bb be 28 e7 5c 3e d4 35 37 3e 01 dd 67 3e
       -0.36702684 0.21572554 0.17891628 0.226429
000130 57 d8 bd bd e2 c4 ad bd d6 10 e9 3d 7c 17 04 bc
       -0.09269779 -0.08484818 0.11380164 -0.00806224
000140 41 11 7c 3d 13 a3 f2 3d 54 5f 5a be af d5 51 3e
       0.061539892 0.1184751 -0.21325427 0.2049167
000150 76 73 a1 be 11 71 a3 bd 09 1a a9 3e 43 05 36 be
       -0.31533402 -0.0798055 0.33027676 -0.17775445
000160 d8 96 19 be 1e 20 04 be 2b 3c 74 be bb 75 a1 3e
       -0.14998949 -0.12902877 -0.23851077 0.31535134
000170 cd bc 2e 3c 7d b0 85 3d 7f 04 85 be 68 26 3b be
       0.010665131 0.06527803 -0.25979993 -0.1827637
000180 bf 1f 94 be 12 a3 6c be 6e c5 b8 ba 30 7f 3c 3e
       -0.2893047 -0.23109081 -0.0014096925 0.18407893
000190 16 b1 5b 3c 4f 2a 21 be 44 75 14 be 71 47 76 3e
       0.01340892 -0.15738796 -0.14497858 0.2405069
0001a0 3b 5a 1b be 25 8d 55 bd 6e cd 53 3d 13 77 e5 3d
       -0.15171139 -0.05213656 0.051709585 0.11204352
0001b0 42 f5 4b be c6 54 f9 bc f0 a5 71 3d 44 ca dc 3d
       -0.19917777 -0.030435931 0.05899614 0.107807666
0001c0 de 57 70 3e d0 b6 17 3d 0f 18 b1 bd 1f 8f f6 bc
       0.23471019 0.037039578 -0.08647167 -0.030097542
0001d0 16 ea ef bd e1 45 9a 3e 77 75 8a be 7a 6e 71 be
       -0.1171457 0.30131438 -0.27042744 -0.235773
0001e0 de 4f 06 3d 3e ae 24 be 87 4e 60 be fb 48 6e 3e
       0.03279101 -0.16082093 -0.21904956 0.23270027
0001f0 98 23 0e 3e 4a e6 84 3d de 00 0e 3e d5 cf de bd
       0.13880765 0.06489237 0.13867518 -0.108794846

bias f4 [64]
000000 aa a2 e6 be 1a e2 bc be 3e 94 c7 3e 36 b7 0e 3f
       -0.45045978 -0.36891252 0.38980287 0.5574831
000010 e4 b9 11 3f d0 2f 1b 3f d2 dd 9c be ca d7 2b bf
       0.5692427 0.6061983 -0.30637985 -0.6712614
000020 e8 f7 49 3e 66 cc 31 3f 69 0f 5b 3e 1e 35 b5 be
       0.19723475 0.6945251 0.21392597 -0.35392088
000030 fb dd 8d bd ca 1b 03 3e 95 0d c6 be 3d 2b 28 bd
       -0.06927105 0.1280357 -0.38682237 -0.04105686
000040 89 a5 c8 be 0d a6 23 3f fa d5 6d be 50 a6 96 3e
       -0.39188793 0.6392525 -0.23226157 0.2942376
000050 92 e7 f7 3e e2 8f 02 3f 9e d0 2b bf 30 65 01 3f
       0.48418862 0.510008 -0.671152 0.50545025
000060 67 4c 09 bf e1 72 0d 3f ba af 0f bf cd 13 30 3e
       -0.53632206 0.55253416 -0.5612751 0.17195053
000070 d1 f6 c7 be 58 9f b5 be 40 82 47 3c 01 a4 8f 3e
       -0.39055493 -0.35473132 0.01217705 0.28054813
000080 c2 60 1b 3f 4e a5 6f be c4 c3 1a 3f d2 87 26 bd
       0.60694516 -0.23402902 0.60454965 -0.040656872
000090 37 d4 bd 3e 68 bf c6 3e 82 26 87 3e 74 81 06 3f
       0.3707597 0.38817906 0.26396567 0.5254128
0000a0 f9 0d d5 3b 69 28 37 be 13 72 9c 3e d9 7e 84 3e
       0.00650191 -0.17886509 0.30555782 0.25878027
0000b0 51 30 77 3e 25 84 a6 3e 88 d5 0b be 72 a6 36 bf
       0.24139525 0.32522693 -0.13655674 -0.71347725
0000c0 ee c3 29 bf 5d 78 1e 3f 18 c0 dc be 84 fe b9 3d
       -0.6631459 0.6190241 -0.43115306 0.09081748
0000d0 40 b8 ce 3d 57 75 e1 be 6a 05 25 3e 25 31 8e be
       0.10093737 -0.44034836 0.16115347 -0.2777187
0000e0 9a 44 8f be d1 33 d2 3e 7b 1c 1f 3f 22 63 11 3f
       -0.27982026 0.41055158 0.6215283 0.5679189
0000f0 c4 13 e3 bd 9b f0 b2 be eb 02 00 bf e7 9d 88 be
       -0.11087754 -0.34949192 -0.5000445 -0.2668297

weight f4 [64]
000000 10 c2 72 3f a4 ac 6a 3f 04 64 64 3f f7 ac 70 3f
       0.94827366 0.9166968 0.8921511 0.94013923
000010 4d df 7e 3f 0c 0e 7e 3f 6a c9 6a 3f d4 cd 75 3f
       0.9955948 0.99240184 0.91713583 0.96017194
000020 5e 5a 76 3f ce c9 66 3f 70 8c 62 3f 15 e7 6c 3f
       0.9623164 0.9015168 0.8849554 0.92540103
000030 44 ff 66 3f 44 ee 86 3f 4e a4 72 3f 0f c2 62 3f
       0.90233254 1.0541463 0.9478196 0.8857736
000040 ec 7e 7b 3f d7 5e 6f 3f 1b e2 80 3f 29 bc 6b 3f
       0.9824054 0.9350409 1.0069002 0.92083985
000050 01 fc 82 3f 75 81 7a 3f 66 d6 77 3f 1b 13 6a 3f
       1.0233155 0.97853786 0.9681152 0.914354
000060 44 18 72 3f 26 b7 77 3f d0 ba 7a 3f 4b 09 6f 3f
       0.94568276 0.9676384 0.97941303 0.93373555
000070 60 14 7c 3f 5e 43 6f 3f 76 59 65 3f dc 71 67 3f
       0.9846859 0.9346217 0.8958963 0.9040811
000080 ad 36 66 3f 13 2c 6f 3f 00 76 65 3f e2 fd 72 3f
       0.8992718 0.93426627 0.8963318 0.94918644
000090 de 8b 7b 3f 92 e8 7b 3f 15 42 71 3f 71 6e 75 3f
       0.98260295 0.9840175 0.9424146 0.95871645
0000a0 96 ab 62 3f 87 ec 72 3f b7 bd 6e 3f cb 1a 81 3f
       0.8854307 0.9489216 0.9325823 1.0086302
0000b0 3d b8 73 3f ed 7b 62 3f 54 1c 77 3f 2a 99 74 3f
       0.95203 0.88470346 0.965276 0.9554621
0000c0 13 3e 7c 3f b5 1f 75 3f f8 be 75 3f 3e 2e 73 3f
       0.9853222 0.95751506 0.9599452 0.94992435
0000d0 90 d6 61 3f 84 39 5c 3f bd c9 65 3f d7 06 70 3f
       0.8821802 0.8602526 0.89760953 0.93760437
0000e0 08 87 73 3f 6d e6 78 3f 60 07 7c 3f 5e bd 79 3f
       0.95127916 0.972266 0.98448753 0.97554576
0000f0 99 97 71 3f 98 de 70 3f 2e 54 70 3f 83 b9 63 3f
       0.94371945 0.9408965 0.9387845 0.88954943

bias f4 [64]
000000 8b 34 be 3d cd 08 21 3e 7e 51 79 bd b9 93 39 bd
       0.092873655 0.15726013 -0.060868733 -0.045306895
000010 32 35 07 bd 1a c3 5a bd 58 92 1c 3c 7c 24 66 3d
       -0.033009715 -0.05340872 0.009556375 0.056187138
000020 90 76 bd bd d2 63 fe 3c d6 9f ab bc 27 4c 79 3d
       -0.092511296 0.031053457 -0.02095024 0.06086364
000030 07 20 1a 3c 2f a5 98 3c 23 11 0d 3d ba 26 6b bc
       0.00940705 0.018633453 0.03444017 -0.014352495
000040 5a 68 7f bd be b6 47 bd 31 df 9a 3c a9 57 2f bd
       -0.062355377 -0.04875826 0.018905254 -0.04280821
000050 98 1f e1 bc 27 ae 4f bd a9 b7 6a bc ac c1 2d 3a
       -0.027480885 -0.050703194 -0.014326015 0.00066282856
000060 5d ee 29 3d eb 29 39 bd 9e 98 6e 3d 40 2b 32 bd
       0.041487087 -0.04520599 0.058251016 -0.043498278
000070 7b 83 a8 3b 75 e3 61 bd a4 77 47 bd f8 cc 45 3c
       0.005142627 -0.05514856 -0.048698083 0.012072794
000080 aa d3 57 bd 4a c4 59 3a af 66 c1 bd a6 53 7a 3d
       -0.052692093 0.00083071424 -0.094434135 0.06111493
000090 0f 97 0b 3d f7 99 15 bd 23 29 0a be 9d a7 0e bd
       0.034079608 -0.036523785 -0.13492255 -0.034827817
0000a0 9f 2e 8c 3b 3a 9d 8a 3b 37 34 36 3d d1 ef 51 bd
       0.0042780186 0.0042301686 0.04448339 -0.051254097
0000b0 83 fb a8 bc a3 7f 83 3d 15 41 f8 bc f0 62 f4 3c
       -0.020627743 0.06420829 -0.030304471 0.029832333
0000c0 13 3d 35 3d 26 72 d3 bc 8c 40 68 3d 9a bf b4 bc
       0.044247698 -0.025811266 0.05670218 -0.022064019
0000d0 90 69 da bd 3b 48 0e 3d 0a 99 32 3d 4a 3b 19 3d
       -0.10664666 0.034736853 0.04360298 0.037410058
0000e0 f7 29 95 bd f0 f7 ae bd 93 a4 0f bd 6b 5d a5 3b
       -0.07283395 -0.08543384 -0.03506906 0.0050465367
0000f0 29 cf a9 3c ed a6 fc bc ee e3 02 3d bb f5 68 3b
       0.020728664 -0.030841315 0.031955652 0.0035546857

pe f4 [1, 189, 64]
000000 00 00 00 00 00 00 80 3f 00 00 00 00 00 00 80 3f
       0.0 1.0 0.0 1.0
000010 00 00 00 00 00 00 80 3f 00 00 00 00 00 00 80 3f
       0.0 1.0 0.0 1.0
000020 00 00 00 00 00 00 80 3f 00 00 00 00 00 00 80 3f
       0.0 1.0 0.0 1.0
000030 00 00 00 00 00 00 80 3f 00 00 00 00 00 00 80 3f
       0.0 1.0 0.0 1.0
000040 00 00 00 00 00 00 80 3f 00 00 00 00 00 00 80 3f
       0.0 1.0 0.0 1.0
000050 00 00 00 00 00 00 80 3f 00 00 00 00 00 00 80 3f
       0.0 1.0 0.0 1.0
000060 00 00 00 00 00 00 80 3f 00 00 00 00 00 00 80 3f
       0.0 1.0 0.0 1.0
000070 00 00 00 00 00 00 80 3f 00 00 00 00 00 00 80 3f
       0.0 1.0 0.0 1.0
000080 00 00 00 00 00 00 80 3f 00 00 00 00 00 00 80 3f
       0.0 1.0 0.0 1.0
000090 00 00 00 00 00 00 80 3f 00 00 00 00 00 00 80 3f
       0.0 1.0 0.0 1.0
0000a0 00 00 00 00 00 00 80 3f 00 00 00 00 00 00 80 3f
       0.0 1.0 0.0 1.0
0000b0 00 00 00 00 00 00 80 3f 00 00 00 00 00 00 80 3f
       0.0 1.0 0.0 1.0
0000c0 00 00 00 00 00 00 80 3f 00 00 00 00 00 00 80 3f
       0.0 1.0 0.0 1.0
0000d0 00 00 00 00 00 00 80 3f 00 00 00 00 00 00 80 3f
       0.0 1.0 0.0 1.0
0000e0 00 00 00 00 00 00 80 3f 00 00 00 00 00 00 80 3f
       0.0 1.0 0.0 1.0
0000f0 00 00 00 00 00 00 80 3f 00 00 00 00 00 00 80 3f
       0.0 1.0 0.0 1.0
000100 a4 6a 57 3f 41 51 0a 3f ce 7a 2e 3f b0 54 3b 3f
       0.84147096 0.54030234 0.68156135 0.731761
000110 ba 7d 08 3f 0d 94 58 3f f1 90 d1 3e c6 92 69 3f
       0.53316844 0.8460091 0.40930894 0.91239583
000120 3e 39 9f 3e 6b 4e 73 3f 25 8f 70 3e f1 d5 78 3f
       0.3109836 0.9504153 0.23492105 0.9720145
000130 3a 23 35 3e 83 f6 7b 3f f3 25 08 3e 28 ba 7d 3f
       0.17689219 0.9842302 0.13295726 0.99112177
000140 76 75 cc 3d 98 b8 7e 3f 36 6f 99 3d d1 47 7f 3f
       0.099833414 0.9950042 0.07491915 0.9971896
000150 ae 36 66 3d 68 98 7f 3f fa ac 2c 3d bd c5 7f 3f
       0.05620449 0.9984193 0.04215715 0.999111
000160 5b 81 01 3d 3c df 7f 3f a5 3e c2 3c 93 ed 7f 3f
       0.031617504 0.99950004 0.023711512 0.99971884
000170 42 ab 91 3c a3 f5 7f 3f 49 7a 5a 3c 2c fa 7f 3f
       0.017781857 0.99984187 0.013334819 0.99991107
000180 57 d6 23 3c b9 fc 7f 3f 16 b9 f5 3b 28 fe 7f 3f
       0.009999833 0.99995 0.0074988706 0.99997187
000190 5a 44 b8 3b f7 fe 7f 3f 5a 2e 8a 3b 6b ff 7f 3f
       0.0056233825 0.9999842 0.0042169513 0.9999911
0001a0 1c 3e 4f 3b ac ff 7f 3f 03 69 1b 3b d1 ff 7f 3f
       0.0031622713 0.999995 0.0023713715 0.9999972
0001b0 20 15 e9 3a e6 ff 7f 3f 8b c9 ae 3a f1 ff 7f 3f
       0.0017782785 0.99999845 0.0013335211 0.9999991
0001c0 6d 12 83 3a f8 ff 7f 3f 89 94 44 3a fb ff 7f 3f
       0.0009999998 0.9999995 0.000749894 0.9999997
0001d0 13 6a 13 3a fd ff 7f 3f 21 17 dd 39 ff ff 7f 3f
       0.0005623411 0.9999998 0.00042169637 0.99999994
0001e0 61 cb a5 39 ff ff 7f 3f 0d a8 78 39 00 00 80 3f
       0.00031622782 0.99999994 0.00023713727 1.0
0001f0 53 77 3a 39 00 00 80 3f 6d d4 0b 39 00 00 80 3f
       0.00017782794 1.0 0.00013335208 1.0
000200 b7 c7 68 3f 33 11 d5 be d9 5a 7f 3f 53 4d 91 3d
       0.9092974 -0.41614684 0.99748 0.070948265
000210 0a f2 66 3f b2 e8 dc 3e 12 35 3f 3f 02 39 2a 3f
       0.9021307 0.43146282 0.74690354 0.66493237
000220 1b 54 17 3f ec 7b 4e 3f b5 d3 e9 3e 69 be 63 3f
       0.5911271 0.8065784 0.45669332 0.8896242
000230 f6 47 b2 3e a6 fa 6f 3f 82 f0 86 3e f5 f2 76 3f
       0.34820527 0.93741834 0.26355368 0.96464473
000240 f8 6f 4b 3e a5 e5 7a 3f d3 00 19 3e 4f 20 7d 3f
       0.19866931 0.9800666 0.1494172 0.98877424
000250 86 d9 e5 3d f3 61 7e 3f ae 85 ac 3d 0e 17 7f 3f
       0.1122313 0.9936821 0.08423935 0.99644554
000260 c8 70 81 3d f9 7c 7f 3f aa 30 42 3d 4e b6 7f 3f
       0.063203394 0.9980007 0.04740969 0.9988755
000270 5c a5 11 3d 8e d6 7f 3f 50 75 da 3c b1 e8 7f 3f
       0.03555809 0.9993676 0.026667267 0.99964434
000280 3e d4 a3 3c e5 f2 7f 3f 51 b7 75 3c a1 f8 7f 3f
       0.019998666 0.9998 0.014997319 0.9998875
000290 9b 43 38 3c db fb 7f 3f 0a 2e 0a 3c ab fd 7f 3f
       0.011246587 0.99993676 0.008433828 0.9999644
0002a0 d8 3d cf 3b b1 fe 7f 3f e7 68 9b 3b 43 ff 7f 3f
       0.006324511 0.99998003 0.00474273 0.99998873
0002b0 08 15 69 3b 96 ff 7f 3f 80 c9 2e 3b c4 ff 7f 3f
       0.0035565514 0.9999937 0.0026670396 0.9999964
0002c0 68 12 03 3b df ff 7f 3f 85 94 c4 3a ed ff 7f 3f
       0.0019999985 0.99999803 0.0014997876 0.99999887
0002d0 12 6a 93 3a f5 ff 7f 3f 1f 17 5d 3a fa ff 7f 3f
       0.0011246821 0.99999934 0.0008433926 0.99999964
0002e0 60 cb 25 3a fd ff 7f 3f 0c a8 f8 39 fe ff 7f 3f
       0.0006324556 0.9999998 0.0004742745 0.9999999
0002f0 53 77 ba 39 ff ff 7f 3f 6d d4 8b 39 00 00 80 3f
       0.00035565588 0.99999994 0.00026670416 1.0
000300 c3 81 10 3e 26 70 7d bf de 3c 47 3f ce bf 20 bf
       0.14112 -0.9899925 0.7782725 -0.6279267
000310 d7 45 7e 3f ab 7f ed bd 63 21 74 3f 63 18 9a 3e
       0.9932532 -0.11596616 0.95363444 0.3009673
000320 c2 09 50 3f 58 2f 15 3f b7 24 27 3f a2 e7 41 3f
       0.8126489 0.58275366 0.652904 0.7574407
000330 6c 2f 02 3f 29 6d 5c 3f a7 68 c7 3e 37 c9 6b 3f
       0.5085361 0.86104065 0.3894703 0.92103904
000340 6c 4e 97 3e ef 90 74 3f e2 6d 64 3e 92 8c 79 3f
       0.2955202 0.9553365 0.22307542 0.9748012
000350 d7 ee 2b 3e 9e 5d 7c 3f 2c 33 01 3e 43 f4 7d 3f
       0.16790329 0.9858035 0.12617177 0.9920084
000360 c0 ff c1 3d 4f d9 7e 3f 06 93 91 3d 3a 5a 7f 3f
       0.094726086 0.99550337 0.071081206 0.9974705
000370 4e 69 5a 3d c3 a2 7f 3f c5 d1 23 3d 90 cb 7f 3f
       0.053323083 0.9985773 0.039994974 0.99919987
000380 1f b9 f5 3c 83 e2 7f 3f 47 47 b8 3c 6b ef 7f 3f
       0.0299955 0.99955004 0.022494925 0.999747
000390 c6 31 8a 3c ad f6 7f 3f 46 44 4f 3c c1 fa 7f 3f
       0.016869437 0.9998577 0.012650555 0.99991995
0003a0 0d 6e 1b 3c 0d fd 7f 3f 13 1d e9 3b 58 fe 7f 3f
       0.009486687 0.999955 0.0071140616 0.9999747
0003b0 a8 cf ae 3b 11 ff 7f 3f 13 17 83 3b 7a ff 7f 3f
       0.005334813 0.99998575 0.0040005534 0.999992
0003c0 92 9b 44 3b b5 ff 7f 3f 60 6f 13 3b d6 ff 7f 3f
       0.0029999954 0.9999955 0.0022496805 0.9999975
0003d0 17 1f dd 3a e8 ff 7f 3f 56 d1 a5 3a f3 ff 7f 3f
       0.0016870227 0.99999857 0.0012650888 0.9999992
0003e0 10 b1 78 3a f9 ff 7f 3f 09 7e 3a 3a fc ff 7f 3f
       0.00094868336 0.9999996 0.00071141176 0.99999976
0003f0 7e d9 0b 3a fe ff 7f 3f a4 be d1 39 ff ff 7f 3f
       0.0005334838 0.9999999 0.00040005625 0.99999994
