td_best_model.pth (torch, 455377 bytes, 33 tensors)

input.weight f4 [64, 8]
000000 40 2b 3e be 70 3c 3b 3d 5e 9d 8f be e2 82 62 3e
       -0.18571186 0.045711935 -0.2804975 0.2212024
000010 97 a7 41 3d 7c 80 24 3d db e0 eb 3d c2 94 b0 3c
       0.047278967 0.040161595 0.11517497 0.021555308
000020 83 e5 79 be 61 f6 ec 3c a8 90 18 3e d6 85 a3 3d
       -0.24403958 0.028926076 0.14898932 0.079845116
000030 39 e8 86 be f8 78 3b be 8a 4e 47 3b 70 41 db bd
       -0.26349047 -0.18307865 0.0030411803 -0.107058406
000040 ac 21 0b be d8 e9 69 be 54 31 45 be 82 9e a3 3d
       -0.13587064 -0.2284311 -0.19257098 0.07989217
000050 8d 5d c5 3d 7e c5 86 be 8f 19 34 be 78 f0 71 3c
       0.09636984 -0.2632255 -0.17587875 0.014766805
000060 fc 2c 15 3c 1d 09 e5 3b a3 07 49 3e 4f a6 df 3c
       0.009104963 0.006989612 0.1963182 0.027300982
000070 83 37 02 3e f9 e0 82 3e 7b d2 c9 3d af 1a 84 be
       0.12716489 0.25562266 0.09854599 -0.25801608
000080 68 50 3b 3e 85 47 7e 3d 73 3b 49 bd 3d 0e 58 be
       0.18292391 0.062079925 -0.04912896 -0.21099181
000090 bb 16 86 3e 78 c4 7f bd 9f 2f 80 bd 1a 8f 31 3e
       0.26189217 -0.062443227 -0.06259083 0.17339745
0000a0 d0 b5 5d 3e ac 22 fb 3d 2a ea 42 3e b6 5e 58 be
       0.21651387 0.122624725 0.19034639 -0.2112988
0000b0 1b 4e 63 be 82 f7 80 3e e7 57 d0 3d f4 b6 4f be
       -0.22197764 0.25188833 0.10173016 -0.20284635
0000c0 2f 46 50 3d 36 1c 81 3e 1f 8d 68 3d 5f e3 2c 3e
       0.050848182 0.25216836 0.05677521 0.1688361
0000d0 fa ea 62 3e b3 77 fb 3c e6 62 e3 3d 95 2c 44 3e
       0.22159949 0.030696725 0.11102848 0.19157632
0000e0 49 83 56 bb a3 2f 66 3e 66 52 33 bd 16 4c 53 be
       -0.003273206 0.2247911 -0.043779753 -0.20634493
0000f0 d7 c7 06 3d 77 3a 9f be 68 b1 9d be aa e6 7c be
       0.032905426 -0.31099293 -0.30799413 -0.24697366
000100 cf 1c 16 3d 64 2c 84 3e 52 38 e6 3d b3 33 94 3e
       0.036648568 0.25815117 0.11241211 0.28945693
000110 72 12 5a 3e c2 a0 11 be 27 39 41 be db a2 57 3e
       0.21296099 -0.1422148 -0.18869458 0.21058218
000120 ae e0 77 3d 8a fb e6 bd 70 85 0e be 14 79 5c 3e
       0.060517006 -0.11278446 -0.1391809 0.21530563
000130 a6 09 16 be 7d 4e ca 3d cc f2 81 3e cd 08 85 bb
       -0.14652118 0.09878252 0.25380552 -0.004059887
000140 d6 e8 09 be c0 bb 49 be f0 29 45 3e f4 74 4b 3d
       -0.13467726 -0.19700527 0.19254279 0.049672082
000150 7d 71 c1 bd 5d 84 81 3e c1 16 96 3e cd 9b 0b 3d
       -0.09445474 0.25296298 0.29314235 0.03408413
000160 91 da 49 bd 77 7a 50 3d 34 7f de bc ad 83 59 be
       -0.049280707 0.05089804 -0.027160265 -0.21241637
000170 92 dc 28 be 0c 32 1c bd ef 13 7e 3e 9e 6f 0c be
       -0.16490391 -0.038133666 0.24812292 -0.13714454
000180 5f be 12 3e 04 2f 80 3e e7 c1 dc bb ae 13 2b be
       0.14330433 0.2503587 -0.006736982 -0.16706726
000190 6b 04 0d be fe 27 b1 3d 1b 7a c4 3d d2 26 4e be
       -0.13771217 0.08650206 0.09593602 -0.20131996
0001a0 25 c7 1f bd 40 6e 39 be 05 a1 8c bc d4 2d 53 be
       -0.03900828 -0.18108463 -0.017166624 -0.20622951
0001b0 a0 6a 01 be b2 96 77 be ff b8 ae bd 42 99 4b be
       -0.1263833 -0.2417858 -0.08531379 -0.19882682
0001c0 52 eb 2b 3e a9 1b 69 be 34 b8 25 be dc ae da 3d
       0.16788986 -0.22764458 -0.16183549 0.10677883
0001d0 7b 97 20 3e f5 4e 8d be 5d 86 24 be 5e 7b 09 3e
       0.15682785 -0.27599302 -0.1606688 0.13425967
0001e0 59 cb 81 3e 53 e5 82 be ce c9 60 be d8 b0 50 be
       0.25350454 -0.25565585 -0.21951982 -0.2037996
0001f0 ce f1 87 3d b0 c1 cb bd 7f 3b 9f be 70 d4 23 bd
       0.066379175 -0.09949052 -0.3110008 -0.039997518
000200 15 3d cb 3d 9f 7e b4 bb 02 07 cc bd 26 68 df 3d
       0.0992376 -0.0055082585 -0.09962274 0.109085366
000210 17 80 ed bc 9a 87 ff bd 68 d9 91 bd e4 6e 7c 3e
       -0.028991742 -0.12477036 -0.07121545 0.24651676
000220 07 06 8e 3e 82 a4 40 3e ab f2 dd bd 32 36 13 be
       0.27738973 0.18812755 -0.10837301 -0.14376143
000230 c0 c8 5f 3e b5 cd 78 3c 13 f8 4c 3e 8e 09 69 3e
       0.21853924 0.015185763 0.20016508 0.22757551
000240 20 5c 67 bc d1 6c 81 3e 82 07 8f be f2 d5 0e 3e
       -0.014121085 0.25278333 -0.27935416 0.13948801
000250 b8 10 80 3e ae b8 ad bc 70 97 24 3e 71 fd 63 3c
       0.25012755 -0.021206226 0.16073394 0.013915406
000260 0a 7f 25 bd 1c d4 04 bc 6e 2c 8c be 7d 86 8e 3e
       -0.040404357 -0.008107211 -0.27377647 0.2783698
000270 91 85 76 3e 74 2b 3f be 14 40 7b bc fc bb 2e be
       0.24074389 -0.1866892 -0.015335102 -0.17063898
000280 44 75 6e 3d 7d 31 88 3e cc 4a 23 3e d4 47 4e bd
       0.058217302 0.26600257 0.15946501 -0.05036147
000290 36 1f 41 3e 82 ae b9 bc 33 53 0a bd 5a 9f 13 be
       0.18859562 -0.02266622 -0.03377075 -0.14416257
0002a0 84 56 5b be 5b 6f 53 bc 2b e5 37 be 93 a5 0b be
       -0.21419722 -0.012904967 -0.17958514 -0.1363738
0002b0 30 9a 8e bd 02 2d d3 3d ca b0 a0 3d 2f a2 88 3e
       -0.06963003 0.10311319 0.0784622 0.26686236
0002c0 ef 0c 1a bd 56 82 d0 bd 81 51 69 3e 89 3d 13 3d
       -0.03760999 -0.101811096 0.22784998 0.035947356
0002d0 9d 7e 41 be 7b db 29 3e ff 72 7e 3e 70 ec b4 3d
       -0.18895955 0.16587631 0.24848555 0.088341594
0002e0 ab 39 7c be f9 bb f7 bd b0 bf 89 3e f7 a4 f8 3c
       -0.24631374 -0.120964 0.26904058 0.030352099
0002f0 2f 08 57 be 23 08 8b be 00 99 ed 3c b9 8f 8d 3e
       -0.20999216 -0.27154645 0.02900362 0.27648714
000300 b6 f4 0a be 0d f1 33 3e 52 5d 35 be 6b a5 74 3d
       -0.13569912 0.17572422 -0.1771138 0.059728067
000310 02 a6 80 bd 9c 68 04 3e 22 7f 7c 3e 1f 0b 01 3c
       -0.062816635 0.1293053 0.24657872 0.007876187
000320 a6 fd 6e 3e 4d 0e 72 3d 13 38 43 bc f5 07 05 3e
       0.23338947 0.05909567 -0.011915225 0.12991317
000330 38 65 7b 3e 12 9b 89 be 45 a6 11 be 74 45 17 3e
       0.2455033 -0.26876122 -0.14223583 0.14772588
000340 6c a9 0c 3e 09 e4 46 3e a5 21 59 3e 72 00 73 3e
       0.13736504 0.19422926 0.2120424 0.23730639
000350 47 0f 80 3d fb 91 cd bd d2 6b 2e bd 55 94 56 3e
       0.06252914 -0.10037609 -0.042583294 0.20955022
000360 49 c8 88 3e 96 a1 05 be f0 c2 17 bc 4e 3c 7b be
       0.26715305 -0.13049921 -0.009262785 -0.24534723
000370 47 cf 55 bc 7b ef 98 bd e0 35 87 3e 47 61 4b be
       -0.013049907 -0.07467552 0.2640829 -0.19861327
000380 4f 6d 81 be 14 2c 8c 3e 22 19 ef 3d c0 6a 61 3e
       -0.25278708 0.2737738 0.116747156 0.22013378
000390 b7 5d 5b 3e db 3e 6a be 28 98 93 be 17 b4 e4 bd
       0.21422468 -0.2287554 -0.28827024 -0.11167162
0003a0 e5 1b 01 3e 34 0d d3 3d d7 29 8f 3b ba 78 81 be
       0.12608297 0.10305253 0.0043690014 -0.2528742
0003b0 f9 09 3d be 12 41 8d be ca 55 49 be f0 3e fd 3c
       -0.18460836 -0.27588707 -0.19661632 0.0309138
0003c0 4d 9b 57 3e 67 0a 79 3e 26 d1 59 3e a0 fc 74 bd
       0.21055336 0.24320374 0.2127119 -0.059811234
0003d0 49 9e 4b 3e c3 eb 8f be b4 a0 8b be db b9 69 3e
       0.198846 -0.2810956 -0.27271044 0.22824804
0003e0 32 e9 32 be e6 ec 94 3d f9 8c b1 bc 2b 1d c9 3c
       -0.1747177 0.07271747 -0.021673666 0.024550041
0003f0 c4 f8 7d 3e 6a ab 2d 3e bb ca 53 be 01 de 7f 3e
       0.24801928 0.1695992 -0.20682804 0.24987032

input.bias f4 [64]
000000 1d 21 b5 be fc dc 6d 3e 59 ff b3 be 86 b4 84 3d
       -0.35376826 0.2322883 -0.35155752 0.064797446
000010 8a a7 84 3e 05 64 66 3e 11 0c fa 3c 88 e0 94 be
       0.25909072 0.22499092 0.030523332 -0.29077554
000020 0a 14 2a be 5d 1a 34 3e fe ba d7 bd c8 9b aa be
       -0.16609207 0.17588182 -0.10533713 -0.33321977
000030 2c f0 a4 3e 9f 4d f6 bd 53 93 bd bd b2 43 95 be
       0.32214487 -0.12026524 -0.092566155 -0.2915321
000040 cf 88 49 be b1 9d 08 be 54 e3 04 3d 01 49 ba bd
       -0.19681095 -0.13341404 0.03244336 -0.09095956
000050 59 ce 43 3e 7d a8 6a 3e 36 39 17 3e 08 59 81 3e
       0.19121684 0.22915836 0.14767918 0.25263238
000060 49 a1 6a bd 46 65 26 bd d4 88 9f be 7b c6 a4 3e
       -0.05728272 -0.040623926 -0.3115908 0.3218268
000070 57 23 4d be 79 11 82 3e 18 63 74 be 28 2f 8f be
       -0.20033012 0.25403956 -0.23865926 -0.27965665
000080 f1 21 aa 3d 0a d1 0e be fb 70 0d 3e b5 d4 ac be
       0.08307255 -0.1394693 0.1381263 -0.33756033
000090 b5 46 80 3e 9e 0d 9f bd a4 46 a7 be 5e 5b 38 be
       0.25053945 -0.07766269 -0.32671082 -0.18003604
0000a0 56 ee 80 be 12 60 80 bd bc 6f 39 3e 54 4b 39 3e
       -0.25181836 -0.06268324 0.1810903 0.18095142
0000b0 41 65 a1 be 6e fb 83 3e 9c 3f 68 3d e6 c4 a3 bd
       -0.31522563 0.25777763 0.056701288 -0.0799654
0000c0 06 09 ad be d6 61 2e 3e 39 ee 7b be 37 ee 91 be
       -0.33795947 0.17029509 -0.24602593 -0.28502056
0000d0 7e ff 83 bd dd 6e 9d 3e 03 05 8c be 5b 72 cb bb
       -0.06445216 0.30748644 -0.27347574 -0.0062087006
0000e0 50 fb 9a 3e 66 0f ad be b0 aa 87 be b8 8c a6 be
       0.3026986 -0.3380081 -0.26497412 -0.32529235
0000f0 77 5c b3 3d 03 5a 36 3e 5c 3f b2 be 0a 70 ee 3d
       0.08757871 0.17807774 -0.34813964 0.116424635

pe.pe f4 [1, 24, 64]
000000 00 00 00 00 00 00 80 3f 00 00 00 00 00 00 80 3f
       0.0 1.0 0.0 1.0
000010 00 00 00 00 00 00 80 3f 00 00 00 00 00 00 80 3f
       0.0 1.0 0.0 1.0
000020 00 00 00 00 00 00 80 3f 00 00 00 00 00 00 80 3f
       0.0 1.0 0.0 1.0
000030 00 00 00 00 00 00 80 3f 00 00 00 00 00 00 80 3f
       0.0 1.0 0.0 1.0
000040 00 00 00 00 00 00 80 3f 00 00 00 00 00 00 80 3f
       0.0 1.0 0.0 1.0
000050 00 00 00 00 00 00 80 3f 00 00 00 00 00 00 80 3f
       0.0 1.0 0.0 1.0
000060 00 00 00 00 00 00 80 3f 00 00 00 00 00 00 80 3f
       0.0 1.0 0.0 1.0
000070 00 00 00 00 00 00 80 3f 00 00 00 00 00 00 80 3f
       0.0 1.0 0.0 1.0
000080 00 00 00 00 00 00 80 3f 00 00 00 00 00 00 80 3f
       0.0 1.0 0.0 1.0
000090 00 00 00 00 00 00 80 3f 00 00 00 00 00 00 80 3f
       0.0 1.0 0.0 1.0
0000a0 00 00 00 00 00 00 80 3f 00 00 00 00 00 00 80 3f
       0.0 1.0 0.0 1.0
0000b0 00 00 00 00 00 00 80 3f 00 00 00 00 00 00 80 3f
       0.0 1.0 0.0 1.0
0000c0 00 00 00 00 00 00 80 3f 00 00 00 00 00 00 80 3f
       0.0 1.0 0.0 1.0
0000d0 00 00 00 00 00 00 80 3f 00 00 00 00 00 00 80 3f
       0.0 1.0 0.0 1.0
0000e0 00 00 00 00 00 00 80 3f 00 00 00 00 00 00 80 3f
       0.0 1.0 0.0 1.0
0000f0 00 00 00 00 00 00 80 3f 00 00 00 00 00 00 80 3f
       0.0 1.0 0.0 1.0
000100 a4 6a 57 3f 41 51 0a 3f ce 7a 2e 3f b0 54 3b 3f
       0.84147096 0.54030234 0.68156135 0.731761
000110 ba 7d 08 3f 0d 94 58 3f f1 90 d1 3e c6 92 69 3f
       0.53316844 0.8460091 0.40930894 0.91239583
000120 3e 39 9f 3e 6b 4e 73 3f 25 8f 70 3e f1 d5 78 3f
       0.3109836 0.9504153 0.23492105 0.9720145
000130 3a 23 35 3e 83 f6 7b 3f f3 25 08 3e 28 ba 7d 3f
       0.17689219 0.9842302 0.13295726 0.99112177
000140 76 75 cc 3d 98 b8 7e 3f 36 6f 99 3d d1 47 7f 3f
       0.099833414 0.9950042 0.07491915 0.9971896
000150 ae 36 66 3d 68 98 7f 3f fa ac 2c 3d bd c5 7f 3f
       0.05620449 0.9984193 0.04215715 0.999111
000160 5b 81 01 3d 3c df 7f 3f a5 3e c2 3c 93 ed 7f 3f
       0.031617504 0.99950004 0.023711512 0.99971884
000170 42 ab 91 3c a3 f5 7f 3f 49 7a 5a 3c 2c fa 7f 3f
       0.017781857 0.99984187 0.013334819 0.99991107
000180 57 d6 23 3c b9 fc 7f 3f 16 b9 f5 3b 28 fe 7f 3f
       0.009999833 0.99995 0.0074988706 0.99997187
000190 5a 44 b8 3b f7 fe 7f 3f 5a 2e 8a 3b 6b ff 7f 3f
       0.0056233825 0.9999842 0.0042169513 0.9999911
0001a0 1c 3e 4f 3b ac ff 7f 3f 03 69 1b 3b d1 ff 7f 3f
       0.0031622713 0.999995 0.0023713715 0.9999972
0001b0 20 15 e9 3a e6 ff 7f 3f 8b c9 ae 3a f1 ff 7f 3f
       0.0017782785 0.99999845 0.0013335211 0.9999991
0001c0 6d 12 83 3a f8 ff 7f 3f 89 94 44 3a fb ff 7f 3f
       0.0009999998 0.9999995 0.000749894 0.9999997
0001d0 13 6a 13 3a fd ff 7f 3f 21 17 dd 39 ff ff 7f 3f
       0.0005623411 0.9999998 0.00042169637 0.99999994
0001e0 61 cb a5 39 ff ff 7f 3f 0d a8 78 39 00 00 80 3f
       0.00031622782 0.99999994 0.00023713727 1.0
0001f0 53 77 3a 39 00 00 80 3f 6d d4 0b 39 00 00 80 3f
       0.00017782794 1.0 0.00013335208 1.0
000200 b7 c7 68 3f 33 11 d5 be d9 5a 7f 3f 53 4d 91 3d
       0.9092974 -0.41614684 0.99748 0.070948265
000210 0a f2 66 3f b2 e8 dc 3e 12 35 3f 3f 02 39 2a 3f
       0.9021307 0.43146282 0.74690354 0.66493237
000220 1b 54 17 3f ec 7b 4e 3f b5 d3 e9 3e 69 be 63 3f
       0.5911271 0.8065784 0.45669332 0.8896242
000230 f6 47 b2 3e a6 fa 6f 3f 82 f0 86 3e f5 f2 76 3f
       0.34820527 0.93741834 0.26355368 0.96464473
000240 f8 6f 4b 3e a5 e5 7a 3f d3 00 19 3e 4f 20 7d 3f
       0.19866931 0.9800666 0.1494172 0.98877424
000250 86 d9 e5 3d f3 61 7e 3f ae 85 ac 3d 0e 17 7f 3f
       0.1122313 0.9936821 0.08423935 0.99644554
000260 c8 70 81 3d f9 7c 7f 3f aa 30 42 3d 4e b6 7f 3f
       0.063203394 0.9980007 0.04740969 0.9988755
000270 5c a5 11 3d 8e d6 7f 3f 50 75 da 3c b1 e8 7f 3f
       0.03555809 0.9993676 0.026667267 0.99964434
000280 3e d4 a3 3c e5 f2 7f 3f 51 b7 75 3c a1 f8 7f 3f
       0.019998666 0.9998 0.014997319 0.9998875
000290 9b 43 38 3c db fb 7f 3f 0a 2e 0a 3c ab fd 7f 3f
       0.011246587 0.99993676 0.008433828 0.9999644
0002a0 d8 3d cf 3b b1 fe 7f 3f e7 68 9b 3b 43 ff 7f 3f
       0.006324511 0.99998003 0.00474273 0.99998873
0002b0 08 15 69 3b 96 ff 7f 3f 80 c9 2e 3b c4 ff 7f 3f
       0.0035565514 0.9999937 0.0026670396 0.9999964
0002c0 68 12 03 3b df ff 7f 3f 85 94 c4 3a ed ff 7f 3f
       0.0019999985 0.99999803 0.0014997876 0.99999887
0002d0 12 6a 93 3a f5 ff 7f 3f 1f 17 5d 3a fa ff 7f 3f
       0.0011246821 0.99999934 0.0008433926 0.99999964
0002e0 60 cb 25 3a fd ff 7f 3f 0c a8 f8 39 fe ff 7f 3f
       0.0006324556 0.9999998 0.0004742745 0.9999999
0002f0 53 77 ba 39 ff ff 7f 3f 6d d4 8b 39 00 00 80 3f
       0.00035565588 0.99999994 0.00026670416 1.0
000300 c3 81 10 3e 26 70 7d bf de 3c 47 3f ce bf 20 bf
       0.14112 -0.9899925 0.7782725 -0.6279267
000310 d7 45 7e 3f ab 7f ed bd 63 21 74 3f 63 18 9a 3e
       0.9932532 -0.11596616 0.95363444 0.3009673
000320 c2 09 50 3f 58 2f 15 3f b7 24 27 3f a2 e7 41 3f
       0.8126489 0.58275366 0.652904 0.7574407
000330 6c 2f 02 3f 29 6d 5c 3f a7 68 c7 3e 37 c9 6b 3f
       0.5085361 0.86104065 0.3894703 0.92103904
000340 6c 4e 97 3e ef 90 74 3f e2 6d 64 3e 92 8c 79 3f
       0.2955202 0.9553365 0.22307542 0.9748012
000350 d7 ee 2b 3e 9e 5d 7c 3f 2c 33 01 3e 43 f4 7d 3f
       0.16790329 0.9858035 0.12617177 0.9920084
000360 c0 ff c1 3d 4f d9 7e 3f 06 93 91 3d 3a 5a 7f 3f
       0.094726086 0.99550337 0.071081206 0.9974705
000370 4e 69 5a 3d c3 a2 7f 3f c5 d1 23 3d 90 cb 7f 3f
       0.053323083 0.9985773 0.039994974 0.99919987
000380 1f b9 f5 3c 83 e2 7f 3f 47 47 b8 3c 6b ef 7f 3f
       0.0299955 0.99955004 0.022494925 0.999747
000390 c6 31 8a 3c ad f6 7f 3f 46 44 4f 3c c1 fa 7f 3f
       0.016869437 0.9998577 0.012650555 0.99991995
0003a0 0d 6e 1b 3c 0d fd 7f 3f 13 1d e9 3b 58 fe 7f 3f
       0.009486687 0.999955 0.0071140616 0.9999747
0003b0 a8 cf ae 3b 11 ff 7f 3f 13 17 83 3b 7a ff 7f 3f
       0.005334813 0.99998575 0.0040005534 0.999992
0003c0 92 9b 44 3b b5 ff 7f 3f 60 6f 13 3b d6 ff 7f 3f
       0.0029999954 0.9999955 0.0022496805 0.9999975
0003d0 17 1f dd 3a e8 ff 7f 3f 56 d1 a5 3a f3 ff 7f 3f
       0.0016870227 0.99999857 0.0012650888 0.9999992
0003e0 10 b1 78 3a f9 ff 7f 3f 09 7e 3a 3a fc ff 7f 3f
       0.00094868336 0.9999996 0.00071141176 0.99999976
0003f0 7e d9 0b 3a fe ff 7f 3f a4 be d1 39 ff ff 7f 3f
       0.0005334838 0.9999999 0.00040005625 0.99999994

transformer.layers.0.self_attn.in_proj_weight f4 [192, 64]
000000 37 ab 0e bc dc 1e a5 bd 10 fe 25 be 7f fb 72 bd
       -0.008707813 -0.080625266 -0.16210198 -0.059321877
000010 25 19 cb 3d 2e d7 81 bc 2d 4e b2 3d fd 58 bb bd
       0.09916905 -0.015849676 0.08706317 -0.091478325
000020 2f 46 87 bd 08 cd 82 3d 86 50 99 bd 1a 3d 67 bd
       -0.06605183 0.06386763 -0.07486062 -0.056454755
000030 75 1f b7 bd 25 c7 25 bd 08 81 a8 bd f2 ad eb bc
       -0.08941547 -0.040473122 -0.08227736 -0.028769467
000040 85 22 08 3e 7c 02 0f 3e ba d2 36 bd f0 f4 2c 3c
       0.13294418 0.13965791 -0.04463456 0.0105564445
000050 03 06 a4 3d 1a 35 e3 bc 83 d4 e0 3d ec 85 f3 3b
       0.08008959 -0.027735282 0.109780334 0.007431736
000060 79 2c 36 bd 6f 5d be bd a2 c5 21 3e b4 8e 3a bc
       -0.044476006 -0.09295165 0.15798047 -0.011386562
000070 b3 43 de bd f4 22 a0 bd 47 d4 15 bd d5 50 e2 3d
       -0.10852756 -0.07819167 -0.036579397 0.11050574
000080 02 3f e0 3d 4f 70 e5 bb a3 4c 9b bd fd f9 bd bd
       0.10949518 -0.0070019136 -0.07582977 -0.09276197
000090 ba c7 9d 3d 5e 52 1f bc 3f 43 f1 bc 6e 92 af bb
       0.077041104 -0.009724228 -0.02945101 -0.005358032
0000a0 ad cf 9d 3d 8a 05 91 bd 15 fc 0e 3e c0 f9 19 bd
       0.07705627 -0.070811346 0.13963349 -0.037591696
0000b0 e7 b5 c6 3d 3e 8b d2 3b 1e eb ce 3d 6c 9a 6d 3d
       0.09702664 0.0064252904 0.10103439 0.058008596
0000c0 fd 00 d7 3d 94 cc 19 3e ff c8 16 3d 7d 3e 42 bc
       0.104982354 0.15019447 0.03681278 -0.011855719
0000d0 33 11 64 3c 51 5e b0 bc 4c bc 7a bd d0 07 8c bd
       0.013920116 -0.021529349 -0.06121473 -0.068374276
0000e0 10 fc 20 3d b1 d2 30 3c e0 55 aa 3d 24 fe 18 3e
       0.039302886 0.01079242 0.083171606 0.14940697
0000f0 04 7e fd 3d d8 06 d8 3d ad be d9 3d 41 be 04 3e
       0.12377551 0.1054818 0.10632072 0.12963201
000100 4d 0b 72 3d da e1 8a bd 81 b0 ea 3d 90 3c 14 bc
       0.05909281 -0.06781359 0.11459447 -0.009047642
000110 35 56 a4 3d 85 07 d7 3c 44 06 43 bc 86 e5 00 be
       0.08024255 0.026248703 -0.011903349 -0.12587556
000120 9a 0e f0 3d 2d 97 91 3d 6f 1d 08 be 02 10 7d bb
       0.11721535 0.071089126 -0.13292478 -0.0038614278
000130 39 ff 5c 3c 3c 1d e6 bd f0 77 4b 3c 83 f1 30 be
       0.013488584 -0.11236045 0.012418732 -0.1727963
000140 b0 f9 75 bd 36 8e 80 3d 01 90 83 bd a3 e0 df bc
       -0.060052574 0.062771246 -0.06423951 -0.027328795
000150 0b 02 0c bd eb 51 4c bc c3 58 96 3d 05 3b e7 3d
       -0.034181636 -0.012470703 0.07341149 0.11290554
000160 14 b7 96 3c 3c ef d8 bc 58 1a 18 3e 36 e8 ac bc
       0.018397845 -0.026481263 0.148538 -0.02110682
000170 95 f1 48 bd 1c 2c be 3b 86 05 3c bd c3 c6 c7 3d
       -0.049058516 0.005803598 -0.045903705 0.09754708
000180 c6 d6 61 3c 87 f9 79 bd 95 7a a8 bd 02 87 2d 3e
       0.013784116 -0.061028983 -0.08226506 0.16946033
000190 92 82 ca 3d 9b 18 16 3e be d8 4a bc 1a e6 5a 3d
       0.098881856 0.14657824 -0.012380777 0.0534421
0001a0 4f 6c d5 3d 80 01 26 bd 1e 8f 02 3e 84 1d ac 3d
       0.10421049 -0.040528774 0.12749907 0.08404067
0001b0 d7 6b 32 bd 63 ec af bc ad 28 3e 3c 1b 29 b5 3d
       -0.043559875 -0.021475023 0.011606378 0.08845731
0001c0 d2 ba a9 3b fb 96 e2 3d 79 48 e8 bd 47 e5 0d 3e
       0.0051797414 0.110639535 -0.11341948 0.13856994
0001d0 f1 d9 91 3c 57 ca 83 3d 17 c2 42 3a b0 5b ab 3d
       0.017804118 0.06435078 0.00074294343 0.083670974
0001e0 ea b9 82 3d 05 c5 e2 3d df 02 6d bd 9f 6a 6a 3d
       0.063831165 0.11072735 -0.057864066 0.057230588
0001f0 5c c4 d2 3d 93 ec f8 3d d0 7c db bd 72 7f 45 3e
       0.10291359 0.12154498 -0.107171655 0.19286898
000200 58 10 f0 3b 51 ff 93 3d 6d c0 37 ba ec 87 bd bd
       0.007326167 0.07226432 -0.00070095697 -0.09254441
000210 b6 cf 9b bc 77 1c 9a bd 02 36 a2 3d 8c 8b fa bd
       -0.019019943 -0.075249605 0.079204574 -0.12233648
000220 90 19 cc bc d5 7d 96 3c 81 02 22 3e c7 13 77 3d
       -0.024914533 0.018370548 0.15821268 0.060321596
000230 37 3b 51 3d 71 60 f9 3d 34 72 ee 3d b2 06 f2 bd
       0.051081862 0.12176598 0.11642876 -0.11817683
000240 82 3e 98 3d 92 dd cb bd 27 c5 e5 3d e0 b9 b7 ba
       0.074337974 -0.099543706 0.112192445 -0.0014017187
000250 89 c9 82 3d 82 bf 71 3d 5b 93 08 bd a7 8a fd 3b
       0.06386096 0.059020527 -0.033343654 0.007737476
000260 e1 f4 44 bb 0d 0e 64 3c d9 e0 be bd c8 20 f5 bd
       -0.0030053186 0.013919366 -0.0932023 -0.11969143
000270 00 22 a4 3d 8e d9 72 3d 68 39 3e 3d 28 d1 d7 bd
       0.080142975 0.059289508 0.046441466 -0.1053794
000280 8d 88 d9 3c d5 e3 87 3d 8f f4 0e bd bc b3 d3 3d
       0.02655437 0.066352524 -0.034901198 0.10337016
000290 d7 19 a3 3d 7a c7 03 3e 5e c5 f2 bd ca 24 a1 3d
       0.07963913 0.12869063 -0.11854051 0.07868345
0002a0 ec 72 99 3d 22 a2 18 be 8e 8f db 3d 89 ae 34 bd
       0.07492623 -0.14905599 0.1072074 -0.044111762
0002b0 bb 70 47 bd 26 5d a5 bd 96 af 33 bd 84 6c 9c bc
       -0.048691493 -0.08074407 -0.043868624 -0.019094713
0002c0 79 d9 8b bd 87 0c 19 be ab c0 c7 3d 2b 9a b0 3d
       -0.06828589 -0.14946185 0.097535454 0.08623155
0002d0 1e c0 3e 3d fa 93 d5 bd 71 26 e4 bd 01 10 42 bd
       0.046569936 -0.10428615 -0.111401446 -0.047378544
0002e0 4a 70 de bc 17 4a 42 3d 8a 94 14 3d 1e 2b b9 bd
       -0.027153153 0.04743394 0.03627447 -0.09041427
0002f0 e4 07 4c 3c 6d 56 f5 3d 38 79 3e 3d b2 0f 11 be
       0.012453053 0.11979375 0.046502322 -0.14166144
000300 d2 92 60 3d 96 d4 89 3c ec 4e f9 3d 83 1d a1 bd
       0.05482752 0.016825002 0.12173256 -0.07866957
000310 bc b5 e3 3d f1 e9 a5 bd 82 1f ad bd 7b 3d 14 bd
       0.111186475 -0.081012614 -0.08453275 -0.036191445
000320 6f 42 7d 3d db b4 0f bc 95 7f 95 bd 4f 1b a4 bd
       0.061830934 -0.008771147 -0.07299725 -0.08013021
000330 dd d7 cd 3b a0 bf 90 bc a3 b9 49 3b cc c2 9a bc
       0.0062818364 -0.017669499 0.0030780814 -0.018891715
000340 53 5b d0 bc 4a 42 22 bc e1 19 c7 3c d8 a6 c0 bd
       -0.025434172 -0.0099035 0.024304332 -0.09406823
000350 8f fe 76 bd 78 d0 cb 3d 25 de 2c 3e d9 fd 65 3d
       -0.06030136 0.09951872 0.16881616 0.05615029
000360 cf e3 40 bd f1 73 97 bc e1 dc 56 bc d5 41 75 bd
       -0.047092255 -0.018487902 -0.013114185 -0.059877235
000370 c3 1d 80 3a d1 fd 15 bd bb 4e 18 3e 56 81 7d 3d
       0.0009774495 -0.03661901 0.14873783 0.061890922
000380 f7 02 56 3d de 6b ad 3d b1 b8 09 3d 41 9a 75 bd
       0.05224892 0.0846784 0.0336234 -0.05996156
000390 d3 12 72 3d 25 6e 2d 3e b8 77 a5 bd e9 41 1d 3e
       0.059099983 0.16936548 -0.08079475 0.15357174
0003a0 e8 05 76 bc bd 4e ac bd e4 fa cb bd de 43 25 3e
       -0.015016057 -0.08413456 -0.09959963 0.1613917
0003b0 cd 20 ac bb c0 67 3e 3e 29 98 b8 3c 08 a2 16 3e
       -0.0052529336 0.18594265 0.022533493 0.14710248
0003c0 4d 35 0c bd 69 7e 9a bd 3b 76 a5 3d b1 1d 78 3c
       -0.03423052 -0.07543642 0.08079191 0.015143798
0003d0 66 55 a5 3d f6 c8 35 3e 21 d8 0f be b5 b3 93 bd
       0.08072929 0.17752442 -0.1404729 -0.07212011
0003e0 f3 03 1c 3e f8 31 76 3d 50 6d 88 3c 48 f0 6b bd
       0.15235882 0.060106248 0.016653687 -0.057602197
0003f0 05 4f 39 3d ad 02 2e bd f4 20 aa 3d f4 80 4d bd
       0.045241375 -0.04248302 0.083070666 -0.050171807

transformer.layers.0.self_attn.in_proj_bias f4 [192]
000000 cd c2 c0 3c 0a 74 37 3d 2e 76 00 bc 45 22 43 3d
       0.023530388 0.044788398 -0.007840676 0.047640104
000010 20 47 b4 3c 93 46 d2 bc 32 63 5b bd 65 42 c8 3c
       0.022006571 -0.025668418 -0.053561397 0.024445722
000020 db 1d c2 bd 98 44 14 3e d5 a6 1f 3d dd a9 fd 3c
       -0.09478351 0.14479291 0.038977463 0.030964786
000030 85 86 08 bd 14 be 00 3d fb 47 ab bc c1 c6 26 3c
       -0.033331413 0.031431273 -0.020908346 0.010179223
000040 74 b6 4b 3c 97 8f c1 bc 43 fe 09 3d 39 e7 f2 3c
       0.012433637 -0.02362804 0.03368975 0.029651271
000050 83 7d 5b bc ad cf 40 3d 83 ef 99 bc 67 53 86 3d
       -0.013396624 0.047073055 -0.018790966 0.065588765
000060 73 6d 93 3d 0b a0 7a 3c 95 28 d7 bc f5 7d 61 bb
       0.0719861 0.015296946 -0.026264468 -0.0034407352
000070 24 81 14 3d ff 3f bf 3c 2c b7 05 bd 74 64 9b bc
       0.03625597 0.023345945 -0.03264539 -0.018968798
000080 fa 8d 11 bc 44 8f 9e 3a 7f 10 8b bb e6 a7 94 3b
       -0.0088839475 0.001209714 -0.00424391 0.0045366166
000090 62 de 90 bc f1 a4 4f 3c f5 58 ad bc 67 72 c0 bb
       -0.017684165 0.012673602 -0.021160582 -0.005873013
0000a0 39 1e 3c bc 35 2a 8b 3c 32 e5 3a 3c b7 4c ee ba
       -0.011481815 0.0169879 0.0114071835 -0.0018180822
0000b0 9e b9 1e bb 4a a2 0e 3b ae b4 19 bc 40 bf 2f bc
       -0.0024219523 0.0021764212 -0.009381456 -0.01072675
0000c0 24 d4 16 37 1d 44 61 3c 4b ac 04 3d d0 62 05 3d
       8.99009e-06 0.01374915 0.032390874 0.032564938
0000d0 c7 69 74 3c c3 96 02 bd 2a 97 d6 39 2e c4 2e bc
       0.014917797 -0.03188206 0.00040929887 -0.01066689
0000e0 89 6d 20 3b 65 8b 53 bb ab 74 f7 bc 5f 0e 73 3c
       0.002447935 -0.003227913 -0.030206999 0.014834969
0000f0 ee 90 55 bb 73 2b cb ba ab 72 15 bb 91 a4 01 3a
       -0.0032587606 -0.001550062 -0.0022803943 0.0004945482
000100 4b d7 b1 b8 c3 8c 85 b9 90 46 c3 37 78 d7 d6 b9
       -8.480119e-05 -0.00025472612 2.327867e-05 -0.00040977797
000110 9e 4b 11 ba 7a 57 89 39 3b d3 79 3a 02 26 fb b9
       -0.0005542579 0.0002619585 0.0009530072 -0.0004790277
000120 4f 76 6f 3a ff af da b9 b3 ee af 39 dd 4f e8 b9
       0.0009134756 -0.00041711328 0.00033556446 -0.0004430999
000130 6f 0d 4d 39 75 d3 a3 b9 66 f4 25 39 1e 57 29 b9
       0.00019555328 -0.0003124733 0.00015826672 -0.0001614955
000140 46 de 35 39 3d c1 98 b7 0a 62 b8 38 f3 ab 87 b8
       0.00017344308 -1.8209796e-05 8.792065e-05 -6.46933e-05
000150 98 de c2 b7 7a 74 06 b9 6a 4d eb 35 3c c8 b0 b8
       -2.3230255e-05 -0.00012822627 1.7531395e-06 -8.4296305e-05
000160 98 f2 43 3a 66 88 d7 38 cd 3a 3d b9 2f 99 e2 34
       0.0007474809 0.00010277405 -0.0001804635 4.2207236e-07
000170 7c f3 26 39 b5 20 02 b8 03 79 b6 38 17 e6 12 b8
       0.00015921699 -3.1024876e-05 8.7009765e-05 -3.50234e-05
000180 17 88 b2 37 e4 8f 89 b7 0b f2 c0 38 82 58 36 38
       2.1282625e-05 -1.6398677e-05 9.2003575e-05 4.347461e-05
000190 b9 09 38 b8 0f e2 e4 38 20 37 72 b8 97 b2 bc b6
       -4.3878073e-05 0.00010913994 -5.7748635e-05 -5.623627e-06
0001a0 7a f7 78 37 4e fe 73 38 1e c1 e6 36 cb d8 b4 37
       1.4839572e-05 5.8172554e-05 6.877016e-06 2.1558624e-05
0001b0 98 c1 ab b8 9f 7b 51 38 07 9d 84 37 89 6a 36 39
       -8.189975e-05 4.9944614e-05 1.5808748e-05 0.0001739656
0001c0 1d 4d c4 b7 e2 25 ef 36 a0 b7 72 b5 ec 2a a0 38
       -2.340093e-05 7.127165e-06 -9.0419235e-07 7.637389e-05
0001d0 45 a2 64 38 85 bd bd b8 ea 89 ac b7 fe 5b b9 b8
       5.451056e-05 -9.047523e-05 -2.0568219e-05 -8.838622e-05
0001e0 2b 68 c9 b7 27 c2 0f b7 e4 18 8e b7 9a c9 91 b8
       -2.4009574e-05 -8.568669e-06 -1.693931e-05 -6.95169e-05
0001f0 c4 f5 e9 b8 cd 4a e9 b6 e3 24 0f 38 53 c1 d7 b5
       -0.00011156083 -6.952649e-06 3.412821e-05 -1.6075013e-06
000200 e9 52 14 3b 0b 50 5e 3b 9c b3 28 3c fb ed 18 3b
       0.0022632426 0.003392222 0.010296728 0.0023335207
000210 38 b6 34 bc a7 2d cf bb ad 68 89 bb 7f 3d 30 bb
       -0.011029772 -0.006322581 -0.0041933865 -0.0026892123
000220 8c 0d 3e 3b 09 d5 09 3c f2 0f b5 3b 1b 8b 38 3b
       0.0028999774 0.008412608 0.0055255825 0.0028159085
000230 92 f0 f6 3b 8a d5 ce 3b c2 d2 c8 bb 6c 99 ad bb
       0.0075360024 0.006312077 -0.00612864 -0.0052978303
000240 bb e4 99 39 61 e8 2d 3c 9e 09 09 bc 03 be d2 bb
       0.00029352852 0.0106144855 -0.008364109 -0.0064313426
000250 90 ff 01 ba 1c be eb 3a 96 a3 46 bc 22 86 e2 bb
       -0.0004959041 0.0017985734 -0.012123963 -0.0069129625
000260 46 01 96 bb 7a 38 e3 bb 43 3a 74 bc eb 10 e0 3a
       -0.0045777885 -0.0069342228 -0.014906469 0.0017094886
000270 b3 3a c5 bb e4 69 03 3c c9 72 eb 3b b7 e9 45 3b
       -0.0060189604 0.008020852 0.0071853143 0.003019912
000280 58 87 7e 3b 1f e8 fe bb c4 40 3a bb b7 5b 19 3b
       0.0038837995 -0.007779136 -0.002841995 0.0023400614
000290 e7 47 ed 3b ab 99 94 3b 58 be d3 bb f6 8b 6a 3b
       0.0072412374 0.00453492 -0.0064618997 0.003578899
0002a0 1b 7c 1f 3b 64 85 89 bb 5e 1a ff 3b 6a b2 6d 3b
       0.0024335447 -0.0041968096 0.0077851256 0.0036269673
0002b0 ec 76 50 3c 97 fc 3a ba f9 8e 07 bc 69 1c da 3b
       0.012723666 -0.0007132976 -0.008273833 0.006656219
0002c0 48 69 e5 bb f8 2f 2b bc 52 0e 0c bc 9f f8 92 bb
       -0.007001076 -0.010448448 -0.008548336 -0.0044852044
0002d0 51 82 fa bb d8 24 f1 bb 4e 24 c9 3b 31 04 20 bc
       -0.0076449295 -0.0073591284 0.006138361 -0.009766624
0002e0 35 a7 df 3a 72 d2 fe 3b 78 4d c8 39 7f f8 7d 3b
       0.0017063381 0.007776552 0.0003820469 0.0038752852
0002f0 a3 a4 49 bb 25 9d 5d 3b 20 b6 d6 3b 38 52 1d bb
       -0.0030768297 0.003381559 0.0065524727 -0.0024005305

transformer.layers.0.self_attn.out_proj.weight f4 [64, 64]
000000 30 5f 20 be 25 36 33 bc 98 bc 20 3e 13 5d 03 3d
       -0.15661311 -0.010938202 0.15696943 0.032071184
000010 68 88 a7 3d 8b 76 25 bc d6 2b 2d 3e d2 f9 32 3d
       0.08180314 -0.010099064 0.16911253 0.04369528
000020 9b aa 4f 3d 60 43 35 be 8d 6a e4 3c 3d b1 16 3e
       0.05069981 -0.17701483 0.027882839 0.14716049
000030 44 fd d0 bd 54 71 8d 3d f0 b6 b8 ba 83 52 dc 3d
       -0.102045566 0.06906381 -0.0014092606 0.10757925
000040 08 ad b0 3d ad 47 22 be cf 0d 46 3e a9 d1 39 3e
       0.08626753 -0.15847655 0.19341205 0.18146385
000050 84 17 1d be 0c 3c 05 be 72 ea da 3d 07 fd 25 be
       -0.15341002 -0.13011187 0.10689248 -0.16209804
000060 1b e2 1f 3e 6e 89 00 3e e9 8d 7c 3d e2 be 8c bc
       0.15613596 0.12552425 0.061658774 -0.017180864
000070 5e 83 1d be d6 a8 15 bd 17 dd fa 3d 8a bc bf 3d
       -0.15382144 -0.036537968 0.12249201 0.09362133
000080 f0 da 99 3d e1 73 5b be 13 d7 02 3e 0e 8c 95 bd
       0.07512462 -0.21430923 0.12777357 -0.07302104
000090 21 01 65 be be 4c 9a bc 05 d9 81 bd c0 7a 4b be
       -0.22363712 -0.018835422 -0.06340221 -0.19871044
0000a0 ba 48 51 bd cf 0e 56 3d 5d 68 30 be bb c4 40 bc
       -0.051094748 0.052260216 -0.17227311 -0.011765654
0000b0 18 a9 1b 3e 2a 1f e5 3d 85 29 ba 3c bf 2c 17 3e
       0.15201223 0.11187585 0.022724876 0.14763163
0000c0 29 e5 41 3e ff be 1e 3d 7b 6c 72 3d e2 73 8c bc
       0.18935074 0.038756367 0.059185486 -0.017145101
0000d0 6c 26 2b be eb 60 38 be f0 b6 97 3d bc 6c 2b be
       -0.16713876 -0.18005721 0.074079394 -0.16740698
0000e0 62 64 91 bd cf a3 4b be 70 2e 10 be 66 c9 b0 3c
       -0.070992246 -0.19886707 -0.14080215 0.02158041
0000f0 c1 e5 6b 3c af 71 3e be 63 4e 97 3d 44 9c 26 be
       0.014398039 -0.18598054 0.07387998 -0.16270548
000100 84 c5 12 3c c8 f9 e7 3c 99 55 6a bd 7f 56 fe bc
       0.008958224 0.028317347 -0.05721054 -0.031047104
000110 52 cf ff bd 64 8e 4b be 86 13 af 3d 02 c0 e1 bd
       -0.12490715 -0.19878536 0.08548646 -0.11022951
000120 57 fa 3b 3e 6c b8 61 bd 93 e6 51 3e fa bc 90 3d
       0.18357216 -0.05510752 0.20498113 0.070672944
000130 a7 c8 0d 3e 4b d3 a9 b9 d6 9a 10 be 53 84 f7 bd
       0.13846074 -0.00032391617 -0.14121565 -0.12085786
000140 26 91 a8 bd 68 fa 0b be 3f a3 29 3d 6a 22 39 3e
       -0.0823081 -0.13669741 0.04141545 0.18079534
000150 70 20 30 be 5d 64 22 3e 25 45 12 bc 04 b5 b1 3b
       -0.17199874 0.15858598 -0.008927618 0.00542319
000160 3a e9 3a 3d 76 c5 24 3d 47 6a 65 bd 4e 64 e4 bb
       0.04563258 0.040227376 -0.056009557 -0.006969965
000170 4c 8d 8b bd 7e 0d 20 3e f0 1f 19 3e b6 45 ce bd
       -0.068140596 0.15630147 0.1495359 -0.1007189
000180 10 1d d9 bd 4e 91 5b bd 1e fa 2d 3d 9f 0f 1b 3e
       -0.10601246 -0.05360537 0.04247486 0.15142678
000190 77 70 2d 3e 50 e9 33 3e d7 4a 38 be e0 be b6 bb
       0.16937433 0.1756947 -0.17997299 -0.0055769533
0001a0 16 cf f0 bc d6 a5 55 3e 88 7f 2b 3e d6 79 53 be
       -0.029395621 0.20864043 0.16747868 -0.20651945
0001b0 3c 61 7b bd 31 28 08 3e d7 14 80 bc 4e 64 df bd
       -0.061372027 0.13296582 -0.015634937 -0.109078035
0001c0 43 73 c2 bd 51 7b 58 3d 0b 8d 2d 3d 8f ae 55 3d
       -0.09494641 0.05285198 0.042370837 0.052168425
0001d0 e6 17 47 bc 6c 71 99 bd b1 a0 4a be fe 63 57 3e
       -0.012151694 -0.07492337 -0.19787861 0.21034238
0001e0 0f 08 51 3d b0 b8 31 bd 18 5b e2 bd fb 7b 2d be
       0.051033076 -0.043389022 -0.11052531 -0.16941826
0001f0 ae 4a 0e be 61 c2 62 bd 65 9c eb 3c 20 7c 41 be
       -0.13895676 -0.055361155 0.028761098 -0.18895006
000200 0a e7 4e 3e be f9 30 3d ee 40 fb bd c2 42 40 bc
       0.20205322 0.043206923 -0.12268244 -0.011734666
000210 14 40 54 be 85 f6 2e be 7c 82 ea 3d 7c e0 4f bd
       -0.20727569 -0.17086227 0.11450669 -0.050751194
000220 6d c8 5b bc 30 3b d6 3d 4d d3 35 be 8a b3 54 be
       -0.013414484 0.10460508 -0.17756386 -0.20771614
000230 1c f4 03 be 56 68 16 3d 49 35 62 3e c3 48 11 bd
       -0.12886089 0.036720596 0.22090639 -0.03546978
000240 a6 1b 05 ba 95 a2 08 bc 06 8d 03 be 33 e0 5b 3e
       -0.00050776673 -0.008339544 -0.12846765 0.21472244
000250 c6 9b 30 3d 8f 75 57 3e 62 73 21 be c4 f8 91 bd
       0.043117307 0.21040939 -0.15766671 -0.071275264
000260 7f 2e d2 3d 73 f5 11 3e c6 cc 26 3e d0 96 c5 bd
       0.10262775 0.14253788 0.16289052 -0.09647906
000270 b3 02 45 3d eb 10 bd bb 04 2b 2e be 96 ad b2 bd
       0.048098277 -0.005769839 -0.17008597 -0.08724515
000280 0c fe ba 3d 3e 31 50 3e 0d bd a0 3d 69 8e 3c 3e
       0.09130487 0.20331284 0.078485586 0.184137
000290 2d 41 a1 bd 89 fe 67 3e 06 71 30 3e c7 06 44 bd
       -0.078737594 0.22655691 0.17230615 -0.047858026
0002a0 78 2c f4 3c a3 ba c9 bd 3c cb 15 bd ba 9b 0b be
       0.02980636 -0.09850051 -0.036570773 -0.13633624
0002b0 68 a3 ea bd e6 0e 4f 3e 8d e5 4f be 4f 6c a5 bd
       -0.114569485 0.20220527 -0.2030241 -0.08077299
0002c0 6f 88 cd ba 89 6a fa bd 44 49 7d bd 33 d4 6f bd
       -0.0015680919 -0.12227351 -0.06183745 -0.05855198
0002d0 b6 2f 96 3d 14 1a 18 3d 65 05 26 be 79 3e 08 3e
       0.07333319 0.037134245 -0.16212995 0.13305081
0002e0 59 b7 6e bd bc cd 7b 3b c7 ef da bb d2 22 9f bd
       -0.058280323 0.0038422188 -0.0066814157 -0.07770313
0002f0 64 fb 8d 3d b7 43 15 be e4 e6 84 bd 3e 78 43 3e
       0.069327146 -0.14576612 -0.064893514 0.19088838
000300 99 6b 55 3e ee 6c 80 bc 6e 2b 61 3e 46 32 55 3e
       0.20841826 -0.015676942 0.21989223 0.20819959
000310 1e 69 2f be 4a a1 27 3d 04 75 7f bd 41 7a 73 bc
       -0.17129943 0.0409253 -0.062367454 -0.014860691
000320 00 b0 55 be aa 34 df bd b1 ad 1f be ce 8a cc 3d
       -0.2086792 -0.10898717 -0.15593602 0.099874124
000330 7e 45 ab 3d 03 af cc 3a 56 37 ce 3d 2f c3 a5 3d
       0.08362864 0.0015616122 0.10069148 0.08093869
000340 f0 dc 2b be c9 23 9f bc 43 20 14 be 95 7a ef bd
       -0.167835 -0.019426243 -0.14465432 -0.116933025
000350 49 86 22 3c ce 34 e2 bd 90 b5 cc bd 28 91 16 be
       0.009919711 -0.11045228 -0.09995568 -0.1470381
000360 dc 4a aa bd da 46 db bd c8 78 04 be 47 7a 45 bd
       -0.083150595 -0.10706873 -0.129367 -0.048212316
000370 cb 58 d0 bd 5b 46 81 3d 36 24 bd 3d 98 d5 3f be
       -0.10173186 0.06312247 0.09235422 -0.18733823
000380 bb ed ee bd 61 ce 06 3e af f2 8a bd d2 47 08 be
       -0.11666437 0.13164665 -0.067845695 -0.13308647
000390 11 1f 15 bd 4c 5e 26 be c9 06 4c be df 1c 49 be
       -0.03640658 -0.16246909 -0.19924463 -0.1963992
0003a0 30 57 5a 3e 73 e4 21 be 3a f4 24 be bc d4 0e 3e
       0.21322322 -0.15809803 -0.1610879 0.13948339
0003b0 03 62 3c be 86 43 71 bd 5a 60 4d be e4 5f bf bd
       -0.18396764 -0.058902286 -0.20056286 -0.093444616
0003c0 e3 2f 23 be af 1e 40 bc ef 74 e3 39 b7 d3 35 3e
       -0.15936236 -0.011726066 0.00043383936 0.17756544
0003d0 7d a2 f6 3d f6 d9 b4 bd dc 9b fb 3c 35 56 54 3e
       0.12042711 -0.08830635 0.030713968 0.2073601
0003e0 9f e8 8f 3d c5 b5 41 3e ef be b6 bc 4c d5 db 3d
       0.07026791 0.18916996 -0.022307841 0.107340425
0003f0 b6 ad 2e 3e 09 c2 ff 3d 9c c7 57 3d ab 00 e0 3d
       0.17058453 0.12488181 0.052680597 0.109376274

transformer.layers.0.self_attn.out_proj.bias f4 [64]
000000 a4 9b 1d bc ba 37 5c 3b cf 5f c5 bb f6 b8 e3 b9
       -0.009619627 0.0033602552 -0.006023384 -0.0004343462
000010 b8 24 7f bb ea 67 75 3b 22 1f f3 3a 0e fd 88 bb
       -0.0038931798 0.003744597 0.0018548707 -0.004180557
000020 12 3e dc ba a8 a5 97 38 92 49 41 bc 3b 37 d2 3b
       -0.0016803166 7.231097e-05 -0.011797326 0.0064152754
000030 e6 d2 a1 3b 7a 9a 64 3a 34 41 32 3b d3 81 32 3c
       0.004938471 0.00087205286 0.0027199509 0.01089521
000040 b9 06 c3 3a 51 a5 8c bb aa 79 87 bb 39 56 07 bc
       0.0014879323 -0.004292168 -0.0041343765 -0.008260303
000050 4d 58 b9 bb 33 b0 d3 39 7c 53 37 3c 69 4c 16 3b
       -0.005656278 0.00040376335 0.011189338 0.0022933728
000060 75 c5 00 3b 58 aa ba bb c6 5e 31 3b 8b ed 79 3b
       0.0019648944 -0.005696576 0.0027064546 0.0038135971
000070 b5 fe 6d bc 98 79 a4 3a bd 2e 79 bb 5c 00 f7 ba
       -0.014526059 0.0012548445 -0.0038022243 -0.0018844712
000080 53 03 ed ba 07 31 1c bc 1c 72 33 bb 77 3a 33 3c
       -0.0018082656 -0.009533173 -0.0027381247 0.010939232
000090 48 cf 00 bc 59 d2 5d 3c cb 33 b9 ba 44 b9 88 bc
       -0.00786192 0.01353892 -0.0014129815 -0.016689904
0000a0 30 b5 26 bc c7 d8 90 3b cf 8d 30 3b 0d 05 45 3c
       -0.010175034 0.004420373 0.0026939993 0.01202513
0000b0 13 d1 35 3b 98 d4 b3 ba 93 aa b8 3c de 31 1e bb
       0.0027743026 -0.0013719974 0.022542274 -0.002413861
0000c0 58 5e 28 bc a2 7e e8 b8 58 53 d8 bb bc d2 24 3b
       -0.0102764 -0.00011086209 -0.006601732 0.0025150022
0000d0 42 25 58 b9 64 e5 ef bb 38 39 b9 b8 54 a0 42 3c
       -0.00020613245 -0.0073210467 -8.832145e-05 0.0118790455
0000e0 02 06 9c 3b 91 c1 43 bb c5 08 27 bb 19 68 27 3a
       0.0047614584 -0.0029870013 -0.0025487405 0.0006386056
0000f0 e8 fb d8 3b 6f b9 95 3b ed 28 96 bc 78 3c 2b 3b
       0.0066218264 0.0045692245 -0.018330062 0.0026128571

transformer.layers.0.linear1.weight f4 [256, 64]
000000 34 e2 a9 3d d2 89 e3 3d 36 0e 27 bd 59 7e c3 bd
       0.08295098 0.111102715 -0.040785037 -0.09545583
000010 f7 61 bd 3d 00 2a 25 3b 90 92 ed 3c 4a e5 be bd
       0.09247201 0.0025202036 0.02900055 -0.09321077
000020 3a b9 d4 bd 11 3e af 3d 86 83 93 bd 7d ba a6 bd
       -0.10386892 0.0855676 -0.072028205 -0.081410386
000030 51 a3 0e 3c 9b 7a 98 bb 54 22 1d 3d 3c e4 88 3a
       0.00870593 -0.0046532876 0.038362816 0.0010443996
000040 fd 70 ac bc d8 13 ec 3d 48 d9 c9 bc fe 0b 64 bb
       -0.02104997 0.115272224 -0.02463974 -0.0034797187
000050 64 a7 e8 bd 01 6c e5 bd 3d 83 00 be 45 15 e8 3b
       -0.11360052 -0.11202241 -0.12550063 0.0070826137
000060 b6 17 92 bc d2 12 fc bd f9 b0 e1 3c d8 92 26 bd
       -0.017833572 -0.12308277 0.027550207 -0.040667385
000070 54 ef c2 3d 09 d2 f8 3d 44 b7 8d bd 6b 5d 26 be
       0.095183045 0.12149436 -0.06919721 -0.16246574
000080 1a c9 9e bc 38 25 18 bd 61 30 55 3a 58 97 bc 3d
       -0.019383002 -0.03714487 0.0008132514 0.09208554
000090 88 75 7d bd 53 f9 c9 bd 27 78 69 bd 57 5f ca 3d
       -0.061879665 -0.09862008 -0.05699935 0.09881466
0000a0 76 70 b9 bc 06 05 da bd f6 0c 12 3d 49 98 97 3d
       -0.022636633 -0.106454894 0.03565689 0.07402093
0000b0 28 79 13 3e 32 5d 92 bd 5d 58 04 3e bf 75 13 bd
       0.14401686 -0.07146682 0.12924333 -0.036000963
0000c0 75 17 bf bd 14 40 5f 3c 34 9d 95 3c 31 1b 10 3d
       -0.09330646 0.013626117 0.018263437 0.03518218
0000d0 6a 1d bc 3d 77 d5 0e bd fe 62 a7 bc e0 09 d9 bc
       0.09185298 -0.034871545 -0.020432945 -0.026493967
0000e0 5a 39 d1 3d 7d 1d 56 3d e5 80 15 bc 1b 8e c9 bd
       0.10216017 0.052274216 -0.009124969 -0.098415576
0000f0 65 9e 0c bd 3f 4a e7 3c 5e 9c 82 bd 27 a1 6f 3c
       -0.034330744 0.028233645 -0.06377481 0.014625824
000100 70 c4 63 bd 0b 88 b1 3d 85 88 d6 3d 5a 8a 06 be
       -0.05560726 0.08668526 0.10475258 -0.13138714
000110 38 b2 8d bd bc 60 c2 bc 6e c6 9d 3d 68 27 ea bd
       -0.06918758 -0.023727767 0.07703863 -0.114332974
000120 dc 12 fe 3d 64 83 4b 3d 1c db 85 3c 3e e1 4c bd
       0.12405941 0.04968585 0.016339831 -0.050019495
000130 b2 95 85 3c 72 67 94 3c da 42 8a 3d 68 ce 03 be
       0.016306732 0.018115733 0.06751032 -0.12871706
000140 c6 7c cb 3d 1c fe 04 3e 3c e3 2d 3b 92 49 a0 3c
       0.09935908 0.1298756 0.0026533147 0.019566331
000150 d4 58 ef bc e5 cf 93 bd ac ef 0b be 6f ef bc bd
       -0.029217161 -0.07217387 -0.13665646 -0.09225356
000160 37 c7 d8 bd 0a 63 47 3d 0c 3d 7f bc ce 2f 87 bd
       -0.10584872 0.048678435 -0.01557852 -0.06600915
000170 0c 7f bc 3d 6d 0d 88 3d 45 5d 97 bd d0 ca b1 bd
       0.0920392 0.06643186 -0.073908366 -0.086812615
000180 80 4b 4f 3d 5d c3 85 3d 01 1f 11 bd 1c 9a 70 3d
       0.05060911 0.06531403 -0.03542996 0.05874072
000190 d1 2a 45 3d c3 67 de bd e1 81 e7 3d 13 34 bd 3c
       0.048136536 -0.10859635 0.11304069 0.02309612
0001a0 e2 4e 42 bd bd cd fb 3c 68 c0 78 bd 3e 8a fa bd
       -0.04743851 0.030737752 -0.060730368 -0.12233399
0001b0 df d6 3a 3c 56 61 68 bd 3a b9 ef 3d 10 eb 4b 3d
       0.011403768 -0.05673345 0.11705251 0.04978472
0001c0 7f 1b 14 bd 8e 41 cd bd ef cd 02 be 27 b4 76 3d
       -0.036159035 -0.10022269 -0.1277387 0.0602304
0001d0 d2 97 dd 3d 9e 5a 00 be 4f 34 f5 bd d7 3a a6 3d
       0.10819973 -0.12534568 -0.11972868 0.081166916
0001e0 24 7d f7 3d a8 0f 9a 3d 2d 5f e0 3d 81 15 98 bd
       0.120844156 0.075225174 0.10955653 -0.074259765
0001f0 08 c2 37 bb a3 bb aa 3b 52 e5 c8 bd 40 6c b3 3d
       -0.0028039236 0.0052103563 -0.098093644 0.087608814
000200 11 56 69 3d 46 cb b1 3d 05 0e 90 3d 97 04 93 bd
       0.056966845 0.086813495 0.07033924 -0.0717861
000210 f0 57 a0 3d 3f 95 d7 bc 6c 9f 2c 3d 85 77 4d bd
       0.07829273 -0.026316283 0.042144224 -0.05016281
000220 42 9f a8 bd f5 dd c1 bd 5e e2 c8 bb 09 4e b5 3d
       -0.08233501 -0.09466163 -0.0061305007 0.08852775
000230 c0 a3 76 bd a5 7f 24 3d d3 c8 17 bd fd d4 f4 bd
       -0.060214758 0.040160794 -0.037056755 -0.11954687
000240 6c 1c db bd dc 76 9a 3d a9 a5 01 be 76 94 09 3e
       -0.106987804 0.07542202 -0.1266085 0.1343554
000250 1d 8a a1 3d 4d c5 0e 3d 38 cf 94 bd 88 a2 ad bd
       0.07887671 0.03485613 -0.07266086 -0.08478266
000260 a9 96 ca 3c a0 17 8a bd 75 16 c4 3d b9 18 11 bd
       0.024730043 -0.06742787 0.09574596 -0.035423968
000270 c3 81 a5 3d 20 c0 42 bd 4e b0 64 bc 7d e5 b3 bd
       0.08081391 -0.047546506 -0.01395805 -0.08784006
000280 83 01 15 bd 1f 94 a7 bc 10 e1 82 bd c6 cd b3 bd
       -0.036378395 -0.020456372 -0.063905835 -0.087794825
000290 c1 bd 3e 3c 93 23 3b 3d d8 2e 53 bd 5b 09 e0 3d
       0.011641921 0.045688223 -0.051558346 0.109392844
0002a0 98 f3 85 3d f1 9c c5 bc 71 94 d4 3d 4b 6b d1 bd
       0.065406024 -0.024122687 0.103798755 -0.10225543
0002b0 6f a6 5a 3d 14 98 e1 bd 6c 62 e7 3d 25 8d 0c be
       0.05338138 -0.11015335 0.11298069 -0.13725717
0002c0 1f fd f9 3d 61 e0 a8 3c f5 dc 0c 3d 13 0f cd 3d
       0.12206482 0.020614805 0.03439041 0.10012641
0002d0 e2 80 5d bd 61 66 bd 3d 72 cb f4 bc 38 e0 b2 3d
       -0.05407799 0.09248043 -0.029882167 0.087341726
0002e0 8d cb 4c 3c 6e 3d 03 be 5f 7a de bd c8 5a 8c 3b
       0.012499702 -0.12816402 -0.10863184 0.004283283
0002f0 81 50 8a bd 00 63 a3 bc bf a9 e1 bd 95 68 00 3d
       -0.06753636 -0.019944668 -0.110187046 0.031349737
000300 cb ae fc 3d 58 04 e7 bc 80 95 1b 3d e9 81 d3 3d
       0.123380266 -0.028200313 0.03798437 0.10327513
000310 7f fe 2d 3d 26 f9 31 bd 86 d6 5b bd c1 0d a2 3d
       0.042479035 -0.043450497 -0.053671382 0.079127796
000320 e4 af fb 3d ac ff b1 bd ea 30 b3 bd c6 14 04 3d
       0.12289408 -0.08691344 -0.08749564 0.032246374
000330 78 b6 e9 3d a1 36 94 3c 5b 42 d5 bc c8 e7 b7 bd
       0.11411756 0.018092455 -0.026032617 -0.08979756
000340 ff 58 0b bd 19 1c c2 3d d0 04 9e bd 7f c7 f8 3d
       -0.03402042 0.094780155 -0.07715762 0.12147426
000350 77 68 b7 bd 33 0b 66 3d 61 22 4f 3d be 64 08 3d
       -0.08955472 0.056163024 0.050569896 0.0332992
000360 22 6e cc bd ab c0 e5 bd bd 26 b4 bd 77 d4 0e be
       -0.09981944 -0.11218389 -0.08796451 -0.13948236
000370 d4 71 eb 3d 09 96 99 3c 4c a9 c5 3d 8d cd e7 bd
       0.1149632 0.0187483 0.096514314 -0.113185026
000380 a1 1c 13 bd b5 74 b9 bd ef d4 47 3d d2 a9 6f bd
       -0.035915975 -0.09055463 0.048787054 -0.058511563
000390 1d ae 3f bd 99 a2 e3 bd c7 f3 6e 3d dd 32 91 3d
       -0.046796907 -0.111149974 0.058337953 0.070897795
0003a0 d8 83 a5 3d 12 7c e5 bb 5e b1 aa bd cc ac f2 3d
       0.08081788 -0.0070033157 -0.08334611 0.11849365
0003b0 d2 9f 5f 3d 54 98 f1 3a 6b b1 23 3d 26 fc 83 bd
       0.054595776 0.0018432238 0.03996412 -0.06444578
0003c0 cb 22 11 3d bc 72 a8 3c 2f 23 56 3d a1 48 3a 3d
       0.03543357 0.020562522 0.052279647 0.04547942
0003d0 74 b9 15 bd 90 db ce bd 9a d0 b9 3d 3c 18 93 bd
       -0.036553815 -0.10100472 0.09072991 -0.07182357
0003e0 0b 5d 49 3d e0 19 a0 bc 5b 96 23 3d 66 37 e7 3d
       0.049161 -0.019543588 0.039938312 0.11289863
0003f0 cf 2a f2 bd e4 e1 13 bd 14 a7 db 3c 70 4b 71 3d
       -0.11824571 -0.036104098 0.026813067 0.058909833
