td_best_model.pth (torch, 863897 bytes, 57 tensors)

input.weight f4 [64, 7]
-0.1803194 0.20475632 0.21234182 0.21420753 -0.09444779 -0.20810154 0.0018081509 0.13130358
0.16202745 0.09124859 0.22000727 0.09305808 0.2689778 -0.10481748 -0.2694829 0.11013523
-0.0070335115 -0.22402807 0.009792255 -0.27138373 -0.082854465 -0.20865797 0.19771433 0.15664613
0.04345726 -0.07984993 -0.1960368 0.013682115 0.08592027 0.03715 0.07140269 0.034074735
0.14394914 0.2122162 -0.17767036 0.23871964 -0.019259747 -0.2160868 0.065182924 0.1324151
0.16900772 -0.07725619 0.13114591 0.10132031 0.098910816 0.2658252 0.28975764 0.0010202234
0.120685 0.27633485 -0.12128653 -0.064998426 -0.27324983 0.06413735 -0.10641034 0.08189337
-0.28223693 0.053402998 0.0013891136 -0.21404794 -0.24338613 -0.18084013 -0.004402298 0.15044251
-0.20566724 0.050472375 0.15532546 0.2895277 0.19890745 -0.26560792 0.24907477 -0.08355246
0.23718236 -0.15801999 0.18030047 -0.15612909 -0.1322633 -0.16989133 -0.04007059 0.20285822
0.11098799 -0.22140862 -0.07538728 0.038660873 0.05620392 0.24710932 0.14084566 0.1529706
-0.18475686 -0.11827726 0.27343145 0.29033038 -0.13599639 -0.2279585 0.17665362 -0.15902676
0.083345234 0.004885168 -0.22555889 0.1968426 0.05353202 0.07032497 0.097320415 0.22370693
0.15540344 0.033697635 0.0062487395 -0.250361 -0.10180035 -0.15782641 0.2651217 -0.2716069
0.062345807 -0.18679328 -0.22635272 -0.028465051 -0.03179657 -0.08008122 -0.20324333 0.014355676
-0.26170185 -0.27376112 0.09816067 -0.21809702 0.28327173 0.08038269 0.14432986 0.10756281
0.112437226 0.11138219 0.18142898 0.27157122 -0.1469361 0.17316423 0.15946922 0.08774036
0.24010889 0.13855712 0.16565771 -0.20821427 -0.21863198 0.209218 0.2508006 0.08202395
0.11978894 -0.016361177 -0.23444302 -0.20847493 0.116824 -0.07763896 0.25269854 0.23192608
-0.17753765 0.08756115 -0.0106505435 0.22940665 0.13286778 0.049581494 -0.11395689 0.26365095
-0.19693287 0.1924625 -0.062127933 -0.18807831 -0.017160578 0.21416919 0.20911723 0.23963594
0.15712528 -0.084268875 0.17931587 -0.03502733 -0.09980462 -0.11450484 -0.09268343 0.24287179
-0.21389487 -0.18405545 -0.19093715 0.010802961 -0.20048895 0.10449158 -0.008393803 0.09280751
-0.25061187 0.17925698 0.17127143 0.08944746 -0.05517182 0.25709736 -0.14525308 0.047761355
0.2212163 0.051564507 -0.28868207 -0.185092 0.22925575 0.03315811 -0.24410087 0.14352618
0.1519389 -0.08521779 0.08403793 0.06249892 0.25476062 -0.16700104 0.16357939 0.14673245
0.04333472 0.07674234 0.19716565 -0.113484815 0.19753693 0.05432538 0.177994 -0.077744335
-0.053224776 0.2327081 0.18388547 0.16738434 0.06109223 0.17249195 0.018101934 -0.045591455
0.054000672 -0.18953094 -0.2868048 -0.13048163 -0.18234594 -0.26484025 0.22851096 0.036965787
-0.096823685 0.062302783 0.26598278 -0.17206404 -0.2775958 -0.04870152 -0.23223034 0.25336888
-0.18482201 0.19848253 0.20165129 -0.087047815 0.22785442 0.21662414 0.19442548 0.1998718
0.057816606 0.08039392 0.08690902 0.22303157 0.18553674 0.021404082 0.08265117 -0.27742115
00000000: a6a5 38be a4ab 513e 2270 593e 3859 5b3e
00000010: d86d c1bd 9218 55be 7aff ec3a 7274 063e
00000020: 86ea 253e 8ae0 ba3d 9649 613e 3c95 be3d
00000030: 75b7 893e 8caa d6bd aaf9 89be 948e e13d
00000040: 5f79 e6bb 9d67 65be b26f 203c cff2 8abe
00000050: 9aaf a9bd 6faa 55be a075 4a3e d867 203e
00000060: 3d00 323d 5c88 a3bd dfbd 48be f32a 603c
00000070: f7f6 af3d 992a 183d 933b 923d f391 0b3d
00000080: 6767 133e 344f 593e 38ef 35be ec72 743e
00000090: 9ec6 9dbc dc45 5dbe a07e 853d d397 073e
000000a0: 5c10 2d3e 7e38 9ebd 1d4b 063e 0681 cf3d
000000b0: c191 ca3d 3e1a 883e 1d5b 943e 04b9 853a
000000c0: b329 f73d c37b 8d3e 1265 f8bd e51d 85bd
000000d0: 67e7 8bbe 715a 833d aaed d9bd b6b7 a73d
000000e0: 5c81 90be 1abd 5a3d eb12 b63a 622f 5bbe
000000f0: 373a 79be 282e 39be 2741 90bb 9a0d 1a3e
00000100: 6f9a 52be 1fbc 4e3d a30d 1f3e fa3c 943e
00000110: 65ae 4b3e c3fd 87be 750d 7f3e 8d1d abbd
00000120: efdf 723e fecf 21be b0a0 383e 4ee0 1fbe
00000130: 0870 07be fef7 2dbe 0f21 24bd 11ba 4f3e
00000140: ac4d e33d f1b8 62be a564 9abd dd5a 1e3d
00000150: 1536 663d 3a0a 7d3e d839 103e 53a4 1c3e
00000160: e730 3dbe 593b f2bd 35ff 8b3e 2fa6 943e
00000170: a342 0bbe f46d 69be b0e4 343e e9d7 22be
00000180: e8b0 aa3d c213 a03b e9f8 66be 1b91 493e
00000190: 6444 5b3d 8a06 903d ed4f c73d 6e13 653e
000001a0: 1422 1f3e 8806 0a3d 3ac2 cc3b 512f 80be
000001b0: b47c d0bd 3f9d 21be 08be 873e 0f10 8bbe
000001c0: 515e 7f3d bd46 3fbe 02c9 67be 8a2f e9bc
000001d0: 1f3d 02bd 9f01 a4bd 051f 50be 1234 6b3c
000001e0: c9fd 85be 6b2a 8cbe 7608 c93d d354 5fbe
000001f0: fe08 913e ae9f a43d 35cb 133e e449 dc3d
00000200: 7d45 e63d 581c e43d 85c8 393e 620b 8b3e
00000210: 6b76 16be f751 313e e64b 233e 38b1 b33d
00000220: 1bdf 753e ebe1 0d3e 2da2 293e 1f36 55be
00000230: 10e1 5fbe 3e3d 563e f068 803e 2cfc a73d
00000240: e753 f53d e007 86bc d511 70be 747a 55be
00000250: 6c41 ef3d 2d01 9fbd b461 813e 087e 6d3e
00000260: 6ecc 35be 4353 b33d 9e7f 2ebc 94e9 6a3e
00000270: 7e0e 083e f715 4b3d 3b62 e9bd 42fd 863e
00000280: c5a8 49be e414 453e dc79 7ebd 9a97 40be
00000290: 5794 8cbc 2b4f 5b3e d422 563e 2063 753e
000002a0: 73e5 203e 2995 acbd 949e 373e d178 0fbd
000002b0: 5d66 ccbd 8381 eabd cfd0 bdbd 62b3 783e
000002c0: 4207 5bbe 0879 3cbe 0785 43be e7fe 303c
000002d0: fa4c 4dbe aeff d53d 2986 09bc dd11 be3d
000002e0: 3350 80be 248f 373e c761 2f3e 3b30 b73d
000002f0: d9fb 61bd 44a2 833e 39bd 14be 69a1 433d
00000300: 8786 623e 4e35 533d 23ce 93be c288 3dbe
00000310: 05c2 6a3e ccd0 073d 94f5 79be 87f8 123e
00000320: df95 1b3e aa86 aebd 141c ac3d defe 7f3d
00000330: fc6f 823e 5202 2bbe 5b81 273e 0841 163e
00000340: bf7f 313d 172b 9d3d cbe5 493e ba6a e8bd
00000350: 1f47 4a3e 4a84 5e3d 0f44 363e 6c38 9fbd
00000360: 3902 5abd 084b 6e3e 794c 3c3e cd66 2b3e
00000370: d93b 7a3d bba1 303e 824a 943c 1bbe 3abd
00000380: cf2f 5d3d 6614 42be 14d8 92be fa9c 05be
00000390: e5b8 3abe 2499 87be c7fe 693e 7069 173d
000003a0: 7f4b c6bd 3431 7f3d e52e 883e 8e31 30be
000003b0: 0921 8ebe 3f7b 47bd cacd 6dbe 91b9 813e
000003c0: fb41 3dbe 013f 4b3e ad7d 4e3e 2046 b2bd
000003d0: ab52 693e b8d2 5d3e 7917 473e 31ab 4c3e
000003e0: 1bd1 6c3d 91a5 a43d 5bfd b13d 6362 643e
000003f0: 58fd 3d3e 9d57 af3c 0445 a93d 250a 8ebe

input.bias f4 [64]
0.1822745 -0.35006768 0.03403496 -0.14647514 -0.36386442 0.37008658 0.36497092 0.18602489
-0.22248286 0.08336932 -0.3250829 0.25678933 -0.31548703 0.21172355 -0.058755033 0.11106501
0.15072262 -0.08373344 0.11780066 -0.3113877 -0.34773645 -0.06717297 -0.33485362 0.05372817
-0.17319526 0.33249196 0.3291986 0.05719244 -0.03533859 -0.051018488 0.032470398 0.2616445
0.020082213 0.23216145 -0.02422517 -0.26570082 0.05218345 0.0016753909 -0.23899338 0.09761505
0.34632838 -0.22596838 0.10276104 -0.09395568 -0.25428006 0.30673015 0.14324614 0.17502025
0.084304355 0.22301385 0.29541516 0.029802196 0.34803125 -0.23860376 -0.15462214 -0.37086183
-0.34440643 0.34909132 0.08141061 0.1082372 -0.2544543 0.014878631 0.2932988 0.028325992
00000000: 2ba6 3a3e 123c b3be 3e68 0b3d 94fd 15be
00000010: 704c babe fd7b bd3e 78dd ba3e 4f7d 3e3e
00000020: 8cd2 63be 89bd aa3d 4471 a6be e479 833e
00000030: 8487 a1be 0fce 583e 1ea9 70bd 0d76 e33d
00000040: 0857 1a3e 707c abbd 7941 f13d 356e 9fbe
00000050: 830a b2be fb91 89bd ef71 abbe 1212 5c3d
00000060: 195a 31be 633c aa3e b88c a83e 9f42 6a3d
00000070: 33bf 10bd c3f8 50bd aeff 043d 45f6 853e
00000080: 7483 a43c bbbb 6d3e dd73 c6bc f009 88be
00000090: 50be 553d ca98 db3a aeba 74be 66ea c73d
000000a0: f451 b13e 4164 67be 6174 d23d d66b c0bd
000000b0: ff30 82be bc0b 9d3e 1eaf 123e 8238 333e
000000c0: c3a7 ac3d be5d 643e a840 973e bc23 f43c
000000d0: 2731 b23e 8b54 74be 4455 1ebe 9ae1 bdbe
000000e0: 0a56 b0be 19bc b23e 9bba a63d 77ab dd3d
000000f0: d647 82be 80c5 733c 432b 963e e90b e83c

pe.pe f4 [1, 24, 64]
0.0 1.0 0.0 1.0 0.0 1.0 0.0 1.0
0.0 1.0 0.0 1.0 0.0 1.0 0.0 1.0
0.0 1.0 0.0 1.0 0.0 1.0 0.0 1.0
0.0 1.0 0.0 1.0 0.0 1.0 0.0 1.0
0.0 1.0 0.0 1.0 0.0 1.0 0.0 1.0
0.0 1.0 0.0 1.0 0.0 1.0 0.0 1.0
0.0 1.0 0.0 1.0 0.0 1.0 0.0 1.0
0.0 1.0 0.0 1.0 0.0 1.0 0.0 1.0
0.84147096 0.54030234 0.68156135 0.731761 0.53316844 0.8460091 0.40930894 0.91239583
0.3109836 0.9504153 0.23492105 0.9720145 0.17689219 0.9842302 0.13295726 0.99112177
0.099833414 0.9950042 0.07491915 0.9971896 0.05620449 0.9984193 0.04215715 0.999111
0.031617504 0.99950004 0.023711512 0.99971884 0.017781857 0.99984187 0.013334819 0.99991107
0.009999833 0.99995 0.0074988706 0.99997187 0.0056233825 0.9999842 0.0042169513 0.9999911
0.0031622713 0.999995 0.0023713715 0.9999972 0.0017782785 0.99999845 0.0013335211 0.9999991
0.0009999998 0.9999995 0.000749894 0.9999997 0.0005623411 0.9999998 0.00042169637 0.99999994
0.00031622782 0.99999994 0.00023713727 1.0 0.00017782794 1.0 0.00013335208 1.0
0.9092974 -0.41614684 0.99748 0.070948265 0.9021307 0.43146282 0.74690354 0.66493237
0.5911271 0.8065784 0.45669332 0.8896242 0.34820527 0.93741834 0.26355368 0.96464473
0.19866931 0.9800666 0.1494172 0.98877424 0.1122313 0.9936821 0.08423935 0.99644554
0.063203394 0.9980007 0.04740969 0.9988755 0.03555809 0.9993676 0.026667267 0.99964434
0.019998666 0.9998 0.014997319 0.9998875 0.011246587 0.99993676 0.008433828 0.9999644
0.006324511 0.99998003 0.00474273 0.99998873 0.0035565514 0.9999937 0.0026670396 0.9999964
0.0019999985 0.99999803 0.0014997876 0.99999887 0.0011246821 0.99999934 0.0008433926 0.99999964
0.0006324556 0.9999998 0.0004742745 0.9999999 0.00035565588 0.99999994 0.00026670416 1.0
0.14112 -0.9899925 0.7782725 -0.6279267 0.9932532 -0.11596616 0.95363444 0.3009673
0.8126489 0.58275366 0.652904 0.7574407 0.5085361 0.86104065 0.3894703 0.92103904
0.2955202 0.9553365 0.22307542 0.9748012 0.16790329 0.9858035 0.12617177 0.9920084
0.094726086 0.99550337 0.071081206 0.9974705 0.053323083 0.9985773 0.039994974 0.99919987
0.0299955 0.99955004 0.022494925 0.999747 0.016869437 0.9998577 0.012650555 0.99991995
0.009486687 0.999955 0.0071140616 0.9999747 0.005334813 0.99998575 0.0040005534 0.999992
0.0029999954 0.9999955 0.0022496805 0.9999975 0.0016870227 0.99999857 0.0012650888 0.9999992
0.00094868336 0.9999996 0.00071141176 0.99999976 0.0005334838 0.9999999 0.00040005625 0.99999994
00000000: 0000 0000 0000 803f 0000 0000 0000 803f
00000010: 0000 0000 0000 803f 0000 0000 0000 803f
00000020: 0000 0000 0000 803f 0000 0000 0000 803f
00000030: 0000 0000 0000 803f 0000 0000 0000 803f
00000040: 0000 0000 0000 803f 0000 0000 0000 803f
00000050: 0000 0000 0000 803f 0000 0000 0000 803f
00000060: 0000 0000 0000 803f 0000 0000 0000 803f
00000070: 0000 0000 0000 803f 0000 0000 0000 803f
00000080: 0000 0000 0000 803f 0000 0000 0000 803f
00000090: 0000 0000 0000 803f 0000 0000 0000 803f
000000a0: 0000 0000 0000 803f 0000 0000 0000 803f
000000b0: 0000 0000 0000 803f 0000 0000 0000 803f
000000c0: 0000 0000 0000 803f 0000 0000 0000 803f
000000d0: 0000 0000 0000 803f 0000 0000 0000 803f
000000e0: 0000 0000 0000 803f 0000 0000 0000 803f
000000f0: 0000 0000 0000 803f 0000 0000 0000 803f
00000100: a46a 573f 4151 0a3f ce7a 2e3f b054 3b3f
00000110: ba7d 083f 0d94 583f f190 d13e c692 693f
00000120: 3e39 9f3e 6b4e 733f 258f 703e f1d5 783f
00000130: 3a23 353e 83f6 7b3f f325 083e 28ba 7d3f
00000140: 7675 cc3d 98b8 7e3f 366f 993d d147 7f3f
00000150: ae36 663d 6898 7f3f faac 2c3d bdc5 7f3f
00000160: 5b81 013d 3cdf 7f3f a53e c23c 93ed 7f3f
00000170: 42ab 913c a3f5 7f3f 497a 5a3c 2cfa 7f3f
00000180: 57d6 233c b9fc 7f3f 16b9 f53b 28fe 7f3f
00000190: 5a44 b83b f7fe 7f3f 5a2e 8a3b 6bff 7f3f
000001a0: 1c3e 4f3b acff 7f3f 0369 1b3b d1ff 7f3f
000001b0: 2015 e93a e6ff 7f3f 8bc9 ae3a f1ff 7f3f
000001c0: 6d12 833a f8ff 7f3f 8994 443a fbff 7f3f
000001d0: 136a 133a fdff 7f3f 2117 dd39 ffff 7f3f
000001e0: 61cb a539 ffff 7f3f 0da8 7839 0000 803f
000001f0: 5377 3a39 0000 803f 6dd4 0b39 0000 803f
00000200: b7c7 683f 3311 d5be d95a 7f3f 534d 913d
00000210: 0af2 663f b2e8 dc3e 1235 3f3f 0239 2a3f
00000220: 1b54 173f ec7b 4e3f b5d3 e93e 69be 633f
00000230: f647 b23e a6fa 6f3f 82f0 863e f5f2 763f
00000240: f86f 4b3e a5e5 7a3f d300 193e 4f20 7d3f
00000250: 86d9 e53d f361 7e3f ae85 ac3d 0e17 7f3f
00000260: c870 813d f97c 7f3f aa30 423d 4eb6 7f3f
00000270: 5ca5 113d 8ed6 7f3f 5075 da3c b1e8 7f3f
00000280: 3ed4 a33c e5f2 7f3f 51b7 753c a1f8 7f3f
00000290: 9b43 383c dbfb 7f3f 0a2e 0a3c abfd 7f3f
000002a0: d83d cf3b b1fe 7f3f e768 9b3b 43ff 7f3f
000002b0: 0815 693b 96ff 7f3f 80c9 2e3b c4ff 7f3f
000002c0: 6812 033b dfff 7f3f 8594 c43a edff 7f3f
000002d0: 126a 933a f5ff 7f3f 1f17 5d3a faff 7f3f
000002e0: 60cb 253a fdff 7f3f 0ca8 f839 feff 7f3f
000002f0: 5377 ba39 ffff 7f3f 6dd4 8b39 0000 803f
00000300: c381 103e 2670 7dbf de3c 473f cebf 20bf
00000310: d745 7e3f ab7f edbd 6321 743f 6318 9a3e
00000320: c209 503f 582f 153f b724 273f a2e7 413f
00000330: 6c2f 023f 296d 5c3f a768 c73e 37c9 6b3f
00000340: 6c4e 973e ef90 743f e26d 643e 928c 793f
00000350: d7ee 2b3e 9e5d 7c3f 2c33 013e 43f4 7d3f
00000360: c0ff c13d 4fd9 7e3f 0693 913d 3a5a 7f3f
00000370: 4e69 5a3d c3a2 7f3f c5d1 233d 90cb 7f3f
00000380: 1fb9 f53c 83e2 7f3f 4747 b83c 6bef 7f3f
00000390: c631 8a3c adf6 7f3f 4644 4f3c c1fa 7f3f
000003a0: 0d6e 1b3c 0dfd 7f3f 131d e93b 58fe 7f3f
000003b0: a8cf ae3b 11ff 7f3f 1317 833b 7aff 7f3f
000003c0: 929b 443b b5ff 7f3f 606f 133b d6ff 7f3f
000003d0: 171f dd3a e8ff 7f3f 56d1 a53a f3ff 7f3f
000003e0: 10b1 783a f9ff 7f3f 097e 3a3a fcff 7f3f
000003f0: 7ed9 0b3a feff 7f3f a4be d139 ffff 7f3f

transformer.layers.0.self_attn.in_proj_weight f4 [192, 64]
0.14122364 0.11916942 -0.065849155 -0.0829684 -0.13684738 0.014145359 -0.0990072 -0.14152911
0.024923496 -0.025713202 -0.07871472 0.08159617 -0.022292309 0.104399905 -0.030467788 -0.053344708
-0.056538343 -0.02717091 -0.018708564 -0.118420154 -0.14152613 -0.097909346 0.094850115 -0.1499171
-0.0038736688 -0.0918094 -0.1442185 -0.0042759785 -0.03614321 0.071832694 0.018594818 -0.015389862
-0.08790778 -0.15177242 0.07746315 0.08266407 0.068650596 0.03928446 0.11220303 0.1319514
-0.07421488 0.09169591 -0.108089834 0.08879489 0.1545325 0.014565993 -0.08608334 -0.04275436
0.0032149393 -0.015569434 0.040889416 -0.020416329 -0.13174905 -0.1367584 0.04728233 -0.07535104
-0.03963541 0.09055284 0.015261076 -0.07203771 0.10061838 -0.15170977 0.07601022 -0.008690656
0.027244784 0.103031486 -0.13545868 0.1344263 -0.07141752 -0.0037150201 0.07460028 0.014557764
0.07486326 0.13392162 -0.1453494 -0.12540025 -0.07102635 -0.13542406 -0.15144303 -0.13893244
-0.017803345 -0.068303406 0.034750845 -0.062016144 -0.01837551 0.010833142 -0.03855364 -0.039402317
0.1018193 0.15187763 0.067320645 -0.0033357786 0.07061599 -0.059078034 -0.019469438 -0.002532926
-0.14433321 0.12868457 -0.13888887 0.10669618 -0.12029952 -0.043892164 -0.012528888 -0.083442576
-0.036412418 -0.05099301 -0.01713256 0.10654082 -0.038880475 -0.034697782 0.14770214 -0.040502284
-0.042009562 0.1092893 0.02414362 0.12652451 0.026062556 -0.09842338 0.030393234 0.13252886
-0.11043743 0.08752808 -0.06895457 0.14858063 -0.0784272 -0.061632734 0.07430705 -0.014545896
0.10029442 0.04856355 -0.0819765 0.098919086 0.106153384 -0.034967538 -0.0511317 -0.04226362
-0.014877563 -0.13301806 -0.09236972 -0.06939796 -0.027770193 0.12750296 0.043789465 -0.097128965
0.099322885 -0.023618741 -0.05016786 0.07855362 0.122529015 -0.0098948 0.080192626 -0.118437596
-0.0054528764 0.00090477534 0.038209993 -0.10738359 -0.105530486 0.088103876 -0.14145596 -0.10091773
0.02608781 -0.10274196 0.15274031 0.10760955 -0.0939455 0.0054858075 0.059055835 -0.06326097
-0.10613584 -0.07570336 -0.12563612 -0.139014 -0.096442945 -0.0787697 0.11533879 -0.056492303
-0.091754094 -0.028113976 -0.11100314 -0.13045129 0.04773569 0.15034495 -0.03799358 -0.08477142
0.117518134 0.08073395 0.028477473 -0.027559808 0.07888365 0.08415298 0.03151707 -0.11637259
0.022112997 0.05731701 0.0937993 -0.046205215 -0.052711908 -0.07771686 0.06291373 -0.13861303
0.04114467 0.051818494 0.030576952 0.019838631 0.034959406 0.06721436 0.06083929 0.07839928
0.14937882 0.08113125 -0.10187488 -0.032485615 -0.0834718 -0.0036889613 0.14974841 -0.12186516
0.04963513 0.1321382 0.08543522 -0.028655116 0.06731862 0.066190094 0.09295485 -0.10093886
0.04509138 0.012574482 -0.09011524 0.0670788 -0.08684552 0.02974962 0.0046177288 -0.087571524
0.026009196 0.1333207 -0.12265499 0.15201864 -0.11938718 0.14957196 0.0026263522 -0.1431687
0.05019984 0.11672285 -0.009093095 0.14338726 0.14732721 -0.08766035 -0.02295879 0.13072562
0.14251074 -0.08684783 -0.08116772 0.08223314 -0.12988004 0.12892996 0.021984197 0.12772289
00000000: ee9c 103e 190f f43d ecdb 86bd 56eb a9bd
00000010: b821 0cbe f0c1 673c 49c4 cabd 02ed 10be
00000020: 5c2c cc3c 7ea4 d2bc 2f35 a1bd e51b a73d
00000030: 5c9e b6bc 9ecf d53d 9597 f9bc fb7f 5abd
00000040: c094 67bd 8795 debc b442 99bc 4486 f2bd
00000050: 3aec 10be b284 c8bd c740 c23d de83 19be
00000060: 61dd 7dbb 9106 bcbd 04ae 13be 821d 8cbb
00000070: e70a 14bd 051d 933d 2954 983c c225 7cbc
00000080: ff08 b4bd 3b6a 1bbe 00a5 9e3d c84b a93d
00000090: af98 8c3d bee8 203d b4ca e53d 451e 073e
000000a0: f9fd 97bd 11cb bb3d 345e ddbd 18da b53d
000000b0: c53d 1e3e 34a6 6e3c 764c b0bd 321f 2fbd
000000c0: bbb1 523b f016 7fbc a97b 273d 2540 a7bc
000000d0: 39e9 06be 650a 0cbe 1eab 413d a551 9abd
000000e0: bd58 22bd c473 b93d 9809 7a3c 8288 93bd
000000f0: 0211 ce3d ce59 1bbe 3fab 9b3d 4163 0ebc
00000100: 7430 df3c 2c02 d33d aeb5 0abe 0ca7 093e
00000110: 5943 92bd b277 73bb 08c8 983d b083 6e3c
00000120: e951 993d c022 093e 79d6 14be ec68 00be
00000130: 4376 91bd 9bac 0abe e213 1bbe 4e44 0ebe
00000140: 52d8 91bc a8e2 8bbd e756 0e3d a404 7ebd
00000150: 3d88 96bc 7e7d 313c 6cea 1dbd 5364 21bd
00000160: a386 d03d cf85 1b3e 68df 893d 149d 5abb
00000170: 1e9f 903d cffb 71bd 5f7e 9fbc 72ff 25bb
00000180: 16cc 13be e3c5 033e e238 0ebe 8783 da3d
00000190: 985f f6bd 45c8 33bd f745 4dbc f1e3 aabd
000001a0: 3025 15bd 0cde 50bd 9559 8cbc 1332 da3d
000001b0: 2241 1fbd 431f 0ebd 3b3f 173e b9e5 25bd
000001c0: 3812 2cbd 12d3 df3d d7c8 c53c a48f 013e
000001d0: 2481 d53c 3292 c9bd 3bfb f83c a5b5 073e
000001e0: 052d e2bd ec41 b33d 0e38 8dbd 8525 183e
000001f0: 719e a0bd 9b72 7cbd 4b2e 983d e951 6ebc
00000200: 2967 cd3d 93ea 463d 4ce3 a7bd 1796 ca3d
00000210: f266 d93d 1f3a 0fbd 796f 51bd 9e1c 2dbd
00000220: 06c1 73bc e335 08be 562c bdbd 8520 8ebd
00000230: 517e e3bc 2390 023e 955c 333d 8deb c6bd
00000240: cc69 cb3d 177c c1bc d07c 4dbd b8e0 a03d
00000250: 7ef0 fa3d cd1d 22bc 083c a43d 698f f2bd
00000260: 0bae b2bb 722e 6d3a 1582 1c3d edeb dbbd
00000270: 5e20 d8bd ce6f b43d d5d9 10be f4ad cebd
00000280: 1ab6 d53c 606a d2bd f567 1c3e 6562 dc3d
00000290: 8066 c0bd 4ac2 b33b 88e4 713d f88e 81bd
000002a0: bf5d d9bd 5d0a 9bbd c1a6 00be b059 0ebe
000002b0: e183 c5bd 0252 a1bd be36 ec3d 7964 67bd
000002c0: 92e9 bbbd 484f e6bc 9d55 e3bd 0695 05be
000002d0: 8086 433d 07f4 193e 289f 1bbd a39c adbd
000002e0: 59ad f03d d757 a53d 9749 e93c 1bc5 e1bc
000002f0: c08d a13d 6658 ac3d 0b18 013d c154 eebd
00000300: 5126 b53c 3ec5 6a3d d919 c03d ae41 3dbd
00000310: 71e8 57bd 042a 9fbd ead8 803d 93f0 0dbe
00000320: 5087 283d a13f 543d 847c fa3c a084 a23c
00000330: 9831 0f3d afa7 893d 9f32 793d cd8f a03d
00000340: c3f6 183e 2428 a63d c7a3 d0bd a30f 05bd
00000350: 43f3 aabd 80c2 71bb a657 193e 7194 f9bd
00000360: 354e 4b3d 3c4f 073e a9f8 ae3d 22be eabc
00000370: 58de 893d ac8e 873d 1d5f be3d 08b9 cebd
00000380: bdb1 383d 3305 4e3c 578e b8bd 9c60 893d
00000390: 10dc b1bd 7ab5 f33c 5150 973b b358 b3bd
000003a0: 3d11 d53c 3985 083e 8a32 fbbd c6aa 1b3e
000003b0: 4481 f4bd 6429 193e e11e 2c3b d19a 12be
000003c0: 599e 4d3d 640c ef3d 34fb 14bc 1cd4 123e
000003d0: f2dc 163e 4587 b3bd 1314 bcbc f0dc 053e
000003e0: 56ee 113e 46dd b1bd 433b a6bd d969 a83d
000003f0: 46ff 04be 3706 043e 3418 b43c cac9 023e

transformer.layers.0.self_attn.in_proj_bias f4 [192]
-0.0012992462 -0.00036824867 -0.0012879036 0.0026386087 -0.00093403726 0.0037954005 0.0014620329 0.0018035237
0.0010682631 -0.00060364703 -0.0011557295 0.0008464116 0.00085003796 0.00069876533 0.00065683486 0.00086185936
-0.0048657735 -0.0011516283 -0.0018910792 -0.0023699866 0.0037562621 -0.0026648694 0.0072065927 0.0126126595
-0.00041090968 -0.0044419374 -0.0022394625 -0.0015910288 0.0043094438 0.00074197544 0.0008426986 -0.00085338816
-0.00469448 -0.008250463 0.0058876206 -0.0050519616 -0.0010320162 -0.0025303578 0.0014877501 0.0043541417
7.117979e-05 0.0006520446 -0.00026048353 0.0014161549 -0.0003137975 0.00014194555 0.0016105154 3.0124575e-05
0.004539515 -0.011672444 -0.005020305 -0.0038982255 -0.004648095 -0.012772707 -0.0043959282 0.0043223556
-0.0010001711 0.00015342516 0.000999249 0.001356506 -0.0015029262 0.0013116738 0.0016194482 -0.0016924811
-2.15772e-05 -0.00022903974 9.626827e-05 5.1145507e-05 1.698236e-05 3.470607e-05 0.00017810047 3.592484e-05
6.5627573e-06 4.7652907e-06 2.8244433e-05 6.5369227e-06 -0.00010049639 -4.1777683e-05 2.2253429e-05 4.0364852e-05
-7.9196696e-05 -3.239323e-05 -2.2965487e-05 -5.3944324e-05 -1.628698e-05 8.820931e-05 3.3205186e-05 -1.5819624e-05
-3.6166948e-06 -8.729049e-05 -7.362631e-05 -6.417451e-05 -8.415993e-05 -8.449142e-05 9.0937574e-05 -4.3407927e-06
0.00013601457 1.5321702e-05 6.335084e-05 -7.7177145e-05 9.358291e-05 -4.331184e-05 9.787391e-05 -3.293514e-05
1.8409924e-05 4.8086036e-05 -3.76419e-05 1.4513424e-05 -7.0645733e-06 -2.6345128e-06 -4.1638046e-05 -2.8125337e-06
-3.5319412e-05 1.4173183e-05 -2.3111741e-05 -4.893289e-06 -1.1063109e-05 -2.6146688e-06 4.916199e-06 -1.3681017e-05
-7.810115e-06 -3.479857e-05 6.776437e-05 -1.0631598e-05 4.5590564e-06 3.071546e-05 3.6784215e-05 -7.796309e-06
0.00023110032 -0.00053737394 0.0024019752 -0.0003858266 0.00038160468 -0.0014893888 -0.0006717675 0.00042443094
0.0047372524 -0.0026720446 -0.00012464375 0.00050339464 0.00076255185 -0.0004801063 0.00069356 -0.00078582513
0.0014953694 -0.004017038 0.0034541227 0.0017343106 0.0007486054 0.0008027834 -0.005113934 -0.0014090551
-0.0058488934 0.0008467127 -6.6461194e-05 -0.0051508453 -0.00083362637 -0.00041514638 0.0020599538 0.00046055633
0.007741858 0.002714407 -0.0004590534 -0.0032709222 0.00058093335 -0.002499277 -6.283707e-05 0.002217242
-0.00015293893 0.0010931611 0.00030775843 -0.0030036655 0.0011047515 0.0014781364 -0.0023192393 -0.00072846643
0.0009926459 0.0033543925 0.005350014 -0.006142727 -0.00033102298 0.0012664984 0.00022728536 0.0015536089
-0.0004496408 0.002598323 0.001635278 0.00026192368 4.063821e-05 0.0006690086 0.00040797165 0.0012596694
00000000: 784b aaba 8011 c1b9 e0ce a8ba 82ec 2c3b
00000010: 2eda 74ba 41bc 783b afa1 bf3a 3764 ec3a
00000020: f604 8c3a 113e 1eba d97b 97ba b9e1 5d3a
00000030: 15d5 5e3a 592d 373a 712f 2c3a 67ee 613a
00000040: 1171 9fbb 3cf2 96ba 17de f7ba c751 1bbb
00000050: 9f2b 763b 17a5 2ebb 4825 ec3b 54a5 4e3c
00000060: 5d6f d7b9 ac8d 91bb f2c3 12bb 118a d0ba
00000070: 3c36 8d3b 2181 423a 8ce8 5c3a e9b5 5fba
00000080: 27d4 99bb f32c 07bc f1ec c03b ed8a a5bb
00000090: b844 87ba 5cd4 25bb 9c00 c33a 30ad 8e3b
000000a0: 5c46 9538 f9ed 2a3a 8291 88b9 469e b93a
000000b0: 3085 a4b9 38d7 1439 ee17 d33a 08b4 fc37
000000c0: 36c0 943b c73d 3fbc 5f81 a4bb 5f79 7fbb
000000d0: 0c4f 98bb 9e44 51bc b80b 90bb 8ca2 8d3b
000000e0: 2c18 83ba c1e0 2039 3cf9 823a cacc b13a
000000f0: d6fd c4ba 78ec ab3a aa43 d43a 3ed6 ddba
00000100: af00 b5b7 632a 70b9 a2e3 c938 1285 5638
00000110: 5775 8e37 5c91 1138 7bc0 3a39 01ae 1638
00000120: a835 dc36 89e5 9f36 75ee ec37 bd57 db36
00000130: 97c1 d2b8 723a 2fb8 e0ac ba37 6e4d 2938
00000140: 6716 a6b8 f7dd 07b8 02a6 c0b7 4742 62b8
00000150: 06a0 88b7 03fd b838 cc45 0b38 62b4 84b7
00000160: 58b6 72b6 ba0f b7b8 d367 9ab8 6d95 86b8
00000170: 057f b0b8 fc30 b1b8 bdb5 be38 20a7 91b6
00000180: 229f 0e39 1b87 8037 39db 8438 2ada a1b8
00000190: f141 c438 bca9 35b8 a841 cd38 d623 0ab8
000001a0: 036f 9a37 fdaf 4938 afe1 1db8 ae7e 7337
000001b0: 390c edb6 96cc 30b6 83a4 2eb8 f6be 3cb6
000001c0: ee23 14b8 5cc9 6d37 16e0 c1b7 0831 a4b6
000001d0: b19b 39b7 ab77 2fb6 d4f5 a436 8587 65b7
000001e0: 3008 03b7 aef4 11b8 b81c 8e38 5e5e 32b7
000001f0: fff9 9836 79d4 0038 c048 1a38 e4cc 02b7
00000200: 8553 7239 8ede 0cba 756a 1d3b c548 cab9
00000210: 1d12 c839 9837 c3ba 8e19 30ba 2886 de39
00000220: f43a 9b3b 781d 2fbb cdb2 02b9 3ef6 033a
00000230: fde5 473a c7b6 fbb9 06d0 353a d5ff 4dba
00000240: 4500 c43a 5ba1 83bb 905e 623b cf51 e33a
00000250: 0f3e 443a e271 523a ca92 a7bb 0bb0 b8ba
00000260: 13a8 bfbb edf5 5d3a 1561 8bb8 6cc8 a8bb
00000270: b887 5aba 01a8 d9b9 4a00 073b d376 f139
00000280: 69af fd3b 31e4 313b 1bad f0b9 f85c 56bb
00000290: c749 183a e9ca 23bb 65c7 83b8 264f 113b
000002a0: 3b5e 20b9 6648 8f3a a35a a139 25d9 44bb
000002b0: 4fcd 903a 07be c13a 61fe 17bb 8ef6 3eba
000002c0: ab1b 823a 5ed5 5b3b 2c4f af3b ee48 c9bb
000002d0: 278d adb9 a200 a63a 7353 6e39 77a2 cb3a
000002e0: c4bd ebb9 a048 2a3b d356 d63a cd52 8939
000002f0: f272 2a38 6860 2f3a 07e5 d539 7e1b a53a

transformer.layers.0.self_attn.out_proj.weight f4 [64, 64]
-0.007034137 0.042802367 -0.045775432 0.108347364 0.1850204 -0.012240383 0.08663099 0.10558643
-0.07732383 -0.09260858 -0.13888893 0.08084654 0.20924091 -0.11481154 -0.053568736 -0.20822023
0.030542998 -0.12206119 0.077232994 0.16573504 -4.4831086e-06 -0.13617179 -0.011368715 -0.1828958
-0.19028117 0.051454715 -0.20312126 0.14423843 -0.14267163 0.10015999 0.064529635 -0.17985123
-0.05239074 -0.03229754 -0.15519501 0.07177621 0.15406427 0.09559595 0.17809717 -0.01766018
0.110029384 0.04635803 0.036626846 0.06587039 0.1994432 0.12537988 0.09314111 0.10988481
-0.20447546 0.20182335 0.022290682 -0.091840275 -0.083664946 -0.11549708 0.16431424 -0.008897677
0.080671154 -0.0030634352 0.15088275 -0.039233577 0.08079176 0.11609193 -0.17306192 -0.055246145
-0.05839045 -0.11624928 -0.2141656 -0.12653539 -0.07200877 -0.13008906 0.10131758 0.07272981
0.11953877 -0.03155089 -0.16136277 -0.19978964 0.080922894 0.14261883 0.055817608 -0.19005126
-0.19515727 0.017307146 -0.1288744 0.11803164 -0.0036480445 -0.14735547 -0.11562352 0.11000829
0.17667025 0.030605137 0.016682277 -0.00018392439 0.1183276 0.16210724 0.003184225 0.0021919082
0.13380556 0.03962512 0.119491674 0.075851336 0.21655743 -0.14500472 -0.06792107 -0.07628971
0.10063103 0.040222373 -0.009662359 0.056845505 0.18610783 -0.2045365 -0.019321103 -0.09637582
0.080689974 0.11509808 -0.10799613 -0.19589536 -0.1468243 -0.19212152 -0.15440525 0.15948312
-0.036885563 -0.20131816 -0.16614088 0.073724665 0.20343107 0.096091665 -0.01915957 -0.09584883
-0.05457873 -0.030813532 -0.033666816 0.09011348 -0.055929825 -0.15699673 -0.052845165 -0.13648646
-0.1788537 -0.11618192 -0.21777235 0.03464856 -0.087163344 0.20494711 -0.11747425 -0.06247518
0.08715136 0.06969061 0.20550263 -0.16897978 -0.07397853 0.042989936 -0.09140838 -0.041735493
-0.1476568 -0.14314209 -0.12932166 0.14036821 0.16590056 -0.048943713 -0.07392398 -0.18593891
0.09957743 0.06004811 -0.013034275 -0.1630201 0.1138222 0.10475311 0.120563515 0.062146187
0.013627237 -0.055785272 -0.11431716 -0.13319829 0.16273007 -0.13865577 -0.12932707 -0.18574096
-0.0011452659 0.050506894 -0.118036404 -0.19346538 0.18884371 -0.04530364 0.029728297 0.17563675
0.061576568 0.11905158 -0.06647908 0.0040593017 -0.052092947 -0.016004013 -0.079883866 -0.20554015
0.10521376 -0.16123539 0.14395292 0.17603908 0.07099752 0.03286101 -0.024953622 -0.20370549
-0.074944474 0.17372636 -0.21649984 0.20413038 -0.103939936 -0.062677085 0.017870316 -0.0015844784
0.0025478976 0.07192449 -0.18051659 0.1139573 -0.2036897 -0.015545528 0.17748554 0.16900037
0.017227741 0.16788302 0.04075848 0.16290799 0.19111747 0.16306205 -0.10187523 0.0078577865
-0.1943272 -0.06363312 -0.069489926 -0.13542382 -0.12877469 -0.028987586 -0.13306546 -0.17401479
0.014328653 -0.19579627 0.09132362 0.030078836 0.09870431 -0.15348028 0.042050067 -0.07896644
-0.1008324 -0.029941332 -0.2220199 -0.20788212 -0.075266 -0.05380699 0.19365853 0.045936596
0.16224298 -0.18429229 -0.16857155 -0.13717973 -0.19659945 0.16064823 0.15970196 0.051952276
00000000: 9e7e e6bb 8951 2f3d 057f 3bbd 39e5 dd3d
00000010: fd75 3d3e e38b 48bc 976b b13d b33d d83d
00000020: f55b 9ebd 91a9 bdbd e638 0ebe df92 a53d
00000030: 4043 563e 5022 ebbd e46a 5bbd af37 55be
00000040: 4f35 fa3c 38fb f9bd 552c 9e3d 72b6 293e
00000050: 9c6d 96b6 9e70 0bbe d943 3abc 0949 3bbe
00000060: 11d9 42be 2ec2 523d 05ff 4fbe 3db3 133e
00000070: 8318 12be ae20 cd3d 1d28 843d ec2a 38be
00000080: ac97 56bd 6d4a 04bd 71eb 1ebe 68ff 923d
00000090: 06c3 1d3e cfc7 c33d 1b5f 363e 15ac 90bc
000000a0: 1657 e13d ebe1 3d3d 0806 163d 0ee7 863d
000000b0: d73a 4c3e 9563 003e c4c0 be3d 4a0b e13d
000000c0: 0462 51be c8aa 4e3e f39a b63c c116 bcbd
000000d0: 8758 abbd bc89 ecbd fe41 283e 90c7 11bc
000000e0: eb36 a53d eac3 48bb 0281 1a3e 63b3 20bd
000000f0: 2676 a53d 9bc1 ed3d 2537 31be c849 62bd
00000100: d32a 6fbd 1a14 eebd 3a4e 5bbe 7e92 01be
00000110: 5679 93bd 1136 05be 977f cf3d 5ef3 943d
00000120: bed0 f43d 823b 01bd 483c 25be a895 4cbe
00000130: e7ba a53d ac0a 123e 01a1 643d cc9c 42be
00000140: 4fd7 47be b7c7 8d3c a7f7 03be 93ba f13d
00000150: 0814 6fbb 5ae4 16be 06cc ecbd 074c e13d
00000160: 0ce9 343e a0b7 fa3c 45a9 883c d4db 40b9
00000170: be55 f23d 71ff 253e 6eae 503b 1ea6 0f3b
00000180: 5304 093e f34d 223d 0db8 f43d f257 9b3d
00000190: 3bc1 5d3e 1e7c 14be 341a 8bbd c83d 9cbd
000001a0: a417 ce3d 37c0 243d df4e 1ebc d5d6 683d
000001b0: 0d93 3e3e 0472 51be 4a47 9ebc b060 c5bd
000001c0: c940 a53d 8bb8 eb3d 132d ddbd cb98 48be
000001d0: 1c59 16be 81bb 44be 691c 1ebe 8b4f 233e
000001e0: 5115 17bd 5926 4ebe d620 2abe f5fc 963d
000001f0: 3c50 503e b5cb c43d 88f4 9cbc 644c c4bd
00000200: f28d 5fbd a96c fcbc 37e6 09bd 6b8d b83d
00000210: ac16 65bd c0c3 20be 2c74 58bd 1bc3 0bbe
00000220: 6d25 37be c9f0 edbd b7ff 5ebe a6eb 0d3d
00000230: b282 b2bd a8dd 513e 5796 f0bd f9e5 7fbd
00000240: 6a7c b23d f3b9 8e3d 486f 523e 0909 2dbe
00000250: 0e82 97bd 3716 303d 5134 bbbd d6f2 2abd
00000260: 5833 17be d793 12be e66c 04be afbc 0f3e
00000270: d6e1 293e 3479 48bd 7565 97bd c566 3ebe
00000280: 40ef cb3d 02f5 753d b68d 55bc beee 26be
00000290: 9d1b e93d cc88 d63d 01ea f63d 008d 7e3d
000002a0: c644 5f3c 197f 64bd 1d1f eabd 2265 08be
000002b0: b6a2 263e c7fb 0dbe 516e 04be e132 3ebe
000002c0: bf1c 96ba 51e0 4e3d 12bd f1bd ca1b 46be
000002d0: 3f60 413e 4f90 39bd c288 f33c 1fda 333e
000002e0: b637 7c3d 51d1 f33d 2f26 88bd e403 853b
000002f0: 6a5f 55bd d91a 83bc 279a a3bd 1e79 52be
00000300: 507a d73d e41a 25be 6568 133e 9743 343e
00000310: 2667 913d 4499 063d 8a6b ccbc 2c98 50be
00000320: 7d7c 99bd 53e5 313e 22b2 5dbe 8e07 513e
00000330: 76de d4bd d85c 80bd c564 923c 46ae cfba
00000340: a1fa 263b 264d 933d 57d9 38be 7262 e93d
00000350: 0894 50be acb2 7ebc c5be 353e 6f0e 2d3e
00000360: 3121 8d3c 87e9 2b3e 5df2 263d 5ad1 263e
00000370: 4cb4 433e bdf9 263e f6a3 d0bd f2bd 003c
00000380: b6fd 46be 1552 82bd bc50 8ebd 8bac 0abe
00000390: 83dd 03be 6077 edbc 5042 08be ef30 32be
000003a0: bac2 6a3c d17e 48be e107 bb3d e467 f63c
000003b0: 7c25 ca3d ef29 1dbe b13c 2c3d 28b9 a1bd
000003c0: 3881 cebd 8647 f5bc 2f59 63be 0ddf 54be
000003d0: 1025 9abd b864 5cbd 6c4e 463e 0328 3c3d
000003e0: 0623 263e 1eb7 3cbe 059e 2cbe d878 0cbe
000003f0: 5e51 49be f880 243e e988 233e e9cb 543d

transformer.layers.0.self_attn.out_proj.bias f4 [64]
0.0014925858 -0.000960058 -0.007772362 -0.0049582436 -0.0050246567 -0.0023056993 0.00081808615 -0.0002688757
-0.0009827268 0.0020750081 -0.0026811117 0.009233798 -0.004158532 0.00873981 0.0032195174 -0.0013532809
0.001045032 -0.0013357517 0.0037357423 -0.0052599907 -0.0017842276 -0.0006772677 0.0040974384 0.0015704975
0.0028436899 -0.0002442263 0.0033864363 2.1846447e-06 0.011448062 -0.00035399856 -0.0014630432 -0.0003147235
0.002302058 -0.0014207845 0.001769529 -0.00073219184 -0.0024859805 -0.00022566576 0.0011434625 0.0021107884
-0.002530124 -0.005922812 0.0005102271 -0.0005073096 -0.0043187495 0.0011600703 -0.0015457934 -0.001961936
0.0011794703 0.0054776743 0.00016245885 -0.0027154617 -0.0043013683 0.00079863967 -0.0013190882 -0.0034827942
-0.002131569 0.001562436 0.0026041053 0.0012355077 -0.0009474037 0.0069127907 0.0025639483 0.0009717983
00000000: dea2 c33a 67ac 7bba 4caf febb c378 a2bb
00000010: e0a5 a4bb 371b 17bb d574 563a e3f7 8cb9
00000020: d7ce 80ba dcfc 073b 97b5 2fbb 5b49 173c
00000030: 4b44 88bb 6c31 0f3c 8afe 523b 9260 b1ba
00000040: 75f9 883a 6414 afba 5bd3 743b 005c acbb
00000050: bedc e9ba aa8a 31ba ce43 863b 27d9 cd3a
00000060: 335d 3a3b 800b 80b9 f9ee 5d3b e99b 1236
00000070: a790 3b3c e298 b9b9 95c3 bfba 7901 a5b9
00000080: 20de 163b 9e39 baba 8aef e73a 90f0 3fba
00000090: d5eb 22bb b1a0 6cb9 3ce0 953a 2755 0a3b
000000a0: 70d0 25bb 2614 c2bb c3c0 053a f9fc 04ba
000000b0: 4c84 8dbb 800d 983a 389c caba d393 00bb
000000c0: 7598 9a3a 107e b33b b759 2a39 e3f5 31bb
000000d0: 7ef2 8cbb cd5b 513a 41e5 acba 973f 64bb
000000e0: cbb1 0bbb a7ca cc3a a3a9 2a3b c2f0 a13a
000000f0: 305b 78ba b184 e23b ea07 283b 48c0 7e3a

transformer.layers.0.linear1.weight f4 [256, 64]
0.0414214 -0.09465664 -0.11306728 0.13052565 0.01922659 0.09958245 0.058575053 -0.032534674
0.05107974 0.09991282 -0.11295193 -0.031835653 -0.05650135 0.11507755 -0.04436247 -0.12942562
0.075504035 0.1320652 0.013539804 0.087541826 0.039203074 -0.0036691728 0.044547252 -0.06205195
0.13160242 -0.12792188 0.0043365164 -0.084945455 -0.09542441 -0.1296821 0.07887843 0.040279295
0.08848523 -0.039735533 -0.05747122 -0.109741636 0.06993088 -0.11558032 0.123895444 -0.066123925
-0.034716293 0.08275732 0.118889645 -0.09464609 0.13111626 -0.07160295 -0.012173588 -0.035760913
-0.049144723 -0.12630332 0.13510694 0.0016183949 -0.036230255 -0.12154952 0.066296816 -0.09555317
0.12493321 0.0021910064 0.0905537 -0.021273868 0.0010776122 0.1293626 -0.11260678 -0.07804786
-0.015202005 -0.117307745 -0.05227167 0.12787557 -0.10975427 -0.08421873 0.12907203 0.08311255
0.027174471 -0.09749083 -0.08617338 0.13728872 -0.06789618 0.08600089 0.12181872 0.017082289
0.11259598 -0.08933485 -0.04526168 0.13040604 -0.091746755 -0.035185017 0.012272739 -0.012532773
0.10396116 -0.0753942 -0.12527324 0.075671986 -0.06272618 -0.026525846 0.13375211 -0.11696691
0.095009364 0.018534314 0.038602885 0.011459898 0.1261038 0.000861901 0.12719041 -0.028550768
0.12671702 -0.017207325 -0.06521788 0.008715396 0.10313396 -0.0125477845 -0.055781472 0.07598305
-0.013771773 0.0841347 0.121045016 -0.059327364 0.11120675 -0.034290645 0.12628493 0.058561437
0.09758513 0.12155185 -0.09847726 0.029490266 0.10850222 -0.04760463 -0.09282879 -0.025280032
0.0040437593 0.13688935 -0.08076425 0.013834943 -0.036000654 -0.0026205569 0.06653848 0.0057871896
0.03990778 0.13505843 -0.036090825 -0.12662393 -0.06868829 0.06145494 0.044095088 0.009477444
0.053024665 0.063611925 0.05975423 0.09144478 -0.11238045 -0.07949982 0.077534445 0.07249762
0.03750648 0.008844146 0.027286263 0.028795289 -0.07429053 0.022650786 -0.0014187547 -0.08355291
0.11795955 -0.042244397 0.10372944 0.10692173 0.016602295 -0.060378548 -0.10098694 -0.12508218
0.09985973 -0.13825412 -0.0879577 -0.10916989 -0.010070277 0.022772761 -0.012266692 0.022084156
-0.13034925 -0.098184384 -0.08531976 -0.102921255 -0.1278454 -0.13391107 -0.059444323 0.08377899
-0.054922666 -0.09992849 0.03282581 -0.043174252 0.004001105 0.121072225 0.00031629382 0.10033099
0.055798966 0.03837473 -0.12570034 0.023673324 -0.12408508 0.008770459 0.050750263 -0.018736484
0.11789217 0.0060439613 0.086048715 -0.06688813 -0.02677498 -0.00793715 0.040130068 0.121208005
0.092317015 0.10044559 -0.026360527 0.028522 -0.022038354 0.0018764402 -0.003177284 0.11244
-0.12397701 -0.06348091 -0.004760869 0.116172075 0.13221127 -0.079065196 0.09719717 -0.07060038
-0.07569707 0.008653488 -0.12247132 0.07962032 0.084806815 0.042934343 -0.08242912 0.051943596
0.002900998 -0.103304535 0.08590063 0.106722176 0.03553842 0.03886346 0.07885355 0.0056795864
-0.080205075 -0.07579156 -0.11982265 0.10160344 -0.11166411 0.13509412 0.073158324 0.007837418
0.08314729 -0.13208199 0.007605721 0.045691896 -0.100456275 0.0023932974 -0.015587543 0.054949947
00000000: 7ca9 293d 57db c1bd d18f e7bd 84a8 053e
00000010: 1581 9d3c e2f1 cb3d 65ec 6f3d 1443 05bd
00000020: fd38 513d 189f cc3d 5753 e7bd 1a66 02bd
00000030: f66d 67bd c7ad eb3d 6cb5 35bd 2688 04be
00000040: dca1 9a3d 1a3c 073e 0ed6 5d3c 2149 b33d
00000050: 6793 203d 8176 70bb 2e77 363d 2f2a 7ebd
00000060: c9c2 063e f4fd 02be 5619 8e3b e2f7 adbd
00000070: e06d c3bd 62cb 04be 048b a13d e7fb 243d
00000080: bf37 b53d bac1 22bd f166 6bbd 39c0 e0bd
00000090: ec37 8f3d 60b5 ecbd e5bc fd3d fb6b 87bd
000000a0: ac32 0ebd ab7c a93d 6a7c f33d cfd5 c1bd
000000b0: 5743 063e 91a4 92bd bb73 47bc 097a 12bd
000000c0: fa4b 49bd a855 01be 7959 0a3e 5220 d43a
000000d0: 2d66 14bd f4ee f8bd a0c6 873d 61b1 c3bd
000000e0: fcdc ff3d fd96 0f3b 3874 b93d 8946 aebc
000000f0: aa3e 8d3a a177 043e 629e e6bd 8ed7 9fbd
00000100: d511 79bc 0b3f f0bd d21a 56bd d0f1 023e
00000110: d9c6 e0bd df7a acbd 752b 043e ea36 aa3d
00000120: ff9c de3c 46a9 c7bd ab7b b0bd 6a95 0c3e
00000130: 270d 8bbd 3c21 b03d 187c f93d 28f0 8b3c
00000140: b998 e63d 31f5 b6bd 5064 39bd 2989 053e
00000150: b9e5 bbbd 2a1e 10bd 9913 493c 4356 4dbc
00000160: 97e9 d43d 4668 9abd a147 00be eaf9 9a3d
00000170: 9576 80bd bb4c d9bc 50f6 083e 598c efbd
00000180: 4594 c23d 46d5 973c 0f1e 1e3d 4cc2 3b3c
00000190: 5b21 013e 32f1 613a 343e 023e 4de3 e9bc
000001a0: 1bc2 013e 60f6 8cbc f490 85bd 05cb 0e3c
000001b0: e637 d33d 3995 4dbc 1d7b 64bd 009d 9b3d
000001c0: 01a3 61bc d04e ac3d 73e6 f73d 4001 73bd
000001d0: 5dc0 e33d 5974 0cbd d650 013e 1ede 6f3d
000001e0: b6da c73d 2df0 f83d 72ae c9bd 9295 f13c
000001f0: 6936 de3d 13fd 42bd 051d bebd 1218 cfbc
00000200: 8381 843b b92c 0c3e ba67 a5bd f5ab 623c
00000210: 6c75 13bd a6bd 2bbb 5445 883d 77a2 bd3b
00000220: 5776 233d c24c 0a3e f9d3 13bd b4a9 01be
00000230: 72ac 8cbd 2db8 7b3d 0d9d 343d 4847 1b3c
00000240: 6430 593d f846 823d dac0 743d 6747 bb3d
00000250: b927 e6bd cdd0 a2bd 61ca 9e3d a279 943d
00000260: 65a0 193d 09e7 103c 7187 df3c 19e4 eb3c
00000270: a225 98bd 248e b93c 82f5 b9ba ca1d abbd
00000280: c794 f13d 7608 2dbd 1a70 d43d c8f9 da3d
00000290: 8901 883c 7f4f 77bd 3ed2 cebd 8b15 00be
000002a0: 4283 cc3d 7d92 0dbe 2b23 b4bd 7794 dfbd
000002b0: cefd 24bc f18d ba3c 3cfa 48bc d5e9 b43c
000002c0: 467a 05be e514 c9bd 20bc aebd 61c8 d2bd
000002d0: e8e9 02be fc1f 09be e47b 73bd 5294 ab3d
000002e0: 97f6 60bd 4fa7 ccbd 5b74 063d 7cd7 30bd
000002f0: b41b 833b b7f4 f73d 3dd4 a539 567a cd3d
00000300: 758d 643d d22e 1d3d 97b7 00be 8fee c13c
00000310: 5220 febd f9b1 0f3c 82df 4f3d 417d 99bc
00000320: 7371 f13d 6c0c c63b 4f3a b03d a5fc 88bd
00000330: 3457 dbbc d20a 02bc 6d5f 243d e73b f83d
00000340: b410 bd3d 6bb6 cd3d 08f2 d7bc f8a6 e93c
00000350: c789 b4bc e3f2 f53a fb39 50bb f146 e63d
00000360: a9e7 fdbd 4802 82bd 1001 9cbb a0eb ed3d
00000370: 6462 073e efec a1bd 4f0f c73d ef96 90bd
00000380: 1107 9bbd 5cc7 0d3c 3ed2 fabd fa0f a33d
00000390: 32af ad3d ecdb 2f3d 99d0 a8bd cfc2 543d
000003a0: ac1e 3e3b 5491 d3bd abec af3d 2891 da3d
000003b0: bc90 113d 4b2f 1f3d f87d a13d d31b ba3b
000003c0: 8f42 a4bd 9b38 9bbd 9465 f5bd 7715 d03d
000003d0: 27b0 e4bd 1d56 0a3e 08d4 953d 8368 003c
000003e0: 2049 aa3d 8040 07be 6939 f93b 6d27 3b3d
000003f0: 05bc cdbd ded8 1c3b e562 7fbc 3213 613d

transformer.layers.0.linear1.bias f4 [256]
-0.022028783 0.10249326 -0.07845041 0.02780383 -0.059908736 -0.12006321 -0.003224371 -0.038280804
-0.03707879 -0.029238397 -0.057329316 0.123356335 0.107679985 -0.039499708 0.026393037 0.057955384
0.0067697857 0.09898512 -0.035080805 -0.090533815 -0.10337532 -0.09376939 -0.07122031 -0.0030341966
0.0138134165 0.07632111 0.10696222 -0.03833832 0.050920267 -0.056325316 0.059191972 -0.05237966
-0.046881992 -0.017427644 -0.027012207 0.12075904 -0.12053536 -0.051277686 0.11473204 0.03024202
-0.11292652 -0.09571042 0.017685823 -0.11940897 0.06434517 -0.04689395 0.095025614 0.059621796
-0.11011444 -0.056166966 0.08447908 -0.013036088 0.07830667 0.010221248 -0.089777015 -0.05312346
-0.09605364 -0.116547145 0.07575649 0.1083222 -0.008624982 0.060504973 -0.016573401 0.062660575
0.012396218 0.06996095 -0.08325509 -0.04358998 -0.031212965 0.11242029 -0.06955817 0.024049487
-0.026126038 -0.01863247 -0.07417861 -0.01151913 -0.11702741 0.012580332 -0.11741993 0.09378525
0.015009221 -0.0432457 0.022935526 -0.08424273 0.10056258 -0.08076374 0.062924355 0.032090697
0.101975754 0.11158367 -0.06371816 -0.08312481 -0.10906209 -0.10773507 -0.08228183 -0.10445087
-0.008795048 -0.0065530865 -0.007222491 0.009533688 -0.051047947 0.07851441 0.025424005 0.071117125
-0.062074505 -0.025427634 -0.043666493 0.07786648 -0.09883691 -0.021868296 -0.0045203683 -0.055895507
-0.056061015 0.062108863 0.079170346 0.050953336 0.072221115 -0.080813035 -0.018330969 -0.04189829
0.019286597 -0.08571435 -0.11153099 -0.12340826 -0.007787899 -0.077467956 0.1261637 -0.033358853
-0.05807647 0.12105341 -0.025297975 0.028683307 -0.0018937144 0.048708797 -0.07690724 0.004430045
0.011007215 -0.051812965 0.102040365 0.06200402 0.005212177 -0.017940536 0.121847555 -0.021592846
0.109914735 0.04107963 0.100188136 -0.0046764715 -0.11529433 -0.038808636 0.09513115 -0.07010291
0.0047497214 0.088016525 -0.059049577 -0.0014784365 0.0020132198 -0.070023865 0.033701874 0.10651543
-0.08748382 0.095952466 -0.032684658 0.077781126 -0.09165018 0.1190637 0.06353898 -0.078504875
0.114237025 -0.008044332 -0.081451714 0.12557271 0.08752646 -0.074288025 -0.029217767 -0.017629232
0.0072205677 -0.027376676 0.080341004 -0.073668934 -0.038327895 -0.055644907 -0.021979123 -0.09781068
0.085398294 0.083112404 0.110895574 0.01421683 0.0038195741 0.031391878 -0.016375948 0.008163222
0.08848141 0.03134231 -0.117304474 -0.001309462 -0.0597014 -0.02519449 0.104725406 0.052922927
-0.07993424 0.054343134 0.030854989 0.085186705 0.034232352 0.02805882 0.014980956 0.0021239151
-0.01910458 -0.12658323 0.03497555 0.1252795 0.10250281 -0.005312684 -0.046283722 -0.11446031
0.06809887 0.11286735 0.01124433 -0.029188927 0.043503266 0.08839907 -0.08767942 -0.06546367
-0.020333955 -0.08696608 -0.021335322 -0.045635287 0.04784153 0.11888639 -0.026849102 0.0983082
-0.039092466 0.07840931 0.05159035 -0.01634218 -0.09788859 0.02120607 0.113931336 -0.08411751
0.07199614 0.06356401 -0.06722398 0.13816953 0.025172483 -0.033567 -0.015004719 -0.05236649
0.008899912 -0.07458948 0.09997958 0.023036856 -0.11037092 -0.07748156 0.0022035893 0.058648106
00000000: b575 b4bc fce7 d13d 9caa a0bd dcc4 e33c
00000010: dd62 75bd b3e3 f5bd f84f 53bb 55cc 1cbd
00000020: eedf 17bd 5d85 efbc 25d2 6abd 3fa2 fc3d
00000030: 5387 dc3d 72ca 21bd 3636 d83c a062 6d3d
00000040: 14d5 dd3b b6b8 ca3d e4b0 0fbd cb69 b9bd
00000050: 71b6 d3bd 2a0a c0bd f4db 91bd 5fd9 46bb
00000060: ab51 623c 3e4e 9c3d 020f db3d a408 1dbd
00000070: c591 503d 60b5 66bd 4873 723d 0e8c 56bd
00000080: 5507 40bd 6bc4 8ebc b448 ddbc 8450 f73d
00000090: 3edb f6bd 8d08 52bd a2f8 ea3d 1dbe f73c
000000a0: 0546 e7bd d303 c4bd dce1 903c b18c f4bd
000000b0: 67c7 833d df13 40bd ca9c c23d fc35 743d
000000c0: ae83 e1bd 550f 66bd 5e03 ad3d 5195 55bc
000000d0: 3f5f a03d 0577 273c 03dd b7bd fc97 59bd
000000e0: c5b7 c4bd 45b0 eebd 3826 9b3d 08d8 dd3d
000000f0: cc4f 0dbc 10d4 773d f1c4 87bc 3054 803d
00000100: 8219 4b3c b047 8f3d a581 aabd 688b 32bd
00000110: 55b2 ffbc 9c3c e63d 8474 8ebd 6e03 c53c
00000120: 4606 d6bc 1fa3 98bc f5ea 97bd bcba 3cbc
00000130: 11ac efbd bd1d 4e3c dc79 f0bd 7b12 c03d
00000140: 3ce9 753c 6722 31bd 49e3 bb3c 7487 acbd
00000150: c1f3 cd3d 7667 a5bd 7cde 803d 8971 033d
00000160: aad8 d03d fb85 e43d ab7e 82bd 573d aabd
00000170: f25b dfbd 34a4 dcbd 6083 a8bd 56ea d5bd
00000180: 1b19 10bc 46bb d6bb a5aa ecbb 3033 1c3c
00000190: a717 51bd 2acc a03d 0146 d03c dba5 913d
000001a0: d641 7ebd 9d4d d0bc a3db 32bd 7678 9f3d
000001b0: 026b cabd 2425 b3bc 991f 94bb b0f2 64bd
000001c0: 3ca0 65bd dd65 7e3d 1024 a23d 72b4 503d
000001d0: aae8 933d 4e81 a5bd d42a 96bc 8b9d 2bbd
000001e0: edfe 9d3c 018b afbd 5c6a e4bd 78bd fcbd
000001f0: a231 ffbb 85a7 9ebd 0f31 013e 4ba3 08bd
00000200: 98e1 6dbd daea f73d b33d cfbc 41f9 ea3c
00000210: 8336 f8ba e082 473d 8b81 9dbd e929 913b
00000220: 9b57 343c d539 54bd 8afa d03d edf7 7d3d
00000230: e9ca aa3b 08f8 92bc 368b f93d 7be3 b0bc
00000240: fa1a e13d 1d43 283d 702f cd3d 163d 99bb
00000250: 6f1f ecbd cef5 1ebd 1fd4 c23d 1d92 8fbd
00000260: 8da3 9b3b 0242 b43d f8dd 71bd 19c8 c1ba
00000270: 39f0 033b ac68 8fbd fa0a 0a3d c324 da3d
00000280: b82a b3bd ba82 c43d 59e0 05bd b64b 9f3d
00000290: 17b3 bbbd abd7 f33d ba20 823d 2ac7 a0bd
000002a0: 1af5 e93d 60cc 03bc 28d0 a6bd 2296 003e
000002b0: 1341 b33d 5224 98bd 195a efbc 2e6b 90bc
000002c0: 839a ec3b 0d45 e0bc d389 a43d bddf 96bd
000002d0: b6fd 1cbd eaeb 63bd 900d b4bc f750 c8bd
000002e0: 4de5 ae3d d636 aa3d 381d e33d b5ed 683c
000002f0: d251 7a3b c594 003d da26 86bc 09bf 053c
00000300: be35 b53d cb60 003d 543d f0bd 41a2 abba
00000310: 7589 74bd ad64 cebc 467a d63d b6c5 583d
00000320: 90b4 a3bd e896 5e3d 9ac3 fc3c 5e76 ae3d
00000330: 3937 0c3d 9cdb e53c af72 753c 6231 0b3b
00000340: 3581 9cbc 099f 01be 8642 0f3d 4549 003e
00000350: feec d13d 0616 aebb 0094 3dbd 2b6a eabd
00000360: 6c77 8b3d ff26 e73d 233a 383c 9e1d efbc
00000370: 7b30 323d 920a b53d 4591 b3bd d111 86bd
00000380: 6593 a6bc 461b b2bd 6ac7 aebc 11ec 3abd
00000390: 7bf5 433d b57a f33d a6f2 dbbc cf55 c93d
000003a0: 6c1f 20bd 0f95 a03d 6750 533d 09e0 85bc
000003b0: d079 c8bd 5ab8 ad3c d554 e93d cd45 acbd
000003c0: b672 933d d92d 823d baac 89bd 507c 0d3e
000003d0: 8636 ce3c 8d7d 09bd 5ad6 75bc 3f7e 56bd
000003e0: f0d0 113c 5fc2 98bd 18c2 cc3d cab7 bc3c
000003f0: 260a e2bd a7ae 9ebd 186a 103b ff38 703d
