td_best_model.pth (torch, 456913 bytes, 33 tensors)

input.weight f4 [64, 10]
0	0xbe839815	-0.25701967
1	0x3e71f56b	0.23628776
2	0x3e1893ec	0.14900178
3	0xbe94bab1	-0.29048684
4	0x3d317b6e	0.043330602
5	0xbda1f4ae	-0.07907997
6	0x3e3b636b	0.18299644
7	0x3e84d123	0.2594081
8	0xbdaddf2b	-0.084898315
9	0x3e5f814f	0.21826671
10	0xbc62a1bc	-0.013832506
11	0x3e430d0b	0.19047944
12	0xbe474cc9	-0.19462885
13	0x3e632394	0.2218154
14	0xbd906a27	-0.07051497
15	0xbe1ca5ac	-0.15297574
16	0x3e8d2df6	0.27574128
17	0x3dffd4ff	0.12491798
18	0xbd95d74f	-0.073164575
19	0xbda76f1a	-0.08175488
20	0x3e4217b6	0.18954358
21	0x3d65f71e	0.056143872
22	0x3e56a1bb	0.20960133
23	0xbe89b17c	-0.26893222
24	0xbd30fdf0	-0.043210924
25	0xbe307d49	-0.17235292
26	0xbdd032d8	-0.10165948
27	0x3e682e2f	0.22673868
28	0x3e310613	0.17287473
29	0x3e47b2de	0.19501826
30	0xbc33ed52	-0.010981875
31	0xbe8931f4	-0.26795924
32	0x3e2560e6	0.16150245
33	0xbe512d45	-0.20427425
34	0x3e54d22a	0.20783296
35	0xbdb73db2	-0.08947314
36	0x3d047dfa	0.032346703
37	0xbe0b7a2b	-0.13620822
38	0xbd7a74e9	-0.06114665
39	0x3d9b44b8	0.075814664
40	0xbe0b40c5	-0.13598926
41	0xbd4d7bcd	-0.050166894
42	0xbe8981a2	-0.26856714
43	0xbe095583	-0.13411526
44	0x3e5b132f	0.21394037
45	0x3dde144a	0.108437136
46	0xbe41d7f7	-0.1893004
47	0xbdd68aa4	-0.10475662
48	0xbe7be043	-0.24597268
49	0x3e3d6201	0.18494417
50	0x3e2bac07	0.16764842
51	0xbe5f9e5b	-0.21837752
52	0x3e73a011	0.23791529
53	0x3d501308	0.0507994
54	0xbe46793e	-0.19382188
55	0xbe2fd226	-0.17170009
56	0xbcf4875f	-0.029849706
57	0xbdefe0c6	-0.11712794
58	0xbdb4f82a	-0.08836396
59	0x3e360a85	0.1777745
60	0xbd32dd59	-0.043668125
61	0x3d0546da	0.032538272
62	0xbe6f7aa7	-0.23386632
63	0x3dd1a496	0.102364704
64	0x3de59198	0.112094104
65	0x3e09b4d9	0.13447894
66	0x3e91b24e	0.28456348
67	0x3e4c8eb7	0.19976316
68	0x3e832b74	0.2561909
69	0xbcbb9b4a	-0.022901196
70	0xbd5518db	-0.052025657
71	0x3c07ba50	0.008284166
72	0x3ca570f5	0.020195464
73	0x3d8d5061	0.06900097
74	0x3da7a0e8	0.08184987
75	0x3e265014	0.16241485
76	0xbe3d0314	-0.18458205
77	0xbe77c527	-0.24196301
78	0xbca8162a	-0.020518381
79	0xbdbd4ff9	-0.09243769
80	0x3e5008d5	0.20315869
81	0xbd0d289a	-0.03446255
82	0xbe88e3d6	-0.26736325
83	0x3cc6398e	0.024197366
84	0x3e6d8d3f	0.23198412
85	0x3e249022	0.16070607
86	0x3ca00a56	0.019536179
87	0xbd8b984b	-0.06816157
88	0xbc0125da	-0.00788256
89	0xbd608f30	-0.054824054
90	0x3e1cd1e4	0.15314442
91	0x3cbf9cf9	0.02339028
92	0xbe4fd45e	-0.20295855
93	0xbba4f689	-0.005034272
94	0xbc2e8055	-0.010650714
95	0x3de15100	0.11001778
96	0x3e0020be	0.1251249
97	0x3e54ad23	0.20769171
98	0x3e836387	0.2566187
99	0xba0540fc	-0.0005083231
100	0x3e4158bb	0.18881504
101	0xbd74a3e4	-0.05972661
102	0xbdb3b007	-0.08773809
103	0x3d25cc35	0.04047795
104	0x3d8b1695	0.067914166
105	0x3e4cecee	0.20012257
106	0xbe08ae7c	-0.1334781
107	0xbe8b73ec	-0.2723688
108	0x3c6b44b6	0.014359644
109	0x3e8c67ce	0.27422947
110	0xbd40bdf5	-0.047056157
111	0xbc2dd93d	-0.010610876
112	0x3e688cde	0.22709987
113	0xbe84a1c2	-0.2590466
114	0x3e3f00d3	0.18652658
115	0xb99970b3	-0.00029266402
116	0xbdc2f31e	-0.09519027
117	0x3e30d943	0.17270379
118	0x3da616dd	0.081098296
119	0xbe2d1aa2	-0.16904691
120	0xbd580467	-0.052738573
121	0x3da498cf	0.080369584
122	0x3a854d10	0.0010170061
123	0xbe6d90fc	-0.23199838
124	0xbe8838f7	-0.2660596
125	0xbdfc959e	-0.12333225
126	0xbd3495c2	-0.044088133
127	0xbdbb8ada	-0.09157343
128	0x3dd0ea5f	0.10200953
129	0x3e255a94	0.16147834
130	0xbe4d7aa8	-0.20066321
131	0xbda156c0	-0.078778744
132	0xbdb002bf	-0.08594274
133	0xbd8b64a1	-0.06806303
134	0x3d1e5d66	0.03866329
135	0x3e80a534	0.2512604
136	0x3e7c0d9a	0.24614564
137	0x3e0c9173	0.1372736
138	0x3e339286	0.17536363
139	0x3e273ecf	0.16332553
140	0xbd655730	-0.05599135
141	0x3dd86d0d	0.10567675
142	0x3e8e60dc	0.27808273
143	0x3d581ed7	0.052763786
144	0x3d1c62b7	0.03818008
145	0x3e2e061c	0.16994518
146	0x3e628f3b	0.2212495
147	0x3dfde4ed	0.1239718
148	0xbc73a766	-0.014871454
149	0xbdd08af4	-0.10182753
150	0xbe844b58	-0.25838733
151	0xbd080243	-0.033205282
152	0xbe7f60d1	-0.24939276
153	0xbd86e8f0	-0.06587398
154	0x3e69babe	0.22825143
155	0xbbef8f3e	-0.007310777
156	0x3e5bc58d	0.21462078
157	0xbe8decb5	-0.27719656
158	0xbdb74d02	-0.08950235
159	0x3c2ebe80	0.010665536
160	0xbe486e0d	-0.19573231
161	0xbe65aeb9	-0.22429933
162	0xbe585d2f	-0.21129297
163	0x3d230d6a	0.039807715
164	0xbbb900ec	-0.005645862
165	0x3e7b09cb	0.24515454
166	0xbcc8ac5e	-0.024496254
167	0x3e1f3fac	0.15551633
168	0x3e68bb35	0.22727664
169	0xbe15b440	-0.14619541
170	0x3e81629e	0.2527055
171	0xbda0979e	-0.07841419
172	0x3d426d1c	0.047467336
173	0xbd2da0bb	-0.042389613
174	0xbd325432	-0.043537326
175	0x3dd6184f	0.10453855
176	0x3e600b21	0.21879245
177	0xbe740d2c	-0.2383315
178	0xbe7d145a	-0.24714795
179	0x3ddf19d9	0.10893602
180	0xbe3f965b	-0.187097
181	0x3d02829d	0.031862844
182	0xbe822935	-0.25422063
183	0xbcf1dc38	-0.029523954
184	0x3da7173d	0.08158729
185	0xbcb5237f	-0.022111652
186	0x3e12c51d	0.14333005
187	0xbc27817d	-0.0102237435
188	0xbd9d9ff5	-0.07696525
189	0x3de3c4fd	0.11121557
190	0xbe2e76c1	-0.17037489
191	0x3daa6a98	0.083211124
192	0xbdaa2a75	-0.08308879
193	0xbe5b2477	-0.21400629
194	0xbe625bdd	-0.22105356
195	0x3c42e59e	0.011895565
196	0xbda32cf6	-0.0796756
197	0x3d56d42b	0.052448433
198	0x3b952b44	0.004552277
199	0xbd329e4b	-0.04360799
200	0xbe3a7f4c	-0.18212622
201	0xbe2a1982	-0.16611293
202	0xbdf607b1	-0.12013186
203	0x3c079418	0.008275054
204	0x3c43938d	0.011937034
205	0x3d1879fc	0.03722571
206	0x3dcda40d	0.10041056
207	0xbe23387a	-0.15939513
208	0x3e3ac47b	0.18239014
209	0x3cf62524	0.030047007
210	0xbd8aef86	-0.06783967
211	0x3d4d01a4	0.050050393
212	0x3dc65312	0.09683813
213	0xbda7d293	-0.08194461
214	0x3e56b141	0.20966054
215	0xbe2be777	-0.16787516
216	0x3da946e8	0.082654774
217	0x3e6f0c37	0.23344503
218	0x3d90d048	0.070709765
219	0x3e111cbc	0.14171118
220	0xbbc99dd9	-0.00615285
221	0x3e6766f5	0.22597869
222	0xbe42ae90	-0.19011903
223	0x3dfd9ba3	0.12383201
224	0xbd0aa7ea	-0.03385154
225	0xbe00320a	-0.12519088
226	0x3e36350e	0.17793676
227	0x3e2c14e1	0.1680484
228	0xbe22b87b	-0.15890686
229	0x3e080f6a	0.1328713
230	0xbe788404	-0.2426911
231	0xbe832f3a	-0.25621969
232	0x3e78cecf	0.24297641
233	0x3e0a714e	0.13519785
234	0xbe6f1f36	-0.2335175
235	0x3e5cecbf	0.21574686
236	0x3e8c76f3	0.274345
237	0x3dcfe2fc	0.10150716
238	0x3e8be0ec	0.2732004
239	0x3e43ab05	0.19108208
240	0x3ddb4994	0.10707393
241	0x3dcfc34e	0.10144673
242	0x3e22f80f	0.1591494
243	0x3e484a51	0.195596
244	0x3e5df921	0.21677066
245	0x3e1e5c12	0.1546481
246	0xbe61aa06	-0.22037515
247	0x3e03f1a8	0.12885153
248	0xbe2b2644	-0.16713816
249	0x3e1290b4	0.14313012
250	0xbdda70b1	-0.106660254
251	0xbd0f3371	-0.034961168
252	0x3c364e92	0.011127131
253	0x3defeb25	0.11714772
254	0x3e3b4a5d	0.18290086
255	0x3e6b97b5	0.2300709

input.bias f4 [64]
0	0xbe61455d	-0.21999116
1	0xbe84f167	-0.25965425
2	0xbe0577af	-0.13033937
3	0x3e233b78	0.15940654
4	0xbe3bf74f	-0.1835606
5	0x3e5bd0ba	0.21466342
6	0x3dc81b98	0.09770888
7	0xbd760886	-0.060066722
8	0xbea461e7	-0.32105944
9	0x3e860715	0.26177278
10	0xbea45a53	-0.32100162
11	0xbe970474	-0.29495585
12	0x3e977137	0.29578564
13	0xbe1c515c	-0.15265411
14	0x3e75f5fc	0.24019617
15	0x3e2b90ba	0.16754428
16	0x3daa9ab1	0.08330286
17	0xbe7c0a66	-0.24613342
18	0x3e64d771	0.2234781
19	0xbe18223d	-0.14856811
20	0xbe7c5588	-0.24642003
21	0x3e1776ac	0.14791363
22	0xbe8a6162	-0.27027422
23	0x3e8f2955	0.2796122
24	0x3e9a72c4	0.30165684
25	0x3d7f83ab	0.062381428
26	0x3ea1d24a	0.3160575
27	0xbdf3c99f	-0.119036905
28	0x3d9cb68b	0.07652005
29	0xbe1d8332	-0.15382078
30	0x3e58466d	0.21120615
31	0xbe968a38	-0.29402328
32	0x3bcfe37a	0.006344256
33	0xbe9fb020	-0.3118906
34	0xbe9f68c0	-0.31134605
35	0xbe831d49	-0.2560828
36	0x3d5d134c	0.05397348
37	0x3e9f6b5c	0.31136596
38	0x3e635a16	0.22202334
39	0xbde17f8b	-0.11010655
40	0xbe8c2f99	-0.27380064
41	0x3e8c5764	0.27410424
42	0x3e497aab	0.196757
43	0x3e98568e	0.29753536
44	0xbdb27d0d	-0.08715258
45	0xbe11aa20	-0.14225054
46	0x3e2999ca	0.16562572
47	0xbe71cc3c	-0.23613065
48	0xbe871837	-0.26385662
49	0x3aa8ae2a	0.0012869288
50	0x3e2b4f0e	0.16729376
51	0x3e4c23fe	0.19935605
52	0xbe86a6f6	-0.26299256
53	0x3e753efa	0.23949805
54	0x3ddd7b86	0.10814576
55	0x3e50a9ca	0.2037727
56	0x3e0285e1	0.12746383
57	0xbda2eeef	-0.07955729
58	0x3e674414	0.22584563
59	0x3e518a61	0.20462944
60	0xbd734c36	-0.059398852
61	0xbe99caec	-0.3003763
62	0x3cac3936	0.021023374
63	0x3c8ce714	0.01720003

pe.pe f4 [1, 24, 64]
0	0x00000000	0.0
1	0x3f800000	1.0
2	0x00000000	0.0
3	0x3f800000	1.0
4	0x00000000	0.0
5	0x3f800000	1.0
6	0x00000000	0.0
7	0x3f800000	1.0
8	0x00000000	0.0
9	0x3f800000	1.0
10	0x00000000	0.0
11	0x3f800000	1.0
12	0x00000000	0.0
13	0x3f800000	1.0
14	0x00000000	0.0
15	0x3f800000	1.0
16	0x00000000	0.0
17	0x3f800000	1.0
18	0x00000000	0.0
19	0x3f800000	1.0
20	0x00000000	0.0
21	0x3f800000	1.0
22	0x00000000	0.0
23	0x3f800000	1.0
24	0x00000000	0.0
25	0x3f800000	1.0
26	0x00000000	0.0
27	0x3f800000	1.0
28	0x00000000	0.0
29	0x3f800000	1.0
30	0x00000000	0.0
31	0x3f800000	1.0
32	0x00000000	0.0
33	0x3f800000	1.0
34	0x00000000	0.0
35	0x3f800000	1.0
36	0x00000000	0.0
37	0x3f800000	1.0
38	0x00000000	0.0
39	0x3f800000	1.0
40	0x00000000	0.0
41	0x3f800000	1.0
42	0x00000000	0.0
43	0x3f800000	1.0
44	0x00000000	0.0
45	0x3f800000	1.0
46	0x00000000	0.0
47	0x3f800000	1.0
48	0x00000000	0.0
49	0x3f800000	1.0
50	0x00000000	0.0
51	0x3f800000	1.0
52	0x00000000	0.0
53	0x3f800000	1.0
54	0x00000000	0.0
55	0x3f800000	1.0
56	0x00000000	0.0
57	0x3f800000	1.0
58	0x00000000	0.0
59	0x3f800000	1.0
60	0x00000000	0.0
61	0x3f800000	1.0
62	0x00000000	0.0
63	0x3f800000	1.0
64	0x3f576aa4	0.84147096
65	0x3f0a5141	0.54030234
66	0x3f2e7ace	0.68156135
67	0x3f3b54b0	0.731761
68	0x3f087dba	0.53316844
69	0x3f58940d	0.8460091
70	0x3ed190f1	0.40930894
71	0x3f6992c6	0.91239583
72	0x3e9f393e	0.3109836
73	0x3f734e6b	0.9504153
74	0x3e708f25	0.23492105
75	0x3f78d5f1	0.9720145
76	0x3e35233a	0.17689219
77	0x3f7bf683	0.9842302
78	0x3e0825f3	0.13295726
79	0x3f7dba28	0.99112177
80	0x3dcc7576	0.099833414
81	0x3f7eb898	0.9950042
82	0x3d996f36	0.07491915
83	0x3f7f47d1	0.9971896
84	0x3d6636ae	0.05620449
85	0x3f7f9868	0.9984193
86	0x3d2cacfa	0.04215715
87	0x3f7fc5bd	0.999111
88	0x3d01815b	0.031617504
89	0x3f7fdf3c	0.99950004
90	0x3cc23ea5	0.023711512
91	0x3f7fed93	0.99971884
92	0x3c91ab42	0.017781857
93	0x3f7ff5a3	0.99984187
94	0x3c5a7a49	0.013334819
95	0x3f7ffa2c	0.99991107
96	0x3c23d657	0.009999833
97	0x3f7ffcb9	0.99995
98	0x3bf5b916	0.0074988706
99	0x3f7ffe28	0.99997187
100	0x3bb8445a	0.0056233825
101	0x3f7ffef7	0.9999842
102	0x3b8a2e5a	0.0042169513
103	0x3f7fff6b	0.9999911
104	0x3b4f3e1c	0.0031622713
105	0x3f7fffac	0.999995
106	0x3b1b6903	0.0023713715
107	0x3f7fffd1	0.9999972
108	0x3ae91520	0.0017782785
109	0x3f7fffe6	0.99999845
110	0x3aaec98b	0.0013335211
111	0x3f7ffff1	0.9999991
112	0x3a83126d	0.0009999998
113	0x3f7ffff8	0.9999995
114	0x3a449489	0.000749894
115	0x3f7ffffb	0.9999997
116	0x3a136a13	0.0005623411
117	0x3f7ffffd	0.9999998
118	0x39dd1721	0.00042169637
119	0x3f7fffff	0.99999994
120	0x39a5cb61	0.00031622782
121	0x3f7fffff	0.99999994
122	0x3978a80d	0.00023713727
123	0x3f800000	1.0
124	0x393a7753	0.00017782794
125	0x3f800000	1.0
126	0x390bd46d	0.00013335208
127	0x3f800000	1.0
128	0x3f68c7b7	0.9092974
129	0xbed51133	-0.41614684
130	0x3f7f5ad9	0.99748
131	0x3d914d53	0.070948265
132	0x3f66f20a	0.9021307
133	0x3edce8b2	0.43146282
134	0x3f3f3512	0.74690354
135	0x3f2a3902	0.66493237
136	0x3f17541b	0.5911271
137	0x3f4e7bec	0.8065784
138	0x3ee9d3b5	0.45669332
139	0x3f63be69	0.8896242
140	0x3eb247f6	0.34820527
141	0x3f6ffaa6	0.93741834
142	0x3e86f082	0.26355368
143	0x3f76f2f5	0.96464473
144	0x3e4b6ff8	0.19866931
145	0x3f7ae5a5	0.9800666
146	0x3e1900d3	0.1494172
147	0x3f7d204f	0.98877424
148	0x3de5d986	0.1122313
149	0x3f7e61f3	0.9936821
150	0x3dac85ae	0.08423935
151	0x3f7f170e	0.99644554
152	0x3d8170c8	0.063203394
153	0x3f7f7cf9	0.9980007
154	0x3d4230aa	0.04740969
155	0x3f7fb64e	0.9988755
156	0x3d11a55c	0.03555809
157	0x3f7fd68e	0.9993676
158	0x3cda7550	0.026667267
159	0x3f7fe8b1	0.99964434
160	0x3ca3d43e	0.019998666
161	0x3f7ff2e5	0.9998
162	0x3c75b751	0.014997319
163	0x3f7ff8a1	0.9998875
164	0x3c38439b	0.011246587
165	0x3f7ffbdb	0.99993676
166	0x3c0a2e0a	0.008433828
167	0x3f7ffdab	0.9999644
168	0x3bcf3dd8	0.006324511
169	0x3f7ffeb1	0.99998003
170	0x3b9b68e7	0.00474273
171	0x3f7fff43	0.99998873
172	0x3b691508	0.0035565514
173	0x3f7fff96	0.9999937
174	0x3b2ec980	0.0026670396
175	0x3f7fffc4	0.9999964
176	0x3b031268	0.0019999985
177	0x3f7fffdf	0.99999803
178	0x3ac49485	0.0014997876
179	0x3f7fffed	0.99999887
180	0x3a936a12	0.0011246821
181	0x3f7ffff5	0.99999934
182	0x3a5d171f	0.0008433926
183	0x3f7ffffa	0.99999964
184	0x3a25cb60	0.0006324556
185	0x3f7ffffd	0.9999998
186	0x39f8a80c	0.0004742745
187	0x3f7ffffe	0.9999999
188	0x39ba7753	0.00035565588
189	0x3f7fffff	0.99999994
190	0x398bd46d	0.00026670416
191	0x3f800000	1.0
192	0x3e1081c3	0.14112
193	0xbf7d7026	-0.9899925
194	0x3f473cde	0.7782725
195	0xbf20bfce	-0.6279267
196	0x3f7e45d7	0.9932532
197	0xbded7fab	-0.11596616
198	0x3f742163	0.95363444
199	0x3e9a1863	0.3009673
200	0x3f5009c2	0.8126489
201	0x3f152f58	0.58275366
202	0x3f2724b7	0.652904
203	0x3f41e7a2	0.7574407
204	0x3f022f6c	0.5085361
205	0x3f5c6d29	0.86104065
206	0x3ec768a7	0.3894703
207	0x3f6bc937	0.92103904
208	0x3e974e6c	0.2955202
209	0x3f7490ef	0.9553365
210	0x3e646de2	0.22307542
211	0x3f798c92	0.9748012
212	0x3e2beed7	0.16790329
213	0x3f7c5d9e	0.9858035
214	0x3e01332c	0.12617177
215	0x3f7df443	0.9920084
216	0x3dc1ffc0	0.094726086
217	0x3f7ed94f	0.99550337
218	0x3d919306	0.071081206
219	0x3f7f5a3a	0.9974705
220	0x3d5a694e	0.053323083
221	0x3f7fa2c3	0.9985773
222	0x3d23d1c5	0.039994974
223	0x3f7fcb90	0.99919987
224	0x3cf5b91f	0.0299955
225	0x3f7fe283	0.99955004
226	0x3cb84747	0.022494925
227	0x3f7fef6b	0.999747
228	0x3c8a31c6	0.016869437
229	0x3f7ff6ad	0.9998577
230	0x3c4f4446	0.012650555
231	0x3f7ffac1	0.99991995
232	0x3c1b6e0d	0.009486687
233	0x3f7ffd0d	0.999955
234	0x3be91d13	0.0071140616
235	0x3f7ffe58	0.9999747
236	0x3baecfa8	0.005334813
237	0x3f7fff11	0.99998575
238	0x3b831713	0.0040005534
239	0x3f7fff7a	0.999992
240	0x3b449b92	0.0029999954
241	0x3f7fffb5	0.9999955
242	0x3b136f60	0.0022496805
243	0x3f7fffd6	0.9999975
244	0x3add1f17	0.0016870227
245	0x3f7fffe8	0.99999857
246	0x3aa5d156	0.0012650888
247	0x3f7ffff3	0.9999992
248	0x3a78b110	0.00094868336
249	0x3f7ffff9	0.9999996
250	0x3a3a7e09	0.00071141176
251	0x3f7ffffc	0.99999976
252	0x3a0bd97e	0.0005334838
253	0x3f7ffffe	0.9999999
254	0x39d1bea4	0.00040005625
255	0x3f7fffff	0.99999994

transformer.layers.0.self_attn.in_proj_weight f4 [192, 64]
0	0xbd1f2e2d	-0.038862396
1	0x3d747bb5	0.05968829
2	0x3c9ddc33	0.019270038
3	0xbdb9c839	-0.090713926
4	0xbe14298c	-0.14468974
5	0x3e06b9d0	0.1315682
6	0x3b74216f	0.0037251373
7	0xbbfbabf0	-0.0076804087
8	0x3e162e4b	0.14666097
9	0x3d251e50	0.04031211
10	0x3d8e1d7e	0.06939219
11	0xbd619658	-0.05507502
12	0x3b0cba81	0.002147347
13	0xbca9a589	-0.020708816
14	0xbdd173f6	-0.10227196
15	0x3dcc990e	0.0999013
16	0x3d9399e3	0.07207086
17	0x3da6583e	0.081222996
18	0x3b924aa3	0.004464464
19	0x3c4fb902	0.012678387
20	0xbd258609	-0.04041103
21	0xbdbf1de3	-0.09331872
22	0x3de25a70	0.11052406
23	0xbdfbc5df	-0.122936
24	0xbde6be67	-0.11266785
25	0xbd68ddd8	-0.05685219
26	0xbdfc5c9c	-0.12322351
27	0x3a5779b9	0.0008219737
28	0x3e1ca19e	0.15296027
29	0x3d644650	0.055731118
30	0xbdcc09bc	-0.09962794
31	0x3cad875b	0.021182707
32	0xbd0af557	-0.03392538
33	0x3c8e3a72	0.017361853
34	0x3db92005	0.0903931
35	0x3df2f907	0.118639044
36	0x3dab20f8	0.08355898
37	0xbccbb63d	-0.024867171
38	0xbdd87e44	-0.10570958
39	0x3e1734fb	0.14766304
40	0xbe11b1e2	-0.14228013
41	0x3ceb4121	0.02871758
42	0x3cc55d03	0.024092203
43	0xbd8baaf5	-0.06819717
44	0x3d864ff1	0.06558216
45	0x3dfd739f	0.123755686
46	0x3d4067ec	0.046974108
47	0x3e1108da	0.14163533
48	0xbe08cc71	-0.13359238
49	0xbd90ea07	-0.07075887
50	0xbdea8ab0	-0.11452234
51	0xbba060a7	-0.0048943344
52	0x3e1037b8	0.14083755
53	0xbdd935b2	-0.10605945
54	0x3e0e11c9	0.13873972
55	0x3da7f912	0.08201803
56	0xbdb7df25	-0.08978108
57	0x3ac6406c	0.00151254
58	0xbdfd2068	-0.123596966
59	0xbd964ee0	-0.07339263
60	0x3d37948c	0.0448194
61	0xbd098b6e	-0.033580236
62	0x3de9d499	0.11417503
63	0x3ccae758	0.024768516
64	0xbd28a0ee	-0.0411691
65	0xbe07b554	-0.13252765
66	0xbd7a6571	-0.0611319
67	0xbd3f068f	-0.046637114
68	0xbdfbc84c	-0.12294063
69	0xbbdc291e	-0.0067187687
70	0xbdc9d805	-0.098556556
71	0x3e07bceb	0.1325566
72	0xbd928cdd	-0.07155774
73	0x3d647f81	0.05578566
74	0x3d1c9122	0.038224347
75	0x3dc15fdd	0.094421126
76	0x3cc80b03	0.024419313
77	0x3db20309	0.08691985
78	0x3dda3ed9	0.106565185
79	0xbc46daa5	-0.01213709
80	0x3d65fa08	0.05614665
81	0x3c7b4479	0.015336149
82	0xbd2cb439	-0.04216406
83	0x3db65a0e	0.08903895
84	0xbde67fd9	-0.11254854
85	0xbe08f016	-0.13372836
86	0x3dbc270c	0.09187135
87	0x3e0f57ae	0.13998291
88	0x3dbab0bd	0.091157414
89	0xbd47731b	-0.048693758
90	0xbd06bb39	-0.032893393
91	0x3da2ce8d	0.07949553
92	0x3e01e7dc	0.12686104
93	0x3cc28b73	0.023748135
94	0x3d5b61b9	0.053559992
95	0x3e1704a5	0.14747865
96	0x3e09afb0	0.13445926
97	0x3c73ac1c	0.014872577
98	0x3d881d72	0.06646241
99	0xbcdb7f77	-0.026794178
100	0xbd9f7ed2	-0.07787861
101	0x3e136e0f	0.14397453
102	0x3bd97097	0.006635736
103	0xbd8610ab	-0.06546148
104	0xbd8bee18	-0.06832522
105	0x3d8090f0	0.06277645
106	0xbdb6063e	-0.08887909
107	0xbdb3a2cd	-0.08771286
108	0xbd8c1a4b	-0.068409525
109	0xbdd51c55	-0.104057945
110	0x3ca6c04c	0.020355366
111	0x3d4a47b5	0.04938479
112	0xbd35abf7	-0.04435345
113	0x3dde2e80	0.10848713
114	0x3c431240	0.011906207
115	0x3d7c030d	0.061526347
116	0x3c82abfa	0.015951145
117	0x3ddf1e7c	0.10894486
118	0xbde7d3dd	-0.113197066
119	0x3c68a3af	0.014199181
120	0x3e013d3f	0.1262102
121	0xbd8adec4	-0.067807704
122	0xbe053a17	-0.13010441
123	0x3dbc79a9	0.09202892
124	0xbccc876b	-0.024966916
125	0x3da162c4	0.07880166
126	0xbd215324	-0.03938593
127	0xbd7f4da1	-0.062329892
128	0x3d74118e	0.059587054
129	0x3d9a81fe	0.07544325
130	0xbe0d5fbf	-0.13806055
131	0xbdc72379	-0.09723563
132	0xbdb07718	-0.08616465
133	0x3d6c89c8	0.057748586
134	0xbce8718b	-0.028374454
135	0x3de01bb1	0.10942782
136	0x3de14b24	0.1100066
137	0xbe0b6fc9	-0.13616861
138	0x3e0dc940	0.13846302
139	0xbd58693c	-0.052834734
140	0xbb9517b1	-0.0045499434
141	0x3cde003f	0.027099727
142	0xbe05c33b	-0.13062756
143	0xbce3adc7	-0.027792824
144	0x3bb951cc	0.005655503
145	0xbd41678a	-0.047217883
146	0xbdf793a3	-0.12088706
147	0x3d02753f	0.031850096
148	0x3b218970	0.002464857
149	0xbe1521f5	-0.14563735
150	0x3be1a1ce	0.0068857437
151	0x3e0bab56	0.13639578
152	0x3e12b461	0.14326622
153	0x3ce6e18b	0.02818372
154	0xbe1168de	-0.1420016
155	0xbd9f6b5a	-0.077841476
156	0x3ccc319e	0.024926003
157	0xbde9d53a	-0.11417623
158	0x3d42a327	0.047518875
159	0xbde9476d	-0.113905765
160	0x3cdd5658	0.027018711
161	0xbbd8bbed	-0.0066141994
162	0xbdadc536	-0.084848806
163	0x3e034eeb	0.12823074
164	0x3e1287c7	0.14309607
165	0xbd947d0b	-0.072504126
166	0xbdfdeac3	-0.12398293
167	0xbdb4325f	-0.0879867
168	0x3cd0c4f4	0.02548454
169	0x38b83d6f	8.7852466e-05
170	0x3df211ef	0.11819827
171	0xbdae5b42	-0.085135
172	0xbd5bc8aa	-0.053658165
173	0xbd44f2dc	-0.04808317
174	0xbc8ec77c	-0.017429106
175	0x3cea2900	0.028584003
176	0x3dd5f932	0.10447921
177	0x3cf6c57f	0.03012347
178	0x3bb43349	0.0054992777
179	0xbe05d931	-0.13071133
180	0x3dd1a0de	0.10235761
181	0xbb3107d0	-0.0027012713
182	0xbbc6a2b4	-0.006061876
183	0x3d98dd1c	0.07464048
184	0xbdb2b627	-0.08726149
185	0x3dab27ce	0.083572015
186	0x3d4c20d5	0.049836
187	0x3d9fb1f3	0.07797613
188	0x3c744cc5	0.014910881
189	0xbcb2a935	-0.0218092
190	0xbdb69fe8	-0.089172184
191	0xbcaa05f9	-0.020754801
192	0xbc09e16b	-0.00841556
193	0x3e021d0f	0.12706397
194	0xbcb9efa9	-0.022697287
195	0xbc6532c1	-0.013989151
196	0x3dca2178	0.09869665
197	0x3cfa45ff	0.030550955
198	0x3dabcf24	0.08389118
199	0x3d385c44	0.045009866
200	0xbda14b18	-0.07875651
201	0xbcd486d1	-0.025943192
202	0x3e0f2fdc	0.139831
203	0x3d03283f	0.032020804
204	0xbddb0db3	-0.10695972
205	0xbd32be62	-0.043638594
206	0xbc91c7a9	-0.0177954
207	0x3de81435	0.11331979
208	0xbc9f8abc	-0.019475333
209	0x3d3409fc	0.043954834
210	0xbdf74c3e	-0.12075089
211	0xbd5fcbbe	-0.054637663
212	0xbdd88ca5	-0.10573701
213	0xbe0ee9cd	-0.13956375
214	0xbe0a494c	-0.13504523
215	0xbb86faa3	-0.0041192337
216	0x3e112b65	0.1417671
217	0xbde7fdaf	-0.11327683
218	0xbd752285	-0.059847374
219	0x3ce56b32	0.028005216
220	0x3df27b59	0.11839933
221	0xbdb0dbb3	-0.08635654
222	0x3ccec232	0.025239084
223	0x3e001bd6	0.12510619
224	0xbe017be4	-0.12644917
225	0xbd85c641	-0.065319546
226	0x3d9543ae	0.072882995
227	0xbdb51768	-0.08842355
228	0x3c088f4e	0.008334948
229	0xbdddae0e	-0.10824214
230	0x3dc29fa3	0.095031045
231	0x3d5e4f85	0.054275054
232	0xbdd6cf1f	-0.10488724
233	0x3dfb9315	0.12283913
234	0x3db8aafa	0.09016986
235	0xbd909159	-0.07058973
236	0xbe0ce918	-0.13760793
237	0x3dd1ce77	0.10244458
238	0x3dec18fc	0.11528203
239	0xbb7e0d3f	-0.003876522
240	0xbde7f926	-0.11326818
241	0x3dc82e2b	0.09774431
242	0x3d9fbc35	0.077995695
243	0xbd580b9d	-0.05274545
244	0x3e0c734c	0.13715857
245	0x3e05f95e	0.13083407
246	0x3dbb9bcd	0.09160576
247	0x3d91aa0b	0.07112511
248	0x3dbccc0b	0.092186056
249	0xbb24aaaa	-0.0025126138
250	0xbceeea08	-0.02916433
251	0xbd853e17	-0.06505983
252	0x3de30b51	0.11086143
253	0x3e04c9c3	0.12967591
254	0x3e043e36	0.12914357
255	0x3db02330	0.086004615

transformer.layers.0.self_attn.in_proj_bias f4 [192]
0	0x3c3702ba	0.011170084
1	0x3ba15540	0.0049234927
2	0x3c7dc658	0.015489183
3	0x3c2b7e40	0.010467112
4	0x3b0343c6	0.002002941
5	0xb74400f1	-1.168273e-05
6	0x3cb70b2b	0.022344192
7	0xbc0e7bb0	-0.008696482
8	0xbb9c8f04	-0.004777791
9	0x3a3dd1bb	0.000724103
10	0xbc389d74	-0.0112680085
11	0x3b4a9229	0.0030909872
12	0xbbb47af2	-0.0055078203
13	0xbad58797	-0.0016291019
14	0xbccbdbc7	-0.024885071
15	0x3a792e41	0.00095054886
16	0xbccb0eb8	-0.024787292
17	0xbc915261	-0.017739477
18	0x3d939182	0.07205488
19	0xbcb54bf3	-0.022130942
20	0xbc89366f	-0.016749589
21	0xbcacf390	-0.021112233
22	0xbcbf7c2a	-0.023374636
23	0x3c80c9e5	0.01572127
24	0xbd623607	-0.055227306
25	0x3b7eac6a	0.003886009
26	0x3cf44598	0.029818341
27	0x3c2b8630	0.0104690045
28	0xbce6bc8b	-0.028166076
29	0xbc267527	-0.010159767
30	0xbc96467c	-0.018344156
31	0xb8a5238a	-7.874433e-05
32	0xba9af171	-0.0011821223
33	0xbc564f0b	-0.013080369
34	0xbd410ef2	-0.047133394
35	0x3bcdb154	0.0062772427
36	0xbcde8669	-0.027163701
37	0xbcccf5d2	-0.02501956
38	0x3876e84e	5.886732e-05
39	0xbd53357a	-0.05156467
40	0xbd3105b5	-0.043218333
41	0x3d1ab728	0.037772328
42	0xbaf00921	-0.0018313268
43	0x3cce6876	0.025196295
44	0xbce66ee6	-0.028129052
45	0xbcd3466b	-0.025790414
46	0xbc95409e	-0.018219288
47	0x3bc9e6aa	0.0061615305
48	0xbb9cbeeb	-0.0047835014
49	0x3c1cfa25	0.0095811235
50	0xbcd23e78	-0.025664553
51	0xbc867677	-0.01641391
52	0xbbcb26d8	-0.006199699
53	0x3caddd3b	0.021223655
54	0x3d098605	0.033575077
55	0xba77f7ca	-0.00094592257
56	0x3cf6e8aa	0.03014024
57	0xbd0b2f6a	-0.033980764
58	0xbc7a9563	-0.015294406
59	0x3c817a95	0.015805522
60	0xbce16b70	-0.02751705
61	0xbb627c83	-0.0034559078
62	0x3c35259a	0.011056328
63	0x3b064a59	0.0020491092
64	0xb8328c2b	-4.256905e-05
65	0xb8ff4c33	-0.00012173541
66	0xb98a99d3	-0.0002643602
67	0xb8b02cad	-8.4006555e-05
68	0xb951b987	-0.00020000908
69	0xb843b979	-4.6664358e-05
70	0x3746c422	1.1847385e-05
71	0x39933aef	0.00028081934
72	0xb85b4bfa	-5.2284428e-05
73	0xb95f282c	-0.00021281902
74	0xb81223e2	-3.484253e-05
75	0x397bb61e	0.0002400507
76	0x393ba731	0.00017895993
77	0xb81b72bf	-3.7061745e-05
78	0xb9336a69	-0.00017110411
79	0x3978b048	0.00023716793
80	0x3989bbfe	0.0002627074
81	0x3938a683	0.00017609638
82	0xb9fcf720	-0.00048249308
83	0x38a9b0f6	8.0915095e-05
84	0x386df864	5.6736535e-05
85	0xb9455649	-0.00018819528
86	0x39bd7130	0.0003613322
87	0x386ba8b5	5.6185487e-05
88	0xb67c967f	-3.7638526e-06
89	0x37a78aaf	1.9972531e-05
90	0x37983302	1.8143564e-05
91	0x368dd8d1	4.227368e-06
92	0x3a03b796	0.000502461
93	0x39ff237f	0.00048663837
94	0x3920ef18	0.00015347858
95	0xb9954837	-0.000284733
96	0x3728e6ba	1.00673005e-05
97	0xb8b9add0	-8.8538625e-05
98	0xb6c701af	-5.930858e-06
99	0x3857c847	5.1446517e-05
100	0xb9751c44	-0.0002337555
101	0xb9117927	-0.0001387341
102	0xb7d4f2ad	-2.5385374e-05
103	0x3985da9c	0.00025530613
104	0x39452483	0.00018800986
105	0x38c03f63	9.16708e-05
106	0xb7d33c2b	-2.5181178e-05
107	0xb88ec36b	-6.807487e-05
108	0xb9cc49bd	-0.0003896485
109	0xba26717a	-0.0006349307
110	0xb99ac8cd	-0.00029522777
111	0x38c1cff8	9.241694e-05
112	0x38b0e62d	8.4352076e-05
113	0x3798be22	1.820835e-05
114	0x3972e056	0.0002316249
115	0x3744dade	1.1733469e-05
116	0x3895bccd	7.1400405e-05
117	0x3750019a	1.2398139e-05
118	0xb9f9fba2	-0.00047680462
119	0x390c3163	0.00013369838
120	0xb9cffa2f	-0.00039668518
121	0xb8684c7d	-5.5384346e-05
122	0xb7c1eeb0	-2.311854e-05
123	0xb9b09502	-0.00033680355
124	0x3891140e	6.917874e-05
125	0xb8601bf5	-5.34318e-05
126	0xb794e3c7	-1.7749042e-05
127	0x386f7bc8	5.709732e-05
128	0xbbf2d468	-0.0074105747
129	0xbbb371d0	-0.005476214
130	0x3c08fce0	0.008361071
131	0xbba0f698	-0.0049122088
132	0xbc11219b	-0.00885811
133	0xbaa8bdca	-0.0012873944
134	0x3bff2d26	0.0077873645
135	0x3c2ec884	0.010667924
136	0xbb711ce5	-0.0036790904
137	0x3bc2fa9f	0.0059502865
138	0xbb4a014d	-0.003082353
139	0x3baac1a5	0.0052110725
140	0xbc67e8b5	-0.014154603
141	0xbb855483	-0.0040689125
142	0xbc351450	-0.011052206
143	0xbbfb686c	-0.00767236
144	0xbc2cb5b2	-0.010541366
145	0x3b4bc6f8	0.0031093936
146	0xbaba1a65	-0.001419854
147	0x3c042fbb	0.00806802
148	0x3b07d6f4	0.0020727487
149	0xbbac7d97	-0.005263995
150	0x3ba18e11	0.0049302657
151	0x3b4fa3fc	0.0031683436
152	0x3be0c0e4	0.006858932
153	0x3c0af87a	0.008482093
154	0x3bef7c9a	0.007308555
155	0x3b111bbf	0.0022141782
156	0xbb7c4b57	-0.0038497054
157	0xbb9655e4	-0.0045878757
158	0x3bbf6890	0.0058413222
159	0xbbb1563e	-0.005411892
160	0x3b044fb7	0.0020189115
161	0x3bb7614b	0.005596315
162	0x3b3fda4d	0.0029274405
163	0x3b37dfc2	0.0028056954
164	0xba0ca02b	-0.0005364443
165	0xbbfdc2d4	-0.0077441726
166	0xbb9990bf	-0.0046864445
167	0x3aaedaab	0.0013340315
168	0xbbe5d899	-0.007014346
169	0x3bae60f5	0.005321617
170	0xbc305b19	-0.010763907
171	0x3b907fcf	0.004409767
172	0x3b77572c	0.0037741167
173	0xbb884109	-0.0041581434
174	0xbb1581dd	-0.0022813
175	0x3b08bed5	0.0020865698
176	0x3ab2c5f9	0.0013639323
177	0x3c0077b9	0.007841044
178	0x3a28b6ca	0.0006435929
179	0x3c08b312	0.008343475
180	0xb9ce83ca	-0.00039389572
181	0xbbe0bed2	-0.006858685
182	0xbb40ebe4	-0.0029437477
183	0x3b22e5a6	0.002485612
184	0x3b101961	0.0021987783
185	0xbbd18738	-0.006394293
186	0xb8473190	-4.7491456e-05
187	0xbb961baa	-0.0045809345
188	0x3c366a91	0.011133806
189	0x3ac11b3d	0.0014732849
190	0x3a9a34ab	0.0011764964
191	0xba01dbd9	-0.00049537193

transformer.layers.0.self_attn.out_proj.weight f4 [64, 64]
0	0xbdb6caac	-0.08925375
1	0xbdd35a4b	-0.103199564
2	0xbc4e33c3	-0.012585583
3	0xbe4db7ef	-0.20089696
4	0xbd9c3e15	-0.07629029
5	0x3dcbc81e	0.09950279
6	0xbd4d9614	-0.050191954
7	0x3e178adb	0.14799063
8	0xbe028a35	-0.12748034
9	0xbb642496	-0.0034811846
10	0xbe3982d0	-0.18116307
11	0xbd9f03d4	-0.07764402
12	0xbe3335e7	-0.17501031
13	0xbe0b1fe8	-0.1358639
14	0xbc92f376	-0.017938357
15	0x3dac1683	0.08402731
16	0x3def120c	0.11673364
17	0xbdecd881	-0.11564732
18	0x3d280a2a	0.04102532
19	0x3dac66b2	0.08418025
20	0xbe1fc652	-0.15602997
21	0x3bca678e	0.0061768955
22	0xbd848195	-0.06470028
23	0xbc55d0bd	-0.013050255
24	0xbe417ea3	-0.18895964
25	0xbc1a8862	-0.00943193
26	0x3de17dc3	0.11010315
27	0x3e006e8f	0.12542175
28	0x3e485e87	0.1956731
29	0xbe4990ca	-0.19684139
30	0xbdc9c4d2	-0.098519936
31	0x3e4b3741	0.19845296
32	0x3de035f8	0.10947794
33	0xbdea1476	-0.11429684
34	0xbd624f38	-0.05525133
35	0x3e0e0659	0.13869609
36	0xbd199be9	-0.037502203
37	0x3e20b39c	0.15693516
38	0x3cd79b3b	0.026319137
39	0x3dc12539	0.09430928
40	0xbe17a262	-0.14808038
41	0x3e042c14	0.1290744
42	0xbd76e313	-0.06027515
43	0xbd92a1c4	-0.071597606
44	0x3e12e866	0.14346465
45	0xbbaa3823	-0.0051946803
46	0x3e341e27	0.17589627
47	0xbe2bb0c6	-0.16766652
48	0x3e62bddb	0.22142737
49	0x3de6b94e	0.11265813
50	0x3defe6f0	0.1171397
51	0x3e3d9808	0.18515027
52	0x3d076b84	0.03306152
53	0x3e358d8e	0.1772978
54	0xbdc02b5d	-0.09383271
55	0x3df542f5	0.11975662
56	0xbce7de6a	-0.028304297
57	0x3d1b07a9	0.037849102
58	0x3e4f3402	0.20234683
59	0xbca54183	-0.02017284
60	0x3d853608	0.06504446
61	0x3d5777bf	0.052604433
62	0xbd3086ef	-0.043097433
63	0x3d0de0dc	0.03463827
64	0xbe38e382	-0.18055537
65	0x3cd56d48	0.026053086
66	0x3c9df170	0.019280165
67	0xba9605bc	-0.0011445801
68	0xbdef9dd1	-0.11700023
69	0x3e336fb8	0.17523086
70	0xbd4d6d8a	-0.050153293
71	0x3e1bf17d	0.15228839
72	0xbb2e29b3	-0.0026575148
73	0xbe4850b9	-0.19562043
74	0x3e151945	0.14560421
75	0xbe3dbf4f	-0.1853001
76	0xbda7b7eb	-0.081893764
77	0xbe5ca17e	-0.2154598
78	0x3d8faf99	0.070159145
79	0xbd9b7357	-0.07590359
80	0x3daa4af7	0.0831508
81	0x3dbc9e2f	0.092098586
82	0xbbbd0826	-0.0057687936
83	0x3e61ee57	0.22063576
84	0x3d4809e0	0.048837543
85	0xbdc158de	-0.09440778
86	0xbe11d7eb	-0.14242522
87	0x3e5968ed	0.21231432
88	0x3e6a0144	0.22852045
89	0xbcb2094a	-0.021732945
90	0x3c92d6b4	0.017924644
91	0x3e22a479	0.15883054
92	0xbe49b44d	-0.19697686
93	0xbe2d6a1a	-0.16935006
94	0x3d02aa7d	0.03190087
95	0x3b1943b4	0.0023386301
96	0x3e4aaafd	0.1979179
97	0x3e1695e2	0.14705613
98	0x3c00dd69	0.007865288
99	0xbdec6461	-0.11542583
100	0xbe2261e6	-0.15857658
101	0x3d989642	0.074505344
102	0xbe61ee4c	-0.2206356
103	0x3db80a0c	0.08986291
104	0xbd4bdff2	-0.049774118
105	0x3b9e6607	0.00483394
106	0xbdb69073	-0.0891427
107	0xbe1f02ef	-0.15528463
108	0xbe19f601	-0.1503525
109	0x3d7927f8	0.060829133
110	0xbdceeb09	-0.10103423
111	0xbe156fc2	-0.14593413
112	0xbd3c068c	-0.04590468
113	0xbe3e7265	-0.18598326
114	0xbe1c4ded	-0.15264101
115	0x3d0b8824	0.03406538
116	0x3d03f25d	0.032213558
117	0xbd8833ba	-0.06650491
118	0x3d6bbbd5	0.057552177
119	0x3dab5094	0.083649784
120	0xbd9ceea6	-0.07662706
121	0x3d114611	0.03546721
122	0xbdf14758	-0.11781186
123	0x3e3eb325	0.18623026
124	0x3e2d3c45	0.16917522
125	0x3e28837b	0.16456406
126	0xbcf59f79	-0.029983269
127	0x3d469896	0.04848536
128	0xbdf848c3	-0.12123253
129	0xbd169902	-0.036767013
130	0x3d888f0d	0.0666791
131	0x3d8fe825	0.070267
132	0x3e4da895	0.2008384
133	0xbd37558a	-0.04475931
134	0x3d097923	0.03356279
135	0x3bd0cfe8	0.0063724406
136	0xbe184528	-0.14870131
137	0xbd94667c	-0.0724611
138	0x3e2feeff	0.17181014
139	0x3d3be881	0.04587603
140	0xbdf3c92f	-0.11903607
141	0x3e12c8be	0.1433439
142	0xbd600e74	-0.054701284
143	0xbe0d8542	-0.13820365
144	0x3e5d2e46	0.21599683
145	0x3d4889bc	0.04895948
146	0xbd50f648	-0.051016122
147	0x3e455155	0.19269307
148	0xbe245474	-0.16047841
149	0xb8dffbb3	-0.00010680351
150	0xbe58a6bf	-0.21157359
151	0xbe35a2f2	-0.1773794
152	0xbdef54ab	-0.11686071
153	0xbe2e885f	-0.17044209
154	0x3e054693	0.13015203
155	0x3e460d0d	0.19340916
156	0xbe089340	-0.13337421
157	0x3e121f08	0.1426965
158	0xbd9044e1	-0.070443876
159	0x3e47db30	0.19517207
160	0xbe0a7e95	-0.1352485
161	0xbd11d95a	-0.035607673
162	0x3dfd837a	0.12378593
163	0xbd67ef20	-0.05662453
164	0x3e2c8345	0.1684695
165	0x3df3ccfa	0.119043306
166	0x3e2ba61b	0.16762583
167	0xbdf28cfc	-0.11843297
168	0xbe391710	-0.18075204
169	0x3e514fa1	0.20440532
170	0xbd53fe5e	-0.051756255
171	0x3d86902a	0.06570466
172	0xbe1f91ee	-0.15583012
173	0xbe21e571	-0.15810181
174	0xbe0915ad	-0.13387175
175	0xbe1eed4a	-0.15520206
176	0xbd61488e	-0.055000834
177	0x3e62e642	0.22158149
178	0x3e2d900c	0.16949481
179	0xbdf65377	-0.120276384
180	0xbe5126a9	-0.20424904
181	0x3e00bcaa	0.1257197
182	0xbd12ce38	-0.035841197
183	0xbe20e391	-0.1571181
184	0xbdfb0da6	-0.122584626
185	0xbcc163fa	-0.023607243
186	0xbe03b953	-0.12863664
187	0x3e1b1ccc	0.15147704
188	0x3d730a4c	0.05933599
189	0xbde45c6f	-0.11150443
190	0x3e4a71ca	0.1976997
191	0xbe316b77	-0.17326151
192	0xbbba4eb9	-0.005685654
193	0xbe25dfb3	-0.16198616
194	0x3e1477a4	0.14498764
195	0x3e348bc7	0.17631446
196	0x3c0fc613	0.008775252
197	0xbe5129a0	-0.20426035
198	0xbd739790	-0.059470713
199	0x3e427ee1	0.18993713
200	0x3e43526b	0.19074409
201	0xbdc05c4d	-0.09392605
202	0xbe3173ea	-0.17329374
203	0x3e20fe78	0.15722072
204	0x3e00a273	0.1256197
205	0x3d0f70e8	0.035019785
206	0xbe1723ce	-0.14759752
207	0x3e08fbbf	0.13377284
208	0x3dfa732c	0.122289985
209	0x3e3ab1f1	0.18231942
210	0xbd76fe65	-0.060301203
211	0x3e221a7a	0.15830413
212	0xbdc9733b	-0.098364316
213	0xbd7d999c	-0.06191407
214	0xbe276ab6	-0.163493
215	0x3d9ef75a	0.07762022
216	0xbdf8d144	-0.12149289
217	0xbd930fa3	-0.07180717
218	0xbc6a737c	-0.01430976
219	0x3cbc69ef	0.022999732
220	0xbde6d993	-0.11271968
221	0xbce52692	-0.027972493
222	0xbe37993e	-0.17929551
223	0xbe1fbdac	-0.15599698
224	0xbdf58ca1	-0.119897135
225	0xbcdd669c	-0.027026467
226	0xbddf41fb	-0.10901257
227	0xbdde7857	-0.10862797
228	0x3d97e23f	0.074162
229	0xbe264c59	-0.16240062
230	0x3e0fa1c5	0.14026554
231	0x3d56df44	0.052459016
232	0x3c54d2b5	0.01298969
233	0x3dcc49b1	0.09974993
234	0x3c2e307c	0.010631677
235	0x3e1a2755	0.15054066
236	0x3e4dd1e3	0.20099597
237	0xbc2cf4b9	-0.010556393
238	0xbd8704e5	-0.065927304
239	0x3e57c045	0.21069439
240	0x3e101f70	0.14074492
241	0x3cc275ab	0.02373775
242	0xbd8f80c4	-0.07006982
243	0x3ac36335	0.0014906885
244	0x3b532869	0.0032220131
245	0x3d9deeef	0.077115886
246	0x3e2d9a9e	0.16953513
247	0xbe304b14	-0.1721614
248	0x3dc542de	0.096318945
249	0xbcf2f30d	-0.029656911
250	0x3e3a099b	0.18167727
251	0x3e3695ef	0.17830633
252	0x3e1c3a7f	0.1525669
253	0xbe38b7da	-0.18038884
254	0x3e37d12e	0.1795089
255	0x3dc4c630	0.09608114

transformer.layers.0.self_attn.out_proj.bias f4 [64]
0	0x3bb0952c	0.0053888764
1	0x3baedbf6	0.00533628
2	0x3c133d36	0.008986762
3	0x3b5bc827	0.0033536048
4	0xbc2935ca	-0.010327766
5	0x3c075430	0.008259818
6	0x3bfd2316	0.00772513
7	0x3b745b44	0.0037285844
8	0x394b8b05	0.00019411377
9	0x3bb2205f	0.005435988
10	0xbc5d958a	-0.013524422
11	0xbc0a0f64	-0.008426521
12	0xbb47826a	-0.0030442723
13	0xbc474898	-0.012163304
14	0xbc198e55	-0.0093723135
15	0xbbff2c9d	-0.0077873007
16	0x3b3d7483	0.0028908558
17	0x3c14bcf6	0.009078255
18	0xba85ac89	-0.0010198514
19	0xbc11e604	-0.008904938
20	0xbc37df91	-0.011222736
21	0xbb3e4ad8	-0.002903631
22	0xbbaa2f63	-0.005193637
23	0xbbe30483	-0.006928028
24	0x3bccad8e	0.0062462753
25	0xbbe5e79d	-0.007016136
26	0x3c01c11e	0.007919578
27	0xbba3d985	-0.0050002956
28	0xb9d21934	-0.000400731
29	0x3c245ff6	0.0100326445
30	0x3c0b77fc	0.008512493
31	0x3b534c67	0.0032241584
32	0x3a9b03d5	0.0011826704
33	0xbc32ccc6	-0.01091308
34	0xbbb7d538	-0.0056101345
35	0x3b3b7c18	0.0028607901
36	0xbacf3229	-0.0015807796
37	0x3bab1167	0.0052205804
38	0xbc043be3	-0.008070919
39	0x3b8b4d97	0.004251193
40	0x3c039498	0.008031033
41	0x3c007819	0.0078411335
42	0xbb88163a	-0.0041530402
43	0xba67e6ac	-0.00088463235
44	0xbc007c2b	-0.007842104
45	0x3b9e9d25	0.0048405104
46	0x3b628693	0.0034565076
47	0x39bcefab	0.0003603672
48	0x39d0cd97	0.00039826028
49	0x3a26cc37	0.0006362828
50	0xbc477255	-0.012173255
51	0xbc2fe1a1	-0.0107349465
52	0x39fe774e	0.00048535544
53	0xbbc5964a	-0.0060298787
54	0x3b989db5	0.004657472
55	0xbadf4444	-0.0017033895
56	0x3be555ac	0.0069987383
57	0xbabb01ec	-0.001426754
58	0x3b974889	0.004616801
59	0xba627033	-0.0008637935
60	0x3b99e8b0	0.004696928
61	0xbb8e059a	-0.004334164
62	0xb957d84e	-0.00020584578
63	0x3b877905	0.0041342997

transformer.layers.0.linear1.weight f4 [256, 64]
0	0x3e1199ed	0.14218874
1	0xbcb8ec79	-0.022573696
2	0x3c9c1f13	0.019057786
3	0x3daab4c9	0.08335263
4	0xbcb2503a	-0.02176677
5	0x3db73b4c	0.08946857
6	0x3b9caf55	0.0047816434
7	0x3d704618	0.058660597
8	0xbc518cd3	-0.012789923
9	0xbdcc2c80	-0.09969425
10	0x3d4a23db	0.0493506
11	0xbd162d43	-0.03666426
12	0x3e08606d	0.13318034
13	0x3defd80b	0.11711129
14	0xbda8fd42	-0.0825143
15	0x3d6756aa	0.056479134
16	0x3d91ccdd	0.07119153
17	0x3db7a49e	0.08966945
18	0x3dcb6b9d	0.09932635
19	0xbc1ca3f5	-0.009560575
20	0x3e1576dd	0.14596124
21	0x3e01ed62	0.1268821
22	0x3cb8283c	0.022480123
23	0xbda377b3	-0.07981815
24	0x3d606684	0.054785267
25	0xbe17270c	-0.14760989
26	0x3dadff4c	0.0849596
27	0x3c0edf35	0.008720209
28	0xbda2dc27	-0.07952147
29	0xbce48f58	-0.027900383
30	0x3dfaacd5	0.12239996
31	0xbc5442c3	-0.01295537
32	0xbca61a1f	-0.020276127
33	0x3dd91163	0.105990194
34	0x3dc21820	0.09477258
35	0x3d6945e4	0.05695142
36	0xbd7d55a7	-0.061849263
37	0xbabb6391	-0.0014296641
38	0x3c26e1f3	0.010185706
39	0x3d93db5a	0.07219572
40	0x3cd1739b	0.02556782
41	0xbc96b12a	-0.018395025
42	0x3e0c6139	0.13708963
43	0x3d83fc01	0.0644455
44	0x3df9b8ff	0.12193488
45	0x3dd19a16	0.10234468
46	0x3e057d28	0.13036025
47	0x3da804db	0.08204051
48	0x3dcad5d6	0.09904067
49	0x3d28df70	0.04122871
50	0xbe003c00	-0.12522888
51	0xbd996f2a	-0.07491906
52	0xbdfd05f2	-0.123546496
53	0x3ddcdc46	0.10784201
54	0x3dcb1eee	0.09918009
55	0x3cbe2c31	0.023214431
56	0xbdbbde01	-0.09173203
57	0x3e0b04bb	0.13576023
58	0x3c551982	0.01300657
59	0xbd78a993	-0.060708594
60	0x3dc7f002	0.09762575
61	0x3d1a09cf	0.03760701
62	0x3e2436d1	0.16036536
63	0xbcd6bb33	-0.02621231
64	0xbd1549d1	-0.03644735
65	0x3db42f68	0.087981045
66	0x3d96660e	0.07343684
67	0xbd30831d	-0.04309379
68	0xbe022e3e	-0.12712952
69	0x3dcd60c7	0.100282244
70	0xbda71374	-0.08158007
71	0x3da74323	0.08167102
72	0x3dc37cc7	0.09545284
73	0x3e061f12	0.1309779
74	0x3c5ab553	0.013348895
75	0xbd9f9a72	-0.0779313
76	0xbca90ef0	-0.020637006
77	0xbd640cb4	-0.055676177
78	0xbd3a87f6	-0.04553982
79	0xbd62ffae	-0.055419616
80	0xbdf4b802	-0.11949159
81	0xbe0a7b78	-0.13523662
82	0x3dac37f2	0.08409108
83	0xbdf2fa56	-0.11864154
84	0x3dd7a657	0.10529774
85	0xbd4526e2	-0.048132785
86	0xbdd941e0	-0.10608268
87	0x3e042eec	0.12908524
88	0x3db26ba2	0.087119356
89	0x3decb0cb	0.11557158
90	0xbc03658a	-0.008019814
91	0xbdf2054a	-0.11817415
92	0x3b0c99a3	0.002145388
93	0x3d4b6d9c	0.04966508
94	0x3d5fe183	0.054658424
95	0xbb47b8ef	-0.003047522
96	0xbdaa3fe3	-0.08312967
97	0xbd98a297	-0.074528866
98	0x3d5a0eb8	0.053236693
99	0x3dfb8136	0.122805044
100	0xbdce79e8	-0.100818455
101	0x3bc192d3	0.0059073954
102	0x3ce3317e	0.02773356
103	0x3e131e8e	0.14367124
104	0xbc9ba408	-0.018999115
105	0x3de71538	0.11283344
106	0x3d4eeacf	0.0505169
107	0x3d933850	0.07188475
108	0x3d8dcdaf	0.06923997
109	0x3df8effb	0.12155148
110	0xbc4c419a	-0.0124668125
111	0x3e1318e5	0.14364965
112	0xbdc6780a	-0.096908644
113	0x3d95b9f9	0.07310862
114	0x3cc6559c	0.024210744
115	0x3d88389c	0.066514224
116	0xbc6f0e2d	-0.014590782
117	0x3ca3d19f	0.019997416
118	0xbcea757c	-0.028620474
119	0xbdb13409	-0.08652503
120	0x3e141cd4	0.14464122
121	0xbe14943d	-0.14509673
122	0x3d08f29d	0.0334345
123	0x3c24a037	0.010047964
124	0xbe05fea9	-0.13085426
125	0xbd8fac68	-0.07015306
126	0x3da8df96	0.08245771
127	0xbd799106	-0.06092932
128	0x3dbeda95	0.09319035
129	0x3df54845	0.11976675
130	0xbd1fc099	-0.039002035
131	0xb9e2a25e	-0.00043227052
132	0xbd9252c9	-0.07144696
133	0xbd2c1ac2	-0.042017706
134	0x3de0a019	0.10968036
135	0x3d8a8ecd	0.06765518
136	0x3e0a6e6f	0.1351869
137	0x3d96437b	0.0733709
138	0x3cfa78db	0.030575207
139	0x3d9b949d	0.07596705
140	0xbda36c7c	-0.07979676
141	0x3e03f93f	0.12888049
142	0x3bb28eef	0.005449168
143	0x3c8ed903	0.017437464
144	0xbdee25ce	-0.116283044
145	0x3e0226e5	0.1271015
146	0xbd8fe98f	-0.0702697
147	0xbdebafec	-0.11508164
148	0xbd08e473	-0.03342099
149	0xbcde4b86	-0.027135622
150	0x3d90196e	0.070361
151	0x3d199285	0.037493248
152	0x3c97f476	0.018549185
153	0x3d0a66e1	0.03378952
154	0xbd48d6c0	-0.049032927
155	0xbd8f3a8b	-0.06993588
156	0x3de78a31	0.11305655
157	0xbd00f72b	-0.031485718
158	0x3ca29d1c	0.019850306
159	0x3dd91c10	0.106010556
160	0x3db371f5	0.0876197
161	0xbcb120c3	-0.021622067
162	0x3ddbd474	0.107338816
163	0x3daac057	0.08337467
164	0xbde5036e	-0.11182295
165	0xbcb3d831	-0.021953674
166	0xbdf9bbae	-0.12194
167	0x3dd21d31	0.10259474
168	0x3dfedf1b	0.12444898
169	0xbd878a46	-0.066181704
170	0x3d0ba5ed	0.034093786
171	0xbe02e30e	-0.12781927
172	0xbdb6d422	-0.0892718
173	0x3dcfee49	0.10152871
174	0xbd8ded46	-0.06930022
175	0xbd336408	-0.04379657
176	0x3b596b98	0.0033175703
177	0xbcba5244	-0.022744305
178	0xbdd3b46f	-0.10337149
179	0x3d845735	0.06461946
180	0xbcd8c822	-0.026462618
181	0xbe0b3acd	-0.1359665
182	0xbdb713ce	-0.08939324
183	0xbd92df2a	-0.071714714
184	0x3d83788b	0.06419476
185	0x3d97428a	0.07385738
186	0xbdd2d2e4	-0.102941304
187	0xbdae3f70	-0.085081935
188	0xbceb6829	-0.02873619
189	0x3d2b6201	0.04184151
190	0xbc950c05	-0.018194208
191	0x3db273fb	0.08713528
192	0xbd8e453f	-0.069468014
193	0x3de2fe17	0.1108362
194	0xbbb2dca3	-0.005458431
195	0x3dbf56e1	0.09342743
196	0xbd3841f9	-0.04498479
197	0xbd015c77	-0.031582322
198	0xbb614e81	-0.0034379067
199	0xbd8ac245	-0.06775335
200	0xbdcea984	-0.10090926
201	0x3d2bff47	0.0419915
202	0x3dca17e1	0.09867836
203	0xbabc2f33	-0.0014357328
204	0xbd0759e4	-0.03304471
205	0xbc9ac2cc	-0.018891715
206	0x3dd6c613	0.104869984
207	0xbd5b290a	-0.053505935
208	0xbd9eacae	-0.0774778
209	0xbdfb5657	-0.122723274
210	0xbd4325a1	-0.047643308
211	0xbda54db8	-0.08071464
212	0x3d504455	0.050846417
213	0x3da89be6	0.0823286
214	0x3da1ed08	0.07906538
215	0xbb2479fb	-0.002509712
216	0x3dc6eaec	0.097127765
217	0x3cabe7be	0.020984527
218	0xbdc952f6	-0.09830277
219	0xbe06b5ad	-0.13155241
220	0x3df4e7ea	0.119582966
221	0xbdd4734a	-0.10373552
222	0xbd8f6d57	-0.07003277
223	0x3cb7acc3	0.022421246
224	0x3d89af7a	0.067229226
225	0x3dc52849	0.096268244
226	0x3da0af2b	0.07845911
227	0xbd174fb7	-0.036941256
228	0x3df5766a	0.11985476
229	0xbd54c4fb	-0.051945668
230	0x3cb465d4	0.022021212
231	0x3db42a05	0.08797077
232	0xbd644ca3	-0.05573715
233	0xbc91cfa3	-0.017799204
234	0xbcd3fd79	-0.025877701
235	0x3d5b0e0c	0.053480193
236	0xbdbd72bf	-0.09250402
237	0xbe1caec5	-0.15301044
238	0x3d365a71	0.044519845
239	0xbd4249a3	-0.047433507
240	0x3d4e522c	0.050371334
241	0xbdf05062	-0.11734082
242	0x3c932b91	0.01796511
243	0xbd267e4c	-0.04064779
244	0x3d8cadef	0.06869113
245	0x3dafd64a	0.08585794
246	0xbcbae1d1	-0.022812756
247	0xbddf63c0	-0.10907698
248	0xbd00d165	-0.031449694
249	0xbdf49d11	-0.119440205
250	0x3e006a74	0.12540609
251	0x3dd3f003	0.10348513
252	0x3d468211	0.048463885
253	0xbd68157d	-0.056661118
254	0xbd04e214	-0.032442167
255	0xbd12b0de	-0.035813205

transformer.layers.0.linear1.bias f4 [256]
0	0xbd1a6e48	-0.03770283
1	0x3db4eb3c	0.0883393
2	0xbd8c43d3	-0.06848874
3	0xbd0efc6b	-0.034908693
4	0x3d9cc7bf	0.07655286
5	0xbde45245	-0.11148504
6	0x3bb2b88b	0.005454128
7	0xbdafbdfc	-0.085811585
8	0x3d465410	0.048420012
9	0xbc590951	-0.01324685
10	0x3d8016e5	0.06254367
11	0x3da7388b	0.081650816
12	0x3d42b2f9	0.047533963
13	0x3dc1a5f6	0.09455483
14	0x3a46fa8d	0.00075904356
15	0xbc5ee04b	-0.01360328
16	0xbcd3af2a	-0.02584036
17	0x3b216447	0.002462642
18	0xbdaf2af1	-0.08553112
19	0x3c1b4911	0.00947787
20	0xbdad0e35	-0.084499754
21	0x3d886ba0	0.06661153
22	0x3d61a2cf	0.055086907
23	0xbdf48092	-0.11938585
24	0xbdb817d8	-0.08988923
25	0xbdd64bb5	-0.10463659
26	0xbd1d2dfd	-0.038373936
27	0xbd9d0d41	-0.076685436
28	0x3d30d748	0.04317406
29	0x3c4fdd1a	0.012686992
30	0xbdb6d166	-0.08926658
31	0xbd8829e1	-0.06648613
32	0xbcb7d14d	-0.02243867
33	0xbd8529af	-0.06502091
34	0xbdba8d97	-0.09109037
35	0xbdace54f	-0.08442175
36	0xbdc06cdc	-0.09395763
37	0xbde923e0	-0.11383796
38	0xbdfb5ef4	-0.1227397
39	0xbc8bdb5b	-0.01707237
40	0xbdcf6ef1	-0.10128582
41	0x3d9c14db	0.07621165
42	0xbd98b462	-0.0745628
43	0x3b1b1829	0.0023665524
44	0xbdca8a5a	-0.0988967
45	0xbd29448e	-0.041325144
46	0xbde4abc1	-0.11165572
47	0xbd9ace93	-0.07558932
48	0xbc0d494e	-0.008623434
49	0x3dbbf66e	0.09177862
50	0x3e015c53	0.12632875
51	0x3da842b1	0.082158454
52	0x3ceadc72	0.02866957
53	0xbd3eb150	-0.046555817
54	0xbd627907	-0.055291202
55	0xbdea0286	-0.114262626
56	0x3dd049b6	0.10170309
57	0x3d054af2	0.032542177
58	0xbd91ae7f	-0.071133606
59	0x3ca1b507	0.01973964
60	0xbcd0534d	-0.025430346
61	0xbc864d0b	-0.016394159
62	0x3d884e5b	0.0665557
63	0xbddf7a7d	-0.10912035
64	0x3d6e938b	0.058246177
65	0x3cb1222b	0.021622738
66	0xbd828480	-0.063729286
67	0x3dae5568	0.08512384
68	0xbd53f221	-0.051744584
69	0xbd18854f	-0.037236508
70	0xbcf1ec76	-0.029531699
71	0xbdeac7a6	-0.11463861
72	0xbcf1586f	-0.029461114
73	0xbdc1e012	-0.09466566
74	0x3ddf1f8d	0.1089469
75	0xb91246d6	-0.00013950033
76	0x3decac67	0.11556321
77	0xbd22963b	-0.039694052
78	0x3d942caa	0.072350815
79	0xbd7db63f	-0.06194138
80	0xbd7a244a	-0.061069764
81	0xbd380d6f	-0.044934686
82	0xbd9a7c76	-0.0754327
83	0xbdbfa239	-0.093571134
84	0x3d8c86ed	0.068616726
85	0x3de22d0b	0.110437475
86	0x3d5b4d56	0.05354055
87	0x3c1d3e85	0.009597425
88	0x3daa24e0	0.083078146
89	0xbde1f5f2	-0.110332385
90	0xbe04946b	-0.12947242
91	0xbd996e47	-0.07491737
92	0x3c8456ea	0.016154725
93	0xbd340e75	-0.0439591
94	0xbca67f58	-0.020324394
95	0x3bbc6f4d	0.005750573
96	0xbbe79515	-0.0070673325
97	0xbcb5bbaf	-0.022184221
98	0x3d94085b	0.07228156
99	0x3ac45d80	0.0014981478
100	0x3d98e10d	0.074648
101	0x3dc229c6	0.09480624
102	0x3d8ae8c2	0.06782676
103	0xbca05e93	-0.019576347
104	0xbddfa579	-0.10920233
105	0xbc067225	-0.008205925
106	0xbd8c0439	-0.06836743
107	0xbe006e40	-0.12542057
108	0xbcb9aac4	-0.022664435
109	0xbcfe4833	-0.031040287
110	0x3b956ddd	0.004560216
111	0x3d7cf864	0.06176032
112	0x3c89e8aa	0.016834576
113	0x3da20716	0.07911508
114	0xbc789486	-0.0151721295
115	0x3d4bfbc7	0.04980066
116	0x3dd5df35	0.10442964
117	0x3d394434	0.04523106
118	0xbba575d9	-0.005049449
119	0x3dcf3b09	0.10118682
120	0xbdd925a0	-0.106028795
121	0xbccadca4	-0.024763413
122	0x3df423ae	0.11920868
123	0xbde84f8b	-0.113432966
124	0xbd1f6b63	-0.03892077
125	0xbd3371b7	-0.04380962
126	0xbdb235cd	-0.08701668
127	0xbd431330	-0.04762572
128	0xbdb7d64f	-0.08976423
129	0x3c7502bb	0.014954264
130	0xbcdc863a	-0.026919473
131	0x3d567ca1	0.05236495
132	0xbc1eb0a6	-0.009685671
133	0xbc50b47d	-0.012738344
134	0x3d61b4f5	0.055104215
135	0x3d205205	0.03914072
136	0xbca2c1ea	-0.019867856
137	0x3dcc3f4f	0.09973013
138	0x3de77b5c	0.11302826
139	0x3da49ca8	0.08037692
140	0x3d8e1dd9	0.06939287
141	0x3deb432f	0.11487424
142	0xbdde4dd5	-0.10854689
143	0xbdcfa866	-0.10139541
144	0x3de2700c	0.110565275
145	0x3c5841a6	0.013199246
146	0x3e06b88b	0.13156335
147	0xbd649c0d	-0.055812884
148	0x3d543531	0.05180854
149	0xbda3674a	-0.07978685
150	0xbd9868b2	-0.07441844
151	0xbd4ce4e1	-0.050022963
152	0xbd2bbbdb	-0.0419272
153	0x3c610766	0.013734674
154	0xbd90464c	-0.07044658
155	0xbdd24eef	-0.10268962
156	0x3d908e00	0.07058334
157	0xbdb5e380	-0.08881283
158	0x3dfcf5e3	0.12351587
159	0xbc91edd6	-0.017813604
160	0xbdc792e2	-0.097448125
161	0xbdbc6ca9	-0.09200413
162	0x3d5f123d	0.054460753
163	0xbc97e7cf	-0.018543152
164	0xbd4e13ee	-0.050311975
165	0x3d4d3fdb	0.050109725
166	0x3d74a365	0.059726138
167	0xbd869b22	-0.06572558
168	0x3c2d3314	0.01057126
169	0xbdd4c933	-0.10389938
170	0x3dbe3d99	0.092890926
171	0xbdf7d240	-0.12100649
172	0xbdbc6f5b	-0.09200927
173	0xbd924d28	-0.07143623
174	0xbd6b7dc2	-0.05749298
175	0xbd8da017	-0.069153
176	0x3de1b77c	0.11021325
177	0xbda0fe8a	-0.078610495
178	0xbcc6313d	-0.0241934
179	0xbdb7b2f6	-0.08969681
180	0x3ccaa736	0.024737936
181	0xbd66fbd0	-0.05639249
182	0xbe04a555	-0.12953694
183	0x3db030c4	0.08603051
184	0xbd8dfce8	-0.06933004
185	0xbdba1b2c	-0.09087214
186	0x3b93789b	0.0045004613
187	0x3dea2d36	0.114344046
188	0xbd965e09	-0.073421545
189	0xbc043f19	-0.008071684
190	0x3d987536	0.07444231
191	0x3d398333	0.045291137
192	0xbc2d02f2	-0.010559784
193	0x3d778930	0.060433567
194	0x3c42cf63	0.011890265
195	0xbdd96116	-0.10614221
196	0xbdc7085c	-0.09718391
197	0x3d2a2860	0.04154241
198	0x3da2a0a2	0.079407945
199	0x3ded83fb	0.11597439
200	0x3d83a05a	0.06427069
201	0xbde63161	-0.11239887
202	0x3da6f13f	0.08151483
203	0xbd45dd2e	-0.048306637
204	0xbd335ce9	-0.043789778
205	0x3c5807fc	0.013185497
206	0xbda6fedb	-0.081540786
207	0x3de967a4	0.11396721
208	0xbdf3bc37	-0.119011335
209	0x3d0aca1b	0.03388415
210	0xbdf1b3ac	-0.11801848
211	0x3dc203f2	0.09473409
212	0xbd52d00f	-0.05146795
213	0x3cef1ddc	0.029189043
214	0x3d850539	0.06495137
215	0x3b814d47	0.0039459798
216	0x3d2c026c	0.041994497
217	0xbdba89d1	-0.09108318
218	0xbccf3a5f	-0.025296388
219	0x3ddbea48	0.10738045
220	0x3ce345f0	0.02774331
221	0x3d83bad2	0.064321175
222	0xbd1082f8	-0.03528115
223	0x3d8b68b7	0.06807082
224	0x3d22c95d	0.039742816
225	0xbc9acc02	-0.018896107
226	0xbc47466f	-0.012162789
227	0xbd9cbc59	-0.07653112
228	0x3b74fe78	0.003738312
229	0x3dcc73de	0.099830374
230	0x3dba8d63	0.091089986
231	0xbdc42b68	-0.095785916
232	0xbdabc64c	-0.083874315
233	0xbc354a75	-0.011065115
234	0x3deddf9d	0.116149165
235	0x3d941916	0.07231347
236	0x3df1072a	0.117689446
237	0x3d4c5df9	0.049894307
238	0xbdb1384c	-0.08653316
239	0x3dab300b	0.08358773
240	0xbddd79a2	-0.10814215
241	0xbd065202	-0.032793052
242	0xbd8e4054	-0.06945863
243	0xbd0c0494	-0.034184054
244	0xbd2ce489	-0.042210136
245	0xbdd5c8b2	-0.1043867
246	0x3dc88d59	0.09792585
247	0xbd9295ee	-0.07157503
248	0x3da0a1c6	0.07843356
249	0x3d14ba28	0.036310345
250	0xbd8c0423	-0.068367265
251	0xbdba620b	-0.091007315
252	0xbda67a50	-0.08128798
253	0xbdc553a1	-0.096350916
254	0x3d395d22	0.045254834
255	0xbdb35ad3	-0.08757558
