td_best_model.pth (torch, 863897 bytes, 57 tensors)

input.weight f4 [64, 7]
-0.19362712 -0.15926944 -0.11508733 -0.22480825 -0.19264098 -0.36164385 0.08031901 -0.060187887
0.10644381 0.14114082 0.01594181 0.28060648 -0.3537988 -0.08616914 -0.18979326 -0.0721285
0.16658874 0.051235184 0.05348978 0.21765727 -0.24678157 -0.20999026 0.119431816 -0.024654087
0.15306614 -0.102705084 -0.13728869 0.21596788 -0.09774012 -0.116512604 0.095799915 0.02105376
-0.20404367 0.29598036 0.097522914 -0.06834402 -0.0061756335 -0.06543549 -0.023500038 -0.11654873
0.1726209 0.018604342 -0.12016108 0.020492047 -0.02485081 -0.11852029 -0.21318714 -0.25271088
-0.22652057 -0.14787796 0.19399774 0.004766422 0.21573031 0.254087 0.28947198 -0.003729025
0.26205328 -0.16732591 -0.11107299 0.06607409 -0.23681228 0.06710823 0.07645484 -0.09022505
0.012017378 0.031990115 -0.03012146 -0.23383185 0.050634004 0.1167637 0.14077915 -0.06057508
0.25222698 -0.010310498 0.10888669 -0.059795 -0.20634516 0.06658297 -0.12598282 0.088032775
0.14510457 9.941029e-05 0.13264103 -0.1372032 0.03731972 0.11890556 -0.2612517 -0.08719685
-0.07917862 0.2941877 0.25009257 0.21842495 0.09034026 -0.0042947154 0.10773923 -0.12826583
0.35968894 0.17336477 0.06882996 0.16418815 0.12789644 -0.19435474 0.21686244 -0.23361263
-0.16963308 -0.14834945 0.05404224 0.058775835 0.072478406 -0.2020682 -0.437843 0.2636986
-0.19705302 0.09832112 0.12439798 0.055068303 0.03391827 0.17343307 -0.01838142 -0.07469074
-0.21465325 -0.06531471 -0.06090034 -0.24360558 -0.05823617 -0.015765954 -0.036046416 -0.009291015
-0.010502445 0.17808084 -0.08594946 0.17690773 0.17274296 0.08315921 -0.11722201 0.19403306
0.044649098 -0.2266359 -0.19230255 -0.2046956 -0.22206609 0.028011078 0.014156219 -0.02811136
0.22272837 0.38368165 -0.021110898 0.22524478 -0.1319152 0.22747643 0.14901227 0.20441045
-0.09404289 0.10371828 -0.17416945 -0.055515017 0.25218868 0.17180558 -0.12922753 -0.38305572
0.03595188 -0.08260252 0.21071395 0.016301984 -0.22137006 -0.08843249 0.09533112 0.0012342436
0.087342404 -0.22804096 0.15899096 0.009001542 0.101498626 -0.22396682 0.13041279 -0.05218909
-0.24043606 0.22672644 0.12929794 0.05304552 0.34308133 -0.2157372 -0.10265606 0.038411185
0.025426071 0.03256143 -0.031299572 -0.052366503 -0.09846369 0.16446733 -0.09259085 0.13369405
0.064495675 0.063018724 -0.3798915 0.20795062 -0.013391796 0.23844883 0.10854876 0.057413295
0.10544598 -0.12307841 0.19879057 0.17539921 -0.17954178 0.20164984 0.06583665 -0.0881484
0.090842105 0.2239794 0.027677296 0.18792526 -0.13954999 0.09058418 0.07591358 0.11380592
0.091215216 -0.061679117 -0.24123189 0.2107232 -0.23276071 0.27555397 0.015873384 0.11754551
0.16334504 0.16642027 -0.2278086 -0.1785927 0.09395337 -0.55597794 0.061567623 -0.18676549
0.09474948 0.13449 0.005488631 -0.14398433 -0.07456461 0.13930917 0.26811907 -0.17420703
-0.05480243 -0.04387426 -0.08045967 0.15428802 0.018219965 -0.0037687912 0.049518038 -0.16007434
0.1360805 -0.16452593 -0.34144732 0.15066169 -0.07084175 0.22386576 0.073774934 0.007945732
00000000: 3046 46be 8717 23be e8b2 ebbd 2234 66be
00000010: ad43 45be 6229 b9be 4b7e a43d 9387 76bd
00000020: 36ff d93d 3887 103e 6698 823c a7ab 8f3e
00000030: 1e25 b5be 7279 b0bd 2a59 42be 1bb8 93bd
00000040: 3d96 2a3e fcdb 513d 1918 5b3d 8ce1 5e3e
00000050: 4fb4 7cbe b007 57be ab98 f43d 5ef7 c9bc
00000060: 5fbd 1c3e 0b57 d2bd 6895 0cbe af26 5d3e
00000070: f92b c8bd 299e eebd bf32 c43d ef78 ac3c
00000080: d3f0 50be bd8a 973e 18ba c73d f3f7 8bbd
00000090: f85c cabb 0b03 86bd 2783 c0bc 1ab1 eebd
000000a0: 89c3 303e 2268 983c 0317 f6bd f0de a73c
000000b0: ed93 cbbc c4ba f2bd bb4d 5abe 5263 81be
000000c0: 02f5 67be 526d 17be 58a7 463e a52f 9c3b
000000d0: 68e8 5c3e b117 823e ac35 943e a862 74bb
000000e0: d92b 863e 7c57 2bbe 3c7a e3bd da51 873d
000000f0: eb7e 72be 0a70 893d 5b94 9c3d e9c7 b8bd
00000100: 89e4 443c 1108 033d 48c1 f6bc 9e71 6fbe
00000110: 9a65 4f3d cf21 ef3d 6928 103e 931d 78bd
00000120: e523 813e 5ded 28bc fcff de3d 9aeb 74bd
00000130: 254c 53be a75c 883d a401 01be 874a b43d
00000140: 4b96 143e 7e7a d038 0dd3 073e ff7e 0cbe
00000150: 90dc 183d c284 f33d c8c2 85be 4394 b2bd
00000160: 6628 a2bd c59f 963e 220c 803e caaa 5f3e
00000170: 5004 b93d afba 8cbb 63a6 dc3d 1e58 03be
00000180: 2629 b83e 8986 313e b9f6 8c3d f020 283e
00000190: 49f7 023e ee04 47be 3011 5e3e 2638 6fbe
000001a0: 4bb4 2dbe ebe8 17be 655b 5d3d eebe 703d
000001b0: 8f6f 943d f7ea 4ebe f52c e0be 8103 873e
000001c0: 44c8 49be 955c c93d 5ec4 fe3d 4d8f 613d
000001d0: e2ed 0a3d 7098 313e a294 96bc 75f7 98bd
000001e0: 10ce 5bbe b8c3 85bd a372 79bd be73 79be
000001f0: 0d89 6ebd 9a27 81bc 68a5 13bd 5739 18bc
00000200: 7212 2cbc d35a 363e 4506 b0bd 4d27 353e
00000210: 88e3 303e 604f aa3d 1812 f0bd 9ab0 463e
00000220: f9e1 363d 3e13 68be f6ea 44be b99b 51be
00000230: 4b65 63be 7d77 e53c 7cef 673c cb49 e6bc
00000240: e812 643e ec71 c43e c3f0 acbc 91a6 663e
00000250: c714 07be 95ef 683e ac96 183e f950 513e
00000260: 8f99 c0bd 406a d43d 7a59 32be b763 63bd
00000270: e01e 813e cded 2f3e 3954 04be e11f c4be
00000280: 4742 133d 832b a9bd 66c5 573e bd8b 853c
00000290: d5ae 62be 181c b5bd f63c c33d 58c6 a13a
000002a0: 93e0 b23d 9283 69be 87ce 223e 347b 133c
000002b0: 83de cf3d 8f57 65be ee8a 053e 3ac4 55bd
000002c0: df34 76be fa2a 683e ae66 043e 4246 593d
000002d0: 5ba8 af3e 36ea 5cbe 573d d2bd 0c55 1d3d
000002e0: 564a d03c 225f 053d fb33 00bd 427e 56bd
000002f0: 55a7 c9bd 206a 283e 46a0 bdbd 18e7 083e
00000300: 4f16 843d f60f 813d 2481 c2be 02f1 543e
00000310: 4369 5bbc ee2b 743e d04e de3d 342a 6b3d
00000320: 10f4 d73d 8910 fcbd c18f 4b3e da9b 333e
00000330: cdd9 37be 4c7d 4e3e 5ed5 863d 2687 b4bd
00000340: 6d0b ba3d db5a 653e 7fbb e23c 7b6f 403e
00000350: 31e6 0ebe 3384 b93d 9478 9b3d 1413 e93d
00000360: 0bcf ba3d 3ea3 7cbd 7e05 77be d3c7 573e
00000370: d358 6ebe 6915 8d3e e608 823c b3bb f03d
00000380: ec43 273e 136a 2a3e a846 69be 01e1 36be
00000390: a06a c03d 9254 0ebf 552e 7c3d 743f 3fbe
000003a0: 040c c23d bfb7 093e f9d9 b33b a170 13be
000003b0: 55b5 98bd 10a7 0e3e e746 893e 5463 32be
000003c0: 8378 60bd 7fb5 33bd 0ac8 a4bd aefd 1d3e
000003d0: 0942 953c d3fd 76bb 6dd3 4a3d 87ea 23be
000003e0: b058 0b3e 7c79 28be 2fd2 aebe 0f47 1a3e
000003f0: 7b15 91bd 113d 653e 5017 973d d12e 023c

input.bias f4 [64]
0.17172466 0.16636358 -0.029789174 0.23580366 0.044135842 0.26061565 0.23705514 0.086945735
-0.008110078 0.16288275 -0.055948816 0.035013113 0.15056013 0.09536485 -0.21870323 -0.12643139
0.13888964 0.08971842 0.021614645 -0.16839272 0.012611712 -0.16824198 -0.15769297 0.074440844
0.25381342 0.23738897 0.069009334 0.019733619 -0.14991036 0.19352329 0.279473 0.082133256
0.029316528 0.086936876 -0.19614264 0.17117527 -0.14227661 0.17333172 0.23313579 -0.030129366
-0.24195282 0.1531634 0.15221222 0.056938015 0.102779254 0.10526765 0.07865016 0.06932269
0.014129117 0.09800955 0.101679295 -0.13282889 0.08156014 0.22683708 -0.13021164 -0.24598783
0.031730372 0.20504719 0.16178429 -0.23206404 0.046635263 -0.20488864 0.06530226 -0.06934827
00000000: 97d8 2f3e 375b 2a3e 6d08 f4bc 8476 713e
00000010: c9c7 343d 6a6f 853e 95be 723e 9b10 b23d
00000020: 22e0 04bc bcca 263e 962a 65bd e969 0f3d
00000030: 6f2c 1a3e a54e c33d bdf3 5fbe 3b77 01be
00000040: 1639 0e3e 4abe b73d 3211 b13c 246f 2cbe
00000050: 5ba1 4e3c a047 2cbe 447a 21be 7174 983d
00000060: d5f3 813e 1816 733e c454 8d3d 66a8 a13c
00000070: 1a82 19be f82a 463e 1617 8f3e 7b35 a83d
00000080: 3729 f03c f60b b23d 9ed9 48be 9248 2f3e
00000090: f6b0 11be df7d 313e 26bb 6e3e dcd1 f6bc
000000a0: 7bc2 77be ded6 1c3e 85dd 1b3e d637 693d
000000b0: ee7d d23d 9196 d73d 5613 a13d 0ef9 8d3d
000000c0: d07d 673c 3bb9 c83d 3c3d d03d 4c04 08be
000000d0: 0109 a73d fb47 683e 3356 05be 3ce4 7bbe
000000e0: b5f7 013d e4f7 513e c8aa 253e 32a2 6dbe
000000f0: 9e04 3f3d 54ce 51be 31bd 853d 7706 8ebd

pe.pe f4 [1, 24, 64]
0.0 1.0 0.0 1.0 0.0 1.0 0.0 1.0
0.0 1.0 0.0 1.0 0.0 1.0 0.0 1.0
0.0 1.0 0.0 1.0 0.0 1.0 0.0 1.0
0.0 1.0 0.0 1.0 0.0 1.0 0.0 1.0
0.0 1.0 0.0 1.0 0.0 1.0 0.0 1.0
0.0 1.0 0.0 1.0 0.0 1.0 0.0 1.0
0.0 1.0 0.0 1.0 0.0 1.0 0.0 1.0
0.0 1.0 0.0 1.0 0.0 1.0 0.0 1.0
0.84147096 0.54030234 0.68156135 0.731761 0.53316844 0.8460091 0.40930894 0.91239583
0.3109836 0.9504153 0.23492105 0.9720145 0.17689219 0.9842302 0.13295726 0.99112177
0.099833414 0.9950042 0.07491915 0.9971896 0.05620449 0.9984193 0.04215715 0.999111
0.031617504 0.99950004 0.023711512 0.99971884 0.017781857 0.99984187 0.013334819 0.99991107
0.009999833 0.99995 0.0074988706 0.99997187 0.0056233825 0.9999842 0.0042169513 0.9999911
0.0031622713 0.999995 0.0023713715 0.9999972 0.0017782785 0.99999845 0.0013335211 0.9999991
0.0009999998 0.9999995 0.000749894 0.9999997 0.0005623411 0.9999998 0.00042169637 0.99999994
0.00031622782 0.99999994 0.00023713727 1.0 0.00017782794 1.0 0.00013335208 1.0
0.9092974 -0.41614684 0.99748 0.070948265 0.9021307 0.43146282 0.74690354 0.66493237
0.5911271 0.8065784 0.45669332 0.8896242 0.34820527 0.93741834 0.26355368 0.96464473
0.19866931 0.9800666 0.1494172 0.98877424 0.1122313 0.9936821 0.08423935 0.99644554
0.063203394 0.9980007 0.04740969 0.9988755 0.03555809 0.9993676 0.026667267 0.99964434
0.019998666 0.9998 0.014997319 0.9998875 0.011246587 0.99993676 0.008433828 0.9999644
0.006324511 0.99998003 0.00474273 0.99998873 0.0035565514 0.9999937 0.0026670396 0.9999964
0.0019999985 0.99999803 0.0014997876 0.99999887 0.0011246821 0.99999934 0.0008433926 0.99999964
0.0006324556 0.9999998 0.0004742745 0.9999999 0.00035565588 0.99999994 0.00026670416 1.0
0.14112 -0.9899925 0.7782725 -0.6279267 0.9932532 -0.11596616 0.95363444 0.3009673
0.8126489 0.58275366 0.652904 0.7574407 0.5085361 0.86104065 0.3894703 0.92103904
0.2955202 0.9553365 0.22307542 0.9748012 0.16790329 0.9858035 0.12617177 0.9920084
0.094726086 0.99550337 0.071081206 0.9974705 0.053323083 0.9985773 0.039994974 0.99919987
0.0299955 0.99955004 0.022494925 0.999747 0.016869437 0.9998577 0.012650555 0.99991995
0.009486687 0.999955 0.0071140616 0.9999747 0.005334813 0.99998575 0.0040005534 0.999992
0.0029999954 0.9999955 0.0022496805 0.9999975 0.0016870227 0.99999857 0.0012650888 0.9999992
0.00094868336 0.9999996 0.00071141176 0.99999976 0.0005334838 0.9999999 0.00040005625 0.99999994
00000000: 0000 0000 0000 803f 0000 0000 0000 803f
00000010: 0000 0000 0000 803f 0000 0000 0000 803f
00000020: 0000 0000 0000 803f 0000 0000 0000 803f
00000030: 0000 0000 0000 803f 0000 0000 0000 803f
00000040: 0000 0000 0000 803f 0000 0000 0000 803f
00000050: 0000 0000 0000 803f 0000 0000 0000 803f
00000060: 0000 0000 0000 803f 0000 0000 0000 803f
00000070: 0000 0000 0000 803f 0000 0000 0000 803f
00000080: 0000 0000 0000 803f 0000 0000 0000 803f
00000090: 0000 0000 0000 803f 0000 0000 0000 803f
000000a0: 0000 0000 0000 803f 0000 0000 0000 803f
000000b0: 0000 0000 0000 803f 0000 0000 0000 803f
000000c0: 0000 0000 0000 803f 0000 0000 0000 803f
000000d0: 0000 0000 0000 803f 0000 0000 0000 803f
000000e0: 0000 0000 0000 803f 0000 0000 0000 803f
000000f0: 0000 0000 0000 803f 0000 0000 0000 803f
00000100: a46a 573f 4151 0a3f ce7a 2e3f b054 3b3f
00000110: ba7d 083f 0d94 583f f190 d13e c692 693f
00000120: 3e39 9f3e 6b4e 733f 258f 703e f1d5 783f
00000130: 3a23 353e 83f6 7b3f f325 083e 28ba 7d3f
00000140: 7675 cc3d 98b8 7e3f 366f 993d d147 7f3f
00000150: ae36 663d 6898 7f3f faac 2c3d bdc5 7f3f
00000160: 5b81 013d 3cdf 7f3f a53e c23c 93ed 7f3f
00000170: 42ab 913c a3f5 7f3f 497a 5a3c 2cfa 7f3f
00000180: 57d6 233c b9fc 7f3f 16b9 f53b 28fe 7f3f
00000190: 5a44 b83b f7fe 7f3f 5a2e 8a3b 6bff 7f3f
000001a0: 1c3e 4f3b acff 7f3f 0369 1b3b d1ff 7f3f
000001b0: 2015 e93a e6ff 7f3f 8bc9 ae3a f1ff 7f3f
000001c0: 6d12 833a f8ff 7f3f 8994 443a fbff 7f3f
000001d0: 136a 133a fdff 7f3f 2117 dd39 ffff 7f3f
000001e0: 61cb a539 ffff 7f3f 0da8 7839 0000 803f
000001f0: 5377 3a39 0000 803f 6dd4 0b39 0000 803f
00000200: b7c7 683f 3311 d5be d95a 7f3f 534d 913d
00000210: 0af2 663f b2e8 dc3e 1235 3f3f 0239 2a3f
00000220: 1b54 173f ec7b 4e3f b5d3 e93e 69be 633f
00000230: f647 b23e a6fa 6f3f 82f0 863e f5f2 763f
00000240: f86f 4b3e a5e5 7a3f d300 193e 4f20 7d3f
00000250: 86d9 e53d f361 7e3f ae85 ac3d 0e17 7f3f
00000260: c870 813d f97c 7f3f aa30 423d 4eb6 7f3f
00000270: 5ca5 113d 8ed6 7f3f 5075 da3c b1e8 7f3f
00000280: 3ed4 a33c e5f2 7f3f 51b7 753c a1f8 7f3f
00000290: 9b43 383c dbfb 7f3f 0a2e 0a3c abfd 7f3f
000002a0: d83d cf3b b1fe 7f3f e768 9b3b 43ff 7f3f
000002b0: 0815 693b 96ff 7f3f 80c9 2e3b c4ff 7f3f
000002c0: 6812 033b dfff 7f3f 8594 c43a edff 7f3f
000002d0: 126a 933a f5ff 7f3f 1f17 5d3a faff 7f3f
000002e0: 60cb 253a fdff 7f3f 0ca8 f839 feff 7f3f
000002f0: 5377 ba39 ffff 7f3f 6dd4 8b39 0000 803f
00000300: c381 103e 2670 7dbf de3c 473f cebf 20bf
00000310: d745 7e3f ab7f edbd 6321 743f 6318 9a3e
00000320: c209 503f 582f 153f b724 273f a2e7 413f
00000330: 6c2f 023f 296d 5c3f a768 c73e 37c9 6b3f
00000340: 6c4e 973e ef90 743f e26d 643e 928c 793f
00000350: d7ee 2b3e 9e5d 7c3f 2c33 013e 43f4 7d3f
00000360: c0ff c13d 4fd9 7e3f 0693 913d 3a5a 7f3f
00000370: 4e69 5a3d c3a2 7f3f c5d1 233d 90cb 7f3f
00000380: 1fb9 f53c 83e2 7f3f 4747 b83c 6bef 7f3f
00000390: c631 8a3c adf6 7f3f 4644 4f3c c1fa 7f3f
000003a0: 0d6e 1b3c 0dfd 7f3f 131d e93b 58fe 7f3f
000003b0: a8cf ae3b 11ff 7f3f 1317 833b 7aff 7f3f
000003c0: 929b 443b b5ff 7f3f 606f 133b d6ff 7f3f
000003d0: 171f dd3a e8ff 7f3f 56d1 a53a f3ff 7f3f
000003e0: 10b1 783a f9ff 7f3f 097e 3a3a fcff 7f3f
000003f0: 7ed9 0b3a feff 7f3f a4be d139 ffff 7f3f

transformer.layers.0.self_attn.in_proj_weight f4 [192, 64]
0.030950883 0.061339565 -0.18061596 -0.12774372 -0.040492933 -0.0031292555 -0.061772205 -0.11668855
0.066935025 -0.08821505 -0.021225754 0.04323773 0.059193462 0.17038372 0.093745925 -0.09295121
0.058228206 -0.095690735 -0.117338255 -0.15542021 -0.13895701 -0.09313456 0.001668572 -0.087208696
0.16341902 0.14138725 -0.14001735 0.1460667 -0.061781585 0.07140667 -0.032580875 0.17469418
0.1617406 -0.23928624 -0.05904091 -0.0223127 -0.26864585 0.16611171 0.10309511 -0.06426227
0.06993856 -0.083543405 -0.061832942 -0.060349956 -0.022501782 0.24898842 -0.050156508 -0.0947725
0.086048104 -0.06365231 0.0263478 0.038035 -0.054376297 -0.006563079 0.09014738 -0.22439378
-0.23713112 -0.04160248 -0.12069027 0.11201717 -0.034312606 -0.067212135 0.042355634 0.027579078
-0.10837576 -0.051506538 -0.09119369 -0.01628198 0.13541809 0.0993315 0.06451016 -0.18591066
-0.040172305 0.126304 0.1343965 -0.14736894 -0.053205453 0.07619205 -0.061117426 -0.10924845
0.098827295 0.04718212 0.008675397 -0.009407314 0.0011953469 -0.150968 -0.02363907 0.044716258
-0.17807369 0.12090653 -0.027396206 0.09071949 0.048338953 -0.015315967 -0.09420852 -0.09930233
-0.14310056 0.16260862 -0.020599518 -0.12965176 0.05769598 -0.07972951 0.035852633 -0.048363503
-0.010736644 -0.054381367 -0.022610405 -0.022592746 0.021926086 -0.104853876 -0.051287618 -0.14262332
0.04062441 0.030316027 -0.10010171 -0.01410356 -0.025917111 -0.05393992 0.120898254 -0.048737466
-0.015576706 -0.012079847 -0.072406925 -0.025595667 0.017583095 -0.048655123 0.083322614 -0.16668294
0.059049357 0.17569323 -0.11331518 -0.04095164 -0.11565055 -0.057949062 -0.13919324 -0.023179788
-0.06310125 -0.11007655 -0.14704731 -0.04068352 0.05243231 -0.08551498 0.036649514 0.007987198
0.14259481 -0.012057075 -0.00860549 -0.10497252 0.15066326 -0.104312085 0.077681065 -0.16058105
-0.020453172 0.15831159 0.06377983 0.19748254 -0.05995647 0.11273324 0.021477226 0.12489642
0.008260838 -0.05562951 0.07644823 0.11402916 -0.046929717 0.063071646 -0.017130964 0.037774816
-0.11556648 0.098499715 0.079011925 0.15019256 -0.111228496 -0.017370071 0.02578943 -0.062141728
-0.19737926 0.06785945 0.10497324 0.076161444 -0.16608432 0.07997861 0.01953558 -0.08619053
-0.05471439 -0.12559214 -0.12880823 0.11365028 -0.1578673 -0.008423825 -0.1128179 -0.02739826
0.03997794 0.15550028 0.14589997 0.06682548 0.1149958 -0.1412563 0.10584208 -0.0057294923
-0.04798967 -0.027059007 0.123515725 0.0048621697 0.081915416 -0.065524444 -0.08130802 0.18683109
0.1374779 -0.004267443 -0.1392376 -0.10098454 0.17894173 0.15791588 0.07702133 0.09435959
0.07054332 0.104671225 0.15529726 0.10600776 0.11982518 -0.15701045 -0.1258751 0.15632309
0.14542218 -0.09887842 0.018262358 -0.02544209 0.08023075 0.092583746 -0.11614642 0.059495162
-0.09031087 0.19998123 0.0828101 -0.030068083 -0.0943509 -0.13563122 0.040371884 -0.07896448
0.045383878 0.0020779863 -0.0914468 0.12644681 -0.1932987 -0.18535775 -0.06981299 0.032641493
-0.16430852 0.019016134 -0.043372773 0.12681787 0.039188866 -0.03804237 -0.12961455 -0.065407276
00000000: b58c fd3c 323f 7b3d 64f3 38be 40cf 02be
00000010: ebdb 25bd 3214 4dbb da04 7dbd 68fa eebd
00000020: 3b15 893d 18aa b4bd a2e1 adbc 0c1a 313d
00000030: d874 723d 1279 2e3e ddfd bf3d 345d bebd
00000040: b380 6e3d 81f9 c3bd 0a4f f0bd 7a26 1fbe
00000050: bf4a 0ebe 55bd bebd fcb3 da3a 799a b2bd
00000060: 5157 273e d2c7 103e b560 0fbe 8292 153e
00000070: b00e 7dbd a93d 923d 8673 05bd 08e3 323e
00000080: 549f 253e 7407 75be e2d4 71bd 20c9 b6bc
00000090: f38b 89be 3019 2a3e 8723 d33d f09b 83bd
000000a0: f33b 8f3d ce18 abbd 8a44 7dbd 8431 77bd
000000b0: a855 b8bc d2f6 7e3e e970 4dbd 1618 c2bd
000000c0: fd39 b03d 245c 82bd 57d7 d73c 97ca 1b3d
000000d0: aeb9 5ebd 190f d7bb 319f b83d 7cc7 65be
000000e0: 80d2 72be 5d67 2abd 762c f7bd 4269 e53d
000000f0: 608b 0cbd 84a6 89bd 1a7d 2d3d 85ed e13c
00000100: 1cf4 ddbd 85f8 52bd c2c3 babd c961 85bc
00000110: 0aab 0a3e 506e cb3d e71d 843d 5d5f 3ebe
00000120: b78b 24bd d655 013e 3c9f 093e e2e7 16be
00000130: f6ed 59bd 940a 9c3d 4456 7abd a7bd dfbd
00000140: f765 ca3d 0a42 413d 4123 0e3c 2221 1abc
00000150: 30ad 9c3a 5b97 1abe b9a6 c1bc 6528 373d
00000160: f358 36be d89d f73d 026e e0bc 24cb b93d
00000170: 11ff 453d d2ef 7abc 66f0 c0bd 055f cbbd
00000180: f488 12be e082 263e 52c0 a8bc 6ec3 04be
00000190: 9f52 6c3d 3a49 a3bd 36da 123d cf18 46bd
000001a0: c0e8 2fbc ffbe 5ebd 7539 b9bc 6c14 b9bc
000001b0: 569e b33c a1bd d6bd f712 52bd d90b 12be
000001c0: c865 263d 5159 f83c 2002 cdbd 9e12 67bc
000001d0: 1f50 d4bc 1bf0 5cbd 8199 f73d f0a0 47bd
000001e0: 7135 7fbc 8dea 45bc 154a 94bd 01ae d1bc
000001f0: 6c0a 903c 984a 47bd 0ca5 aa3d efae 2abe
00000200: bddd 713d ede8 333e ca11 e8bd e8bc 27bd
00000210: 32da ecbd ff5b 6dbd ac88 0ebe 8ae3 bdbc
00000220: 3a3b 81bd d06f e1bd 9293 16be c3a3 26bd
00000230: 43c3 563d 7a22 afbd cd1d 163d bddc 023c
00000240: 6004 123e 0a8b 45bc 0bfe 0cbc d5fb d6bd
00000250: 7847 1a3e 93a1 d5bd 4017 9f3d 5c6f 24be
00000260: 698d a7bc 6f1c 223e 009f 823d dd38 4a3e
00000270: ea94 75bd afe0 e63d 02f1 af3c b2c9 ff3d
00000280: 7758 073c c5db 63bd e490 9c3d 1f88 e93d
00000290: 6039 40bd b52b 813d 3c56 8cbc c4b9 1a3d
000002a0: 1eae ecbd 38ba c93d 01d1 a13d 14cc 193e
000002b0: c4cb e3bd ae4b 8ebc 5b44 d33c 5388 7ebd
000002c0: ca1d 4abe e5f9 8a3d 36fc d63d 88fa 9b3d
000002d0: 0212 2abe d3cb a33d 1509 a03c a984 b0bd
000002e0: 321c 60bd 3a9b 00be 4ee6 03be 7ac1 e83d
000002f0: f7a7 21be 1504 0abc 120d e7bd 5172 e0bc
00000300: e9bf 233d 773b 1f3e cd66 153e ccdb 883d
00000310: eb82 eb3d 7ea5 10be bcc3 d83d 77be bbbb
00000320: d190 44bd daaa ddbc d0f5 fc3d d652 9f3b
00000330: 45c3 a73d ae31 86bd d284 a6bd a650 3f3e
00000340: 02c7 0c3e e8d5 8bbb 4d94 0ebe fcd0 cebd
00000350: 803c 373e b3b4 213e 5cbd 9d3d 9a3f c13d
00000360: 0479 903d de5d d63d 3f06 1f3e 991a d93d
00000370: e766 f53d 59c7 20be 67e5 00be 2913 203e
00000380: 8de9 143e c580 cabd f19a 953c ee6b d0bc
00000390: 0550 a43d 8c9c bd3d 2dde edbd 33b1 733d
000003a0: e8f4 b8bd e1c7 4c3e 5798 a93d 5751 f6bc
000003b0: 0b3b c1bd e9e2 0abe fd5c 253d 21b8 a1bd
000003c0: 72e4 393d d32e 083b 7648 bbbd 467b 013e
000003d0: 18f0 45be 6cce 3dbe 1dfa 8ebd 16b3 053d
000003e0: 7e40 28be b9c7 9b3c a6a7 31bd 8bdc 013e
000003f0: 8184 203d 51d2 1bbd adb9 04be 40f4 85bd

transformer.layers.0.self_attn.in_proj_bias f4 [192]
0.08895713 0.008754117 0.03203527 -0.0440132 0.009019303 -0.0053869644 0.051422115 0.047366247
0.024313485 -0.009238945 0.03841361 0.007917132 -0.0047539915 -0.02543379 0.031138858 0.009958182
0.013948331 -0.04379483 -0.029550262 0.07416247 -0.025533672 0.0098292 0.010737973 0.01809667
-0.029628495 0.01811763 -0.08476029 0.0075351917 -0.07643182 0.059525725 0.06078929 0.029452423
0.017476574 -0.0335623 -0.025903566 0.02432401 -0.0077439807 0.04184292 -0.029428415 -0.03914291
-0.04197758 -0.03938375 0.026696796 0.05452112 0.06289259 0.06382781 -0.028338715 0.058526915
-0.05998492 0.03363917 -0.027285978 -0.05791705 0.028185764 0.04608361 -0.007891183 0.009092535
0.018944807 0.08032824 0.013763948 0.00270887 -0.03514974 0.0005957409 0.05626631 0.03593122
0.009606602 -0.0030623656 -0.0028515263 -0.002262214 0.008971729 0.0012393744 -0.0071046883 0.013521399
0.005587458 -0.0005935778 0.009561668 0.013699333 0.0048702257 -0.004546342 0.005797031 0.0043282527
-0.006411414 0.0034272012 -0.0013816163 0.0004986555 -0.005146285 0.008750926 -0.0050615296 0.009225372
-0.012110061 -0.00023096963 -0.011768997 0.01652847 -0.011338601 0.008288166 0.0007733574 0.01391448
0.0025020086 0.005149415 0.0038993869 -0.0019116196 -0.0059940065 -0.002229649 0.007334552 0.00023099774
0.002726381 0.0061353683 0.006213725 -0.0021988968 6.337921e-06 0.0017720185 -0.0049347333 -0.003248641
0.0042641796 -0.006222191 0.002074369 -0.005728802 -0.004763653 -0.0022802537 0.0013957563 -0.0019082793
0.00083911215 -0.011137836 0.012723379 -0.019345602 -0.02911284 -0.00018069145 0.009763309 -0.016416352
0.021670619 0.009633282 -0.015875934 0.0005290366 -0.013636935 -0.0033754068 0.0074457685 0.00808519
-0.015806722 -0.010098165 -0.004672771 0.016197521 -0.002485525 -0.017062232 -0.0054653087 -0.03959393
0.013018312 -0.050551586 0.010664917 -0.0024082772 -0.0062129716 0.007781083 -0.015844518 0.012169083
0.011498614 0.03267286 0.018820522 0.03383254 0.016959226 0.00454808 0.046588562 -0.023032486
0.04248271 0.014410051 0.013202092 -0.009208467 -0.01511161 0.01538561 0.022624124 0.032124784
-0.0030495788 -0.022181746 -0.0021015087 0.006483641 0.008336014 -0.0054250127 -0.007932051 0.010094222
0.04364152 0.028330326 -0.00910587 0.010881268 -0.009046669 0.006173858 0.024817938 -0.009042255
0.001567893 -0.009802801 0.005844902 0.011149332 0.01262903 -0.00044557036 0.028320016 -0.02543199
00000000: 282f b63d 6e6d 0f3c 6a37 033d 2f47 34bd
00000010: b3c5 133c 2285 b0bb ff9f 523d 1c03 423d
00000020: 132d c73c f25e 17bc 9757 1d3d dcb6 013c
00000030: 5fc7 9bbb 865a d0bc eb16 ff3c a527 233c
00000040: 8a87 643c 3562 33bd 6413 f2bc 7ee2 973d
00000050: fe2b d1bc a70a 213c 53ee 2f3c 783f 943c
00000060: 75b7 f2bc 6d6b 943c ce96 adbd c5e9 f63b
00000070: 4988 9cbd 3fd1 733d 31fe 783d 3546 f13c
00000080: 082b 8f3c 9f78 09bd b733 d4bc 2543 c73c
00000090: 38c1 fdbb 7b63 2b3d dc13 f1bc 5154 20bd
000000a0: aff0 2bbd db50 21bd 3db3 da3c 8a51 5f3d
000000b0: d5cd 803d 28b8 823d 9826 e8bc ebb9 6f3d
000000c0: bfb2 75bd 3ac9 093d d886 dfbc 6e3a 6dbd
000000d0: d5e5 e63c 2bc2 3c3d 054a 01bc dbf8 143c
000000e0: 2432 9b3c 2283 a43d 2f82 613c 4c87 313b
000000f0: 2cf9 0fbd 7f2b 1c3a 8177 663d 9d2c 133d
00000100: 0265 1d3c f8b1 48bb ace0 3abb a741 14bb
00000110: 29fe 123c 8172 a23a 72ce e8bb dc88 5d3c
00000120: ff16 b73b 559a 1bba 8ba8 1c3c 2b73 603c
00000130: 6a96 9f3b 7bf9 94bb 05f5 bd3b 04d4 8d3b
00000140: d716 d2bb e59a 603b 5a17 b5ba 34b8 023a
00000150: 2ba2 a8bb 0b60 0f3c 30db a5bb 0426 173c
00000160: 4769 46bc 7030 72b9 c0d2 40bc b766 873c
00000170: 8ac5 39bc 16cb 073c 23bb 4a3a 8ff9 633c
00000180: bdf8 233b 6dbc a83b db8c 7f3b 4f8f faba
00000190: 5f69 c4bb 4e1f 12bb ae56 f03b fc37 7239
000001a0: 15ad 323b 330b c93b 819c cb3b 5e1b 10bb
000001b0: 54aa d436 1343 e83a 8bb3 a1bb 27e7 54bb
000001c0: 88ba 8b3b 85e3 cbbb 23f2 073b adb8 bbbb
000001d0: 6b18 9cbb 4f70 15bb cff1 b63a 3a1f faba
000001e0: ddf7 5b3a 787b 36bc b875 503c ab7a 9ebc
000001f0: 0d7e eebc fe77 3db9 49f6 1f3c 967b 86bc
00000200: 9586 b13c ead4 1d3c 3f0e 82bc 0caf 0a3a
00000210: 736d 5fbc ee35 5dbb a2fb f33b bf77 043c
00000220: 197d 81bc c672 25bc 0b1e 99bb aab0 843c
00000230: 31e4 22bb 18c6 8bbc 5516 b3bb 3f2d 22bd
00000240: c24a 553c 2e0f 4fbd e7bb 2e3c 30d4 1dbb
00000250: 2f96 cbbb 75f8 fe3b 5dcc 81bc d560 473c
00000260: af64 3c3c fad3 053d 7f2d 9a3c fd93 0a3d
00000270: 13ee 8a3c 0f08 953b a6d3 3e3d a0ae bcbc
00000280: 5a02 2e3d 2218 6c3c 964d 583c 1cdf 16bc
00000290: b096 77bc ed13 7c3c 3a56 b93c 4795 033d
000002a0: 71db 47bb 7eb6 b5bc 77b9 09bb b974 d43b
000002b0: c793 083c 4ec4 b1bb 6ff5 01bc 3c62 253c
000002c0: 73c1 323d 0015 e83c c930 15bc 5947 323c
000002d0: 7b38 14bc 134e ca3b fd4e cb3c f725 14bc
000002e0: c281 cd3a ed9b 20bc 9786 bf3b b0ab 363c
000002f0: fee9 4e3c 719b e9b9 61ff e73c c056 d0bc

transformer.layers.0.self_attn.out_proj.weight f4 [64, 64]
0.064115085 0.21473339 0.035116214 0.035831474 -0.19556019 0.16822685 -0.008154874 -0.1009062
0.20726119 -0.1541009 0.034405846 0.024302231 0.17298786 -0.08350702 0.07066993 0.076057576
-0.24922812 -0.054684453 0.095359206 0.16334859 -0.0921478 -0.16633765 0.23614255 -0.057428185
0.0172026 0.19881183 0.10584273 0.23302852 0.051358286 0.092117146 -0.18490015 0.013242743
0.08627927 -0.10910108 0.18306011 0.18081759 0.1460034 0.07872086 -0.16551116 0.18982579
-0.002175631 0.02651936 -0.06997059 0.21715899 -0.2567376 -0.16329646 0.09327122 -0.13079874
0.12059471 -0.008719052 0.13112763 0.10303759 -0.08779665 0.08791071 -0.15389903 -0.1197916
-0.06286224 0.09093804 0.07033866 -0.050121505 0.13880351 0.01842271 -0.17124349 -0.07030458
0.094805665 0.025739415 -0.009859229 0.040744763 0.1644101 -0.13888024 0.12337261 -0.11333075
-0.22395399 -0.17077844 0.18318062 -0.015200557 -0.01762603 -0.005009815 -0.207807 0.034331657
0.017870756 -0.021938652 0.13704263 0.0018926559 -0.16732746 0.25078687 0.115325525 0.079441875
0.17944525 0.07490502 -0.06528603 -0.07961521 -0.10823986 -0.015012812 0.107352234 -0.14846411
-0.06960663 -0.15757656 -0.07404064 0.010966173 0.17854093 0.09698876 0.103543 0.041575383
-0.12104913 0.08777124 -0.023759956 0.026967712 -0.08551241 -0.004501063 -0.1904836 -0.014592264
-0.16234964 -0.019575682 -0.14412811 0.14384645 -0.029055886 0.06011937 -0.084917754 -0.038147926
-0.08407462 -0.0715514 -0.022399222 0.18392594 -0.14196375 0.04754077 -0.12635148 -0.24335372
-0.04782025 0.21772891 -0.13720283 -0.13321392 0.01372831 0.2372747 0.021530537 0.11570314
-0.038733456 0.22249073 -0.12815502 0.0067865364 -0.3637879 -0.11310754 0.05294306 0.2039614
0.08375778 0.22902611 -0.16373308 -0.017086903 0.1450134 -0.099489294 -0.27229482 -0.04404685
-0.14513312 -0.21252093 -0.073450774 0.18057314 0.13806799 0.16034469 -0.13234577 0.011125098
-0.24999677 0.17661668 -0.12288136 -0.10069364 0.124422036 0.040699884 -0.09007865 0.18376675
0.17789547 -0.10515216 0.23380406 -0.26260856 0.27174568 -0.09736733 0.13534036 0.028097054
0.03820909 -0.11003112 0.13030595 0.14575382 -0.05687009 0.13218197 0.02563834 0.022018738
-0.021483341 0.19063257 -0.18139404 0.12861755 -0.12215966 0.10134382 -0.03844464 0.15538669
-0.08665854 -0.20809616 0.14977096 -0.024663016 0.29843208 -0.09750082 0.1506554 0.093210146
0.12096674 0.13309528 -0.19097221 0.055118486 -0.13317102 -0.12724459 0.20875446 -0.2066935
-0.20036225 0.08281952 -0.16725342 0.18155704 -0.12649456 -0.13757195 -0.2219847 -0.1832509
0.10309092 0.22683896 -0.24973825 0.03790408 0.06123116 -0.07799514 0.039343826 0.06667354
0.0950345 -0.082813345 -0.018430194 -0.19750634 -0.06398266 -0.14082474 -0.038991712 0.15634835
-0.082847804 -0.043353584 -0.07213524 -0.25675693 0.09607079 0.1096741 -0.13594761 0.26396072
-0.108134605 0.16572754 0.12709117 0.003641576 0.06437786 0.17312323 0.028552908 -0.045979626
-0.03972477 0.0038457997 0.2116402 0.044571746 0.2260885 0.0993498 0.046168 0.101265155
00000000: c54e 833d 12e3 5b3e 05d6 0f3d 06c4 123d
00000010: ee40 48be a943 2c3e 059c 05bc e9a7 cebd
00000020: 473c 543e a0cc 1dbe 25ed 0c3d 7915 c73c
00000030: bb23 313e ba05 abbd 65bb 903d 13c4 9b3d
00000040: a835 7fbe cefc 5fbd b04b c33d da44 273e
00000050: fcb7 bcbd 6b54 2abe 5acf 713e d139 6bbd
00000060: 78ec 8c3c 5495 4b3e 13c4 d83d 079f 6e3e
00000070: 115d 523d eaa7 bc3d 7756 3dbe 17f8 583c
00000080: 30b3 b03d 6370 dfbd 1c74 3b3e 3f28 393e
00000090: ea81 153e 6738 a13d c27b 29be b161 423e
000000a0: 0895 0ebb 213f d93c be4c 8fbd ed5e 5e3e
000000b0: 1c73 83be 3037 27be fb04 bf3d 1bf0 05be
000000c0: 5cfa f63d 5bda 0ebc 5246 063e 5f05 d33d
000000d0: bbce b3bd 880a b43d b597 1dbe 4c55 f5bd
000000e0: ebbd 80bd b93d ba3d b70d 903d 354c 4dbd
000000f0: 8222 0e3e 39eb 963c 745a 2fbe d9fb 8fbd
00000100: 7929 c23d 77db d23c 9b88 21bc fbe3 263d
00000110: 1f5b 283e 9f36 0ebe c7aa fc3d f419 e8bd
00000120: 3254 65be 8be0 2ebe b393 3b3e c20b 79bc
00000130: 7764 90bc 6029 a4bb 5ccb 54be 5a9f 0c3d
00000140: b165 923c b0b8 b3bc e754 0c3e fe12 f83a
00000150: e457 2bbe 2367 803e ca2f ec3d 6cb2 a23d
00000160: 7fc0 373e ce67 993d afb4 85bd 4d0d a3bd
00000170: dcac ddbd 4cf8 75bc 7ddb db3d fa06 18be
00000180: ec8d 8ebd c05b 21be 9ea2 97bd 77ab 333c
00000190: 6fd3 363e 0ba2 c63d 5a0e d43d f34a 2a3d
000001a0: 9be8 f7bd 68c1 b33d 3da4 c2bc 64eb dc3c
000001b0: 2121 afbd a77d 93bb 220e 43be 6414 6fbc
000001c0: fc3e 26be 2e5d a0bc 5296 13be 7c4c 133e
000001d0: 9c06 eebc bb3f 763d 5ce9 adbd 0041 1cbd
000001e0: 502f acbd 8a89 92bd 937e b7bc 1557 3c3e
000001f0: f25e 11be 1cba 423d 4862 01be b831 79be
00000200: 2bdf 43bd 54f4 5e3e e67e 0cbe 3b69 08be
00000210: b5ec 603c 24f8 723e cf60 b03c c5f5 ec3d
00000220: f9a6 1ebd 9cd4 633e 123b 03be 9861 de3b
00000230: 6842 babe eda4 e7bd d2da 583d 42db 503e
00000240: 3389 ab3d d285 6a3e a5a9 27be d5f9 8bbc
00000250: 657e 143e 0bc1 cbbd 3a6a 8bbe 786a 34bd
00000260: c79d 14be 169f 59be 5c6d 96bd 2ae8 383e
00000270: b261 0d3e 6631 243e a685 07be 0b46 363c
00000280: 27ff 7fbe 01db 343e 39a9 fbbd 7838 cebd
00000290: fbd0 fe3d ecb4 263d 287b b8bd 5a2d 3c3e
000002a0: 3b2a 363e 045a d7bd 556a 6f3e a174 86be
000002b0: 4022 8b3e 8668 c7bd aa96 0a3e cb2b e63c
000002c0: 2281 1c3d ff57 e1bd ec6e 053e 7d40 153e
000002d0: 9df0 68bd b65a 073e 7f07 d23c a460 b43c
000002e0: d5fd afbc 2f35 433e 5cbf 39be 52b4 033e
000002f0: d82e fabd 598d cf3d 2078 1dbd b01d 1f3e
00000300: 087a b1bd 2917 55be 8f5d 193e 180a cabc
00000310: 17cc 983e 83ae c7bd 6945 1a3e f6e4 be3d
00000320: 69bd f73d 214a 083e 388e 43be ecc3 613d
00000330: fc5d 08be 684c 02be bbc3 553e 76a7 53be
00000340: c32b 4dbe 489d a93d 7b44 2bbe 17ea 393e
00000350: ca87 01be a9df 0cbe f54f 63be 20a6 3bbe
00000360: 5521 d33d 7948 683e 62bb 7fbe 4f41 1b3d
00000370: 86cd 7a3d eabb 9fbd fe26 213d 238c 883d
00000380: 73a1 c23d 0b9a a9bd ebfa 96bc 1a3f 4abe
00000390: 5709 83bd 5c34 10be c6b5 1fbd c819 203e
000003a0: 1cac a9bd 8793 31bd a4bb 93bd a575 83be
000003b0: c3c0 c43d d19c e03d da35 0bbe dc25 873e
000003c0: ad75 ddbd 7bb4 293e 3024 023e 82a7 6e3b
000003d0: 8ad8 833d 3747 313e cae7 e93c 2255 3cbd
000003e0: 71b6 22bd d009 7c3b 35b8 583e dd90 363d
000003f0: be83 673e e877 cb3d a81a 3d3d 1b64 cf3d

transformer.layers.0.self_attn.out_proj.bias f4 [64]
-0.018564949 -0.006454881 0.010674808 0.01055341 0.0017262923 -0.028399386 0.024932124 0.021435142
-0.0033218819 -0.014558343 0.012868838 0.012013637 0.013924959 -0.035090342 0.02597969 0.026467679
-0.008561252 0.008228097 -0.013938322 0.004831191 -0.02217003 0.018690905 0.03597686 -0.007680749
-0.0111724585 -0.053823173 -0.004147133 -0.0405226 0.0053945207 -0.03101083 -0.013710256 -0.035775326
-0.012230175 0.0011418355 0.021532888 0.003877259 0.01692298 -0.030368742 -0.010097693 0.004018129
0.00838262 -0.018239802 -0.0034173355 0.008510586 0.010247048 -0.013185845 0.000467779 -0.020764863
0.035550624 -0.0058799093 0.01078198 0.02850677 0.0027630713 -0.056231387 0.018737553 -0.00903939
-0.0036912363 -0.024255378 0.003867173 -0.017110988 -0.01361614 0.041686974 -0.0055473438 0.008087169
00000000: 8515 98bc 7783 d3bb 64e5 2e3c 36e8 2c3c
00000010: c244 e23a d4a5 e8bc 743e cc3c c098 af3c
00000020: eeb3 59bb 1e86 6ebc d2d7 523c d9d4 443c
00000030: 8325 643c e4ba 0fbd 5cd3 d43c bfd2 d83c
00000040: 7e44 0cbc 24cf 063c 8f5d 64bc f84e 9e3b
00000050: ec9d b5bc ab1d 993c 795c 133d cbae fbbb
00000060: b00c 37bc b075 5cbd ace4 87bb 07fb 25bd
00000070: 85c4 b03b 6d0a febc fba0 60bc 2689 12bd
00000080: 1261 48bc a4a9 953a bd65 b03c 9d19 7e3b
00000090: 10a2 8a3c dec7 f8bc cb70 25bc 82aa 833b
000000a0: 4257 093c a36b 95bc 60f5 5fbb fc6f 0b3c
000000b0: 3ce3 273c 7109 58bc 3c40 f539 131b aabc
000000c0: 889d 113d 41ac c0bb e7a6 303c 0887 e93c
000000d0: a514 353b e252 66bd 7f7f 993c f319 14bc
000000e0: abe8 71bb 37b3 c6bc 6670 7d3b 582c 8cbc
000000f0: 3b16 5fbc f6bf 2a3d 7ec6 b5bb 0c80 043c

transformer.layers.0.linear1.weight f4 [256, 64]
-0.010072446 -0.14675315 -0.015016448 0.013885894 -0.0945204 0.10269223 -0.041804265 -0.049094155
-0.05221896 0.101784736 0.13654558 -0.019684315 -0.006294093 -0.0226029 0.08480039 0.055631336
0.03722723 0.089141086 -0.12873146 0.04063984 -0.042058337 -0.0372228 0.045241375 -0.14222226
0.12758812 -0.14430358 -0.11556559 0.008947622 0.06681136 0.08088959 -0.024714088 -0.03808497
-0.060787484 -0.14039002 -0.0045000953 -0.014827383 -0.11449787 -0.09868798 0.06477748 -0.016731428
-0.02825594 -0.0044114217 0.110683 0.093237095 -0.120818466 0.12772818 -0.093534864 -0.08583662
-0.06135191 0.10333243 -0.044320952 -0.080179416 -0.09173562 0.016670886 -0.035809577 0.11706189
0.10325204 0.12986574 0.0677676 -0.0358137 -0.050468665 -0.042611044 -0.025188755 -0.0242204
-0.043708265 -0.07333216 0.0086390115 -0.0469026 0.003496853 -0.05620767 0.050402984 -0.020250786
-0.1110121 -0.08970809 0.16822119 -0.103035554 0.043391425 0.0061414996 -0.04930233 -0.11995582
-0.113418035 -0.052590813 -0.08478576 0.117640756 -0.04181145 -0.08992335 0.1258729 -0.11349196
0.03262591 0.00015355776 -0.1607705 -0.11046973 0.047645066 0.09899384 0.09289901 0.016782124
-0.11059509 -0.11697239 0.117345095 -0.0019878815 -0.036783535 -0.10060248 -0.13036568 0.1160432
0.08197885 0.07354519 0.08006166 -0.057424307 -0.03636172 0.06543148 0.02906002 0.020223383
-0.16528618 0.1168723 0.11155856 0.13070408 0.06287642 -0.13540134 0.077095255 -0.020874575
0.12119719 0.071412824 0.050448146 -0.09368482 0.09705212 -0.01757153 0.0031690237 0.0023734896
-0.06015678 0.044381518 -0.07174804 0.022452883 0.032396846 -0.16574942 0.16349109 0.06465639
0.083741225 -0.012159434 -0.017410507 0.15006952 -0.13084632 -0.13167293 -0.118086435 0.15259233
0.10609106 0.12101196 -0.08595969 0.045554824 -0.119427055 0.012854889 0.14740892 0.034398142
-0.08683611 -0.019837447 -0.020725837 -0.1387462 0.03811963 0.07414658 -0.13027222 0.026886025
-0.12266062 -0.044088643 -0.00024458696 -0.008126318 0.0928938 -0.03086834 0.081802264 -0.11070293
0.011416303 -0.09584575 -0.10953053 -0.072615504 0.107578576 -0.14009503 0.043597143 0.10954792
0.12062223 -0.08071911 -0.004538755 0.052110076 0.015313506 -0.1322664 0.0025229885 0.11534639
0.058892183 -0.019392557 0.124054514 -0.031676747 -0.021715773 0.10625565 -0.088041715 -0.020048155
0.032388184 -0.056685656 -0.08539305 0.04097543 -0.01090139 0.09377722 0.07526419 0.04420334
-0.04025322 0.03401495 0.09785216 -0.08372679 -0.08844634 0.01960843 0.039247822 -0.09543222
-0.059340786 -0.107154414 0.15927173 0.05262573 -0.0049628466 -0.07213638 0.06901822 -0.12707277
-0.109998 -0.014784251 0.10725022 -0.13445188 0.11133467 0.040359214 0.017241152 0.057990678
-0.067985885 -0.1303681 -0.006098786 0.022437273 0.020928461 -0.011806083 -0.027148329 0.033562668
0.0767018 0.03442704 0.012474102 -0.07764686 0.051450532 -0.05786642 0.10587491 -0.020191269
-0.085525714 -0.00804072 0.01777096 0.077005304 -0.08441713 0.105589576 -0.07541989 -0.0417688
0.13936453 0.09858498 0.0006433207 -0.09606251 0.081803136 0.07920988 -0.004701987 0.095272325
00000000: e706 25bc 7546 16be 8c07 76bc a981 633c
00000010: e993 c1bd 4e50 d23d f33a 2bbd f416 49bd
00000020: 8ce3 55bd 8474 d03d 9bd2 0b3e 0041 a1bc
00000030: ae3e cebb b829 b9bc d4ab ad3d afdd 633d
00000040: 947b 183d 9a8f b63d 2ed2 03be f675 263d
00000050: 5d45 2cbd ef76 18bd 054f 393d b6a2 11be
00000060: 76a6 023e 51c4 13be a7ad ecbd 0c99 123c
00000070: 65d4 883d 71a9 a53d 3375 cabc fcfe 1bbd
00000080: 4cfc 78bd 67c2 0fbe 8975 93bb 8dee 72bc
00000090: dc7d eabd ec1c cabd 0eaa 843d 5910 89bc
000000a0: 0079 e7bc b08d 90bb c5ad e23d 17f3 be3d
000000b0: ac6f f7bd 2dcb 023e 358f bfbd 1ccb afbd
000000c0: 244c 7bbd f49f d33d e389 35bd 1b35 a4bd
000000d0: e2df bbbd 6291 883c 10ad 12bd 25be ef3d
000000e0: ce75 d33d 86fb 043e bdc9 8a3d 63b1 12bd
000000f0: 3bb8 4ebd eb88 2ebd a658 cebc dc69 c6bc
00000100: 7007 33bd 2c2f 96bd a48a 0d3c f11c 40bd
00000110: 752b 653b 043a 66bd 5c73 4e3d fae4 a5bc
00000120: 505a e3bd e0b8 b7bd 2d42 2c3e 4e04 d3bd
00000130: 35bb 313d a23e c93b 3df1 49bd 66ab f5bd
00000140: b747 e8bd 7769 57bd 28a4 adbd a3ed f03d
00000150: 7c42 2bbd bc29 b8bd d3e4 003e 796e e8bd
00000160: bfa2 053d 5904 2139 06a1 24be f43d e2bd
00000170: 7927 433d 48bd ca3d d641 be3d aa7a 893c
00000180: ae7f e2bd 388f efbd a052 f03d 1e47 02bb
00000190: 55aa 16bd ac08 cebd 957e 05be 0fa8 ed3d
000001a0: 87e4 a73d dc9e 963d 5ef7 a33d c035 6bbd
000001b0: 07f0 14bd f100 863d 470f ee3c 82ab a53c
000001c0: c840 29be bf5a ef3d d078 e43d 4ad7 053e
000001d0: 5ac5 803d a6a6 0abe 1ee4 9d3d 2801 abbc
000001e0: 3b36 f83d e340 923d b7a2 4e3d d4dd bfbd
000001f0: 43c3 c63d 2bf2 8fbc 65af 4f3b 8c8c 1b3b
00000200: f566 76bd 65c9 353d a3f0 92bd 1cef b73c
00000210: 8eb2 043d 37ba 29be 356a 273e 926a 843d
00000220: 8580 ab3d 5d38 47bc 7ba0 8ebc d3ab 193e
00000230: 94fc 05be 45d5 06be 4dd7 f1bd 2a41 1c3e
00000240: 4546 d93d 1ed5 f73d a20b b0bd b297 3a3d
00000250: 2c96 f4bd 509d 523c 5df2 163e 11e5 0c3d
00000260: 21d7 b1bd 2482 a2bc 3bc9 a9bc 7c13 0ebe
00000270: 5423 1c3d 2ada 973d 1566 05be 1540 dc3c
00000280: 7e35 fbbd 4b96 34bd e83b 80b9 4024 05bc
00000290: 1b3f be3d 9adf fcbc f287 a73d 38b8 e2bd
000002a0: 720b 3b3c c74a c4bd 8b51 e0bd 70b7 94bd
000002b0: 2852 dc3d 1275 0fbe eb92 323d a95a e03d
000002c0: ca08 f73d 1050 a5bd d6b9 94bb 6071 553d
000002d0: 80e5 7a3c d870 07be b958 253b ba3a ec3d
000002e0: ee38 713d 24dd 9ebc 4b10 fe3d 7abf 01bd
000002f0: 47e5 b1bc 909c d93d 374f b4bd 073c a4bc
00000300: 79a9 043d 382f 68bd 8de2 aebd dad5 273d
00000310: be9b 32bc 450e c03d 1d24 9a3d 900e 353d
00000320: 8fe0 24bd 4353 0b3d b766 c83d f478 abbd
00000330: 5b23 b5bd dca1 a03c 53c2 203d f871 c3bd
00000340: 530f 73bd c673 dbbd 2118 233e 148e 573d
00000350: 609f a2bb 3dbc 93bd 6d59 8d3d 5d1f 02be
00000360: a246 e1bd a539 72bc 01a6 db3d c1ad 09be
00000370: 6e03 e43d b44f 253d 513d 8d3c a287 6d3d
00000380: 2f3c 8bbd 377f 05be 53d8 c7bb 5fce b73c
00000390: 2a72 ab3c 4d6e 41bc 2c66 debc 0279 093d
000003a0: d515 9d3d 5e03 0d3d 2d60 4c3c 5105 9fbd
000003b0: cbbd 523d 5705 6dbd f2d4 d83d 2968 a5bc
000003c0: 1b28 afbd 39bd 03bc 6894 913c f5b4 9d3d
000003d0: e3e2 acbd 593f d83d be75 9abd c315 2bbd
000003e0: 93b5 0e3e ece6 c93d 85a4 283a 6cbc c4bd
000003f0: 6788 a73d ca38 a23d 2013 9abb 231e c33d

transformer.layers.0.linear1.bias f4 [256]
0.014954278 -0.11306704 -0.03988048 -0.1585977 -0.12150064 -0.08123966 -0.095683925 -0.08494776
0.02063432 -0.0014875142 -0.114083946 -0.07347563 0.027557619 0.024379205 -0.031947482 -0.038230307
0.100193635 0.076159865 -0.099090524 0.022765936 0.037863728 -0.06870604 -0.0775381 -0.045491148
0.048266985 0.030459942 -0.022265509 0.07578417 -0.135529 -0.13487124 -0.010723441 -0.05629868
0.09106808 -0.14601023 -0.01788347 -0.03318114 0.0058358433 0.081724435 0.03852065 -0.10425206
0.029987512 0.062323492 -0.11691079 -0.0021294556 0.040584024 0.018667368 -0.095767826 -0.074101515
0.07092924 -0.084042646 0.031229466 0.05901811 -0.052022725 0.022510031 -0.13575728 -0.08433847
-0.06365664 0.041810866 -0.015400929 -0.0743188 -0.082860604 -0.028771728 -0.026659707 -0.1676326
-0.06899168 -0.012826064 -0.14242712 -0.15373725 0.043602053 0.005047028 0.032364283 -0.10923988
0.060850993 0.036158778 -0.13578877 -0.0027854596 0.029169952 0.11615973 -0.14573713 -0.05984293
0.0071889274 0.06768644 -0.09659664 -0.012211498 -0.10875616 -0.07637055 -0.09812859 0.078699864
-0.019975433 0.07497129 0.08459368 0.08104678 -0.06172714 0.065252714 -0.0062330943 -0.12071878
0.022578776 -0.1329801 0.028716283 0.060661122 -0.019948328 -0.09304236 0.008094541 -0.01379395
-0.110335365 -0.08623146 0.012504041 -0.008395672 -0.08918556 0.08842673 0.040660817 0.093782015
-0.04297354 -0.16330016 -0.03761403 -0.046327397 -0.0066036885 0.09840294 -0.11322115 -0.062340032
-0.13052566 -0.10930943 0.023929248 -0.04936114 -0.13127944 -0.076411396 -0.059820853 -0.03631093
-0.051200703 0.0015706016 -0.02396616 -0.03845999 0.0617207 0.04010007 0.007720989 0.053051878
0.006908635 -0.11410128 0.07015642 0.006757285 0.031357948 -0.10803091 0.059151456 0.01966109
-0.04420476 -0.05655774 0.03783033 0.0810051 -0.014310209 0.041076407 -0.08045313 -0.06491767
0.086605266 0.05742924 -0.0054431176 0.0761012 -0.038726043 -0.047836624 -0.09366523 -0.1328189
-0.0045651877 0.06750041 -0.10380396 -0.10287803 -0.16419135 -0.03478812 0.091228075 0.04750593
-0.0062216604 -0.12852626 0.02285118 0.093437925 -0.11400195 0.02684732 0.10547837 0.077300906
-0.016264945 -0.108281314 0.11410362 0.032754183 -0.060289614 -0.11678824 0.08981132 0.08455988
-0.1103634 0.09072714 -0.14684358 -0.113746054 0.053307146 -0.079532534 -0.13337712 -0.09393092
0.10248124 0.06755369 -0.07595894 0.08366949 -0.07204968 0.03784937 -0.09253898 -0.04471152
-0.1059005 -0.08443445 -0.032241568 -0.08089384 0.031131849 -0.03669786 -0.036565203 0.022421243
0.04178958 -0.014761111 -0.024108212 -0.01317279 -0.049150918 -0.10666733 0.0485235 -0.17649807
-0.10260545 -0.0026844307 -0.053858392 -0.084373765 0.07694049 -0.089761674 -0.06993283 -0.095666975
-0.08287288 -0.12604213 0.025997242 -0.10104569 -0.035181277 -0.032551177 -0.062430214 -0.018172698
0.025384678 0.061402217 0.0487152 -0.061992403 -0.06923423 -0.14333422 -0.018370127 -0.14327385
-0.018088179 0.022719646 0.039708313 -0.10541224 0.057879917 0.069478855 -0.097829185 -0.12049924
-0.028292682 -0.061213244 -0.026063532 0.008539956 -0.044980075 -0.07386557 0.035493903 -0.0063052126
00000000: ca02 753c b18f e7bd b759 23bd 6f67 22be
00000010: 54d5 f8bd fb60 a6bd eff5 c3bd 17f9 adbd
00000020: 4e09 a93c b2f8 c2ba d8a4 e9bd 647a 96bd
00000030: 84c0 e13c e6b6 c73c 5ddb 02bd 6297 1cbd
00000040: 5232 cd3d b4f9 9b3d f9ef cabd a17f ba3c
00000050: ff16 1b3d c1b5 8cbd 4ccc 9ebd ed54 3abd
00000060: 9ab3 453d 2187 f93c 2866 b6bc bb34 9b3d
00000070: 1dc8 0abe b01b 0abe 5fb1 2fbc 7299 66bd
00000080: e781 ba3d b583 15be 5b80 92bc f2e8 07bd
00000090: 9a3a bf3b 245f a73d d4c7 1d3d 1b82 d5bd
000000a0: 5fa8 f53c eb46 7f3d ed6e efbd 568e 0bbb
000000b0: 6f3b 263d 4fec 983c ec21 c4bd 89c2 97bd
000000c0: 5943 913d 8d1e acbd f0d4 ff3c f9bc 713d
000000d0: c815 55bd f566 b83c f503 0bbe a6b9 acbd
000000e0: 6a5e 82bd df41 2b3d 2e54 7cbc 7434 98bd
000000f0: d2b2 a9bd b0b2 ebbc 7565 dabc e1a7 2bbe
00000100: 834b 8dbd 6924 52bc 6ad8 11be 4c6d 1dbe
00000110: 1198 323d 8a61 a53b 6990 043d 29b9 dfbd
00000120: e43e 793d 3a1b 143d 360c 0bbe 428c 36bb
00000130: d3f5 ee3c 27e5 ed3d 1d3c 15be dc1d 75bd
00000140: 1891 eb3b 309f 8a3d 76d4 c5bd bc12 48bc
00000150: 8dbb debd 2a68 9cbd a4f7 c8bd 652d a13d
00000160: 85a3 a3bc 8c8a 993d 743f ad3d dbfb a53d
00000170: 99d5 7cbd 37a3 853d fc3e ccbb 683b f7bd
00000180: 20f7 b83c ef2b 08be 693e eb3c cc77 783d
00000190: ad6a a3bc fe8c bebd f79e 043c 0500 62bc
000001a0: 82f7 e1bd 1f9a b0bd c0dd 4c3c 008e 09bc
000001b0: eba6 b6bd 1319 b53d f58b 263d c910 c03d
000001c0: 0605 30bd 2838 27be 2b11 1abd ccc1 3dbd
000001d0: c163 d8bb 7b87 c93d 7ee0 e7bd 4358 7fbd
000001e0: 85a8 05be 9fdd dfbd 4507 c43c e82e 4abd
000001f0: 1e6e 06be 947d 9cbd b606 75bd c5ba 14bd
00000200: d4b7 51bd a5dc cd3a ae54 c4bc 3988 1dbd
00000210: d8ce 7c3d f93f 243d 5a00 fd3b ed4c 593d
00000220: d561 e23b efad e9bd 2bae 8f3d 376c dd3b
00000230: 3171 003d 4f3f ddbd cc48 723d 4b10 a13c
00000240: 0d10 35bd 17a9 67bd faf3 1a3d 00e6 a53d
00000250: 5e75 6abc bc3f 283d 9cc4 a4bd 8ef3 84bd
00000260: 1a5e b13d ec3a 6b3d 2e5c b2bb f2da 9b3d
00000270: 339f 1ebd 56f0 43bd 8ed3 bfbd ad01 08be
00000280: 9297 95bb a83d 8a3d 2c97 d4bd b7b1 d2bd
00000290: c721 28be fd7d 0ebd c9d5 ba3d 9495 423d
000002a0: 12df cbbb 639c 03be 6632 bb3c 625c bf3d
000002b0: db79 e9bd e9ee db3c 0b05 d83d f04f 9e3d
000002c0: 103e 85bc 98c2 ddbd 29af e93d 4029 063d
000002d0: 3ef2 76bd ac2e efbd ffee b73d bb2d ad3d
000002e0: 3506 e2bd 27cf b93d 2a5e 16be b1f3 e8bd
000002f0: 9858 5a3d f4e1 a2bd 0394 08be db5e c0bd
00000300: afe1 d13d 9759 8a3d 5c90 9bbd e95a ab3d
00000310: c88e 93bd f107 1b3d 1485 bdbd 6d23 37bd
00000320: 5de2 d8bd f8eb acbd bc0f 04bd abab a5bd
00000330: 3808 ff3c 7f50 16bd 65c5 15bd c1ac b73c
00000340: 8d2b 2b3d 96d8 71bc 967e c5bc b0d2 57bc
00000350: 7952 49bd 6774 dabd 94c0 463d e9bb 34be
00000360: ce22 d2bd 46ed 2fbb 9e9a 5cbd 27cc acbd
00000370: fa92 9d3d f8d4 b7bd f238 8fbd 0ced c3bd
00000380: 42b9 a9bd 3011 01be 2bf8 d43c 0bf1 cebd
00000390: 3e1a 10bd 6254 05bd d3b6 7fbd e9de 94bc
000003a0: 87f3 cf3c e480 7b3d 9789 473d bfeb 7dbd
000003b0: adca 8dbd 35c6 12be f37c 96bc 61b6 12be
000003c0: a92d 94bc 8d1e ba3c 2fa5 223d 5fe2 d7bd
000003d0: 7e13 6d3d ee4a 8e3d ab5a c8bd 4ec8 f6bd
000003e0: 0ec6 e7bc bdba 7abd 3083 d5bc 2ceb 0b3c
000003f0: 073d 38bd d546 97bd 0e62 113d f59b cebb
