td_best_model.pth (torch, 454865 bytes, 33 tensors)

input.weight f4 [64, 6]
00000000: 94b0 163e a691 c43d 3b83 c9bd a8cc ca3d
00000010: ac79 f33d 2346 28bd 9d6a 71bd a3f3 323c
00000020: b493 9dbd 27ba c53d bb33 2c3e 277f 443e
00000030: b4ca 38be 501b cdbc 498a a83d caf4 54be
00000040: 6cb2 833d 58ee 0d3e d170 293d 724e dd3d
00000050: 1d34 083c b995 873d d202 71bd e123 7c3d
00000060: 43b9 7bbe 6a20 14be ff77 553d 0868 dbba
00000070: 9adb 563e 75e4 763d 74b8 78be 4d6b 0d3d
00000080: 1f45 223e 5f47 a83e 43e2 3bbe bd83 14bd
00000090: 7d6d 573d 99b0 10be 68f8 6c3e befc b83d
000000a0: 3e51 d63d 330b a9bd ee91 20be 406d 073e
000000b0: 23c6 f23c c743 25bc 053f ecbc 9d38 c7bd
000000c0: ab18 113e aa31 913e cc1a a5bd 825f 11be
000000d0: 6298 f439 6577 f5bd 3507 173e 9087 38be
000000e0: 1583 ffbd 926f b0bd a4d1 d3bd 5104 803d
000000f0: b3db 38be 6469 10be d86f a5bd 4791 8d3e
00000100: 75c5 ff3d 72ef 163e 57d3 d4bc a277 423e
00000110: 1294 0bbe d873 5cbe 75c9 8b3c 3bd3 813c
00000120: bf8e 963d 73d7 58be c6a2 483d 66ca f63d
00000130: 2fd9 4a3e 9703 cfbd 6d47 e2bb f6fb 683d
00000140: da96 37be f758 59be db5a 8ebd 93d1 12bd
00000150: 54b7 ae3c 6d17 d5bd d2a2 163e 206c 873e
00000160: 3d4e 27bd 13c1 6cbd 942f 9cbd 21ff 2d3e
00000170: e8fb e63d 239c 31be b481 1bbd cb93 4a3d
00000180: d708 6b3d 5403 1c3c 1e31 0fbd 5149 983d
00000190: 1ad6 29be de7e 5b3d 7269 003e ccbf ef3d
000001a0: cb54 81bd 6542 44be 5bfe 193e 3dc7 9e3d
000001b0: aa42 423d bb0f 8cbe 2112 42bc b452 853e
000001c0: e961 32bd fbb0 d83d c940 333e 3759 0c3d
000001d0: 2ecf 093d 5586 293e 8751 4ebe 5a99 5f3e
000001e0: b951 1ebe cebf 9e3d 913d 42bd e380 25be
000001f0: 2ecc 4fbe 7e11 ca3d d4d4 143e 2cee 01be
00000200: 2c16 07be 55e8 f43d f653 2d3e acdb 52bd
00000210: 2406 243b c521 a63d 5e99 ebbd 1d58 7a3d
00000220: 921c 563e bcdb 8fbc 07be 92bb e7f4 4cbe
00000230: c726 2d3e 16bd 26bd 4ed4 133e e3cf 4c3d
00000240: 966c 293e 2b27 e23d 9865 0bbd ff9c 663d
00000250: 9049 0fbe 74fa b9bc 2ecd b2be 324a 2fbe
00000260: 1af7 733e 8660 403e ad26 dabd 323e 093d
00000270: e6d9 b2bd 8f69 aa3c f07b ee3d d9a1 8d3d
00000280: e975 50bd 1031 8dbc c2f3 06be 0180 b6bc
00000290: 24ae 7dbd c5b2 7a3e e5de 203e c920 bebd
000002a0: 0731 06be 9437 c93b 970c 253e ac29 d3bd
000002b0: 5b22 e93c 4a42 c5bc 5878 afbd 223a fd3d
000002c0: 1fde 36bd 5160 7b3d 0873 e7bd b619 53be
000002d0: 9238 35be 99e1 3ebd 2e03 08be 7645 173d
000002e0: 1aaa b63d f80d 5abd da9c 0abe 754a 083e
000002f0: 907e 963c f69b 373e 0553 40be d5fe 76bd
00000300: d8c0 9c3d 5bd6 823d 01b6 093e 6c2d d8bd
00000310: 7dab ab3d 766e d2bd f50a c5bd 751c f13d
00000320: 17f5 1c3e 5df0 e4bd 8eaa 8ebd fe78 bc3d
00000330: 3465 4b3e ce05 14be ab61 b13d 0a33 f23d
00000340: 2816 2b3e 117a 8dbc fd6e 65be 0a1d e1bd
00000350: 6efc d03d f450 0abe c35e 583e 007c 0f3e
00000360: ddea 2f3e 425e 19bc cc42 fbbd a4a9 6cbe
00000370: a36a 0dbe 5e4a 6d3e 7b41 dc3c 143e c23d
00000380: 8ab0 01bd 2e8f ea3d 0c0d 273e 0a87 54ba
00000390: 4370 61be a7a3 83bc 2e50 7e3e 3d49 763e
000003a0: b61f f2bc f7dd 0c3d 1828 403b 40c7 aabc
000003b0: 9f1b 5a3e 3878 3c3e f448 273e 0be5 d53c
000003c0: be1a 63be 297a adbd ea5d 843e 8e98 8c3d
000003d0: 1841 4a3e 51eb 613d 598a 45bd a9f2 3e3c
000003e0: acf4 00be db73 a4bc 73cb 02be 6eed 293e
000003f0: 36c7 47bd 8454 403e f5f0 36be 4ef2 943d
0.14715797 0.09598093 -0.09839483 0.09902316 0.118884414 -0.041082513 -0.058939565 0.010922345
-0.07694188 0.09654646 0.16816609 0.1918913 -0.18046075 -0.025037438 0.08229501 -0.20796505
0.06430516 0.13860452 0.041367356 0.10805978 0.008313206 0.06620354 -0.05884058 0.061557654
-0.2458239 -0.1446549 0.05211639 -0.0016739378 0.20982209 0.060276467 -0.24289113 0.034526158
0.1584668 0.32866952 -0.18348031 -0.036258448 0.05259465 -0.14129867 0.23141634 0.09032582
0.104647145 -0.08254089 -0.15680668 0.1322527 0.029635495 -0.01008696 -0.028838644 -0.09727595
0.14169566 0.28358203 -0.08061752 -0.1419659 0.0004665284 -0.11985663 0.14748843 -0.18020463
-0.12476174 -0.0861503 -0.1034272 0.06250823 -0.18052559 -0.14102703 -0.08077973 0.276499
0.12488834 0.14739779 -0.025979681 0.18990949 -0.13630703 -0.21528566 0.017063836 0.015847793
0.073514454 -0.21175937 0.048983358 0.12050323 0.19809411 -0.101081066 -0.0069054873 0.056880914
-0.17928639 -0.21225344 -0.06950923 -0.035844397 0.021327652 -0.10404859 0.14710549 0.2644968
-0.0408461 -0.057801317 -0.07626262 0.16991855 0.11278516 -0.17344718 -0.03796549 0.049457353
0.057381477 0.009522278 -0.03495895 0.07435859 -0.1658558 0.053587787 0.12540224 0.11706504
-0.06315001 -0.19165953 0.15038435 0.077528454 0.047426857 -0.2735575 -0.011845143 0.2603966
-0.043550406 0.10580631 0.17505182 0.03426477 0.033644848 0.1655515 -0.20148288 0.21835843
-0.15460862 0.077514276 -0.047421996 -0.16162448 -0.20292732 0.098666176 0.14534312 -0.12688512
-0.13192052 0.11958376 0.1692656 -0.051479027 0.0025028074 0.0811191 -0.11503862 0.061119188
0.20909336 -0.017560832 -0.0044782194 -0.20015298 0.16909324 -0.04070767 0.14436457 0.050002944
0.16545328 0.11042627 -0.034032434 0.056302067 -0.13992906 -0.022702433 -0.34922165 -0.17118147
0.2382473 0.18786821 -0.10651908 0.03350658 -0.08732967 0.020802287 0.11644733 0.069156356
-0.050893698 -0.017235309 -0.13178924 -0.022277834 -0.06193365 0.24482258 0.15710028 -0.09283597
-0.1310464 0.0061406586 0.16118084 -0.10310683 0.028458765 -0.02407946 -0.085678756 0.123646036
-0.044645425 0.06137115 -0.11301237 -0.20615277 -0.17697361 -0.046601865 -0.13282463 0.036931477
0.08919163 -0.053235978 -0.13536397 0.13309653 0.018370897 0.17930588 -0.1878167 -0.06030162
0.076539695 0.06388541 0.13448335 -0.105555385 0.08382318 -0.10274975 -0.096212305 0.11773006
0.1532787 -0.11178658 -0.069661245 0.09202765 0.19862825 -0.1445534 0.08661207 0.11826141
0.1670767 -0.01727012 -0.2240562 -0.10991867 0.10204397 -0.13507444 0.21129899 0.14012146
0.17179437 -0.009360852 -0.122686 -0.23111588 -0.1381021 0.231729 0.026886692 0.09484497
-0.0316625 0.114530906 0.1631357 -0.00081072806 -0.2201548 -0.016069246 0.24835274 0.24051376
-0.029556137 0.03439137 0.0029320773 -0.020846963 0.21299599 0.18405235 0.16336423 0.026110193
-0.2217817 -0.08470566 0.258529 0.06865035 0.19751394 0.055156056 -0.04822764 0.011654534
-0.12593335 -0.020074775 -0.12772922 0.16594478 -0.048773967 0.1878224 -0.17865355 0.072727785

input.bias f4 [64]
00000000: cc61 47be 41d8 c03d e8f7 483e f97a 813e
00000010: 4133 593e bf30 e13d 22c4 e53c 26a9 853e
00000020: d05f 043d 2764 3a3d 44d2 503e d4e1 523e
00000030: e054 a43d 65d8 c5bd 31da 1d3e 50ed a43d
00000040: 7208 1e3c a2c0 3ebe ce5f abbd 542a 753e
00000050: 7e87 6ebe db91 173d bd5c edbd d1e2 38be
00000060: 5957 c5bd f1be 08be 8d28 27be c66b 25be
00000070: ece9 b83d 2326 4cbd 6d57 4f3e c870 21be
00000080: 52e8 e2bd edda 68be 2bf8 72be db03 6a3d
00000090: f479 9e3d bf30 2cbe 34af 29be c2ed 0f3e
000000a0: a473 643e 2930 5bbd 0dcd 01be 77d3 183d
000000b0: 2707 773e 4741 0ebe 1938 3fbe bd60 c23d
000000c0: 2840 af3d 5daf 3c3e 3c28 a0bd 32a2 46be
000000d0: d4b6 04be 9308 6d3d e30b 93bd 1733 04bd
000000e0: 943f 6abe b48f 40be be17 0a3e ef09 143e
000000f0: 2465 d43c 25c3 9bbd b455 413e fa86 36be
-0.194709 0.09416247 0.19625819 0.25289133 0.21210958 0.10995626 0.028047625 0.26105613
0.032317936 0.04550567 0.2039271 0.20593959 0.08024001 -0.096604146 0.15415265 0.08053076
0.009645568 -0.18628171 -0.08367883 0.23941928 -0.23293874 0.037004333 -0.11589954 -0.18055274
-0.09635801 -0.13354088 -0.16324063 -0.16154394 0.09028992 -0.049841058 0.20248194 -0.15765679
-0.11079468 -0.22739764 -0.23727481 0.057132583 0.077381045 -0.1681547 -0.16570741 0.14055541
0.22309738 -0.053512726 -0.12675877 0.037311044 0.24123822 -0.13892089 -0.18673743 0.094911076
0.08557159 0.18426271 -0.07820174 -0.1939781 -0.12960368 0.057869505 -0.071800016 -0.032275286
-0.22875816 -0.18804818 0.1348562 0.14456914 0.025927134 -0.0760558 0.1888035 -0.17824927

pe.pe f4 [1, 24, 64]
00000000: 0000 0000 0000 803f 0000 0000 0000 803f
00000010: 0000 0000 0000 803f 0000 0000 0000 803f
00000020: 0000 0000 0000 803f 0000 0000 0000 803f
00000030: 0000 0000 0000 803f 0000 0000 0000 803f
00000040: 0000 0000 0000 803f 0000 0000 0000 803f
00000050: 0000 0000 0000 803f 0000 0000 0000 803f
00000060: 0000 0000 0000 803f 0000 0000 0000 803f
00000070: 0000 0000 0000 803f 0000 0000 0000 803f
00000080: 0000 0000 0000 803f 0000 0000 0000 803f
00000090: 0000 0000 0000 803f 0000 0000 0000 803f
000000a0: 0000 0000 0000 803f 0000 0000 0000 803f
000000b0: 0000 0000 0000 803f 0000 0000 0000 803f
000000c0: 0000 0000 0000 803f 0000 0000 0000 803f
000000d0: 0000 0000 0000 803f 0000 0000 0000 803f
000000e0: 0000 0000 0000 803f 0000 0000 0000 803f
000000f0: 0000 0000 0000 803f 0000 0000 0000 803f
00000100: a46a 573f 4151 0a3f ce7a 2e3f b054 3b3f
00000110: ba7d 083f 0d94 583f f190 d13e c692 693f
00000120: 3e39 9f3e 6b4e 733f 258f 703e f1d5 783f
00000130: 3a23 353e 83f6 7b3f f325 083e 28ba 7d3f
00000140: 7675 cc3d 98b8 7e3f 366f 993d d147 7f3f
00000150: ae36 663d 6898 7f3f faac 2c3d bdc5 7f3f
00000160: 5b81 013d 3cdf 7f3f a53e c23c 93ed 7f3f
00000170: 42ab 913c a3f5 7f3f 497a 5a3c 2cfa 7f3f
00000180: 57d6 233c b9fc 7f3f 16b9 f53b 28fe 7f3f
00000190: 5a44 b83b f7fe 7f3f 5a2e 8a3b 6bff 7f3f
000001a0: 1c3e 4f3b acff 7f3f 0369 1b3b d1ff 7f3f
000001b0: 2015 e93a e6ff 7f3f 8bc9 ae3a f1ff 7f3f
000001c0: 6d12 833a f8ff 7f3f 8994 443a fbff 7f3f
000001d0: 136a 133a fdff 7f3f 2117 dd39 ffff 7f3f
000001e0: 61cb a539 ffff 7f3f 0da8 7839 0000 803f
000001f0: 5377 3a39 0000 803f 6dd4 0b39 0000 803f
00000200: b7c7 683f 3311 d5be d95a 7f3f 534d 913d
00000210: 0af2 663f b2e8 dc3e 1235 3f3f 0239 2a3f
00000220: 1b54 173f ec7b 4e3f b5d3 e93e 69be 633f
00000230: f647 b23e a6fa 6f3f 82f0 863e f5f2 763f
00000240: f86f 4b3e a5e5 7a3f d300 193e 4f20 7d3f
00000250: 86d9 e53d f361 7e3f ae85 ac3d 0e17 7f3f
00000260: c870 813d f97c 7f3f aa30 423d 4eb6 7f3f
00000270: 5ca5 113d 8ed6 7f3f 5075 da3c b1e8 7f3f
00000280: 3ed4 a33c e5f2 7f3f 51b7 753c a1f8 7f3f
00000290: 9b43 383c dbfb 7f3f 0a2e 0a3c abfd 7f3f
000002a0: d83d cf3b b1fe 7f3f e768 9b3b 43ff 7f3f
000002b0: 0815 693b 96ff 7f3f 80c9 2e3b c4ff 7f3f
000002c0: 6812 033b dfff 7f3f 8594 c43a edff 7f3f
000002d0: 126a 933a f5ff 7f3f 1f17 5d3a faff 7f3f
000002e0: 60cb 253a fdff 7f3f 0ca8 f839 feff 7f3f
000002f0: 5377 ba39 ffff 7f3f 6dd4 8b39 0000 803f
00000300: c381 103e 2670 7dbf de3c 473f cebf 20bf
00000310: d745 7e3f ab7f edbd 6321 743f 6318 9a3e
00000320: c209 503f 582f 153f b724 273f a2e7 413f
00000330: 6c2f 023f 296d 5c3f a768 c73e 37c9 6b3f
00000340: 6c4e 973e ef90 743f e26d 643e 928c 793f
00000350: d7ee 2b3e 9e5d 7c3f 2c33 013e 43f4 7d3f
00000360: c0ff c13d 4fd9 7e3f 0693 913d 3a5a 7f3f
00000370: 4e69 5a3d c3a2 7f3f c5d1 233d 90cb 7f3f
00000380: 1fb9 f53c 83e2 7f3f 4747 b83c 6bef 7f3f
00000390: c631 8a3c adf6 7f3f 4644 4f3c c1fa 7f3f
000003a0: 0d6e 1b3c 0dfd 7f3f 131d e93b 58fe 7f3f
000003b0: a8cf ae3b 11ff 7f3f 1317 833b 7aff 7f3f
000003c0: 929b 443b b5ff 7f3f 606f 133b d6ff 7f3f
000003d0: 171f dd3a e8ff 7f3f 56d1 a53a f3ff 7f3f
000003e0: 10b1 783a f9ff 7f3f 097e 3a3a fcff 7f3f
000003f0: 7ed9 0b3a feff 7f3f a4be d139 ffff 7f3f
0.0 1.0 0.0 1.0 0.0 1.0 0.0 1.0
0.0 1.0 0.0 1.0 0.0 1.0 0.0 1.0
0.0 1.0 0.0 1.0 0.0 1.0 0.0 1.0
0.0 1.0 0.0 1.0 0.0 1.0 0.0 1.0
0.0 1.0 0.0 1.0 0.0 1.0 0.0 1.0
0.0 1.0 0.0 1.0 0.0 1.0 0.0 1.0
0.0 1.0 0.0 1.0 0.0 1.0 0.0 1.0
0.0 1.0 0.0 1.0 0.0 1.0 0.0 1.0
0.84147096 0.54030234 0.68156135 0.731761 0.53316844 0.8460091 0.40930894 0.91239583
0.3109836 0.9504153 0.23492105 0.9720145 0.17689219 0.9842302 0.13295726 0.99112177
0.099833414 0.9950042 0.07491915 0.9971896 0.05620449 0.9984193 0.04215715 0.999111
0.031617504 0.99950004 0.023711512 0.99971884 0.017781857 0.99984187 0.013334819 0.99991107
0.009999833 0.99995 0.0074988706 0.99997187 0.0056233825 0.9999842 0.0042169513 0.9999911
0.0031622713 0.999995 0.0023713715 0.9999972 0.0017782785 0.99999845 0.0013335211 0.9999991
0.0009999998 0.9999995 0.000749894 0.9999997 0.0005623411 0.9999998 0.00042169637 0.99999994
0.00031622782 0.99999994 0.00023713727 1.0 0.00017782794 1.0 0.00013335208 1.0
0.9092974 -0.41614684 0.99748 0.070948265 0.9021307 0.43146282 0.74690354 0.66493237
0.5911271 0.8065784 0.45669332 0.8896242 0.34820527 0.93741834 0.26355368 0.96464473
0.19866931 0.9800666 0.1494172 0.98877424 0.1122313 0.9936821 0.08423935 0.99644554
0.063203394 0.9980007 0.04740969 0.9988755 0.03555809 0.9993676 0.026667267 0.99964434
0.019998666 0.9998 0.014997319 0.9998875 0.011246587 0.99993676 0.008433828 0.9999644
0.006324511 0.99998003 0.00474273 0.99998873 0.0035565514 0.9999937 0.0026670396 0.9999964
0.0019999985 0.99999803 0.0014997876 0.99999887 0.0011246821 0.99999934 0.0008433926 0.99999964
0.0006324556 0.9999998 0.0004742745 0.9999999 0.00035565588 0.99999994 0.00026670416 1.0
0.14112 -0.9899925 0.7782725 -0.6279267 0.9932532 -0.11596616 0.95363444 0.3009673
0.8126489 0.58275366 0.652904 0.7574407 0.5085361 0.86104065 0.3894703 0.92103904
0.2955202 0.9553365 0.22307542 0.9748012 0.16790329 0.9858035 0.12617177 0.9920084
0.094726086 0.99550337 0.071081206 0.9974705 0.053323083 0.9985773 0.039994974 0.99919987
0.0299955 0.99955004 0.022494925 0.999747 0.016869437 0.9998577 0.012650555 0.99991995
0.009486687 0.999955 0.0071140616 0.9999747 0.005334813 0.99998575 0.0040005534 0.999992
0.0029999954 0.9999955 0.0022496805 0.9999975 0.0016870227 0.99999857 0.0012650888 0.9999992
0.00094868336 0.9999996 0.00071141176 0.99999976 0.0005334838 0.9999999 0.00040005625 0.99999994

transformer.layers.0.self_attn.in_proj_weight f4 [192, 64]
00000000: 3150 543d ce88 43bd 7981 bebc 0370 923d
00000010: 78b4 143e 288f 59be 2875 e0bd da80 ba3d
00000020: 548e 9a3d 7d3d 04be 2847 32be 5adc d6bd
00000030: 04fd 54bd 3152 9a3d e660 44bd 3766 dcba
00000040: b164 4a3e 79b8 9cbd e4cb cbbd 8d27 a1bd
00000050: 7a9a 0bbe 9985 063e 6036 493c 35e3 fe3d
00000060: 296a e83d e6ce 60be 4d13 75bd 97b6 c6bd
00000070: 9f96 06be 9b28 9fbd e9da 9abd 3753 6bbd
00000080: cf38 283c 0ae9 d33d 748f 2a3e e1ea f23d
00000090: 9a47 163e 2ef8 803a f0dd f03d 7374 e0bd
000000a0: 451f c7bd d1a7 e4bc eb79 ca3d c1ec 05bd
000000b0: 8304 d0bc 867d afbd e27d 113e fa82 153e
000000c0: f56c 10be 2351 23bd 29e8 9f3d e665 91bc
000000d0: 09db bb3c 6fd0 b53c 5769 9ebd 16d1 a73c
000000e0: 0e12 033e 4930 243e 7ed1 a83d 33a8 8b3d
000000f0: 32db cbbd d03e e03d 8001 f23d fd56 833d
00000100: cc6a 1ebe 1fc1 06be 65aa 14bd 0a16 ddbd
00000110: 0a37 96bc 966d 133d 92e8 8b3d d91c 833d
00000120: 95c6 d03d 09fa 2bbd 7650 dbbd 5cfd 883d
00000130: 6b71 af3d 4dee 8c3d aa48 263e a6b3 95bc
00000140: 9984 03be a112 12be 59c8 a73d 2817 e0bd
00000150: 7662 d83d 7255 b93d 5bac 963d dcbc bbbd
00000160: 7e25 a6bd ecfd e5bd fd58 8cbd 5a6a 3bbd
00000170: da9f 90bd c6fc a83c 78cc d93c 9949 0cbd
00000180: b55f 8dbd 5fc2 d33d 892c be3d 81b3 d43c
00000190: 9e74 1abe eaf4 6c3d 23ca d1bc 3cf9 0abd
000001a0: da4a 903d f857 d33d 8092 e63c b7e9 5e3c
000001b0: b574 923d 9b1d e23d 8028 013e bdac 0fbe
000001c0: 1ed7 e13c 42f0 123e 6708 febd 389b 1a3e
000001d0: b788 133e 64ac 56bc c4bf 1cbe 5437 1e3e
000001e0: 48d7 203e e21b 03bd 8b6e ccbd 41c2 173e
000001f0: b85b 00be 6111 09be 11e1 0cbd a09d 13bd
00000200: 8a60 9b3d ebae 3d3b 0155 cebc 579d cbbd
00000210: 2f19 dfbd 5d64 31be 13f0 40bd 5417 3abe
00000220: dc07 a33d 9e39 b9bc 3fee cabd 9d7a 1abe
00000230: 55c7 683d 9027 033d 527b 763d aa44 3abe
00000240: 95aa 9e3d 3690 8c3d 3b3a 0d3e e5f2 0fbd
00000250: 7d0b 33be aaaa 33bd acee 0ebd a614 ef3d
00000260: 8b0c ed3c 33a2 0cbe b87d e23d 2980 7e3d
00000270: bd03 22be 13a2 0cbd 34f1 74bd aa95 3bbd
00000280: 8ea3 a93d e451 28be ca8b cf3d c741 a6bd
00000290: db73 37bd fd11 403e 5bc9 6d3c 5043 3e3e
000002a0: 2830 42bd c081 0bbe 74d2 a23d 0a43 36be
000002b0: 5e8e 303e 5ee6 5f3d 0170 003d 8bb2 18be
000002c0: ba7e 91bd e3a1 febd 0504 b53d 0f2e 29bd
000002d0: 32a7 f7bc c901 c93d 90ce 273d 3af1 533e
000002e0: 0cc7 15bd 4777 eb3c bcd8 6c3d a26b b43d
000002f0: 7e8c d6bc 6da4 60bd dc19 65bd 3859 193d
00000300: b57d 073e 180d fbbd ae2a 86bd 29a3 27bd
00000310: ee22 35be 528f 67bd 7296 9dbd 8a3b 51be
00000320: 341b 8bbc 33a3 febd 359e 113d 18fb 45be
00000330: ec1a 07be bfef ab3d b99d a0bd 1201 0dbe
00000340: 1b1f a0bd 2898 abbd 5244 f1bd 861e c73d
00000350: 74bf a03d 1e5b 67bd ebeb 6dbb 3dcb 32bd
00000360: be6f 393e 4bbd 803d 6ccf a7bd 710c 183d
00000370: 8988 e93b 510a 11be dabe 1bbe 1228 8e3d
00000380: c9b7 ec3d 9423 0e3e cbae ae3d 7d13 793c
00000390: 1905 883d b436 3b3e d39c 74bd 457d 153e
000003a0: 40c8 62bc 1ad6 00be 260b e33d bb95 11be
000003b0: 7f49 363e add6 873c 1988 143e 8350 04be
000003c0: c96b e4bd 2bd9 10bd ee0f d63d 29dc d73d
000003d0: 3c16 0a3d 0baf 0bbd e351 12be 82e4 d83d
000003e0: d4d2 283d 4ff2 5ebb 992e 163e 72f3 963d
000003f0: 04af ad3d ac60 c63d 98f6 003e a346 fa3b
0.05183429 -0.04773789 -0.023255097 0.07150271 0.14521968 -0.21246016 -0.10959846 0.09106608
0.07546678 -0.12914081 -0.17409956 -0.104912475 -0.051999107 0.07535208 -0.047943972 -0.001681513
0.19764973 -0.07652373 -0.099509984 -0.07868872 -0.13633147 0.13136901 0.01228103 0.1244568
0.113483734 -0.21953925 -0.05983286 -0.09702795 -0.13143395 -0.07771417 -0.07561285 -0.057452407
0.0102674505 0.10347183 0.16656286 0.11861206 0.14675751 0.0009839588 0.11761081 -0.10959711
-0.09722761 -0.027912052 0.09886535 -0.03269649 -0.025392776 -0.085688636 0.14208177 0.14600745
-0.14104064 -0.0398723 0.07807953 -0.017748784 0.022931593 0.022194115 -0.07734936 0.020485442
0.12799856 0.16034044 0.082430825 0.06819191 -0.099539176 0.109494805 0.11816692 0.06413076
-0.15470427 -0.13159607 -0.036295313 -0.10795219 -0.018336792 0.03599318 0.06831469 0.06401987
0.101941265 -0.0419865 -0.10708706 0.066889495 0.08566555 0.0688139 0.16238657 -0.01827414
-0.1284355 -0.14264919 0.0819251 -0.10941917 0.10565655 0.090495005 0.07357093 -0.091668814
-0.0811262 -0.112300724 -0.06852911 -0.04575572 -0.07061739 0.020628344 0.026586756 -0.034249876
-0.0690302 0.10339808 0.09285838 0.0259645 -0.15083548 0.057850756 -0.025609082 -0.033929095
0.07045527 0.10319513 0.028146029 0.013605527 0.07151166 0.11040803 0.12613106 -0.14030738
0.027568396 0.14349464 -0.12403946 0.15098274 0.14407621 -0.013102625 -0.15307528 0.15450794
0.15707123 -0.032009013 -0.09982022 0.14820196 -0.12534988 -0.13385536 -0.034394328 -0.036038995
0.07586773 0.002894337 -0.025187017 -0.099421196 -0.10893475 -0.17323442 -0.047103953 -0.18172961
0.079604834 -0.022610482 -0.09908723 -0.15085836 0.056830723 0.03202015 0.0601762 -0.18190256
0.0774738 0.068634436 0.13791744 -0.03514375 -0.17484851 -0.04386393 -0.034895584 0.1167386
0.028936645 -0.13733749 0.11059135 0.06213394 -0.15821739 -0.034334254 -0.05980034 -0.045797028
0.08283149 -0.16437489 0.101340845 -0.08118015 -0.044788223 0.18756862 0.014513339 0.18580365
-0.047409207 -0.13623714 0.07950297 -0.17799011 0.17241809 0.054663055 0.031356815 -0.14911859
-0.07104249 -0.12433221 0.08838657 -0.04130369 -0.030231092 0.098147936 0.040968478 0.2069749
-0.03656678 0.0287434 0.05782388 0.08809592 -0.026190039 -0.05484431 -0.055932865 0.0374386
0.13231547 -0.12258357 -0.06551109 -0.040927086 -0.17689106 -0.056533165 -0.07694711 -0.20432869
-0.016980745 -0.124334715 0.03555127 -0.19334066 -0.13193864 0.08395337 -0.07842583 -0.1376994
-0.07818433 -0.08378631 -0.11780609 0.09722619 0.07849017 -0.05648338 -0.0036303948 -0.043650854
0.18109033 0.06286105 -0.081938595 0.03712124 0.007126872 -0.14164092 -0.15209523 0.069412366
0.11558492 0.1388076 0.08529433 0.0152024 0.06641597 0.18282586 -0.05971987 0.14598568
-0.013841689 -0.12581673 0.11086111 -0.14217274 0.17801474 0.016581858 0.14505042 -0.12921338
-0.11153371 -0.035363358 0.10452257 0.10540039 0.03371261 -0.03410248 -0.1428905 0.105904594
0.041216686 -0.003401894 0.14666213 0.07370652 0.08480647 0.096864074 0.12594068 0.007637815

transformer.layers.0.self_attn.in_proj_bias f4 [192]
00000000: b3ee 013e 8043 b1bd ae14 8d3d e019 c6bc
00000010: 5cf8 7f3d 5d96 a4bc 834c 12bd 5fa2 1c3d
00000020: d5b5 af3d 4e8a 883d 39bb 0d3d 9c49 363c
00000030: 77d1 ab3c 2246 c4bd 64cc 83bc b4af 41bd
00000040: fbeb 04be 55e2 e1bd de0e 07bd 1fcc 82be
00000050: 73e1 df3b e41e 9dbd c772 413e 5b36 a5bd
00000060: 9616 82be f1a0 ddbd 0985 c2bd d345 c93d
00000070: 3255 5abe 1899 e2bc c5ba f63d 6a7c 5dbc
00000080: 0a22 ee3d 2e55 02be 3537 a7bd 3569 8cbd
00000090: a6cb a93d 467e cfbd 1321 1d3d 38ac 853d
000000a0: c875 8b3d 11fc 9bbd 38a4 dcbd ffdd 443d
000000b0: 6368 173e 410c 513d 0868 aebd 664a d63c
000000c0: 155f 5e3d 1edd 5abe 5d39 29bc 6488 86bd
000000d0: 3ee6 bfbd 1a36 ddbd 23d9 cebc 31fd 103d
000000e0: 1257 9dbd 9ce8 f43c 6a42 af3d b536 a93d
000000f0: e47f c4bd 7f50 8cbd e4c3 9ebd 2e92 9cbd
00000100: 60a0 603c cb3b 7abb 2630 593c 4d64 ac3b
00000110: 3bec e13b 60b6 163c 923b f53b 2be6 b83c
00000120: 26bd ec39 1e14 47bc 5d12 c6ba 14d3 173b
00000130: 50ff 863b 74f7 d3bc 4042 403c c45f 7a3b
00000140: 1735 a2bb 2879 b53c 19a6 7e3c 5369 633c
00000150: 56c5 e6bb 41ae d63c f3fe 993b 98ce 7a3c
00000160: 10d4 7f3b 2db4 a33c 0efd 2bba 11f7 99bc
00000170: 48c1 1ebb 7530 863c 5408 273b 6275 8fbc
00000180: 1eab 483c cf09 d6bc 6ac9 133c e654 8bbc
00000190: 04e8 b73b d081 94bc 8d4a d4ba a477 adbb
000001a0: 2f6e 003c 1f96 a2bb b199 96bc bbae 033b
000001b0: 3195 ba3c b3cc 313a b896 82bc 9f8c b13c
000001c0: 43ea 1f3c 273d 9abc 721d 0cbb 0f4e 92bc
000001d0: 9e85 ae3c b942 b43b 3f19 d23c 2dcc 1abc
000001e0: ca01 313c a14a 343c a816 acbb 29bd d2ba
000001f0: 42b1 cc3c 11ff 30bc 8a7a 36bc eca8 2ebc
00000200: 220e 683d 002f 75bb 5e61 e63c 712d e73c
00000210: 5ca4 88bd 1cef 44bc 90ae 943d bed2 423d
00000220: 3577 c3bd 5978 473d 19c3 0b3c f110 a8bd
00000230: 07e2 47bc 5e43 7ebc d4d3 743d d111 aabd
00000240: 2697 4a3d b6c3 dfbb 19a8 b5bc f4de e1bb
00000250: 5eb9 0c3d bdf4 39bd e441 393c 4406 cebb
00000260: 6c4d 973d 65c7 6e3d d780 3abd c134 513c
00000270: 9ea0 853c b350 e9bd 943e 483d 3ba6 19bc
00000280: b091 203c 5876 e5bb 9a10 41bc 3b8f f7bc
00000290: 4ac4 f03c af12 9abd a89e 1bbd 1924 ca3d
000002a0: da1f a3bc dcb7 64bc 9d07 a83d 628f 003d
000002b0: 89be b5bc 9309 283d ea04 b1bc 21e2 7abd
000002c0: b833 fc3c e0d4 1d3c 7c17 a3bc 1cf2 aebd
000002d0: eed5 f6bd 7b70 afbd 2804 65bd 5da9 c23c
000002e0: 985f cb3d 8202 9ebc f1e9 783c 2462 83bc
000002f0: 6b12 293d 974d 463d 1402 073c fe42 a23d
0.12688713 -0.08655453 0.0688871 -0.02418226 0.062492713 -0.02009123 -0.0357175 0.038240787
0.085796036 0.066670045 0.034602378 0.011125948 0.020973904 -0.09583689 -0.016088672 -0.047286704
-0.12980644 -0.110294975 -0.032973163 -0.25546357 0.0068322956 -0.076719075 0.1889144 -0.08067008
-0.25407857 -0.10821713 -0.09498031 0.09827771 -0.21321562 -0.027660891 0.12047342 -0.013518432
0.11627586 -0.12727806 -0.08164827 -0.06856004 0.08290796 -0.101315066 0.03836162 0.06526989
0.06809574 -0.07616437 -0.1077351 0.048063274 0.14785914 0.051037077 -0.08515936 0.026158523
0.054289896 -0.21373412 -0.010328618 -0.06568983 -0.09370087 -0.10801335 -0.025250023 0.035397712
-0.07682623 0.029896073 0.08557589 0.08262388 -0.09594706 -0.06851291 -0.07752207 -0.07645069
0.013710111 -0.0038182612 0.013256108 0.00526098 0.006894616 0.009198755 0.007483908 0.02257069
0.00045154354 -0.012150792 -0.0015111674 0.0023166584 0.004119791 -0.02587483 0.011734545 0.0038204053
-0.0049501765 0.022152498 0.01554253 0.013880092 -0.0070425672 0.026206138 0.004699582 0.015308045
0.0039036311 0.019983375 -0.00065608404 -0.018794568 -0.0024224091 0.016380528 0.0025487142 -0.017512027
0.012247829 -0.026127724 0.009020189 -0.017008256 0.005612375 -0.018128306 -0.0016196534 -0.0052938033
0.00783877 -0.0049617435 -0.018383833 0.002009316 0.022776218 0.0006782517 -0.015941009 0.021673499
0.009760442 -0.018827988 -0.0021379855 -0.017859487 0.021303948 0.005501118 0.025646804 -0.009448093
0.010803649 0.011004121 -0.0052517243 -0.0016078103 0.024986867 -0.010803 -0.011137614 -0.010660391
0.056654103 -0.0037412047 0.0281226 0.02821991 -0.06671974 -0.012019899 0.07259858 0.04756426
-0.09544221 0.048698757 0.008530402 -0.08206356 -0.012199885 -0.015518991 0.059772328 -0.083041795
0.049460553 -0.0068287505 -0.022174882 -0.006893033 0.034356467 -0.045399416 0.011307213 -0.006287368
0.07387814 0.058295626 -0.045533027 0.012768925 0.01631194 -0.11392345 0.048887804 -0.009378011
0.00980036 -0.007002633 -0.011783743 -0.030219665 0.029390473 -0.07523095 -0.037993103 0.09870166
-0.019912649 -0.013959851 0.08204577 0.03138674 -0.02218558 0.041024756 -0.021608789 -0.06125081
0.03078638 0.009633273 -0.01990866 -0.085422724 -0.120525226 -0.08566376 -0.055912167 0.0237624
0.099303424 -0.019288305 0.015192495 -0.016038008 0.04127733 0.04841384 0.008240242 0.07922934

transformer.layers.0.self_attn.out_proj.weight f4 [64, 64]
00000000: ff3f 853e 6554 f2bd 311c 2b3e 8352 013e
00000010: 0d16 123e bfa3 13be 045c df3d 6350 3f3e
00000020: e560 4cbe 88de 033d fa15 673e 63fc 67bc
00000030: d82d 41be 5591 28be 8bc7 443e af57 0b3e
00000040: ef73 393e d2be 183e 40bd 213e ee2c edbc
00000050: 1903 8c3e b6f7 82be e7e7 e83c 1c47 e5bd
00000060: 3d77 4d3c e685 393e 6b82 433d e926 a5bd
00000070: 3f1f cb3d 3e28 5b3d abe5 f7bd 05bf 78be
00000080: dce9 363e 9562 023e ee02 acbe 9cb7 113e
00000090: 9f05 6f3c a302 b7bd 8800 0a3e 06f5 5dbd
000000a0: 123f 04be 302a 5f3d 7bd5 203d 1249 cd3d
000000b0: ad4d 153e 36b1 0c3e a267 89bd 5f7e 1abe
000000c0: 7486 953d 4ccf e2bd 74a1 c83d 39a7 d5bd
000000d0: 3204 5dbe e390 92bd 9c60 47be 9fca 043e
000000e0: b8d3 013e d03d 013e 41e7 d4bd aa9c 063d
000000f0: 827a 7ebe 5c50 623c 7539 6bbe 8979 d73d
00000100: b469 82be 9957 7a3d 1298 343e 1485 2dbe
00000110: eee5 78be 14e5 8b3d ff4b 23be dd38 f73d
00000120: c1b2 dcbd 7191 5d3e 138f 8fbd 1709 5abe
00000130: 69f7 e1bd 5282 3fbd 3348 66bd 3c11 edb7
00000140: 140c 77bc 642b e53c 8e30 373e 3dcc 303e
00000150: 7981 c73d e392 263e c780 33bc 10eb 9b3e
00000160: 3951 9abd f146 ff3d 1fd4 0ebe 6671 863e
00000170: 7cfc 8d3c 7fb9 04bd 72f5 06be 5470 8dbd
00000180: 1e44 8cbd e67f b4be 4afb 8b3e 87f6 54be
00000190: da57 babc d03c c2bd f718 ef3d fb99 903d
000001a0: 648f 67be 6d4e abbd ed26 27bd 527f 7d3e
000001b0: d388 debd be91 8ebd 9c1e 12be f8ac f13c
000001c0: a0f4 eebd 916d 2f3e a741 fd3d 8b8c 093e
000001d0: edef abbd 8952 653e ffd0 46bd 85a4 d73d
000001e0: 5044 593e 1e36 3a3e a3d8 4e3e 239c 343e
000001f0: 0df6 153e 1618 243c d211 40be 6d19 7d3d
00000200: 99dd 8a3d ce89 6abc 4db2 873e 3909 d63b
00000210: 2fc7 a8bc 2366 41ba 242d 13be f741 25be
00000220: a977 073e 4d5c bfbd eefd 4cbe 5ab5 cdbd
00000230: 5c2e de3c 3311 8fbb 608e 6d3c de78 25bc
00000240: e241 963d 6f1e cbbd ac10 65bd cfa7 453d
00000250: 4f45 5ebe 6812 adbd 0535 aabd 7771 cbbd
00000260: b0ee 273e 44b8 fabd 0eb0 f5bd 6920 853e
00000270: 3697 2c3e 1c6d 45be 0233 353e 62f0 99be
00000280: 5306 da3d 6f9d d6bd 23d9 fdbd 3e6d cd3c
00000290: 0d0f c73c 70ff 42be fd1a 00be 26a9 22be
000002a0: 1168 1c3e 7371 f83d 0ab3 5dbe e0a5 3c3e
000002b0: 595d 10bd 95e5 fbbb 4f0a 973d b3f4 6d3d
000002c0: 647e 283e 331f f13d c9f8 e73d 20cc 5fbd
000002d0: d5b2 b6bd 91e7 2c3c b021 05bd deb0 b83d
000002e0: 3b02 0fbe ec6b 233d bd3f 8f3e 13bb b93d
000002f0: 1b75 77be a937 d73d a283 a3bc ecf1 0d3d
00000300: 40dd 813b f4fa 1c3e 8af6 91be b553 04be
00000310: 4784 0e3d 987c b6bd 34f4 19be 1896 523c
00000320: ca88 18bd 3c40 583e a57e 563e 96c4 1ebe
00000330: 6d20 e7bc 685e 0cbd 6c64 253e 8a2f acbd
00000340: f72a 07be c5b5 93bd 773b 5fbe 0055 733d
00000350: 2eb1 41be 83b6 253d 3a04 ce3e 7d72 85bd
00000360: 0efb bf3c 830f eebc 9c6f d4bc a23f 713c
00000370: 86f7 403e f311 febd 23ab 20bd 93e9 a63d
00000380: 6852 cfbd 9b80 c3bd fd5f 24be 17f7 5f3d
00000390: 0e60 943d c158 c73d 5207 8a3d a9e7 cf3d
000003a0: e131 40be df77 e23d 0c3e cfbd 071f 2abc
000003b0: dd20 1a3e a506 273e 160f d03d b6fa 3abe
000003c0: cf97 433e 6b75 5fbd b535 b03d dce8 13be
000003d0: 1521 373d 4137 083d b0c0 99bd 0712 a4be
000003e0: bd7b 5cbe acf3 11be 3395 1a3e 708e 193e
000003f0: 4986 c13d 09f8 543e 7f0c e23c bfd3 21be
0.26025388 -0.11832503 0.16709973 0.12629132 0.14266224 -0.14417933 0.109062225 0.18683009
-0.19958837 0.032194644 0.22566977 -0.014159295 -0.18865144 -0.1646169 0.19216745 0.13607667
0.18110631 0.14916542 0.1579485 -0.028952088 0.27346113 -0.25579613 0.028430892 -0.11195204
0.012540636 0.18117484 0.0477318 -0.08064062 0.09918069 0.053505175 -0.121043526 -0.24291618
0.17862648 0.12732919 -0.33595985 0.14230198 0.0145887425 -0.0893605 0.13476765 -0.05418875
-0.12914684 0.054483593 0.03926609 0.10023703 0.14580412 0.13739476 -0.067092195 -0.15087269
0.073010355 -0.11074695 0.0979642 -0.10432286 -0.21583632 -0.07156541 -0.19470447 0.12967919
0.1267842 0.12621236 -0.10395671 0.03286425 -0.2485142 0.0138131045 -0.22971137 0.10521228
-0.2547127 0.061118696 0.17636135 -0.16945297 -0.24306461 0.068308026 -0.15946959 0.12071393
-0.10776282 0.21637513 -0.07009711 -0.2129253 -0.11033518 -0.046755143 -0.0562212 -2.8260627e-05
-0.015078563 0.027974792 0.17889616 0.1726541 0.09741492 0.1626697 -0.010955996 0.30452776
-0.07535023 0.12464703 -0.13948105 0.2625839 0.017332308 -0.032403465 -0.13179567 -0.069061905
-0.0684893 -0.3525383 0.27340156 -0.20797168 -0.022746969 -0.09484255 0.116746835 0.070606194
-0.22613293 -0.08364568 -0.040808607 0.247556 -0.10865941 -0.06961392 -0.14269489 0.029501423
-0.11667752 0.1713164 0.12366038 0.13432519 -0.083953716 0.22394766 -0.048539158 0.105294265
0.21217465 0.18184707 0.20199828 0.17637686 0.14644642 0.010015508 -0.18756798 0.061791826
0.06780548 -0.014315082 0.2650322 0.006531861 -0.02060279 -0.0007377585 -0.14372689 -0.16138445
0.1322924 -0.09343777 -0.20018741 -0.10044356 0.027121715 -0.004366064 0.014499277 -0.010099618
0.07336785 -0.09917914 -0.055924103 0.048255738 -0.21706127 -0.08450776 -0.08310894 -0.09933751
0.16399646 -0.12242177 -0.119964704 0.2600129 0.16854557 -0.19279903 0.17695239 -0.3006621
0.106457375 -0.10479247 -0.12394931 0.025076505 0.024299169 -0.19042754 -0.12510295 -0.15884838
0.15274073 0.12131014 -0.21650329 0.18422651 -0.035245273 -0.0076872804 0.07375013 0.05809469
0.16454464 0.11773529 0.11326749 -0.05463803 -0.08920828 0.010553257 -0.03250283 0.0901811
-0.13965695 0.039897844 0.27978316 0.09068885 -0.24165766 0.10508663 -0.019960228 0.034654543
0.0039631426 0.15330106 -0.28508407 -0.12922557 0.03479412 -0.08910483 -0.15034562 0.012853168
-0.037239827 0.21118253 0.20946749 -0.15504679 -0.028213704 -0.03426972 0.16151589 -0.08407505
-0.13199984 -0.07212404 -0.21800028 0.059407234 -0.18915245 0.04045726 0.402376 -0.065159775
0.023435142 -0.029060131 -0.025932126 0.014724644 0.18844423 -0.12405767 -0.03922571 0.081500195
-0.101231396 -0.09546014 -0.16052242 0.054679003 0.072448835 0.09733725 0.067396775 0.101516075
-0.18769027 0.1105802 -0.101192564 -0.010383374 0.15051599 0.16311128 0.101591274 -0.18259701
0.19100879 -0.054555338 0.08603994 -0.14444298 0.044709284 0.03325582 -0.07507455 -0.32045004
-0.21531577 -0.1425311 0.15095977 0.14995742 0.09449441 0.20797743 0.02759385 -0.15803431

transformer.layers.0.self_attn.out_proj.bias f4 [64]
00000000: 2a66 ed3d bbbe 4bbb 90fc 21bd cb74 5d3c
00000010: 7cd3 733c 3924 cb3c 4266 243b 2983 62bc
00000020: ce0b 903c afe4 033d 64de eabb 383f b8bb
00000030: 71b5 02bd 6c3b 403c 9653 1fbd 3152 69bb
00000040: ae12 5dbd 1f99 a93b 8c57 00b9 964c ebbb
00000050: 8f09 143d dc25 c4bc 2bce 963d 9725 0f3c
00000060: c6bf 553c 6ef2 94bd 67ac 50bc 431a ac3d
00000070: a32a 86bd 409d 903d af4d c1bc efad 763c
00000080: f85d aa3c f3c2 c7bc aa42 4a3d 8424 a8bc
00000090: 7afb 40bc 7678 a43b 1930 5a3c 817d 0ebe
000000a0: d0c3 ca3c e3c8 63bc f256 a73d 0777 a3bb
000000b0: 3879 6bbd 788a 9abc 49af 5d3c 7fa8 5dbd
000000c0: 27b8 1cbd f077 82bd ea9b 3b3c 65a0 9e3b
000000d0: ce6e 82bd b9c9 fdbc 2eeb 12bc 0fa1 03bd
000000e0: 11ef 773d 3316 c93c 34c8 873c bfaa ecbc
000000f0: af08 80bd 2d60 bc3b 6cfa 42bc c8fe ad3d
0.11591752 -0.0031089026 -0.039547503 0.013516615 0.014881965 0.024797546 0.0025085364 -0.013825216
0.017583754 0.03220051 -0.0071676243 -0.0056227706 -0.031911317 0.011732917 -0.038898073 -0.0035601968
-0.053972892 0.005175724 -0.00012239645 -0.0071807606 0.03614193 -0.023943834 0.07363542 0.008736989
0.013046211 -0.07272802 -0.012736416 0.084034465 -0.06551101 0.07061243 -0.023596613 0.015056117
0.02079676 -0.024384951 0.049379982 -0.020525225 -0.011778707 0.005019243 0.013317131 -0.13915063
0.024751574 -0.013902876 0.081708804 -0.0049885544 -0.05748865 -0.018864855 0.013530561 -0.05411577
-0.03826156 -0.063705325 0.011450747 0.004840898 -0.063687906 -0.030979978 -0.008967204 -0.03213602
0.060530726 0.024546718 0.016574956 -0.028890012 -0.06251656 0.0057487697 -0.011900526 0.08495861

transformer.layers.0.linear1.weight f4 [256, 64]
00000000: 487a c8bd 06a5 0a3e a541 733d bfb5 52be
00000010: f6cc d3bd 49fc b0bd f632 29be f5f1 0a3e
00000020: 5255 6abe 89be 03bd cd3a 38bd 3bd2 6d3d
00000030: b17d 2e3d 7e4a 473d 5c2d 073d 15d7 653e
00000040: f1b1 0cbc 2a2d ec3d aec6 563b 1451 da3b
00000050: a038 083c c28f 21be 9c4e f8bc 77f5 013e
00000060: 148b ce3b 4d01 e13d fab3 ea3c 9105 d43c
00000070: a533 d33d 5a36 23bd 59e7 8abd 3e3d f53d
00000080: 843e 88bc f811 733e c5e3 db3c 5915 1e3e
00000090: 997b 033e 0ecb bd3b 6ace ffbc 6084 52be
000000a0: 7bed c2bd 912a 75bc d824 1b3e 2d07 843c
000000b0: 1640 c3bb 684c 2b3e 4ba0 8c3d 8d25 79bd
000000c0: 96e2 ca3d d75c 48bd 6866 91bd dd11 6bbd
000000d0: b9d9 03bd df0e 763d 7a4f 90bd 26de 9fbc
000000e0: be42 9c3c 25e4 85bd b1c8 75bc fdac d4bd
000000f0: eabd c3bd 92af f33d 6027 42be 1b48 6dbc
00000100: d17d 9d3d f096 6fbb 403c 653d 067c 48bc
00000110: f500 58bd ba6d 2dbe 7076 b9bd 59cd 943d
00000120: d318 a23d 0c2b e5bc 29ec 2a3c 12a1 57bd
00000130: 0c12 633d d051 8d3d be1f ebbd 9245 79bd
00000140: fe51 ddbd cbb1 86bd ec1d a1bc c3e8 033e
00000150: 99f5 54bd f56d e5bd 3990 c83d babf 50bd
00000160: 881c e63c 9c69 d83d fb70 dfbd 4500 1d3d
00000170: 8ccd 26bd 19ab a6bc aa58 8a3d 5d9c 063e
00000180: 357b ba3d 3505 1e3e 096c a9bd cae6 f8bc
00000190: 67f0 04bd 3eb9 edbb 0b1e bebd 6755 473c
000001a0: 17cd 893d ecaf eb3c 9e3a d8bc 2ae2 08be
000001b0: 70a1 9dbd bfac a6bc 6f7b bfbd 83e1 b03d
000001c0: 8cec c6bd 7b11 bd3c df94 1ebd 70c9 aebd
000001d0: bd48 10bd 12b8 993c cece f33d d0f3 36be
000001e0: 9df1 0bbd 88c8 273e 520b 853d 4515 b23d
000001f0: ae8f fdbd 16b6 fdbc 677e d7bd e960 86bc
00000200: a211 85bd 6e5d 3dbd 534e a13d 1a7e 023e
00000210: 8d09 d2bc 4485 bfbb 736d 2f3e 5895 503b
00000220: eb72 17bd ba55 55bd 0df3 263e 42fe 28be
00000230: 5a65 04be de0f 333c 6389 a3bd 90eb 2abe
00000240: f370 60bc 4005 eebd b1ae 8cbd 7258 1cbd
00000250: f3ed aebd 5e3a 1dbe ffcf 7ebd 2d3f f53b
00000260: 8a7b acbd a1d3 d2bc 1e12 e83a fd38 243e
00000270: 541a 8f3d de0a 34bd 7cda a43d 5845 04bd
00000280: 421a cf3d cb1c fe3d 8c78 1abd 4ec6 bc3b
00000290: 751e 23be 43f2 dc3d a678 283e 7a68 e53d
000002a0: 0d18 e93d b646 e6bc a016 ad3d 085b 78bc
000002b0: 73aa e1bd 5500 87bb da23 e7bc 08b3 26bd
000002c0: 1adc 59bd 82dc 51bb 6488 b53d 8c56 7b3d
000002d0: 11ec 813c cd9c ecba 9798 0bbe 99b4 2c3d
000002e0: 6d1f 273d 2891 74bd adcc 683b 88fe 0ebe
000002f0: 4ad9 b3bd 6034 b93d d48d ffbd 616d 30be
00000300: a007 1e3e b679 bbbc 2272 29bd 7e7b df3d
00000310: b8ac 543d c324 fe3d 8daa a43d 607d f93d
00000320: 8a0d a23c 1968 21be 2603 0c3d 0662 d0bd
00000330: d68c cdbc 0e52 7a3c d41d 1d3b 6992 27bd
00000340: f441 c03c 196f da3d ab13 05be 2531 eb3d
00000350: a837 f03d d02a a5bd cbb0 003c 3475 e2bd
00000360: 8403 98bc 2fe2 1c3e 3d97 613e 2308 7abd
00000370: 1cd5 c1bd d155 b73c 861d 9db9 c111 d1bd
00000380: 013c f63d f118 9a3e a610 55bc 2059 5a3b
00000390: a5b8 8f3d 3412 853e 961b fb3c c278 9cbd
000003a0: 4dfe 7e3d 48be a03d 48ed 033e 48a5 143c
000003b0: f8db 943b 8e03 fbbd 5369 b03b 02fc a0bd
000003c0: ed3a 0dbc b128 9b3d 4909 ae3d ee4f d03c
000003d0: 4b94 26be a67b 99bd 8e34 0dbc b70e 733d
000003e0: 4452 6ebd 2ed4 143e 67b2 9f3d aeef 79bd
000003f0: 7da6 a33d 4f92 b43b 5ca7 e3bd c8f4 9abb
-0.09788948 0.13539514 0.059388775 -0.20577143 -0.103418276 -0.086418696 -0.16523346 0.13568862
-0.2288411 -0.03216413 -0.04497795 0.05806182 0.042600337 0.048655026 0.033002242 0.22445329
-0.008587346 0.11532052 0.003277223 0.0066624973 0.008314282 -0.15777496 -0.030310921 0.12691294
0.0063032005 0.10986576 0.028650273 0.02588156 0.10312585 -0.039846756 -0.06782407 0.11974572
-0.016631372 0.23737323 0.026842007 0.15437831 0.12840118 0.0057920283 -0.031226356 -0.2055831
-0.09517952 -0.014963762 0.15150774 0.016116703 -0.0059585674 0.16728365 0.06866511 -0.060826827
0.09906499 -0.048916664 -0.070996106 -0.057390083 -0.03219006 0.060072776 -0.07046409 -0.019515108
0.019074794 -0.06537656 -0.015001462 -0.103845574 -0.095577076 0.11898722 -0.18960333 -0.014482523
0.07690013 -0.0036558472 0.055965662 -0.012236601 -0.052735288 -0.16936389 -0.09055793 0.072657295
0.07914891 -0.027974628 0.0104322815 -0.052643843 0.055437133 0.0690037 -0.11480664 -0.060857363
-0.108066544 -0.0657688 -0.019667588 0.1288176 -0.051992033 -0.11202613 0.09793133 -0.050964095
0.028089777 0.105670184 -0.10910221 0.038330335 -0.04072337 -0.020345258 0.067551926 0.13145585
0.09105531 0.15431674 -0.08272559 -0.030383486 -0.032455828 -0.0072547486 -0.09283074 0.012166358
0.06728571 0.02877041 -0.026395138 -0.13367525 -0.076968074 -0.020346044 -0.09349715 0.08636763
-0.097130865 0.023079624 -0.038716193 -0.08534515 -0.03522562 0.01876453 0.11904679 -0.17866445
-0.034165967 0.1638509 0.064963 0.08695463 -0.1238092 -0.030970614 -0.10522156 -0.016403632
-0.06497504 -0.04623168 0.07876267 0.12743416 -0.02563932 -0.005844744 0.17131595 0.0031827297
-0.03697483 -0.05208371 0.16303654 -0.16503242 -0.12929288 0.010929076 -0.07985189 -0.16691422
-0.013698804 -0.11622095 -0.06869257 -0.038170286 -0.08541479 -0.15354297 -0.06221008 0.007484338
-0.08422001 -0.025735678 0.0017705595 0.16037364 0.069874436 -0.043955676 0.08049485 -0.032292694
0.1011243 0.124078356 -0.03771262 0.0057609444 -0.15929587 0.10788395 0.16452274 0.11201568
0.113815404 -0.02810989 0.08451581 -0.015158422 -0.11018839 -0.0041199126 -0.028215338 -0.04069808
-0.05318842 -0.0032022302 0.08863905 0.061361834 0.015859636 -0.0018052101 -0.13632427 0.04216442
0.040801454 -0.059708744 0.0035522387 -0.13964283 -0.08781679 0.09043193 -0.124782234 -0.17229225
0.15432596 -0.022885185 -0.04136861 0.10912226 0.05192253 0.124093555 0.080403425 0.121821165
0.019781847 -0.15762366 0.03418269 -0.101749465 -0.02509157 0.015278352 0.0023974078 -0.040911112
0.023468949 0.106657214 -0.12995784 0.11483983 0.117293656 -0.080648065 0.007854651 -0.11057511
-0.018556364 0.15320657 0.22030349 -0.061042916 -0.094644755 0.022379788 -0.0002996737 -0.102084644
0.120231636 0.30097154 -0.013004458 0.0033317283 0.0701764 0.2599045 0.030652802 -0.0764022
0.06225424 0.07848793 0.12883484 0.009072609 0.004542824 -0.122565374 0.0053836494 -0.07860567
-0.008620006 0.07576121 0.08497865 0.025428738 -0.16267507 -0.07494287 -0.008618487 0.059340205
-0.058183923 0.14534065 0.077976994 -0.061019592 0.079907395 0.0055106054 -0.11115906 -0.004728887

transformer.layers.0.linear1.bias f4 [256]
00000000: 3e62 62bd bb5e 13bd 722d debc b1d1 e5bd
00000010: 9d6e 703d 524b 9fbd 3ee7 18bd b0ee 143c
00000020: 9a44 f0bd e8b6 8abd fbfc 34bd 9a67 0abe
00000030: 9a9a d4bd b30d 9abd ea38 28be 9f82 e63c
00000040: 44a7 2e3d 9ee0 02be 84f5 62bd 4727 aa3c
00000050: 92eb 183d 79f3 a9bc e20b 25be 7bc7 28be
00000060: 4a11 ce3d 1db5 ce3b ae47 3f3c f82a 0fbe
00000070: 3be2 9fbd 2a58 e0bc 991c 45be d53f 12bd
00000080: fee8 05bd 973f 4fbd 8a66 cdb9 8318 9a3d
00000090: f85b 603d b94a 84bd 221b 18be fcf2 0b3e
000000a0: 7fa6 a33d 3b84 b9bd 1bf3 3dbe 73dc f0bd
000000b0: 7907 cabd b0e2 293d f76e a03b 675a 9ebd
000000c0: 0db8 11be b2d8 313d 5f4c bcbd a6ad bcbd
000000d0: 95a1 eb3c 3220 cdbc a574 0c3d 66fe 18be
000000e0: 8b8e 3cbe 453b 6abc 60cb c0bd 1982 603b
000000f0: a4b9 303d db50 2fbd 6d07 5939 63fc fabd
00000100: 5a4c cfbd 3174 c6bd 422d 48be 6738 66bd
00000110: 4cc9 1bbe 6f47 eb3c 770b 1e3d 66cb e23d
00000120: cc68 033c 306b e3bd 6771 f73c 8778 a3bc
00000130: 61bb 3c3d 3628 3cbe 933a 753c 655d 773d
00000140: 2838 29bd b506 a33d d63c 373d aa73 6ebd
00000150: b6b2 213d 4486 ffbd c91c 543d 02d9 fc3c
00000160: d00f 3fbe 5a85 f2bd dcb7 8dbd d693 babc
00000170: d3e1 02be 3d67 b1bd 1f5d 20bc 7326 573d
00000180: 87aa 14be 1e23 d7bd 7fe2 40be eaec b8bd
00000190: 2f53 8c3d 308a 19be f2e2 03be f82f 95bd
000001a0: 8629 dc3c d445 b8bc 2f68 0dbe c3f4 573d
000001b0: 825d 1dbd ed05 a5bc 3f5e 1ebe 8401 2a3d
000001c0: 76de 24bd 0353 dfbd f627 30bd ff16 b9bd
000001d0: 2c41 0fbd e92a adbd 15d6 8fbd 2df2 623c
000001e0: 69ea bdbc b27a ccbd b2ac f9bd 75bc e9bd
000001f0: e6f9 a0bd 9e8b 7abc 06b2 62bb b86c 87bd
00000200: d8d5 3c3b 0311 03be b2e3 c137 4f94 15be
00000210: f871 dc3d b4ae e03c d55e 0fbe 9d4e a6bc
00000220: 322b c9bb 5922 583c f8f2 a83c 90a2 d53c
00000230: dddc 51bd df7e fabd 29ac e3bd b706 95bd
00000240: 1774 4ebc 1c94 a53d 3bbb 8ebb d80e 99bd
00000250: 4acc 2bbe 8938 01be f987 3cbe f76e 023d
00000260: 040d 19be 6a82 d4bd 2082 53be 7de3 0ebe
00000270: 7cf8 db3c b944 edbd 16e3 22be 30f2 82bd
00000280: c9b2 b7bd e1d1 c33d 28d5 40be 60ab 0ebe
00000290: 6950 34bd 2e8d ce3d 80c2 643d e64e a4bd
000002a0: ea1e 46bd fc30 c33b bc91 cbbd 36ed d9bc
000002b0: 87e3 d7bd 294b e3bd 2cb7 a5bd 69c2 f4bc
000002c0: c837 abbc 549e c4bd d881 2dbd e726 acbb
000002d0: bc10 f23c 61ba 98bd 3092 ee3c 0bba 0abe
000002e0: be16 cbbd db88 febd f840 0fbd 48ec 783d
000002f0: 9c1d 09bd 3aea 61bd 7591 88bc 14b0 03be
00000300: 62df 0bbe 9c59 01be 86c3 17bd 89df 04bb
00000310: 685a 303c 1f2c dabd 8dcc dabd 092f bfbd
00000320: 5ba2 b73d 9a90 cdbc 7e8f fb3d 6973 573d
00000330: 0226 e9bc f4b1 77bd 06f7 053b 45b4 d8bd
00000340: 17a7 203c b81a 7c3c 0ab8 5abd 074d 32be
00000350: 3e95 72be c47b c4bd 26f6 83bd 78f3 04bd
00000360: 010e 06be 558d 07bc ebee 823d 704c 45bc
00000370: 42ee 27be 38ed 86bd 8873 15be 1b09 883d
00000380: 7c34 cfbd a8b3 02be 6f87 21be a2e6 97bc
00000390: a0d9 b8bc 973d b5bd bebb 97bd 7e52 87bd
000003a0: d272 b0bc ba06 8ebc a002 33bd d581 6ebd
000003b0: f9ce 19be db32 30ba dc4b 73bd 53b2 d8b9
000003c0: 3493 663d bdce 8c3c 68f2 08be d3a5 0dbe
000003d0: f4b9 5cbd e733 f9bc da00 3b3d 0560 943d
000003e0: 8a74 93b9 80a4 d0bc 22da 5cbe 3925 423d
000003f0: 92ab 5bbc b54c 01be 5308 62bd ea5e ae3d
-0.055269472 -0.035979014 -0.02712128 -0.11221636 0.05869924 -0.07778038 -0.037329905 0.009090111
-0.11731835 -0.06773168 -0.044186573 -0.13516083 -0.103810504 -0.07522144 -0.16427961 0.028138457
0.042639986 -0.12780997 -0.055409923 0.020770682 0.037334032 -0.02074598 -0.16117814 -0.16482346
0.100618914 0.0063082115 0.011674805 -0.13981235 -0.07806822 -0.02738579 -0.1924919 -0.035705406
-0.0326929 -0.050597753 -0.00039177045 0.075242065 0.05477521 -0.06459565 -0.148541 0.1366691
0.07990741 -0.09058424 -0.18549769 -0.11760797 -0.098647065 0.04147595 0.0048960405 -0.07732087
-0.14230366 0.043419547 -0.09194254 -0.09212808 0.028763572 -0.025039766 0.03429093 -0.14940795
-0.18413751 -0.0142963575 -0.09413791 0.0034257232 0.04314579 -0.04280172 0.00020697499 -0.1225517
-0.10121985 -0.096901305 -0.19548514 -0.056206133 -0.15213507 0.028720586 0.038585152 0.110739514
0.008020591 -0.11104429 0.030205442 -0.019954933 0.046077136 -0.18374714 0.014967578 0.060391802
-0.04131332 0.07960264 0.044735752 -0.058215775 0.039477073 -0.12476781 0.051785264 0.030865196
-0.18658376 -0.11841841 -0.06919834 -0.022775572 -0.12781458 -0.08662269 -0.009787827 0.052526902
-0.14518176 -0.10504745 -0.18836401 -0.09029563 0.068518035 -0.1499412 -0.12879542 -0.0728454
0.026875269 -0.022494234 -0.13809274 0.052723657 -0.038419254 -0.020144427 -0.1546564 0.04150535
-0.040251218 -0.10904505 -0.04300686 -0.09037589 -0.034974262 -0.0845545 -0.07023255 0.0138516845
-0.023183065 -0.0998434 -0.12191142 -0.114128985 -0.07860164 -0.015292076 -0.0034590974 -0.06612533
0.0028813984 -0.12799458 2.3113422e-05 -0.14607356 0.10763925 0.027427055 -0.1400102 -0.020301158
-0.0061391825 0.013191783 0.020623669 0.026078492 -0.051236022 -0.1223123 -0.11116821 -0.072766714
-0.01260092 0.0808489 -0.0043558157 -0.07473534 -0.16777149 -0.12619223 -0.18411244 0.031844106
-0.14946371 -0.10376437 -0.20655107 -0.13953967 0.026851885 -0.115853734 -0.15906939 -0.0639385
-0.089696474 0.095615156 -0.18831313 -0.13932562 -0.044021998 0.10085522 0.055849552 -0.08022861
-0.048369326 0.005956767 -0.09939906 -0.026602369 -0.10541444 -0.1109832 -0.08091578 -0.029877858
-0.020900622 -0.09600511 -0.042360157 -0.005253661 0.029548995 -0.07457424 0.029122442 -0.13547532
-0.09916447 -0.12428447 -0.03497407 0.06077221 -0.033475503 -0.055155016 -0.016670922 -0.12860137
-0.13659433 -0.1263184 -0.0370517 -0.002027484 0.010763742 -0.10652947 -0.10683546 -0.09335143
0.08966514 -0.025093365 0.12283228 0.052600298 -0.028460506 -0.060472444 0.0020441427 -0.10581259
0.009805462 0.01538723 -0.05339817 -0.17412196 -0.23689744 -0.09593919 -0.064434335 -0.032458752
-0.1309128 -0.008273442 0.06393226 -0.01204215 -0.16399482 -0.06588215 -0.14594853 0.06642362
-0.101174325 -0.12763846 -0.1577432 -0.018542591 -0.02256471 -0.08849638 -0.07408856 -0.06607531
-0.021539126 -0.017337192 -0.043703675 -0.058229286 -0.1502036 -0.0006721445 -0.059398517 -0.00041331592
0.056292728 0.017188424 -0.1337372 -0.13832788 -0.053888276 -0.030420257 0.04565511 0.07244877
-0.00028124853 -0.025469065 -0.21567586 0.04739878 -0.013407605 -0.12626918 -0.05518372 0.08514197
