data/train_data/transformer/td_best_model.pt (torch, 319549 bytes, 39 tensors)

att_weights f4 [3]
000000 2f 79 7f 3f 69 62 80 3f 57 1c 80 3f
       0.99794286 1.0030032 1.0008649

weight f4 [48, 4]
000000 df 28 a1 be 2a 3b 32 3d 70 43 69 bd 95 9c f0 bd
       -0.31476495 0.043513454 -0.05694908 -0.11748616
000010 f6 58 33 3e 3f 80 8c 3e 7c 8e 97 3e 3c d3 ce 3d
       0.17514405 0.27441594 0.29600894 0.100988835
000020 63 4d 6d 3e e7 1e 80 be da 81 98 bd c1 a5 16 3e
       0.23174052 -0.25023577 -0.07446642 0.14711668
000030 84 11 11 bd d4 99 31 be c3 5c 33 3e 9d e2 d4 3c
       -0.035417095 -0.17343837 0.17515855 0.025986964
000040 0f 75 69 3e 72 1b 24 3e 86 68 85 3e 18 3d 1b 3e
       0.2279856 0.16026095 0.26056308 0.15160024
000050 6c 42 ce 3d 45 4f 61 3e 2a d1 6b 3e 50 10 1f be
       0.10071263 0.22002895 0.23029009 -0.15533566
000060 cb fa 98 3e 29 2e 80 3e d0 7d 19 3e 77 42 8d 3e
       0.2987884 0.25035217 0.149894 0.2758977
000070 63 11 9d 3d 20 f1 0b bd 07 4e dd 3d 33 ec b1 3d
       0.07669332 -0.0341655 0.10805898 0.086876296
000080 58 c1 be bb 3e 92 83 3e eb 64 9c be 6c 39 4f be
       -0.005821388 0.2569751 -0.30545744 -0.20236748
000090 73 6d 3e 3d ab 4b 86 be a5 c2 ae 3d 48 49 f9 bd
       0.046491098 -0.26229605 0.08533219 -0.121721804
0000a0 b7 87 9c be 0c df d2 bd e8 ac f4 bd 61 1c 87 be
       -0.30572292 -0.10296449 -0.11947042 -0.2638884
0000b0 40 7c 9e 3e 6f 99 8f be 44 3d da bd 18 35 1b be
       0.3095417 -0.28046748 -0.10656217 -0.15156972
0000c0 63 d7 2c be 82 ea 99 be af b4 10 be b8 9b 0e be
       -0.16879039 -0.30061728 -0.14131425 -0.1392659
0000d0 2d f4 72 3d 68 43 4e be 73 70 8c 3d 29 fa 84 3e
       0.059314895 -0.20142901 0.068573855 0.25972107
0000e0 ed 3a 7b be b6 19 14 3e 87 23 89 bc 21 70 81 be
       -0.24534197 0.14462933 -0.016740574 -0.2528086
0000f0 fd 4a 4c 3d ad 59 a1 3e 36 af f7 bd bb 56 98 be
       0.049876202 0.3151373 -0.12093966 -0.2975367
000100 6b f1 67 be 9d 57 70 be 54 98 3d be be cb 80 be
       -0.22650687 -0.23470922 -0.1851514 -0.25155443
000110 72 0c ec 3d 37 4d 48 be 9e f9 77 be fd d1 0b be
       0.11525811 -0.19560705 -0.24216315 -0.13654323
000120 1d 56 12 be d5 96 56 3e eb 27 ab 3e 9a c3 59 3e
       -0.14290662 0.20955975 0.33428892 0.21266022
000130 bf 84 74 3e 9b 57 7b 3e 56 ba 8e be a7 96 6e be
       0.23878764 0.24545138 -0.27876538 -0.23299657
000140 63 8b 8f be a9 3d 82 3d 31 1a a0 bd 26 17 a3 3e
       -0.2803603 0.06359417 -0.078174956 0.31853598
000150 36 ab 44 3e 52 db 28 3e e2 78 72 bc e3 f7 52 3d
       0.19205937 0.16489914 -0.0147993285 0.051505934
000160 8a d1 99 3e 6e 27 50 bd 88 a5 a7 3e ea 52 c2 bd
       0.30042678 -0.050818853 0.32743478 -0.09488471
000170 fe 51 1d be e4 bd 1c 3e 5e e0 fe 3d cb 9f 7c 3e
       -0.15363309 0.15306813 0.124451384 0.24670331
000180 93 6a 6f 3e 06 9d 1f bd 8a 27 2e be f0 00 81 3e
       0.23380499 -0.03896811 -0.1700727 0.25196028
000190 a9 84 ee 3d 7b 1d 85 3e 17 6a 06 3d 7b 03 92 be
       0.11646397 0.25999054 0.03281602 -0.2851828
0001a0 cf a2 a4 3d 35 ef 7a 3e 07 14 2d be 37 77 7e 3e
       0.08038866 0.24505313 -0.16902171 0.24850164
0001b0 3a 0b 0a bd e1 b1 a4 be c9 7c ac 3c 12 68 51 3e
       -0.033702113 -0.3216696 0.021055596 0.20449856
0001c0 b2 54 a2 bc 91 7f 1f 3e 4a 59 74 3d f8 45 66 be
       -0.019815776 0.15576006 0.059655465 -0.22487628
0001d0 8d c0 3f 3e 8d 9e 09 3e 6f 08 0f 3e c5 5d d8 bd
       0.18725796 0.13439389 0.13968061 -0.1056476
0001e0 57 48 9c be 04 ad d5 bd a0 a6 11 3e 5b f8 77 be
       -0.3052394 -0.10433391 0.14223719 -0.24215834
0001f0 c3 a2 60 3e de f8 9e 3d 06 ff 6d 3e 81 0d a8 3e
       0.21937089 0.077623114 0.23241815 0.32822803
000200 50 44 5f be 45 44 50 3e 1b 7e 98 be 19 6a f7 3d
       -0.21803403 0.20338543 -0.2978371 0.120807834
000210 2a fd c4 3d 73 da 05 3e 19 09 94 be dd c0 95 3e
       0.096186 0.13071613 -0.2891319 0.29248706
000220 68 27 59 bd a5 c8 e9 bd d9 95 09 be 46 52 88 3e
       -0.053016096 -0.11415223 -0.13436069 0.2662527
000230 92 f2 84 3e d4 61 ea bd 8d dd 89 bd 51 fe 95 3e
       0.25966316 -0.114444405 -0.067317106 0.2929559
000240 7d ae 75 3e 27 04 56 3d e4 fc 71 be b6 93 a3 3e
       0.23992343 0.052250054 -0.23631626 0.31948632
000250 2c 62 9d 3e f6 8b 19 3e e8 b0 9f bd a4 e1 84 3e
       0.30738962 0.14994797 -0.07797414 0.259534
000260 e4 7f 79 be 4c 07 c4 bc e1 b4 19 3e 21 f7 a3 be
       -0.24365193 -0.02392926 0.15010406 -0.32024482
000270 4d d5 aa bd 30 af 97 be bf 85 20 be 9e 9a 3c 3d
       -0.08341465 -0.29625845 -0.1567602 0.046045892
000280 33 73 95 be 40 60 a0 3e ab 65 73 3e ad 74 1a 3e
       -0.29189453 0.31323433 0.23769252 0.15083571
000290 e3 93 b8 bc 36 a3 c2 bc 6d 74 00 3e 1b c1 54 3e
       -0.022531455 -0.023759466 0.12544413 0.20776789
0002a0 4e 34 70 3e d9 93 3c 3e 7c 46 01 3e 5f 0b 11 3e
       0.23457453 0.18415774 0.12624544 0.14164494
0002b0 b9 28 2c 3e ff 94 79 3e 9b 2b 11 3d 5c 2a 5b 3c
       0.1681241 0.24373244 0.035441976 0.0133767985
0002c0 ea 12 e9 bd 83 ab 88 be 3d aa 60 be 25 5b 11 bd
       -0.11380561 -0.26693353 -0.21939941 -0.035487313
0002d0 7d ae e4 3d 7e f6 eb bd 63 b3 27 3e 5b a6 a3 be
       0.111660935 -0.11521624 0.16377024 -0.31962857
0002e0 61 9d 2a 3d 06 92 f8 bd 6b 40 16 3e 07 3d 0f be
       0.041653994 -0.12137227 0.14673011 -0.13988124
0002f0 33 f8 48 be b3 01 42 3e 10 9a 03 3e 5a 9b 88 be
       -0.1962593 0.1894596 0.12851739 -0.26681024

bias f4 [48]
000000 de 9f c9 be b1 3c ea 3d 61 09 d2 be 99 47 48 be
       -0.3937978 0.11437357 -0.4102278 -0.19558562
000010 41 9e 5c 3e 07 d9 a7 be fa de 67 3e 66 b7 c9 bd
       0.21544744 -0.32782766 0.22643653 -0.098494336
000020 ec a8 00 3f 5e 81 14 3e 46 a8 2f 3e 63 24 da 3d
       0.50257754 0.14502475 0.17154035 0.106514715
000030 e7 56 f9 3e 94 1d f4 be 41 e4 b0 be 51 4c 92 be
       0.48699114 -0.47678816 -0.34549144 -0.2857385
000040 8c bd b8 bd b2 0c c3 be 1e 74 1b 3e 7f fe 00 3f
       -0.09020528 -0.38095623 0.15181014 0.5038833
000050 b4 b2 ad 3e d9 74 29 be 85 b5 9e be ff a5 cd be
       0.33925402 -0.1654848 -0.30997863 -0.40165707
000060 d9 d2 03 3d 30 c2 f1 be 91 83 bd be 5a 20 23 3e
       0.032183502 -0.47218466 -0.3701444 0.1593031
000070 dc 09 c1 bc 8e 3f cb be 73 bd 39 bd f6 6c 22 be
       -0.023564272 -0.39696926 -0.04534669 -0.15861878
000080 3e 97 cd be c0 5e 4b 3d 24 03 73 3e 24 9c b0 3c
       -0.4015445 0.049650908 0.23731667 0.021558829
000090 9b 7c 0d be 0c 29 bc bd 19 e4 82 3e 1e 00 a4 bd
       -0.13817064 -0.091875166 0.2556465 -0.08007835
0000a0 93 47 89 be 3b 16 ea bd 9c b2 d2 bd 2a e0 d6 be
       -0.2681242 -0.114300214 -0.10287973 -0.419679
0000b0 01 eb 84 3e 81 3a 1a 3e 4e 83 af bd 24 5f 35 3e
       0.25960544 0.1506138 -0.08569966 0.17712075

weight f4 [48, 1]
000000 11 b7 85 3e c9 21 ac 3c a2 a3 c7 bc e0 0a 02 be
       0.2611623 0.021012204 -0.024370018 -0.12699461
000010 29 5f 4b be fa 44 42 3e a6 12 11 3d 59 98 cc bd
       -0.1986052 0.18971625 0.035418175 -0.099899955
000020 5a 97 d4 3d 84 25 9b 3e 22 5c a0 be 26 38 78 be
       0.103804305 0.3030206 -0.31320292 -0.24240169
000030 8d 44 35 be 8c c5 a4 3e 34 ae 97 3e 32 4c ad be
       -0.17701931 0.32181966 0.29625094 -0.33847195
000040 4f 85 17 be 10 87 e4 3d 37 f1 5f be 86 5b 59 be
       -0.14796947 0.11158574 -0.2186936 -0.2122632
000050 8f 75 34 be 78 21 38 3d 7a b9 a9 be 2d fe 8d 3e
       -0.1762297 0.044953793 -0.3314932 0.27732983
000060 86 a1 0c 3e 7f 56 d8 3d 35 0f 35 3e f8 d9 cc bd
       0.13733491 0.10563373 0.17681582 -0.10002512
000070 73 ef 83 bc 9b cc a9 3d b2 15 6f 3e 0a d1 ba 3d
       -0.01610539 0.082909785 0.2334812 0.09121902
000080 17 c3 b4 3d 9b b8 29 3e 3a fc 92 bd f7 65 65 be
       0.08826273 0.16574328 -0.07177015 -0.22402178
000090 56 11 49 be b9 7d 4a be 13 b6 be 3d 53 ad 33 bd
       -0.1963552 -0.19774522 0.09312072 -0.043866467
0000a0 99 4d 29 bc 61 e2 c1 ba c6 e1 33 3e c7 16 1c be
       -0.010333442 -0.0014792198 0.17566594 -0.15243064
0000b0 3f 0a a4 be d3 15 39 be 6f 02 73 3e c1 29 8a 3d
       -0.32039067 -0.18074732 0.23731397 0.06746245

bias f4 [48]
000000 06 21 cc 3e 2e ce 30 3f 8a 70 f2 3e 5f ec 3d 3f
       0.39868945 0.69064605 0.47351485 0.741888
000010 93 56 40 3f bc c7 ff 3d 29 cb 77 bd 45 53 5c 3f
       0.751321 0.12489268 -0.060496483 0.8606456
000020 ef 7e 0f bf 74 dc f1 3d ca b8 d9 bd a0 ca ba be
       -0.5605306 0.11809626 -0.10630949 -0.36482716
000030 cb b8 f1 be f1 c6 ec 3e 40 2a e5 3e b2 49 71 bf
       -0.47211298 0.4624553 0.44758797 -0.94253075
000040 f9 12 8b 3e 88 2c 05 3d 64 f7 13 bf c0 ad 50 3f
       0.27162912 0.03251317 -0.57799363 0.8151512
000050 71 8d 92 3e 5d f7 5f 3f c4 d1 63 bf 6f 9f 75 3f
       0.28623536 0.8748682 -0.8899195 0.959464
000060 0f 03 74 bf 0b c1 3b 3f b1 cd 6b 3d fb 55 dc 3e
       -0.9531717 0.73341435 0.05756921 0.43034348
000070 f9 5d 66 3f 74 60 a8 3e f9 63 cc 3e d3 b4 ea 3e
       0.8998714 0.32886088 0.39920023 0.45841083
000080 38 bb 8c be f8 c7 07 bf 89 ed ee be e0 d5 76 bf
       -0.27486587 -0.53039503 -0.466656 -0.964201
000090 5a 33 7d bf d4 d4 67 3f 0f 8a 45 3f 96 4c f7 be
       -0.9890648 0.90559125 0.77163786 -0.48300618
0000a0 89 cd 6b 3f 24 24 09 be 4f c4 d9 bd 50 79 53 bf
       0.92110497 -0.13392693 -0.10633146 -0.82606983
0000b0 1b b3 b8 be 6f 43 ed 3e b1 dd ac be ee af 61 bf
       -0.36074147 0.4634051 -0.33762887 -0.8815907

weight f4 [48, 2]
000000 4d 47 2a be cf 67 91 3e 3c 90 35 be ac fd 1d 3e
       -0.16628762 0.28399512 -0.17730802 0.154288
000010 17 05 af bd 16 1b 9c be 37 4d b3 3d 04 60 70 bd
       -0.08545893 -0.30489415 0.08754962 -0.058685318
000020 9a 5a a2 be 69 2e 83 3e 76 4f ed 3d 75 ed 13 be
       -0.31709749 0.25621346 0.115874216 -0.14446051
000030 4d 55 ff 3d 96 ec 8e 3d 45 44 d5 bc 35 bb de 3d
       0.12467442 0.06978719 -0.02603353 0.10875551
000040 a8 52 c3 bc 4b fc 0d 3e f7 67 9e be c8 44 c3 bb
       -0.023843125 0.13865773 -0.30938694 -0.005959127
000050 6c 1f 65 3e 0a 4c 93 3e 38 89 82 3e 46 57 71 3d
       0.22375268 0.2876895 0.25495315 0.05892112
000060 95 69 b0 3d 9a 04 3f be 76 9f 1a 3e 52 42 b2 3d
       0.08613888 -0.18654099 0.15099892 0.08704056
000070 cf b5 83 3e 1e 74 32 3e 10 7f 2a be 62 72 91 3e
       0.25724646 0.17427108 -0.16650033 0.2840758
000080 c0 e0 52 bd 8d 08 84 3e f7 57 81 be 87 99 d8 bd
       -0.05148387 0.25787774 -0.25262424 -0.10576158
000090 f9 e8 a4 be ff 96 e8 bd 3d 3a b3 3c e1 90 d5 bd
       -0.32208994 -0.11356925 0.021878356 -0.10428024
0000a0 bf 9f 82 be e5 87 1b 3e 8a c4 5c be f6 72 85 be
       -0.25512502 0.15188558 -0.21559349 -0.2606427
0000b0 c7 85 85 3e 7b 45 a7 3b b7 ce 81 3e a7 86 c3 3d
       0.26078627 0.0051047183 0.25353023 0.09547167
0000c0 69 1c 22 be e7 a2 70 3e 9a 87 81 be 50 11 15 be
       -0.1583115 0.23499642 -0.25298768 -0.14557385
0000d0 eb 1c 86 be 0d 42 8f 3c f7 11 93 3e 78 b8 b3 3e
       -0.26193938 0.01748755 0.28724644 0.35101676
0000e0 be cf 92 3e 6a 85 ff bd 47 8f 91 be b2 31 9f bc
       0.2867412 -0.124766186 -0.28429624 -0.019432876
0000f0 65 ff 66 3d c9 78 14 3e 0c 2d 9f 3e 93 6e f5 bd
       0.056395907 0.14499201 0.31089056 -0.11983981
000100 5e c5 aa 3e 3c a1 25 3e ad f1 9e be 6e ae fd bd
       0.33353704 0.16174787 -0.3104376 -0.123867854
000110 9f c0 5d 3e cd 2f e3 3d cf 73 da 3d 40 b2 97 be
       0.2165551 0.11093102 0.1066662 -0.2962818
000120 c3 e8 97 3e d5 12 45 be ca 3c dc bb f0 b8 3e be
       0.2966977 -0.19245465 -0.006721114 -0.18625236
000130 7f 99 6f be 70 58 9f be e6 0e 36 be 9d bb 1f 3e
       -0.23398398 -0.3112216 -0.17779121 0.15598913
000140 b7 d3 8b be 75 5b 82 be 73 97 87 3e 42 f4 ca 3c
       -0.27309963 -0.254604 0.26482734 0.024774674
000150 51 80 3d 3e d0 ef 84 3e 91 6f 26 3c 37 6c 6e 3e
       0.1850598 0.25964212 0.010158435 0.23283468
000160 0b e6 4a be b4 41 df bd 92 75 8c 3d d6 3d 7e 3e
       -0.19814317 -0.10901204 0.06858362 0.24828276
000170 a4 15 40 be b8 af 6f 3d 24 eb 8b 3e eb 00 89 3d
       -0.18758255 0.058517188 0.27327836 0.06689628

bias f4 [48]
000000 f2 d0 94 be 8a b5 a8 bc db e9 4e bd 0b 74 ce 3c
       -0.29065663 -0.020594377 -0.05051599 0.025201818
000010 00 f9 0f bf 24 70 e1 3e 6c 51 ff be f9 db 33 3f
       -0.5623932 0.4403087 -0.49866807 0.70257527
000020 cf 68 3b 3d 7b 53 c5 3e e8 92 22 be ac 39 b4 3e
       0.04575425 0.38540253 -0.15876353 0.3520025
000030 ab 74 36 bf 7e 26 0e be e8 0d 4b 3e 42 99 37 bf
       -0.7127177 -0.13881871 0.19829524 -0.7171823
000040 0b c6 a1 3e 87 3f 2e 3f 98 a7 01 bf 47 f2 ad 3e
       0.31596407 0.68065685 -0.5064635 0.33973905
000050 41 52 e1 be 58 ef ee be 9b b5 22 3f d3 4b b6 3e
       -0.44008067 -0.4666698 0.6355836 0.35604724
000060 ee 51 b1 bd 01 1a f5 3e e8 7c ed bc d2 c3 1b bf
       -0.08658205 0.47871402 -0.028990224 -0.60845673
000070 6a ce be 3e 48 29 88 3e 6b c1 af be ef 21 0b 3f
       0.37266856 0.26593995 -0.34327254 0.54348654
000080 23 bd e4 3b 09 28 d0 be 7c 7e 4c be 90 b1 c8 3d
       0.0069805547 -0.40655544 -0.19970125 0.09799492
000090 6b e4 0f be 30 92 c2 3c 03 b8 a0 3e c5 dd 8b 3c
       -0.14051978 0.023751348 0.3139039 0.017073521
0000a0 49 4a 06 bf a5 cd e1 bd 9b 19 23 bf 39 8a 2d 3f
       -0.524571 -0.11025552 -0.63710946 0.67789036
0000b0 c8 d1 66 3e 1d 41 d5 be 3d bb 30 3f d6 a0 a9 3b
       0.22540963 -0.4165124 0.690357 0.005176644

weight f4 [48]
000000 3a bd 7f 3f 08 4e 81 3f 60 0d 80 3f 52 54 81 3f
       0.9989811 1.0101938 1.0004082 1.0103858
000010 3e df 80 3f 6b 56 7f 3f 83 63 7e 3f a5 62 81 3f
       1.0068128 0.9974124 0.9937059 1.0108229
000020 7d 0d 7e 3f 27 d1 7d 3f ce 1b 7e 3f 3e 8c 7d 3f
       0.9923933 0.99147266 0.99261177 0.9904212
000030 ad e1 80 3f 84 75 80 3f 50 95 7e 3f 83 87 81 3f
       1.0068871 1.0035863 0.9944658 1.011948
000040 e1 5d 7d 3f f6 af 7d 3f cc 45 80 3f 1f 59 81 3f
       0.9897137 0.9909662 1.00213 1.0105323
000050 07 3b 7f 3f c3 46 7e 3f c5 da 7d 3f 24 ff 7d 3f
       0.99699444 0.99326724 0.9916194 0.9921744
000060 28 0c 81 3f ca 56 7d 3f 23 84 80 3f 58 74 80 3f
       1.0081835 0.98960555 1.0040325 1.0035505
000070 6f 67 80 3f 27 bc 7d 3f 8a 0f 7e 3f ac ea 7d 3f
       1.0031565 0.9911522 0.9924246 0.99186206
000080 d7 39 81 3f e5 ca 80 3f 82 f8 7d 3f e2 64 80 3f
       1.0095776 1.0061918 0.9920732 1.0030787
000090 d6 62 7d 3f a6 a7 80 3f f5 26 80 3f cf e8 7d 3f
       0.98978937 1.0051162 1.0011889 0.9918336
0000a0 0c 17 7e 3f aa bd 7f 3f cc 31 7d 3f 9d 97 7d 3f
       0.99253917 0.9989878 0.9890411 0.9905947
0000b0 d8 cd 7d 3f cd 48 81 3f 3e 8a 7e 3f 5c 8f 80 3f
       0.9914222 1.0100342 0.9942969 1.004375

bias f4 [48]
000000 a9 9c 90 bb 7e 23 43 3c 7e 52 16 bc af 3e 28 3c
       -0.0044132066 0.0119103175 -0.009174941 0.010268851
000010 e7 3f 0a 3c d2 62 86 bb d4 c0 44 3c 4f 73 32 3c
       0.008438087 -0.004101136 0.012008864 0.0108917495
000020 f5 4d 31 3c 07 1f 0a bc e8 c4 b9 3b e6 80 05 bc
       0.010821809 -0.008430249 0.005669225 -0.008148408
000030 ee 71 32 bc a2 b7 3b bc d2 ba 12 3c 42 c0 46 bc
       -0.010891421 -0.011457356 0.008955674 -0.012130799
000040 45 56 54 bb 61 1b ff 3b 65 7e a8 bb 1c b5 26 3c
       -0.0032400053 0.0077852462 -0.0051420205 0.010175016
000050 c8 41 a6 bb d7 fa a5 3b d7 a1 a0 bb 12 3b f8 bb
       -0.0050737597 0.005065303 -0.0049021053 -0.007575401
000060 dc 6e ee bb ab 8d 32 bc 0f 95 10 bc b3 2a 1a bc
       -0.007276399 -0.010898034 -0.008824601 -0.009409594
000070 ff 59 81 3b 0b 00 2b bc eb 0f 35 3c d1 96 74 bb
       0.003947496 -0.010437022 0.011051158 -0.003732134
000080 05 33 1e bc 67 3d fa bb 0d 10 00 3c e8 4c 23 bc
       -0.009655719 -0.0076367143 0.007816327 -0.009967066
000090 d4 ba 14 3c d2 cb f7 3b 72 a0 c1 3b eb 3b 15 3c
       0.009077746 0.007562139 0.005909019 0.009108524
0000a0 40 0c 16 bc a5 78 bb 39 c1 4e 1c 3c 48 13 00 3c
       -0.009158194 0.00035757307 0.009540261 0.007817097
0000b0 53 cc 52 3b d6 46 4b 3c f4 9f c3 bb 42 0a d3 bb
       0.0032165244 0.012407025 -0.0059699956 -0.006440432

pe f4 [1, 150, 48]
000000 00 00 00 00 00 00 80 3f 00 00 00 00 00 00 80 3f
       0.0 1.0 0.0 1.0
000010 00 00 00 00 00 00 80 3f 00 00 00 00 00 00 80 3f
       0.0 1.0 0.0 1.0
000020 00 00 00 00 00 00 80 3f 00 00 00 00 00 00 80 3f
       0.0 1.0 0.0 1.0
000030 00 00 00 00 00 00 80 3f 00 00 00 00 00 00 80 3f
       0.0 1.0 0.0 1.0
000040 00 00 00 00 00 00 80 3f 00 00 00 00 00 00 80 3f
       0.0 1.0 0.0 1.0
000050 00 00 00 00 00 00 80 3f 00 00 00 00 00 00 80 3f
       0.0 1.0 0.0 1.0
000060 00 00 00 00 00 00 80 3f 00 00 00 00 00 00 80 3f
       0.0 1.0 0.0 1.0
000070 00 00 00 00 00 00 80 3f 00 00 00 00 00 00 80 3f
       0.0 1.0 0.0 1.0
000080 00 00 00 00 00 00 80 3f 00 00 00 00 00 00 80 3f
       0.0 1.0 0.0 1.0
000090 00 00 00 00 00 00 80 3f 00 00 00 00 00 00 80 3f
       0.0 1.0 0.0 1.0
0000a0 00 00 00 00 00 00 80 3f 00 00 00 00 00 00 80 3f
       0.0 1.0 0.0 1.0
0000b0 00 00 00 00 00 00 80 3f 00 00 00 00 00 00 80 3f
       0.0 1.0 0.0 1.0
0000c0 a4 6a 57 3f 41 51 0a 3f 63 3a 21 3f b8 d9 46 3f
       0.84147096 0.54030234 0.62979716 0.7767596
0000d0 1d 35 e5 3e 30 ea 64 3f 3e 39 9f 3e 6b 4e 73 3f
       0.44767085 0.8941984 0.3109836 0.9504153
0000e0 52 e9 5a 3e eb 14 7a 3f 78 c3 15 3e 4d 3f 7d 3f
       0.21378067 0.9768817 0.14625347 0.98924714
0000f0 76 75 cc 3d 98 b8 7e 3f b4 6b 8b 3d f6 67 7f 3f
       0.099833414 0.9950042 0.06807652 0.99768007
000100 1e 0d 3e 3d 6a b9 7f 3f 5b 81 01 3d 3c df 7f 3f
       0.04639923 0.99892294 0.031617504 0.99950004
000110 47 7a b0 3c ca f0 7f 3f c1 79 70 3c f1 f8 7f 3f
       0.021542681 0.9997679 0.014677466 0.9998923
000120 57 d6 23 3c b9 fc 7f 3f 79 3e df 3b 7b fe 7f 3f
       0.009999833 0.99995 0.0068128672 0.9999768
000130 57 18 98 3b 4b ff 7f 3f 22 3e 4f 3b ac ff 7f 3f
       0.0046415734 0.9999892 0.0031622727 0.999995
000140 64 31 0d 3b d9 ff 7f 3f 27 63 c0 3a ee ff 7f 3f
       0.0021544332 0.9999977 0.0014677987 0.9999989
000150 6d 12 83 3a f8 ff 7f 3f bf 98 32 3a fc ff 7f 3f
       0.0009999998 0.9999995 0.0006812922 0.99999976
000160 5c 5a f3 39 fe ff 7f 3f 61 cb a5 39 ff ff 7f 3f
       0.00046415895 0.9999999 0.00031622782 0.99999994
000170 ab e8 61 39 00 00 80 3f ef e8 19 39 00 00 80 3f
       0.00021544348 1.0 0.00014677992 1.0
000180 b7 c7 68 3f 33 11 d5 be 8e 78 7a 3f 10 ac 53 3e
       0.9092974 -0.41614684 0.978402 0.20671105
000190 fb f4 4c 3f f8 63 19 3f 1b 54 17 3f ec 7b 4e 3f
       0.8006131 0.59918165 0.5911271 0.8065784
0001a0 be d9 d5 3e b9 99 68 3f 35 27 94 3e 5c 0c 75 3f
       0.41767687 0.9085956 0.28936163 0.95721984
0001b0 f8 6f 4b 3e a5 e5 7a 3f e7 18 0b 3e 8f a0 7d 3f
       0.19866931 0.9800666 0.13583718 0.9907312
0001c0 b7 d8 bd 3d d1 e5 7e 3f c8 70 81 3d f9 7c 7f 3f
       0.09269851 0.9956942 0.063203394 0.9980007
0001d0 cb 6f 30 3d 2c c3 7f 3f 1f 73 f0 3c c3 e3 7f 3f
       0.043075364 0.99907184 0.029351769 0.9995691
0001e0 3e d4 a3 3c e5 f2 7f 3f 25 3d 5f 3c eb f9 7f 3f
       0.019998666 0.9998 0.013625418 0.9999072
0001f0 ec 17 18 3c 2d fd 7f 3f de 3d cf 3b b1 fe 7f 3f
       0.009283047 0.9999569 0.006324514 0.99998003
000200 4e 31 8d 3b 64 ff 7f 3f 1a 63 40 3b b8 ff 7f 3f
       0.004308856 0.9999907 0.0029355944 0.9999957
000210 68 12 03 3b df ff 7f 3f bc 98 b2 3a f1 ff 7f 3f
       0.0019999985 0.99999803 0.0013625841 0.9999991
000220 5b 5a 73 3a f9 ff 7f 3f 60 cb 25 3a fd ff 7f 3f
       0.00092831784 0.9999996 0.0006324556 0.9999998
000230 ab e8 e1 39 ff ff 7f 3f ef e8 99 39 ff ff 7f 3f
       0.00043088695 0.99999994 0.00029355983 0.99999994
000240 c3 81 10 3e 26 70 7d bf 22 e2 63 3f 57 48 e9 be
       0.14112 -0.9899925 0.89016926 -0.45563003
000250 ce f0 7b 3f 16 a2 35 3e c2 09 50 3f 58 2f 15 3f
       0.98414314 0.17737612 0.8126489 0.58275366
000260 c8 2d 1a 3f 56 5d 4c 3f 08 3d da 3e 51 94 67 3f
       0.60226107 0.7982992 0.42624688 0.9046069
000270 6c 4e 97 3e ef 90 74 3f bc d6 4f 3e e6 ab 7a 3f
       0.2955202 0.9553365 0.20296758 0.97918546
000280 17 21 0e 3e a8 85 7d 3f c0 ff c1 3d 4f d9 7e 3f
       0.1387981 0.9903207 0.094726086 0.99550337
000290 bd 46 84 3d 29 77 7f 3f 0d 4e 34 3d 79 c0 7f 3f
       0.06458805 0.997912 0.044019748 0.99903065
0002a0 1f b9 f5 3c 83 e2 7f 3f 34 6c a7 3c 50 f2 7f 3f
       0.0299955 0.99955004 0.020437337 0.99979115
0002b0 d5 22 64 3c a6 f9 7f 3f 12 6e 1b 3c 0d fd 7f 3f
       0.01392432 0.9999031 0.009486692 0.999955
0002c0 bf c9 d3 3b a2 fe 7f 3f 42 4a 90 3b 5d ff 7f 3f
       0.006463259 0.99997914 0.0044033835 0.9999903
0002d0 92 9b 44 3b b5 ff 7f 3f 8a f2 05 3b dd ff 7f 3f
       0.0029999954 0.9999955 0.0020438754 0.9999979
0002e0 c2 83 b6 3a f0 ff 7f 3f 10 b1 78 3a f9 ff 7f 3f
       0.0013924765 0.99999905 0.00094868336 0.9999996
0002f0 7f 6e 29 3a fd ff 7f 3f 66 dd e6 39 fe ff 7f 3f
       0.00064633036 0.9999998 0.00044033973 0.9999999
000300 cf bd 41 bf 30 55 27 bf b6 19 cf 3e 5d 1f 6a bf
       -0.7568025 -0.6536436 0.40449303 -0.91454107
000310 e7 9c 75 3f 6c 5d 90 be de 1d 74 3f b1 2e 9a 3e
       0.9594254 -0.28196275 0.95358074 0.30113748
000320 be 4d 42 3f f9 ad 26 3f ad d0 0d 3f 52 21 55 3f
       0.75899875 0.6510921 0.5539654 0.8325397
000330 d7 61 c7 3e a7 ca 6b 3f d9 ce 89 3e 7e 8d 76 3f
       0.38941833 0.921061 0.26915625 0.9630965
000340 73 07 3d 3e b2 99 7b 3f 88 2e 01 3e 69 f4 7d 3f
       0.18459873 0.98281395 0.12615407 0.99201065
000350 df 45 b0 3d cc 0c 7f 3f 9a 58 70 3d 14 8f 7f 3f
       0.08607077 0.996289 0.058678247 0.99827695
000360 db cb 23 3d 94 cb 7f 3f d7 37 df 3c ab e7 7f 3f
       0.039989334 0.9992001 0.027248306 0.9996287
000370 3e 16 98 3c b4 f4 7f 3f cf 3c 4f 3c c2 fa 7f 3f
       0.018565293 0.9998276 0.012648775 0.99992
000380 f8 30 0d 3c 91 fd 7f 3f e4 62 c0 3b df fe 7f 3f
       0.008617632 0.99996287 0.0058711637 0.9999828
000390 57 12 83 3b 7a ff 7f 3f b2 98 32 3b c2 ff 7f 3f
       0.003999989 0.999992 0.0027251658 0.9999963
0003a0 54 5a f3 3a e3 ff 7f 3f 5e cb a5 3a f3 ff 7f 3f
       0.0018566349 0.9999983 0.0012649109 0.9999992
0003b0 a9 e8 61 3a fa ff 7f 3f ee e8 19 3a fd ff 7f 3f
       0.0008617738 0.99999964 0.0005871196 0.9999998
0003c0 10 7c 75 bf 2c 3c 91 3e 3a 08 86 be 93 12 77 bf
       -0.9589243 0.2836622 -0.2617815 -0.96512717
0003d0 0a 50 3b 3f cb 7f 2e bf 7f fc 7f 3f e9 72 29 bc
       0.73169005 -0.68163747 0.99994653 -0.010342338
0003e0 cf 71 61 3f 63 93 f2 3e 15 76 2b 3f f2 18 3e 3f
       0.88064283 0.47378072 0.66977054 0.74256814
0003f0 43 77 f5 3e 40 a9 60 3f a5 0e ab 3e 3d 4a 71 3f
       0.47942552 0.87758255 0.3340961 0.94253904

in_proj_weight f4 [144, 48]
000000 f6 da fc 3c b5 b5 78 3d 2f 96 f1 3d 71 1a a6 bd
       0.030866127 0.060720164 0.11796223 -0.08110512
000010 56 d1 db bc 39 d7 b6 3d 1b 81 bf 3d 07 a2 b7 3d
       -0.026833218 0.08927769 0.09350797 0.08966451
000020 d7 5e 2e 3d 62 5b 07 3e 47 62 8f 3d 02 ab 51 bc
       0.042570915 0.13218454 0.07001167 -0.012797119
000030 ab 51 6f bd 7b 28 df bd 28 a1 57 bc 40 40 e8 3d
       -0.058427494 -0.10896393 -0.013160981 0.1134038
000040 06 66 ad 3d 9f 5a fa 3d 95 aa 6c bd 0e d1 fe 3d
       0.08466725 0.12224316 -0.057779867 0.12442218
000050 6e f3 71 3d 40 75 56 bb 6f 83 33 3e 9d 9a 05 be
       0.059070043 -0.0032723695 0.17530607 -0.13047262
000060 e1 31 ff 3d c2 ee 91 bc b6 1d 02 3d fa c9 f2 bd
       0.124606855 -0.017814044 0.031766616 -0.1185493
000070 80 2e 43 3d 44 17 2e be 1a 16 32 3e 31 5f 18 3e
       0.047651768 -0.17001063 0.17391244 0.14880063
000080 0a b3 0f 3e 3d e1 51 bd e8 9b c3 bd 40 09 02 3d
       0.14033142 -0.051240195 -0.09551221 0.031747103
000090 bb bf e8 bd 91 59 1e 3e 51 e9 29 be ef 50 60 3d
       -0.11364695 0.15463854 -0.1659291 0.054764684
0000a0 7f 0d 68 3d 65 e4 10 3e 0b f6 e3 bd 33 40 b7 bd
       0.056653496 0.14149626 -0.11130913 -0.08947792
0000b0 86 f8 e0 3d 76 47 07 be 78 a3 11 3e b3 29 20 be
       0.10984902 -0.13210854 0.14222515 -0.15640907
0000c0 e4 95 81 b9 42 ca 04 3e 8b a7 cf bd c5 3c a0 bd
       -0.00024716475 0.1296778 -0.10139378 -0.07824091
0000d0 f7 0a 03 bd 04 76 0d 3e 81 12 6b 3d 87 07 e2 3d
       -0.03199288 0.1381455 0.057390694 0.11036592
0000e0 7a 63 d3 3d a8 6d d8 bb 37 0e 0d 3e 03 cc 13 be
       0.10321708 -0.006604869 0.13774954 -0.14433293
0000f0 b2 92 26 be 0e 1f 49 bd 76 6e 4a 3d a0 bf b2 bc
       -0.16266897 -0.04910188 0.04942175 -0.02181989
000100 ac eb 1e be 38 d8 f0 bc 5e 87 16 be 5f 49 91 3d
       -0.15519589 -0.029399976 -0.14700076 0.070940726
000110 7d b5 1f be 9e 45 80 3c ca 3c 18 3e 8a 41 e4 bd
       -0.15596576 0.015658196 0.14866939 -0.11145313
000120 a6 0a 36 3e 69 1a a8 bd ea 06 14 3d ed 1b 29 bb
       0.177775 -0.08208162 0.036139406 -0.0025803999
000130 cb c4 04 be 7f 30 2a 3e a4 be 74 3c fe 2d 9d bd
       -0.12965696 0.16620062 0.01493803 -0.07674788
000140 4a 7f 8d 3d 17 ba c8 3d b8 5c 78 bd ec 84 ec 3d
       0.06909044 0.09801119 -0.0606353 0.1154879
000150 2c c8 23 3d 47 f6 22 3c 97 5d dd bc 4e 84 67 bc
       0.03998582 0.009946412 -0.027022166 -0.014130665
000160 65 8b c8 bc 5a 12 7a bd 29 05 9b bd 7e 13 ac 3c
       -0.024480531 -0.061052658 -0.075693436 0.021005388
000170 3b bd 2e 3c e6 22 a6 bd b7 28 c5 bd 2e 67 dd 3c
       0.010665233 -0.08112125 -0.09626906 0.027026739
000180 1f 32 b0 bd a4 f7 2a 3e 52 7d 02 3e 18 bf 16 3e
       -0.0860331 0.1669603 0.12743118 0.14721334
000190 7f 7b 1e be 83 d7 b8 3d 86 af 00 3c 3c 33 f6 bc
       -0.15476798 0.090254806 0.007854348 -0.030053727
0001a0 7f 0d f8 bc d6 fb 2c bc d3 88 00 be bc ba 03 be
       -0.030279873 -0.010558089 -0.12552194 -0.12864202
0001b0 f9 28 d8 3d 6d ed 96 3d af 74 16 3e 79 d0 9c 3d
       0.1055469 0.07369504 0.14692949 0.076569505
0001c0 74 bd 05 3e 4e 51 44 bc 3c d1 13 3d f8 0d c4 bd
       0.13060552 -0.011982275 0.036088213 -0.09572977
0001d0 f5 df 0f 3e 3c cd 74 bd d1 53 61 bd a7 94 8c bd
       0.14050277 -0.05976604 -0.055011574 -0.06864291
0001e0 31 f3 2e be ba 38 5a bd a7 d7 a4 ba f2 8a c4 bd
       -0.17084958 -0.053276755 -0.0012576476 -0.09596814
0001f0 61 78 2a be 52 cb 72 bd 78 7e 36 3c 27 ce 54 bc
       -0.16647483 -0.059275933 0.011138551 -0.012988604
000200 7b 1f 0d be 40 6a 81 bd c4 d9 28 bd c0 19 24 bd
       -0.1378154 -0.06319094 -0.041223302 -0.04006362
000210 b4 47 18 3e 71 cd d2 3d c1 a9 b3 3b b1 80 2f be
       0.14871103 0.10293091 0.0054828827 -0.17138936
000220 09 69 63 3d d2 d8 24 bc db c5 9f bd 23 25 06 3d
       0.05552009 -0.01006146 -0.0780141 0.03275026
000230 3d 32 f3 3d 4d 1a ca bd 5d c3 91 bd 80 57 c1 bd
       0.118748166 -0.09868298 -0.07117341 -0.094405174
000240 41 62 68 bc 7c 4c 2f 3e 79 19 e1 3d 8b ea 2c be
       -0.014183582 0.1711902 0.10991187 -0.16886346
000250 e4 38 ed 3b 7d 3e 52 3d 6a f5 13 3e 15 4e b5 3d
       0.007239448 0.051329125 0.14449087 0.088527836
000260 f6 0e 4b 3d b0 1e b5 bc 56 2b 03 3e 0c 4b bd bd
       0.049574815 -0.02210936 0.128095 -0.0924283
000270 fc 45 aa 3d 9f 1d e4 3b 9d 8b ed bd 75 5d 22 be
       0.0831413 0.006961539 -0.11598895 -0.15855964
000280 5d 51 2b 3b 7a 49 08 be 17 16 0a be 36 2c 33 be
       0.0026141026 -0.13309279 -0.13484989 -0.17497334
000290 1f 29 59 3c 69 82 6d bd bb 92 64 bd fa 00 28 bc
       0.013254433 -0.057985697 -0.055803996 -0.010254139
0002a0 20 df 03 be 40 e9 00 bc 49 68 84 3c d3 e2 cf 3d
       -0.12878084 -0.007868111 0.016163008 0.10150685
0002b0 66 a6 56 3d 64 a8 2d 3e 1d 70 aa 3d dd 95 2d 3e
       0.052404784 0.16958767 0.08322165 0.169517
0002c0 01 87 25 be 01 83 2c be d2 a7 9b 3a d4 63 16 3e
       -0.16164781 -0.16846849 0.0011875576 0.14686519
0002d0 b1 2e e0 bd 6c 56 f6 bd 6a d5 1c 3e 7d 0f 0c be
       -0.10946406 -0.120282024 0.15315786 -0.13677783
0002e0 50 49 b4 3c 22 2a 04 bd 55 83 1b 3e ee 3e 78 3d
       0.022007614 -0.032266743 0.15186818 0.06060689
0002f0 4c eb 64 bd 0e 5b ff 3d 61 70 50 bd 22 c3 69 bc
       -0.05588846 0.12468539 -0.050888423 -0.014267715
000300 00 33 3a 3c 94 48 90 3d af 73 18 be 97 81 21 3e
       0.011364698 0.07045093 -0.1488788 0.15772091
000310 1f b6 2e bd c2 82 c0 bd 06 8a f2 bc 10 ef 5c 3d
       -0.042654153 -0.0939994 -0.02960683 0.053938925
000320 9b eb 27 be 00 46 07 3c 3f ec c8 3d 66 37 ed 3d
       -0.1639847 0.008256435 0.09810685 0.11582832
000330 cd f9 ce bc ee e0 cb bc 96 61 1d bd 85 39 07 3e
       -0.025265599 -0.024887528 -0.038423143 0.13205536
000340 8d 35 dc 3d 8a 79 d7 bd 05 00 19 3d e3 1e c8 3c
       0.107524015 -0.105212286 0.037353534 0.02442879
000350 b0 2b 1b 3e 61 48 37 3b 2e f4 7d 3b f6 dc 75 bb
       0.15153384 0.0027966725 0.0038750279 -0.0037515736
000360 d4 f2 13 3e 77 41 e0 bd 99 f9 cf bd 2c 25 00 3d
       0.144481 -0.109499864 -0.10155029 0.03128545
000370 56 fb 8d bd 2a 4b 19 be 09 2e 32 3d 65 df bf bd
       -0.06932704 -0.14970079 0.043500934 -0.09368781
000380 00 46 5c 3c e2 7c e2 3b 63 c4 ed bc b8 6f a0 3d
       0.013444424 0.00691186 -0.029024309 0.07833809
000390 3f b3 bb 3b 94 57 c0 bd 31 3a 11 3e 30 64 16 be
       0.005728155 -0.09391704 0.14182355 -0.14686656
0003a0 50 ba 18 3d c7 0b e4 3d 3f 69 3c bd 4f df d4 3d
       0.037287056 0.11135059 -0.045998808 0.10394155
0003b0 0d cc 2b 3d 2f b4 8a ba 0b 32 72 3c 25 42 2f 3d
       0.041942645 -0.0010582263 0.014782439 0.04278769
0003c0 50 19 a6 bb a7 89 fd bd 8c c1 ff bd b7 95 14 3d
       -0.0050689355 -0.12379771 -0.12488088 0.03627559
0003d0 1b 5f 19 3e b6 42 83 3d a5 63 24 3e 57 49 c8 bd
       0.14977686 0.064092085 0.16053636 -0.097796135
0003e0 c5 0c b8 bd 05 38 a8 3d f2 d3 f2 bc c9 c3 da bd
       -0.089868106 0.0821381 -0.029642079 -0.10681874
0003f0 46 86 a9 3d de 9a 62 bd ea 17 eb 3b c7 ae ba 3d
       0.08277564 -0.055323474 0.0071744816 0.091153674

in_proj_bias f4 [144]
000000 ce 77 8b bb f7 5b da bb e2 80 07 3c 55 79 00 3b
       -0.004256225 -0.006663795 0.008270474 0.001960357
000010 cf a0 23 3c 72 f4 9e 39 4f 30 84 3b 6c 08 00 3c
       0.00998707 0.00030318234 0.004034079 0.007814508
000020 ee 74 b5 3b fb ec 87 3b fe f7 ef bb 16 60 1a bc
       0.0055376207 0.0041481233 -0.007323264 -0.009422323
000030 61 da 84 3b 80 fd 13 ba 88 0c 3d 38 47 97 c0 bb
       0.004054353 -0.00056453794 4.5072782e-05 -0.0058774087
000040 32 dd 3d 3b a4 09 5b 3a 72 fe a5 bb 39 ac 9a bb
       0.0028970954 0.00083556236 -0.0050657326 -0.0047202376
000050 29 89 9c bb 7d 23 b3 3b fe 00 7b bb bb 97 42 3b
       -0.004777093 0.005466877 -0.0038300152 0.002969249
000060 a1 54 4c bb 73 d0 e2 bb 25 7a a0 3a 7b 8d af ba
       -0.0031178372 -0.0069218217 0.0012243433 -0.0013393605
000070 8b 0c 94 bb b5 8c ae 3b 5e 28 ed bb 0e a7 c9 ba
       -0.004518097 0.005326832 -0.007237478 -0.0015384869
000080 7f 7e f3 b9 c2 3d 0d bc 41 17 ce ba 16 73 16 bc
       -0.0004644282 -0.008620681 -0.0015723483 -0.009182712
000090 04 0b d5 3a 57 3e cd 39 f6 b6 03 3a 7c 57 0b 3c
       0.0016253893 0.00039147094 0.0005024517 0.008504745
0000a0 61 be 28 bb ca fd 8d 3b 33 62 c0 3b 1f 08 a4 3b
       -0.002574824 0.0043332325 0.0058710813 0.005005851
0000b0 52 7e 0c 3c 13 2e b3 3b f9 6c 08 3c ee 04 0c 3c
       0.008575039 0.005468139 0.008326762 0.008546097
0000c0 6b 63 6f 3a 16 d9 4a 3a 57 5e 31 ba 94 7e cb 3a
       0.0009131941 0.0007738037 -0.0006766072 0.0015525394
0000d0 e7 ea 98 ba 2d e8 9c 3a 18 93 3f b9 95 a2 7c b9
       -0.0011666686 0.0011971049 -0.00018269976 -0.0002409316
0000e0 ae f0 21 ba a8 61 d0 36 fc c0 7a b9 a1 b7 9a 38
       -0.00061775267 6.2102517e-06 -0.0002391375 7.377496e-05
0000f0 e0 26 4e b8 4c 9f a0 b9 85 91 7b 3a 9f eb fb b9
       -4.9150432e-05 -0.00030636264 0.0009596574 -0.00048050002
000100 43 d8 40 39 1c 55 cb b9 ae 59 9b 39 49 52 b6 ba
       0.0001839111 -0.0003878259 0.0002963072 -0.0013910021
000110 21 71 b8 ba c5 20 9b 3a 5d ae 1e 3a 10 ad 8a ba
       -0.0014071801 0.0011835328 0.0006053204 -0.0010580141
000120 4b de b9 b7 a4 87 7b ba bd 85 6a b7 9a 2a 02 39
       -2.2157232e-05 -0.0009595102 -1.3978625e-05 0.00012413636
000130 41 09 c9 b9 94 11 7a b9 61 5b a5 ba e7 09 c5 3a
       -0.00038344602 -0.00023848406 -0.0012615734 0.0015032858
000140 c8 f1 17 3b 2c 0b d3 3a e0 42 b8 ba f6 e4 29 3b
       0.0023184884 0.0016101352 -0.0014058016 0.0025923825
000150 8b 1c 3c bb 7a b4 27 bb a7 b5 2d 3b 81 a0 0c bb
       -0.0028703536 -0.002558975 0.0026505978 -0.0021457972
000160 cd 66 2c 3b 5b f4 bc ba 54 5b 10 3b 7a 33 fd 3a
       0.0026306391 -0.0014416085 0.0022027092 0.0019317709
000170 4d ac a4 ba f8 a8 bc 3a b7 c0 ce ba 5f 8e ed ba
       -0.0012563557 0.0014393618 -0.0015773986 -0.0018124095
000180 02 1e d0 3a 59 d3 1f ba 4c 22 30 3c 8b be c8 bb
       0.0015878084 -0.0006096862 0.0107503645 -0.00612623
000190 79 2c 41 3c 22 57 4f 3c fc 90 01 3c e6 57 1a bc
       0.011790388 0.012655051 0.007908102 -0.009420371
0001a0 ec 2c 2a 3c ec 78 c3 bb ac 22 15 3c 9a 29 ea 39
       0.010386687 -0.0059653427 0.009102505 0.00044662954
0001b0 7b ee 35 3c 74 67 21 38 24 78 81 3a eb 35 02 3c
       0.011104221 3.848174e-05 0.0009877724 0.007947425
0001c0 17 d7 e2 3b 12 5e 0c bc 92 82 fc bb 92 00 21 bc
       0.0069226134 -0.00856735 -0.007705995 -0.009826796
0001d0 a3 3a 17 bc 7e 1b 26 bc 49 4b 4c 3b e1 85 06 bc
       -0.009230289 -0.010138391 0.0031172803 -0.00821063
0001e0 76 bd f2 3b 57 2c 32 3c 0b de 0c 3c 2d 28 47 bc
       0.0074078394 0.010874829 0.008597861 -0.012155575
0001f0 34 70 41 3b 20 fa 62 bb 80 e5 4d bb 72 fa 1c 3c
       0.0029516341 -0.003463395 -0.003141731 0.009581195
000200 f8 ee 39 3b 90 9d e8 39 27 20 2f 3c 70 a3 27 bc
       0.0028371196 0.00044367881 0.010688818 -0.010231838
000210 1f d3 33 bc 1a d7 24 bc ce 93 fc bb 7a b5 36 bc
       -0.010975628 -0.01006105 -0.0077080494 -0.011151666
000220 a9 f2 17 bc b0 6e c9 3b 83 5f c5 3a cb 7b 71 3b
       -0.009274163 0.006147228 0.0015058372 0.0036847468
000230 1b b5 17 3c 0b 13 1c ba f2 99 36 bc fe c4 97 bb
       0.0092594875 -0.00059537654 -0.011145102 -0.0046316376

weight f4 [48, 48]
000000 b3 42 13 3e 9b 67 8a bd fc fa 19 be 48 37 47 3b
       0.14380912 -0.067580424 -0.15037149 0.003039794
000010 a5 eb f5 bd a0 c1 43 3e b6 66 ff bd 6e d7 3b be
       -0.12007836 0.19116831 -0.124707624 -0.18343899
000020 d7 92 27 bd 6f 84 4c 3e 64 f1 0d be 41 dc 7e be
       -0.04091152 0.19972394 -0.13861614 -0.24888708
000030 70 aa 2d 3b 41 40 c5 3c 38 f3 ce 3d c6 99 16 3e
       0.0026499294 0.02407849 0.10104984 0.14707097
000040 69 36 e5 3d 78 95 6d 3e c7 8c 19 3c 54 4b 90 3d
       0.111920185 0.23201549 0.009371943 0.07045618
000050 5c e3 ac bc 04 87 db 3c c9 2d f0 bd c1 a9 73 3e
       -0.021104507 0.026797779 -0.11727483 0.23795225
000060 57 31 5b bd 8d a1 82 bd b3 d3 05 3e cf 49 3f 3e
       -0.05351385 -0.063784696 0.13069038 0.186805
000070 4b 77 19 be d0 bd ae bd 30 e3 66 3e 4f 1d 94 bd
       -0.14986913 -0.085322976 0.22547603 -0.07232153
000080 90 41 8f 3d b7 73 5c 3e 85 c8 26 be 3c 2e 88 3d
       0.06994927 0.21528517 -0.1628743 0.066494435
000090 d4 10 22 be b8 1a 25 be d0 a7 0e bd 0e f5 44 3e
       -0.15826732 -0.16123474 -0.034828007 0.19234106
0000a0 7d 87 66 3e 12 1f 20 bd 00 e1 a3 3b 9b e7 0c be
       0.22512622 -0.03909213 0.0050011873 -0.13760225
0000b0 4e 23 0e be 5c c7 ac 3d 99 f0 c6 bd 10 94 05 be
       -0.13880655 0.08436462 -0.09713859 -0.13044763
0000c0 a9 58 42 be e3 03 72 be b8 ee 4c be 7f 9a f1 ba
       -0.18979134 -0.23634295 -0.20012939 -0.0018432884
0000d0 42 7e 40 3e 0b bf e8 3c d5 d2 ce bd 69 8c 57 3e
       0.18798164 0.028411409 -0.10098807 0.21049656
0000e0 0d 63 6e be af 21 9a bd 10 72 25 3e 10 28 33 3e
       -0.23279972 -0.07525956 0.16156793 0.17495751
0000f0 76 aa 27 3e d3 68 2f bd e8 ae 79 3e ef cf 29 bd
       0.1637362 -0.042824578 0.24383128 -0.041458067
000100 45 c6 38 3e ba 33 6f bd dd ec 23 be b2 04 5d be
       0.18044384 -0.05839894 -0.16008325 -0.21583822
000110 96 88 28 bd f4 a4 84 bc a9 7e 3e be 1f 71 43 3e
       -0.041145884 -0.016191937 -0.18603005 0.19086121
000120 0a 78 f6 bd a7 19 69 3e 75 e2 02 be 6d e4 d8 bd
       -0.120346144 0.22763692 -0.12781699 -0.10590444
000130 34 17 15 be b3 48 6c be 46 57 6f 3e 5e 85 1d 3d
       -0.14559633 -0.23074608 0.23373136 0.038457267
000140 21 a0 67 3e 98 99 65 be 00 4a 98 bb 88 8c ff 3d
       0.22619678 -0.22421873 -0.0046474934 0.12477976
000150 27 1f 5f be 9b 4a 17 bd 96 49 88 3d 17 a2 d8 bb
       -0.21789227 -0.036936384 0.066546604 -0.0066111195
000160 2a 4e 8b 3d d4 ed 61 3e d4 93 e6 3d 08 9d 58 be
       0.06802018 0.2206338 0.11258665 -0.21153653
000170 96 6f cf 3d 04 0f b0 3d bf dd fa 3d 65 ec 9b 3d
       0.10128705 0.08596614 0.12249326 0.07613448
000180 17 3e e9 3d e6 6d 71 3e 88 66 6a be 2a 04 5f 3e
       0.11388796 0.23577079 -0.22890675 0.21778932
000190 a9 da 07 3e 31 21 3a 3e b8 26 92 3d 51 55 5f 3e
       0.13267006 0.18176724 0.07136291 0.2180989
0001a0 09 61 cf bd 65 7d 6e 3e 48 59 47 be f7 e6 20 3d
       -0.1012593 0.23290022 -0.19467652 0.039282765
0001b0 31 26 13 be 43 cc 0c be 89 6d b6 3c 8c 00 4b bd
       -0.14370038 -0.13749795 0.022269027 -0.04956107
0001c0 0a 63 60 3e e7 12 d7 bd d0 60 bf bc 19 99 1f be
       0.2191278 -0.10501652 -0.023361593 -0.15585746
0001d0 be af ee 3d 82 36 6b be e7 f4 43 be db fa a4 bc
       0.11654614 -0.22970012 -0.19136392 -0.020139148
0001e0 0c 20 fb 3c 30 ba 0d 3e d7 23 48 be b7 35 5c be
       0.03065493 0.13840556 -0.19544922 -0.21504866
0001f0 28 4a 48 3e 2f 3e 1c 3e ce 0f 4a 3e 00 82 f1 bd
       0.19559538 0.15258096 0.19732592 -0.11792374
000200 ad 6b 8c 3c 66 4a 9e bd f7 68 10 be 78 98 b8 bd
       0.017141188 -0.07729034 -0.14102541 -0.09013456
000210 5f 5d 5d be 8e 6e 82 bd 3c 87 00 3e c5 d7 73 be
       -0.2161765 -0.06368743 0.12551588 -0.23812778
000220 28 8b 5b 3e c5 8e d8 3d 90 69 6b be 66 40 01 3e
       0.21439803 0.10574106 -0.22989488 0.12622222
000230 89 b7 a4 3c 09 36 45 3e 05 bb 2a 3e 39 d5 3f be
       0.020107048 0.19258894 0.16672905 -0.18733682
000240 20 4e 66 3c d0 d9 ae 3d 69 38 fd bd 90 88 f2 bd
       0.014056712 0.08537638 -0.12364275 -0.118424535
000250 e6 91 55 3d 84 d7 21 3e 23 1b 3d be 51 50 68 3e
       0.052141093 0.15804869 -0.18467383 0.22686888
000260 47 07 d1 3d b7 5c 66 3e fe 50 de bb 4b a1 61 3d
       0.10206466 0.22496305 -0.0067845574 0.05508546
000270 a2 4a d2 3c ef 37 9d bb 5e 5b ac 3d de ec 46 be
       0.025670353 -0.0047979276 0.084158644 -0.19426295
000280 05 9c 69 3e c9 e3 3b 3e 65 b6 69 3e 3c 10 49 be
       0.22813423 0.18348612 0.22823484 -0.19635099
000290 bf 62 fa bd b0 c8 98 3d d1 89 26 be 4d 5b c7 ba
       -0.122258656 0.07460153 -0.1626351 -0.0015209705
0002a0 94 0b 4d 3e 5e 16 50 3e c5 0e 69 be 2e 06 f6 bd
       0.20023948 0.20321032 -0.2275954 -0.120128974
0002b0 e9 60 23 3e 91 11 ec bd 06 d6 24 be 08 1b a1 bd
       0.15954937 -0.11526788 -0.16097268 -0.07866484
0002c0 ed fc 9b bc 5b 8e 1f 3d 08 0d 79 3e 17 ef 2f be
       -0.019041503 0.03895412 0.24321377 -0.1718105
0002d0 f8 88 14 be 5e 79 42 be bd f3 9d 3d 74 c0 62 bd
       -0.14505374 -0.1899161 0.07712505 -0.05535932
0002e0 5b 72 a1 3d a7 9c 52 3d 4e 74 30 3e 5c 39 26 be
       0.0788314 0.051418927 0.17231867 -0.16232818
0002f0 8a 31 60 be 29 e6 76 be e5 da 02 3e b9 1f 2f 3e
       -0.21893898 -0.24111237 0.12778814 0.17101945
000300 33 9f ab 3b 31 1c 1a bd 36 d0 8d 3c c3 7b 98 3d
       0.005237484 -0.03762454 0.017311197 0.07445481
000310 39 f3 c0 3d b7 4d 4a be 57 f6 26 be 4e dd 60 bd
       0.09421391 -0.19756208 -0.16304909 -0.054898553
000320 c2 be ee bd 28 04 1c bd a7 bc 28 3e 7d e2 5e 3e
       -0.11657478 -0.0380899 0.16478215 0.21766086
000330 b5 1d 80 bd bf 29 9a bd dc 59 b1 3d c2 cb cd bd
       -0.06255666 -0.07527494 0.086597174 -0.10048629
000340 ce 68 31 3e 5b d8 1c be ed c3 65 3e 56 f9 32 3d
       0.17325136 -0.15316908 0.22438021 0.043694817
000350 76 ac 26 3e 9a 94 30 be bf f9 ee 3c 4a ad 61 3d
       0.16276726 -0.17244187 0.029171823 0.055096902
000360 d8 53 1d be 5b a2 8e 3d 47 e4 08 be f9 04 f3 3d
       -0.15364015 0.069645606 -0.13368331 0.11866183
000370 68 4e 57 bd ad f5 3e be a5 e0 58 3e 7f 5a 43 3e
       -0.05256501 -0.18648405 0.21179445 0.1907749
000380 67 45 86 bd d5 8c 66 3c 25 86 1b be c8 f6 9a bd
       -0.06556206 0.014071663 -0.15187891 -0.07566601
000390 fa 4d 34 be a9 dd ae bd 00 18 66 be 78 d9 04 be
       -0.1760787 -0.08538372 -0.22470093 -0.12973583
0003a0 97 e6 6d bb 57 3a ab 3c f9 a1 cd bc d6 ea 2f 3e
       -0.0036300772 0.020901842 -0.025101649 0.17179427
0003b0 73 02 aa bd 1c 53 09 3e 20 ac 27 be 1b ad 3c 3e
       -0.083012484 0.1341061 -0.16374254 0.1842541
0003c0 98 8d 01 be ab 70 0b bd 44 a3 8c 3d b3 d6 52 bd
       -0.1265167 -0.034042995 0.06867078 -0.051474284
0003d0 d1 71 3c be 28 c3 b6 3d 76 33 b0 bd 88 a1 43 be
       -0.18402793 0.08923942 -0.086035654 -0.19104588
0003e0 3a 75 88 3d 11 57 f7 bd b8 b9 aa 3d ca 59 1e bd
       0.06662984 -0.120771535 0.08336204 -0.03865985
0003f0 dd 55 e4 bd 7f 6a 4e 3e 94 34 5e be 3a 2f 58 bb
       -0.111491896 0.20157813 -0.21699744 -0.0032987134

bias f4 [48]
000000 e0 10 77 bb bb fd 01 3c 0c 0d ee bb e7 48 39 3c
       -0.0037699267 0.007934029 -0.007264739 0.011308885
000010 bb 79 39 3c c0 db 5b 3c 60 43 28 3c ec 74 25 3c
       0.011320527 0.013419092 0.01026997 0.010098677
000020 49 a9 28 3c 0b 5d 09 bc 57 c3 e2 bb e8 77 28 bc
       0.010294267 -0.008384 -0.006920259 -0.010282494
000030 d2 3c 47 bc ae fd 3c bc be 86 31 3c c8 da 4a bc
       -0.012160497 -0.011535091 0.010835348 -0.012381263
000040 e9 6b c4 3b f7 ca 0e 3c 8a b7 bf b9 f0 2c 2c 3c
       0.005994309 0.008715383 -0.00036567106 0.010508761
000050 84 5e e9 bb b5 d1 46 3c db 41 f5 bb 5f c5 18 bc
       -0.007121863 0.012134959 -0.007484657 -0.009324401
000060 fd 06 bf bb 89 c1 1c bc 48 92 47 bc 29 c3 1c bc
       -0.0058296905 -0.009567627 -0.012180872 -0.009568014
000070 0b 0a 0f 3c e2 a8 2f bc 1e e8 15 3c 7f 2b 98 bb
       0.008730422 -0.010721417 0.009149579 -0.004643857
000080 4f c9 2f bc 70 04 44 bc 2f be 21 ba 5e b1 e9 3b
       -0.010729148 -0.011963949 -0.0006170002 0.0071317395
000090 55 22 c0 3b 56 7e e4 3b 14 ba 32 3c b5 9f f3 3b
       0.0058634677 0.006973068 0.010908622 0.00743481
0000a0 d4 90 1b bc 24 be 4f bb 6b e0 d9 3b 66 c4 c2 bb
       -0.009494979 -0.0031699026 0.006649067 -0.0059438227
0000b0 2f 0b fe bb 82 69 5e 3c e3 ad c0 3b 82 3b 55 bc
       -0.007752798 0.01357496 0.005880104 -0.013014676

weight f4 [128, 48]
000000 db 41 32 be a0 aa 1c 3e 14 bc ff 3d d2 84 4e 3d
       -0.17407934 0.15299463 0.12487045 0.050419636
000010 13 bf ca bd c1 d0 e3 bc b3 61 9d bd 41 08 94 bd
       -0.09899726 -0.027809503 -0.0768465 -0.07228137
000020 ec 28 df 3d 44 4d 1f be c7 ea 93 3d 44 b7 6a bd
       0.10896477 -0.15556818 0.072225146 -0.057303682
000030 23 8c 32 3e e6 b8 19 3d 19 4a 1f 3e ff 27 ae bd
       0.1743627 0.03752985 0.1555561 -0.085037224
000040 d7 5c aa 3d 56 b3 c4 3d 35 e6 0a be 5f 61 28 3e
       0.08318489 0.09604518 -0.1356438 0.16443394
000050 4e 97 29 3d 2e e4 0c be 7e 59 20 3e 09 cc 24 bd
       0.04140406 -0.13758919 0.15659139 -0.040233646
000060 03 0b 85 3d 09 2d 1d be cc 5c 29 3e d0 05 07 be
       0.06496241 -0.15349211 0.16539305 -0.13185811
000070 9b 51 87 ba 0f 68 b5 3d bd 0e cb 3d d7 7c 86 bd
       -0.0010324003 0.08857738 0.099149205 -0.0656678
000080 80 c3 3a bc 7b be 21 be ed 2f 28 3e f4 4f da bd
       -0.01139915 -0.15795319 0.16424532 -0.10659781
000090 0e 4e 06 3d 4a a9 de 3d 83 ac 01 be d2 f0 c3 3c
       0.032789283 0.10872133 -0.12663464 0.023918543
0000a0 08 5d 30 3d 4d 2b 8e bd 28 d9 21 3e 6c 06 08 be
       0.04305747 -0.06941853 0.15805495 -0.132837
0000b0 fb 1d 97 3a 96 6a d4 bd d7 fc 4c bd de 35 37 3e
       0.0011529321 -0.10371892 -0.050045814 0.17891642
0000c0 7d 3f 04 be 74 b9 11 3d 76 8e 00 be 93 65 c4 3d
       -0.12914844 0.035577253 -0.12554345 0.09589686
0000d0 31 a0 04 3e 85 8b ef 3d ca 31 0d bc 0d 8f 17 3e
       0.12951733 0.11696533 -0.008617828 0.14800663
0000e0 86 cf 18 be 31 70 17 be e6 95 91 bd 34 6a 9a bc
       -0.14922914 -0.14788891 -0.07108669 -0.01884947
0000f0 9f f4 0e 3e a8 41 3a 3d 28 5e a9 bd 76 7f 13 bd
       0.13960503 0.04547277 -0.08269912 -0.036010228
000100 c5 68 2f be e8 11 27 be 04 85 6b 3b e1 55 03 3e
       -0.1712981 -0.16315424 0.0035937438 0.12825729
000110 11 95 19 be de 6c db bd 2e 96 07 bd d4 c8 07 3d
       -0.1499827 -0.10714124 -0.033102207 0.03315051
000120 fa 6d 1d 3e ed 48 83 3d 5f 1e 77 bd 94 3f 0d 3e
       0.15373984 0.06410394 -0.0603317 0.13793784
000130 13 0b bc bc fb 39 ef bd b2 d3 03 3e 6e c2 1f bd
       -0.0229545 -0.11680981 0.12873724 -0.039003782
000140 2c 06 89 3d 61 3e 8b bd 4f 29 04 3e f8 df ea 3d
       0.0669063 -0.06799007 0.12906383 0.114685
000150 f9 df 63 3d 98 05 3a 3e f9 b7 98 3d cc 12 de 3c
       0.05563352 0.18166196 0.07456965 0.027108572
000160 7e 87 2c be 4f 69 3e 3d f3 cf 6c 3d fe c2 da bd
       -0.16848561 0.04648715 0.057815503 -0.10681723
000170 c6 cd 60 bd aa 8a 23 bd 60 11 63 3d 49 bd a0 3d
       -0.05488374 -0.039927162 0.055436492 0.07848603
000180 0d 97 90 bd 6b 0e 2c be 91 93 3c 3b 18 82 bd 3d
       -0.07060061 -0.16802375 0.002877448 0.09253329
000190 74 d8 df bd 1d da 29 be 12 67 cd bc e1 64 f8 bd
       -0.10929957 -0.1658711 -0.025073562 -0.12128616
0001a0 d6 6d c3 3d 51 29 77 bd af 3e 2f bd 58 a5 0b be
       0.09542434 -0.060342137 -0.04278439 -0.13637292
0001b0 ce ee 31 be 3f b9 3f be 81 82 cb 3d 1e c3 2a be
       -0.17376253 -0.1872301 0.09937001 -0.16675994
0001c0 0c 0b 07 3e 9d b6 33 bd 55 2e f4 3d 1f 43 40 3d
       0.13187808 -0.043875325 0.119229 0.04693901
0001d0 6a 91 89 bd 58 6e 2c 3e 3d aa 43 be 8f 40 33 bd
       -0.06717189 0.16838968 -0.1910791 -0.04376274
0001e0 53 7f fd bd 80 d0 df 3d 1c 47 b3 3d d8 71 8f bd
       -0.12377801 0.1092844 0.087537974 -0.07004136
0001f0 82 09 dc 3d 59 85 12 bd e4 70 d3 3b 34 6d 31 3e
       0.10744001 -0.0357717 0.0064526666 0.17326814
000200 eb 75 f5 3d 5d a1 0e bd ae 37 c5 3c 0c b8 1a be
       0.11985382 -0.034821857 0.024074402 -0.15109271
000210 da 64 cd 3a 89 90 8d 3d 04 21 ff 3d ca c7 e6 bd
       0.0015670315 0.069123335 0.12457469 -0.112685755
000220 5e fe 21 3e b0 78 1e 3e bb 2b da bd 7a 8b 19 3e
       0.1581969 0.15475726 -0.10652872 0.14994612
000230 7c 58 a8 bc b2 e8 28 3e 0f 86 05 be 19 d0 2d 3e
       -0.020550005 0.16495016 -0.1303942 0.16973914
000240 6c 5e a1 3b 38 56 9e bd fb 54 88 3a 9b f7 20 3e
       0.004924586 -0.07731289 0.0010401303 0.15719454
000250 9b 66 2f 3d 39 e9 be bd d2 e3 26 be 38 f1 08 bc
       0.04282246 -0.093218274 -0.16297844 -0.008358292
000260 8d 07 10 bd cd d9 8a 3d f4 ac 71 3c 2d 9d 19 3e
       -0.03516345 0.067798235 0.014750708 0.15001364
000270 1e ce 21 be bb 46 d3 bc 42 a2 12 be a2 38 47 3d
       -0.15801284 -0.025790563 -0.14319709 0.048637994
000280 c5 22 9a bd 80 83 1f 3e af d6 11 be 43 e2 fb bd
       -0.07526163 0.15577507 -0.14242052 -0.122990154
000290 84 0d ef 3d 3a ae 04 3e e2 ee 00 3e 78 ff 42 3c
       0.116725 0.12957087 0.12591127 0.011901729
0002a0 54 97 15 3e ba 89 18 be 80 4b 05 be da b8 3d be
       0.14608508 -0.14896289 -0.13017082 -0.18527547
0002b0 97 33 a9 bd da ed 0b 3e 17 fe 24 3e 4f c8 1f be
       -0.08261793 0.13664952 0.16112553 -0.15603755
0002c0 d0 d7 09 be cd 72 6f 3d 38 d7 6e bd e6 d2 a0 bd
       -0.13461232 0.058459092 -0.058310717 -0.07852726
0002d0 9d e5 3a bd 0b 1b 1f be f2 39 29 bd ac ac a6 bd
       -0.045629133 -0.1553766 -0.041315027 -0.08138403
0002e0 9f 4a 29 bc 27 f9 25 3e 6a 67 07 3d 3a a6 2d be
       -0.010332732 0.16208325 0.033057608 -0.16957942
0002f0 f6 5d 0d 3e fb bd a6 bc 7b f9 9f 3d 29 46 c9 3d
       0.13805375 -0.020354262 0.078112565 0.09827835
000300 c2 96 06 be c8 86 ab 3d 0f fc 0a 3e 49 e0 10 be
       -0.13143447 0.08375317 0.13572715 -0.14148058
000310 e9 b2 65 bd 25 fe 05 be ba 73 c3 3d 52 d6 39 be
       -0.056078825 -0.1308523 0.095435575 -0.18148163
000320 e5 6f 90 bd c8 75 8f bd 58 e7 8f 3d 65 4d 97 3d
       -0.07052592 -0.07004887 0.07026547 0.07387809
000330 0c 9c 5a 3c f5 df 70 bd 07 15 2d 3d cc 94 2e be
       0.013342869 -0.058807332 0.04225638 -0.17048949
000340 45 4c 87 bd 8f 80 33 3e 7b 51 3c bd ea cb 9e 3d
       -0.06606344 0.1752951 -0.045976143 0.07753737
000350 d8 00 0a 3e 4d 54 e5 3d 6b 60 06 be 2d c2 32 be
       0.13476884 0.1119772 -0.13122718 -0.17456885
000360 9c 24 a0 bd 34 6d 64 3d 10 c3 b8 bd fa 4b dd 3d
       -0.07819483 0.055768207 -0.0902158 0.10805507
000370 8f 0f c5 bc 6a 9f 19 be e2 65 01 be bd cc dd 3d
       -0.02405527 -0.15002218 -0.12636521 0.10830066
000380 6b ad e5 bc 19 e0 00 be 9c 39 0c 3d 43 b2 2d be
       -0.028036794 -0.12585486 0.034234628 -0.16962533
000390 79 94 32 3d fd 4a aa bd b0 18 0e 3e f5 38 0a 3e
       0.043598626 -0.08315084 0.13876605 0.1349829
0003a0 11 3a ed bd 4b 47 1e 3e f5 eb f2 bd 35 10 05 3e
       -0.11583341 0.15456884 -0.118614115 0.12994464
0003b0 c7 97 1f 3e 9f 9e 5b bd 5a d2 12 bd 56 fe 36 be
       0.15585242 -0.05361807 -0.035845138 -0.17870459
0003c0 75 c1 d9 bd 6a da f1 3d 71 75 87 bc 55 d8 22 3d
       -0.10632602 0.11809237 -0.016535493 0.03975709
0003d0 cb 98 22 3e 4a a9 ef 3c 94 b7 10 bd de a2 a7 bb
       0.15878598 0.029255528 -0.035331324 -0.005115851
0003e0 14 58 7a bd 75 5c f1 bc 68 10 6b 3d 24 2c fe 3d
       -0.061119154 -0.029463032 0.057388693 0.12410763
0003f0 59 cc 1c bd 03 92 e7 3c b5 91 47 bd c3 ec 18 3c
       -0.03828082 0.028267866 -0.04872294 0.009333792
