data/train_data/transformer/td_best_model.pt (torch, 319421 bytes, 39 tensors)

att_weights f4 [3]
00000000: e62b 7e3f 3221 813f 9059 7f3f
0.99285734 1.0088255 0.99746037

weight f4 [48, 4]
00000000: c97d 62be a87e 28be b8f6 433e 511e 1abe
00000010: 27f1 06bd fecd 50be 3ba6 a53c 5926 a03e
00000020: 54a8 1e3e 9ef0 033e 059d 573d 2366 a23e
00000030: 5113 0b3c 43c0 3ebe 6736 5b3e abb7 53be
00000040: 58a5 34bd 6030 4abe 9e40 9f3e 0eec 8cbe
00000050: a4cc 523d 54bf 763a f721 a53e bbb9 9d3e
00000060: 2eff 1cbe f3a0 d13d c743 403e c9b9 e83d
00000070: 7a7e 70bd c081 4ebd 2b58 933e ea20 abbe
00000080: 9b69 8abd 36e4 36be a8bb d3bc 2207 813d
00000090: cbf4 3f3b 7ab0 143e 6340 12be 0042 ae3d
000000a0: e17e 2a3d 1a67 3b3d ddfe 2e3e 8f28 a7be
000000b0: d20d 883e 00ee 60be ed1d 89be 016f 5f3e
000000c0: 92c9 abbe 70ef 6abd 9505 c03d daeb 453e
000000d0: f3de a9bc 8449 8c3e 423c 493d 979e 5b3d
000000e0: 32b9 993d 9ca1 023e fe3b 413e c34f 313e
000000f0: df36 74be 095a c43d 82e6 a53e eca2 68be
00000100: b549 49be fb2c be3c 1963 973e 16f9 3fbe
00000110: 8f4a a0be e52a 143e bd99 0d3e 2e99 0dbd
00000120: 5cb2 20be e197 b4bd a6dc 883e e1b1 5b3e
00000130: cefe 92be 834a a2be f0f0 3dbe b189 dcbb
00000140: 34f7 7cbd 0c34 80be 1072 853b 2d38 433e
00000150: 5605 9cbd 5323 f7bd 8dfa a43e 2a7d 433e
00000160: c7d0 81be e32c 333e 7596 dbbc 37fa b1bd
00000170: d2db 8b3e 7c46 0fbe 0d06 14be 1d0c 64be
00000180: da7c c33d b7ae 37bd c1cd a5bd 079e 2dbe
00000190: 8d5f 2ebd ba2b 053d d9f9 99bc 25cb 1d3e
000001a0: 7745 1dbe ba60 75be 57d7 4bbe 1bb8 473e
000001b0: b18d 9ebe 2146 86be 66ed 903d 51c6 4e3e
000001c0: 44c3 9dbe 7fce 933e 22c2 88be 88b1 1e3d
000001d0: d227 373e 0889 413e cc44 a1bd 7f2e 403e
000001e0: 5ca3 84be ab05 db3d f611 a4bc 7fb1 5bbe
000001f0: 772b 813e 7999 b93d 941a 133d ae8e 183e
00000200: 3089 963e 6d3b 5cbd 9079 3fbe ec7b a1be
00000210: 64d7 d83d a88a 8e3e 8eec d1bd 110a 413d
00000220: 08ac a0be cd5d 66bb 7156 713e 6321 cfbd
00000230: 1b17 113e bf93 933e 0ab8 95be fa91 6bbe
00000240: 5140 6bbe 1531 1ebe 98cc 943e 4bb6 35be
00000250: 055a 8b3e ca4c eb3d f335 4d3e cd78 1fbe
00000260: f0d4 9c3e 6dd6 463e eb94 313e 7e7b d3bc
00000270: 20c3 a53c 03ef 9bbe 5515 47be 8b04 f73d
00000280: b022 babd d878 46be 9ed7 9b3c 1a1e 6d3e
00000290: 9458 933d 9ac5 adbe 2a13 ccbd 7aba d23d
000002a0: cf05 acbc 9412 2cbe fdee a83e a17a 90be
000002b0: e655 343e 9ec6 a9be 7caf 8d3e 6f73 c13d
000002c0: 39a8 25be 2802 2fbe 6794 73be 543d e93d
000002d0: e7d9 f8bc 0773 953e 2ad4 a1bd f108 abbe
000002e0: 4424 963c c70e 403e 336a 9abd 90b4 9bbe
000002f0: f4de 913e 395f 9cbe 9f1f 88be eb95 9a3d
-0.22118296 -0.16454566 0.19137084 -0.15050627 -0.032944825 -0.2039108 0.020220866 0.31279257
0.154939 0.12884757 0.05263998 0.3171855 0.008488492 -0.1862803 0.21407472 -0.20675533
-0.044102997 -0.19745016 0.31103987 -0.27523845 0.05146469 0.00094126654 0.32252476 0.30805764
-0.15331718 0.10235777 0.18775855 0.11363561 -0.058714367 -0.050416708 0.28778204 -0.3342355
-0.06758424 -0.17860493 -0.025846317 0.063001886 0.0029290195 0.14520445 -0.14282374 0.08508682
0.041624907 0.045752622 0.1708941 -0.3264813 0.26573044 -0.2196579 -0.26780644 0.21819688
-0.33552223 -0.05735725 0.09376065 0.19328251 -0.020736193 0.27399838 0.049129732 0.05361804
0.07506026 0.12756962 0.18870541 0.17315583 -0.23849057 0.09587485 0.32402426 -0.227184
-0.19657023 0.023214808 0.29567793 -0.18747362 -0.31306884 0.14469488 0.13828178 -0.03456991
-0.15693039 -0.08818031 0.2673084 0.21454574 -0.28710026 -0.31697473 -0.18548942 -0.0067302813
-0.06175919 -0.2503971 0.004072435 0.19064398 -0.07618205 -0.120672844 0.32222405 0.19090715
-0.25354597 0.17497592 -0.026805142 -0.08690303 0.27316147 -0.13991731 -0.14455433 -0.22270246
0.09545298 -0.044844355 -0.08095885 -0.16954814 -0.042571593 0.032512404 -0.018795894 0.15409525
-0.1535853 -0.2396268 -0.19906364 0.19503824 -0.30967477 -0.2622538 0.0707653 0.20192839
-0.30813038 0.28868482 -0.26710612 0.038743526 0.17886284 0.1889993 -0.0787445 0.18767737
-0.25905883 0.106944405 -0.020028096 -0.21454428 0.25228474 0.09062476 0.03591402 0.14898178
0.2940154 -0.05376761 -0.18698716 -0.31539857 0.105879575 0.2784016 -0.10250197 0.04712874
-0.3138125 -0.0035151124 0.23568131 -0.1011379 0.1416897 0.2882366 -0.29241973 -0.23004904
-0.22973754 -0.15448411 0.29062343 -0.1774532 0.27217117 0.11489256 0.20040111 -0.15573426
0.30631208 0.19417734 0.17341964 -0.025815722 0.020234644 -0.3045579 -0.19441731 0.120614134
-0.09088647 -0.19382036 0.019023713 0.23156014 0.07194629 -0.3393982 -0.09964593 0.10289474
-0.020998864 -0.16803962 0.32994834 -0.28218558 0.17610893 -0.33159345 0.27672946 0.09445845
-0.16177453 -0.17090666 -0.2378708 0.113886505 -0.030377341 0.2918932 -0.07901795 -0.3340526
0.01832784 0.18755637 -0.07539787 -0.30411196 0.28490412 -0.305414 -0.26586625 0.07548126

bias f4 [48]
00000000: 0cd3 a43e fd30 79be 54ce 33be 2a15 493e
00000010: 6485 c6be cf20 fa3e 474f a93e 4053 e43e
00000020: ea40 883e 1ba7 693e c7db c23e fc71 77be
00000030: 2247 63be ff0e e13e c548 bcbe e337 fa3e
00000040: 452e b2be 19f7 813e c68c 86be a106 7dbe
00000050: 3aeb fbbe a665 c0bb c62a ce3d fbfb d53e
00000060: bcde f9be d128 9abe ed0a 9c3e b8af eb3e
00000070: ab8a d0be 7bfc 8abd f9da 17be 8e94 f7be
00000080: 99e6 87be 2846 72be 25c1 553e 4170 773e
00000090: 93e3 b2be f86d 2f3e ae02 e1be af66 b33e
000000a0: feb4 d3bc 748e a4be c0c0 cebe 21d9 69be
000000b0: af57 09be e153 aabc 2603 14be 012d f73c
0.32192266 -0.24335094 -0.17559177 0.1963698 -0.38773644 0.48853156 0.33068296 0.44594765
0.26612025 0.22817652 0.38058302 -0.24164575 -0.22195104 0.43956754 -0.3677427 0.48870763
-0.34800926 0.25383833 -0.26279277 -0.2470956 -0.492029 -0.0058714924 0.10066752 0.41793808
-0.48802745 -0.30109265 0.30477086 0.460325 -0.40730795 -0.06786438 -0.14829625 -0.48355526
-0.2654312 -0.23659575 0.2087446 0.24163915 -0.3493925 0.17131793 -0.43947357 0.3503928
-0.02584314 -0.32139933 -0.40381432 -0.22836734 -0.13412355 -0.02079195 -0.14454326 0.030172827

weight f4 [48, 1]
00000000: 36b5 19be 0ccb 97bd a4f9 7f3e 1ff2 73be
00000010: 7baa 983e 1179 00be 68ba c3bd 2a23 1ebd
00000020: bdbd 5c3e b0cd 7cbd 95fb 6cbe 08ef 803e
00000030: 8ad2 67bd fc0d 473e 01f0 273e bf56 07be
00000040: 4bf1 1e3d c76b 2f3e cca6 c13d 1be2 9fbe
00000050: 4e4e d0bd cec3 7ebd 717e 963e 5b0e 10be
00000060: 78f3 7cbd 2af3 94be ff42 773d 05a5 b3bd
00000070: fb16 263e 00b5 a1be d3bd afbe 6b2d ad3e
00000080: 71bc 333e a29f 2dbe 2e25 0cbe fb7b 9f3e
00000090: 525b 8dbc 5f18 153e 93c6 e9bb 5f83 56bc
000000a0: dc42 af3e 1892 86be e59e a0be 1ef3 7cbe
000000b0: a38e 38be 445b a6be 072e 37bd 3915 b13d
-0.15010533 -0.07411775 0.24997574 -0.2382283 0.29817566 -0.12546183 -0.095570385 -0.038607754
0.21556754 -0.061719596 -0.23142846 0.25182366 -0.05659727 0.19438928 0.16400148 -0.13216685
0.038804334 0.17130958 0.09455642 -0.31227192 -0.101711854 -0.062198453 0.29393342 -0.14067976
-0.061755627 -0.2909177 0.060366627 -0.08771709 0.16219704 -0.31583405 -0.34324512 0.33823714
0.17552353 -0.16955426 -0.13686058 0.31149277 -0.017255459 0.14560078 -0.0071342676 -0.013092845
0.34230697 -0.26283336 -0.31371227 -0.24702117 -0.18023162 -0.32491505 -0.04472163 0.08646626

bias f4 [48]
00000000: 0ba3 223f 9029 16bf 3aff 503e 0649 10bd
00000010: 9426 97be e41d b03e b10c 7b3f 8359 643f
00000020: f4d0 68bf e6d6 2a3f 2e05 7dbf ac5e 613f
00000030: 1f01 493f 8e82 0d3f 01c9 133f 3a5d 543f
00000040: dad7 00bf 9bf9 c6be 6ebf 573f d836 673f
00000050: cbc4 e1be 463e 6cbf 869c 23bf 6acc 34bf
00000060: 7977 70bf 0f72 563f 3e98 eb3d d42c 6fbf
00000070: 5a5d 993e 2d25 623e 302b 6d3f 8014 4d3f
00000080: 10b2 22bf e77c 213d a63f 533a 44ca 74bf
00000090: a9ce 76be b2c2 23be 87ec 5ebe 3063 763b
000000a0: 1b28 123f fffa e83e 3e60 26be 3bbc 8bbd
000000b0: 2499 ed3d f31a 7dbe 9e0f 063f b43f 733f
0.63530034 -0.5865717 0.20409861 -0.03522589 -0.2952162 0.34397805 0.9806624 0.89199084
-0.9094384 0.6673416 -0.9883603 0.8803508 0.78517336 0.55277336 0.5772858 0.8295475
-0.50329363 -0.3886231 0.84276474 0.9031806 -0.44095454 -0.9228252 -0.6391071 -0.7062441
-0.939323 0.8376779 0.11503647 -0.9342778 0.29954034 0.22084494 0.92644024 0.80109406
-0.6355295 0.039425757 0.00080584956 -0.9562113 -0.24102272 -0.15992239 -0.21769916 0.0037595741
0.57092446 0.45503995 -0.16247651 -0.068230115 0.11601475 -0.24717312 0.5236758 0.9501908

weight f4 [48, 2]
00000000: fbe1 32be 41ef 8bbe ae0e 0f3e 6b3e c23d
00000010: 6614 9abe 2a47 593e 394f 4d3e 0c65 f53d
00000020: 313a 17be 98aa 23be 55d9 71be 8986 603e
00000030: b5c7 d5bd 2c82 e7bd e5fa 27be cbb5 aebe
00000040: 88f8 d83a dc4b ac3e 750e 55be 7c89 1c3e
00000050: 85b9 2c3e 0605 c8bd 80b8 55be 8eb2 37be
00000060: 5d77 5c3d ff2d 273d f2d4 10be 07c2 fc3d
00000070: 42c1 b9bb 7719 2dbe 05a4 38be f863 a63e
00000080: 0d6d 623e 7afc 77be e5cf 333e d1da d13c
00000090: 9a3b 57be 6023 73bd ef97 58be 791a 6abe
000000a0: 4d85 04be 531b 45be 71b1 86be 30c5 8e3e
000000b0: e75b 10bc e477 96be 4cd6 49bd b109 133e
000000c0: 917e 0abe 477d 6bbe f784 403e 34c5 2e3e
000000d0: 0c90 46be 1861 8ebe fad0 ad3e 12d2 9fbe
000000e0: 5d0b 48be 7e53 22be a44c 923e 27ed b1bd
000000f0: 44b8 ad3e c07b 93be 92a3 2bbe 0f3a 32bd
00000100: 185a 813e b063 ffbd a3a4 8dbe ca12 11bd
00000110: 8b20 9dbd 9296 513d 6c5e 0fbe b99a 203b
00000120: 37b5 33be 834b 113e 2487 853d e48b e0bd
00000130: 1fe5 8dbe 5a5b c33d c52b 08be 124a 5d3e
00000140: 5be4 923d 9a74 5dbe 4161 47be c190 04be
00000150: 7c64 723e d190 18be 32f4 a8be 49f9 a2be
00000160: 5597 3dbe 9a62 bd3d 2286 013e 1de3 733c
00000170: 1dc7 a9be 6f6b 333e 125d 853d 6fef 66bd
-0.17469017 -0.27330974 0.13970444 0.094845615 -0.30093688 0.21218553 0.20049752 0.11982164
-0.14768292 -0.15983045 -0.23618062 0.21926321 -0.10438482 -0.11304125 -0.16404302 -0.34123072
0.001655356 0.33651626 -0.20806296 0.15286821 0.16867645 -0.09766583 -0.20871162 -0.17939207
0.05382477 0.04081535 -0.14143732 0.12341695 -0.00566879 -0.16904245 -0.18031318 0.32498145
0.22111912 -0.24217406 0.17559774 0.025617035 -0.2101883 -0.059359908 -0.21151708 -0.22861661
-0.12941475 -0.19248705 -0.26307252 0.27884817 -0.008810974 -0.29388344 -0.049276635 0.14359166
-0.13524844 -0.22997008 0.18800722 0.17067415 -0.19390887 -0.27808452 0.339485 -0.31214958
-0.19535585 -0.15852162 0.28574097 -0.08687811 0.33929646 -0.2880535 -0.16761616 -0.0435124
0.2526405 -0.12470186 -0.2766467 -0.03541831 -0.07672223 0.051168986 -0.14000863 0.0024506284
-0.17549597 0.14188962 0.06519917 -0.10964182 -0.27713868 0.09538908 -0.13297947 0.21610287
0.071724616 -0.21626511 -0.19470693 -0.12945844 0.23671144 -0.14898993 -0.32998806 -0.31830814
-0.1851476 0.092473224 0.12648824 0.014885691 -0.33159724 0.17521451 0.065118924 -0.056380685

bias f4 [48]
00000000: e2c8 043e 4aa2 223f ab77 39bd d261 ec3e
00000010: ec76 1d3f df60 1e3f c105 b7be cb11 44be
00000020: 9adc 0e3f 724b b13c cef7 063f 9a9f 21bd
00000030: d26a bd3d 99ce 243e 927d 4bbd 3ea4 27bf
00000040: 6f04 34bf 2fcd 06bf f117 9cbe dff6 d53e
00000050: 2fa6 2b3f c0bb debe 4d42 593c e7cf 373e
00000060: 724e 283f 2585 b8be 8681 c33e 9dea 5bbe
00000070: dceb 85be 5f48 11bf 4b31 d1be b35a 1ebf
00000080: df9e 2b3f c15f 5d3e a5d6 d4be 01c6 1c3f
00000090: aa2b 23be b5d3 083f 2f9d 27bf c932 d23e
000000a0: a21f 2ebf 378b 6a3e 0d4d 66be fcac cc3e
000000b0: 88e0 33bf 1f4d e33e 3421 a9be 17a9 d4be
0.12967256 0.63528883 -0.04528014 0.4616838 0.61509585 0.61866564 -0.35746577 -0.19147412
0.5580536 0.02164242 0.5272187 -0.03945885 0.0924889 0.16094436 -0.0496803 -0.6548499
-0.70319265 -0.52656835 -0.30487016 0.4178991 0.6705045 -0.43502617 0.013260436 0.17950402
0.657447 -0.3603908 0.38184756 -0.21476217 -0.2615651 -0.56751055 -0.4085792 -0.61857146
0.67039293 0.21618558 -0.4157001 0.6123963 -0.15934625 0.5344804 -0.6547422 0.4105437
-0.6801702 0.22904669 -0.2249033 0.39975727 -0.7026448 0.44394776 -0.33033144 -0.41535255

weight f4 [48]
00000000: 89ec 7e3f 569c 7e3f 1d89 7e3f ec64 7e3f
00000010: fbb1 7e3f e543 803f adfa 803f d819 7f3f
00000020: bf3f 7e3f 1bfd 7e3f 464d 7e3f 1d73 803f
00000030: c962 813f cb71 803f 8d00 7f3f e7c5 803f
00000040: d479 803f 31b5 803f 4043 7d3f 8322 7e3f
00000050: ad1a 7f3f 1b5c 813f ce94 7e3f c943 803f
00000060: 176c 803f 69b8 7e3f a0c6 7d3f cb33 803f
00000070: d276 7e3f f430 7e3f e8c1 803f 2675 7e3f
00000080: 264c 7f3f 5ee8 7e3f ecf5 803f b8e7 7e3f
00000090: 427f 7d3f f44b 7f3f c843 813f e11f 7f3f
000000a0: 1e07 7e3f 78fe 7e3f 85fc 7e3f 71aa 7e3f
000000b0: 8dc9 7f3f f087 7e3f b305 803f 00ed 803f
0.99579674 0.994573 0.9942797 0.99372745 0.99490327 1.002072 1.00765 0.9964881
0.9931602 0.9960496 0.9933666 1.003513 1.0108272 1.0034727 0.99610215 1.0060395
1.0037179 1.0055295 0.9893074 0.9927141 0.9965008 1.0106233 0.9944581 1.0020686
1.0032986 0.9950014 0.991312 1.0015806 0.99400055 0.99293447 1.0059175 0.99397504
0.9972557 0.99573314 1.0075049 0.99572325 0.99022305 0.9972527 1.009881 0.9965802
0.9922961 0.9960704 0.99604064 0.9947882 0.9991692 0.99426174 1.0001739 1.0072327

bias f4 [48]
00000000: 1c87 22ba 3143 ef3b 45c6 3bbc 1773 7cbb
00000010: c4c5 de3b 22f1 a63b 4936 0c3c ddab 34bb
00000020: 0a75 70bb 83f6 83bb 21e2 0b3c 4f6f ac3b
00000030: 59a5 3d3c 2e73 653b 4bdd 1fbb 8f25 0b3c
00000040: 9e40 9cbb 66dc ecbb 33be 4cbc 0101 7bba
00000050: 539e a23b f4b7 38bc 08b8 213b 54ce 05bc
00000060: 4477 96bb 5785 ffbb 4e10 8abb f0d7 1ebb
00000070: e8bf cd3b 096b 223c 4978 723c c28a 94bb
00000080: 0627 713b e204 80bb c8ac 51bc 1556 26bb
00000090: 2462 023c 54ea 693b ddb7 27bc 3c7c 8b3b
000000a0: e260 313c fc74 debb 700a 523b c7f3 08bc
000000b0: 6983 09ba f845 ecbb 3a12 14bc d6fa 023c
-0.00061999424 0.007301711 -0.011460845 -0.0038520747 0.006798478 0.0050946632 0.008557864 -0.0027568259
-0.0036690854 -0.004027189 0.0085378 0.0052622925 0.0115750665 0.003501128 -0.0024393375 0.008492841
-0.004768445 -0.007228422 -0.012496519 -0.000957504 0.0049627214 -0.011274327 0.0024676342 -0.008166868
-0.0045918543 -0.007797878 -0.0042133695 -0.0024237595 0.0062789805 0.0099132145 0.014799186 -0.004533143
0.0036796941 -0.003906832 -0.012797542 -0.0025380899 0.007957969 0.003569265 -0.0102367075 0.0042567533
0.010826321 -0.006788848 0.0032049678 -0.008358902 -0.0005245717 -0.0072104894 -0.009037549 0.007994374

pe f4 [1, 150, 48]
00000000: 0000 0000 0000 803f 0000 0000 0000 803f
00000010: 0000 0000 0000 803f 0000 0000 0000 803f
00000020: 0000 0000 0000 803f 0000 0000 0000 803f
00000030: 0000 0000 0000 803f 0000 0000 0000 803f
00000040: 0000 0000 0000 803f 0000 0000 0000 803f
00000050: 0000 0000 0000 803f 0000 0000 0000 803f
00000060: 0000 0000 0000 803f 0000 0000 0000 803f
00000070: 0000 0000 0000 803f 0000 0000 0000 803f
00000080: 0000 0000 0000 803f 0000 0000 0000 803f
00000090: 0000 0000 0000 803f 0000 0000 0000 803f
000000a0: 0000 0000 0000 803f 0000 0000 0000 803f
000000b0: 0000 0000 0000 803f 0000 0000 0000 803f
000000c0: a46a 573f 4151 0a3f 633a 213f b8d9 463f
000000d0: 1d35 e53e 30ea 643f 3e39 9f3e 6b4e 733f
000000e0: 52e9 5a3e eb14 7a3f 78c3 153e 4d3f 7d3f
000000f0: 7675 cc3d 98b8 7e3f b46b 8b3d f667 7f3f
00000100: 1e0d 3e3d 6ab9 7f3f 5b81 013d 3cdf 7f3f
00000110: 477a b03c caf0 7f3f c179 703c f1f8 7f3f
00000120: 57d6 233c b9fc 7f3f 793e df3b 7bfe 7f3f
00000130: 5718 983b 4bff 7f3f 223e 4f3b acff 7f3f
00000140: 6431 0d3b d9ff 7f3f 2763 c03a eeff 7f3f
00000150: 6d12 833a f8ff 7f3f bf98 323a fcff 7f3f
00000160: 5c5a f339 feff 7f3f 61cb a539 ffff 7f3f
00000170: abe8 6139 0000 803f efe8 1939 0000 803f
00000180: b7c7 683f 3311 d5be 8e78 7a3f 10ac 533e
00000190: fbf4 4c3f f863 193f 1b54 173f ec7b 4e3f
000001a0: bed9 d53e b999 683f 3527 943e 5c0c 753f
000001b0: f86f 4b3e a5e5 7a3f e718 0b3e 8fa0 7d3f
000001c0: b7d8 bd3d d1e5 7e3f c870 813d f97c 7f3f
000001d0: cb6f 303d 2cc3 7f3f 1f73 f03c c3e3 7f3f
000001e0: 3ed4 a33c e5f2 7f3f 253d 5f3c ebf9 7f3f
000001f0: ec17 183c 2dfd 7f3f de3d cf3b b1fe 7f3f
00000200: 4e31 8d3b 64ff 7f3f 1a63 403b b8ff 7f3f
00000210: 6812 033b dfff 7f3f bc98 b23a f1ff 7f3f
00000220: 5b5a 733a f9ff 7f3f 60cb 253a fdff 7f3f
00000230: abe8 e139 ffff 7f3f efe8 9939 ffff 7f3f
00000240: c381 103e 2670 7dbf 22e2 633f 5748 e9be
00000250: cef0 7b3f 16a2 353e c209 503f 582f 153f
00000260: c82d 1a3f 565d 4c3f 083d da3e 5194 673f
00000270: 6c4e 973e ef90 743f bcd6 4f3e e6ab 7a3f
00000280: 1721 0e3e a885 7d3f c0ff c13d 4fd9 7e3f
00000290: bd46 843d 2977 7f3f 0d4e 343d 79c0 7f3f
000002a0: 1fb9 f53c 83e2 7f3f 346c a73c 50f2 7f3f
000002b0: d522 643c a6f9 7f3f 126e 1b3c 0dfd 7f3f
000002c0: bfc9 d33b a2fe 7f3f 424a 903b 5dff 7f3f
000002d0: 929b 443b b5ff 7f3f 8af2 053b ddff 7f3f
000002e0: c283 b63a f0ff 7f3f 10b1 783a f9ff 7f3f
000002f0: 7f6e 293a fdff 7f3f 66dd e639 feff 7f3f
00000300: cfbd 41bf 3055 27bf b619 cf3e 5d1f 6abf
00000310: e79c 753f 6c5d 90be de1d 743f b12e 9a3e
00000320: be4d 423f f9ad 263f add0 0d3f 5221 553f
00000330: d761 c73e a7ca 6b3f d9ce 893e 7e8d 763f
00000340: 7307 3d3e b299 7b3f 882e 013e 69f4 7d3f
00000350: df45 b03d cc0c 7f3f 9a58 703d 148f 7f3f
00000360: dbcb 233d 94cb 7f3f d737 df3c abe7 7f3f
00000370: 3e16 983c b4f4 7f3f cf3c 4f3c c2fa 7f3f
00000380: f830 0d3c 91fd 7f3f e462 c03b dffe 7f3f
00000390: 5712 833b 7aff 7f3f b298 323b c2ff 7f3f
000003a0: 545a f33a e3ff 7f3f 5ecb a53a f3ff 7f3f
000003b0: a9e8 613a faff 7f3f eee8 193a fdff 7f3f
000003c0: 107c 75bf 2c3c 913e 3a08 86be 9312 77bf
000003d0: 0a50 3b3f cb7f 2ebf 7ffc 7f3f e972 29bc
000003e0: cf71 613f 6393 f23e 1576 2b3f f218 3e3f
000003f0: 4377 f53e 40a9 603f a50e ab3e 3d4a 713f
0.0 1.0 0.0 1.0 0.0 1.0 0.0 1.0
0.0 1.0 0.0 1.0 0.0 1.0 0.0 1.0
0.0 1.0 0.0 1.0 0.0 1.0 0.0 1.0
0.0 1.0 0.0 1.0 0.0 1.0 0.0 1.0
0.0 1.0 0.0 1.0 0.0 1.0 0.0 1.0
0.0 1.0 0.0 1.0 0.0 1.0 0.0 1.0
0.84147096 0.54030234 0.62979716 0.7767596 0.44767085 0.8941984 0.3109836 0.9504153
0.21378067 0.9768817 0.14625347 0.98924714 0.099833414 0.9950042 0.06807652 0.99768007
0.04639923 0.99892294 0.031617504 0.99950004 0.021542681 0.9997679 0.014677466 0.9998923
0.009999833 0.99995 0.0068128672 0.9999768 0.0046415734 0.9999892 0.0031622727 0.999995
0.0021544332 0.9999977 0.0014677987 0.9999989 0.0009999998 0.9999995 0.0006812922 0.99999976
0.00046415895 0.9999999 0.00031622782 0.99999994 0.00021544348 1.0 0.00014677992 1.0
0.9092974 -0.41614684 0.978402 0.20671105 0.8006131 0.59918165 0.5911271 0.8065784
0.41767687 0.9085956 0.28936163 0.95721984 0.19866931 0.9800666 0.13583718 0.9907312
0.09269851 0.9956942 0.063203394 0.9980007 0.043075364 0.99907184 0.029351769 0.9995691
0.019998666 0.9998 0.013625418 0.9999072 0.009283047 0.9999569 0.006324514 0.99998003
0.004308856 0.9999907 0.0029355944 0.9999957 0.0019999985 0.99999803 0.0013625841 0.9999991
0.00092831784 0.9999996 0.0006324556 0.9999998 0.00043088695 0.99999994 0.00029355983 0.99999994
0.14112 -0.9899925 0.89016926 -0.45563003 0.98414314 0.17737612 0.8126489 0.58275366
0.60226107 0.7982992 0.42624688 0.9046069 0.2955202 0.9553365 0.20296758 0.97918546
0.1387981 0.9903207 0.094726086 0.99550337 0.06458805 0.997912 0.044019748 0.99903065
0.0299955 0.99955004 0.020437337 0.99979115 0.01392432 0.9999031 0.009486692 0.999955
0.006463259 0.99997914 0.0044033835 0.9999903 0.0029999954 0.9999955 0.0020438754 0.9999979
0.0013924765 0.99999905 0.00094868336 0.9999996 0.00064633036 0.9999998 0.00044033973 0.9999999
-0.7568025 -0.6536436 0.40449303 -0.91454107 0.9594254 -0.28196275 0.95358074 0.30113748
0.75899875 0.6510921 0.5539654 0.8325397 0.38941833 0.921061 0.26915625 0.9630965
0.18459873 0.98281395 0.12615407 0.99201065 0.08607077 0.996289 0.058678247 0.99827695
0.039989334 0.9992001 0.027248306 0.9996287 0.018565293 0.9998276 0.012648775 0.99992
0.008617632 0.99996287 0.0058711637 0.9999828 0.003999989 0.999992 0.0027251658 0.9999963
0.0018566349 0.9999983 0.0012649109 0.9999992 0.0008617738 0.99999964 0.0005871196 0.9999998
-0.9589243 0.2836622 -0.2617815 -0.96512717 0.73169005 -0.68163747 0.99994653 -0.010342338
0.88064283 0.47378072 0.66977054 0.74256814 0.47942552 0.87758255 0.3340961 0.94253904

in_proj_weight f4 [144, 48]
00000000: 677f cebd efe3 aa3d 75cf bf3d 0b4b 4bbd
00000010: d6b8 ad3c 428f 073e bc6b 193d 200b ba3d
00000020: 70f9 68bd b521 d3bd 8e13 223e 7668 be3d
00000030: 672d edbd fb73 7b3c ed23 0cbc 40be bcbd
00000040: b1ba 31be d504 113d cd50 1dbe 7181 843c
00000050: 430e 2fbd 5561 1cbe 4ab6 043e 1b01 10be
00000060: 354c 163e 74d9 02be a01e 213c 30ab d03d
00000070: 79a4 ce3d 8482 853d 9e10 8ebc 5d16 1d3e
00000080: 3269 ef3c 9e73 ed3d 8e1c 0e3d 93cc 9d3d
00000090: d849 d9bd e874 9e3b ae6c e43d a004 2e3e
000000a0: d3f4 cbbd 0e61 2fbe fb96 1cbe b902 b2bc
000000b0: ee05 d2bd d0f1 f8bc efd7 14be 6f5e 68bd
000000c0: 0e9b 7e3d a235 e1bc 131b 8abc f02f 1f3e
000000d0: 852b 903c 7ca3 80bd f366 eebd 585c a1bd
000000e0: 7570 0ebe d7c3 703c 991b cf3d 28b9 e7bd
000000f0: f430 223e dbbf 10be f67e 353d 7473 17be
00000100: 420b 29be 1d5d 20bd 5caf 923d 8be0 2bbe
00000110: a63d eb3c c65c 1d3e ba78 d53d 3cfa 21be
00000120: eb54 4c3d 34e0 523d 76d9 2f3e 361c 10bb
00000130: ed98 323d 5337 74bd c12c 3fbd ef0f 2c3e
00000140: 3b1f d33d 60b6 a03d 7dbe ce3c 48e9 80bd
00000150: 0634 c0bd 1965 ce3d d239 b43d f5b6 22be
00000160: 2848 603d acb6 803d 34e6 cfbd b951 7abd
00000170: 5aa2 853d fa52 e0bd cb7c b1bd 6586 e5bc
00000180: cbd4 c0bd 9788 06bb 84c5 003e bc12 d7bc
00000190: f22f 033d 1f7d f6bd 1987 94bd 6082 aabd
000001a0: 1540 163e a880 fdbd d99d 1a3b 8cd1 94bd
000001b0: 1412 ca3d 57ea 87bd 4d40 f9bd f64d 7a3d
000001c0: ea10 f9bc 25f5 de3d 567b 05be 7283 53bd
000001d0: 9847 2dbe af42 c3bb 6b21 e53d 5dc4 9b3c
000001e0: b963 0d3e 2e3b 10be 0663 943c 6855 3ebd
000001f0: ec75 00be 9d0e c5bd 5b40 15bd 9612 9f3c
00000200: 6188 f23c 41bb 0cbe f176 aabc 49a1 5b3c
00000210: e244 853d ec23 b2bc ba06 f1bd dcb2 b23d
00000220: 8437 113e 5173 313e 2331 06be 216e 3a3d
00000230: e037 763d 8b92 f93d 46c9 783d f174 9d3c
00000240: f937 de3d bc9e 91bd bd53 053b a304 263e
00000250: 807f 33be 1c05 18bc 67b4 253b 1ecd 2ebe
00000260: 822e 9c3d 5197 153d 4abe 003e c405 233e
00000270: 5b7c 0cbd c8b4 1abd 86a9 96bd b7bc 88bd
00000280: 6f3d 10bd 1a25 64bc 41a1 99bd 960c 153e
00000290: 1c2a 233e 84fc e3bb 1077 463d a18d 12be
000002a0: 5a6a bd3d e72c 82bd febf debc bdf1 1f3e
000002b0: d44d bb3c 11c7 aabc b10a 2f3e 2a3d 8f3d
000002c0: fa53 153e a28a 00be 62d1 f5bc cbdb a4bb
000002d0: e991 e33d 9df3 10be 6381 a23c d2bf f53d
000002e0: 7e7e b13d 73f1 0a3e 1e42 7c3d eb2a 8bbd
000002f0: 6daa a63d 18e0 f63d 4ae2 323e 1995 233e
00000300: 5171 31bd d6b0 61bd b80d ca3c ac3f ad3d
00000310: 9aa7 84bd 7363 fc3c d412 a63b cc48 513d
00000320: 5904 153d f20e a13d a284 90bd 077b 763d
00000330: 563c 84bd 3cb3 50bd 43ee c43d d8ed fd3d
00000340: b743 0c3e 9645 0e3e 0e90 df3d 4ccb 023e
00000350: 105d 463d d7a9 243e 9b5c 213e 58b1 2cbd
00000360: 9d3d 0ebc e49f cc3a 290e ee3d 30e9 ffbd
00000370: 1547 22be aab1 893c 4738 0abd 38ce 1dbd
00000380: 08c8 6c3d 1e7f 8bbd 444e c53c 6c9b 613b
00000390: d68a ddbd 008d a0bd 7d6e 273d f229 cdbd
000003a0: 98bd 3a3d ba1e 26be 0c05 513d 2486 d6bc
000003b0: 484b c63d c2da 07be 7cdb 6abd dffb edbd
000003c0: dae7 ddbc c2f0 223e c770 6cbd 8a15 51bd
000003d0: 446c dcbd f1a6 53bd 03cb 4c3d fa84 cebc
000003e0: 3f41 213d 3e38 233e 95eb b0bd e316 c83d
000003f0: b1a3 26be ef14 ec3d 507a 1ebe bb63 14be
-0.10082894 0.08344256 0.09365741 -0.049632113 0.0212063 0.13238242 0.03745626 0.09084153
-0.056878507 -0.103091635 0.15827772 0.09297268 -0.115809254 0.015347476 -0.008553487 -0.09215975
-0.17356373 0.035405 -0.15362854 0.016175004 -0.04273821 -0.15271504 0.12960163 -0.14062922
0.14677508 -0.12778264 0.009833962 0.101889014 0.100899644 0.065190345 -0.017341908 0.15340562
0.029224966 0.11594318 0.0346952 0.07705035 -0.10609788 0.0048357137 0.111535415 0.16993952
-0.09958806 -0.17126867 -0.1529197 -0.021729814 -0.10255037 -0.030388743 -0.14535497 -0.056730684
0.06215959 -0.027491394 -0.016858613 0.1554563 0.017598877 -0.06281182 -0.1164073 -0.07878941
-0.13910086 0.014695129 0.10112686 -0.113146126 0.15838987 -0.14135687 0.044310533 -0.14790136
-0.16508201 -0.0391513 0.071623534 -0.16784875 0.02871592 0.15367422 0.104234174 -0.15818113
0.04988567 0.051483348 0.17172799 -0.0021989471 0.043602873 -0.059623074 -0.04667354 0.16802953
0.10308691 0.07847285 0.025237316 -0.06294495 -0.09384923 0.100778766 0.08800091 -0.15890105
0.054756314 0.06284842 -0.1015133 -0.061113093 0.06525107 -0.109533265 -0.086663805 -0.028018186
-0.09415587 -0.0020528191 0.12575346 -0.02625405 0.032028146 -0.12035584 -0.0725233 -0.08325648
0.14672883 -0.12378055 0.002359262 -0.072665304 0.098667294 -0.06636494 -0.121704675 0.061109506
-0.030403573 0.10886601 -0.1303533 -0.051639028 -0.16921842 -0.005958877 0.111880146 0.019014532
0.13807572 -0.14085075 0.018113624 -0.04646817 -0.12544984 -0.09621928 -0.036438327 0.019418042
0.029606046 -0.13743307 -0.020808669 0.013405153 0.06507279 -0.021745645 -0.11768861 0.08725521
0.14181334 0.17329146 -0.13104682 0.045515183 0.06011188 0.12186154 0.060738824 0.019220801
0.1085052 -0.07110354 0.0020344101 0.16212706 -0.17529106 -0.009278562 0.002528453 -0.17070433
0.07626058 0.03652126 0.1257259 0.15920168 -0.034298282 -0.037770063 -0.07356553 -0.066766195
-0.035214838 -0.013924861 -0.0750146 0.14555582 0.15934032 -0.0069575924 0.04845339 -0.1431184
0.092488006 -0.06356221 -0.027191158 0.1561956 0.02286426 -0.020846875 0.17093922 0.06994088
0.14582816 -0.12552884 -0.030007068 -0.005031084 0.111118145 -0.14155431 0.019837087 0.119994774
0.086667046 0.13568668 0.06158649 -0.06795295 0.08137975 0.12054461 0.17469135 0.15974845
-0.043320958 -0.055100285 0.024664745 0.0845941 -0.0647728 0.03080914 0.0050681625 0.051094815
0.0363811 0.07864179 -0.07056548 0.06017592 -0.06456821 -0.05095218 0.09615757 0.12398881
0.13697706 0.13893732 0.10916148 0.12772864 0.048428595 0.16080414 0.15757982 -0.042161316
-0.008681682 0.0015611616 0.116237946 -0.12495649 -0.15847428 0.01680835 -0.033745077 -0.038526744
0.057807952 -0.06811355 0.024085172 0.0034424914 -0.108174965 -0.078393936 0.040876854 -0.10017766
0.045590967 -0.16222659 0.051030204 -0.02618701 0.096823275 -0.13267043 -0.057338223 -0.11620306
-0.027088095 0.15912154 -0.05772474 -0.051045932 -0.107628375 -0.05167288 0.049998295 -0.025209893
0.039368864 0.15939423 -0.08638684 0.0976999 -0.16273381 0.1152743 -0.15476346 -0.14491169

in_proj_bias f4 [144]
00000000: e98a f9ba f093 4dbb 6355 caba da69 ca3a
00000010: 726b 233b 7f33 4b3b 87db 5439 d98f 9ebb
00000020: 3ef9 d43b 959e 083b dd4a 91bb c785 f938
00000030: 873c 323b 5deb 20bb 9340 7aba f7bc 5c3b
00000040: cf4b 3abb 72ba 4c3b d074 4f39 ee44 6b39
00000050: a2a7 76b8 83eb 34ba 7cb1 c83a 9f15 d038
00000060: bb9b de3a c5c7 9fb9 b4cd 02bb 2e37 8939
00000070: 75fc 8fba dc2f f13a aaa4 70b9 e9ae 7f3a
00000080: 70cc 8b3a 7ee9 b1ba 3ae2 093a f1bf 0fba
00000090: 083c 98ba 6e0a 903b d281 193b 4be1 8dbb
000000a0: bd8d 1439 17dd daba eef6 2bbb 3d74 5c3b
000000b0: 8195 cc39 7c36 273a 679c a73a 3d08 04bb
000000c0: e609 6337 ccaa c3b8 bcd4 02b9 16dc 2837
000000d0: 3c4c 64b5 119b c137 1c64 07b9 65d2 5f39
000000e0: 76d4 8d39 2080 4c39 3b12 bc38 cb46 c6b9
000000f0: 0fac 0b39 80fe a637 05b3 c038 0dae a938
00000100: c74f fe38 1ec1 a738 15d0 4c39 e5da 27b9
00000110: a93b 8738 f293 9738 35ee a139 00a5 9438
00000120: 1b28 2037 5f0c 3638 8547 8838 2398 4fb9
00000130: d9bb f938 3c7d 2938 6570 2a38 a8fe a0b9
00000140: ee3a e3b9 18cf 53b9 97ab 35b9 ffb1 bdb8
00000150: a01e 2eb9 36bb f636 0693 0d38 8a51 5eb7
00000160: d545 5db8 139a 2838 3054 a3b7 8ce6 14b9
00000170: 70e1 7bb8 bae8 1db9 cf75 8938 ea37 f737
00000180: c41b 8139 d00f 1cbb 29e0 04bc b4ed 7dbc
00000190: a658 4ebc 46d9 3dbb 49e5 22bc 4f76 77ba
000001a0: 8a4d 173a 10ba 55bc ed51 bc3b c3b9 613c
000001b0: 6b95 aab8 c83a ee3b 1e6f 4c3c 795e 1f3c
000001c0: 6b48 a03b 9e37 4c3b 6bc3 1a3b ff1e 843b
000001d0: 57c5 56bb 736c 99bb 1929 aabb 4612 8f3b
000001e0: 9100 31bc fa6c cf3b 965f 59bc 007c b9bb
000001f0: 309e 0b3c 7f98 a5bb 1ade 053c af32 e33b
00000200: 36ef 0d3c 29aa 3a3a 6882 b139 b373 533b
00000210: 38d9 fabb 0421 0abb c4c5 023b 6911 bcbb
00000220: 754a 3cbc 8c83 673b ab47 823b 2cd3 44bc
00000230: 701d eebb cdf0 f23b defe 0b3c af80 a03b
-0.0019038591 -0.0031368695 -0.0015436824 0.0015442923 0.0024935869 0.0031006036 0.00020299676 -0.0048389253
0.0064994385 0.0020846475 -0.004433973 0.00011898163 0.0027196722 -0.002455435 -0.00095463655 0.0033681968
-0.0028426533 0.003123906 0.00019784574 0.00022437025 -5.880709e-05 -0.0006901549 0.0015311684 9.92224e-05
0.0016983667 -0.00030475683 -0.0019959034 0.00026171788 -0.0010985272 0.0018401104 -0.00022949526 0.00097535417
0.0010665786 -0.0013573614 0.00052598456 -0.00054836186 -0.001161457 0.0043957746 0.0023423326 -0.0043298355
0.00014167182 -0.001669797 -0.002623971 0.003363862 0.000390213 0.0006378663 0.00127877 -0.0020146512
1.3532559e-05 -9.330138e-05 -0.00012477016 1.0064823e-05 -8.5047554e-07 2.3079601e-05 -0.00012911897 0.00021345315
0.00027051911 0.00019502686 8.967934e-05 -0.00037818248 0.0001332017 1.9907253e-05 9.1886184e-05 8.0909675e-05
0.000121265235 7.9991514e-05 0.00019532473 -0.00016007906 6.448414e-05 7.227798e-05 0.0003088579 7.0879236e-05
9.546081e-06 4.3403703e-05 6.498307e-05 -0.00019797734 0.000119082346 4.0409373e-05 4.0635834e-05 -0.00030707312
-0.0004334072 -0.00020199677 -0.00017325427 -9.045377e-05 -0.00016605342 7.3531655e-06 3.3753946e-05 -1.3251216e-05
-5.2755542e-05 4.0197814e-05 -1.9470317e-05 -0.00014200265 -6.005302e-05 -0.00015059384 6.5546126e-05 2.9470732e-05
0.00024625484 -0.0023813136 -0.008110085 -0.015498567 -0.012594378 -0.0028968616 -0.009942361 -0.00094399316
0.0005771747 -0.013044849 0.005747071 0.013777199 -8.134063e-05 0.007270191 0.012477664 0.009727114
0.0048914454 0.003116108 0.0023615013 0.0040320153 -0.0032771432 -0.0046821176 -0.0051928875 0.004366192
-0.010803358 0.0063301297 -0.013267418 -0.005660534 0.008521602 -0.0050535793 0.008170629 0.006933532
0.008662989 0.0007120693 0.0003385723 0.0032265007 -0.007655289 -0.0021076808 0.0019954303 -0.00573938
-0.011492361 0.003532621 0.0039758286 -0.012013238 -0.007266693 0.0074139596 0.008544652 0.004898153

weight f4 [48, 48]
00000000: ce38 72be a544 6dbe ae58 c63d ae51 723e
00000010: a113 babd c3a4 afbd 5ba4 22be 1498 023e
00000020: 49b3 b53c dc26 03be 05a1 6c3c af2e f93d
00000030: d04c 3abe fb4e 14be af7c 273e 5a4e 2ebe
00000040: 4e7d a43d a11d 1e3e cef7 46be 2677 b9bd
00000050: 3853 efbd 1ba2 c8bd 756e 743e 4ac8 39be
00000060: f921 6fbe e4b0 63bd 9efa 533e 20f1 d0bd
00000070: eaa1 b2bd e165 32bd 4e0d dfbd d974 6abe
00000080: 8025 6abe bd8f 1a3d 3263 4f3e 6306 2cbe
00000090: 2306 113e 58ec 053e 43e4 a13d 0bd1 ed3c
000000a0: 2ae1 43be 1bb8 643e 816e 8ebd 780a 73bd
000000b0: b10d 7bbe 8140 81bd cbd7 3abe 3522 5cbd
000000c0: d290 2cbe 6dc2 75be 4a10 a7bc ee45 7bbe
000000d0: 5b02 813d 3a96 4fbe c96a fb3d 300f 33be
000000e0: ecfc 573e c388 613d bc7a 28be 5fba d2bd
000000f0: 4892 7fbe b4dd c83d 3926 4dbd 2e1e 09be
00000100: d24b 053e d5b5 5b3e 7790 52be 1d13 21be
00000110: 6ab7 723a 7ab4 ce3b 6281 54be 66a6 803e
00000120: 7ef3 4ebb 0949 eebc 5423 0bbe 6396 d83d
00000130: fe18 723e 9a77 263e f3bc 473d 7e05 4f3e
00000140: 4529 e0bd 85cf 1e3e d4ac c83d 8017 25be
00000150: 7085 7dbe 469b 12be e354 31be 9213 34bd
00000160: e5c0 243e 7793 01bd 6dcf dc3d 9d12 62be
00000170: 7728 ad3d 372c 95bd 4f95 bcbd 535e 0a3e
00000180: 1673 323e 2fa3 6bbe 8050 39be 9009 a83d
00000190: dd41 fb3d c2f6 b83d 9ca7 763e 58b9 733d
000001a0: b191 a6bd 1704 fd3d 9f5a 163d 8565 303c
000001b0: 6b15 2d3e e6d2 243e 9c91 23be a4ca 08be
000001c0: c8c2 f7bc 2347 c4bd c2b3 703c 6aaa 4b3e
000001d0: 2e1a b23d a61d 34be 9c96 83bc 0ce9 0e3e
000001e0: f4dd 0b3e 7388 44bc 5d6b a7bd 8a23 c6bb
000001f0: dd29 5e3e a310 723e 39f9 173e d27d 6b3e
00000200: d81a 2ebe 631f f43d a3c9 833d 7716 f13d
00000210: 7a92 a83c 3622 223e 2b65 9cbd 4a19 863d
00000220: 7951 603e e227 c4bd d958 003e 7251 b93d
00000230: be5c fabd 6f1b 3ebe d434 6cbe f17c 693e
00000240: 286d 783e b195 6cbe 7a00 e7bb 74a2 893d
00000250: 79a4 c5bd a0c4 703e 734f aabd c207 c5bd
00000260: dff1 afbc c161 32be 3c7c 39be fc77 043e
00000270: 2b93 fc3d 7a87 f63c d727 75bb 1f4d 33bd
00000280: e56d 353e 0c3d c1bd 5311 343e d0ea 183e
00000290: 7709 dfbd a9e7 263e ded0 13be 2964 58be
000002a0: a743 af3c 3d24 703e 240e 5b3d 41af 37be
000002b0: a441 8dbd 8c12 17bd 89b8 78be 9fec 10be
000002c0: 8af1 86bd dffc 8c3c 33a5 723e 74de 013d
000002d0: 11b4 38be 5e80 e63d 8c78 863d 20fb 03bc
000002e0: 19ce dd3d 9811 713d 48fd 7e3e 0c67 70bc
000002f0: dfff dd3d 5d52 3d3e 2092 e73c 1044 043d
00000300: 9406 5d3e d539 23be 8480 963d 8f12 3cbe
00000310: 8a09 6b3e 69e5 cabd 5b4b 253e 6d14 39bd
00000320: 6ed5 d73d 45fa e2bd f84d 623e f54b a0bd
00000330: d5ef 79bd 334d d13c 69e4 563e 589c 76be
00000340: 34af 1c3d ed0a 31bd ce18 dabd 467f 4abe
00000350: c9d2 19be 195d 433e 1e82 a23b a442 9cbd
00000360: f04c b8bd 0288 d33b 3219 09be a78e 0ebe
00000370: cf95 32be d459 eebd 734e 3e3e a819 333e
00000380: 164e 523d 6e4b 02be 98cf e4bc 118c 233e
00000390: 7c08 0a3e 3924 d73c 775e 0e3e 918e 6e3b
000003a0: 4d79 3abe 3ec5 293e 8af5 5bbd 4bc8 643e
000003b0: 39d8 653e 7b10 74be 17f6 acbd 11f0 b9bd
000003c0: 511b cc3d cede 3dbe c66d cfbd da26 30bd
000003d0: 9d6c 56be 7404 6d3e d39b dfbd 22fc afbc
000003e0: 99fa 72be 69a6 90bd 52dd 19be 1064 8b3d
000003f0: 293f bb3c c553 eebd fb6c ccbd 17e2 a93a
-0.23654482 -0.23170717 0.09684883 0.23663971 -0.09085775 -0.08576348 -0.15883009 0.12753326
0.022180216 -0.12807792 0.014442687 0.12167107 -0.18193364 -0.14483254 0.16356157 -0.17022076
0.080317125 0.1544099 -0.19430467 -0.09055929 -0.116857946 -0.09796544 0.23870261 -0.1814281
-0.23352803 -0.055588618 0.20701072 -0.10202241 -0.08722289 -0.04355419 -0.108912095 -0.22896136
-0.22865868 0.037734736 0.20252684 -0.16799311 0.14162497 0.13078439 0.079048656 0.029030344
-0.19128862 0.22335856 -0.06954671 -0.059336156 -0.24516942 -0.06311131 -0.18246381 -0.05374356
-0.1685212 -0.23999949 -0.02039351 -0.24538395 0.062992774 -0.2027215 0.12276227 -0.17486262
0.21092576 0.055062067 -0.1645307 -0.10289454 -0.24958146 0.098079115 -0.05008528 -0.13390419
0.13017204 0.21456082 -0.20562921 -0.15729947 0.0009258898 0.0063081356 -0.2075248 0.25126952
-0.0031578238 -0.02908756 -0.13587695 0.10575559 0.23642346 0.16256562 0.04876418 0.20216939
-0.109453715 0.1550885 0.09798589 -0.16122246 -0.24757934 -0.14317045 -0.17317538 -0.043963976
0.16089208 -0.031634774 0.10781751 -0.22077413 0.08454984 -0.07283824 -0.09208166 0.13512544
0.17426714 -0.23011468 -0.18097115 0.08204949 0.12268422 0.0903144 0.24087375 0.05950293
-0.08133257 0.12354296 0.036707517 0.010766392 0.16902702 0.16096076 -0.15973514 -0.13358551
-0.030244246 -0.09583881 0.014691295 0.19889227 0.086964 -0.17589435 -0.016063027 0.13956088
0.13658887 -0.011995423 -0.08174775 -0.006046717 0.21695657 0.23639159 0.14841165 0.22997215
-0.17002428 0.11920049 0.064349435 0.11771863 0.020577658 0.15833363 -0.07636484 0.06547792
0.2190608 -0.095779195 0.12533893 0.090487376 -0.122247204 -0.18565153 -0.23067027 0.22801568
0.2426039 -0.23103978 -0.0070496174 0.067204386 -0.09650511 0.23512506 -0.08315935 -0.0962062
-0.021477638 -0.17420103 -0.18113798 0.12936395 0.123327576 0.030093897 -0.003740778 -0.04377472
0.17717703 -0.09435472 0.17584734 0.14933324 -0.10890477 0.16299309 -0.14435145 -0.21131958
0.021394564 0.23451324 0.053480282 -0.17937948 -0.068972856 -0.036882922 -0.24289145 -0.14152764
-0.06589039 0.017210422 0.23695831 0.03170629 -0.1803744 0.11254953 0.06565961 -0.008055478
0.10830326 0.05885467 0.24901307 -0.014673006 0.10839819 0.1848845 0.02826792 0.032291472
0.2158454 -0.1594003 0.07348731 -0.18366455 0.22952858 -0.09907038 0.16142027 -0.045185495
0.10538755 -0.110828914 0.22100055 -0.07826988 -0.061019737 0.025549507 0.20985569 -0.24083078
0.038253024 -0.04322331 -0.10649262 -0.19775113 -0.15021814 0.19078483 0.004959359 -0.07629898
-0.0899905 0.0064554224 -0.13388517 -0.13921605 -0.1743996 -0.11638227 0.18584614 0.17490256
0.051344 -0.12724087 -0.02793102 0.159714 0.13479799 0.02626239 0.13903223 0.0036400894
-0.18210335 0.16579148 -0.05370096 0.2234203 0.22445764 -0.23834412 -0.084453754 -0.09078992
0.09966148 -0.18542024 -0.101283595 -0.0430058 -0.2093987 0.2314623 -0.10918393 -0.021482531
-0.23728408 -0.0706299 -0.15025833 0.06806195 0.022857266 -0.116370715 -0.09981724 0.0012961057

bias f4 [48]
00000000: dbbb bd3a 1039 c43b 39fe 45bc 0b77 c5bb
00000010: 02cf bf3b 5a73 ea3b 2bee 353c 0d81 1c3b
00000020: 1be5 a0ba 8df3 35bc 7924 043c dc2c 1dba
00000030: 853f 663c 1bbf d9b8 8b05 603b abb5 983b
00000040: 2e1b 70ba 37d2 42bc fe2f 3ebc b805 003c
00000050: 9d8d 823b 1b5c 75bc 55b0 aeba 1fa6 50bb
00000060: 339c ccbb 31c2 61b8 4ac8 9a3b b02c 09bb
00000070: 5107 683b 5b0f 3c3c 225f 713c f96d 4ebb
00000080: 4d32 b73b be1e cdba 4afd c4bb b309 cfba
00000090: 27ac ca3b b334 0e3c d6a8 47bc 8485 a539
000000a0: 5e98 373c e410 1cbc 80b0 2fb9 6bf2 36bc
000000b0: 69ba c0bb 6016 15bc b78b 53bc 947f 513c
0.0014475541 0.0059882477 -0.012084537 -0.006026154 0.0058535347 0.0071548643 0.011104147 0.0023880631
-0.001227531 -0.01110543 0.008065336 -0.0005995759 0.01405323 -0.000103829625 0.0034182991 0.0046603284
-0.00091593235 -0.011890939 -0.011608122 0.007813863 0.003984167 -0.014975573 -0.0013327698 -0.0031837297
-0.0062442063 -5.3825035e-05 0.0047235833 -0.0020931177 0.0035404752 0.01147827 0.014732154 -0.0031498654
0.005590713 -0.0015649421 -0.0060116397 -0.0015795737 0.006185073 0.008679557 -0.01218625 0.0003157073
0.011205761 -0.009525511 -0.00016755052 -0.011166195 -0.005881597 -0.009099573 -0.012911729 0.012786765

weight f4 [128, 48]
00000000: 5da9 1ebc b5a3 dc3c 1b75 a8bd 0816 2c3d
00000010: 1b23 5e3b 0f34 1bbe e288 adbd 338d a3ba
00000020: 11e3 cd3d 0227 e23c 635b 8cbd 8f8e 96ba
00000030: ddca ffbd e573 8e3c 04b6 13be fc0b 8bbc
00000040: 5c94 8fbd 3a01 bb3d c8dd b63c f55d 86bb
00000050: f6d0 08be c396 f83c 50b6 e4bd 3f20 09be
00000060: 8942 083e ae91 113d 489a 0cbe 2fa7 2d3e
00000070: 88bc 25be f1fe b8bd 4bcd 213e dc65 003d
00000080: 1221 933d 55a4 f53d 04c2 2dbe bab3 823c
00000090: 77ef bfbd 81bb 9e3d 4fd8 b6bb d896 703c
000000a0: d622 0ebd 57ce f1bc c454 8ebd 2249 3a3e
000000b0: 6be0 473a 665e 22be a81f 793d 4a4b 1dbe
000000c0: 726e 173e 643f 6bbd 5fd0 8cbc 9483 aabd
000000d0: 2fae 183e 9d47 0a3e 1205 083d 6661 3f3e
000000e0: ee2f b9bd e6d9 f2bd 4b19 053c 7cf0 473d
000000f0: d5f1 1a3e dab3 e03d 8389 2cbe 8db5 d13d
00000100: 8d2a bbbd 7846 f03d f218 1fbd 6bc3 84bd
00000110: b361 333e de6a 10be e32f da3c c942 c4bd
00000120: ebb1 933d 68ec 843d ea7b 0fbe 58a8 38be
00000130: 3376 0a3e 19c6 303e 26d4 253e 4446 273d
00000140: 1afc 7a3d bc70 7f3d c72a 91bd f567 fbbd
00000150: 0d93 efbd e02f ee3d 5bd5 883c fd7a 313d
00000160: 2c22 303e 6278 ebbd 1235 28bd f583 673c
00000170: 1e63 b93d 6279 e23d cc00 8b3d 84b5 f0bc
00000180: c2d1 d6bd b7ef 053e 7d1b 363e d6a6 34be
00000190: 308b c53d 1c11 1cbe 1478 c43c 788e e23d
000001a0: d65e 0b3d db7c 213e be5f 983d 958c 283e
000001b0: 8e8d 1ebe d5a9 ea3d 8717 34be 4b0c 3abe
000001c0: 2546 193e 147b f23b 2a72 7b3c 8695 103e
000001d0: 021c 143e 8f9f a9bc ea98 99bd bee9 fa3d
000001e0: 27ff 7ebd d2b1 193e f9cb cbbd 1d1c f6bd
000001f0: 2e6c b9bd a7a3 0c3e 574e 98bd 19b8 38be
00000200: da53 d23d 1655 2b3e ac0a a4bc e18d 5ebd
00000210: 4357 343e 6d9b e5bd 0f63 113e 9aa6 2dbe
00000220: 858b f5bd 94ff 20be 29fe 913d 5d00 163e
00000230: 080d d33d a957 3f3c 5153 113d 14e9 2cbd
00000240: 74ec 213b 48b6 0fbe a8ac 133e cd58 31be
00000250: b93c f03d 90b1 9cbc 2220 efbc 3cb8 53bb
00000260: 14be 85bd cd8c 0b3e 54da 063d 722f 2cbc
00000270: a533 2d3d 6604 d93d 52ac 163b 6bfc e83d
00000280: ff1c c03d f645 153e 99ff 9a3d ead1 28be
00000290: b15a 373e 2060 bebc 6f73 1f3e 1f58 6abd
000002a0: 596e 19be 081f 74bd 1469 3cbe 3229 e33d
000002b0: a5bf 1d3d 6294 6ebd 3e63 a73d 429b 58bc
000002c0: 3ba1 a1bd 61b9 883d 9c65 39bd 38f2 17be
000002d0: c6ac 87bd 264e febd 72f4 86bd 760e b4bc
000002e0: 8603 1abe 2f0e 90bd 2750 0dbe 4712 383e
000002f0: 51ec 80bd 99c6 903d ea69 adbd 6905 0bbe
00000300: 1a32 08be 7ff7 d43d 5de1 0c3e bbd7 ecbd
00000310: 1d53 263e a26b 223e 33c2 463d 4754 e13d
00000320: 1174 e43d 87ea 22bc 73d4 9c3c 9e93 12be
00000330: 23f1 3c3e 2cee c2bd 0866 a53d 22cb 803d
00000340: ef04 87bc d6e1 55bd 94cb c1bd 7b22 32be
00000350: 12f5 0e3e 77b3 ec3d 9369 0fbe df87 f13c
00000360: 6b2b f3bd aa3f 1abd c4d9 aa3d 98c1 703b
00000370: 7f71 d6bd 985c e53d 3108 543d c0df a5bb
00000380: 2eba f1bc fb0e 3a3e 2e4c 313c deab 883d
00000390: 56e5 d5bd 1be7 84bc 2a5c df3c dae3 5a3d
000003a0: 70e9 a1ba 0ca1 103d 6415 a4bd 1cae 0bbe
000003b0: 1966 47bd 326e 8f3d a65b 973d fae9 2cbe
000003c0: a5ff 9abd e859 0b3e 37cd b73d d3f4 87bd
000003d0: ae82 0b3e ec76 2ebe 5cbc 0f3e 378a 043e
000003e0: bbfa 8c3d 89f2 4fbd 03c4 443d 667f c7bd
000003f0: 25da 24bc af37 243e 84e5 38be c589 8c3c
-0.009683934 0.02693353 -0.08225461 0.042013198 0.0033895436 -0.15156578 -0.08473374 -0.0012477994
0.10053075 0.027606491 -0.06853368 -0.0011486578 -0.12489865 0.017389247 -0.14424902 -0.016973488
-0.07010719 0.09131093 0.02232255 -0.004100556 -0.13360962 0.030345326 -0.11167586 -0.13391207
0.13306631 0.03553932 -0.13730729 0.16958307 -0.161852 -0.09033001 0.1580097 0.03134714
0.07184042 0.119942345 -0.16968542 0.01595484 -0.09371846 0.07750607 -0.005579985 0.014684401
-0.03470119 -0.029517336 -0.069497615 0.1819196 0.00076246884 -0.15856323 0.060821205 -0.15360752
0.14788225 -0.0574335 -0.017189203 -0.08325878 0.14910196 0.13503881 0.03320796 0.18689498
-0.09042345 -0.11857967 0.008123706 0.04881333 0.15131314 0.10971804 -0.16849332 0.10239706
-0.09138975 0.11732191 -0.03884215 -0.064825855 0.17517738 -0.14103267 0.026634162 -0.09583051
0.072116695 0.064904034 -0.14012113 -0.18032968 0.13521652 0.17263068 0.1619421 0.040838495
0.06127558 0.06236337 -0.07088237 -0.122756876 -0.116979696 0.11630225 0.016703298 0.04333018
0.17200536 -0.114975706 -0.041066237 0.014130582 0.09052108 0.11058308 0.06787261 -0.029383428
-0.10489227 0.13079725 0.17783923 -0.17641768 0.096456885 -0.15240902 0.023983039 0.1106233
0.03402599 0.15770285 0.074401364 0.16459878 -0.15483686 0.11458174 -0.175871 -0.18168752
0.14968164 0.007399926 0.015347043 0.14119539 0.14463809 -0.020705966 -0.07499869 0.12251614
-0.06225505 0.1500924 -0.09951014 -0.12017081 -0.09053837 0.13734303 -0.07436817 -0.18038978
0.102699 0.16731676 -0.02002462 -0.054334525 0.17611413 -0.11211286 0.14197944 -0.16958085
-0.11989502 -0.15722495 0.07128555 0.14648576 0.1030522 0.011678615 0.035479847 -0.042214468
0.0024707587 -0.14034379 0.14421332 -0.17319031 0.11730332 -0.019127637 -0.029190127 -0.0032305857
-0.06530395 0.1362793 0.032923058 -0.010509359 0.04228558 0.10596542 0.0022990895 0.1137627
0.093805306 0.14577469 0.07568283 -0.16486326 0.1790569 -0.023239195 0.15571378 -0.057212945
-0.149835 -0.059599906 -0.18399459 0.11091842 0.038512845 -0.058246978 0.08173226 -0.01322061
-0.078920804 0.06675983 -0.045262918 -0.14838493 -0.06624751 -0.124172494 -0.06589593 -0.021979552
-0.15040407 -0.07033955 -0.13800107 0.17975722 -0.06295074 0.070691295 -0.08467467 -0.13576283
-0.13300362 0.10398769 0.13757844 -0.11564585 0.16242643 0.15861371 0.048525047 0.11002403
0.111549504 -0.009943611 0.019144272 -0.14314124 0.18451361 -0.09518084 0.080761015 0.062887445
-0.016481845 -0.052217327 -0.094626576 -0.17395966 0.13960674 0.11557668 -0.14005117 0.029483734
-0.11873516 -0.03765837 0.08342317 0.0036736485 -0.104708664 0.111993015 0.051765624 -0.0050620735
-0.029507723 0.18169777 0.010821385 0.06673406 -0.10444133 -0.01622348 0.027265627 0.053439952
-0.0012352895 0.035309836 -0.080118924 -0.13640636 -0.048681352 0.0700344 0.073905274 -0.1688613
-0.075682916 0.13608515 0.089746885 -0.066384934 0.13624069 -0.17037553 0.14036697 0.1294335
0.068837605 -0.05076841 0.048038494 -0.09741096 -0.010061775 0.16036867 -0.18056303 0.017155537

bias f4 [128]
00000000: 6d2f 2dbc d54d c1bd 321f 8f3d c21c 30bd
00000010: fb48 ffbb 3c8f e53d c430 09be f2dc 8f3d
00000020: f494 8c3c 720f cb3d 7e4f a43d abc1 94bd
00000030: d002 1e3e 2fa2 bf3d 9e18 8b3c c104 a73d
00000040: 3c9f b63d e61c 16ba 28e6 bf3d 21f7 07be
00000050: e895 9f39 4336 f0bd afdd 13be f2f3 be3d
00000060: d79c 393d f23f aa3d a124 d1bb e89d 373c
00000070: 5c83 dabd cbdc 993c e05f 043e 565a e83d
00000080: b7e5 3e3d aa12 e43d 1d14 e73d 0ba1 d03d
00000090: dbc7 0cbe 0da4 023e 921b 803d f4d6 9abc
000000a0: 9a98 bdbd 2313 00bd 8b8c 323d fe59 06be
000000b0: 2dbb afbd a423 8abc 5e52 163a 411e 9c3d
000000c0: bb60 103d 5471 a9bd 5544 0b3e f05b 153d
000000d0: d3ef 10be 0ad6 86bb 63a1 08be f398 a43d
000000e0: 1d47 53bd ce4c a2bd a65b 44bd 4551 fb3c
000000f0: b468 c3bc 3949 0a3e 3541 d2bb 0558 753d
00000100: 4de4 d3bd 569f 0c3c 8153 08be df19 a7bd
00000110: 42cc 083e 6053 03be 8e9d 193d 6bbc cdbd
00000120: c806 c6bd 8794 01bc 284d 22bc 883f 333d
00000130: fd08 233a f4e4 c9bd 1faf aabd 3a5d d13d
00000140: a422 a3bd 972a bd3d fed7 22bd 19fa c0bd
00000150: 0366 2fbb e89d f83d 5417 003e faa2 b0bd
00000160: 4be3 35bc b74e 3d3d 5a04 37bd f639 d4bd
00000170: 552f f43d d60f 9d3d d476 3cbc 9b69 f83d
00000180: b01f 12be 4b43 e6bd c027 dcbc d583 0cbe
00000190: 4838 ca3d 6c08 fd3d ce4f c03c d7dd 283d
000001a0: 0796 28bd a14b 94bb a0dd b8bd f737 4fbd
000001b0: 9bb2 9cbd ab79 fbbd 47df e1bd 6ffe 3bbd
000001c0: 3dee 7cbd 0435 1cbc 60e2 03bd cb64 abbd
000001d0: 0975 10bd 730d 8d3d bbff 9ebd b47e 71bd
000001e0: 7462 013e 9cad cb3d 08de 113e 9222 14bc
000001f0: 7fa2 eabd ed82 ef3d c726 8d3d 78b2 35bd
-0.010570389 -0.094386734 0.06988372 -0.042996176 -0.0077906824 0.112089604 -0.13397509 0.07024564
0.01716087 0.09915055 0.080229744 -0.07263502 0.1543076 0.09357106 0.016979512 0.081552036
0.0891709 -0.0005726352 0.09370071 -0.13277866 0.00030438532 -0.117290996 -0.14440034 0.093238726
0.04531559 0.08312978 -0.0063825403 0.011207081 -0.10669586 0.01878204 0.12927198 0.11345355
0.046605792 0.111363724 0.11283133 0.101869665 -0.13748114 0.12757893 0.062552586 -0.018901326
-0.09257622 -0.03126825 0.043591063 -0.13120267 -0.08580623 -0.016862698 0.00057343196 0.07622958
0.0352485 -0.08273569 0.13600285 0.03646463 -0.14153986 -0.004114871 -0.13342814 0.08036985
-0.05158149 -0.079248056 -0.047938965 0.0306784 -0.023853637 0.13504495 -0.0064164647 0.059898395
-0.10346279 0.0085829105 -0.13313104 -0.081592314 0.13359168 -0.12824774 0.03750377 -0.100457035
-0.09669262 -0.007908947 -0.009906091 0.04376176 0.0006219296 -0.098581225 -0.08334183 0.1022286
-0.079655915 0.09236639 -0.039756767 -0.09422702 -0.0026763685 0.12139493 0.12508899 -0.08624835
-0.011101554 0.046217646 -0.044681884 -0.10362618 0.1192309 0.07669036 -0.01150294 0.12129518
-0.142699 -0.11243304 -0.026874423 -0.13722165 0.09874016 0.12355122 0.023475554 0.041227188
-0.041158702 -0.004525617 -0.090266466 -0.05059048 -0.07651254 -0.12279066 -0.11028915 -0.045896944
-0.06175064 -0.009534124 -0.03219831 -0.08368834 -0.035267863 0.06887331 -0.077636205 -0.058958724
0.12635213 0.09945223 0.14244854 -0.009041445 -0.11456775 0.11694894 0.06892162 -0.044359654
