data/train_data/regression/transformer/td_best_model.pt (torch, 319549 bytes, 39 tensors)

att_weights f4 [3]
0.99271 1.0052868 1.0012945
00000000: 3e22 7e3f 3dad 803f 6b2a 803f

weight f4 [48, 4]
0.14436644 0.044661134 0.0015791536 0.31660414 0.20248616 0.24826582 -0.29282373 -0.10146025
-0.29363203 0.06913844 0.11295808 0.25286797 -0.058387056 0.23137566 -0.24303287 -0.24378006
-0.2301439 0.25355893 -0.1635256 0.2683528 8.152253e-05 -0.0046111788 -0.0866374 -0.3145442
0.14921108 -0.2989979 -0.31053323 -0.12689567 -0.22356921 -0.1220979 -0.13267466 -0.20150974
0.32445794 -0.051808774 0.04846973 0.14230815 -0.01616406 -0.33286193 -0.047609977 -0.22092277
0.31592768 0.21894525 0.27420944 -0.25472662 -0.08153639 -0.14581102 0.103349626 0.07083375
-0.096901804 0.28727084 -0.21166022 0.20405877 -0.0083826035 -0.033353873 -0.06649087 -0.15895315
0.14194702 0.13764036 -0.198992 -0.11924292 0.32899132 -0.3332576 0.117506005 0.1880559
0.33581838 0.25234473 0.012844047 -0.1360479 -0.04871487 -0.06615937 -0.14025268 0.022302583
0.095171936 0.108070806 -0.31817123 -0.002592606 -0.083660014 0.21163787 0.03810873 -0.13142972
-0.040111363 0.18395858 0.0012461283 -0.18830918 -0.32761616 0.20167968 0.3361239 -0.24782236
-0.025473759 -0.09600652 0.036915537 0.20680654 0.16657639 0.02812329 0.10812791 -0.074952
-0.15489918 0.21202853 -0.19903651 0.052399304 0.018203165 0.30604348 0.25695527 0.13522783
-0.08873635 0.11600581 -0.24877873 0.050793603 0.049246494 0.29374245 0.13067843 -0.019878156
-0.11557753 -0.05752916 -0.14590955 0.112310626 0.3200027 -0.33482864 0.24940415 0.29417488
0.23006131 -0.31889483 -0.1429005 0.089542106 -0.11832164 0.33950052 -0.15246518 -0.22593059
0.13612849 0.25244498 -0.24905068 -0.17385365 0.007567754 0.25893572 0.3092369 -0.12732507
0.20464526 0.004780313 0.16587488 0.232835 -0.10279233 -0.048307043 -0.17821406 -0.14723785
-0.07078131 -0.23228669 0.30447575 -0.2614843 -0.111697994 0.21876472 0.28950047 -0.27948865
0.18623242 0.19453903 -0.054846995 0.041234054 0.12595148 -0.042085536 -0.2873429 -0.14721939
0.28220198 -0.33473623 0.16808449 0.31666222 0.10324384 -0.2350105 -0.30541947 -0.10667683
-0.25340635 -0.054697238 -0.18910073 -0.27086347 -0.11214212 -0.10506471 0.1701637 0.07021255
-0.25071573 0.26581657 0.010987906 -0.17972311 0.29983312 -0.28806362 0.25806993 -0.10716192
-0.045631554 0.27921855 -0.047959924 -0.050855804 0.030500026 0.065855026 -0.29742733 -0.035658788
00000000: ccd4 133e 98ee 363d 9afb ce3a f019 a23e
00000010: 8858 4f3e 6539 7e3e feec 95be 64ca cfbd
00000020: f056 96be 7498 8d3d 9156 e73d e977 813e
00000030: 4427 6fbd beed 6c3e 9cdd 78be 7ba1 79be
00000040: d8aa 6bbe 7ad2 813e 4173 27be 8a65 893e
00000050: 13f7 aa38 5f19 97bb f36e b1bd f00b a1be
00000060: caca 183e 4116 99be 36fe 9ebe f0f0 01be
00000070: 54ef 64be 770e fabd dedb 07be 9258 4ebe
00000080: 5a1f a63e 7035 54bd 3288 463d 3ab9 113e
00000090: 7e6a 84bc e16c aabe ae02 43bd 9439 62be
000000a0: 46c1 a13e 2f33 603e 2e65 8c3e 876b 82be
000000b0: 8dfc a6bd 7c4f 15be f8a8 d33d 4911 913d
000000c0: 7474 c6bd 2a15 933e 75bd 58be c8f4 503e
000000d0: 3057 09bc 129e 08bd 5e2c 88bd 9dc4 22be
000000e0: 8f5a 113e 98f1 0c3e 8fc4 4bbe a235 f4bd
000000f0: 8d71 a83e bda0 aabe fda6 f03d ba91 403e
00000100: 63f0 ab3e 5433 813e d66f 523c 2450 0bbe
00000110: 3e89 47bd 907e 87bd 669e 0fbe e8b3 b63c
00000120: 81e9 c23d 3a54 dd3d 57e7 a2be b6e8 29bb
00000130: f155 abbd 99b7 583e e617 1c3d 8395 06be
00000140: d04b 24bd a35f 3c3e 2155 a33a 1fd4 40be
00000150: 4ebd a7be 1e85 4e3e 6f18 ac3e 25c5 7dbe
00000160: 58ae d0bc 119f c4bd bf34 173d 18c5 533e
00000170: 0093 2a3e d062 e63c 2a72 dd3d 6f80 99bd
00000180: e49d 1ebe 021e 593e 3ad0 4bbe a7a0 563d
00000190: ce1e 953c bbb1 9c3e a48f 833e 2a79 0a3e
000001a0: 67bb b5bd 7494 ed3d dabf 7ebe f40c 503d
000001b0: b1b6 493d 6965 963e 91d0 053e 84d7 a2bc
000001c0: e9b3 ecbd b2a3 6bbd 5069 15be 1d03 e63d
000001d0: 65d7 a33e a96e abbe cd63 7f3e 179e 963e
000001e0: 3195 6b3e 2f46 a3be 8254 12be da61 b73d
000001f0: 9e52 f2bd 03d3 ad3e d51f 1cbe 595a 67be
00000200: 4465 0b3e 7840 813e 2407 7fbe b106 32be
00000210: ecfa f73b 3993 843e 4d54 9e3e 8161 02be
00000220: 878e 513e 2ca4 9c3b 1bdb 293e 4c6c 6e3e
00000230: c984 d2bd 9bdd 45bd bf7d 36be 85c5 16be
00000240: cbf5 90bd 90dc 6dbe 3fe4 9b3e 45e1 85be
00000250: ebc1 e4bd dc03 603e 6839 943e 2319 8fbe
00000260: b6b3 3e3e 3d35 473e 3ea7 60bd 0ae5 283d
00000270: 6df9 003e e261 2cbd 9c1e 93be aec0 16be
00000280: c77c 903e 8c62 abbe 571e 2c3e 8d21 a23e
00000290: 8271 d33d 98a6 70be f15f 9cbe 6279 dabd
000002a0: 7abe 81be 360a 60bd 9fa3 41be 9eae 8abe
000002b0: c5aa e5bd 2b2c d7bd 653f 2e3e 99cb 8f3d
000002c0: d05d 80be 1c19 883e 9e06 343c 5609 38be
000002d0: ba83 993e 137d 93be be21 843e b577 dbbd
000002e0: 27e8 3abd bcf5 8e3e a071 44bd 2d4e 50bd
000002f0: 31db f93c 00df 863d 6548 98be f30e 12bd

bias f4 [48]
0.2686728 -0.24359983 0.35422358 0.21566758 -0.1346607 0.45708576 0.48937282 0.019720355
-0.3149397 0.21115872 -0.15437551 0.22297524 -0.116763085 -0.37682724 0.15035895 0.46911183
-0.031747904 0.042668168 0.31572336 0.21799041 -0.1555942 0.14983411 0.04438431 -0.46378547
-0.28848258 0.004309118 -0.16737702 -0.29703876 -0.15527381 -0.33088923 0.47257113 0.13722183
0.29141247 0.29820544 0.09682702 0.27384728 -0.118620366 0.010199191 -0.26960528 0.16575843
0.24992737 0.1628125 0.40207422 0.1370682 0.10899721 -0.10068996 0.013694112 -0.17596188
00000000: 7b8f 893e 3c72 79be cb5c b53e f6d7 5c3e
00000010: 7fe4 09be 2507 ea3e 138f fa3e 958c a13c
00000020: c73f a1be fe39 583e 9d14 1ebe 9f53 643e
00000030: 7c21 efbd 80ef c0be b2f7 193e 6d2f f03e
00000040: 170a 02bd d1c4 2e3d 7ea6 a13e e138 5f3e
00000050: 1654 1fbe 1d6e 193e 52cc 353d 4a75 edbe
00000060: fdb3 93be 8033 8d3b e264 2bbe 7715 98be
00000070: 1900 1fbe 506a a9be d8f4 f13e e183 0c3e
00000080: 0434 953e 62ae 983e 3f4d c63d b635 8c3e
00000090: 3cef f2bd 821a 273c b409 8abe 94bc 293e
000000a0: f6ec 7f3e 52b8 263e acdc cd3e 9b5b 0c3e
000000b0: ee39 df3d 8a36 cebd 455d 603c 5a2f 34be

weight f4 [48, 1]
0.25406045 0.15078901 0.31443673 0.030592268 0.18543175 0.16147003 -0.3363088 0.21552777
0.17120585 0.29911742 -0.029578455 0.11309455 -0.098016076 -0.11375182 -0.2952279 0.33446205
0.17349069 -0.25694996 -0.2740368 -0.20635074 -0.08681173 -0.3377356 -0.20201825 0.15222988
0.138927 0.08060005 -0.11066333 -0.04987907 -0.086158045 -0.11702997 0.11725088 0.26552612
0.13922364 0.062421925 0.25889885 0.17360519 -0.053593658 0.2095009 -0.1443084 -0.22015828
0.29870272 -0.29925242 0.034859225 -0.28837553 -0.23457322 0.009796393 -0.33654466 0.0026766784
00000000: 3614 823e 6f68 1a3e dafd a03e a39c fa3c
00000010: d2e1 3d3e 6658 253e ab30 acbe 50b3 5c3e
00000020: 9650 2f3e eb25 993e 844e f2bc 1e9e e73d
00000030: a7bc c8bd b7f6 e8bd 1c28 97be 9c3e ab3e
00000040: 8ba7 313e f28e 83be 8d4e 8cbe 9c4d 53be
00000050: 59ca b1bd aeeb acbe dfdd 4ebe 26e2 1b3e
00000060: e142 0e3e a411 a53d 75a3 e2bd ff4d 4cbd
00000070: a173 b0bd 69ad efbd 3b21 f03d 0af3 873e
00000080: a490 0e3e 22ae 7f3d 648e 843e 8fc5 313e
00000090: 0685 5bbd 6787 563e 95c5 13be 2c71 61be
000000a0: 90ef 983e 9d37 99be 8cc8 0e3d f5a5 93be
000000b0: f633 70be 0d81 203c 954f acbe 366b 2f3b

bias f4 [48]
-0.39708862 0.088826396 0.37549636 -0.5875751 0.3683068 -0.7790099 0.30498806 -0.43907368
0.6079753 0.96450126 -0.16146335 -0.41789746 -0.7322642 0.04831126 -0.16311495 0.206636
0.80335695 0.6451703 0.074041784 0.4855426 -0.740678 0.86293405 -0.35527933 0.73365974
0.27733165 0.10311762 -0.3401858 0.53514874 -0.21775025 -0.6039293 0.42434233 0.13697599
-0.8454135 -0.052876763 -0.49142605 -0.2805311 0.6339428 0.05797537 0.09000903 0.5649952
0.40074414 0.53647524 0.7953545 -0.48995715 0.7842102 0.69590896 -0.5859214 -0.97298574
00000000: 334f cbbe 9dea b53d 0f41 c03e 526b 16bf
00000010: b592 bc3e 316d 47bf 6527 9c3e 44ce e0be
00000020: 45a4 1b3f 8ee9 763f a656 25be a8f6 d5be
00000030: ab75 3bbf 07e2 453d 9b07 27be 6398 533e
00000040: cda8 4d3f e129 253f 38a3 973d 0a99 f83e
00000050: 139d 3dbf 3fe9 5c3f 2ce7 b5be 20d1 3b3f
00000060: 6afe 8d3e 552f d33d d52c aebe 82ff 083f
00000070: ecf9 5ebe 1c9b 1abf 6643 d93e 6f43 0c3e
00000080: 056d 58bf 4e95 58bd 329c fbbe c6a1 8fbe
00000090: 134a 223f 9577 6d3d a856 b83d 87a3 103f
000000a0: 562e cd3e 7156 093f 5a9c 4b3f aadb fabe
000000b0: 00c2 483f 1727 323f f2fe 15bf 9815 79bf

weight f4 [48, 2]
0.08239142 -0.109086715 0.17685205 0.23852018 -0.16842362 0.063398756 0.057840105 0.27360997
-0.24790667 0.33032936 -0.2614809 0.2606964 -0.24097745 0.26098272 -0.2653506 0.06498029
0.28140298 -0.21249877 0.05412233 0.026625948 -0.13580427 0.13749024 -0.16676323 0.17963918
0.053887945 -0.020565499 -0.17312926 0.29144648 -0.007255932 0.3091109 -0.1802458 0.04229181
0.14805666 -0.29205227 0.0534039 0.16357592 -0.20580927 0.106358 -0.13784447 -0.14848283
-0.2815998 0.21089198 0.30280054 0.16923927 -0.09908134 0.2573518 0.106518336 0.32882914
-0.2172584 0.32631856 -0.28071144 0.33873647 0.13994518 0.021799745 0.15530723 -0.13859029
0.096254386 0.15750167 -0.27369475 -0.26654416 0.26249918 0.32641536 0.08751743 -0.05050228
-0.3234779 -0.20348793 -0.15380353 -0.1443861 -0.16879144 0.31875777 -0.21295078 -0.033250768
-0.034017324 -0.10635786 -0.10061678 -0.25789726 0.17937857 -0.105871946 0.30767256 -0.15092435
0.2725758 -0.13991463 0.19944984 0.04276434 -0.28866068 -0.2901195 -0.20833483 0.15368482
0.24023645 -0.31727427 0.1683247 0.24571663 -0.28670514 0.0027569078 -0.070597194 0.30801487
00000000: d5bc a83d db68 dfbd b418 353e a23e 743e
00000010: 3e77 2cbe 35d7 813d bfe9 6c3d 9b16 8c3e
00000020: 3fdb 7dbe ee20 a93e d3e0 85be 007a 853e
00000030: cbc2 76be 879f 853e 09dc 87be 6314 853d
00000040: 0d14 903e 4799 59be 60af 5d3d a91e da3c
00000050: 4610 0bbe 3eca 0c3e fbc3 2abe 55f3 373e
00000060: 9bb9 5c3d fa78 a8bc cc48 31be 7938 953e
00000070: 2bc3 edbb c943 9e3e 5b92 38be 2d3a 2d3d
00000080: 2a9c 173e e087 95be 0cbe 5a3d 7280 273e
00000090: aabf 52be 39d2 d93d 1a27 0dbe e20b 18be
000000a0: d92d 90be 11f4 573e ac08 9b3e 0f4d 2d3e
000000b0: 28eb cabd 9dc3 833e 4926 da3d 4b5c a83e
000000c0: fc78 5ebe 3a13 a73e 69b9 8fbe de6e ad3e
000000d0: ca4d 0f3e 6195 b23c dc08 1f3e 9dea 0dbe
000000e0: 0521 c53d 1e48 213e b821 8cbe 7a78 88be
000000f0: 4b66 863e ea1f a73e 573c b33d 7bdb 4ebd
00000100: e59e a5be 245f 50be ac7e 1dbe f3d9 13be
00000110: aad7 2cbe 3834 a33e c50f 5abe f531 08bd
00000120: c055 0bbd 26d2 d9bd 2c10 cebd 1c0b 84be
00000130: 04af 373e 64d3 d8bd 4287 9d3e ea8b 1abe
00000140: 0e8f 8b3e c845 0fbe 943c 4c3e a929 2f3d
00000150: 55cb 93be 8b8a 94be ba55 55be 8e5f 1d3e
00000160: 8b00 763e c671 a2be 4f5d 2c3e 249d 7b3e
00000170: 04cb 92be 3dad 343b 4395 90bd 20b4 9d3e

bias f4 [48]
0.6932908 0.23311958 -0.1572488 0.3195875 0.0793775 -0.50241685 0.020391403 0.7022898
0.22329517 0.59967285 0.4988451 -0.50961244 -0.6838694 0.16118774 -0.40199092 0.29563227
0.49115488 0.5421548 0.34977728 0.6702128 0.47042716 -0.20554574 -0.3755955 -0.45268413
0.04946038 -0.08649401 -0.29090697 -0.56546634 0.15190537 -0.5019903 -0.0010765841 -0.6279236
-0.41700464 0.18142621 0.3659116 -0.56565 -0.2987064 -0.006408221 -0.32393238 -0.48595434
-0.46322778 -0.3445324 -0.050977103 -0.03903405 -0.69865865 -0.32080856 0.3112242 0.708013
00000000: 827b 313f e6b6 6e3e d405 21be f9a0 a33e
00000010: ac90 a23d 649e 00bf df0b a73c 44c9 333f
00000020: 7da7 643e 2984 193f a068 ff3e f675 02bf
00000030: 1112 2fbf 660e 253e c1d1 cdbe 1d5d 973e
00000040: a778 fb3e a8ca 0a3f 0216 b33e 1193 2b3f
00000050: d4db f03e 957a 52be 0e4e c0be 37c6 e7be
00000060: f896 4a3d c623 b1bd c2f1 94be 67c2 10bf
00000070: 158d 1b3e 7082 00bf 2b1c 8dba 9abf 20bf
00000080: a281 d5be cbc7 393e c458 bb3e 70ce 10bf
00000090: 0cf0 98be 0efc d1bb 77da a5be 02cf f8be
000000a0: 312c edbe 8d66 b0be 5ecd 50bd 2be2 1fbd
000000b0: 4bdb 32bf 0541 a4be c758 9f3e 5740 353f

weight f4 [48]
1.0003289 0.99813217 1.0037068 0.9981591 0.9975456 0.99567705 1.0045115 0.9969886
0.9987222 0.9946046 0.99322474 1.00373 1.0036967 0.9946455 0.998608 1.0022358
0.9990055 1.0005529 0.9951188 0.9985555 1.0047361 1.0066688 1.0060252 0.9969969
0.9983204 0.9961818 0.9979359 0.9935129 1.0074519 1.0041329 1.0016451 0.99874705
1.0015454 1.0010887 1.0009195 0.9944438 0.9954308 0.9982424 1.0002629 0.9974858
0.9976891 0.99389637 0.99344313 0.99455965 1.0010167 1.002465 0.9957572 0.99332595
00000000: c70a 803f 9785 7f3f 7779 803f 5b87 7f3f
00000010: 265f 7f3f b1e4 7e3f d593 803f a53a 7f3f
00000020: 42ac 7f3f 689e 7e3f fa43 7e3f 3a7a 803f
00000030: 2279 803f 16a1 7e3f c6a4 7f3f 4349 803f
00000040: d3be 7f3f 1e12 803f 1bc0 7e3f 55a1 7f3f
00000050: 319b 803f 86da 803f 6fc5 803f 303b 7f3f
00000060: ed91 7f3f c505 7f3f ba78 7f3f dd56 7e3f
00000070: 2ff4 803f 6d87 803f e835 803f e3ad 7f3f
00000080: a432 803f ad23 803f 211e 803f de93 7e3f
00000090: 8ed4 7e3f d08c 7f3f 9d08 803f 3b5b 7f3f
000000a0: 8e68 7f3f fe6f 7e3f 4a52 7e3f 769b 7e3f
000000b0: 5121 803f c650 803f f2e9 7e3f 9c4a 7e3f

bias f4 [48]
-0.00013148347 -0.0028402628 0.008227614 0.005549633 -0.0025289992 0.0036969874 0.008245543 0.0024884888
0.0027139497 -0.004514864 -0.008591844 -0.0046400786 -0.0041120285 0.0058875955 -0.00065803167 0.0027254338
0.00065493234 0.0024025857 -0.0048683397 -0.00037303267 -0.006270261 0.00915768 -0.0070826793 0.0023866673
0.0052702096 -0.0030750858 0.0015700678 0.0069083893 -0.008463682 -0.0051593683 0.0014060746 -0.0026004864
-0.0036050936 0.004767277 -0.007754648 0.0031733308 -0.0071167215 0.012016767 -0.0015937727 -0.0040094187
-0.0030394036 -0.0040632077 -0.0024921421 0.0060948962 -0.0028724633 0.0017280228 0.0025211403 0.0067916512
00000000: d3de 09b9 b423 3abb 1dcd 063c b2d9 b53b
00000010: 91bd 25bb 2849 723b 5018 073c ea15 233b
00000020: 85dc 313b 6df1 93bb cec4 0cbc cd0b 98bb
00000030: 32be 86bb bbec c03b c27f 2cba 319d 323b
00000040: c4af 2b3a b374 1d3b 9886 9fbb 9993 c3b9
00000050: c376 cdbb 180a 163c d215 e8bb a269 1c3b
00000060: b9b1 ac3b 6187 49bb bcca cd3a c55f e23b
00000070: 41ab 0abc eb0f a9bb 094c b83a ec6c 2abb
00000080: 6f43 6cbb d136 9c3b b41a febb a8f7 4f3b
00000090: 6333 e9bb f9e1 443c 23e6 d0ba 7161 83bb
000000a0: bb30 47bb a824 85bb 3553 23bb b2b7 c73b
000000b0: f03f 3cbb d37e e23a b739 253b 808c de3b

pe f4 [1, 150, 48]
0.0 1.0 0.0 1.0 0.0 1.0 0.0 1.0
0.0 1.0 0.0 1.0 0.0 1.0 0.0 1.0
0.0 1.0 0.0 1.0 0.0 1.0 0.0 1.0
0.0 1.0 0.0 1.0 0.0 1.0 0.0 1.0
0.0 1.0 0.0 1.0 0.0 1.0 0.0 1.0
0.0 1.0 0.0 1.0 0.0 1.0 0.0 1.0
0.84147096 0.54030234 0.62979716 0.7767596 0.44767085 0.8941984 0.3109836 0.9504153
0.21378067 0.9768817 0.14625347 0.98924714 0.099833414 0.9950042 0.06807652 0.99768007
0.04639923 0.99892294 0.031617504 0.99950004 0.021542681 0.9997679 0.014677466 0.9998923
0.009999833 0.99995 0.0068128672 0.9999768 0.0046415734 0.9999892 0.0031622727 0.999995
0.0021544332 0.9999977 0.0014677987 0.9999989 0.0009999998 0.9999995 0.0006812922 0.99999976
0.00046415895 0.9999999 0.00031622782 0.99999994 0.00021544348 1.0 0.00014677992 1.0
0.9092974 -0.41614684 0.978402 0.20671105 0.8006131 0.59918165 0.5911271 0.8065784
0.41767687 0.9085956 0.28936163 0.95721984 0.19866931 0.9800666 0.13583718 0.9907312
0.09269851 0.9956942 0.063203394 0.9980007 0.043075364 0.99907184 0.029351769 0.9995691
0.019998666 0.9998 0.013625418 0.9999072 0.009283047 0.9999569 0.006324514 0.99998003
0.004308856 0.9999907 0.0029355944 0.9999957 0.0019999985 0.99999803 0.0013625841 0.9999991
0.00092831784 0.9999996 0.0006324556 0.9999998 0.00043088695 0.99999994 0.00029355983 0.99999994
0.14112 -0.9899925 0.89016926 -0.45563003 0.98414314 0.17737612 0.8126489 0.58275366
0.60226107 0.7982992 0.42624688 0.9046069 0.2955202 0.9553365 0.20296758 0.97918546
0.1387981 0.9903207 0.094726086 0.99550337 0.06458805 0.997912 0.044019748 0.99903065
0.0299955 0.99955004 0.020437337 0.99979115 0.01392432 0.9999031 0.009486692 0.999955
0.006463259 0.99997914 0.0044033835 0.9999903 0.0029999954 0.9999955 0.0020438754 0.9999979
0.0013924765 0.99999905 0.00094868336 0.9999996 0.00064633036 0.9999998 0.00044033973 0.9999999
-0.7568025 -0.6536436 0.40449303 -0.91454107 0.9594254 -0.28196275 0.95358074 0.30113748
0.75899875 0.6510921 0.5539654 0.8325397 0.38941833 0.921061 0.26915625 0.9630965
0.18459873 0.98281395 0.12615407 0.99201065 0.08607077 0.996289 0.058678247 0.99827695
0.039989334 0.9992001 0.027248306 0.9996287 0.018565293 0.9998276 0.012648775 0.99992
0.008617632 0.99996287 0.0058711637 0.9999828 0.003999989 0.999992 0.0027251658 0.9999963
0.0018566349 0.9999983 0.0012649109 0.9999992 0.0008617738 0.99999964 0.0005871196 0.9999998
-0.9589243 0.2836622 -0.2617815 -0.96512717 0.73169005 -0.68163747 0.99994653 -0.010342338
0.88064283 0.47378072 0.66977054 0.74256814 0.47942552 0.87758255 0.3340961 0.94253904
00000000: 0000 0000 0000 803f 0000 0000 0000 803f
00000010: 0000 0000 0000 803f 0000 0000 0000 803f
00000020: 0000 0000 0000 803f 0000 0000 0000 803f
00000030: 0000 0000 0000 803f 0000 0000 0000 803f
00000040: 0000 0000 0000 803f 0000 0000 0000 803f
00000050: 0000 0000 0000 803f 0000 0000 0000 803f
00000060: 0000 0000 0000 803f 0000 0000 0000 803f
00000070: 0000 0000 0000 803f 0000 0000 0000 803f
00000080: 0000 0000 0000 803f 0000 0000 0000 803f
00000090: 0000 0000 0000 803f 0000 0000 0000 803f
000000a0: 0000 0000 0000 803f 0000 0000 0000 803f
000000b0: 0000 0000 0000 803f 0000 0000 0000 803f
000000c0: a46a 573f 4151 0a3f 633a 213f b8d9 463f
000000d0: 1d35 e53e 30ea 643f 3e39 9f3e 6b4e 733f
000000e0: 52e9 5a3e eb14 7a3f 78c3 153e 4d3f 7d3f
000000f0: 7675 cc3d 98b8 7e3f b46b 8b3d f667 7f3f
00000100: 1e0d 3e3d 6ab9 7f3f 5b81 013d 3cdf 7f3f
00000110: 477a b03c caf0 7f3f c179 703c f1f8 7f3f
00000120: 57d6 233c b9fc 7f3f 793e df3b 7bfe 7f3f
00000130: 5718 983b 4bff 7f3f 223e 4f3b acff 7f3f
00000140: 6431 0d3b d9ff 7f3f 2763 c03a eeff 7f3f
00000150: 6d12 833a f8ff 7f3f bf98 323a fcff 7f3f
00000160: 5c5a f339 feff 7f3f 61cb a539 ffff 7f3f
00000170: abe8 6139 0000 803f efe8 1939 0000 803f
00000180: b7c7 683f 3311 d5be 8e78 7a3f 10ac 533e
00000190: fbf4 4c3f f863 193f 1b54 173f ec7b 4e3f
000001a0: bed9 d53e b999 683f 3527 943e 5c0c 753f
000001b0: f86f 4b3e a5e5 7a3f e718 0b3e 8fa0 7d3f
000001c0: b7d8 bd3d d1e5 7e3f c870 813d f97c 7f3f
000001d0: cb6f 303d 2cc3 7f3f 1f73 f03c c3e3 7f3f
000001e0: 3ed4 a33c e5f2 7f3f 253d 5f3c ebf9 7f3f
000001f0: ec17 183c 2dfd 7f3f de3d cf3b b1fe 7f3f
00000200: 4e31 8d3b 64ff 7f3f 1a63 403b b8ff 7f3f
00000210: 6812 033b dfff 7f3f bc98 b23a f1ff 7f3f
00000220: 5b5a 733a f9ff 7f3f 60cb 253a fdff 7f3f
00000230: abe8 e139 ffff 7f3f efe8 9939 ffff 7f3f
00000240: c381 103e 2670 7dbf 22e2 633f 5748 e9be
00000250: cef0 7b3f 16a2 353e c209 503f 582f 153f
00000260: c82d 1a3f 565d 4c3f 083d da3e 5194 673f
00000270: 6c4e 973e ef90 743f bcd6 4f3e e6ab 7a3f
00000280: 1721 0e3e a885 7d3f c0ff c13d 4fd9 7e3f
00000290: bd46 843d 2977 7f3f 0d4e 343d 79c0 7f3f
000002a0: 1fb9 f53c 83e2 7f3f 346c a73c 50f2 7f3f
000002b0: d522 643c a6f9 7f3f 126e 1b3c 0dfd 7f3f
000002c0: bfc9 d33b a2fe 7f3f 424a 903b 5dff 7f3f
000002d0: 929b 443b b5ff 7f3f 8af2 053b ddff 7f3f
000002e0: c283 b63a f0ff 7f3f 10b1 783a f9ff 7f3f
000002f0: 7f6e 293a fdff 7f3f 66dd e639 feff 7f3f
00000300: cfbd 41bf 3055 27bf b619 cf3e 5d1f 6abf
00000310: e79c 753f 6c5d 90be de1d 743f b12e 9a3e
00000320: be4d 423f f9ad 263f add0 0d3f 5221 553f
00000330: d761 c73e a7ca 6b3f d9ce 893e 7e8d 763f
00000340: 7307 3d3e b299 7b3f 882e 013e 69f4 7d3f
00000350: df45 b03d cc0c 7f3f 9a58 703d 148f 7f3f
00000360: dbcb 233d 94cb 7f3f d737 df3c abe7 7f3f
00000370: 3e16 983c b4f4 7f3f cf3c 4f3c c2fa 7f3f
00000380: f830 0d3c 91fd 7f3f e462 c03b dffe 7f3f
00000390: 5712 833b 7aff 7f3f b298 323b c2ff 7f3f
000003a0: 545a f33a e3ff 7f3f 5ecb a53a f3ff 7f3f
000003b0: a9e8 613a faff 7f3f eee8 193a fdff 7f3f
000003c0: 107c 75bf 2c3c 913e 3a08 86be 9312 77bf
000003d0: 0a50 3b3f cb7f 2ebf 7ffc 7f3f e972 29bc
000003e0: cf71 613f 6393 f23e 1576 2b3f f218 3e3f
000003f0: 4377 f53e 40a9 603f a50e ab3e 3d4a 713f

in_proj_weight f4 [144, 48]
-0.114402905 -0.15400906 0.1677796 0.09030163 0.05767072 0.12650593 -0.0046346323 0.007933035
0.14773901 -0.060345583 -0.0054362947 0.09079431 0.056224637 -0.071196854 0.17586143 -0.11297488
0.00679672 0.13471346 0.054094568 0.004349713 -0.04038155 0.030222794 0.015751883 0.105395794
-0.108856276 -0.06014452 0.11230141 -0.1697574 -0.10858515 -0.16405724 -0.13672617 0.15705536
0.011609425 -0.16059776 -0.12528075 0.020360863 0.112338066 -0.15125681 0.108932965 0.10872086
0.064520776 0.0045517525 0.15594825 0.09704416 0.037019096 0.09778878 -0.06477034 -0.1749632
0.14226352 -0.1231122 -0.048773643 -0.15271363 -0.07171758 0.11748867 0.010863738 0.14490023
-0.16323206 0.07121644 0.055815715 0.08921138 -0.03844331 -0.0031275167 -0.13109194 0.15886463
0.038681217 0.1540976 -0.15985872 0.10341635 0.15397674 0.11918158 0.10928962 0.14022428
0.12590511 0.17027846 0.1619643 0.10098921 0.14471585 0.13650532 -0.13003698 0.11631473
0.019800724 -0.12533784 0.15888147 -0.0702445 -0.042628143 -0.04845662 -0.17532629 0.008924239
0.12463966 0.1574492 0.103856154 0.0821016 -0.08019563 0.031864278 0.12007128 -0.032246444
0.000499727 -0.0034896948 -0.1260625 -0.1417538 0.08596189 0.14955999 -0.15029714 -0.1388968
0.032346293 -0.0799065 -0.16540395 0.066218525 0.13593881 0.0027028082 -0.12701838 -0.04505904
0.031337637 0.071195625 0.08632205 -0.03017459 -0.09646198 0.1630826 0.111187994 -0.15409164
-0.06896455 0.12172661 -0.002046273 -0.0820915 0.16665885 0.058166772 0.07206649 -0.113237135
-0.06791631 0.022849832 0.17634754 0.01968383 -0.025348097 0.011311865 -0.01254124 -0.11109904
0.07499603 -0.007817383 0.08034447 0.03923835 -0.0453897 0.05013661 0.015550522 -0.009291016
0.12602371 0.06684335 0.028154645 0.1399317 0.089880385 -0.07781939 0.15159577 -0.048340738
0.076632425 0.020625172 0.08770911 0.040724598 -0.092171825 0.006372495 -0.17271674 0.11003092
0.08717315 -0.03010962 -0.091077134 -0.069036454 -0.093944274 -0.07043951 -0.072232746 0.030680124
0.07891321 -0.04120415 0.10275093 0.08729356 -0.14669318 0.11595759 -0.07960392 -0.09387134
-0.17208368 -0.07307422 0.15411511 0.15708667 0.019501476 -0.04302689 0.12200003 -0.15403074
-0.07130738 -0.04259992 0.05671021 -0.020703532 0.120777965 -0.14280938 0.071189806 0.17021033
-0.15123932 -0.033526476 -0.032819476 -0.14611132 -0.14549856 -0.16601565 0.059623916 0.10435636
0.15784535 0.1264425 0.12956417 -0.024724398 -0.16858347 -0.1398996 -0.008584159 0.051769335
-0.05432868 0.07071919 0.05806001 0.037998978 0.019008853 0.16360761 0.16320126 0.0691231
-0.047378715 0.17226313 -0.09403678 -0.008560945 0.08692855 -0.083685 0.14510573 -0.051544543
-0.05039177 -0.030144729 0.09626076 -0.12874083 -0.0068009086 -0.0729512 0.13534063 0.13727847
0.082816586 0.16371217 -0.09160983 -0.0045273565 -0.07718573 -0.092401914 -0.07657384 -0.008641543
0.0008018182 0.10473103 0.06426014 -0.019249849 -0.10022487 0.05507026 0.14099202 -0.010867111
0.018927965 0.039807696 -0.07463066 0.15014511 0.038392592 0.08128399 -0.1507386 -0.08911282
00000000: 124c eabd 8db4 1dbe 6ace 2b3e 10f0 b83d
00000010: 2238 6c3d c58a 013e 1dde 97bb 8ff9 013c
00000020: e548 173e ee2c 77bd f222 b2bb 5ef2 b93d
00000030: ce4b 663d a8cf 91bd 0515 343e 605f e7bd
00000040: 05b7 de3b 53f2 093e 4492 5d3d 0a88 8e3b
00000050: 2067 25bd cb95 f73c 180a 813c c0d9 d73d
00000060: 0af0 debd 1a5a 76bd 48fe e53d e2d4 2dbe
00000070: e461 debd 9ffe 27be f201 0cbe 1fd3 203e
00000080: 7535 3e3c bd73 24be 9949 00be d3cb a63c
00000090: 8011 e63d 11e3 1abe 3f18 df3d 0ba9 de3d
000000a0: 7823 843d de26 953b e6b0 1f3e 17bf c63d
000000b0: 56a1 173d 7c45 c83d 50a6 84bd 8e29 33be
000000c0: 87ad 113e 4022 fcbd dfc6 47bd f660 1cbe
000000d0: abe0 92bd e69d f03d d2fd 313c ba60 143e
000000e0: 4e26 27be edd9 913d 059f 643d 75b4 b63d
000000f0: bb76 1dbd 06f7 4cbb f73c 06be 69ad 223e
00000100: 3270 1e3d c3cb 1d3e 01b2 23be f4cb d33d
00000110: 14ac 1d3e 7915 f43d 3cd3 df3d f496 0f3e
00000120: 45ed 003e 7a5d 2e3e f8d9 253e 6ed3 ce3d
00000130: 6430 143e 0dc8 0b3e 6a28 05be 6b36 ee3d
00000140: 2135 a23c 9058 00be d3b1 223e 59dc 8fbd
00000150: d99a 2ebd 737a 46bd bc88 33be f936 123c
00000160: 1443 ff3d 5d3a 213e 89b2 d43d e224 a83d
00000170: 9b3d a4bd 1e84 023d eee7 f53d d914 04bd
00000180: 1c00 033a 5db3 64bb 8716 01be e827 11be
00000190: ca0c b03d 4126 193e 7ee7 19be f63a 0ebe
000001a0: 8c7d 043d 05a6 a3bd a75f 29be 949d 873d
000001b0: 8b33 0b3e 9921 313b 1b11 02be d48f 38bd
000001c0: e55b 003d 03cf 913d 9dc9 b03d b430 f7bc
000001d0: dc8d c5bd 20ff 263e 88b6 e33d 33ca 1dbe
000001e0: 493d 8dbd cd4b f93d c41a 06bb 971f a8bd
000001f0: 9ea8 2a3e 4840 6e3d 9997 933d dfe8 e7bd
00000200: b517 8bbd 922f bb3c 7394 343e fc3f a13c
00000210: d0a6 cfbc 6755 393c c679 4dbc e587 e3bd
00000220: 8597 993d 7b14 00bc a48b a43d 64b8 203d
00000230: 8dea 39bd 0c5c 4d3d 9ec7 7e3c 5839 18bc
00000240: 5c0c 013e 2be5 883d 92a4 e63c 414a 0f3e
00000250: 3513 b83d c65f 9fbd ec3b 1b3e f000 46bd
00000260: 76f1 9c3d 1ff6 a83c d5a0 b33d d6ce 263d
00000270: 95c4 bcbd 5dd0 d03b a8dc 30be e457 e13d
00000280: d687 b23d 73a8 f6bc a686 babd fc62 8dbd
00000290: db65 c0bd 9742 90bd c3ee 93bd e254 fb3c
000002a0: 409d a13d afc5 28bd 146f d23d f7c6 b23d
000002b0: bd36 16be 2c7b ed3d 6107 a3bd 9e3f c0bd
000002c0: b436 30be f0a7 95bd 5ad0 1d3e 54db 203e
000002d0: 8fc1 9f3c f73c 30bd 27db f93d 3cba 1dbe
000002e0: 9b09 92bd 417d 2ebd f748 683d 749a a9bc
000002f0: 705a f73d 9f3c 12be f6cb 913d 9e4b 2e3e
00000300: 7bde 1abe 0f53 09bd b76d 06bd 359e 15be
00000310: 93fd 14be 0200 2abe 3538 743d cab8 d53d
00000320: 36a2 213e 257a 013e 78ac 043e d28a cabc
00000330: 25a1 2cbe d741 0fbe 93a4 0cbc 150c 543d
00000340: c087 5ebd 39d5 903d 55d0 6d3d d1a4 1b3d
00000350: 74b8 9b3c c188 273e 3b1e 273e 6990 8d3d
00000360: 2f10 42bd bf65 303e 5b96 c0bd 3543 0cbc
00000370: 9807 b23d 0b63 abbd 9996 143e 5f20 53bd
00000380: 9a67 4ebd 14f2 f6bc 5d24 c53d a3d4 03be
00000390: 28da debb 7067 95bd bc96 0a3e ba92 0c3e
000003a0: be9b a93d 2aa4 273e ef9d bbbd 385a 94bb
000003b0: 8d13 9ebd 373d bdbd bfd2 9cbd 4295 0dbc
000003c0: 1c31 523a 397d d63d d29a 833d dcb1 9dbc
000003d0: b242 cdbd 5a91 613d 3660 103e f80b 32bc
000003e0: d20e 9b3c 650d 233d f6d7 98bd a4bf 193e
000003f0: 8d41 1d3d 3878 a63d 385b 1abe c880 b6bd

in_proj_bias f4 [144]
-0.0027008017 -0.00070989877 -0.0016833567 -0.00022648543 -0.0018907978 -0.0013170901 -0.0011633087 0.0015185884
-0.0012564637 -0.0020786228 -0.0022211946 3.2294185e-05 0.004198288 0.0027201383 0.0012533629 0.0020190133
-0.0007102127 -0.0013565458 -0.0023600268 -0.00046648915 -0.00074470707 0.0012376473 0.0023782828 0.0015070577
0.0019997736 -0.00095490325 -0.0024305957 0.0054449514 0.00010601326 -0.0022150346 -0.00072993035 -0.0017587573
-0.00066463987 -0.0013161576 0.0002902212 -3.7249403e-05 -0.0004892051 -0.002103361 -0.00071011443 0.0009217521
0.0016354368 -1.1152239e-05 0.0025136895 0.00043325164 -0.00053037645 6.433438e-05 -0.00015950394 0.000565809
0.00013008575 0.00011452688 -0.00034512018 6.013527e-05 -2.4338058e-06 1.721684e-05 -2.2139588e-05 -0.00025190492
0.0004374998 0.00033217217 -8.141378e-05 0.000449241 -0.00023957856 1.5512278e-05 0.00022671951 0.00028500607
-0.0004305752 -0.00032990339 -0.00022808963 2.9407727e-05 -4.8496673e-05 -0.0005317054 -0.00021409699 0.0003878054
9.193778e-05 6.260269e-05 -9.279591e-05 -0.00010268461 -8.905634e-06 0.00010783619 -0.00014664994 0.0002617071
-0.00037887192 -8.06659e-07 0.00022313434 -4.7710706e-05 -0.00053510425 0.0002895515 0.00048096053 0.0003475921
-0.00020822174 5.3220017e-05 -0.00030975087 9.5458076e-05 -0.00013395133 5.079076e-05 -0.00025123847 -0.00028314264
-0.007111942 -0.010151006 0.0019475057 0.000807863 0.0012251781 0.0064851977 -0.008760887 -0.002803803
-0.0029813664 0.0100208 0.008800446 -0.004109095 -0.00865589 0.005915108 -0.0020949324 -0.006786668
-0.0076436475 0.0029574006 -0.0037455822 -0.0020680055 0.0018698577 0.0076257573 -0.0058902125 0.010205026
0.0027653822 0.010269868 0.010176469 0.011415094 -0.006625145 -0.00011553979 0.0023818864 -0.002054752
-0.0048942207 0.00523754 0.007889068 -0.0077643013 -0.001306471 0.003501854 -0.008928068 0.00013434225
0.0010478968 0.0004994611 0.005397551 0.0048264484 0.002684829 -0.0046843695 0.0041822414 -0.011006755
00000000: efff 30bb 8018 3aba 14a4 dcba b87c 6db9
00000010: a5d4 f7ba 36a2 acba 2a7a 98ba 5f0b c73a
00000020: edaf a4ba 8139 08bb 7691 11bb 9e73 0738
00000030: cb91 893b 5944 323b e147 a43a 6c51 043b
00000040: 912d 3aba 20ce b1ba aeaa 1abb 1d93 f4b9
00000050: 7238 43ba 8d38 a23a f7dc 1b3b 7788 c53a
00000060: a20e 033b 7952 7aba a14a 1fbb 906b b23b
00000070: 7053 de38 1d2a 11bb cc58 3fba 1a86 e6ba
00000080: 3a3b 2eba ec82 acba d528 9839 3e3c 1cb8
00000090: 003e 00ba 8bd8 09bb f926 3aba bca1 713a
000000a0: 275c d63a 801a 3bb7 b6bc 243b 0d26 e339
000000b0: f608 0bba 42eb 8638 8340 27b9 cd52 143a
000000c0: a167 0839 272e f038 3ff1 b4b9 c139 7c38
000000d0: 7754 23b6 e26c 9037 67b8 b9b7 1b12 84b9
000000e0: 3b60 e539 6527 ae39 b1bc aab8 1b88 eb39
000000f0: 6137 7bb9 5d20 8237 8ebb 6d39 de6c 9539
00000100: d3be e1b9 e2f6 acb9 582b 6fb9 9db0 f637
00000110: e868 4bb8 2562 0bba 397f 60b9 5c52 cb39
00000120: b8ce c038 9049 8338 6d9b c2b8 6158 d7b8
00000130: 6869 15b7 1d26 e238 0bc6 19b9 bb35 8939
00000140: 54a3 c6b9 2f89 58b5 2bf9 6939 fb1c 48b8
00000150: 3d46 0cba f2ce 9739 6e29 fc39 063d b639
00000160: 1956 5ab9 8f38 5f38 0f66 a2b9 aa30 c838
00000170: 4975 0cb9 2a08 5538 a8b8 83b9 c372 94b9
00000180: 4b0b e9bb 6850 26bc 7343 ff3a c5c6 533a
00000190: 2896 a03a c881 d43b d389 0fbc 02c0 37bb
000001a0: 0763 43bb 482e 243c bf2f 103c 96a5 86bb
000001b0: 6fd1 0dbc 86d3 c13b 224b 09bb b362 debb
000001c0: 9077 fabb f3d0 413b 7178 75bb 6087 07bb
000001d0: 0316 f53a 7de1 f93b af02 c1bb fb32 273c
000001e0: 6a3b 353b f342 283c 34bb 263c 6006 3b3c
000001f0: bf17 d9bb f44d f2b8 6c19 1c3b 05a9 06bb
00000200: b35f a0bb ac9f ab3b 2641 013c ae6b febb
00000210: e43d abba 5c7f 653b 0847 12bc 39de 0c39
00000220: 9559 893a 44ee 023a f1dd b03b 2f27 9e3b
00000230: f5f3 2f3b 577f 99bb 2f0b 893b ad55 34bc

weight f4 [48, 48]
0.22298628 -0.04962824 0.06347264 0.086087056 -0.091982014 -0.18171476 0.0045058867 -0.2117882
-0.07773631 -0.054367952 -0.07752583 -0.04551059 0.23084365 0.23609725 0.09381577 -0.1531596
-0.2282518 -0.08257817 0.11581527 -0.12484349 0.25033483 0.2308669 0.003535434 0.18339907
-0.14822252 0.00048745328 -0.104618825 -0.008342698 -0.08376577 -0.18493512 -0.18802679 0.15351929
-0.22775428 -0.09203284 -0.106881976 -0.0161277 0.24462248 -0.12554164 0.036596883 -0.15399505
0.08569959 -0.21115214 0.111306675 0.18416925 0.03565987 -0.104421064 -0.12860072 -0.058333006
0.23429127 0.138805 -0.0988427 -0.16730666 -0.076547295 -0.11145846 -0.24424675 0.081014186
-0.119690955 0.09837224 0.1042852 -0.14994414 0.035569243 -0.0813965 0.23465896 0.18543032
0.23043777 -0.07681833 0.10388488 0.0071648355 0.09934079 -0.1775481 0.018353866 -0.12676232
0.16881356 -0.08875869 -0.18418904 0.15527177 0.060204513 0.20668922 -0.0982803 0.03840081
0.042946532 -0.18040098 -0.12561959 0.24407893 -0.08879968 -0.20639528 0.041767996 -0.19651268
0.2121493 0.1866012 -0.19766963 0.07980688 0.022692123 0.06787281 -0.0118414 0.117662914
0.18992485 -0.04059004 0.110163726 -0.08764391 -0.08316044 0.028073544 -0.03293574 -0.10766405
0.14824064 -0.07896006 -0.092319 -0.15270822 -0.069547005 -0.12581775 0.09361577 0.0013045216
0.029345354 0.02298487 0.16240345 0.08550907 0.25233024 0.20425151 -0.21001862 0.11578165
-0.1623745 0.12839235 0.1894111 0.23660505 0.13750969 -0.01703042 -0.13371198 -0.06335467
0.24568838 -0.13089582 -0.2163948 0.1618787 0.0460964 -0.060049783 -0.11629912 0.14239942
-0.011335456 0.1502257 0.22051911 -0.20116945 0.030636832 0.110670134 0.16621104 -0.25101462
-0.19292273 0.12897457 0.22070137 0.15306713 -0.07138637 -0.11236815 -0.11366229 0.029250322
-0.1890446 -0.032608658 0.09583791 -0.102289416 -0.027742814 -0.01228189 -0.17513499 0.05928138
0.06684416 -0.028320469 0.16459116 -0.017783493 0.017492298 -0.16311881 0.12679422 -0.08133416
-0.1285101 -0.06200145 0.19846874 0.019221192 -0.064034864 -0.2339575 -0.054277793 -0.23162085
-0.017680224 -0.19508255 0.17009069 -0.02459296 -0.19112045 0.16497491 -0.059709452 -0.090515345
-0.06870251 -0.06884746 0.09522679 -0.15250507 0.19526799 -0.20106837 -0.16849282 -0.1748574
0.059989177 -0.17427078 -0.11531976 0.074612185 0.12450049 -0.1359376 -0.16404021 0.17521161
0.049085733 0.13023049 -0.005996047 -0.20593119 -0.058596205 -0.119321845 0.03219994 0.23544438
-0.19045402 -0.11172943 -0.07202574 0.08960729 -0.22778079 0.11364975 -0.13743176 0.120105006
0.2469333 0.023414986 0.008877328 0.10828075 0.1098181 0.16254766 0.13957691 0.22434902
0.16803108 -0.02069162 -0.2245642 0.17536235 0.2406997 0.23333663 0.075094946 0.21805876
-0.15096922 0.23610525 -0.10628088 -0.08494068 -0.117854476 0.21100682 -0.2200117 0.039582424
-0.16042785 0.0075584427 -0.1815431 -0.0050733928 -0.16208385 -0.10340569 0.19201691 0.04085551
-0.1752119 -0.06823198 0.18961184 -0.22056311 -0.17156124 0.19138657 -0.19975446 -0.019103415
00000000: 8456 643e fb46 4bbd f2fd 813d 694e b03d
00000010: 1161 bcbd 6f13 3abe 1ea6 933b 02df 58be
00000020: 3734 9fbd eeb0 5ebd ddc5 9ebd 5069 3abd
00000030: 4762 6c3e 7ac3 713e 7b22 c03d dfd5 1cbe
00000040: d7ba 69be be1e a9bd 8e30 ed3d f2ad ffbd
00000050: e32b 803e 5f68 6c3e bdb2 673b f7cc 3b3e
00000060: a5c7 17be df90 ff39 6542 d6bd d0af 08bc
00000070: 638d abbd a25f 3dbe 188a 40be 2934 1d3e
00000080: 6b38 69be b77b bcbd f0e4 dabd 3d1e 84bc
00000090: 517e 7a3e fd8d 00be 9de6 153d e1b0 1dbe
000000a0: 4483 af3d 4438 58be c1f4 e33d dd96 3c3e
000000b0: 1510 123d b6da d5bd e8af 03be 97ee 6ebd
000000c0: 0dea 6f3e e622 0e3e 0b6e cabd 7052 2bbe
000000d0: d4c4 9cbd 5544 e4bd d21b 7abe c4ea a53d
000000e0: 8820 f5bd 6377 c93d 7b93 d53d f58a 19be
000000f0: 0eb1 113d 35b3 a6bd 704a 703e 72e1 3d3e
00000100: e1f7 6b3e ee52 9dbd 99c1 d43d ffc6 ea3b
00000110: 2f73 cb3d 2bcf 35be d95a 963c fbcd 01be
00000120: 76dd 2c3e 1ec7 b5bd 0d9c 3cbe 90ff 1e3e
00000130: 0299 763d 57a6 533e 2f47 c9bd 2b4a 1d3d
00000140: b4e8 2f3d 09bb 38be 6ca2 00be d4ef 793e
00000150: 9bdc b5bd 4959 53be eb14 2b3d 9f3a 49be
00000160: ab3d 593e 6314 3f3e e869 4abe ca71 a33d
00000170: d5e4 b93c e600 8b3d 6e02 42bc 41f9 f03d
00000180: a97b 423e be41 26bd 859d e13d a67e b3bd
00000190: 0550 aabd 7dfa e53c a0e7 06bd f87e dcbd
000001a0: 65cc 173e d0b5 a1bd be11 bdbd 8b5f 1cbe
000001b0: a96e 8ebd 5ed6 00be a0b9 bf3d 7bfc aa3a
000001c0: ab65 f03c c44a bc3c 174d 263e 611f af3d
000001d0: 6e31 813e 4f27 513e 1f0f 57be ee1e ed3d
000001e0: 8045 26be 4979 033e fcf4 413e 9848 723e
000001f0: 57cf 0c3e 6183 8bbc cbeb 08be 18c0 81bd
00000200: bc95 7b3e 8e09 06be 9996 5dbe 88c3 253e
00000210: 94cf 3c3d c3f6 75bd 3c2e eebd 27d1 113e
00000220: 59b8 39bc c4d4 193e c3cf 613e 5dff 4dbe
00000230: 18fa fa3c 06a7 e23d 3a33 2a3e fd84 80be
00000240: 898d 45be e911 043e 8aff 613e a1bd 1c3e
00000250: 0433 92bd 4621 e6bd c6c7 e8bd 5f9e ef3c
00000260: e894 41be a890 05bd ab46 c43d 1d7d d1bd
00000270: e644 e3bc fb39 49bc 9656 33be 08d1 723d
00000280: 97e5 883d 5400 e8bc 968a 283e b0ae 91bc
00000290: 024c 8f3c 9e08 27be 58d6 013e 8692 a6bd
000002a0: 2798 03be 3cf5 7dbd 643b 4b3e c375 9d3c
000002b0: b624 83bd 8e92 6fbe 6452 5ebd 042e 6dbe
000002c0: 1ed6 90bc b8c3 47be 412c 2e3e 2d77 c9bc
000002d0: 14b5 43be 2fef 283e e691 74bd 1c60 b9bd
000002e0: e7b3 8cbd e6ff 8cbd 4306 c33d 4a2a 1cbe
000002f0: 55f4 473e dee4 4dbe 6289 2cbe d10d 33be
00000300: 36b7 753d 0a74 32be c42c ecbd 46ce 983d
00000310: 1dfa fe3d 3a33 0bbe 28fa 27be ac6a 333e
00000320: 1f0e 493d 245b 053e 7d7a c4bb a0df 52be
00000330: 9302 70bd 035f f4bd 16e4 033d 5518 713e
00000340: 6106 43be 66d2 e4bd 3b82 93bd 0784 b73d
00000350: 5e3f 69be 33c1 e83d e9ba 0cbe 9df9 f53d
00000360: 15dc 7c3e c9d0 bf3c 3672 113c 4cc2 dd3d
00000370: 50e8 e03d e572 263e 40ed 0e3e c0bb 653e
00000380: 5710 2c3e 7981 a9bc 28f4 65be 3092 333e
00000390: fb79 763e ccef 6e3e 61cb 993d cc4a 5f3e
000003a0: ad97 1abe 93c5 713e caa9 d9bd 61f5 adbd
000003b0: b05d f1bd 2c12 583e bf4a 61be 2e21 223d
000003c0: 3347 24be d0ac f73b 6fe6 39be b43e a6bb
000003d0: 4ff9 25be 5dc6 d3bd 15a0 443e 1b58 273d
000003e0: c06a 33be 35bd 8bbd 9b29 423e 4cdb 61be
000003f0: c0ad 2fbe d7fa 433e 6f8c 4cbe c47e 9cbc

bias f4 [48]
0.0032396328 -0.0068822335 0.009175155 -0.001596946 -0.0006721748 0.005214074 0.01004173 0.006091374
0.0032473214 -0.0025565443 -0.012237059 -0.002479198 -0.004501712 -0.0019966154 0.004665696 0.0059634307
0.0040753093 0.00071083504 -0.0028041224 -0.0008787466 -0.005672549 0.011244893 -0.008383496 -0.0009166905
0.0050370586 0.0046943505 -0.008524384 0.00092504383 -0.009219906 -0.0057592974 0.00038561824 -0.002540347
-0.0059929593 0.0069471146 -0.009116304 0.0018386884 -0.010198168 0.011133979 -0.010570037 -0.0056827934
-0.003926129 -0.0086700795 0.0034124064 0.009498886 0.003756846 0.0043808916 0.0068450784 0.008120477
00000000: 0550 543b 5c84 e1bb 6453 163c 9e50 d1ba
00000010: e334 30ba d3da aa3b 1186 243c 269a c73b
00000020: 03d1 543b b28b 27bb f27d 48bc 0a7a 22bb
00000030: 1983 93bb a6d9 02bb b2e2 983b e268 c33b
00000040: 2c8a 853b 5557 3a3a 5ec5 37bb b05b 66ba
00000050: cae0 b9bb 803c 383c ee5a 09bc 0f4e 70ba
00000060: e90d a53b 11d3 993b dca9 0bbc a47e 723a
00000070: 170f 17bc 7db8 bcbb ce2c ca39 f37b 26bb
00000080: 9660 c4bb 9fa4 e33b 8d5c 15bc 2500 f13a
00000090: 3816 27bc 4b6b 363c f32d 2dbc ba36 babb
000000a0: c2a6 80bb f30c 0ebc aea2 5f3b 37a1 1b3c
000000b0: 6b35 763b 958d 8f3b ae4c e03b c00b 053c

weight f4 [128, 48]
0.040545024 0.075023055 0.09520234 0.041693766 -0.032955635 0.024489064 0.07402586 -0.14801498
0.0029936652 -0.025982307 0.03299451 0.043104008 -0.12928635 0.15265371 0.116080314 -0.027095294
0.041597582 -0.0037629115 0.046933226 0.15639143 0.13141647 0.080987744 -0.13449164 0.14250268
-0.17191032 0.04336126 0.039495546 0.16321507 -0.09476014 0.04388823 -0.025530323 -0.11936419
0.031103814 -0.15224417 0.0058416324 -0.13675877 -0.13659857 0.15632321 -0.0032290688 0.09531443
-0.033307362 0.006431965 -0.070712045 -0.031758364 -0.010050516 -0.040377922 0.07696585 -0.1483744
-0.16377282 -0.08420585 0.05436942 0.09076635 0.13594854 -0.07218564 0.123279735 0.026771385
0.12418688 0.07171875 0.16303381 0.086721696 0.08809855 0.11526259 0.030766178 -0.14103702
0.18480138 -0.14673607 0.16575953 0.16783749 0.14807117 0.071920015 -0.062234737 0.029221334
-0.12488475 -0.0071473634 -0.16795944 -0.09345503 0.13871467 -0.032297067 -0.099503346 -0.10468769
0.108034916 0.0022106515 0.008582292 0.15809934 -0.14267178 0.06903787 0.064251825 -0.14181694
0.13008882 0.037365243 -0.01089499 -0.13475892 0.10474192 0.025090728 0.044074837 0.16552565
0.006583317 0.08631932 0.092930906 0.11842866 0.07935089 -0.1275898 0.13030273 -0.052905098
-0.06982446 0.10129142 -0.07458136 0.13195436 0.061497502 0.016553523 0.12646128 0.081311494
0.10631921 0.14641134 -0.12631808 -0.011535662 -0.15546487 0.056143116 0.16915677 0.17615303
-0.096549705 0.07680577 -0.13807864 0.025270665 0.053278726 -0.13779733 -0.007640927 -0.15835425
-0.16481707 0.076729484 -0.012570788 0.13899651 -0.14171004 -0.16382438 -0.1570582 0.18593304
0.10246682 0.008172619 0.006079526 0.16127348 -0.17697765 -0.09276826 -0.12755011 -0.15677504
0.16646463 0.05090466 0.15981779 0.03140743 0.051801484 0.099538 -0.13902949 -0.10141962
0.117182314 -0.043335732 -0.08719679 0.13162081 -0.117437065 -0.009831604 -0.07221312 0.0128830075
-0.114155 0.16225071 0.13114645 0.004136709 0.13870414 0.07063693 0.04601937 -0.07462329
-0.06096669 -0.09340206 -0.18685067 0.07834768 0.030302525 -0.11044735 -0.07538984 0.13352688
0.024385156 0.031198854 -0.08088556 0.027215214 -0.173331 -0.023456449 0.14074464 0.09209135
0.18355581 0.059956074 -0.014293361 0.05290758 0.024295166 0.006499377 0.11819824 0.1438029
-0.100637734 -0.13786192 -0.107322864 -0.05890482 -0.17283839 -0.02046944 -0.110162355 0.0835983
-0.12538607 -0.16331017 -0.17088334 0.03732922 -0.019703083 -0.15757035 -0.13489167 -0.096967116
-0.10809389 0.056285754 -0.18158923 0.020548452 0.085800074 -0.15186512 -0.14790398 -0.012130817
0.008723619 -0.062355176 0.075948186 -0.16023958 0.07778033 0.01467407 -0.1169316 -0.08170917
0.088352196 -0.13163327 0.026447982 0.090175435 0.01375012 -0.095185235 -0.098107755 0.15772861
0.057093594 0.17687899 0.13156007 0.10587836 -0.06342032 0.07940864 0.17686908 -0.043668
-0.005133119 0.13164918 0.060426947 -0.00069372356 -0.10928262 -0.02246055 0.114028566 -0.041146293
-0.020088056 -0.006764714 0.17154934 -0.13996665 -0.014535074 0.10496204 -0.045075897 -0.034278188
00000000: 8a12 263d b0a5 993d 72f9 c23d 15c7 2a3d
00000010: 7dfc 06bd 4a9d c83c df9a 973d 3d91 17be
00000020: 5e31 443b d9d8 d4bc 4025 073d d48d 303d
00000030: a463 04be 4151 1c3e 84bb ed3d f3f6 ddbc
00000040: 3a62 2a3d 2e9b 76bb 0e3d 403d 1325 203e
00000050: 0a92 063e e7dc a53d 2db8 09be 39ec 113e
00000060: 4209 30be 949b 313d 15c6 213d da21 273e
00000070: 9b11 c2bd 25c4 333d f824 d1bc 3675 f4bd
00000080: 6dcd fe3c e5e5 1bbe 2a6b bf3b 7e0a 0cbe
00000090: 7fe0 0bbe 3113 203e c99e 53bb 3634 c33d
000000a0: 4d6d 08bd 3cc3 d23b 7ad1 90bd 0f15 02bd
000000b0: ebaa 24bc 5263 25bd 46a0 9d3d 75ef 17be
000000c0: 10b4 27be 1e74 acbd 78b2 5e3d b5e3 b93d
000000d0: 1836 0b3e 11d6 93bd 167a fc3d aa4f db3c
000000e0: b155 fe3d 48e1 923d 56f2 263e 259b b13d
000000f0: 036d b43d cb0e ec3d 5a09 fc3c 026c 10be
00000100: 933c 3d3e fb41 16be debc 293e 97dd 2b3e
00000110: f89f 173e cd4a 933d dae9 7ebd 9461 ef3c
00000120: 93c3 ffbd 6e34 eabb 8ffd 2bbe 5a65 bfbd
00000130: 380b 0e3e ee49 04bd 69c8 cbbd 8066 d6bd
00000140: 6941 dd3d 94e0 103b be9c 0c3c cbe4 213e
00000150: 8d18 12be ba63 8d3d 7696 833d 7638 11be
00000160: 0136 053e 4c0c 193d e680 32bc 3efe 09be
00000170: ef82 d63d 128b cd3c d187 343d 8e7f 293e
00000180: deb8 d73b 2fc8 b03d 8f52 be3d ba8a f23d
00000190: b882 a23d e7a6 02be 146e 053e 04b3 58bd
000001a0: 2000 8fbd e071 cf3d 1dbe 98bd 0b1f 073e
000001b0: cee4 7b3d 419b 873c 117f 013e a486 a63d
000001c0: e3bd d93d dbec 153e 8759 01be 1300 3dbc
000001d0: 2f32 1fbe 53f6 653d 6f37 2d3e 7661 343e
000001e0: dabb c5bd 584c 9d3d 7d64 0dbe 6d04 cf3c
000001f0: cb3a 5a3d be1a 0dbe be60 fabb 9e27 22be
00000200: cec5 28be 5924 9d3d b5f5 4dbc 1a55 0e3e
00000210: 701c 11be 94c1 27be ddd3 20be 3b65 3e3e
00000220: 20da d13d 73e6 053c c336 c73b e024 253e
00000230: a139 35be 49fd bdbd 7f9c 02be a389 20be
00000240: b475 2a3e 6881 503d 46a7 233e 14a5 003d
00000250: cb2d 543d 94da cb3d bf5d 0ebe 17b5 cfbd
00000260: 48fd ef3d cf80 31bd 3b94 b2bd 9bc7 063e
00000270: d882 f0bd bc14 21bc 79e4 93bd 4013 533c
00000280: 19ca e9bd 0d25 263e 414b 063e 3b8d 873b
00000290: 7508 0e3e 18aa 903d cf7e 3c3d 18d4 98bd
000002a0: 35b8 79bd 9449 bfbd c855 3fbe c074 a03d
000002b0: 003d f83c 3832 e2bd fd65 9abd 45bb 083e
000002c0: 61c3 c73c bd94 ff3c 54a7 a5bd 71f2 de3c
000002d0: af7d 31be bd27 c0bc 5d1f 103e 649a bc3d
000002e0: 0ef6 3b3e 8094 753d b42e 6abc 9eb5 583d
000002f0: a806 c73c baf8 d43b eb11 f23d 1141 133e
00000300: 281b cebd ad2b 0dbe 17cc dbbd 2e46 71bd
00000310: 8cfc 30be 87af a7bc cd9c e1bd 9635 ab3d
00000320: 3565 00be c83a 27be 0bfc 2ebe 86e6 183d
00000330: 5c68 a1bc 1f5a 21be 0b21 0abe b296 c6bd
00000340: 5460 ddbd e48b 663d 87f2 39be 3a55 a83c
00000350: f3b7 af3d 8882 1bbe 2474 17be 56c0 46bc
00000360: 83ed 0e3c 2468 7fbd b98a 9b3d d815 24be
00000370: 4b4b 9f3d 836b 703c d679 efbd 2357 a7bd
00000380: fff1 b43d dfca 06be 70a9 d83c e6ad b83d
00000390: 2f48 613c 7af0 c2bd b8ec c8bd 9c83 213e
000003a0: f9da 693d c41f 353e afb7 063e c1d6 d83d
000003b0: 83e2 81bd ffa0 a23d 2b1d 353e 37dd 32bd
000003c0: b933 a8bb 0bcf 063e 3f82 773d 00db 35ba
000003d0: 91cf dfbd 30ff b7bc cf87 e93d 0489 28bd
000003e0: b58f a4bc 89aa ddbb a1aa 2f3e 6b53 0fbe
000003f0: 8524 6ebc 57f6 d63d 81a1 38bd 4967 0cbd

bias f4 [128]
-0.13523516 -0.08171098 0.10921687 0.117445305 -0.00852848 0.086547576 0.009887987 0.090864494
-0.027510375 0.011001463 0.11366609 -0.00037183662 -0.15210275 -0.12090178 0.11186816 -0.13914967
-0.03459772 0.12966235 -0.10082246 0.09529866 -0.017002823 0.12061648 0.03626081 -0.12994283
-0.119931065 -0.0072014984 0.0333086 0.019310737 0.11483803 0.13394322 -0.10348976 -0.11749756
-0.023080638 0.07186392 0.071483694 -0.0540529 0.025768083 0.042499945 -0.077074334 0.11174348
-0.10302071 0.06993792 0.06549167 0.14102334 -0.015231806 -0.1138288 0.06827559 -0.051827364
-0.00064580917 0.023437612 -0.13915212 -0.12749101 -0.054015376 0.0731695 0.14719813 0.032893557
-0.12782884 -0.12905554 0.11030735 0.1158178 0.11500387 0.048665226 0.06430718 -0.02089092
0.039277744 -0.019376326 0.025722591 -0.14987385 -0.02173354 0.105930276 -0.018884964 0.11679476
-0.08991629 -0.14730395 0.024383355 -0.11504155 0.06631536 0.099000156 -0.01188681 -0.1224177
0.07808321 0.13746606 -0.015398706 -0.12866643 0.039357796 -0.0714174 0.025645636 0.089917704
0.021444976 0.12558721 -0.0055204174 -0.04261814 -0.06449583 -0.019508086 -0.0028421648 0.12622724
0.050578848 0.07276816 -0.11910644 -0.04110864 -0.09639918 -0.12010131 0.038657412 -0.14053853
-0.058740932 -0.07120887 0.06301456 -0.0021514734 0.08259911 0.07270181 -0.0899268 -0.1009115
-0.021191617 -0.026360592 -0.117276415 -0.058533337 -0.07723375 -0.031077592 -0.048713155 -0.028683685
0.10694493 -0.038734913 0.042446602 0.12615377 0.06740052 -0.027794003 -0.02671028 -0.0041259374
00000000: 167b 0abe 1658 a7bd 18ad df3d 2a87 f03d
00000010: 0abb 0bbc db3f b13d 3901 223c 2a17 ba3d
00000020: 705d e1bc 7b3f 343c c4c9 e83d 11f3 c2b9
00000030: d3c0 1bbe 5a9b f7bd 221b e53d 407d 0ebe
00000040: 57b6 0dbd 35c6 043e 027c cebd f22b c33d
00000050: 8149 8bbc c605 f73d 3786 143d bc0f 05be
00000060: 6b9e f5bd 8cfa ebbb 996e 083d 8d31 9e3c
00000070: 3330 eb3d 6928 093e 70f2 d3bd 90a2 f0bd
00000080: 9b13 bdbc 642d 933d 0b66 923d 9366 5dbd
00000090: 9617 d33c 6c14 2e3d 26d9 9dbd c4d9 e43d
000000a0: 86fc d2bd 9d3b 8f3d 7f20 863d 6c68 103e
000000b0: d38e 79bc 131f e9bd 13d4 8b3d ee48 54bd
000000c0: 854b 29ba 3c00 c03c e57d 0ebe 018d 02be
000000d0: 3a3f 5dbd e4d9 953d 1bbb 163e 65bb 063d
000000e0: 90e5 02be 2327 04be d2e8 e13d e231 ed3d
000000f0: 2687 eb3d 3055 473d 7cb3 833d 6f23 abbc
00000100: b3e1 203d 1abb 9ebc 2fb8 d23c 8878 19be
00000110: 890a b2bc f9f1 d83d a4b4 9abc 1732 ef3d
00000120: 0826 b8bd d9d6 16be 9abf c73c e79a ebbd
00000130: 59d0 873d 98c0 ca3d e5c0 42bc 22b6 fabd
00000140: 17ea 9f3d e7c3 0c3e db4a 7cbc 22c1 03be
00000150: a435 213d 4943 92bd cc16 d23c c626 b83d
00000160: 60ad af3c ef99 003e 9ee4 b4bb 5c90 2ebd
00000170: 6416 84bd 6ccf 9fbc 9d43 3abb b741 013e
00000180: c42b 4f3d 7907 953d 14ee f3bd 8961 28bd
00000190: ef6c c5bd adf7 f5bd 3c57 1e3d 55e9 0fbe
000001a0: 559a 70bd f5d5 91bd c70d 813d bcff 0cbb
000001b0: b929 a93d b0e4 943d 8b2b b8bd b0aa cebd
000001c0: 0b9a adbc 2bf2 d7bc 9e2e f0bd a7c0 6fbd
000001d0: ba2c 9ebd 6f96 febc 7287 47bd 0cfa eabc
000001e0: f205 db3d 80a8 1ebd 7ddc 2d3d 742e 013e
000001f0: 4909 8a3d 40b0 e3bc 84cf dabc df32 87bb
