utils/td_best_model.pth (torch, 863897 bytes, 57 tensors)

input.weight f4 [64, 7]
00000000: 8116 433e bc32 20bc 7c8c 7cbe 75db 8eba
00000010: ccd8 163d 8d6f 633d 3091 8e3e 342a 3f3e
00000020: 9736 813e 5f54 683e bd7f 84be e268 4c3e
00000030: 8284 bebd 0539 68be c0ed bebd c5ac 7cbc
00000040: c8c1 d3bd 0a5d 033b c2d6 1ebe a274 3b3e
00000050: 84fd 313d c863 39be bb1e 86be 4da1 6e3e
00000060: 5db7 63be e41e 9a3d 617d d0bd 85ed 723e
00000070: 4f54 46be 394b 923e 2162 933e e482 093e
00000080: cb2d 8c3e 114c 8e3e c598 3abe 9f5d 8c3d
00000090: 0667 c63d 4ac9 773e e596 5b3e 64ef 1a3b
000000a0: cf3c 1dbd c0bc bd3c 3fff 25be 1efd 9bbc
000000b0: 6e22 64bb 8d6a 4f3e 42f8 973d ff77 013d
000000c0: 152a 593e 4944 9f3d cf47 923e 4c3a 06bd
000000d0: 58ca 0d3e f946 e33d 9117 8d3e c7d8 06be
000000e0: bb9b 2abe 0e51 dc3d 0b19 d2bd 023e 7abe
000000f0: 7847 f83d 0c53 8f3e fea9 98bd 8bf5 0abd
00000100: 61ba 223d 232d 1f3e 58ae 20be d992 09bd
00000110: 1ba5 783e bd8c 9abd 2b90 713e 9782 7fbe
00000120: c3c8 7d3e c896 153e bdc1 763e 118f 8d3e
00000130: be84 0a3d 8385 6cbc baca 80be ad00 e8bd
00000140: 66ec 10be 2403 ed3d 6b3a 6ebe b203 55be
00000150: 5a83 b9bc 8958 8a3b ceb9 d9bd 8d24 b6bd
00000160: fdd5 83be f623 00bd 8aa5 853d 1662 80bd
00000170: 63ec 713e 598e c23d 4e2a 073e f68c 6cbe
00000180: 6175 823e 7b10 263e 393f 3a3e c976 0e3e
00000190: f2b2 98bc c51c 84be 009b 86be 8a39 a2bd
000001a0: 0b54 03be efa9 87be 99b3 033e 581e 683e
000001b0: 1a45 483c 9e0e 5b3e c486 5ebd e32f 75bd
000001c0: b969 47be 1608 133e 3183 80be de51 2cbe
000001d0: eabd 123e 1d1b eabd 18dd 83be 6c11 e93b
000001e0: 3564 373e adf6 833e 9db0 1ebe c089 88bd
000001f0: a49f 80bd af01 30be 5639 4ebe a719 80be
00000200: bb00 aa3d 395d 743e 873d 95be e42a 35bd
00000210: f854 a5b8 8a4c 1ebd 36e3 c2bd 4a73 553e
00000220: 537c 4e3e 7755 8bbe 3a08 17be dfd9 6c3d
00000230: d458 b1bd 46ba 4e3e e31d 8ebe 6416 7dbe
00000240: e5b5 3d3b dfe4 68be 79c9 2b3e aade a6bd
00000250: f3be 19be b34d 92be d6c8 8f3e 0485 94be
00000260: 975b cdbd 9839 fdbd 1bcd 1b3e a637 65be
00000270: 2a87 e7bd 9f4b 5c3e 1201 1cbe aedd c1bd
00000280: cec6 93be 8e13 793d 17f1 4abe 5aa8 87be
00000290: ab36 67be 8062 873e cf6c b9bd 7b8f 6ebe
000002a0: 8a96 983d 06c6 88be 4ab9 ae3d 02de 1abe
000002b0: 8637 4a3d ba9b 25bd 2eaa fc3c dc1e 00be
000002c0: c15e 933e ef9f 743e 9514 823e cd20 6ebe
000002d0: ade5 623d d001 203e 4dc7 a93d 5e4c 16be
000002e0: 9e0d 7abe caf2 803e e03d 473c 3d6c 423d
000002f0: 5f8c 2fbe 3c3e 0d3e 2c78 82bd 00e3 e6bd
00000300: d734 c7bd 625a 4b3e 81d9 1ebe f75e 86be
00000310: 649c e6bd 0909 073d af20 643e 63aa 873e
00000320: 0b76 733e bcb0 3a3e 25af 74be d972 b8bd
00000330: e6e3 7fbe 0974 38be e8e9 d23c fc48 f83d
00000340: fd53 283e 85a9 743e 7186 51be 746f e2bd
00000350: 338e 833d 07d7 0d3e c4a4 09be 5bcd 4ebe
00000360: 4636 6abd 5c72 89be cbff 82be f2c0 cc3c
00000370: f6fa 56be 92e4 f83d f82a 1abe fd97 febd
00000380: 0ded 6bbd e734 b93d 2cd3 2fbe 8022 8b3e
00000390: 9d9f fe3c 3ed8 373e 8bf2 17bd 2d42 993e
000003a0: 1e7d 7c3e d935 68be 1164 d03d fa75 20be
000003b0: 31b2 1abd 2ce1 2abe 9152 853e e8c3 cc3c
000003c0: 23c5 f5bd 56c7 743e 839a 153e 339c 103e
000003d0: fe9e e1bb 9e43 cc3d 52dd 37be d9b4 b33d
000003e0: d248 8bbe 9376 e6bd 0746 39be 056e 3dbe
000003f0: bab5 debd 0301 e7bd 9b52 bd3d fb74 8fbe
0.19051553 -0.009777721 -0.24662966 -0.0010899144 0.036827847 0.055526305 0.27845144 0.18668443
0.2523696 0.22688435 -0.25878707 0.19961885 -0.093026176 -0.22678001 -0.09322691 -0.015422051
-0.10339695 0.002004447 -0.15511611 0.1830621 0.043454662 -0.1810447 -0.2619532 0.23303719
-0.22237916 0.07525423 -0.10180164 0.23723419 -0.19368099 0.28573015 0.28785804 0.13428837
0.27378687 0.2779241 -0.1822234 0.06853794 0.09687619 0.2419788 0.2144428 0.0023641223
-0.03838807 0.023161292 -0.1621065 -0.019041594 -0.003481056 0.2025549 0.07420398 0.031608578
0.2120746 0.07776696 0.2857041 -0.03277044 0.1384672 0.11097521 0.27557042 -0.13168631
-0.16660969 0.107576475 -0.10258683 -0.24437717 0.121230066 0.27993047 -0.074542984 -0.033925574
0.039728526 0.15544562 -0.15691507 -0.03358731 0.24281733 -0.07546375 0.23590152 -0.2495216
0.24783616 0.146083 0.24097343 0.27648214 0.033818 -0.014436129 -0.25154668 -0.11328254
-0.14152679 0.11572865 -0.23264472 -0.20802191 -0.022645641 0.00422198 -0.106311426 -0.0889369
-0.25749198 -0.031284295 0.06525715 -0.062687084 0.2362533 0.09499807 0.13199732 -0.23100647
0.25480178 0.16217224 0.1818818 0.139125 -0.018640015 -0.258032 -0.2629013 -0.07921131
-0.12825029 -0.26496837 0.1286148 0.22667825 0.012223506 0.21392295 -0.05432774 -0.05986012
-0.19473924 0.14358553 -0.2510009 -0.16828105 0.14330259 -0.11430953 -0.2575462 0.0071126726
0.1790932 0.25774136 -0.1549706 -0.06666899 -0.06280449 -0.17188142 -0.2013906 -0.2501957
0.083009206 0.23863687 -0.29148504 -0.044230357 -7.88364e-05 -0.038647212 -0.09515993 0.2084476
0.20164613 -0.27213642 -0.14749232 0.057824966 -0.08659521 0.20188245 -0.27757177 -0.24715573
0.002894753 -0.22743557 0.16776074 -0.081479385 -0.15014248 -0.28574905 0.28082913 -0.29007733
-0.10027235 -0.12364501 0.1521496 -0.2238451 -0.113050774 0.21513222 -0.15234783 -0.0946611
-0.28862613 0.060809664 -0.19818531 -0.2649563 -0.22579448 0.26442337 -0.09053957 -0.23296921
0.07450588 -0.2671358 0.08531435 -0.15123752 0.049369358 -0.040431716 0.030842867 -0.12511772
0.2878323 0.23889135 0.25406328 -0.232547 0.055394817 0.15625691 0.08289967 -0.1467757
-0.24419257 0.25185233 0.012160748 0.047466505 -0.17143391 0.13793272 -0.06370577 -0.112737656
-0.09726875 0.19858697 -0.15512659 -0.26244327 -0.11260298 0.0329676 0.22278093 0.26497182
0.23775499 0.18231481 -0.23894937 -0.090062805 -0.2498928 -0.18013014 0.0257463 0.12123296
0.16438289 0.23892792 -0.20461442 -0.11056414 0.06423607 0.13851558 -0.1344176 -0.20195524
-0.057180665 -0.26845062 -0.2558578 0.024994347 -0.20994172 0.12152971 -0.15055454 -0.12431333
-0.057599116 0.090432934 -0.171704 0.2717476 0.031081969 0.17953584 -0.03709654 0.299333
0.24657103 -0.22676791 0.10175336 -0.15670004 -0.037767593 -0.16687459 0.26039556 0.02499576
-0.120004915 0.23904166 0.14609723 0.14122085 -0.0068854084 0.099738345 -0.17955521 0.08774728
-0.27203995 -0.11253085 -0.1809312 -0.18499 -0.10874505 -0.1127949 0.09244271 -0.28018937

input.bias f4 [64]
00000000: 18f6 05be 0cc7 b33e 3a07 493e 06cd 2d3d
00000010: 3954 6cbe 52f2 b13c dae2 723d 543f b03d
00000020: 5f29 a4be 3c00 2abe adb5 9c3a d001 fe3d
00000030: b8d0 423d cf75 9d3e 2a0d 8dbd ecf8 443e
00000040: 85e5 68be eae2 983e 8cfe 81bd 579b 54bd
00000050: b2af 33bd ef84 da3b c7a3 16be e542 53be
00000060: 205c 223d 5671 4bbe 8699 2dbe a360 b0be
00000070: 1080 963e 2b43 703e 4ac0 4fbe 5cfd 9bbe
00000080: 619a 96be 6b06 413d 5695 a5be 6273 91bd
00000090: fc7f b5be 8e3c bbbe 072c 603e e0bd 713c
000000a0: 8162 c6bc 5101 89be 09e8 bcbd 151d 0e3e
000000b0: f49b 6bbe 130d 27bc cea3 553e 9990 87be
000000c0: d524 08be 9e45 b4be 7941 963d b450 0c3c
000000d0: 0b31 05be ea6e 24be aec6 843e 8015 853c
000000e0: 9e6f b23e 4a4d 4bbe e099 7cbe 4ae2 49bc
000000f0: cd26 91be 2192 b23e ae6c 79be 3dcb 41bc
-0.13082159 0.35112798 0.19631663 0.042431854 -0.23079003 0.021721993 0.059298374 0.08605829
-0.32062814 -0.16601652 0.0011955999 0.124026895 0.04756233 0.30753943 -0.068872765 0.19235581
-0.22743805 0.29860622 -0.06347379 -0.051905956 -0.043868728 0.006668679 -0.14710914 -0.20630987
0.03963864 -0.19867453 -0.16953096 -0.34448728 0.2939458 0.23463123 -0.20288196 -0.30466735
-0.29414657 0.04712526 -0.32340497 -0.07102086 -0.35449207 -0.36569637 0.21891795 0.014754742
-0.024216892 -0.26758817 -0.09223945 0.13878281 -0.2300871 -0.010195988 0.20863268 -0.26477507
-0.132953 -0.35209364 0.07336707 0.008564163 -0.1300699 -0.16057935 0.2593283 0.016245604
0.34850782 -0.19853702 -0.24668074 -0.012322018 -0.28349915 0.34877113 -0.24357864 -0.011828241

pe.pe f4 [1, 24, 64]
00000000: 0000 0000 0000 803f 0000 0000 0000 803f
00000010: 0000 0000 0000 803f 0000 0000 0000 803f
00000020: 0000 0000 0000 803f 0000 0000 0000 803f
00000030: 0000 0000 0000 803f 0000 0000 0000 803f
00000040: 0000 0000 0000 803f 0000 0000 0000 803f
00000050: 0000 0000 0000 803f 0000 0000 0000 803f
00000060: 0000 0000 0000 803f 0000 0000 0000 803f
00000070: 0000 0000 0000 803f 0000 0000 0000 803f
00000080: 0000 0000 0000 803f 0000 0000 0000 803f
00000090: 0000 0000 0000 803f 0000 0000 0000 803f
000000a0: 0000 0000 0000 803f 0000 0000 0000 803f
000000b0: 0000 0000 0000 803f 0000 0000 0000 803f
000000c0: 0000 0000 0000 803f 0000 0000 0000 803f
000000d0: 0000 0000 0000 803f 0000 0000 0000 803f
000000e0: 0000 0000 0000 803f 0000 0000 0000 803f
000000f0: 0000 0000 0000 803f 0000 0000 0000 803f
00000100: a46a 573f 4151 0a3f ce7a 2e3f b054 3b3f
00000110: ba7d 083f 0d94 583f f190 d13e c692 693f
00000120: 3e39 9f3e 6b4e 733f 258f 703e f1d5 783f
00000130: 3a23 353e 83f6 7b3f f325 083e 28ba 7d3f
00000140: 7675 cc3d 98b8 7e3f 366f 993d d147 7f3f
00000150: ae36 663d 6898 7f3f faac 2c3d bdc5 7f3f
00000160: 5b81 013d 3cdf 7f3f a53e c23c 93ed 7f3f
00000170: 42ab 913c a3f5 7f3f 497a 5a3c 2cfa 7f3f
00000180: 57d6 233c b9fc 7f3f 16b9 f53b 28fe 7f3f
00000190: 5a44 b83b f7fe 7f3f 5a2e 8a3b 6bff 7f3f
000001a0: 1c3e 4f3b acff 7f3f 0369 1b3b d1ff 7f3f
000001b0: 2015 e93a e6ff 7f3f 8bc9 ae3a f1ff 7f3f
000001c0: 6d12 833a f8ff 7f3f 8994 443a fbff 7f3f
000001d0: 136a 133a fdff 7f3f 2117 dd39 ffff 7f3f
000001e0: 61cb a539 ffff 7f3f 0da8 7839 0000 803f
000001f0: 5377 3a39 0000 803f 6dd4 0b39 0000 803f
00000200: b7c7 683f 3311 d5be d95a 7f3f 534d 913d
00000210: 0af2 663f b2e8 dc3e 1235 3f3f 0239 2a3f
00000220: 1b54 173f ec7b 4e3f b5d3 e93e 69be 633f
00000230: f647 b23e a6fa 6f3f 82f0 863e f5f2 763f
00000240: f86f 4b3e a5e5 7a3f d300 193e 4f20 7d3f
00000250: 86d9 e53d f361 7e3f ae85 ac3d 0e17 7f3f
00000260: c870 813d f97c 7f3f aa30 423d 4eb6 7f3f
00000270: 5ca5 113d 8ed6 7f3f 5075 da3c b1e8 7f3f
00000280: 3ed4 a33c e5f2 7f3f 51b7 753c a1f8 7f3f
00000290: 9b43 383c dbfb 7f3f 0a2e 0a3c abfd 7f3f
000002a0: d83d cf3b b1fe 7f3f e768 9b3b 43ff 7f3f
000002b0: 0815 693b 96ff 7f3f 80c9 2e3b c4ff 7f3f
000002c0: 6812 033b dfff 7f3f 8594 c43a edff 7f3f
000002d0: 126a 933a f5ff 7f3f 1f17 5d3a faff 7f3f
000002e0: 60cb 253a fdff 7f3f 0ca8 f839 feff 7f3f
000002f0: 5377 ba39 ffff 7f3f 6dd4 8b39 0000 803f
00000300: c381 103e 2670 7dbf de3c 473f cebf 20bf
00000310: d745 7e3f ab7f edbd 6321 743f 6318 9a3e
00000320: c209 503f 582f 153f b724 273f a2e7 413f
00000330: 6c2f 023f 296d 5c3f a768 c73e 37c9 6b3f
00000340: 6c4e 973e ef90 743f e26d 643e 928c 793f
00000350: d7ee 2b3e 9e5d 7c3f 2c33 013e 43f4 7d3f
00000360: c0ff c13d 4fd9 7e3f 0693 913d 3a5a 7f3f
00000370: 4e69 5a3d c3a2 7f3f c5d1 233d 90cb 7f3f
00000380: 1fb9 f53c 83e2 7f3f 4747 b83c 6bef 7f3f
00000390: c631 8a3c adf6 7f3f 4644 4f3c c1fa 7f3f
000003a0: 0d6e 1b3c 0dfd 7f3f 131d e93b 58fe 7f3f
000003b0: a8cf ae3b 11ff 7f3f 1317 833b 7aff 7f3f
000003c0: 929b 443b b5ff 7f3f 606f 133b d6ff 7f3f
000003d0: 171f dd3a e8ff 7f3f 56d1 a53a f3ff 7f3f
000003e0: 10b1 783a f9ff 7f3f 097e 3a3a fcff 7f3f
000003f0: 7ed9 0b3a feff 7f3f a4be d139 ffff 7f3f
0.0 1.0 0.0 1.0 0.0 1.0 0.0 1.0
0.0 1.0 0.0 1.0 0.0 1.0 0.0 1.0
0.0 1.0 0.0 1.0 0.0 1.0 0.0 1.0
0.0 1.0 0.0 1.0 0.0 1.0 0.0 1.0
0.0 1.0 0.0 1.0 0.0 1.0 0.0 1.0
0.0 1.0 0.0 1.0 0.0 1.0 0.0 1.0
0.0 1.0 0.0 1.0 0.0 1.0 0.0 1.0
0.0 1.0 0.0 1.0 0.0 1.0 0.0 1.0
0.84147096 0.54030234 0.68156135 0.731761 0.53316844 0.8460091 0.40930894 0.91239583
0.3109836 0.9504153 0.23492105 0.9720145 0.17689219 0.9842302 0.13295726 0.99112177
0.099833414 0.9950042 0.07491915 0.9971896 0.05620449 0.9984193 0.04215715 0.999111
0.031617504 0.99950004 0.023711512 0.99971884 0.017781857 0.99984187 0.013334819 0.99991107
0.009999833 0.99995 0.0074988706 0.99997187 0.0056233825 0.9999842 0.0042169513 0.9999911
0.0031622713 0.999995 0.0023713715 0.9999972 0.0017782785 0.99999845 0.0013335211 0.9999991
0.0009999998 0.9999995 0.000749894 0.9999997 0.0005623411 0.9999998 0.00042169637 0.99999994
0.00031622782 0.99999994 0.00023713727 1.0 0.00017782794 1.0 0.00013335208 1.0
0.9092974 -0.41614684 0.99748 0.070948265 0.9021307 0.43146282 0.74690354 0.66493237
0.5911271 0.8065784 0.45669332 0.8896242 0.34820527 0.93741834 0.26355368 0.96464473
0.19866931 0.9800666 0.1494172 0.98877424 0.1122313 0.9936821 0.08423935 0.99644554
0.063203394 0.9980007 0.04740969 0.9988755 0.03555809 0.9993676 0.026667267 0.99964434
0.019998666 0.9998 0.014997319 0.9998875 0.011246587 0.99993676 0.008433828 0.9999644
0.006324511 0.99998003 0.00474273 0.99998873 0.0035565514 0.9999937 0.0026670396 0.9999964
0.0019999985 0.99999803 0.0014997876 0.99999887 0.0011246821 0.99999934 0.0008433926 0.99999964
0.0006324556 0.9999998 0.0004742745 0.9999999 0.00035565588 0.99999994 0.00026670416 1.0
0.14112 -0.9899925 0.7782725 -0.6279267 0.9932532 -0.11596616 0.95363444 0.3009673
0.8126489 0.58275366 0.652904 0.7574407 0.5085361 0.86104065 0.3894703 0.92103904
0.2955202 0.9553365 0.22307542 0.9748012 0.16790329 0.9858035 0.12617177 0.9920084
0.094726086 0.99550337 0.071081206 0.9974705 0.053323083 0.9985773 0.039994974 0.99919987
0.0299955 0.99955004 0.022494925 0.999747 0.016869437 0.9998577 0.012650555 0.99991995
0.009486687 0.999955 0.0071140616 0.9999747 0.005334813 0.99998575 0.0040005534 0.999992
0.0029999954 0.9999955 0.0022496805 0.9999975 0.0016870227 0.99999857 0.0012650888 0.9999992
0.00094868336 0.9999996 0.00071141176 0.99999976 0.0005334838 0.9999999 0.00040005625 0.99999994

transformer.layers.0.self_attn.in_proj_weight f4 [192, 64]
00000000: bfa3 4a3c afe6 c93c 7bd4 07be c18a 9e3d
00000010: b64e b3bd 09a9 2cbd 991e ea3d 2356 04be
00000020: f0e6 843d 0f10 283d f0e6 463d c192 0fbd
00000030: 5915 72bd 7be9 95bd 88e8 9c3d e7dc 0fbe
00000040: 5fbd 78bc 710c f4bb 0125 e5bd b991 bcbc
00000050: 5143 163e dfed f83d 60e2 10be 4b39 96bd
00000060: b8cb 993d 69f9 0abd fb99 0abe 7399 15be
00000070: 9ccc 28bd a91c e3bd 976c 98bd e065 06bd
00000080: ffab a0bc 34c3 babd e869 48bc 1588 7fbd
00000090: 97a2 bd3d 79c3 82bd 2562 56bc 3b71 c9bb
000000a0: 7929 3c3c 14c0 113e b3e5 e93d ef96 5dbc
000000b0: c8c3 113e bec6 f7bd 967b c0bd 8f77 aabc
000000c0: 5cb2 aabc 6f69 06bd e0c0 073e 3c04 9c3d
000000d0: 132d 4fbd ff72 043e 6e4d f83c 4f77 3bbc
000000e0: 99dc eabd 862f 11be 3a0c 9f3d 17bc 243d
000000f0: 0013 d6bb e21e 133e 4076 02bd bf34 bbbd
00000100: c3f5 5e3d efa3 e1bd 63b2 7abc 3d75 adbd
00000110: a8dd af3d ed60 d5bc b36e cf3d 4078 b73d
00000120: 21fc 0f3e 29f5 e03d 6c51 5abc 2101 383d
00000130: c15c fd3d adf8 bf3c f559 abbd ab12 b83b
00000140: ee10 d8bd 4b3d 82bc 2630 d93d 1b07 5e3d
00000150: 70d6 f5bd c24c 5d3d 5ce7 04be 185c 0dbe
00000160: b192 4ebd 1a24 1a3e e612 04be 9196 0bbe
00000170: 463c d43d 7717 74bd 5dd6 133e caab 02be
00000180: 1e87 a5bd 605c be3d bda5 0b3e e1c3 bbbd
00000190: b6a6 03be 9497 09be 1ef4 47b9 7150 6e3d
000001a0: 6384 aabd 867a 18be 4558 11be 90f2 a33c
000001b0: 0707 e1bd df1c 4d3d 28f4 e9bd 6a95 4b3d
000001c0: ea09 03be ae9d e63d eb30 1a3e 0145 213d
000001d0: 1232 333d b1c9 673d 25c8 a43d b3e9 263d
000001e0: b18a 373d eca0 15be 1578 83bd 6478 613c
000001f0: 0c36 163d 95d3 a0bd f276 1a3e 604a 07bd
00000200: e991 ca3c 4dc6 43bd c7ed 463d 0f51 de3c
00000210: 0ecd a73d f337 6cbd 64c4 8f3d c86f 953d
00000220: e284 e4bb 2943 053e 16d3 cd3d 0aad 7ebd
00000230: 7293 8cbc d3b4 153d 6b8c 8f3d b461 17be
00000240: 8fc3 e63d 6ce9 253d f5ce 353c 4c2b 75bd
00000250: 54eb 80bd 5281 183e 0419 b73d 40e2 763d
00000260: 32c2 11be 00e2 c13d b45e 193d 2257 ae3c
00000270: f35a ccbc 65d7 10bd 9240 1b3e 131e 97bc
00000280: 3b51 6c3d 55b2 01be a8ba e03d 3dd6 a93d
00000290: 8d1a a23c 8409 713d 9c1f 8d3d 46e6 e73d
000002a0: f033 ba3d ab19 ddbd 0f8f d7bc c7c5 cb3d
000002b0: 794e 883b cbf6 81bd 61d3 90bd 17d2 99bd
000002c0: 2e0d 6dbd 8550 753c 2a66 e13d 7600 c63d
000002d0: 6429 a23d d35d fabd d062 cf3c 3025 bc3c
000002e0: a37c b43d 5104 16bd 7717 03be b8ef 02be
000002f0: 85bb 043e 9876 ad3c 91d4 0f3c d56d 97bd
00000300: c909 e13d a034 8d3d b23b babc 054c 043e
00000310: 6ae2 b63d a9c2 cd3d 485d 263c eadb 3cbc
00000320: 0a51 153e ce42 d9bd 2677 13be 14a5 123e
00000330: bfc1 31bd 677c f23d b1de aabd 3fa5 0abe
00000340: 5000 513d b253 b13c e4fc 9e3d 366b 043e
00000350: 9804 88bd e143 eabd 15d6 f6bd ce8d 0bbd
00000360: b088 e43c 3a26 32bd b855 65bd cc55 3e3d
00000370: eee2 7e3d 1fc0 b5bd 0d18 633d 1e5e b6bd
00000380: e693 cebd 6dcb 92bb 0b80 f93d fc90 723d
00000390: a477 9c3c 68f5 eebd 5948 453d df2f febd
000003a0: 749f 97bd dbb4 0a3d 3ef5 193e 409f 84bb
000003b0: dadf febc 0ffe 863d dc0f 83bd e533 013e
000003c0: 7c4e 8dbd 0d1d 5bbd 35ac 853d ca84 ed3d
000003d0: b85b 843d d88b fd3d b1ad 8abb 352b f8bd
000003e0: 2bdb debd f667 64bd cc7a 573d 967d d63d
000003f0: e363 0d3e ec03 cc3d 105b d93d 72b0 f53d
0.012368142 0.024646131 -0.13264649 0.07741309 -0.08755247 -0.042153392 0.11431617 -0.12923484
0.0648936 0.04103094 0.048560083 -0.035052065 -0.05910239 -0.073199235 0.07661539 -0.14049111
-0.015181868 -0.007447772 -0.111886986 -0.023018705 0.14674117 0.12154745 -0.14148855 -0.073351465
0.075095594 -0.033929262 -0.13535301 -0.14609317 -0.041210756 -0.11089451 -0.07442587 -0.032812
-0.019613264 -0.09119263 -0.012232281 -0.062385637 0.09259527 -0.0638494 -0.013084923 -0.0061475313
0.011484497 0.14233428 0.11420765 -0.013524755 0.14234841 -0.12098454 -0.09398572 -0.020808963
-0.020837002 -0.032815393 0.1325717 0.07617995 -0.050580095 0.12934493 0.030310359 -0.01144202
-0.11467857 -0.14178285 0.07766004 0.04021844 -0.0065330267 0.1436725 -0.031851053 -0.0914092
0.054433595 -0.11017596 -0.01530132 -0.08469627 0.085871994 -0.026047194 0.10128536 0.08958483
0.14061023 0.109842606 -0.013325077 0.04492295 0.12371207 0.023434008 -0.08366767 0.00561746
-0.10550104 -0.015898367 0.10604887 0.054205995 -0.12003791 0.05402828 -0.12978882 -0.13804662
-0.050432865 0.15052834 -0.12897834 -0.13631655 0.10363059 -0.05959269 0.14437242 -0.12760845
-0.08082412 0.09294963 0.13637443 -0.0916822 -0.12856564 -0.13436729 -0.0001906906 0.058182184
-0.08326032 -0.14890489 -0.14193828 0.020013124 -0.109876685 0.05007636 -0.11423522 0.04970304
-0.1279675 0.11260544 0.15057723 0.039372448 0.043748923 0.056588832 0.08045987 0.040750217
0.04481 -0.14612168 -0.06419388 0.0137616135 0.036672637 -0.07852856 0.15084437 -0.033029914
0.024727779 -0.047796536 0.048566606 0.027138261 0.08193408 -0.057670545 0.070198804 0.07296711
-0.0069738487 0.13013901 0.10050027 -0.06217674 -0.017160151 0.0365494 0.070092045 -0.14783365
0.112677686 0.04050581 0.011096706 -0.059855744 -0.06294885 0.14893082 0.08940318 0.060274363
-0.14234236 0.09466934 0.03744383 0.021281783 -0.024945712 -0.035361666 0.1516135 -0.018446958
0.057694655 -0.12665685 0.10973102 0.08292816 0.019788051 0.058846965 0.06890795 0.11323218
0.090919375 -0.107959114 -0.026313333 0.099498324 0.0041597453 -0.063459 -0.07071567 -0.075107746
-0.057873897 0.014972811 0.110058144 0.09668057 0.07918051 -0.12224927 0.025315672 0.022966951
0.08812835 -0.03662521 -0.1280192 -0.12786758 0.12962158 0.021174714 0.008778707 -0.07393996
0.109881945 0.06894803 -0.022733543 0.12919624 0.08929904 0.10046894 0.010154076 -0.011527041
0.14581695 -0.10608445 -0.1440092 0.14320785 -0.04339766 0.11840134 -0.08343256 -0.13539599
0.05102569 0.021646354 0.07763079 0.12931523 -0.06641501 -0.11438728 -0.12052552 -0.034070782
0.027897209 -0.043493487 -0.05598995 0.04646854 0.062228136 -0.08874535 0.05544286 -0.0890467
-0.10086803 -0.0044798166 0.121826254 0.0592203 0.019100018 -0.11667901 0.0481647 -0.124114744
-0.0740346 0.033863883 0.15034959 -0.0040473044 -0.0311126 0.065914266 -0.06399509 0.12617452
-0.06899735 -0.0534945 0.065269865 0.11597593 0.064628065 0.12380189 -0.0042321314 -0.12117616
-0.10881647 -0.055763207 0.052607343 0.10473172 0.13807635 0.099616855 0.10613072 0.11996545

transformer.layers.0.self_attn.in_proj_bias f4 [192]
00000000: 2450 0cbb f705 72ba 970c 89ba 42d9 afba
00000010: 9e3e 0e3b 76e4 27bb 85e7 883a 5467 93bb
00000020: a239 8c3a 1d85 443b bf9d e0b9 d54a 0fbb
00000030: 6b47 17ba ab65 e5ba bec5 a23a 3e51 843b
00000040: 29d0 88bb 4a14 4c3a 88be ef39 17c1 22bb
00000050: 4bce c739 336f c139 3461 e13a 7970 dcba
00000060: bc77 23bb ea8b 9d3a 07a4 0fb9 b9e7 033b
00000070: 2b09 453b 0f40 4e3a 061b 91bb 03c7 143b
00000080: 29e5 143a c4e5 2d3b f411 89ba 5b99 8d3a
00000090: 0522 14bb 59d3 5dbb fd5f ea3a deaa af3a
000000a0: 3132 0c3b 4d9b 083b 057d aebb dde6 98ba
000000b0: 9663 02bb 6f20 fb3a c241 b53a 0429 ab3a
000000c0: d4d1 8b3a c1fe cc3a a17d 1cbb 9621 17bb
000000d0: 0859 8537 8aa3 ab3a ba9e 6dbb 9a60 b53a
000000e0: 3f2e c3ba 4032 05bb fb67 c63a 8ec5 bbba
000000f0: 205d a83a 2eb8 42ba 341d 153b 51e0 953a
00000100: f8b2 6e36 b525 7738 b9e3 d8b8 4b3f e937
00000110: d7fd a538 532b acb8 1c31 6937 310a 13b9
00000120: a50a 9438 c906 7938 8f1e 27b9 f9c7 1db9
00000130: 0681 9338 42fe 0fb7 52a0 82b7 7dab 0238
00000140: 0d0c a839 c3ae c9b7 2861 88b9 82af 1a39
00000150: 8014 3e39 f48b 9fb7 2408 05b9 d682 5639
00000160: 6e8a 73b8 8b79 b637 4d3f 7438 89b1 dfb7
00000170: d5ea 2e38 828e 67b7 94e6 75b8 cdd1 a038
00000180: bd27 c1b7 a020 dbb7 29f0 2039 22ba b739
00000190: 8111 2e39 fda6 32b9 3e19 2136 aacc 023a
000001a0: ced1 04b8 55af b3b8 2350 9437 8665 a0b7
000001b0: dec2 8f38 0563 ff37 1d60 1a37 bca2 16b6
000001c0: c617 2bb9 320f ceb8 8ed0 5839 b91e 00b8
000001d0: 1120 0239 14ca 3cb9 aa45 84b8 0388 1cb8
000001e0: 8590 bf38 f777 c1b8 21c5 4339 7188 a0b7
000001f0: 979a b539 4fc2 05b9 de7c a538 abaf 0cb9
00000200: 15a0 513a 1ef4 073b 26d8 17bb 3ee5 73ba
00000210: d83e 623b c7bc 97b8 b742 0b3b 12dc 3239
00000220: c047 a8ba 43a2 03bc c8c6 253b 52a7 baba
00000230: 0f7f 803b 4a9d 0b3c df62 89ba 3ddf 07bb
00000240: 0923 d23b a033 663a a19e fe3a a9d9 81bb
00000250: b47c 4dbb e1cc 5cba a41c c13a 703a e13a
00000260: 349e b13b b48b 3aba 3bf3 b039 275a edb7
00000270: b21d 67ba db66 ed3a bf5f 70ba 0293 b8ba
00000280: 22bd bb3a 718f ad3b 037e 64bb 66a2 00bb
00000290: 315c a339 1ca6 cb3a 06cc 84bb f568 7d39
000002a0: 7edb 643c 481c 0f3b ff7f 863a 8064 6f3b
000002b0: b0e2 ffba 44a6 503b acb3 4bbb 1e76 723a
000002c0: 8984 1a39 8d36 8dba 0dd6 ac3b 8eb8 173b
000002d0: da1f 46bb 0e67 723a f400 7b38 c25e 9bba
000002e0: f90d 1dbb d97a f03a e151 00ba 09bd 8fbb
000002f0: 53f5 44bb a3c3 34ba d88d b53b 825a 653b
-0.0021410072 -0.0009232456 -0.0010456023 -0.0013416188 0.0021704803 -0.002561835 0.0010444975 -0.0044984017
0.0010698328 0.0029986568 -0.0004284214 -0.0021864672 -0.0005770835 -0.0017501613 0.0012418551 0.004038005
-0.0041752052 0.0007785006 0.0004572759 -0.0024834329 0.00038109938 0.00036894678 0.0017195106 -0.0016818187
-0.0024943193 0.0012019847 -0.00013698648 0.002012713 0.003006528 0.0007867822 -0.0044282703 0.0022701628
0.00056798995 0.0026534656 -0.0010457621 0.001080315 -0.0022603285 -0.0033847897 0.001788139 0.0013402363
0.002139222 0.002084452 -0.005324962 -0.0011665482 -0.0019895784 0.0019159446 0.0013828801 0.0013058488
0.0010667392 0.0015639887 -0.0023878592 -0.002306079 1.5896294e-05 0.0013095003 -0.0036257938 0.0013837994
-0.0014891102 -0.002032414 0.001513719 -0.0014325844 0.0012845136 -0.00074279576 0.0022753002 0.0011434649
3.5568937e-06 5.8924506e-05 -0.00010342099 2.7805238e-05 7.9150945e-05 -8.209669e-05 1.3899316e-05 -0.00014022809
7.059173e-05 5.9372545e-05 -0.00015937745 -0.00015047182 7.033539e-05 -8.582663e-06 -1.5571863e-05 3.1154126e-05
0.00032052436 -2.4042447e-05 -0.00026012328 0.00014751966 0.00018127449 -1.9019448e-05 -0.00012686901 0.0002045737
-5.8064637e-05 2.1752689e-05 5.8233087e-05 -2.6666343e-05 4.1703537e-05 -1.3801853e-05 -5.8627294e-05 7.668473e-05
-2.3025897e-05 -2.6122027e-05 0.00015348256 0.0003504316 0.00016600454 -0.00017037611 2.4005562e-06 0.0004989604
-3.166665e-05 -8.568043e-05 1.7680291e-05 -1.9120762e-05 6.855068e-05 3.0444478e-05 9.201493e-06 -2.2446466e-06
-0.00016316687 -9.825676e-05 0.00020677058 -3.054619e-05 0.00012409712 -0.00018004357 -6.3072264e-05 -3.731997e-05
9.1345086e-05 -9.225302e-05 0.00018670085 -1.9137022e-05 0.0003463819 -0.00012756254 7.8910714e-05 -0.00013416882
0.00079965714 0.002074487 -0.0023169606 -0.0009303874 0.003452232 -7.2354036e-05 0.0021249482 0.00017057385
-0.0012838766 -0.008034292 0.0025295485 -0.0014240539 0.0039213966 0.008521387 -0.0010481736 -0.0020732426
0.006412868 0.00087814964 0.0019425937 -0.0039627147 -0.0031354846 -0.00084228633 0.0014733267 0.0017183553
0.0054204706 -0.00071161543 0.00033750557 -2.8294582e-05 -0.00088163756 0.0018112318 -0.0009169541 -0.0014081898
0.0014323334 0.0052966406 -0.0034865148 -0.0019628047 0.0003115847 0.0015537175 -0.004052642 0.0002416706
0.013968347 0.0021836925 0.0010261534 0.0036528409 -0.0019522514 0.0031837383 -0.0031082435 0.0009249168
0.00014735958 -0.0010773704 0.0052745403 0.0023150775 -0.0030231387 0.0009246924 5.984395e-05 -0.0011853802
-0.0023964627 0.0018347158 -0.00048950134 -0.0043865484 -0.0030053451 -0.0006895607 0.0055405907 0.0034996574

transformer.layers.0.self_attn.out_proj.weight f4 [64, 64]
00000000: d078 04be 8b76 a03c f413 4abd 6a01 173d
00000010: 148f febd 8e42 f53c 46c6 debd 9067 ecbd
00000020: c151 31bc cd22 863c 17fd fcbd b562 48be
00000030: 6073 193e 333a 2b3e 2000 ab3c fbe1 80bd
00000040: b875 163e d8c5 2fbb 874d 373e e48b 37bc
00000050: 3838 56bc 3464 a8bd 748f 14be 4fb6 41be
00000060: 30eb b4bc ac15 273e e601 e13d 305f 403e
00000070: 735f 24be 79e6 debd 8e7e 45be ae93 0abe
00000080: 6013 cbbd 035b a33d 1558 88bd b72a 503e
00000090: 0345 3dbe 03c7 e63a 8676 013e 1b08 2abe
000000a0: 4897 1d3e 7f54 dd3d 51da 1fbe 0d7c d8bc
000000b0: c020 50be e307 e8bd 4e2a 873d bb58 913d
000000c0: 2993 163e dd58 79bd 8d38 533e 77cf 413e
000000d0: 1c5c 273e 500a 453e e2d3 0c3e 0828 583e
000000e0: a2c7 fbbd 7194 7bbd b972 1d3e 4752 e73d
000000f0: 9f81 323e 6d4e e33c 05dd b0bd 7e32 77bd
00000100: 8a44 01be fd37 5b3e 5814 6e3d 9f23 45bd
00000110: 6f47 ab3d 7a53 8e3d 39cc dd3d 1442 4e3d
00000120: e22b 00be 483a 05bd da89 8abd c199 113d
00000130: b53a 21bd 440d 31be c1c5 643d 0132 543d
00000140: 38b5 463e eb1c dd3c 0424 11be 1cc9 49be
00000150: db0c 87bd 98a7 4cbe 15c4 023e a99d 453e
00000160: 1629 693e c5f3 3b3e fe30 62be a4a3 33be
00000170: 88c3 293e 4ba3 42bb 8bd5 373d 7b99 08be
00000180: 9745 e4bd 14a2 cb3d 85e8 6e3d 9fba c43d
00000190: 4a96 b53d 4ef9 573e 30d9 45be 9f22 873d
000001a0: 3cf2 18be a5ea 393e 56db efbc 41fe 0b3e
000001b0: 6886 41bd e9b5 cdbb 4f61 3dbe 16fe 6fbd
000001c0: 8b3c 3a3c 8d78 a2bd 724b 4c3e 4a0b 1ebe
000001d0: 35d9 4fbd 9c28 d03d e177 31be 4df0 4f3d
000001e0: 3883 d23d 89b0 95bb b9bc 3fbe 0e7f e9bd
000001f0: f56d 413e 06d3 07be e02e e9bb b36b 313e
00000200: 3c1c 5f3e 9c57 febd fc97 4a3e 9b9e edbd
00000210: 438c 71bc f18f f7bc 1f44 48be ca96 523e
00000220: 3f11 2c3e 95cd 26be 28e4 113e 637c 9e3d
00000230: fd93 343e 5f6b 58be 80af dd3d 9a2e 19be
00000240: 9a86 663a 227b 8cbd 43b9 ebbd 0a09 003e
00000250: 24c3 a33d 0067 1e3d 9c44 cd3d 6dea 4bbd
00000260: 8961 67bd 3f61 54be 53e7 acbd c854 4bbe
00000270: fbc5 543e 0cfa e43d 5984 61bd 3e50 3dbe
00000280: 9a7a ccbd f617 2dbe fbdd ba3d 8a7f 423e
00000290: 94b8 0bbe 9c7c 52be 0d46 403e 23c6 cf3d
000002a0: 5648 923d c24b bcbd 2bf0 cdbd ff14 ccbd
000002b0: bf62 4b3e db44 1b3c 351d 6abd 01ec 41be
000002c0: 59ce 11bd 451e 74bd c345 533e ba86 cdbd
000002d0: cfef 293e fccc 00be 8ff2 2fbc 43e3 c23d
000002e0: 63d0 4d3e ed90 1f3e 422c 8e3d 0a00 b53d
000002f0: d8ba a5bd e5d1 8fbd 79ed 86bd 5722 d93d
00000300: 81e5 49be 3aa8 993d f036 50be 9bf5 1abe
00000310: b308 23be 5e69 30be 5471 59be 9d4d fa3d
00000320: 6248 723d 7271 a83d 4e89 e0bc a172 52be
00000330: 375a e4bd 19c7 81bd 050d 14be 92d4 44bd
00000340: edc8 583e f398 c8bc 0d2b 973d 96e5 4b3e
00000350: b827 14be a396 4abd 8a21 d7bd 5508 5c3e
00000360: d23e 28be 6bf7 173e 9c30 0d3e 07fb 073e
00000370: 0274 2dbe 919b ab3b 53c0 273e 77df 64bc
00000380: 822f 623e 0318 79bd f53b 65bd 2505 3e3e
00000390: efcd 3bbe 2add 4cbe df2b 763d 2d4f 693d
000003a0: b026 303e 2c47 17be 284b 4a3b 5ab3 6bbb
000003b0: 8f6d 673b d82b b23d cf57 6e3d ec10 963d
000003c0: 807c 08be 9330 ccbd 5d73 41bc 2795 d63d
000003d0: 03ac d9bc 8f41 30be 9ac8 dcbd b3f8 cdbd
000003e0: 2a17 2fbd e46b b5bd 68bf 8c3d c9bd c43d
000003f0: cad6 9c3d d1b1 473e ea2a 3f3e a68c 2f3d
-0.12936711 0.019587776 -0.049335435 0.036866583 -0.12429634 0.029938962 -0.108776614 -0.115431905
-0.010822714 0.016374016 -0.123529606 -0.19568904 0.14985418 0.1672142 0.020874083 -0.06293102
0.14693344 -0.0026820805 0.17900668 -0.011202786 -0.013074927 -0.08222237 -0.14507848 -0.18917201
-0.022084802 0.16316861 0.1098669 0.18786311 -0.16052036 -0.10883803 -0.19286558 -0.13532898
-0.09915805 0.079763435 -0.06657425 0.20328794 -0.18483357 0.0017606918 0.1264287 -0.16604654
0.1538974 0.10807132 -0.15610625 -0.02642634 -0.20324993 -0.11329629 0.06599866 0.07097002
0.14704575 -0.060875762 0.20627041 0.18926798 0.1634373 0.19242215 0.13752702 0.2110902
-0.12293936 -0.06142086 0.15375794 0.1129499 0.17432259 0.027747357 -0.08635906 -0.060350887
-0.12623802 0.21408077 0.05812487 -0.048129674 0.08363234 0.06949516 0.10829968 0.050355986
-0.1251674 -0.032526284 -0.06764574 0.03554702 -0.039362628 -0.17290217 0.055852655 0.0518055
0.19405067 0.026991328 -0.14173895 -0.19705623 -0.06594249 -0.19985807 0.12770112 0.19298424
0.2276958 0.1835471 -0.22089002 -0.17542893 0.16578496 -0.002969938 0.044881385 -0.13339798
-0.11146086 0.09943023 0.058327217 0.09605908 0.08866556 0.21091196 -0.19321132 0.065984
-0.14936155 0.18155916 -0.029279392 0.13671209 -0.04724732 -0.006277789 -0.18494152 -0.058591925
0.011366974 -0.079331495 0.19950655 -0.15433994 -0.050744254 0.101639956 -0.17330886 0.050766278
0.10278934 -0.004568164 -0.18724336 -0.11401187 0.18889602 -0.13264093 -0.0071161836 0.1732624
0.21788114 -0.12419054 0.1978454 -0.11602517 -0.014742914 -0.030220004 -0.19557236 0.20565334
0.16803454 -0.16289361 0.14247191 0.07738569 0.17634578 -0.21134709 0.108244896 -0.14959183
0.0008793861 -0.06859423 -0.11509945 0.12503448 0.079962045 0.038672447 0.10022852 -0.049784113
-0.0564895 -0.20740221 -0.08442559 -0.1985656 0.20778649 0.11180505 -0.055057857 -0.18487641
-0.09984322 -0.16903672 0.09124371 0.18993965 -0.1364463 -0.20555347 0.18776722 0.101452135
0.07142703 -0.09194137 -0.10055574 -0.09964942 0.19861887 0.009476866 -0.05715676 -0.18937685
-0.03559718 -0.05959918 0.2063208 -0.10035463 0.16595386 -0.12578195 -0.010738983 0.09516003
0.20099024 0.15582629 0.06942035 0.08837898 -0.08092278 -0.07022456 -0.06588263 0.10602253
-0.19716455 0.0750279 -0.20333457 -0.15132754 -0.15921287 -0.17227694 -0.21234637 0.12221835
0.05915106 0.08224763 -0.027409222 -0.2055154 -0.111500196 -0.06336803 -0.14458092 -0.048054285
0.21170397 -0.024486994 0.07381258 0.19911799 -0.14468277 -0.049460065 -0.10504444 0.21487553
-0.16430214 0.14840476 0.13788074 0.13279353 -0.16938785 0.005237051 0.1638196 -0.013969294
0.22088435 -0.060813915 -0.055965383 0.1855665 -0.18340276 -0.20006242 0.060100432 0.056960274
0.17202258 -0.14773244 0.003086755 -0.0035965056 0.0035313105 0.08699769 0.05818921 0.07327446
-0.13328743 -0.09970202 -0.01180729 0.10477667 -0.02657128 -0.17212509 -0.10780449 -0.10057201
-0.0427467 -0.08858469 0.06872445 0.09606511 0.07658155 0.19501425 0.18668714 0.042858742

transformer.layers.0.self_attn.out_proj.bias f4 [64]
00000000: 3113 6b39 f772 ee3b 7528 29bb 7678 103b
00000010: 44fc d5b9 78e5 c0ba 2def 2739 f113 ad3b
00000020: d4f5 4a3a 0d0f a2b8 9b42 2ebb 8531 85bb
00000030: 9299 c9bb 9c26 9b3a a31a 9e3a 01f4 c339
00000040: 5e10 033c 7998 763b 7721 22bb 17e5 5c3b
00000050: 407f 843b 14eb 8738 f9e6 cfba c559 f3ba
00000060: 84ef a73b e8fe 1a3b 3474 09bb f1b9 e13a
00000070: ca69 17b9 b93c 81b9 7569 be3b 8271 a3ba
00000080: eb22 68ba c334 c639 3704 823a f443 e63b
00000090: 177d 5639 7751 f8ba a91a 813b 4dc8 e83a
000000a0: 7e09 103b 4fae 1bba ea41 9939 1351 9f3a
000000b0: a24a e9ba c34c 8dba 6298 a6bb 5b6c 5ebb
000000c0: 82cc d3b9 d86a fcbb 6919 213b c84d e83a
000000d0: bad3 83ba 7632 b2ba edd1 86bb d667 303a
000000e0: d13a 353b 88b1 fa3b b903 0f3c 8c96 9dbb
000000f0: d2fe cebb 81d1 bcb9 739e eb39 4e9d b93a
0.00022418496 0.0072768885 -0.0025811468 0.0022044457 -0.00040814478 -0.0014716825 0.00016015461 0.005281918
0.000774232 -7.7275654e-05 -0.0026589993 -0.004064741 -0.00615234 0.0011837068 0.0012062382 0.00037375095
0.007999508 0.0037627502 -0.0024739185 0.0033705884 0.0040434897 6.481088e-05 -0.0015861682 -0.0018566182
0.005124988 0.002365047 -0.0020973803 0.0017221553 -0.00014439892 -0.0002465004 0.0058109113 -0.0012469741
-0.0008855301 0.00037804813 0.0009919469 0.0070271436 0.0002045523 -0.0018945177 0.0039399457 0.001775989
0.0021978314 -0.0005938755 0.00029231544 0.0012154899 -0.0017798732 -0.0010780323 -0.0050840834 -0.0033939097
-0.00040397426 -0.0077031665 0.0024581796 0.0017723376 -0.0010057606 -0.0013595361 -0.0041143806 0.000672934
0.0027653466 0.007650558 0.008728915 -0.0048092064 -0.006316998 -0.00036014247 0.00044940747 0.001416126

transformer.layers.0.linear1.weight f4 [256, 64]
00000000: 160a 28bb 5e97 d8bd 16b8 0ebe 85bd 273d
00000010: 535a ba3d 6003 8fbb b7b0 3c3d 160f 013e
00000020: 12d1 96bd 903c ba3d 9b59 863d c21c 9f3c
00000030: 8be5 de3c 3277 8b3d f886 ee3d 139c 1cbd
00000040: ed4f 77bd 33a5 7d3d 0659 1c3d 335e 9dbd
00000050: e5f9 b8bd c429 c43d a8d4 b23d 824d a5bc
00000060: 6691 77bd b46f 4bbc 5163 a5bd 6738 983d
00000070: 8f77 cbbd 569a 29bd c8f8 eebd f498 9a3c
00000080: ddbc 5bbc 4d16 cebd c70c fa3d e7e1 bb3d
00000090: 13d2 d53d 1d72 0bbe 4454 62bc f5f5 e13d
000000a0: 8df4 dc3c 295b 823d c522 cc3d 3e31 173d
000000b0: cc96 65bd 1155 7b3d 2c49 1abd a566 ce3d
000000c0: ea15 b8bd 92b0 96bd 0646 c2bc b8d3 063c
000000d0: 1f18 b2bd d083 f0bc 9a2d fa3d d7e0 0c3d
000000e0: a53a efbd d2d4 a1bd de52 a4bd e7c6 c63b
000000f0: 1b95 fd3c ff06 c53b c35e 0cbe e092 a73d
00000100: b785 a43d 6e07 5dbd 8229 04be 89ac 86bd
00000110: 845d 98bd 2a77 8f3d 3cba 7d3c bc99 6a3d
00000120: eb15 d03b 3ea3 53bd d58d 39bd 79b4 42bd
00000130: ed59 253d 86d3 d53d bbd9 163d f5f8 c0bd
00000140: b18c 723d edcd c8bd 5289 a53d 9586 1abc
00000150: 3aee 18bc 3d05 c33d 3b7d bbbd e4ad f63d
00000160: 46ce d3bd bc8e 84bd fe5f 11bd 77fc 6dbd
00000170: 1ded eabc 86f6 d83d 5fb6 9e3c f892 2c3d
00000180: 73a6 693d 8eec 503c 7d8b 433d 0b0d cdbd
00000190: 56f0 b13d 0120 fe3d 5be2 a93d d79c 18bd
000001a0: 9d9a f83d 9dde d93d 0d32 8cbd 84c6 82bd
000001b0: 0b54 ea3d 39b8 c7bd 3eda 7d3d 173c 29bd
000001c0: 9b13 b5bd 2309 9a3b 726e 8abd 97b8 f4bd
000001d0: 49fb 02be db79 163d 691a 9abd a44d da3d
000001e0: c40a 4d3d 9965 00be 2f7d 873d 11fc 74bc
000001f0: 315c 053d 0466 073e 7709 63bd fb41 fcbb
00000200: d43a bf3c fb34 053e 7120 e4bc e1d6 d1bc
00000210: e1a9 e6bd d034 dbbc 7af0 00bd bfc9 0bbe
00000220: 2fad b43d 346b 74bd af59 7d3c b0c6 cd3d
00000230: 8dcb b63d 66eb d83c 3d63 623d 03c3 b23c
00000240: 22dc 5f3d 0eff a23b af58 02bd 938b 4abd
00000250: 03e9 703d 7c2e 6dbc 4207 f3bd 8fa0 d3bd
00000260: 6dce f83c 97be 8a3d 8e29 15bd d176 ab3d
00000270: 4253 d23d 0714 2d3d 87ae 76bd a5d5 d63d
00000280: c871 9ebd 7d52 033c bd0c f83c 0e11 36bd
00000290: 0935 b83d a297 83bd 9d7b 2db7 4da7 78bd
000002a0: 327e 943d 022c bebb fb34 b0bd 97fe bcbd
000002b0: b3ca 153d 1856 dc3b e040 c5bd c358 a8bc
000002c0: d7c1 b5bd 7bc4 e3bd 3888 ef3d 4085 71bd
000002d0: 18d0 15be 6330 09bd 3f1e c7bd 5356 fabd
000002e0: 00b6 44bd 2ce3 7bbc f4a1 9b3d 6e05 dbbd
000002f0: 6542 8dbd 4113 043d ab35 bcbd cfb0 293d
00000300: c028 883d 960a 8cbd 6dbc 023e 94cc b4bd
00000310: 2c85 adbd 29de bbbb b487 5bbb 9e57 9b3d
00000320: b0dd 0b3e e8c8 423d da72 7d3d 2d49 8c3d
00000330: 37e1 9bbd fbd3 813c 8f3c 05bc e741 753d
00000340: c38c c93d ca7b 0b3e 164f 4bbd 8468 8c3c
00000350: d1ae 1cbc 7dc2 c53d dfa8 fd3d 91e1 fabd
00000360: e6be b93b e173 d53c 8cb9 efbd 413c f23c
00000370: 86bc 973c aa4a 0fbb d6d3 df3d 13fa 0f3e
00000380: e98c e53d 60b1 6b3d 87c9 cdbd cbe4 ee3d
00000390: 3051 013d 7f73 003d 5ad3 ea3d 6d13 a03d
000003a0: 724c 09be c3a2 bfbd 40ce aa3d eb6d 49bd
000003b0: 36c5 9d3c 1f0e ce3d d679 c0bd 8eff 8fbd
000003c0: be3a 02be fc06 9d3d 11ef 0fbc ecfc f8bd
000003d0: 02fc 8c3d 27ba 453b f312 b73d fbbd 78bd
000003e0: 82ab 8a3b 8f73 d2b9 ef57 98bd 804f f3bc
000003f0: cd63 2cbd 529c 343d 3dfd c53d 66e6 06be
-0.0025640777 -0.10575746 -0.1393741 0.040952224 0.09099259 -0.004364416 0.046066966 0.12603411
-0.07364096 0.09093583 0.0656006 0.019422892 0.027209064 0.06809844 0.11646837 -0.03823478
-0.060378958 0.061925124 0.038170837 -0.07683983 -0.090320386 0.09578279 0.08731967 -0.02017856
-0.060441397 -0.012416769 -0.08075584 0.07432633 -0.09934913 -0.04140695 -0.11668545 0.018871762
-0.013411728 -0.10062847 0.12209468 0.09173947 0.10440459 -0.1361775 -0.013814036 0.11033241
0.02697208 0.06365044 0.09967569 0.036912195 -0.056052014 0.061360423 -0.03766744 0.10078172
-0.08988555 -0.07357897 -0.02371503 0.008229189 -0.08696007 -0.029359728 0.12215729 0.03439411
-0.116811074 -0.079019204 -0.08023618 0.0060661915 0.030954888 0.006012797 -0.13708024 0.08182311
0.080333166 -0.053962164 -0.12906459 -0.06575877 -0.07439712 0.070051506 0.015486296 0.05727552
0.006350269 -0.05166935 -0.045301277 -0.047535393 0.040368963 0.104407355 0.036828738 -0.09422485
0.059216205 -0.09804902 0.080828324 -0.009431501 -0.009334141 0.095224835 -0.09154745 0.12044886
-0.10342078 -0.06472537 -0.035491936 -0.058102097 -0.028677518 0.105938956 0.01937407 0.042132348
0.057043504 0.0127517115 0.04774045 -0.100122534 0.086884186 0.12408448 0.08295127 -0.03725895
0.12138865 0.10638163 -0.06845484 -0.0638552 0.11441811 -0.097519346 0.06197571 -0.04131707
-0.0884163 0.004700796 -0.06759347 -0.1194927 -0.1279117 0.036737304 -0.075245686 0.1065934
0.050059095 -0.12538756 0.06615674 -0.014952675 0.032558624 0.1322251 -0.05542895 -0.007698295
0.023343481 0.13008492 -0.0278475 -0.025615158 -0.112628706 -0.026758581 -0.031479336 -0.13651179
0.08822095 -0.05967255 0.015463277 0.10047662 0.08925543 0.026479434 0.055270422 0.021821504
0.054653294 0.0049742525 -0.031822857 -0.049449515 0.058815967 -0.014476415 -0.11866619 -0.103333585
0.030371869 0.067746334 -0.036416583 0.08372272 0.102697864 0.042255428 -0.060225036 0.10489968
-0.07736546 0.008015272 0.030279512 -0.04444986 0.08994491 -0.06425406 -1.03403845e-05 -0.060706425
0.07250632 -0.005803586 -0.08603855 -0.09228247 0.036570262 0.0067241304 -0.096315145 -0.020550137
-0.08874863 -0.1112146 0.116959035 -0.058964968 -0.14630163 -0.03349341 -0.09722566 -0.12223496
-0.04802513 -0.015373986 0.075992495 -0.10694395 -0.068974294 0.032244924 -0.09189924 0.041428383
0.066483974 -0.068379566 0.12767191 -0.08828083 -0.08472666 -0.0057332707 -0.0033497633 0.07585071
0.13658786 0.04755488 0.06187711 0.06849895 -0.07611316 0.01584815 -0.008132114 0.059877302
0.09841301 0.1362144 -0.04963597 0.01713968 -0.009563164 0.09656236 0.12385725 -0.12250055
0.005668509 0.026056232 -0.11705312 0.029569747 0.018522512 -0.0021864572 0.109290764 0.1406024
0.11208517 0.057542205 -0.10048204 0.116647325 0.031571567 0.031360146 0.11466093 0.07816205
-0.13408068 -0.09357216 0.0834012 -0.04917709 0.019259077 0.10061287 -0.09398238 -0.07031165
-0.12717721 0.07667348 -0.008785025 -0.12157616 0.06884004 0.003017077 0.08939161 -0.060728054
0.004231871 -0.0004014042 -0.07438647 -0.029700994 -0.042087365 0.04409439 0.09667442 -0.13173828

transformer.layers.0.linear1.bias f4 [256]
00000000: ebd0 923d 54c3 6fbd c7ec ee3b 8163 8a3d
00000010: af33 dbbb 438d bcbd b820 c6bd 2842 d9bc
00000020: 1b58 c9bd f5fc 31bd 017f e23c d744 e0bc
00000030: 567f 72bd b1fd 6b3d 5824 533c 88ba 9c3d
00000040: 614c a53d 1e39 dfbd 3c0e 05bb 0744 923d
00000050: bf82 8b3d 58fc abbd 0130 993d 44bb 133d
00000060: 8564 2e3c b3b8 193c ff98 493d c7d1 fc3b
00000070: becd 5bbd 51b4 35bd 007e cfbd 37b2 87bd
00000080: 0663 9bbd ecf0 ec3c 5988 983d 27e6 88bd
00000090: c423 13bd 2600 933d ac4e e2bb dfba c83d
000000a0: b078 423d 149a 5b3c f532 cabd f73b 283d
000000b0: 5997 b6bd 0830 27bd a08c fabd 104d 913d
000000c0: 8559 343c 2b28 333d 047a 02bd 98af 813d
000000d0: 7367 c03c ca58 72bd 262c 4c3d e6ed 0a3d
000000e0: dc80 09bd ad19 3bbc 3176 ccbd 5e1a b4bd
000000f0: 8f03 a5bd a894 f5bc b109 85bd 7723 e5bd
00000100: 0e61 863d 58ac be3d dbed a7bd c977 1d3d
00000110: 58c5 93bd 21e3 e13d 3979 e1bd a0dc 863d
00000120: f5b6 debd 7705 0abc f6a9 f2bc e1bd 413d
00000130: 841e 70bd 6878 8b3d 1756 b43d 4e98 ef3d
00000140: 52f4 19bd a540 64bd 67c1 ffbd 99c3 bdbb
00000150: 01c0 9c3d 7c4b c73d e48f d9bc 314c 703c
00000160: 083a 8c3d 1e4b 4b3c a43f fabc 93d8 d5bc
00000170: 21f8 12bd 04c0 913d 8608 a23c 6510 afbc
00000180: 291c 7cbd 8f93 cb3c a3da eebd e64f 9b3c
00000190: 5827 d6bc 8991 b93d db4e 323c c3d0 b6bd
000001a0: db1c 723c 22fd 8bbd 6859 793c 7190 793c
000001b0: ddbb bcbd 3e6e f03d c33c 81bd 0473 8fbd
000001c0: 6230 2fbd 5281 9bbb 733d 103d 6e47 f2bd
000001d0: e787 993d 1c1e 0a3c 1a15 5abd a015 f3bc
000001e0: 28ac 4bbd 34eb a83c ae1b f6bd b121 8bbd
000001f0: f79d 673c 7a36 dbbd 65c7 dabd f833 34bd
00000200: 2d23 ea3d 2651 b7bc 3d62 2fbc 65b6 bf3d
00000210: ef18 e1bd 6898 9a3d 9b81 ca3d 52d3 213d
00000220: ea78 c83d e5b9 81bc b115 9f3d f26f 44bd
00000230: ae72 c2bd 87ad dfbc 9fd0 043b a8a6 db3d
00000240: 9dad 39bc 20fd 39bc 8268 953d 0bad 24bd
00000250: 1f3b 84bd c7ab 903d 6b42 86bc 44a9 a8bd
00000260: df9b ea3d 8c3d 9ebd cddb 08bd a548 79bb
00000270: 0714 833d 0e67 5dbd 5fa9 8cbc 3fdf 2dbd
00000280: 5897 a23d 1667 473d 27ce 1d3d a93b 863d
00000290: 6b68 abbd d41f bb3d b619 733b 8ce3 cdbd
000002a0: 67c6 ddbd 0701 91bd c545 273d 13d8 c4bd
000002b0: eeb6 853d 29d7 8bbd a80d cebd 3bf6 043d
000002c0: cf70 99b8 d2fd 3ebd 09ed b3bc 1e5b 9e3d
000002d0: 32a6 96bc 7517 373d 2a46 993c b891 e7bd
000002e0: 4420 1abc 4bb1 1b3d 2b4d ae3d 5532 41bd
000002f0: 3572 e83d 98ff 6bbd f6a7 ebbd 3784 45bc
00000300: 27ba 093c d986 b73d 04ee 3b3d 2734 f2bd
00000310: 4c3b 7f3d 0f6d a2bd 146a 3dbd 9d29 febd
00000320: 39d4 dabd 846f d63d 377c 83bd 70bd c6bd
00000330: a96a 1dbd 66e5 d6bd e205 7b3c d05b 913d
00000340: 010d 24bd 0af0 5f3d 498f e53d d45f ee3d
00000350: 624a 8bbc 4ac2 183d 30e3 d73d a7af a23d
00000360: 9cbb 013d 57ab 823d a144 b2bc f234 b43c
00000370: 1641 023e 4138 c93d 681d f83c cdf8 9a3d
00000380: 32e6 ccbd 9c8e 243d f5fd 6a3b 78c9 bbbd
00000390: 6307 633d c397 eabd 0215 e83d cc92 5cbd
000003a0: 6861 d2bd d716 75bc 158c a3bd baf7 f6bd
000003b0: effc 08bc a955 fabd 7f92 66bd 3895 5dbd
000003c0: cc08 82bd dc0d fd3b 6069 cbbd 1dc8 823c
000003d0: 3067 5bbd 9a01 84bd 23b3 1d3d 103c b73d
000003e0: 64db d7bc b212 d83c 2909 cbbd 9b17 803d
000003f0: ec2e f63c 15e9 c0bd ac22 b03c 3bbc f0ba
0.07168754 -0.05853589 0.0072914097 0.0675726 -0.006689511 -0.09206631 -0.09674209 -0.026520804
-0.09831258 -0.04345413 0.02764845 -0.027376575 -0.05920347 0.057614986 0.012887083 0.076527655
0.08071209 -0.10899566 -0.0020302674 0.071418814 0.06812047 -0.0839774 0.07479859 0.036067262
0.010644083 0.009382415 0.049218174 0.007715437 -0.053663008 -0.044361416 -0.101314545 -0.06625789
-0.075872466 0.028923474 0.07447881 -0.06684523 -0.03592278 0.07177763 -0.006906351 0.09801268
0.047478378 0.013403434 -0.098730005 0.041072812 -0.08915586 -0.04081729 -0.12233853 0.07094777
0.011007671 0.04373948 -0.031854644 0.0633232 0.023486828 -0.059166707 0.04984679 0.033918284
-0.033570156 -0.011419696 -0.09983481 -0.08794092 -0.080573194 -0.029978111 -0.06495989 -0.11188405
0.065614805 0.09310216 -0.08199664 0.038444314 -0.07215375 0.110296495 -0.110094495 0.0658505
-0.1087474 -0.0084241545 -0.02962206 0.047300223 -0.058622852 0.06810075 0.08805483 0.11698972
-0.037586518 -0.055725712 -0.124880604 -0.0057911393 0.07653809 0.097311944 -0.02655787 0.014666603
0.06847006 0.012408046 -0.030547924 -0.026104247 -0.035881165 0.07116702 0.019779455 -0.021370122
-0.061550293 0.024850635 -0.116627954 0.018958997 -0.026141807 0.09060962 0.010883058 -0.08926537
0.0147773875 -0.068353906 0.01521907 0.015232191 -0.092155196 0.11739777 -0.063104175 -0.07004359
-0.04277075 -0.004745641 0.035214853 -0.118300304 0.074966244 0.00843003 -0.05324278 -0.029673398
-0.049724728 0.020619966 -0.12016998 -0.067935355 0.014136783 -0.1070375 -0.10682563 -0.043994874
0.114324905 -0.022377562 -0.010704574 0.09360961 -0.10991084 0.075486004 0.098880015 0.03950817
0.097886875 -0.015835712 0.07767809 -0.047958322 -0.0949453 -0.027304424 0.002026595 0.107251465
-0.011332897 -0.011351854 0.07295324 -0.04020409 -0.06456589 0.07064014 -0.016389092 -0.0823541
0.11455511 -0.07726583 -0.033412743 -0.0038037684 0.06400304 -0.05405336 -0.017170606 -0.042449232
0.07939023 0.048682295 0.03852668 0.06554348 -0.083695255 0.0913693 0.0037094182 -0.10053167
-0.10828858 -0.07080274 0.04083802 -0.096115254 0.06529032 -0.06828148 -0.100611985 0.032461386
-7.316621e-05 -0.04662878 -0.021963613 0.07732223 -0.018389795 0.044700105 0.018710215 -0.113070905
-0.009407107 0.038010877 0.08510812 -0.04716714 0.11349908 -0.0576168 -0.115066454 -0.012055448
0.008406199 0.08961267 0.045881286 -0.118263535 0.06231241 -0.079309575 -0.046243742 -0.12410281
-0.106850095 0.10470489 -0.064201765 -0.09704101 -0.038431797 -0.10492973 0.015321227 0.0709759
-0.040051464 0.05467228 0.1120897 0.116393715 -0.017003242 0.037294663 0.105413795 0.07943659
0.03167306 0.06380337 -0.02176124 0.021997903 0.12720141 0.09825183 0.03028746 0.07566986
-0.10004844 0.040175065 0.0035856937 -0.091692865 0.055426966 -0.114547275 0.11332132 -0.053850934
-0.10272485 -0.014959059 -0.07985703 -0.12058969 -0.008361085 -0.1222337 -0.056292053 -0.054097384
-0.06349334 0.0077225994 -0.09932208 0.015964562 -0.053565204 -0.06445618 0.038500916 0.08947003
-0.02634973 0.026376102 -0.099138565 0.062545024 0.030051671 -0.09419457 0.021500908 -0.0018366644
