utils/td_best_model.pth (torch, 863897 bytes, 57 tensors)

input.weight f4 [64, 7]
00000000: 381a 58be bb10 4dbe 2eae a63d 05c7 543e
00000010: 52bc 113e aed3 93be 8bbb 22be 1f62 34be
00000020: ba43 803e dd23 b6bd 0a15 843e c4dd 573e
00000030: adec 363e 32f3 78bd 2962 593e 5681 7cbe
00000040: c7b9 79bd 067a 39be 572e 81be c54f cbbd
00000050: 8cf8 133e f144 9d3d c10a 003e f711 3fbd
00000060: be54 37be fd33 193e 5984 1a3e ad0e 79be
00000070: b2c7 c6bd 60c5 1b3e 1dc0 84be c472 413e
00000080: f227 d63c 1a61 393e 11b9 85bb c4a8 3cbe
00000090: 53ff 74bc e331 c03c 6b3c 263e ff07 babd
000000a0: a207 933d 8a2b f03d 9ffb 4bbe 9e01 db3d
000000b0: 91ac 4fbe 5ed3 4e3c 953c af3d afda 043e
000000c0: fceb b93d cd54 2dbe d866 223e 2dfb bb3d
000000d0: 0ff8 233e 8386 243e 6e65 90be 7e4a 09be
000000e0: 8f35 d4bd e81f 92bc 0ee2 8bbe 66f6 c53c
000000f0: f367 83be 16ec d7bd 90dc 893e f64e 5ebe
00000100: 4b40 873c c35d 8c3e 94ac d4bc f47f c8bd
00000110: 1ed3 c73d 0a08 ae3c 3b28 323c 2f9b 363e
00000120: adf0 223c 882d 8ebe d702 a63d 326a 12bc
00000130: 3e79 0ebe 769c 323e 389c 863e 75cf 80be
00000140: 7e43 91bd 7a58 183c 3b58 1b3e 6306 40bd
00000150: 61cc 393e a703 913e 5c29 423e 2ff2 46be
00000160: dc7a 1fbe 6faf 783e c953 c43d e1e3 79be
00000170: 9969 abbd 2718 20bd 89e9 3ebe e802 26be
00000180: 345a 363e 271b 4ebd 1dcc 44be 513f 553e
00000190: 262d 5d3e dc53 903e 2521 76be a4ac febd
000001a0: 9034 2ebd 90b3 863e 1ee9 093c aa3a bd3d
000001b0: 3f49 6fbe e362 f4bd c9b5 46bd 238c 84be
000001c0: 2c04 2dbe 4bf2 873e 173e 6b3e 02c1 94be
000001d0: 758c 143e 63c3 59be 53a2 093e 8600 803e
000001e0: 09ef 843e e7d8 f2bd 771e 10be 6db4 0cbe
000001f0: cb98 293d 6362 67be 1252 de3c fa57 8c3e
00000200: cbe1 a03d 718a 8cbd d69b 55be a021 94be
00000210: b2f4 7bbb 9ba9 0cbd 8c85 7dbe 38a3 86be
00000220: bf66 6ebe 3350 1c3e 66d7 783d 84ff 50be
00000230: 9655 8c3e 14ee 91be edac ca3d bc36 823d
00000240: bbd0 17be e924 163e ce77 2d3e 30ea 74be
00000250: 08ca 05be bedb 91bd 6da2 053e 586b 7a3e
00000260: 6213 3d3e 4bc1 0d3d 920d 38bc c1c9 ef3d
00000270: b248 6ebe df7d 323e 4175 edbd 3d1e d6bd
00000280: 6245 a1bd f84d 2ebe 5b9d ec3d f8a6 37be
00000290: 9f2d 92bd 3d18 c43c cadf 61be 533b 2f3e
000002a0: 051c 36be 547a 96be 01f7 513e 1035 97be
000002b0: b766 a63d a583 0bbe fbb1 7abe 7ef5 42be
000002c0: 9d6f 5a3e 9686 b43c cc7f 533a ed31 02be
000002d0: 78e9 80bd 0433 353e cf8a 5a3e 193a 173e
000002e0: ed6c 813c 3812 35be 9366 8ebe 03f4 1bbd
000002f0: 0c01 913e b832 8e3e 3d95 eaba a064 86be
00000300: ba71 89bd 2a93 2bbe 6f3b 09bd 8ba1 93be
00000310: 1f27 453e bdbc 88be 17fc 5bbe 1694 843e
00000320: 501e a0bd df71 93be 285e 64bd 6bde 5b3e
00000330: 6cee 18be 7c17 80be e42e 7abe a3ea b7bc
00000340: 4074 173d e13a 243e 0678 803d 190c 873e
00000350: c8ba 5b3e 6e6f 49be de07 f6bd b9f0 33bd
00000360: ba4e 793e 2ca1 d7bd ae94 823e 2fb0 dcbd
00000370: b2f8 d2bd 3355 c5bd 9dc7 7bbe c22a f53d
00000380: 4427 003e ccc1 263e 7f0c 33be 0f7e 173e
00000390: 7cb5 583e 87a7 73be 7629 45be 8732 47be
000003a0: a436 f53d f9f4 d93d b4a0 53be 01f0 813d
000003b0: bb57 86be 3739 633d 5753 bdbd 182f d03c
000003c0: 21dc 093c 1386 913e 17c5 263e 6ab3 39be
000003d0: 6fe8 8abe a1d3 99bd 4b37 4cbe a596 4a3b
000003e0: 7e9f 73be e8a1 5dbe cbc1 f03d ae80 49be
000003f0: 625b 8fbe be77 e43d fbe8 04bd f92e 7d3e
-0.21103752 -0.20025913 0.08138691 0.20779045 0.14231995 -0.28872436 -0.15891854 -0.17615555
0.2505167 -0.08893559 0.25797302 0.2108069 0.17863722 -0.060778804 0.21228851 -0.24658713
-0.060968187 -0.18112954 -0.25230667 -0.09927324 0.14450282 0.07679165 0.12504102 -0.046647992
-0.1790342 0.14961238 0.15089549 -0.24322005 -0.097060576 0.15212011 -0.2592782 0.18891436
0.026142094 0.18103448 -0.0040808995 -0.18423754 -0.014953452 0.023461288 0.16233985 -0.090835564
0.0717919 0.117270544 -0.19920205 0.10693668 -0.20280673 0.012623636 0.08556477 0.12974046
0.090782136 -0.1692688 0.15859544 0.09178767 0.16012596 0.16066937 -0.28202385 -0.13407323
-0.10361778 -0.01783748 -0.27320904 0.024165343 -0.25665244 -0.10543077 0.26926088 -0.21709809
0.01651015 0.27415285 -0.025961198 -0.0979003 0.09757064 0.021244068 0.0108738495 0.17832635
0.009945077 -0.27769113 0.081060104 -0.008936452 -0.13913438 0.17442498 0.2629106 -0.25158277
-0.07092951 0.009298438 0.15170376 -0.04688109 0.1814437 0.283231 0.1896109 -0.19428323
-0.15574211 0.24285673 0.09586293 -0.24403335 -0.083697505 -0.039085533 -0.18643774 -0.16212046
0.17807847 -0.050318863 -0.19218488 0.20824935 0.21599254 0.2818898 -0.24036081 -0.12435272
-0.042530596 0.2630887 0.008417396 0.09239705 -0.23367785 -0.11932924 -0.048513208 -0.25888166
-0.16896123 0.26552042 0.22972904 -0.29053503 0.14506705 -0.2126594 0.13440828 0.250004
0.2596362 -0.11857777 -0.14074121 -0.13740702 0.04140548 -0.22596125 0.027138744 0.2741087
0.078555666 -0.06862343 -0.20860228 -0.28931904 -0.003844541 -0.034341436 -0.24757975 -0.262964
-0.23281382 0.15264969 0.060752295 -0.20409971 0.27409047 -0.28501952 0.09896264 0.06358096
-0.14825718 0.14662518 0.16940233 -0.2391746 -0.1306535 -0.071219906 0.13050242 0.24455011
0.18464425 0.034608167 -0.011233704 0.117084034 -0.23269919 0.17430829 -0.1159463 -0.10454986
-0.07874562 -0.1702193 0.11553451 -0.17934787 -0.07137608 0.023937339 -0.22058025 0.17112474
-0.17784126 -0.29390204 0.20504381 -0.2953267 0.0812506 -0.13624437 -0.24481957 -0.1903896
0.2133164 0.022036832 0.00080680544 -0.12714358 -0.06294531 0.17695242 0.21342014 0.14768256
0.01579901 -0.17682731 -0.27812633 -0.038074505 0.2832111 0.2777307 -0.001789726 -0.26248646
-0.06711145 -0.16755357 -0.033503946 -0.28834185 0.19253205 -0.26706496 -0.21482883 0.2589423
-0.07818282 -0.28797814 -0.055753857 0.21471564 -0.149347 -0.25017917 -0.2443195 -0.02245075
0.0369761 0.16038086 0.06272893 0.26376417 0.2145797 -0.19671413 -0.12013219 -0.043930743
0.24346438 -0.10528788 0.2550406 -0.10775792 -0.10301341 -0.09635391 -0.24587865 0.11971046
0.12514979 0.16284865 -0.17485236 0.14794181 0.21162981 -0.23794375 -0.19254097 -0.19452868
0.119733125 0.10642428 -0.20666772 0.06344605 -0.26238808 0.055474486 -0.092444114 0.025413081
0.008414299 0.28422603 0.16286121 -0.18134847 -0.27130458 -0.07511068 -0.19942968 0.0030912545
-0.2379131 -0.21643794 0.11755713 -0.19677994 -0.27999407 0.111556515 -0.03244875 0.2472495

input.bias f4 [64]
00000000: 8301 b33e c7ab eb3d a64b 56be 3f0d 703d
00000010: edea 75bd af0c af3e 6e2d 0fbe d8e1 df3d
00000020: 86e8 2c3e 8217 5f3e b5f8 803e 0dae ad3d
00000030: 76b4 a83e ef55 41bc fb33 a83d 1da3 4f3d
00000040: 9a7b b53d 5676 6cbe 47ce 0a3e 3aa4 b6be
00000050: a86d 45be b17c a93e 8f23 723e 7c4d 7bbe
00000060: 5f75 2d3e dbff 31be 7696 ac3e a715 a9be
00000070: ee6b 82bd bd4d 893e 1b03 863e 8c75 eb3d
00000080: dc89 2bbe 36cf 19be 12b1 b8be 3bca 59be
00000090: ad04 7fbc 2b23 843d 463d 773e 32c9 223d
000000a0: b9a4 afbe 7925 a33e 5f59 af3e 52f7 57be
000000b0: 7103 193e d20d 22be bd68 aebe b56e fc3d
000000c0: b5d1 35be 41dd b43e 2243 863e d696 bd3e
000000d0: 646a a23e 220d 583e f6c8 883e 19b2 41be
000000e0: ab6f c63d e19c 963e d770 57be ccb9 b13e
000000f0: 237d edbd 8c2e 083e ce5e 873e d191 77be
0.3496209 0.11507373 -0.20927295 0.058606382 -0.060038496 0.34189364 -0.13982174 0.10931748
0.16885576 0.21786311 0.25189748 0.08480463 0.3295018 -0.011800273 0.082130395 0.050692666
0.08861466 -0.23092017 0.13555251 -0.3567217 -0.19280112 0.33102944 0.23646377 -0.24541277
0.16939305 -0.17382757 0.33708543 -0.33024332 -0.06368242 0.26817122 0.26174244 0.1149703
-0.16751808 -0.15020451 -0.36072594 -0.21268551 -0.01556508 0.0645202 0.24144468 0.039742656
-0.3430536 0.31864527 0.34247872 -0.21090439 0.14942719 -0.15825585 -0.34064284 0.12325803
-0.17755778 0.35325053 0.26223093 0.3702914 0.31721795 0.2109876 0.2671582 -0.18915595
0.09689268 0.29416564 -0.21039139 0.34712064 -0.115961336 0.13299006 0.26439518 -0.24176718

pe.pe f4 [1, 24, 64]
00000000: 0000 0000 0000 803f 0000 0000 0000 803f
00000010: 0000 0000 0000 803f 0000 0000 0000 803f
00000020: 0000 0000 0000 803f 0000 0000 0000 803f
00000030: 0000 0000 0000 803f 0000 0000 0000 803f
00000040: 0000 0000 0000 803f 0000 0000 0000 803f
00000050: 0000 0000 0000 803f 0000 0000 0000 803f
00000060: 0000 0000 0000 803f 0000 0000 0000 803f
00000070: 0000 0000 0000 803f 0000 0000 0000 803f
00000080: 0000 0000 0000 803f 0000 0000 0000 803f
00000090: 0000 0000 0000 803f 0000 0000 0000 803f
000000a0: 0000 0000 0000 803f 0000 0000 0000 803f
000000b0: 0000 0000 0000 803f 0000 0000 0000 803f
000000c0: 0000 0000 0000 803f 0000 0000 0000 803f
000000d0: 0000 0000 0000 803f 0000 0000 0000 803f
000000e0: 0000 0000 0000 803f 0000 0000 0000 803f
000000f0: 0000 0000 0000 803f 0000 0000 0000 803f
00000100: a46a 573f 4151 0a3f ce7a 2e3f b054 3b3f
00000110: ba7d 083f 0d94 583f f190 d13e c692 693f
00000120: 3e39 9f3e 6b4e 733f 258f 703e f1d5 783f
00000130: 3a23 353e 83f6 7b3f f325 083e 28ba 7d3f
00000140: 7675 cc3d 98b8 7e3f 366f 993d d147 7f3f
00000150: ae36 663d 6898 7f3f faac 2c3d bdc5 7f3f
00000160: 5b81 013d 3cdf 7f3f a53e c23c 93ed 7f3f
00000170: 42ab 913c a3f5 7f3f 497a 5a3c 2cfa 7f3f
00000180: 57d6 233c b9fc 7f3f 16b9 f53b 28fe 7f3f
00000190: 5a44 b83b f7fe 7f3f 5a2e 8a3b 6bff 7f3f
000001a0: 1c3e 4f3b acff 7f3f 0369 1b3b d1ff 7f3f
000001b0: 2015 e93a e6ff 7f3f 8bc9 ae3a f1ff 7f3f
000001c0: 6d12 833a f8ff 7f3f 8994 443a fbff 7f3f
000001d0: 136a 133a fdff 7f3f 2117 dd39 ffff 7f3f
000001e0: 61cb a539 ffff 7f3f 0da8 7839 0000 803f
000001f0: 5377 3a39 0000 803f 6dd4 0b39 0000 803f
00000200: b7c7 683f 3311 d5be d95a 7f3f 534d 913d
00000210: 0af2 663f b2e8 dc3e 1235 3f3f 0239 2a3f
00000220: 1b54 173f ec7b 4e3f b5d3 e93e 69be 633f
00000230: f647 b23e a6fa 6f3f 82f0 863e f5f2 763f
00000240: f86f 4b3e a5e5 7a3f d300 193e 4f20 7d3f
00000250: 86d9 e53d f361 7e3f ae85 ac3d 0e17 7f3f
00000260: c870 813d f97c 7f3f aa30 423d 4eb6 7f3f
00000270: 5ca5 113d 8ed6 7f3f 5075 da3c b1e8 7f3f
00000280: 3ed4 a33c e5f2 7f3f 51b7 753c a1f8 7f3f
00000290: 9b43 383c dbfb 7f3f 0a2e 0a3c abfd 7f3f
000002a0: d83d cf3b b1fe 7f3f e768 9b3b 43ff 7f3f
000002b0: 0815 693b 96ff 7f3f 80c9 2e3b c4ff 7f3f
000002c0: 6812 033b dfff 7f3f 8594 c43a edff 7f3f
000002d0: 126a 933a f5ff 7f3f 1f17 5d3a faff 7f3f
000002e0: 60cb 253a fdff 7f3f 0ca8 f839 feff 7f3f
000002f0: 5377 ba39 ffff 7f3f 6dd4 8b39 0000 803f
00000300: c381 103e 2670 7dbf de3c 473f cebf 20bf
00000310: d745 7e3f ab7f edbd 6321 743f 6318 9a3e
00000320: c209 503f 582f 153f b724 273f a2e7 413f
00000330: 6c2f 023f 296d 5c3f a768 c73e 37c9 6b3f
00000340: 6c4e 973e ef90 743f e26d 643e 928c 793f
00000350: d7ee 2b3e 9e5d 7c3f 2c33 013e 43f4 7d3f
00000360: c0ff c13d 4fd9 7e3f 0693 913d 3a5a 7f3f
00000370: 4e69 5a3d c3a2 7f3f c5d1 233d 90cb 7f3f
00000380: 1fb9 f53c 83e2 7f3f 4747 b83c 6bef 7f3f
00000390: c631 8a3c adf6 7f3f 4644 4f3c c1fa 7f3f
000003a0: 0d6e 1b3c 0dfd 7f3f 131d e93b 58fe 7f3f
000003b0: a8cf ae3b 11ff 7f3f 1317 833b 7aff 7f3f
000003c0: 929b 443b b5ff 7f3f 606f 133b d6ff 7f3f
000003d0: 171f dd3a e8ff 7f3f 56d1 a53a f3ff 7f3f
000003e0: 10b1 783a f9ff 7f3f 097e 3a3a fcff 7f3f
000003f0: 7ed9 0b3a feff 7f3f a4be d139 ffff 7f3f
0.0 1.0 0.0 1.0 0.0 1.0 0.0 1.0
0.0 1.0 0.0 1.0 0.0 1.0 0.0 1.0
0.0 1.0 0.0 1.0 0.0 1.0 0.0 1.0
0.0 1.0 0.0 1.0 0.0 1.0 0.0 1.0
0.0 1.0 0.0 1.0 0.0 1.0 0.0 1.0
0.0 1.0 0.0 1.0 0.0 1.0 0.0 1.0
0.0 1.0 0.0 1.0 0.0 1.0 0.0 1.0
0.0 1.0 0.0 1.0 0.0 1.0 0.0 1.0
0.84147096 0.54030234 0.68156135 0.731761 0.53316844 0.8460091 0.40930894 0.91239583
0.3109836 0.9504153 0.23492105 0.9720145 0.17689219 0.9842302 0.13295726 0.99112177
0.099833414 0.9950042 0.07491915 0.9971896 0.05620449 0.9984193 0.04215715 0.999111
0.031617504 0.99950004 0.023711512 0.99971884 0.017781857 0.99984187 0.013334819 0.99991107
0.009999833 0.99995 0.0074988706 0.99997187 0.0056233825 0.9999842 0.0042169513 0.9999911
0.0031622713 0.999995 0.0023713715 0.9999972 0.0017782785 0.99999845 0.0013335211 0.9999991
0.0009999998 0.9999995 0.000749894 0.9999997 0.0005623411 0.9999998 0.00042169637 0.99999994
0.00031622782 0.99999994 0.00023713727 1.0 0.00017782794 1.0 0.00013335208 1.0
0.9092974 -0.41614684 0.99748 0.070948265 0.9021307 0.43146282 0.74690354 0.66493237
0.5911271 0.8065784 0.45669332 0.8896242 0.34820527 0.93741834 0.26355368 0.96464473
0.19866931 0.9800666 0.1494172 0.98877424 0.1122313 0.9936821 0.08423935 0.99644554
0.063203394 0.9980007 0.04740969 0.9988755 0.03555809 0.9993676 0.026667267 0.99964434
0.019998666 0.9998 0.014997319 0.9998875 0.011246587 0.99993676 0.008433828 0.9999644
0.006324511 0.99998003 0.00474273 0.99998873 0.0035565514 0.9999937 0.0026670396 0.9999964
0.0019999985 0.99999803 0.0014997876 0.99999887 0.0011246821 0.99999934 0.0008433926 0.99999964
0.0006324556 0.9999998 0.0004742745 0.9999999 0.00035565588 0.99999994 0.00026670416 1.0
0.14112 -0.9899925 0.7782725 -0.6279267 0.9932532 -0.11596616 0.95363444 0.3009673
0.8126489 0.58275366 0.652904 0.7574407 0.5085361 0.86104065 0.3894703 0.92103904
0.2955202 0.9553365 0.22307542 0.9748012 0.16790329 0.9858035 0.12617177 0.9920084
0.094726086 0.99550337 0.071081206 0.9974705 0.053323083 0.9985773 0.039994974 0.99919987
0.0299955 0.99955004 0.022494925 0.999747 0.016869437 0.9998577 0.012650555 0.99991995
0.009486687 0.999955 0.0071140616 0.9999747 0.005334813 0.99998575 0.0040005534 0.999992
0.0029999954 0.9999955 0.0022496805 0.9999975 0.0016870227 0.99999857 0.0012650888 0.9999992
0.00094868336 0.9999996 0.00071141176 0.99999976 0.0005334838 0.9999999 0.00040005625 0.99999994

transformer.layers.0.self_attn.in_proj_weight f4 [192, 64]
00000000: 89cc 09bd b482 5abc 31d8 893b 4b99 1dbb
00000010: 2511 16be c746 a13c f25c 0abe 503c 903c
00000020: 4dd6 babd 93c5 a93d 00aa 0bbe d78c 5b3d
00000030: 9320 0e3d d269 50b8 1277 873d 6af5 873d
00000040: 4535 72bb 5931 9d3d 4f0a 02be 8273 67bd
00000050: 219b a2bd dc2b a1bc 7e99 85bd e10a fe3b
00000060: 77ec 42bd a005 6dbb adf5 13be aca3 0dbe
00000070: c25a 14bc 8681 3b3d 27a7 99bd fdc4 ce3d
00000080: bf34 e33d 90c1 8e3c d6f7 163e 38cf 093e
00000090: 0bfb d63d 1c42 a13c e264 9f3c a158 f73c
000000a0: 48b9 193e 4c9c 023e c6b8 5c3c ac74 293c
000000b0: 36f4 f0ba 034b b6bb 9948 4c3d 6dd2 ddbd
000000c0: b309 86bc 7e27 683d aec9 013e 1d5a 3fbb
000000d0: 6fa6 b8bd 4aba a3bd b8ca c9bd c5e5 623d
000000e0: 70ac edbd c7d9 433d bbce 4ebd f696 82bd
000000f0: 5d84 46bd 3f1e 08be 380f e03d d0cf 12be
00000100: 13cf e53c 300f 073e a19e db3d dce4 19bd
00000110: 15e8 0b3e 9ea5 c83b 7d7c 07be 302e e53c
00000120: eb5a ce3d efd1 b1bd 58d8 d23d e66b c93b
00000130: aab9 a43d 64b8 d6bd 2fd5 96bc 1de7 6b3d
00000140: 77d2 183d 3c33 053e 0d77 fc3d 485e 63bd
00000150: 1b26 f33c 0e7a bb3d 6bf3 93b9 dfed e13c
00000160: bc56 9bbd 6f6e 6c3d 4aeb 0d3e e716 d6bd
00000170: 0b34 c7bc e526 39bc 6bc1 713d f746 39bd
00000180: babd 173e e2d0 19be 4933 70bc b0a1 5d3d
00000190: cda8 ffbd e5be 80bc ce53 12be 366d 31bd
000001a0: 8c4e 0b3e 04a8 e63d c177 d63b 7ab7 18be
000001b0: 1faf 123e 8521 80bb 4f2a 9dbc e9f2 8bbc
000001c0: 363c 0f3e 78ab c8bd 3993 e1bd 60ef 713c
000001d0: 0f5b c33c 289e b5bd 2a1b d2bc 1a1d 973d
000001e0: 9b96 11be ba1a eabd 9b07 9b3d 7f3f 71bd
000001f0: 5454 02bd f167 08be b043 c6bd 5816 ebbd
00000200: 62f5 e03c a45c d93b 8ea7 a03d 93c9 03be
00000210: fcba 0c3e 4e19 5cbd 4e9a 5e3c a743 863d
00000220: 60c7 debd 9e69 51bd 3856 92bd 2ccc cc3d
00000230: 40f5 6bbd 9444 e8bd 20bd 243d 0a8a df3c
00000240: 1e68 f9bd 8edc 0fbe 3723 e53d 31cf 833d
00000250: eeee 963d 8faf c03d cf57 993d 2bce a23c
00000260: 1466 14be 843f f33d 32ca e7bc b2fb 183d
00000270: 236e d8bc 6272 13be abc8 cfbd 59ef 60bd
00000280: 8de8 1bbe 07ec ae3d ab2f 8bbd 7af6 be3d
00000290: faa4 bc3d 8196 ef3c a3fa 0e3e 8895 8abd
000002a0: f01c b53d 80bd 97bd da47 0f3d ffa8 27bd
000002b0: 092e 753d 78d0 ce3d 0a57 f73d e1d1 18bd
000002c0: 1d20 13be 6a27 fe3d 1585 073e 2156 5abc
000002d0: 3b06 103e ac97 f2bc e8be 5cbd 28c1 643c
000002e0: 084e a43d 27e6 babd 3d53 a5bd 39d6 5fbd
000002f0: 1745 873c c691 04be 6e14 ee3d 87d4 70bd
00000300: ea6f 1cbe 461e 89bb 95c8 f43b 6456 0ebe
00000310: f8e8 19be 3b64 93bd 6dab dbbd ef93 123e
00000320: 3c2b eb3d 9755 f23c 6019 303d 4d46 ce3d
00000330: 51ec 8fbd a892 0c3e 13ae 413d 62e3 cbbc
00000340: 3672 7b3d 0b70 fd3d 2c7c 893d 402e f9bd
00000350: ecc6 94bd f297 e7bd 69fb 7a3d 0394 1e3d
00000360: f692 9abd 3960 c7bc cb9d 9d3d a432 49bd
00000370: 0864 14be 2ecb f93c 0e81 663c 265b 97bd
00000380: a0d9 f4bd 983e 573d d87f 003d 50bf f33d
00000390: 6b59 343d 820a 8fbd 7a8c 02be d045 b1bd
000003a0: 2cf0 11be ced8 02be d665 5e3b b5a6 c63d
000003b0: aef4 10be 38e0 2a3d 7058 8e3d d9cf c4bd
000003c0: 0f76 04be b2e7 043e 3ba7 e9bd b889 35bd
000003d0: eee0 edbd f755 90bd b704 be3c c23f e43d
000003e0: d09f f13d a9e2 91bd dd76 8bbd 5daf 0ebe
000003f0: 9f29 143e d936 0f3e b440 fe3d 47d7 91bc
-0.033642326 -0.013336826 0.00420668 -0.0024047669 -0.14654978 0.01968707 -0.13512018 0.017606884
-0.09122906 0.082896374 -0.13639069 0.053601112 0.034699034 -4.9689617e-05 0.06614508 0.06638606
-0.003695802 0.07675428 -0.12699245 -0.05650664 -0.07939745 -0.019674234 -0.06523417 0.0077527617
-0.04758879 -0.0036166683 -0.14449187 -0.13831967 -0.0090548415 0.04577782 -0.07502585 0.10096166
0.11094045 0.017426282 0.1474298 0.13457954 0.104971014 0.019684844 0.019457284 0.030193629
0.15012085 0.12754935 0.013471788 0.010342758 -0.0018383327 -0.0055631413 0.049873922 -0.10831151
-0.016362047 0.056678288 0.12674591 -0.0029197999 -0.0901612 -0.07994516 -0.09853119 0.055394907
-0.116051555 0.04781511 -0.050490122 -0.0637645 -0.048466075 -0.13292788 0.10940403 -0.14337087
0.028052842 0.13189387 0.107236154 -0.037571773 0.13662751 0.0061232587 -0.13231082 0.027976125
0.10075935 -0.0868262 0.102951705 0.0061468957 0.08043225 -0.104843885 -0.0184122 0.057593454
0.03731009 0.13007826 0.12327395 -0.055509835 0.029681256 0.091541395 -0.00028219385 0.027579246
-0.07584903 0.057722505 0.13859287 -0.10453587 -0.024316808 -0.011300777 0.05902235 -0.045233693
0.14818469 -0.15021089 -0.014660665 0.054109275 -0.12483368 -0.015716026 -0.14289781 -0.043317042
0.13604182 0.11262515 0.0065450375 -0.14913741 0.14324616 -0.003910246 -0.019185213 -0.017083602
0.13987812 -0.0979833 -0.110144086 0.014766544 0.023847131 -0.088680565 -0.025647718 0.073785976
-0.14217608 -0.11430879 0.0756981 -0.058898445 -0.031818703 -0.133209 -0.09680879 -0.11478871
0.027460758 0.006633358 0.078444585 -0.12869863 0.13743204 -0.05373507 0.013586594 0.065558724
-0.108778715 -0.051126115 -0.07145351 0.0999988 -0.057606936 -0.11341205 0.040219426 0.027287502
-0.12178062 -0.14048979 0.11188357 0.06436003 0.07369791 0.09408485 0.07487451 0.0198737
-0.14492065 0.11877349 -0.028294656 0.03734941 -0.026419705 -0.14399102 -0.10145696 -0.05491576
-0.1522543 0.085411124 -0.06796201 0.093243554 0.09211154 0.02924657 0.13962798 -0.06766802
0.0884341 -0.07409191 0.034980632 -0.04093265 0.059858356 0.10098356 0.12077148 -0.03730953
-0.14367719 0.124098614 0.1323436 -0.013326199 0.14064877 -0.029613338 -0.053893 0.013962068
0.08022696 -0.09125929 -0.08072517 -0.054647658 0.016512437 -0.12946233 0.116249904 -0.058796432
-0.15277067 -0.004184517 0.0074702003 -0.13900143 -0.15030277 -0.07196852 -0.10726056 0.14314245
0.11482856 0.029581828 0.04299295 0.100720026 -0.07027496 0.1372782 0.04728515 -0.024888698
0.061388217 0.12374886 0.06713137 -0.121670246 -0.07264504 -0.11308278 0.06127492 0.038715374
-0.07547562 -0.024337875 0.07696112 -0.04912056 -0.14491284 0.030492391 0.014068855 -0.07390432
-0.11955571 0.05254993 0.03137192 0.11901724 0.044030588 -0.06984426 -0.127489 -0.08655894
-0.14251775 -0.12778017 0.003393521 0.096997656 -0.14155838 0.041717738 0.06950462 -0.09609956
-0.12935661 0.1297901 -0.1140885 -0.044320792 -0.116151676 -0.070476465 0.023195608 0.11144973
0.1179806 -0.0712331 -0.06809781 -0.13934083 0.14469002 0.13985766 0.12414685 -0.017802848

transformer.layers.0.self_attn.in_proj_bias f4 [192]
00000000: eafd 3d3a da41 31b9 121d 8039 f9d7 553b
00000010: 142d 313a dd44 8d3b 66e8 2538 aca8 933a
00000020: 9531 3e3a 8a74 113a 8260 ec3a d26e 833a
00000030: 0cb8 b83a 3eee 20ba 5905 89bb 89c5 57b9
00000040: fcf9 813b c85c 24bb 9db5 1a3b 58ea b1ba
00000050: dc3c 753b 5814 1238 1908 513a abc3 5ebb
00000060: 55b8 573b 02f5 aa3b a806 1cba 2ef7 0c39
00000070: 5124 803b 2354 1dbb b851 af3b 7dab 2bbb
00000080: ff1a 19bb e692 2abb 494e 013b 86e0 50bb
00000090: b036 a2ba 60a3 b5ba 4358 0cbb 8775 11bb
000000a0: 686e b53a ee19 353b 1c19 4b3b 9b44 8abb
000000b0: 0a56 07bb b986 e73a d4fa 563a 5431 dc3a
000000c0: e644 bc39 db00 a639 f49a 4dbb 6ae3 66b9
000000d0: d55b 023b f9a1 2b3a b742 b73a 54df 78b9
000000e0: e725 013b bfc1 15bb 779a 4d3b 17c2 793a
000000f0: 13e1 a2bb 1c66 68ba 7466 2aba 4af0 43bb
00000100: d350 4e39 4eca 5c39 9e2f 2839 a0ba 3239
00000110: c4e8 d0b8 b3b7 0339 c7d6 4738 5104 9d38
00000120: 25b6 5db9 c53d 2939 e396 d4b7 3415 4bb8
00000130: fc30 6537 5f3a 0839 1697 a639 0e07 22b9
00000140: 6012 30b9 255d 2038 cd8b f0b8 063e aab8
00000150: 1ec3 c238 731f c437 f8ce 2d39 3f58 cfb8
00000160: fc8e 25b8 c45d ea38 f5eb 68b9 e63e 9b39
00000170: 534c d039 e2b2 7c38 b54d 5c39 4e24 2b39
00000180: 1260 55b8 8c4a 6337 7143 c1b7 fc29 b9b8
00000190: 4f92 1ab8 23e1 b2b7 418f e138 6985 8738
000001a0: 8869 3a39 2d8c ebb8 07e1 4cb9 7f1c 0139
000001b0: 7105 81b8 e629 aeb8 cf28 f237 d805 05b9
000001c0: 6d19 c338 7cbe 34b9 fbd0 0f39 d5d2 92b8
000001d0: 4668 82b8 5cad bfb8 5f82 83b8 bf65 a238
000001e0: 973f 5137 e3b1 c1b6 a11c 5d38 1aca aa38
000001f0: d007 c5b8 23b7 e4b8 784c 2236 baca 85b6
00000200: 02ed 613b 7e76 c03a 4d21 ea3a e32a a739
00000210: b46a a4b9 39bd eab9 4301 453b 9649 a9bb
00000220: 1fc3 2b39 183b 883a 2bfd 90ba 7913 113b
00000230: bae5 1539 80bc a7bb a91a c23a 3690 a5b9
00000240: fdbd 5a3b 7ffd 5c39 f121 bc39 b4bc 44bb
00000250: d908 6fbb 266b 823a 9464 02bb a264 a13b
00000260: b788 a83b 020c 96bb 5528 b03a 9fb9 d7b9
00000270: be14 8eb9 3596 eebb 15ed 92bb a7e0 933b
00000280: 9cbe 5fb9 5a3b ce39 e8e5 e43a 0755 af3b
00000290: a0c3 023c 5c43 b6bb bcc3 c4ba f869 d23a
000002a0: 6900 83bb 05dc 3d3b 49b9 0d3a 19d6 f23a
000002b0: b560 1b38 2670 a1bb 5b35 18bc 0056 873b
000002c0: 584f ebbb 4064 96b9 c719 abba 4bd3 febb
000002d0: c7af 3d3b 5be3 c4b9 c41d 85bb 15f9 6dba
000002e0: 0cde 043b a73e a13b c222 08bb 1f78 a93a
000002f0: 57f4 a73b 0dac 8b3a fd5b 293a 7048 e03a
0.0007247614 -0.00016904567 0.00024435722 0.003262995 0.00067587313 0.0043111877 3.9555503e-05 0.0011265478
0.0007255313 0.00055486767 0.0018034133 0.0010027534 0.0014092936 -0.00061390165 -0.0041815457 -0.00020577585
0.003966568 -0.0025079716 0.0023606785 -0.0013573868 0.0037420308 3.482806e-05 0.0007973924 -0.003399114
0.0032916267 0.0052171955 -0.00059519196 0.00013443522 0.0039105793 -0.0024006448 0.005350318 -0.0026194744
-0.0023362038 -0.00260275 0.00197305 -0.0031872108 -0.0012375917 -0.0013857894 -0.0021414913 -0.0022195296
0.0013842108 0.0027633864 0.0030990308 -0.004219604 -0.0020650649 0.0017664052 0.00082008285 0.0016799369
0.00035909488 0.00031662625 -0.0031372877 -0.00022019228 0.0019891162 0.0006547268 0.0013981675 -0.00023734319
0.001970643 -0.0022851077 0.0031372586 0.0009527518 -0.0049706786 -0.0008865313 -0.0006500252 -0.0029897862
0.000196758 0.000210562 0.00016039467 0.00017044926 -9.961569e-05 0.00012561567 4.7645324e-05 7.4871474e-05
-0.00021144057 0.00016140107 -2.5342631e-05 -4.841872e-05 1.3660869e-05 0.00012991716 0.00031774555 -0.00015452152
-0.00016791513 3.823372e-05 -0.00011470132 -8.1177845e-05 9.286984e-05 2.3379665e-05 0.00016575668 -9.886966e-05
-3.947223e-05 0.00011175455 -0.00022213145 0.00029610767 0.00039729718 6.024808e-05 0.00021009783 0.00016321355
-5.087263e-05 1.3547611e-05 -2.3038798e-05 -8.8293076e-05 -3.685272e-05 -2.1324091e-05 0.00010755519 6.462151e-05
0.00017777656 -0.00011231783 -0.00019538785 0.00012313014 -6.152213e-05 -8.304771e-05 2.8867651e-05 -0.00012686045
9.3030605e-05 -0.00017237099 0.00013715394 -7.001093e-05 -6.2183055e-05 -9.1398804e-05 -6.27085e-05 7.743714e-05
1.2472176e-05 -5.772557e-06 5.271717e-05 8.143876e-05 -9.395147e-05 -0.00010905999 2.4184392e-06 -3.9873094e-06
0.0034473543 0.0014683751 0.0017862708 0.00031884675 -0.00031360018 -0.0004477294 0.0030060566 -0.005166243
0.00016380519 0.0010393588 -0.0011061778 0.002213685 0.00014295327 -0.0051189065 0.0014808971 -0.00031578698
0.0033377402 0.0002107527 0.00035883443 -0.0030019702 -0.003647378 0.0009950146 -0.0019896375 0.0049253264
0.005143251 -0.004579068 0.0013439754 -0.00041146294 -0.00027099805 -0.0072810897 -0.004483829 0.0045128646
-0.00021337945 0.00039335602 0.0017463537 0.005350712 0.007981211 -0.005562229 -0.0015011947 0.001605331
-0.0039978516 0.0028970253 0.0005406333 0.0018526941 3.7044945e-05 -0.004926699 -0.009290065 0.004130125
-0.0071810894 -0.00028684922 -0.0013053947 -0.007776653 0.0028943883 -0.00037553426 -0.004062386 -0.00090779486
0.0020273952 0.004920799 -0.002077267 0.0012929476 0.005125563 0.0010656134 0.00064605457 0.0017111432

transformer.layers.0.self_attn.out_proj.weight f4 [64, 64]
00000000: b353 e63d 14d5 adbd c9f2 103e 0bad 49be
00000010: a8a4 003e d074 a03d e234 133e 29da 0d3e
00000020: 1fc2 393d 0c98 5bbd 8d6a 2a3d 1937 1dbe
00000030: 9351 a93c fc5a 853d db39 e3bd 6160 473e
00000040: b335 2bbe 0ac6 043d aa24 29be 459b cabd
00000050: 0596 9dbd d2f3 323e 309b b0bd 86d5 523e
00000060: 5ab3 10be 62e9 e43d 557f 94bb 17ba 3dbe
00000070: 99db 213e 2e6e b43d 4453 513e 768f 263e
00000080: ed2f 233d e437 213d 402b 8d3c 9db7 48be
00000090: 08c7 1b3c 882e 9abd 03dd 38be d9d7 73bc
000000a0: 92fa bfbd 594d 28be ae69 d03d a9d7 84bd
000000b0: 7ed0 e63b 74b3 9bbd ebf8 4a3e 55d0 57be
000000c0: 1021 303d a96f 393e 2da6 43bd 7007 62bd
000000d0: ff97 29bd 8c36 16be 54d3 a63d e903 cbbd
000000e0: 70d4 b4bc a662 5abd 8ee5 de3d e1a6 f5bd
000000f0: 68f7 063e 2202 3b3c 0f05 9abd 9d75 6d3d
00000100: 1d58 50be fb56 42be ba17 01bd 93db 2fbe
00000110: c8a3 4a3e 0902 1abe 6eba 52be 9ff7 babd
00000120: 5f09 52be 18e6 893d 1180 e53c a1fd 313d
00000130: 9489 9a3d 8061 9bbd 9302 8f3d 5cee ea3d
00000140: e454 133e 78e6 e93d a6bc 8e3d 6e57 343e
00000150: dec7 16be 062c 72bd 8533 73bd fa8b 17bd
00000160: 1109 01bb 3bf5 36be 352b a3bd cb61 ca3d
00000170: 98ae 8abd 256f 4a3e b9a1 333e 0edc 2cbc
00000180: 28c5 c3bd 3443 42be 753a 153e fa67 333e
00000190: f953 2d3e ff8c bcbc b26e 9fbc 8f81 763d
000001a0: f81d 20be c156 903d 3a09 023e 2d3e dabd
000001b0: 8431 d1bd 8ad9 113e 5a03 4a3e f846 c73d
000001c0: 3814 31be 3a30 c43d 921b 9fbd 2a23 0e3e
000001d0: aea2 0bbe b88e a13d a3f4 6dbd 74d1 23be
000001e0: 7208 94bc 7022 61bd d07a 0f3e 752b 9fbd
000001f0: 8a0c 093d 4e98 593e 6f75 5bbe d5c3 42bd
00000200: 03b8 2abe 104a d6bc b2b3 9cbd 28e6 3a3e
00000210: 20ee 4f3b 9ae0 3fbe 04ee 913d b802 0bbc
00000220: 6063 363c 4015 2cbc c6b8 783b 01c2 673d
00000230: d5d1 cfbd 6530 193e 1358 32be f89f 93bc
00000240: 415d 283c 8e79 c2bd aa3e 013e a497 533e
00000250: 9f08 af3c d686 51be 15f6 09be 2b4a 3a3e
00000260: 6bf7 f0bd 1ac3 1e3d d7ab 0dbe 1978 a63d
00000270: abdd e2bd aa15 3e3d 0390 4abe f1f5 a0bb
00000280: f821 f2bc 98eb 9e3d de7f 4fbe c9f6 8fbd
00000290: ad12 d8bd c68e 9eba 6b69 433d 9f7d 043e
000002a0: 937e 383e 079b 3ebe 2f97 863d c746 bd3d
000002b0: c593 1d3d f56e 583e 2d69 753d 9800 2d3e
000002c0: 04ce 913d fed1 b43d b1c2 35be 2f6d e93c
000002d0: ad89 a237 b2f1 9abd 1c6b 573e f903 92bd
000002e0: 7710 4e3e 776c 83bd 0464 0e3e 4017 683d
000002f0: fcd3 42bd 49a7 453e 4006 ce3c bc19 91bd
00000300: c0fb 1c3e 0f89 53be 3d0a 98bd 653c bd3c
00000310: 839b 87bc e13d b3bd 44f9 543e dcfb e4bb
00000320: eec4 123e 4935 ea3d 08cf b5bd 6bb3 06be
00000330: 9ec4 fcbb e271 5fbe 7f4d 673d ef0c d03d
00000340: 3e04 c23d 359c 4b3e 5c76 2dbd be4f 433e
00000350: d840 583e 5908 1d3e 57c3 31be 6aa0 463b
00000360: 98e1 aebd 6fd8 fb3d 3ea0 99ba 4f1e 3ebe
00000370: 2c4c 353d bad0 ec3d e2e0 a1bc 3356 59be
00000380: 431a 363e ed30 4f3e 1ef7 64bd 8f48 ff3d
00000390: 611f 153e e869 ae3d e6c6 19be 6a42 283d
000003a0: 8576 f23d e262 c73d 8c06 4e3e 685b 243e
000003b0: dd80 493e 0da1 4a3e 856a 823d f325 35be
000003c0: 2d9a d0bd 3076 583e 1a36 0dbe d974 e13a
000003d0: 6b4d 5c3d e827 5abe 0dfa a0bd ca2d e3bd
000003e0: 9382 3dbe 59eb e33c 3a56 f1bd 8cf8 1e3e
000003f0: 3c96 dc3d 7dcc 343c b4d4 75bd 412c ee3d
0.11246433 -0.08487907 0.14155115 -0.19694917 0.12562811 0.0783478 0.14375642 0.13852753
0.045351144 -0.0536118 0.04160552 -0.1535305 0.02066878 0.065114945 -0.110950194 0.1947036
-0.16719703 0.032415427 -0.16517892 -0.098928966 -0.076946296 0.17475823 -0.0862335 0.20589265
-0.14130917 0.11177327 -0.0045317807 -0.18528019 0.15806426 0.088100776 0.2044192 0.16265664
0.039840627 0.039359942 0.017232537 -0.19601293 0.009507902 -0.075284064 -0.1805306 -0.014883005
-0.09373964 -0.16435756 0.10176407 -0.064864464 0.007043897 -0.07602587 0.19821517 -0.21075566
0.04300028 0.18109001 -0.0477659 -0.055182874 -0.04140472 -0.14669245 0.081457764 -0.09912855
-0.022073954 -0.053316735 0.10883628 -0.1199472 0.13180315 0.011414083 -0.07520496 0.057973493
-0.20346113 -0.18978493 -0.031516768 -0.17173605 0.1978904 -0.15039839 -0.2057893 -0.09129261
-0.20511387 0.0673334 0.028015168 0.04345477 0.07545772 -0.07586956 0.06982913 0.11471245
0.14387852 0.114209116 0.069695756 0.17611477 -0.14724681 -0.059124015 -0.059375305 -0.036998726
-0.0019689242 -0.17866985 -0.079672255 0.09881934 -0.06771582 0.19768961 0.17542161 -0.010550512
-0.09559089 -0.18970948 0.14573081 0.17520133 0.16926564 -0.02301645 -0.019461963 0.06018215
-0.15636432 0.07047797 0.12698832 -0.1065639 -0.102145225 0.14243141 0.19727841 0.09730333
-0.17292869 0.09579511 -0.077689305 0.13880602 -0.13636276 0.078885496 -0.058094632 -0.15997869
-0.018070433 -0.054964483 0.14011693 -0.07771961 0.033459224 0.21249506 -0.21431516 -0.04755004
-0.16671757 -0.026158363 -0.07651462 0.1825186 0.0031727627 -0.18738022 0.07125476 -0.008484535
0.011132091 -0.010503113 0.003795193 0.0565815 -0.10147444 0.14959867 -0.1741641 -0.018020615
0.01027614 -0.09495841 0.1262156 0.20663315 0.021366416 -0.20461592 -0.13472779 0.18192355
-0.11765941 0.038760282 -0.13835083 0.081283756 -0.11077436 0.04640738 -0.19781499 -0.004912131
-0.029557213 0.0775978 -0.20263621 -0.070294924 -0.10550437 -0.0012096993 0.047707956 0.12938546
0.18017034 -0.18613826 0.06571805 0.09242015 0.038471002 0.21136077 0.059914757 0.16894758
0.071193725 0.08829115 -0.1775005 0.028494446 1.9376015e-05 -0.07565631 0.21036953 -0.07129664
0.20123468 -0.064171724 0.1390534 0.056662798 -0.047565445 0.19302095 0.025149465 -0.070849866
0.1533041 -0.20657752 -0.07423828 0.023100087 -0.016553646 -0.08752037 0.20798212 -0.006988032
0.14332935 0.114359446 -0.08877379 -0.1315438 -0.0077138683 -0.21820787 0.05647039 0.10158717
0.094734654 0.19883807 -0.042349204 0.19073388 0.21118486 0.15335216 -0.17359672 0.0030308017
-0.08539122 0.12297141 -0.001172073 -0.1856625 0.044262096 0.11563249 -0.019760553 -0.21224289
0.17783456 0.20233507 -0.05589973 0.12465011 0.14562751 0.08516294 -0.1501728 0.041078962
0.11839012 0.09735657 0.20119685 0.16050494 0.19678064 0.19787998 0.06367973 -0.17690258
-0.10185657 0.21138835 -0.1379017 0.0017200961 0.05378477 -0.21304286 -0.078601934 -0.11092718
-0.18506841 0.027822183 -0.117840245 0.155245 0.107708424 0.011035082 -0.060017303 0.116295345

transformer.layers.0.self_attn.out_proj.bias f4 [64]
00000000: 5888 61b9 723e b539 745a 9dba ff19 2b3b
00000010: 142b 9db9 6bcb 2fba 3d34 dd3b d1eb 2dbb
00000020: 5164 2c3b 4cd4 5c3b ed03 06b9 16ae d3b9
00000030: ebf7 edbb 015f 1e3b 3dc6 c8ba 30f9 553b
00000040: f0aa 4ebb 10af 48bc de98 513c f230 43bb
00000050: 115c a4bb 0073 fe3a bffc d53a 9a22 28ba
00000060: 08d0 02bb abad 7e3a 2432 7e39 b0cb 6f3b
00000070: 9def dfbb eb66 d7ba d572 ef3a 4ac1 723b
00000080: be35 23bb b29a 8cbb a520 95b9 9e04 1c3a
00000090: 21e0 ddb9 85a8 3cba fd0c 9b3b 32a1 ca3b
000000a0: 282b 03b9 fd65 373b bde2 cb3a 65aa 22bb
000000b0: 5fcb c03b 2f40 f83a dfb6 14b8 4dfd a7ba
000000c0: d1ca 64bb 6632 0abb 6a33 14ba bce6 e1b8
000000d0: 6672 29bb 44f6 eebb ffa4 44bb 2290 a136
000000e0: e469 8cb9 80c9 203b 7a08 2c3b b0f0 653a
000000f0: 0a6a 65bb 7ba5 cb3a 99c3 fab9 4e7b 583a
-0.00021508464 0.00034569536 -0.0012005107 0.0026108024 -0.0002997747 -0.0006706032 0.006750612 -0.0026538263
0.002630491 0.0033695875 -0.00012780698 -0.0004037476 -0.00726222 0.0024165513 -0.0015317869 0.0032649748
-0.0031534992 -0.012248769 0.012792794 -0.0029783812 -0.005015858 0.0019412935 0.0016325935 -0.00064138474
-0.0019960422 0.00097152096 0.00024242006 0.0036589913 -0.006833984 -0.001643387 0.0018268476 0.0037041479
-0.002490386 -0.004290902 -0.00028443817 0.0005951616 -0.00042319394 -0.0007196742 0.004731773 0.0061837668
-0.0001250921 0.0027984374 0.0015555244 -0.0024820801 0.0058836187 0.0018940027 -3.545626e-05 -0.0012816578
-0.0034910927 -0.0021087169 -0.0005653413 -0.00010771814 -0.002585554 -0.0072925407 -0.0030005572 4.814953e-06
-0.00026781776 0.0024534166 0.002625017 0.0008771522 -0.003500583 0.0015536988 -0.00047829447 0.000825812

transformer.layers.0.linear1.weight f4 [256, 64]
00000000: 3a8c dd3d b068 ca3d 92b5 b33c 22a4 2c3d
00000010: 2eee d8bd ce87 123e ac85 023e 41d1 383c
00000020: 2155 dcbd b77a 40bc a9d5 333d 92f2 56bd
00000030: bd91 3b3c d6ea 343c 5144 d4bd 139d 8e3d
00000040: 4658 b93d 5e88 af3d b79b 67bd 3ed9 c4ba
00000050: 4782 3ebc ff61 32bc c761 e4bd ffc1 febd
00000060: 88fe a83d 7c9c 8f3d 9c8f 013d c8b1 93bc
00000070: 1ce4 ab3d 02a7 9f3d 283f b4bd 16a8 c3bd
00000080: 7f5b e93d 5d19 893d 34ec abbd 187f 723c
00000090: 2957 da3d 834e 82bb 9b43 32b9 dcde 3b3d
000000a0: 387a 703c 5bdf 583c c7ad e53d be0a adbd
000000b0: c7e1 c53d 9c67 d4bb 8ecd ee3d 4d2d 99bd
000000c0: 896b ff3d fbcf 6f3d 2f20 d4bc 0d85 93bd
000000d0: b812 943d 07c8 193d 88d9 f93d deb1 673d
000000e0: ea93 793d 2b23 ebbc 7811 73bb 3a85 20bd
000000f0: b0df de3d 20b9 993d 7488 ebbd 9191 93bd
00000100: 6ad6 583c 72d8 a6bd dfb9 083d 6da2 a63d
00000110: 90f2 5a3d 9651 513d 6b57 0e3d 1e68 09bd
00000120: 5116 eebd e435 69bd 77f3 2abd f85f f2bd
00000130: 2deb 023e a8af 5a3c 4f86 cbbc edeb 8a3d
00000140: c0d9 043e 8c97 b2bd 68c2 4d3d 5893 2d3d
00000150: 8c95 32bd d12c 033d cb86 f1bc fde2 9ebc
00000160: bf6e 05bd 902e e93b d72a 063e 0f8f 4c3d
00000170: 1146 053d abe1 4bbd f55e e33a b48e e1bd
00000180: 56df df3d 58a5 abbd 717f d5bd 79fa 8d3d
00000190: 6444 1dbd 165a e8bd 8bee c93d 7715 5c3d
000001a0: df08 d43d a5e7 bfbc f23e fabd d1fe febc
000001b0: 93e9 a43d 0939 65bd 3d20 70bd 8c39 083e
000001c0: 5a38 00be f617 c23d e1f8 9fbb 2b10 d93d
000001d0: 709f 813d 1eb7 c4bd 7eed 40bd b1d7 cebc
000001e0: a966 ccbd 5997 d23d aa63 b9bd 83bd 033e
000001f0: 3953 22bd 2444 283d aa25 503d eb58 a5bc
00000200: 79ff c0bd f705 cc3d 7f0a 81bd 9045 72bd
00000210: 8355 ec3d 2a8e 2bba 1d18 5a3d dc7d 0fbd
00000220: a739 8dbd 6fcb 1b3e 450d 8f3d 35ae ffbd
00000230: 02f2 00be f604 c43c 24a1 c73d 0fda e83d
00000240: 0b3b 133d 657f a5bc 7fe4 563d 4263 9f3d
00000250: a3b4 2c3d afa4 f63b c802 ebbd 180e 003d
00000260: 1afe 003d 5300 ae3d 0f6c 833c 56c8 ecbc
00000270: e81c ecbc 1612 b13d 5d65 e73d 86a0 63bb
00000280: 2da6 033e 9308 613b af9e fcbd fbe7 61bd
00000290: 2c55 ba39 6f28 903c a3fb efbd 6c26 ef3d
000002a0: 468a e8bd f269 fabd 9255 923d 0737 c53d
000002b0: 662a cc3d 8ab5 0c3e 64d2 ee3d 639c f43d
000002c0: 95af f5bd 28be e13d 2cb1 223d f9e8 f6bb
000002d0: d687 0a3d 77c1 d43d 077b ec3c 5bc3 993d
000002e0: 581c a1bb 6021 4b3d 248d 74bb 24ea 11bd
000002f0: a393 d93d b75f a53d 7975 c3bd fff9 1a3c
00000300: c70e 90bd 6725 cabc a65e 01be a92c 0fbe
00000310: 0049 14bd 307d 8ebd d154 f63d 3adb a83c
00000320: e358 153d 0571 0dbd 225f 5abd f087 033e
00000330: c7c8 0bbe 1480 06be 4597 f6bd 362c aabd
00000340: 742c 05be fe1b 5c3d f58d 2a3d 9dfd 9b3d
00000350: 1925 ed3d 12b3 e6bd 8507 73bd ef94 06be
00000360: 6f85 07be eafd 8e3d 0e4c 043e bf70 d1bc
00000370: abed 963c 71bf 01be f69e 9a3d e9f2 953d
00000380: cb48 363d 3d19 e63d 7766 f63d 8f14 8a3d
00000390: 91ae bb3d 831e e8bc d01a 50bd 13bb e73c
000003a0: 303f c6bd 1949 d3bd 3475 01be 16e2 2fbd
000003b0: 8fc2 103e 047b 03be e74a a13d 831d 1dbd
000003c0: 8cfa 08be d6c8 9fbc 2c4d adbd d0e5 743d
000003d0: e153 a13d de9b c1bb d230 e3bd be96 d4bd
000003e0: 121c c2bd 5120 3fbd 3167 98bd 32df 0ebd
000003f0: 6c10 813d 788b ba3c 9e0b e13c c467 13bd
0.10817762 0.09883249 0.021937165 0.042148717 -0.10592304 0.14309618 0.12746304 0.011280359
-0.107584246 -0.0117480075 0.043904934 -0.052477427 0.011448321 0.011042317 -0.10364593 0.06963553
0.0905004 0.08570932 -0.056544986 -0.0015018356 -0.01162774 -0.010887622 -0.11151462 -0.124393456
0.08251673 0.07012269 0.031631097 -0.018029109 0.08393118 0.07795526 -0.088011086 -0.09553544
0.113944046 0.06694291 -0.083946615 0.014800809 0.10661156 -0.0039766445 -0.00017000588 0.045866832
0.014677577 0.013236846 0.11214786 -0.084493145 0.09662204 -0.0064820778 0.116603 -0.074793436
0.124716826 0.058547955 -0.025894253 -0.07203112 0.07230133 0.037544277 0.12199694 0.05656611
0.060932077 -0.028703293 -0.003708927 -0.039189555 0.10882509 0.07506013 -0.11500636 -0.07205499
0.013234714 -0.081467524 0.033380385 0.08136449 0.053453982 0.051103197 0.034751337 -0.03354656
-0.1162535 -0.05693616 -0.041736092 -0.11834711 0.12785025 0.013347544 -0.024844317 0.067832805
0.1297369 -0.087203115 0.05023423 0.042376846 -0.04359965 0.032025162 -0.02948322 -0.019395346
-0.03257632 0.0071161464 0.1310228 0.04994112 0.032537524 -0.04977576 0.0017347025 -0.110135466
0.1093127 -0.08381146 -0.10424698 0.069325395 -0.0383953 -0.113453075 0.098599516 0.053731408
0.103532545 -0.023425886 -0.12219037 -0.031127365 0.08052363 -0.055962596 -0.058624495 0.13303202
-0.12521496 0.094772264 -0.0048819636 0.10598787 0.063292384 -0.09605239 -0.04710149 -0.025249334
-0.09980518 0.102827735 -0.090522125 0.12865262 -0.03963015 0.04108061 0.05081717 -0.020184001
-0.094237275 0.09962075 -0.0630083 -0.05914837 0.115397476 -0.00065443164 0.053245652 -0.03503214
-0.06895762 0.15214323 0.06984953 -0.12484399 -0.12592319 0.023928147 0.09747532 0.113697164
0.03594498 -0.020202348 0.052464005 0.07782604 0.042164456 0.007526956 -0.1147514 0.03126344
0.03149233 0.084961556 0.016042737 -0.028904121 -0.028822377 0.08646028 0.112986304 -0.003473313
0.1285636 0.0034337386 -0.12334954 -0.055152874 0.00035540143 0.017597405 -0.11717918 0.1167725
-0.113544986 -0.12227239 0.071452275 0.09629636 0.09969024 0.13741127 0.116612226 0.11943891
-0.1199638 0.110225976 0.039719746 -0.0075350967 0.03382095 0.10388463 0.028867258 0.07507964
-0.004916709 0.049592376 -0.0037315572 -0.035623685 0.106238626 0.08074897 -0.095438905 0.009459018
-0.070340686 -0.024676038 -0.12633762 -0.1398188 -0.03620243 -0.06957471 0.12027896 0.020612348
0.036461722 -0.034531612 -0.053313382 0.12844825 -0.13650809 -0.13134795 -0.12040571 -0.08309214
-0.13005239 0.053737633 0.041639287 0.07616732 0.115793414 -0.11264624 -0.059333343 -0.13142751
-0.13234495 0.06982024 0.12919638 -0.025566457 0.018423876 -0.12670685 0.07549851 0.07321722
0.044503015 0.112352826 0.12031262 0.067422025 0.09164155 -0.028334862 -0.05080682 0.028287446
-0.09680021 -0.10316677 -0.12642366 -0.04294022 0.14136718 -0.12839895 0.078756146 -0.038358223
-0.13376826 -0.019504946 -0.08461985 0.05978948 0.07877327 -0.0059084734 -0.11093296 -0.10380314
-0.0947801 -0.04666168 -0.07441557 -0.034880824 0.0630196 0.022771582 0.02747136 -0.03598763

transformer.layers.0.linear1.bias f4 [256]
00000000: 9cb2 ddbd 85c2 a2bd 85e2 043d b2fe 01bd
00000010: dede c23d 4024 94bc 70be 2cbc d97c 903d
00000020: e45f 023d 2460 73bc ca7c 00be 8817 76bd
00000030: f15f 6cbd eb09 edbc 3432 f63c 674d b63c
00000040: eff0 9e3c 38f3 0b3c bd6c 1a3d d89f 19bb
00000050: d6bf eabd e5bf 3f3d a4e7 8d3d 9d68 833d
00000060: a3de b2bc d0d0 f5bc 34a0 9d3d de50 ce3d
00000070: 8582 f73d cdd6 dabd 02ef 53bd 201b b7bc
00000080: 46a1 81bd b3fe 1b3d b399 cb3d 36f5 98bb
00000090: 7fb4 c4bc 69c5 983d f95f 983d 70ec 8c3d
000000a0: 23bf 7cbd ac02 7bbd cf27 9d3d b2c3 8ebd
000000b0: 5cab 9e3d 7dc0 23bd 9a10 143b 8fbb 093d
000000c0: 3c1b 19bd af97 993d e0c0 933d 60fa f2bd
000000d0: 60c9 623a 3a32 31bd 460e d0bd 253d 283d
000000e0: 374f 323d b07a bc3c 97dd 1b3d 831e f2bc
000000f0: 57f3 e8bd 505a 9f3c e8d8 d9bc 6d19 e03d
00000100: b6ed 23bd b1d9 6fbc 60f7 e13d ac1c 59bd
00000110: f2c4 8d3b 0246 873d 42e5 db3d 961f 85bc
00000120: b79e 87bd 48c2 db3d 9532 8dbd ecc9 623d
00000130: b7fa f83d 51bb 83bd 57c9 e23a f112 9b3c
00000140: 9fad c33d d428 2bbd c38f c13a 80d3 d93d
00000150: 758b 7cbd bbed f53c 4285 d13c 1ff2 373d
00000160: 4bd2 e03d 275a 87bd 5d08 9ebc ae28 703d
00000170: 7cb7 d1bb c05f d7bd 17e3 bbbd 8a49 ccbd
00000180: 0194 88bd 1cd8 99bd 12ae 99bd 5df1 b23c
00000190: 73f0 d1bd 6e87 bfbd c43a 1d3c 478c 4cbc
000001a0: 1dbb d93d 7841 9ebd 99eb 51bc 0f96 953c
000001b0: 92da 67bc 4641 84bd 1138 b03c 2176 973d
000001c0: 35ea 963c e529 f7bd 01a9 2abd 4794 003d
000001d0: 830f 413d 3e57 f3bd 2986 ee3c 54fe ffbd
000001e0: 3356 b2bd 27f5 a6bd 3e96 84bd 64c8 c8bc
000001f0: ad0b 933d 35ed f2bd 2e1f 1b3d f651 053d
00000200: c6cb 1b3d a27c c1bd 2f33 82bd 7e81 2a3d
00000210: 285b ba3c 57e0 943d 3b70 033e ad26 12bc
00000220: 043d 05bd 1ef9 4b3b d17e 4bbd a54a f8bd
00000230: 5329 62bd 3fab 163d 7503 e0bc d060 e23d
00000240: 6814 d43c 7a55 9a3d cb82 0c3d 2cfb e23d
00000250: cf6e c63c a0c4 b2bd 92d3 cabd 3443 ea3d
00000260: d602 1abc 88d8 353d 3ca5 443d d5d1 b2bd
00000270: 07fe ed3b 23b0 84bd 3ee3 b63d d803 0f3d
00000280: 530d b53d 452e a13d 2f76 0c3d c308 40bb
00000290: e462 c63d 8548 72bd 0793 13bd 14f8 8ebd
000002a0: e967 a93c b1c9 7fbd da70 f93c d402 04bd
000002b0: f61b 2c3d b35e 6b3d faf1 c93b 19fe 8ebd
000002c0: ff69 a8bb 5080 3dbd 20e3 92bd b562 49bd
000002d0: f714 e53b a0bf 9a3b efb0 4e3d f12e ee3c
000002e0: 1fed 83bd 9b8b 3a3d bb60 92bc 2a05 33bd
000002f0: bc32 9abd bdbd 1bbd 6248 8abc b218 d43d
00000300: 5da5 51bc 22de 01bc ebc9 463d f842 b83c
00000310: 90d8 25bd 2eea 3cbc 579f 22bc 27e1 21bd
00000320: 171a 8dbc 0e9c bb3b 6cb4 923d 7fd3 24bd
00000330: 0738 53bc d971 77bc 66d8 b43d 95a4 933d
00000340: 43f5 ee3d 3ace f1bd 6423 61bd dc6a a5bd
00000350: 6f4c 023d c2d9 bfbd 9dc4 79bb b9d8 abbd
00000360: 926e 3abd 9e0e a7bd 80f5 913c 1e74 bb3b
00000370: ab95 e2bd cc31 f53d aa48 92bc 9302 533d
00000380: fe99 04bd 8d93 e0bc b8da b63d 2bf6 64bd
00000390: 4d3f ab3d 0c05 29bd 2ad6 cf3d 177f 8f3d
000003a0: 12d7 d03d 711f 0ebd 1cc9 d23d 85c4 6cbd
000003b0: dd2f 4bbd b0b5 abbc 1f70 0dbd 78d6 0d3c
000003c0: ca6d 9bbd 5792 ba3d 183b 26bd 6df4 f4bc
000003d0: 6b1d f23b 32d2 95bd 6208 a93d bc50 ce3d
000003e0: e3ba a53b aa91 f63c ea96 83bd ffe3 d6bd
000003f0: 7960 f9bd 1043 593d 377a 8bbd 6864 f13d
-0.10825083 -0.07947258 0.03244259 -0.031737037 0.09515165 -0.018083692 -0.010543451 0.07055063
0.03182973 -0.014854465 -0.12547603 -0.060081035 -0.057708684 -0.028935393 0.030053236 0.022253705
0.019401995 0.008541875 0.037701357 -0.0023441222 -0.11462371 0.046813864 0.069289476 0.06416438
-0.021834677 -0.030006796 0.07696572 0.10074018 0.120854415 -0.10685501 -0.051741607 -0.022351801
-0.063295886 0.038084697 0.09941425 -0.0046679033 -0.024011848 0.07459528 0.0744018 0.068810344
-0.06170572 -0.061281845 0.076736085 -0.0697092 0.07747528 -0.039978493 0.0022592903 0.033626135
-0.03737949 0.074996345 0.07214522 -0.118641615 0.0008651223 -0.04326079 -0.101589724 0.041073937
0.043532576 0.02300772 0.03805312 -0.029555565 -0.113745384 0.019452244 -0.026592687 0.109423496
-0.04002162 -0.014639304 0.11033511 -0.05300586 0.004326456 0.0660515 0.10737087 -0.016250413
-0.06622069 0.107304156 -0.068944134 0.05536835 0.12157195 -0.06432212 0.0017302436 0.01892993
0.095546 -0.041786984 0.0014767576 0.106360435 -0.061656434 0.030020585 0.025576238 0.04490864
0.1097761 -0.06608992 -0.019291097 0.058632545 -0.006400047 -0.1051631 -0.09174173 -0.09974964
-0.066688545 -0.07511923 -0.075039044 0.021843607 -0.1025094 -0.09352003 0.00959653 -0.012484617
0.10631392 -0.07727331 -0.0128125185 0.01826003 -0.014151232 -0.064577624 0.02151111 0.07395578
0.018422225 -0.120685376 -0.04166508 0.03139141 0.047133934 -0.118818745 0.029116707 -0.12499681
-0.087078474 -0.08152228 -0.06473969 -0.024509616 0.07179961 -0.1186165 0.037871532 0.032548867
0.03803613 -0.094476 -0.06357419 0.0416274 0.022748545 0.07269352 0.12835781 -0.008920354
-0.032528892 0.0031123827 -0.04968149 -0.12123612 -0.05521519 0.036784407 -0.027345398 0.11053622
0.025888637 0.075358346 0.03430442 0.110830635 0.02422276 -0.087289095 -0.09903635 0.11438599
-0.00940009 0.044395953 0.048009142 -0.087314285 0.0072629484 -0.06478908 0.08930062 0.034915775
0.08840432 0.07870153 0.034292396 -0.0029302097 0.09686831 -0.05915119 -0.036028888 -0.06980911
0.020679431 -0.062448207 0.03044932 -0.03222926 0.042018853 0.05746336 0.006162879 -0.06982059
-0.005139589 -0.046264946 -0.07172227 -0.0491664 0.0069910246 0.0047225505 0.050461706 0.029075118
-0.06441712 0.045543294 -0.01786839 -0.043706097 -0.07529208 -0.038022745 -0.016880218 0.10356273
-0.012795773 -0.007926496 0.048532408 0.02249287 -0.040489733 -0.011530442 -0.009925685 -0.039521363
-0.017224355 0.0057253903 0.07163319 -0.04024076 -0.012891776 -0.015102827 0.08830337 0.07209126
0.11667874 -0.11806913 -0.05496539 -0.080770224 0.031811174 -0.09367706 -0.0038111575 -0.08390946
-0.045515604 -0.08157085 0.017817259 0.0057206294 -0.11063703 0.119723886 -0.017856915 0.051516127
-0.03237342 -0.027414108 0.08928436 -0.055898827 0.08361683 -0.04126458 0.101482704 0.07006662
0.101972714 -0.034697954 0.10292265 -0.057804603 -0.049606193 -0.020960659 -0.034530755 0.00865709
-0.075893 0.09109943 -0.0405837 -0.029901708 0.007388761 -0.07315482 0.08253552 0.100739926
0.005057679 0.030098755 -0.06425269 -0.104927056 -0.12176604 0.05304247 -0.0681042 0.11786729
