data/td_best_model.pt (torch, 904276 bytes, 21 tensors)

weight f4 [128, 15]
0.09928049 0.032192636 -0.17661645 -0.14774923 -0.09674746 0.1679731 -0.20171425 -0.07820499
-0.110515386 -0.045811407 0.21248728 0.20666435 0.041703757 0.16747701 0.021611955 0.033221997
0.047795042 0.18674143 -0.08877845 -0.045771386 0.055890895 -0.057421505 -0.09897268 -0.051103238
0.012462443 0.12782663 -0.10482826 0.088836186 0.16837344 0.09019692 -0.19228852 0.1920533
-0.08174343 -0.19077918 0.019458447 -0.047379036 -0.113995716 -0.1397466 0.18614464 -0.09105261
0.16660142 0.034115236 0.05978301 0.03342856 -0.13419953 0.0307173 -0.111239664 0.14165767
0.11252689 -0.01615475 -0.084859736 0.056472104 0.13305129 0.14580615 -0.06837543 -0.1318315
0.1829075 -0.11072061 -0.05815657 -0.049893633 0.042148285 0.038872212 -0.18808965 -0.089809194
0.027199747 0.087006256 0.16949713 0.04660362 0.103391044 -0.14480846 -0.097782955 -0.23874749
-0.24014623 0.13488571 -0.14930947 0.0063336506 -0.11124564 -0.10933135 0.08147311 0.084046274
0.04898518 0.0725544 0.011585904 0.079874136 -0.09958329 -0.17866103 -0.027107146 -0.13530162
0.06469318 0.00046657713 -0.17372371 -0.14265466 0.117504776 -0.11209298 -0.008177931 -0.072632745
-0.016928988 0.06333036 0.09380863 0.056682955 0.121225424 -0.22692433 -0.058663294 -0.15045135
0.0069912397 -0.1748632 -0.18263441 -0.07426364 0.1419585 -0.14829355 0.008569801 -0.027559374
-0.20863566 0.18010607 0.111363284 -0.07427043 -0.053257685 0.04399497 0.15793544 0.062418118
0.10002525 -0.012826213 0.07631831 -0.18033366 -0.13446984 -0.1529797 -0.02542764 0.07809907
0.10797051 -0.03455625 0.1453122 -0.1508167 -0.18441364 0.1584652 -0.12307518 0.0057591773
-0.20491204 0.08678805 -0.020415805 -0.035527177 -0.009831501 0.027989466 -0.041969467 -0.16091108
0.085132055 0.0924213 -0.022740332 0.18447004 -0.054044496 0.11120922 0.13498428 0.042206764
-0.0044654924 0.05841328 0.07265041 0.0078132795 0.16189711 -0.13483742 0.11172558 -0.06386812
-0.007748164 0.0737815 -0.14209901 0.13513307 0.11647571 -0.114905685 -0.07642557 0.1448059
0.042087365 -0.037965227 -0.09950287 -0.039661255 0.086725816 -0.1425132 0.013596788 -0.1761588
0.14202629 0.13438493 -0.16217288 0.008379258 -0.18220943 -0.05242695 -0.092083596 0.11384264
-0.15655252 0.05511487 0.11651052 -0.026795367 0.051960647 0.21117233 0.20439999 -0.09618417
-0.1481728 0.10887134 -0.1368061 0.10671726 -0.1672507 0.07500511 -0.08313902 0.09592721
0.19541489 0.05979089 0.04449543 0.051536392 -0.15423153 -0.058569398 -0.15701506 0.087994955
-0.07225396 -0.0033862528 0.071777314 -0.090934366 -0.093619995 0.13436887 0.0051207254 -0.13735007
-0.091113515 -0.015176937 -0.12802678 0.16796483 0.13164832 0.17171896 0.021579204 -0.14051414
0.06323904 0.12762375 -0.016759614 -0.10177625 -0.1336725 0.030534687 0.02037044 -0.0531576
-0.13516308 0.07776651 -0.17884418 -0.14692321 0.021833798 0.014966105 -0.16676909 -0.032929488
0.14548932 -0.036280587 0.15495837 0.131358 0.027605642 -0.045134515 0.100967675 0.0946577
-0.19439352 0.049923684 0.11180753 -0.04521166 -0.05164575 0.15100355 -0.06424998 0.1900337
00000000: 9253 cb3d 6ddc 033d f1da 34be 934b 17be
00000010: 8823 c6bd 2401 2c3e 2e8e 4ebe f029 a0bd
00000020: e455 e2bd bea4 3bbd 4496 593e d29f 533e
00000030: 8fd1 2a3d 187f 2b3e 8e0b b13c ca13 083d
00000040: bcc4 433d 2539 3f3e 7ad1 b5bd c77a 3bbd
00000050: daed 643d d032 6bbd 30b2 cabd a151 51bd
00000060: 462f 4c3c fce4 023e 33b0 d6bd bfef b53d
00000070: 166a 2c3e 2ab9 b83d 48e7 44be 9fa9 443e
00000080: 1969 a7bd 9e5b 43be 5267 9f3c 8510 42bd
00000090: 9676 e9bd bc19 0fbe b39c 3e3e ca79 babd
000000a0: 9099 2a3e 6bbc 0b3d 08df 743d 63ec 083d
000000b0: 9a6b 09be d9a2 fb3c 9fd1 e3bd b50e 113e
000000c0: 8074 e63d f756 84bc f1ca adbd 4b4f 673d
000000d0: 993e 083e 354e 153e 6b08 8cbd d6fe 06be
000000e0: 1b4c 3b3e 7dc1 e2bd 9535 6ebd 445d 4cbd
000000f0: aea3 2c3d 7838 1f3d 939a 40be e2ed b7bd
00000100: 01d2 de3c 5630 b23d a890 2d3e 70e3 3e3d
00000110: afbe d33d ab48 14be 6e42 c8bd 397a 74be
00000120: e5e8 75be 7b1f 0a3e 95e4 18be 838a cf3b
00000130: c1d4 e3bd 1de9 dfbd 60db a63d 7420 ac3d
00000140: afa4 483d 6797 943d ced2 3d3c 0d95 a33d
00000150: 53f2 cbbd ebf2 36be ce0f debc 828c 0abe
00000160: dc7d 843d ec9e f439 a1e4 31be 1014 12be
00000170: 58a6 f03d 0191 e5bd bbfc 05bc 7ac0 94bd
00000180: a9ae 8abc 59b3 813d bd1e c03d 632c 683d
00000190: 0945 f83d da5e 68be ec48 70bd eb0f 1abe
000001a0: c516 e53b 570f 33be 8404 3bbe 8917 98bd
000001b0: 925d 113e 44da 17be 5a68 0c3c 32c4 e1bc
000001c0: 96a4 55be ba6d 383e 6f12 e43d 181b 98bd
000001d0: bb24 5abd 1234 343d d4b9 213e 24aa 7f3d
000001e0: 0ada cc3d 0925 52bc c64c 9c3d 63a9 38be
000001f0: 76b2 09be b6a6 1cbe a04d d0bc 68f2 9f3d
00000200: a51f dd3d db8a 0dbd b9cc 143e b16f 1abe
00000210: eed6 3cbe b444 223e d70e fcbd 7bb7 bc3b
00000220: 76d4 51be efbd b13d 0c3f a7bc f284 11bd
00000230: 4e14 21bc 2a4a e53c 2de8 2bbd e0c5 24be
00000240: b759 ae3d 6147 bd3d ef49 babc b7e5 3c3e
00000250: c35d 5dbd a9c1 e33d 5239 0a3e 00e1 2c3d
00000260: 4453 92bb c342 6f3d bdc9 943d 4503 003c
00000270: 5bc8 253e d212 0abe 62d0 e43d 4acd 82bd
00000280: 4fe4 fdbb c11a 973d 6782 11be 5360 0a3e
00000290: d18a ee3d ac53 ebbd 0285 9cbd ff47 143e
000002a0: cd63 2c3d 6d81 1bbd 29c8 cbbd d773 22bd
000002b0: 4e9d b13d fbee 11be 10c5 5e3c f962 34be
000002c0: 576f 113e 349c 093e a610 26be 2849 093c
000002d0: 1c95 3abe a4bd 56bd 5396 bcbd 5426 e93d
000002e0: 4e4f 20be 21c0 613d 119d ee3d f581 dbbc
000002f0: b0d4 543d 8f3d 583e 3b4e 513e 35fc c4bd
00000300: 9cba 17be f0f7 de3d e616 0cbe 948e da3d
00000310: c443 2bbe 479c 993d ca44 aabd 7c75 c43d
00000320: d71a 483e 4be7 743d d740 363d d317 533d
00000330: dfee 1dbe 77e6 6fbd 8ec8 20be b336 b43d
00000340: e2f9 93bd e5eb 5dbb fcff 923d cc3b babd
00000350: d7bb bfbd fe97 093e c2cb a73b 7fa5 0cbe
00000360: b999 babd b0a8 78bc 7419 03be f9fe 2b3e
00000370: d1ce 063e 18d7 2f3e dfc6 b03c f0e2 0fbe
00000380: 7883 813d cdaf 023e 754b 89bc 1170 d0bd
00000390: 72e1 08be e123 fa3c e9df a63c c9bb 59bd
000003a0: 3168 0abe 0c44 9f3d ee22 37be 0a73 16be
000003b0: cbdc b23c 6534 753c 84c5 2abe 12e1 06bd
000003c0: 27fb 143e f49a 14bd 68ad 1e3e b682 063e
000003d0: 3a25 e23c f8de 38bd 24c8 ce3d e5db c13d
000003e0: 180f 47be c77c 4c3d 59fb e43d dd2f 39bd
000003f0: 7e8a 53bd ada0 1a3e 7e95 83bd 3298 423e

bias f4 [128]
0.13263007 -0.18281585 -0.049768455 -0.043009114 0.2652577 0.07834542 -0.16437231 -0.038962767
-0.16428895 -0.17290036 0.12502569 0.20409673 -0.18010458 0.23999028 0.1940332 0.09930203
-0.3238384 0.084800206 -0.13750546 -0.0027880326 0.14516915 -0.1004122 0.25295377 -0.054350343
-0.047766052 -0.11224227 -0.12851454 -0.36257124 -0.16302797 0.1934923 -0.03315967 0.2513472
0.28687456 0.19257025 0.17122334 -0.20094122 -0.051985074 -0.22485833 -0.30218056 -0.15399423
-0.2688341 0.38125172 -0.2075956 -0.27679068 -0.072071485 0.166782 0.25257516 0.3294598
-0.25880674 0.01868434 -0.051657688 -0.12242263 -0.19065376 0.026234768 -0.15197188 0.13914242
0.20847708 -0.2782281 -0.12612417 -0.3256038 0.19653103 -0.048289556 -0.11446644 -0.29642305
-0.06212847 -0.22086723 0.27379203 0.037818465 0.063174434 0.07553137 -0.028656332 0.108453095
-0.20260209 -0.0073482287 -0.082856394 -0.1984605 -0.24441259 0.07903585 0.30464622 0.19670098
0.03311429 -0.15291065 0.3057993 0.2951417 -0.29990274 -0.2759549 0.11604861 0.30499613
0.036077328 0.199613 -0.051012382 0.03084419 0.3041583 -0.3594436 0.13472596 -0.05581176
0.179215 -0.18707936 -0.19887725 0.19950482 0.24070422 0.263543 -0.08467168 -0.08630077
-0.18876214 -0.27503043 0.3095487 0.295887 -0.10403436 -0.29705223 0.26567602 0.0410814
-0.22531474 0.09135487 0.26451793 0.1706669 0.21546277 -0.116174 0.3253885 0.090497196
0.12035129 0.2747282 -0.23634753 -0.04495054 0.30121273 -0.024670668 -0.0918577 -0.14891434
00000000: 2dd0 073e 1434 3bbe 02da 4bbd 532a 30bd
00000010: dbcf 873e 9073 a03d 3751 28be 6c97 1fbd
00000020: 5d3b 28be cb0c 31be bc06 003e bcfe 503e
00000030: 566d 38be 03c0 753e a4b0 463e dd5e cb3d
00000040: 26ce a5be bbab ad3d 3bce 0cbe 6db7 36bb
00000050: 39a7 143e e9a4 cdbd 2883 813e 779e 5ebd
00000060: 56a6 43bd 46df e5bd 5199 03be f0a2 b9be
00000070: cef0 26be d822 463e 6fd2 07bd 95b0 803e
00000080: 39e1 923e 2331 453e 2c55 2f3e 89c3 4dbe
00000090: 4dee 54bd 4341 66be 69b7 9abe aab0 1dbe
000000a0: a0a4 89be 6d33 c33e f193 54be 82b7 8dbe
000000b0: 379a 93bd e7c8 2a3e 8851 813e f4ae a83e
000000c0: 5182 84be e70f 993c 0397 53bd b7b8 fabd
000000d0: bd3a 43be 4cea d63c 849e 1bbe 5a7b 0e3e
000000e0: 047b 553e ea73 8ebe b226 01be 8bb5 a6be
000000f0: 6e3f 493e 45cb 45bd 626d eabd c3c4 97be
00000100: 6c7a 7ebd 052b 62be 782e 8c3e 89e7 1a3d
00000110: 9961 813d 31b0 9a3d afc0 eabc a81c de3d
00000120: ec76 4fbe 69c9 f0bb 9db0 a9bd 3b39 4bbe
00000130: 4b47 7abe 8cdd a13d 97fa 9b3e fb6b 493e
00000140: daa2 073d 9c94 1cbe ba91 9c3e d01c 973e
00000150: da8c 99be f649 8dbe e5aa ed3d 7428 9c3e
00000160: d2c5 133d 5a67 4c3e 5cf2 50bd f4ac fc3c
00000170: a3ba 9b3e fe08 b8be 9af5 093e df9a 64bd
00000180: 2384 373e bb91 3fbe 7aa6 4bbe fe4a 4c3e
00000190: 2b7b 763e 1cef 863e 5968 adbd 75be b0bd
000001a0: dd4a 41be cad0 8cbe 2b7d 9e3e 807e 973e
000001b0: f70f d5bd 3b17 98be b006 883e f844 283d
000001c0: e8b8 66be 4318 bb3d e56e 873e 4ec3 2e3e
000001d0: 46a2 5c3e a2ec edbd 5299 a63e 9856 b93d
000001e0: bd7a f63d 2da9 8c3e 1605 72be 0f1e 38bd
000001f0: 8e38 9a3e 241a cabc e41f bcbd 007d 18be

pe f4 [1, 174, 128]
0.0 1.0 0.0 1.0 0.0 1.0 0.0 1.0
0.0 1.0 0.0 1.0 0.0 1.0 0.0 1.0
0.0 1.0 0.0 1.0 0.0 1.0 0.0 1.0
0.0 1.0 0.0 1.0 0.0 1.0 0.0 1.0
0.0 1.0 0.0 1.0 0.0 1.0 0.0 1.0
0.0 1.0 0.0 1.0 0.0 1.0 0.0 1.0
0.0 1.0 0.0 1.0 0.0 1.0 0.0 1.0
0.0 1.0 0.0 1.0 0.0 1.0 0.0 1.0
0.0 1.0 0.0 1.0 0.0 1.0 0.0 1.0
0.0 1.0 0.0 1.0 0.0 1.0 0.0 1.0
0.0 1.0 0.0 1.0 0.0 1.0 0.0 1.0
0.0 1.0 0.0 1.0 0.0 1.0 0.0 1.0
0.0 1.0 0.0 1.0 0.0 1.0 0.0 1.0
0.0 1.0 0.0 1.0 0.0 1.0 0.0 1.0
0.0 1.0 0.0 1.0 0.0 1.0 0.0 1.0
0.0 1.0 0.0 1.0 0.0 1.0 0.0 1.0
0.84147096 0.54030234 0.76172036 0.6479059 0.68156135 0.731761 0.604694 0.7964579
0.53316844 0.8460091 0.46794805 0.883756 0.40930894 0.91239583 0.35711196 0.9340616
0.3109836 0.9504153 0.2704322 0.96273905 0.23492105 0.9720145 0.20391227 0.9789892
0.17689219 0.9842302 0.15338473 0.9881666 0.13295726 0.99112177 0.11522171 0.9933398
0.099833414 0.9950042 0.08648824 0.9962529 0.07491915 0.9971896 0.06489253 0.99789226
0.05620449 0.9984193 0.04867751 0.9988145 0.04215715 0.999111 0.036509294 0.9993333
0.031617504 0.99950004 0.027380772 0.9996251 0.023711512 0.99971884 0.020533804 0.9997892
0.017781857 0.99984187 0.015398654 0.99988145 0.013334819 0.99991107 0.01154756 0.9999333
0.009999833 0.99995 0.008659536 0.9999625 0.0074988706 0.99997187 0.006493771 0.9999789
0.0056233825 0.9999842 0.004869656 0.99998814 0.0042169513 0.9999911 0.003651733 0.9999933
0.0031622713 0.999995 0.0027384157 0.99999624 0.0023713715 0.9999972 0.0020535232 0.9999979
0.0017782785 0.99999845 0.0015399256 0.9999988 0.0013335211 0.9999991 0.0011547814 0.99999934
0.0009999998 0.9999995 0.0008659643 0.99999964 0.000749894 0.9999997 0.0006493816 0.9999998
0.0005623411 0.9999998 0.0004869675 0.9999999 0.00042169637 0.99999994 0.00036517408 0.99999994
0.00031622782 0.99999994 0.00027384204 0.99999994 0.00023713727 1.0 0.00020535247 1.0
0.00017782794 1.0 0.00015399269 1.0 0.00013335208 1.0 0.00011547816 1.0
00000000: 0000 0000 0000 803f 0000 0000 0000 803f
00000010: 0000 0000 0000 803f 0000 0000 0000 803f
00000020: 0000 0000 0000 803f 0000 0000 0000 803f
00000030: 0000 0000 0000 803f 0000 0000 0000 803f
00000040: 0000 0000 0000 803f 0000 0000 0000 803f
00000050: 0000 0000 0000 803f 0000 0000 0000 803f
00000060: 0000 0000 0000 803f 0000 0000 0000 803f
00000070: 0000 0000 0000 803f 0000 0000 0000 803f
00000080: 0000 0000 0000 803f 0000 0000 0000 803f
00000090: 0000 0000 0000 803f 0000 0000 0000 803f
000000a0: 0000 0000 0000 803f 0000 0000 0000 803f
000000b0: 0000 0000 0000 803f 0000 0000 0000 803f
000000c0: 0000 0000 0000 803f 0000 0000 0000 803f
000000d0: 0000 0000 0000 803f 0000 0000 0000 803f
000000e0: 0000 0000 0000 803f 0000 0000 0000 803f
000000f0: 0000 0000 0000 803f 0000 0000 0000 803f
00000100: 0000 0000 0000 803f 0000 0000 0000 803f
00000110: 0000 0000 0000 803f 0000 0000 0000 803f
00000120: 0000 0000 0000 803f 0000 0000 0000 803f
00000130: 0000 0000 0000 803f 0000 0000 0000 803f
00000140: 0000 0000 0000 803f 0000 0000 0000 803f
00000150: 0000 0000 0000 803f 0000 0000 0000 803f
00000160: 0000 0000 0000 803f 0000 0000 0000 803f
00000170: 0000 0000 0000 803f 0000 0000 0000 803f
00000180: 0000 0000 0000 803f 0000 0000 0000 803f
00000190: 0000 0000 0000 803f 0000 0000 0000 803f
000001a0: 0000 0000 0000 803f 0000 0000 0000 803f
000001b0: 0000 0000 0000 803f 0000 0000 0000 803f
000001c0: 0000 0000 0000 803f 0000 0000 0000 803f
000001d0: 0000 0000 0000 803f 0000 0000 0000 803f
000001e0: 0000 0000 0000 803f 0000 0000 0000 803f
000001f0: 0000 0000 0000 803f 0000 0000 0000 803f
00000200: a46a 573f 4151 0a3f 1b00 433f 29dd 253f
00000210: ce7a 2e3f b054 3b3f 3acd 1a3f aae4 4b3f
00000220: ba7d 083f 0d94 583f e396 ef3e d53d 623f
00000230: f190 d13e c692 693f 61d7 b63e a91e 6f3f
00000240: 3e39 9f3e 6b4e 733f 1776 8a3e 1176 763f
00000250: 258f 703e f1d5 783f 61ce 503e 099f 7a3f
00000260: 3a23 353e 83f6 7b3f e310 1d3e 7cf8 7c3f
00000270: f325 083e 28ba 7d3f 5cf9 eb3d 844b 7e3f
00000280: 7675 cc3d 98b8 7e3f bf20 b13d 6e0a 7f3f
00000290: 366f 993d d147 7f3f 60e6 843d de75 7f3f
000002a0: ae36 663d 6898 7f3f 1262 473d 4fb2 7f3f
000002b0: faac 2c3d bdc5 7f3f c58a 153d 4fd4 7f3f
000002c0: 5b81 013d 3cdf 7f3f a44d e03c 6ee7 7f3f
000002d0: a53e c23c 93ed 7f3f 8236 a83c 2ff2 7f3f
000002e0: 42ab 913c a3f5 7f3f a34a 7c3c 3bf8 7f3f
000002f0: 497a 5a3c 2cfa 7f3f fa31 3d3c a1fb 7f3f
00000300: 57d6 233c b9fc 7f3f bae0 0d3c 8bfd 7f3f
00000310: 16b9 f53b 28fe 7f3f b3c9 d43b 9efe 7f3f
00000320: 5a44 b83b f7fe 7f3f a391 9f3b 39ff 7f3f
00000330: 5a2e 8a3b 6bff 7f3f ea51 6f3b 90ff 7f3f
00000340: 1c3e 4f3b acff 7f3f fe76 333b c1ff 7f3f
00000350: 0369 1b3b d1ff 7f3f 6794 063b ddff 7f3f
00000360: 2015 e93a e6ff 7f3f 54d7 c93a ecff 7f3f
00000370: 8bc9 ae3a f1ff 7f3f 095c 973a f5ff 7f3f
00000380: 6d12 833a f8ff 7f3f e101 633a faff 7f3f
00000390: 8994 443a fbff 7f3f 433b 2a3a fdff 7f3f
000003a0: 136a 133a fdff 7f3f ac4f ff39 feff 7f3f
000003b0: 2117 dd39 ffff 7f3f d674 bf39 ffff 7f3f
000003c0: 61cb a539 ffff 7f3f 7592 8f39 ffff 7f3f
000003d0: 0da8 7839 0000 803f e253 5739 0000 803f
000003e0: 5377 3a39 0000 803f 1979 2139 0000 803f
000003f0: 6dd4 0b39 0000 803f dd2c f238 0000 803f

in_proj_weight f4 [384, 128]
0.03577107 0.028326387 0.076088764 0.044564907 -0.08638796 -0.024387762 -0.008927339 0.06875063
-0.058879223 0.0021024356 -0.044713642 0.065346286 -0.099364154 -0.03502238 -0.089197166 -0.023201393
0.024233002 0.013059138 -0.006651083 -0.020434482 -0.05262562 0.07527318 0.09925472 0.0985774
0.014344367 0.056982413 0.050109435 -0.04109415 -0.08388091 0.029161585 0.093227394 -0.072670594
0.033271443 0.043379605 -0.004197044 -0.087231606 0.039503507 -0.02866979 -0.078966126 0.06917058
-0.077278845 -0.067530446 0.07379687 0.0416234 0.020289179 -0.06546914 -0.04673077 0.018705545
0.056811415 0.06366944 0.028684704 -0.017193584 -0.0020647333 -0.098028146 0.030762054 -0.08582962
0.03677836 0.057113927 0.033963297 -0.056125447 -0.02322745 -0.08771774 0.072222754 0.020404328
-0.061762113 -0.04103976 0.011468269 0.005204242 0.095550336 0.017976314 -0.08142984 -0.03987647
0.06124715 -0.08260555 0.062405456 0.06491061 0.04124163 -0.0971402 0.09300294 0.007837562
0.07587501 -0.020968879 0.06373466 -0.0017172785 -0.03617401 -0.04981892 -0.061388895 0.022506462
0.05590695 0.061696533 -0.022855954 0.051514138 0.030268658 -0.03534726 0.08029677 -0.029575633
-0.07884864 -0.04368323 -0.0034524223 0.02943487 -0.042435262 0.025160164 -0.06341639 -0.024209801
0.09841215 0.017598245 -0.08722504 0.038486272 -0.072498865 -0.0020918245 -0.10244718 0.09175214
-0.043388054 -0.055365067 -0.05426267 -0.020948961 0.0716549 -0.070812844 0.094818175 0.10771062
-0.05642254 -0.036534715 -0.09067631 0.031056544 0.08116522 0.015153685 -0.021749673 0.05134323
0.05077464 -0.06545436 -0.03873589 -0.017349262 -0.055782866 0.015834723 -0.08910184 -0.0193442
0.0798485 -0.07059879 0.014549567 0.0525007 -0.07541174 0.04471384 0.101521775 0.06759527
-0.011112164 -0.008905878 -0.04223551 0.023446694 -0.0038142987 0.009263889 0.092832446 -0.073126055
-0.09542703 -0.027845632 0.010141103 -0.034497783 -0.027478749 -0.036108278 0.09316632 0.007796007
0.098424055 0.090487465 0.07210447 0.061957527 -0.07083567 0.05986056 0.036366753 0.0049766325
-0.03451049 -0.05683247 -0.07010092 -0.011455253 -0.044594374 0.01284503 0.058506113 -0.037173826
0.04117696 -0.06782221 0.04876173 -0.0492552 0.053920604 -0.0755752 0.05575206 0.0071479194
0.0691222 -0.036181636 0.08405991 0.06333873 -0.05411064 -0.04994935 0.03462753 0.052079294
0.03579365 0.09501525 0.08672179 -0.08353342 -0.07548016 -0.06494735 -0.10733494 0.05786499
-0.017335186 -0.08877633 0.024838785 0.077034324 0.030792141 -0.0026564251 0.007870943 -0.062036123
0.04903457 0.032246567 -0.07324464 -0.0039992756 -0.019076696 0.091258235 0.054718684 0.050787665
0.044800315 0.04305784 0.0357194 0.10028327 0.027615264 -0.039197806 -0.026169112 -0.06702251
-0.07038325 0.08820041 0.07004697 -0.078936964 0.0131018115 -0.018586807 0.0670478 0.015921896
-0.07093573 -0.008276609 -0.090317026 -0.06794374 -0.016707653 0.0061960244 0.04725282 0.063228145
0.016987523 0.045495152 -0.02239874 -0.026362991 0.09494898 0.011049664 -0.06556333 -0.012483934
-0.011178699 -0.10132225 -0.021014323 -0.024964215 0.055765625 0.032003615 0.074634746 0.08465723
00000000: af84 123d bd0c e83c 6dd4 9b3d b189 363d
00000010: 2cec b0bd d8c8 c7bc f943 12bc 21cd 8c3d
00000020: 572b 71bd 04c9 093b a725 37bd 46d4 853d
00000030: 6f7f cbbd a173 0fbd 01ad b6bd d910 bebc
00000040: 4a84 c63c fff5 553c 54f1 d9bb 3766 a7bc
00000050: f68d 57bd d328 9a3d 0f46 cb3d f3e2 c93d
00000060: a304 6b3c 6466 693d 8d3f 4d3d 5752 28bd
00000070: c1c9 abbd 47e4 ee3c 01ee be3d 52d4 94bd
00000080: a347 083d d0ae 313d 5b87 89bb 7ca6 b2bd
00000090: 6ece 213d e8dc eabc feb8 a1bd 4ea9 8d3d
000000a0: 5f44 9ebd 674d 8abd d022 973d 4c7d 2a3d
000000b0: 7e35 a63c af14 86bd c468 3fbd 5f3c 993c
000000c0: 16b3 683d 2065 823d 2ffc ea3c 8fd9 8cbc
000000d0: 7a50 07bb fbc2 c8bd b400 fc3c 71c7 afbd
000000e0: e8a4 163d 4bf0 693d 191d 0b3d cce3 65bd
000000f0: 7e47 bebc 5ca5 b3bd 86e9 933d fa26 a73c
00000100: 45fa 7cbd 4f19 28bd 68e5 3b3c 5988 aa3b
00000110: e5af c33d 1043 933c b0c4 a6bd 8255 23bd
00000120: 4bde 7a3d 192d a9bd dd9c 7f3d dbef 843d
00000130: fcec 283d 71f1 c6bd 5378 be3d 1e69 003c
00000140: 5b64 9b3d edc6 abbc 5187 823d 4e16 e1ba
00000150: 332b 14bd ed0e 4cbd ec72 7bbd 795f b83c
00000160: b0fe 643d 81b5 7c3d 693c bbbc 7d00 533d
00000170: faf5 f73c 4ac8 10bd a272 a43d 9948 f2bc
00000180: 657b a1bd 30ed 32bd 0942 62bb 6621 f13c
00000190: 99d0 2dbd b01c ce3c 74e0 81bd a253 c6bc
000001a0: 4f8c c93d 322a 903c 0ba3 b2bd c8a3 1d3d
000001b0: 497a 94bd fe16 09bb d4cf d1bd 8ce8 bb3d
000001c0: acb7 31bd 7bc6 62bd 8942 5ebd 289d abbc
000001d0: cebf 923d 5306 91bd 0830 c23d 6397 dc3d
000001e0: 521b 67bd 6da5 15bd 80b4 b9bd 4b6a fe3c
000001f0: f339 a63d 2947 783c 5f2c b2bc 474d 523d
00000200: 12f9 4f3d ef0c 86bd 86a9 1ebd 0a20 8ebc
00000210: 937c 64bd d2b7 813c 077b b6bd ba77 9ebc
00000220: 9c87 a33d 1996 90bd 4f61 6e3c f90a 573d
00000230: 7871 9abd dc25 373d a6ea cf3d 646f 8a3d
00000240: cb0f 36bc f6e9 11bc 24ff 2cbd 4813 c03c
00000250: 50f9 79bb 91c7 173c f01e be3d 1dc3 95bd
00000260: 3f6f c3bd 861c e4bc de26 263c 8c4d 0dbd
00000270: 1d1b e1bc 46e6 13bd fccd be3d a675 ff3b
00000280: 8d92 c93d 7e51 b93d 82ab 933d 2dc7 7d3d
00000290: 4b12 91bd 5930 753d 4ef5 143d 0513 a33b
000002a0: df5a 0dbd 2ac9 68bd 1291 8fbd d0ae 3bbc
000002b0: 97a8 36bd f673 523c 1ba4 6f3d 9543 18bd
000002c0: 2ca9 283d 5fe6 8abd 61ba 473d d2bf 49bd
000002d0: dadb 5c3d 2cc7 9abd 465c 643d 1839 ea3b
000002e0: f18f 8d3d 3233 14bd 9a27 ac3d bcb7 813d
000002f0: 1ea3 5dbd b197 4cbd 99d5 0d3d 1951 553d
00000300: 5d9c 123d 5b97 c23d 329b b13d 9213 abbd
00000310: 5895 9abd 1e03 85bd 6cd2 dbbd d703 6d3d
00000320: 8502 8ebc 5dd0 b5bd b57a cb3c 2cc4 9d3d
00000330: cd3f fc3c 6b17 2ebb 21f5 003c 9719 7ebd
00000340: 79d8 483d fa14 043d 4901 96bd 5b0c 83bb
00000350: bb46 9cbc 99e5 ba3d b320 603d ba06 503d
00000360: 8980 373d 6b5d 303d 814e 123d 5161 cd3d
00000370: 6839 e23c e18d 20bd 9b60 d6bc 1943 89bd
00000380: 1825 90bd 6ba2 b43d c974 8f3d b4a9 a1bd
00000390: fba8 563c 5c43 98bc 5b50 893d a36e 823c
000003a0: c146 91bd 9d9a 07bc 22f8 b8bd 1626 8bbd
000003b0: 7dde 88bc 0508 cb3b 2c8c 413d c27d 813d
000003c0: 6b29 8b3c 2059 3a3d 907d b7bc 33f7 d7bc
000003d0: 9c74 c23d a609 353c 1146 86bd 6a89 4cbc
000003e0: dd26 37bc 0a82 cfbd 3b26 acbc c181 ccbc
000003f0: 7f6a 643d 3916 033d 1ada 983d c560 ad3d

in_proj_bias f4 [384]
0.0025073718 0.00081317156 -0.007958633 0.0055932496 -0.004903711 -0.0013239639 0.0015794819 -0.009487545
-0.009055791 -0.002121292 0.004594474 -0.0016116878 0.008160433 0.004050771 0.0030066883 -0.0027996642
0.0032298209 -0.005554358 -0.0072021848 0.006352661 0.001501692 -0.0056715845 0.009447294 -0.0015405954
-0.005866049 -0.011220113 0.0039206883 -0.0063756113 -0.010230147 0.007388069 0.008782692 -0.0076806983
0.0070229406 -0.0015449254 -0.0035485243 0.0068794796 -0.0033583143 -0.003718399 0.0027233313 0.009935904
-0.006275681 -0.00073469937 0.0010528422 -0.0034283071 -0.011457825 -0.0093247555 0.0030124437 -0.0046255724
0.008840771 0.0057173218 0.0041236994 0.0028069725 0.0010296557 -0.01153616 0.0076595885 0.004041606
-0.0048247566 0.008267619 -0.005346388 -0.0068476363 -0.00059969584 -0.020681482 -0.012054387 0.0066927387
0.0010760844 -0.012095846 -0.0061364905 -0.00916864 0.0061499053 0.019306608 -0.0032661962 -0.003819968
0.0036721712 0.01765957 -0.0045273644 0.0029979853 -0.012782914 -0.001599637 0.00083407626 0.011675536
-0.0061328337 -0.0020369156 0.006326778 0.00049226335 0.004144912 0.012832839 -0.006686368 -0.01269972
0.0028419984 0.0024841456 0.00860458 -0.0007541129 0.0069390764 -0.009725911 -0.002734969 -0.0033721002
-0.0009911977 -0.010226635 -0.00036579047 -0.007847071 0.004331142 -0.0052268743 -0.009671505 0.00911154
-0.00018664614 -0.004602591 0.010340148 0.0013246355 0.008876125 -0.00027493868 -0.0036692831 -0.007192436
0.001277622 0.0040084897 -0.0045012743 -0.002284992 0.005840672 -0.004304145 -0.003077187 0.0009614535
0.00024576846 0.0032920346 -0.0054759514 7.207477e-05 0.0019965617 0.009944899 0.005828463 0.006295124
0.00013818555 -5.0258514e-05 -0.0001579628 0.00031926564 1.9634766e-05 -0.00033975198 3.154078e-05 -0.00014059631
5.3101925e-05 2.5489438e-05 -0.0011507865 -2.9625824e-05 -0.000102886166 -0.0002912865 0.00020121202 -0.00018556388
-4.5026558e-05 -0.00025735053 -0.00039457472 -0.00014573628 0.00027507136 -0.00010502698 -0.0003461754 -0.0001146817
-6.677081e-05 -0.00018371941 0.00014051887 0.00017598826 -0.00015062859 -0.00010129406 -7.5142736e-05 4.2603573e-05
0.00037004126 -1.651421e-05 0.0003806789 -0.000210077 0.00020355014 0.00019852602 2.8591046e-05 0.00020804591
0.0002574608 0.00011407569 0.0004949506 -0.00011901611 -0.00012287026 0.0002602748 -0.00025239072 -0.00013099055
0.0001287964 7.633382e-06 -0.00033039856 0.00014729642 0.0003342672 -0.00022626102 0.00029353617 -4.1739968e-05
-3.7138114e-05 0.00016158563 -0.00016133579 -0.00034618392 2.6552447e-05 -0.00047488278 5.9680413e-05 0.00017633112
0.00021636758 1.6273147e-05 -0.00023618744 0.00015692355 0.00041255803 -0.00023761063 0.00014361505 0.0003670968
5.8097008e-05 -0.00020127124 -0.00011166276 7.955402e-05 0.00029189652 5.5978503e-06 0.000265979 4.803382e-05
8.365818e-05 5.2043513e-05 0.00011548567 0.00021130539 3.2038427e-06 -4.4172542e-05 0.00020244448 0.0001475915
-9.2011804e-05 0.00018224382 2.5491448e-05 -0.0005084019 7.090818e-05 -3.6857055e-05 -0.00020967021 -3.883264e-06
-0.00037012613 -3.987521e-06 -0.0002588656 1.3423032e-06 -2.2364116e-05 0.00019014058 0.00013521373 -0.000110216766
0.0002725031 -0.00010065933 -0.00047854814 0.00026553776 -0.0005785085 -2.2243188e-05 9.940617e-05 -0.00044345894
0.00013034945 -0.00039942126 -0.00024724455 0.0005170595 -6.530109e-05 0.00029619123 -0.0005444281 0.00031828383
0.00010500515 -0.00014198516 -7.806217e-05 -3.0285142e-05 -0.00014987579 -2.1307907e-05 0.00020626011 -5.394186e-05
00000000: b852 243b 052b 553a ed64 02bc 9447 b73b
00000010: 4faf a0bb db88 adba 9e06 cf3a a671 1bbc
00000020: be5e 14bc 6005 0bbb 3e8d 963b 453f d3ba
00000030: 56b3 053c 54bc 843b dc0b 453b 927a 37bb
00000040: 67ab 533b 5501 b6bb 4e00 ecbb fc29 d03b
00000050: 6cd4 c43a b3d8 b9bb d3c8 1a3c ceed c9ba
00000060: fc37 c0bb 91d4 37bc 1e79 803b 81ea d0bb
00000070: 599c 27bc 9d17 f23b 48e5 0f3c 5eae fbbb
00000080: b220 e63b 187f caba 5c8e 68bb 426d e13b
00000090: 2a17 5cbb 62b0 73bb eb79 323b 34ca 223c
000000a0: 3aa4 cdbb d798 40ba 86ff 893a 73ad 60bb
000000b0: 9ab9 3bbc dcc6 18bc 6b6c 453b 1d92 97bb
000000c0: e2d8 103c 5f58 bb3b 1920 873b 2ff5 373b
000000d0: 83f5 863a 2902 3dbc 49fd fa3b 736f 843b
000000e0: fe18 9ebb e874 073c c130 afbb 2362 e0bb
000000f0: e834 1dba 366c a9bc c37f 45bc c34e db3b
00000100: 670b 8d3a a82d 46bc 9d14 c9bb 1038 16bc
00000110: 2585 c93b e428 9e3c ae0d 56bb 6e58 7abb
00000120: cfa8 703b cdaa 903c 495a 94bb d979 443b
00000130: 6d6f 51bc e9aa d1ba e9a5 5a3a bf4a 3f3c
00000140: f0f5 c8bb c67d 05bb dc50 cf3b 3c0b 013a
00000150: 0bd2 873b d440 523c 5219 dbbb 7d12 50bc
00000160: d240 3a3b 0ccd 223b 39fa 0c3c a9af 45ba
00000170: 3161 e33b 6d59 1fbc 2a3d 33bb 74fe 5cbb
00000180: 13eb 81ba 9e8d 27bc 91c7 bfb9 0091 00bc
00000190: 41ec 8d3b 3346 abbb 3b75 1ebc 9248 153c
000001a0: 71b6 43b9 55d1 96bb b969 293c 649f ad3a
000001b0: 2b6d 113c a525 90b9 5b78 70bb 87ae ebbb
000001c0: e175 a73a a659 833b 6d7f 93bb cebf 15bb
000001d0: 1c63 bf3b c909 8dbb a2aa 49bb 0d0a 7c3a
000001e0: 7cda 8039 2dbf 573b 9c6f b3bb d926 9738
000001f0: bfd8 023b eeef 223c b1fc be3b 5447 ce3b
00000200: e7e5 1039 abcc 52b8 d1a2 25b9 1c63 a739
00000210: 57b5 a437 bd20 b2b9 a84a 0438 096d 13b9
00000220: c2b9 5e38 27d2 d537 fdd5 96ba f984 f8b7
00000230: 97c4 d7b8 d0b7 98b9 71fc 5239 ed93 42b9
00000240: e6da 3cb8 01ed 86b9 ecde ceb9 c9d0 18b9
00000250: 7437 9039 ee41 dcb8 e07e b5b9 4581 f0b8
00000260: 4e07 8cb8 cea4 40b9 3f58 1339 7d89 3839
00000270: 0ef2 1db9 d66d d4b8 f395 9db8 3db1 3238
00000280: 1902 c239 ff87 8ab7 db95 c739 1e48 5cb9
00000290: 1370 5539 6c2b 5039 ced6 ef37 e626 5a39
000002a0: cefb 8639 eb3b ef38 93bf 013a 4a98 f9b8
000002b0: bcd6 00b9 7e75 8839 4f53 84b9 825a 09b9
000002c0: 850d 0739 2011 0037 5839 adb9 9573 1a39
000002d0: 9640 af39 7b40 6db9 c2e5 9939 f311 2fb8
000002e0: bfc4 1bb8 506f 2939 3f2c 29b9 0580 b5b9
000002f0: f2bc de37 b0f9 f8b9 5b51 7a38 86e5 3839
00000300: bbe0 6239 5182 8837 15a9 77b9 d88b 2439
00000310: 9a4c d839 1e27 79b9 5f97 1639 e676 c039
00000320: 30ad 7338 560c 53b9 7d2c eab8 3dd6 a638
00000330: b009 9939 2bd5 bb36 1973 8b39 ec77 4938
00000340: a571 af38 4c49 5a38 e630 f238 dc91 5d39
00000350: 9901 5736 e845 39b8 4747 5439 cbc2 1a39
00000360: 76f6 c0b8 b418 3f39 78d6 d537 4646 05ba
00000370: 8ab4 9438 f696 1ab8 ebda 5bb9 fc4c 82b6
00000380: 7d0d c2b9 8bcc 85b6 5ab8 87b9 3029 b435
00000390: 939a bbb7 7960 4739 29c8 0d39 2d24 e7b8
000003a0: bfde 8e39 1119 d3b8 a5e5 fab9 e037 8b39
000003b0: 0ca7 17ba e296 bab7 4878 d038 0d80 e8b9
000003c0: 6aae 0839 6a69 d1b9 9aa0 81b9 478b 073a
000003d0: 41f2 88b8 1d4a 9b39 f4b7 0eba 55df a639
000003e0: 3636 dc38 dae1 14b9 4fb5 a3b8 d90c feb7
000003f0: fa27 1db9 62be b2b7 8747 5839 a23f 62b8

weight f4 [128, 128]
-0.101011254 0.08850736 -0.092633605 -0.059530154 0.12305742 0.042667832 -0.090118445 -0.118254095
0.039073072 0.08853415 -0.04663706 -0.122115664 -0.13703279 0.06956106 -0.023038642 -0.070538454
0.05091258 -0.13105847 0.04037746 0.12860222 -0.042029943 0.12513031 0.085809655 -0.07324749
0.066019125 -0.032536488 0.12728992 -0.1302302 0.08076721 0.007452963 -0.027389474 0.09512316
-0.052837532 0.070428595 -0.0023167452 0.065488 -0.15220088 -0.05755009 0.08241472 0.018247025
-0.062240116 0.12891704 -0.06838872 0.06383337 0.058915686 0.10522053 -0.03897376 0.08440241
0.07716574 0.09085808 0.07931907 0.09416957 -0.032244705 0.03894732 -0.11344276 0.12383356
0.025642345 0.09296003 -0.03738262 -0.13078591 -0.017872222 -0.07949702 -0.007343389 0.08452543
0.13257317 -0.052700378 0.018398192 -0.05242024 -0.025954241 -0.11901562 -0.0033773764 0.027156146
0.074275 0.089524075 0.11335036 -0.0891698 0.051066075 0.040813036 0.0140684545 -0.013109881
-0.11101196 -0.075836144 0.061433736 0.09723311 0.020977376 0.03472258 0.002779939 -0.11657256
0.0011742888 -0.015695032 0.08220377 0.119642355 -0.007998265 0.10143664 -0.11632604 -0.00338341
0.10004583 -0.04057997 -0.09000261 0.07667524 0.105633035 0.070226945 0.0011666891 -0.010181286
-0.076930106 0.0021130983 0.005666813 -0.08117478 0.043413747 -0.08653935 -0.021639565 0.015389848
0.09575917 -0.0423185 0.06629956 0.011871884 0.055352304 -0.13229445 -0.06475787 0.115359515
0.06592081 -0.01977366 0.09545404 -0.08150933 0.0053471196 -0.012363776 -0.06833338 0.06877704
0.028114967 -0.05141813 -0.010520815 -0.098299764 -0.06298935 0.07590002 -0.07389112 0.08736742
0.068110034 0.112387754 -0.14093943 -0.13792501 0.13766526 0.010814074 0.005729462 0.08447453
-0.11657493 -0.11526009 -0.003753194 0.033891886 -0.04157118 -0.06419957 -0.01804556 -0.09764754
0.07412273 -0.018743183 0.019173795 0.025838051 0.06454539 0.029455232 0.11477436 -0.12768418
-0.041508853 -0.098818816 0.026775638 0.11749208 -0.0134673035 0.061975464 0.07553676 0.118202925
-0.09327466 0.015035208 -0.006316092 -0.08711188 0.10794859 0.091472134 0.05397085 0.06620423
-0.086137064 0.05517688 -0.07122636 -0.05840845 -0.047000185 -0.11210883 0.052900396 0.104757436
0.08328276 -0.07925692 -0.11689632 -0.014890476 -0.011928242 0.08424635 -0.035417456 0.08266426
-0.028911978 -0.006103203 0.062390238 0.054187197 -0.073462285 -0.050185807 -0.038284868 0.04080361
0.032623947 0.034623507 0.09644272 0.04423738 0.124330245 -0.08849483 0.090464935 -0.079314485
-0.10138692 0.060746435 0.07364497 0.118016034 0.08290169 -0.02545842 0.110395186 -0.09711293
-0.05284466 -0.03551612 0.0077254972 -0.09508004 -0.07363525 -0.12606868 -0.013198747 0.10482867
-0.12004546 -0.056826886 -0.09743892 -0.014585409 -0.0698025 -0.025396284 -0.080518566 0.018605966
-0.122749984 -0.010978924 -0.14327507 0.06956993 -0.07906784 -0.1145466 -0.10231891 0.09971312
-0.09411598 0.071351215 -0.07672494 -0.033829276 -0.10428531 -0.07703996 0.08989337 -0.025661409
0.038082544 0.110238925 -0.032776978 0.11678081 0.1247465 -0.08365752 0.06803138 -0.059403524
00000000: fdde cebd 5943 b53d b0b6 bdbd e4d5 73bd
00000010: 8705 fc3d 77c4 2e3d 0590 b8bd 342f f2bd
00000020: 160b 203d 6451 b53d 8006 3fbd c717 fabd
00000030: 5352 0cbe 0776 8e3d 89bb bcbc 7776 90bd
00000040: b689 503d 3134 06be d662 253d 4db0 033e
00000050: 9727 2cbd 2922 003e f9bc af3d c802 96bd
00000060: 0935 873d fb44 05bd 4a58 023e 115b 05be
00000070: 4769 a53d fc37 f43b e45f e0bc eecf c23d
00000080: 2b6c 58bd de3c 903d 89d4 17bb 931e 863d
00000090: 8cda 1bbe a5b9 6bbd 0cc9 a83d c97a 953c
000000a0: 7eef 7ebd d402 043e 630f 8cbd 12bb 823d
000000b0: 9351 713d dc7d d73d f3a2 1fbd 2cdb ac3d
000000c0: 1209 9e3d cd13 ba3d 0972 a23d fadb c03d
000000d0: 0613 04bd 3a87 1f3d ae54 e8bd 739c fd3d
000000e0: e50f d23c d461 be3d 851e 19bd beec 05be
000000f0: c468 92bc 55cf a2bd d0a0 f0bb ab1b ad3d
00000100: 43c1 073e 5adc 57bd ceb7 963c 9bb6 56bd
00000110: fd9d d4bc 76be f3bd f956 5dbb 9176 de3c
00000120: 7e1d 983d 6658 b73d 3c24 e83d a89e b6bd
00000130: a92a 513d 922b 273d 607f 663c d4ca 56bc
00000140: 3d5a e3bd fb4f 9bbd f1a1 7b3d 2722 c73d
00000150: bfd8 ab3c 4439 0e3d a32f 363b 98bd eebd
00000160: 98ea 993a de92 80bc 735a a83d 0d07 f53d
00000170: 280b 03bc 03be cf3d 593c eebd 33bc 5dbb
00000180: d4e4 cc3d 2f37 26bd 4a53 b8bd e907 9d3d
00000190: 2256 d83d 25d3 8f3d 97eb 983a 69cf 26bc
000001a0: 888d 9dbd e87b 0a3b acb0 b93b f73e a6bd
000001b0: 9dd2 313d 8b3b b1bd 7545 b1bc b325 7c3c
000001c0: 621d c43d 2a56 2dbd 10c8 873d 4a82 423c
000001d0: 19b9 623d 3278 07be c69f 84bd 9c41 ec3d
000001e0: 7d01 873d 5ffc a1bc 687d c33d 5dee a6bd
000001f0: e436 af3b 6f91 4abc 5ff2 8bbd fada 8c3d
00000200: 5c51 e63c d19b 52bd 7f5f 2cbc 6351 c9bd
00000210: 8f00 81bd 7871 9b3d 3a54 97bd b1ed b23d
00000220: 467d 8b3d 8d2b e63d 6d52 10be 373c 0dbe
00000230: 1ff8 0c3e 842d 313c 36be bb3b fb00 ad3d
00000240: d6be eebd 7b0d ecbd 25f8 75bb 38d2 0a3d
00000250: 8b46 2abd 107b 83bd 48d4 93bc 6ffb c7bd
00000260: a8cd 973d 4e8b 99bc 5d12 9d3c 52aa d33c
00000270: 6030 843d 194c f13c d20e eb3d a4bf 02be
00000280: 3005 2abd 8561 cabd 9558 db3c b09f f03d
00000290: f7a5 5cbc fcd9 7d3d 04b3 9a3d 6014 f23d
000002a0: c906 bfbd 3c56 763c 38f7 cebb b767 b2bd
000002b0: 2614 dd3d be55 bb3d 8a10 5d3d 1596 873d
000002c0: a168 b0bd 2701 623d 20df 91bd b33d 6fbd
000002d0: 4483 40bd 5099 e5bd 16ae 583d 118b d63d
000002e0: 2790 aa3d 7451 a2bd 5667 efbd 2ff7 73bc
000002f0: ac6e 43bc 5a89 ac3d e511 11bd e14b a93d
00000300: d0d8 ecbc 61fd c7bb e88c 7f3d 65f3 5d3d
00000310: 6573 96bd a28f 4dbd 98d0 1cbd b021 273d
00000320: b0a0 053d 61d1 0d3d c383 c53d 4132 353d
00000330: dba0 fe3d c73c b5bd ae45 b93d a26f a2bd
00000340: f2a3 cfbd 41d1 783d 2dd3 963d 64b2 f13d
00000350: 5cc8 a93d 2d8e d0bc df16 e23d 25e3 c6bd
00000360: a473 58bd 5a79 11bd 2b26 fd3b 53b9 c2bd
00000370: 14ce 96bd 2618 01be 8f3f 58bc 6ab0 d63d
00000380: 65da f5bd 4fc3 68bd 0e8e c7bd a4f7 6ebc
00000390: 9df4 8ebd de0b d0bc ebe6 a4bd 8a6b 983c
000003a0: 5864 fbbd f2e0 33bc b3b6 12be ae7a 8e3d
000003b0: 52ee a1bd 6897 eabd 948c d1bd 6436 cc3d
000003c0: e1bf c0bd 9620 923d f721 9dbd 9190 0abd
000003d0: 8993 d5bd 20c7 9dbd 041a b83d e037 d2bc
000003e0: 71fc 1b3d f2c4 e13d 2741 06bd c72a ef3d
000003f0: 187b ff3d a254 abbd 0954 8b3d 1c51 73bd

bias f4 [128]
0.029806564 -0.051092826 -0.020479413 -0.029000109 0.050915413 0.00024135437 -0.07718147 -0.06562388
-0.019794786 -0.033179004 0.052425943 0.034711663 -0.06574807 0.043769635 0.00617261 0.0163015
-0.07776821 -0.011543998 -0.011295099 -0.033500046 0.066151835 -0.044147957 0.06302372 -0.03746003
-0.05268242 -0.02393022 -0.053588834 -0.065799825 -0.01395783 0.01839724 -0.051648043 0.0676796
0.08696453 0.014481023 0.017998109 -0.05636091 -0.008667562 -0.02302469 -0.09219801 -0.02603065
-0.09028885 0.066447414 -0.02768281 -0.07032149 -0.014196169 0.064686745 0.06834555 0.059794206
-0.06015366 -0.008588557 -0.037875358 -0.0450085 -0.062814176 -0.014731532 -0.06324429 0.022230279
0.040951557 -0.028963154 -0.06457796 -0.07371716 0.08392585 -0.019348893 -0.013771386 -0.08487998
0.014849117 -0.06003019 0.070644125 0.018910427 0.028337333 0.010791406 0.023413565 0.06010711
-0.035593186 -0.0046053426 -0.029426266 -0.021864899 -0.06618433 0.030222485 0.03770111 0.04672111
-0.005019584 -0.027492132 0.074171856 0.085651636 -0.054896332 -0.06067459 0.027361596 0.023670837
-0.0015323977 0.03237409 0.006936985 0.0079784775 0.065606 -0.06629614 -0.033893168 0.007710153
0.040082123 -0.043468077 -0.02616401 0.06233296 0.049725328 0.08340346 -0.07068009 0.0069677522
-0.02619142 -0.038433556 0.026616035 0.04415622 -0.051119152 -0.058257286 0.058308672 0.039512236
-0.03867775 0.081681974 0.058134917 0.038035486 0.04972495 -0.038206555 0.082245655 0.043630436
0.037981875 0.039617576 -0.048229694 0.020408329 0.057538327 0.0028182105 0.02814235 -0.035295445
00000000: e52c f43c b646 51bd 71c4 a7bc a391 edbc
00000010: ae8c 503d 1214 7d39 5211 9ebd d065 86bd
00000020: ad28 a2bc b5e6 07bd 96bc 563d d12d 0e3d
00000030: eda6 86bd ca47 333d 9b43 ca3b b98a 853c
00000040: f044 9fbd 0923 3dbc 140f 39bc 5837 09bd
00000050: 9d7a 873d 7dd4 34bd 9512 813d b06f 19bd
00000060: 85c9 57bd 4f09 c4bc f77f 5bbd 0fc2 86bd
00000070: 62af 64bc cfb5 963c e68c 53bd 9a9b 8a3d
00000080: 761a b23d d041 6d3c c570 933c b3da 66bd
00000090: 6402 0ebc 469e bcbc 4fd2 bcbd 3b3e d5bc
000000a0: 5ce9 b8bd 9515 883d 0fc7 e2bc b704 90bd
000000b0: 0c97 68bc 7c7a 843d c0f8 8b3d c5ea 743d
000000c0: af63 76bd 05b7 0cbc 3123 1bbd d55a 38bd
000000d0: b8a4 80bd 865c 71bc 3986 81bd 461c b63c
000000e0: d2bc 273d 2344 edbc 7341 84bd 06f9 96bd
000000f0: 51e1 ab3d 9281 9ebc 61a1 61bc 8ed5 adbd
00000100: b649 733c 37e2 75bd dead 903d 0aea 9a3c
00000110: b223 e83c 70ce 303c cecd bf3c df32 763d
00000120: 29ca 11bd 6ae8 96bb 5a0f f1bc 041e b3bc
00000130: a68b 87bd 2595 f73c 7b6c 1a3d a25e 3f3d
00000140: 537b a4bb 2e37 e1bc 6ae7 973d 206a af3d
00000150: fada 60bd eb85 78bd 6d25 e03c 58e9 c13c
00000160: bcda c8ba b29a 043d a64f e33b 29b8 023c
00000170: 705c 863d 45c6 87bd 90d3 0abd 73a5 fc3b
00000180: 272d 243d 950b 32bd e855 d6bc d950 7f3d
00000190: c9ac 4b3d 6fcf aa3d b9c0 90bd be51 e43b
000001a0: 648f d6bc 816c 1dbd df09 da3c 27dd 343d
000001b0: 5162 51bd 319f 6ebd 13d5 6e3d 95d7 213d
000001c0: 8f6c 1ebd e148 a73d e11e 6e3d 19cb 1b3d
000001d0: 64ac 4b3d 7a7e 1cbd 6970 a83d d4b5 323d
000001e0: e292 1b3d 0a46 223d 808c 45bd 5e2f a73c
000001f0: 4fad 6b3d bab1 383b c98a e63c f591 10bd

weight f4 [384, 128]
-0.04878138 0.055025425 0.033111256 0.09002886 -0.07446349 -0.01991601 0.029079316 -0.073933594
-0.016547844 0.007583665 -0.024004582 0.02879771 0.023364997 -0.030714663 -0.001748742 -0.033632483
0.08342956 0.04097895 0.04196102 -0.035808247 0.09724532 0.07531991 -0.05764451 -0.02362537
0.03602734 -0.09325959 -0.06743134 0.0010654466 0.07961072 0.029924821 0.1128345 -1.3152312e-05
-0.012017436 0.028388308 0.04771421 0.003211634 0.05637305 0.056073353 0.086645305 0.0483419
0.008957753 -0.08347175 -0.031914692 0.031520363 0.04349389 0.044758726 0.014185033 -0.0063703847
0.040933244 0.06521154 -0.069922596 -0.06595492 0.005436963 0.09749608 0.04677588 -0.045784965
-0.074019186 0.09314651 0.0040830052 0.111275256 -0.07228547 0.079431325 0.086733386 0.014186932
-0.04738111 -0.041919876 0.034321457 -0.044846673 -0.06834073 -0.04954456 -0.011273236 0.023563959
0.08639874 0.086903445 0.010105451 0.06734963 -0.043305397 -0.061365813 -0.11426626 0.02504221
0.033557694 0.038872465 -0.1276901 0.0018773124 -0.022248164 0.037279785 -0.036211506 0.070532344
-0.043411773 -0.0071333717 -0.024043413 -0.048815463 0.037961133 -0.046465132 0.0077232406 0.07814547
0.04124912 0.013600468 0.10647025 0.07880664 -0.062029205 -0.03250945 0.11329509 -0.058304768
0.03302016 -0.05588524 0.060009897 -0.10196909 0.082587205 0.088010706 0.0061199474 0.011224707
0.069633536 -0.08178482 -0.13759074 -0.008741909 0.057845715 -0.08439456 0.0020173634 0.04338488
-0.08805921 -0.053936232 0.044933956 0.06230504 0.006158532 -0.10648836 -0.012910765 -0.08728918
0.073502816 -0.055840634 0.0038173806 0.093261175 -0.07925373 -0.05476156 0.06630429 0.059658203
0.02760066 0.10553738 0.004921768 -0.028517313 -0.044424348 0.04371657 -0.020128766 -0.023342634
-0.01311165 -0.025257932 -0.0006027657 0.030319136 0.006135654 -0.03721959 -0.0015707513 0.0019232458
-0.061663464 -0.062498283 -0.05305039 -0.07216245 -0.054986518 -0.020041175 -0.026016211 -0.018950514
0.056904357 0.0684089 0.008769073 -0.09345531 0.020641651 -0.025743302 0.09928338 -0.03124607
-0.025280356 0.048771344 0.07930135 0.0021310083 -0.008356453 0.07580155 -0.03799608 -0.031977635
0.098055564 0.055287283 0.015277531 0.06069256 -0.08033345 0.059134826 -0.008445999 -0.048245184
-0.10736968 -0.017725322 -0.06324632 0.078988224 -0.09513197 -0.0018357172 -0.01333908 -0.04390953
0.008917159 -0.103354655 0.018789658 0.042252574 -0.012732808 0.0064192982 0.019749641 -0.029739534
0.08111308 0.048664212 0.06815385 -0.04695208 0.05925166 0.003112435 0.029348187 0.04776666
0.01205314 -0.059113495 -0.009930557 0.061322223 0.0021392591 0.053524517 0.058914598 -0.032827727
-0.043485936 -0.048912518 -0.07107971 -0.0066115707 0.057300773 0.11992113 -0.026226455 0.06279822
0.012522703 0.02234182 -0.061143704 0.018438146 -0.006572809 -0.01471489 -0.08257039 -0.095553786
-0.09435555 0.06703671 -0.06669403 0.006261622 0.031794064 -0.053227153 -0.04360899 0.07668695
-0.03382089 0.061976008 -0.058555376 -0.088497914 -0.08051742 -0.03245387 0.037486486 0.029286778
-0.06664372 0.08762956 -0.053672332 -0.058947176 -0.061540708 -0.08145481 0.024860607 -0.035060607
00000000: fcce 47bd 5762 613d ab9f 073d 0d61 b83d
00000010: 5080 98bd e626 a3bc bf37 ee3c 7f6a 97bd
00000020: 588f 87bc 6580 f83b 42a5 c4bc 2de9 eb3c
00000030: f367 bf3c 519d fbbc 0b36 e5ba 37c2 09bd
00000040: 1edd aa3d 8bd9 273d 52df 2b3d abab 12bd
00000050: 8e28 c73d 5341 9a3d a61c 6cbd fe89 c1bc
00000060: 6791 133d e2fe bebd 7119 8abd 75a6 8b3a
00000070: f20a a33d e624 f53c c615 e73d c0a8 5cb7
00000080: c8e4 44bc 998e e83c fa6f 433d 477a 523b
00000090: 6de7 663d 2cad 653d 1873 b13d 2802 463d
000000a0: 8ac3 123c 3df3 aabd fbb8 02bd 7f1b 013d
000000b0: a626 323d ed54 373d 5768 683c a9be d0bb
000000c0: 9ea9 273d a18d 853d 9433 8fbd 6013 87bd
000000d0: 8d28 b23b 06ac c73d 1198 3f3d 0489 3bbd
000000e0: 5f97 97bd 99c3 be3d bbca 853b 48e4 e33d
000000f0: 680a 94bd e4ac a23d 46a1 b13d 4e70 683c
00000100: b212 42bd 2db4 2bbd a894 0c3d 25b1 37bd
00000110: 3af6 8bbd 3def 4abd 61b3 38bc 3409 c13c
00000120: d3f1 b03d 6ffa b13d 5591 253c 9aee 893d
00000130: 0061 31bd b85a 7bbd 6e04 eabd 5225 cd3c
00000140: cb73 093d bc38 1f3d 32c1 02be 2710 f63a
00000150: c841 b6bc b0b2 183d 8452 14bd 4373 903d
00000160: 8bd0 31bd 0fbf e9bb b1f6 c4bc b9f2 47bd
00000170: 227d 1b3d 3952 3ebd 3d13 fd3b bb0a a03d
00000180: d6f4 283d 7fd4 5e3c 130d da3d 6065 a13d
00000190: 5612 7ebd a128 05bd 4207 e83d fbd0 6ebd
000001a0: 2640 073d ece7 64bd f0cc 753d 2cd5 d0bd
000001b0: 7b23 a93d f53e b43d d789 c83b d5e7 373c
000001c0: 079c 8e3d cd7e a7bd 96e4 0cbe 393a 0fbc
000001d0: a1ef 6c3d 0ed7 acbd be35 043b 58b4 313d
000001e0: 6358 b4bd 3dec 5cbd ab0c 383d 9233 7f3d
000001f0: 83cd c93b 9216 dabd ac87 53bc abc4 b2bd
00000200: a588 963d 26b9 64bd 052d 7a3b b7ff be3d
00000210: c84f a2bd a84d 60bd 8bca 873d 295c 743d
00000220: c81a e23c fb23 d83d c846 a13b 249d e9bc
00000230: 4ef6 35bd 2510 333d 15e5 a4bc 0d39 bfbc
00000240: 3fd2 56bc b9e9 cebc ec02 1eba d65f f83c
00000250: 990d c93b 9273 18bd abe1 cdba 6c15 fc3a
00000260: d492 7cbd 33fe 7fbd 5e4b 59bd e8c9 93bd
00000270: 8b39 61bd 642d a4bc f31f d5bc 1c3e 9bbc
00000280: 8b14 693d f719 8c3d 28ac 0f3c 7f65 bfbd
00000290: ae18 a93c 9ee3 d2bc 1655 cb3d c2f7 ffbc
000002a0: c018 cfbc 76c4 473d bf68 a23d 63a8 0b3b
000002b0: 81e9 08bc d83d 9b3d c7a1 1bbd fbfa 02bd
000002c0: 5bd1 c83d eb74 623d 9c4e 7a3c c398 783d
000002d0: dd85 a4bd 5c37 723d 1661 0abc be9c 45bd
000002e0: a3e4 dbbd b234 91bc 4987 81bd 94c4 a13d
000002f0: 8dd4 c2bd 739c f0ba 288c 5abc 7bda 33bd
00000300: 4719 123c 9bab d3bd c5ec 993c 0911 2d3d
00000310: 449d 50bc fa58 d23b 00ca a13c 53a0 f3bc
00000320: 9d1e a63d 2054 473d 3f94 8b3d d350 40bd
00000330: deb1 723d fff9 4b3b 9c6b f03c f9a6 433d
00000340: 897a 453c fe20 72bd c6b3 22bc 032d 7b3d
00000350: d032 0c3b 863c 5b3d 6f50 713d 5e76 06bd
00000360: 4f1e 32bd 7e58 48bd 3d92 91bd e0a5 d8bb
00000370: 37b4 6a3d 3699 f53d ddd8 d6bc 5a9c 803d
00000380: 062c 4d3c 3106 b73c d271 7abd 980b 973c
00000390: b860 d7bb b916 71bc aa1a a9bd b4b1 c3bd
000003a0: 7c3d c1bd 8b4a 893d e196 88bd 4b2e cd3b
000003b0: 7e3a 023d b704 5abd 579f 32bd 0c0e 9d3d
000003c0: c687 0abd 8eda 7d3d c3d7 6fbd 653e b5bd
000003d0: 51e6 a4bd 59ee 04bd 6e8b 193d d3ea ef3c
000003e0: 817c 88bd 2077 b33d 85d7 5bbd 9872 71bd
000003f0: 1c12 7cbd c8d1 a6bd 79a8 cb3c b69b 0fbd

bias f4 [384]
0.02608329 -0.010675143 -0.023989305 0.0073016775 -0.099126786 0.021380603 0.066037185 0.07519487
-0.032783177 -0.069467396 0.073078446 0.014858312 -0.048387464 -0.08321493 -0.0077720657 -0.03528981
0.0014845903 -0.0025765551 0.04468061 0.0050109196 0.00479302 0.04690339 -0.078490965 -0.081689246
-0.059251744 0.018543007 -0.07190718 -0.093168 -0.073100165 -0.01252547 0.032283157 -0.018324751
0.05220765 -0.056334116 0.066738315 -0.06659543 -0.064019755 -0.059647597 0.032271504 0.05642461
-0.06276492 0.020900961 0.056752097 -0.07087181 -0.06572647 0.024076791 0.034675572 0.040166505
0.043768547 0.057822768 -0.079570174 0.020862618 -0.07654861 -0.021768244 -0.046682693 -0.0010316193
0.057808727 -0.0003030194 0.02069413 -0.024136906 -0.055690773 0.050281692 0.023070414 -0.09130881
-0.02243763 0.035446495 0.055945605 -0.07688073 0.06033743 0.04599578 -0.091871135 -0.003204704
0.018859267 -0.05841497 6.3962565e-05 -0.047495205 0.015962575 0.06021841 0.006410937 -0.018317847
0.05576874 -0.0027021351 0.00842274 -0.017372316 0.057387114 0.010441279 0.05755013 -0.06786144
-0.043615256 0.024937961 -0.01703824 -0.06165485 -0.061621636 -0.041953675 0.022682223 -0.083226636
-0.023097256 -0.062988184 0.003292118 -0.005140088 -0.08791641 0.032928254 -0.022194711 0.029460197
0.036475398 -0.11354951 0.038116805 -0.10677282 -0.045189157 -0.018871974 0.032320004 0.01167058
-0.07364577 -0.026501484 0.034631293 -0.0021291694 -0.03964994 -0.104760796 -0.04048736 -0.012485257
-0.08742429 0.049046133 -0.03362691 0.037827224 -0.062178522 -0.041871015 -0.08452446 0.0060515814
-0.05791813 0.03774758 -0.02948083 -0.015665907 0.0452112 -0.022436263 -0.04720805 0.035197936
0.04332402 -0.08811775 -0.049265243 -0.016875241 -0.06442599 -0.07855786 -0.0081140455 -0.078750126
-0.024397511 -0.057346053 -0.02984175 -0.0082569765 -0.02371169 -0.03778514 0.002636193 -0.035109606
0.029446442 -0.0330821 -0.100800276 0.06441704 -0.03528792 0.04938342 -0.004800111 -0.05539866
-0.08012559 -0.07393468 -0.059742723 -0.053213175 -0.006951635 -0.08537466 -0.054054912 0.0027553823
-0.031981613 -0.00864616 -0.020953508 -0.022902625 -0.076280236 -0.0613315 0.027453335 0.012518516
-0.010430323 -0.033126637 -2.7398617e-05 0.079687044 -0.0604932 0.005856056 -0.08529122 -0.033648748
0.009464639 0.030145254 -0.03941582 0.05420544 0.0024485693 0.02248499 -0.07907314 0.04723945
-0.036150385 -0.014939612 -0.058522876 -0.011512323 -0.0002795362 -0.078511246 -0.03014465 -0.050788485
-0.008030496 -0.042186495 -0.05151654 -0.0057264003 -0.019728512 -0.01538909 -0.06605755 0.021699928
0.028059946 -0.011725014 -0.03756965 -0.08598068 -0.00909155 -0.06564425 -0.038781326 -0.08765557
-0.042687956 -0.043818854 -0.10197397 -0.06410541 0.05576064 0.00281088 -0.09976514 0.02231354
-0.074857906 0.037360203 0.03186739 -0.014578922 -0.01802374 -0.06612544 -0.002343945 -0.059200976
0.029479964 -0.07079663 -0.03937326 -0.088355236 0.057892006 -0.04543741 0.009806463 -0.07453946
-0.086310096 -0.02279971 -0.07455707 -0.11009935 -0.041169327 0.041765496 0.07274541 0.026135487
-0.013592437 -0.0030367873 0.005857868 0.016319448 -0.07671212 -0.0120892385 0.027111957 -0.0626099
00000000: a0ac d53c cce6 2ebc 3885 c4bc e942 ef3b
00000010: fc02 cbbd 6026 af3c 813e 873d c5ff 993d
00000020: a747 06bd ec44 8ebd 27aa 953d 4770 733c
00000030: ef31 46bd 976c aabd d0ac febb 0c8c 10bd
00000040: 9696 c23a 6cdb 28bb 0403 373d a432 a43b
00000050: c40e 9d3b c51d 403d dfbf a0bd b14c a7bd
00000060: f5b1 72bd 81e7 973c 1244 93bd ddce bebd
00000070: 8ab5 95bd a137 4dbc 583b 043d ca1d 96bc
00000080: b0d7 553d 9abe 66bd 19ae 883d 2f63 88bd
00000090: ca1c 83bd 0a51 74bd 202f 043d 7e1d 673d
000000a0: e58a 80bd 7e38 ab3c e374 683d 3d25 91bd
000000b0: 999b 86bd b13c c53c f907 0e3d a285 243d
000000c0: a646 333d 91d7 6c3d b0f5 a2bd 15e8 aa3c
000000d0: 85c5 9cbd 5153 b2bc 5a36 3fbd 6637 87ba
000000e0: d8c8 6c3d 93de 9eb9 bc86 a93c c3ba c5bc
000000f0: 021c 64bd 2df4 4d3d 2afe bc3c 1d00 bbbd
00000100: 1fcf b7bc 5830 113d 3827 653d a573 9dbd
00000110: 6224 773d 1266 3c3d ef26 bcbd 0306 52bb
00000120: c07e 9a3c 8944 6fbd a423 8638 558a 42bd
00000130: f2c3 823c 94a7 763d d612 d23b 4f0f 96bc
00000140: c36d 643d 4e16 31bb 88ff 093c 6350 8ebc
00000150: c00e 6b3d e611 2b3c afb9 6b3d f0fa 8abd
00000160: e9a5 32bd b24a cc3c c793 8bbc cc89 7cbd
00000170: f866 7cbd 9ed7 2bbd 12d0 b93c ba72 aabd
00000180: 7536 bdbc f3ff 80bd 93c0 573b 2f6e a8bb
00000190: 850d b4bd c7df 063d afd1 b5bc 8356 f13c
000001a0: 3a67 153d a58c e8bd 5e20 1c3d b5ab dabd
000001b0: 4418 39bd 6699 9abc fb61 043d f635 3f3c
000001c0: 98d3 96bd a419 d9bc 8bd9 0d3d 8989 0bbb
000001d0: fa67 22bd d48c d6bd 13d6 25bd f78e 4cbc
000001e0: 820b b3bd 99e4 483d 5fbc 09bd b8f0 1a3d
000001f0: e8ae 7ebd f180 2bbd 291b adbd 584c c63b
00000200: 903b 6dbd 359d 1a3d c881 f1bc ca55 80bc
00000210: 612f 393d 41cc b7bc 3a5d 41bd b62b 103d
00000220: 8774 313d 1477 b4bd 5aca 49bd f23d 8abc
00000230: c6f1 83bd f1e2 a0bd c6f0 04bc bf47 a1bd
00000240: 4add c7bc b2e3 6abd b076 f4bc 4548 07bc
00000250: 053f c2bc 97c4 1abd fbc3 2c3b 17cf 0fbd
00000260: aa39 f13c 1981 07bd 6070 cebd 15ed 833d
00000270: 118a 10bd 4546 4a3d 404a 9dbb b5e9 62bd
00000280: e318 a4bd 116b 97bd c9b4 74bd 0ff6 59bd
00000290: 8aca e3bb e9d8 aebd af68 5dbd a593 343b
000002a0: 27ff 02bd a0a8 0dbc b1a6 abbc 499e bbbc
000002b0: d038 9cbd bd36 7bbd d1e5 e03c 761a 4d3c
000002c0: f2e3 2abc ccaf 07bd 15d6 e5b7 f632 a33d
000002d0: b8c7 77bd 29e4 bf3b 2aad aebd 45d3 09bd
000002e0: 9311 1b3c 2ef3 f63c 7c72 21bd 8606 5e3d
000002f0: 2d78 203b 7132 b83c 19f1 a1bd 277e 413d
00000300: 6d12 14bd 46c5 74bc afb5 6fbd 2f9e 3cbc
00000310: b78e 92b9 81ca a0bd eaf1 f6bc 9607 50bd
00000320: 5792 03bc bfcb 2cbd 0203 53bd 87a4 bbbb
00000330: b09d a1bc 8622 7cbc 2e49 87bd 0cc4 b13c
00000340: f9dd e53c 461a 40bc a2e2 19bd a416 b0bd
00000350: b9f4 14bc 7e70 86bd 2bd9 1ebd c384 b3bd
00000360: 91d9 2ebd 667b 33bd bbd7 d0bd b249 83bd
00000370: 4565 643d be36 383b aa51 ccbd e3ca b63c
00000380: 1a4f 99bd 0307 193d 6187 023d 6edc 6ebc
00000390: 86a6 93bc c66c 87bd df9c 19bb b97c 72bd
000003a0: f77f f13c d3fd 90bd db45 21bd 97f3 b4bd
000003b0: 2b20 6d3d 941c 3abd 49ab 203c 25a8 98bd
000003c0: 59c3 b0bd 75c6 babc 61b1 98bd c57b e1bd
000003d0: 2ba1 28bd 4c12 2b3d 8cfb 943d 171a d63c
000003e0: d0b2 5ebc d604 47bb 5cf3 bf3b 5db0 853c
000003f0: 3e1b 9dbd f111 46bc e519 de3c 9f39 80bd
