data/td_best_model.pt (torch, 971307 bytes, 56 tensors)

att_weights f4 [5]
000000 c8 71 83 3f 29 51 69 3f 31 36 57 3f 1f c8 6f 3f
       1.0269098 0.91139466 0.84067065 0.93664736
000010 7e 06 7a 3f
       0.97666156

weight f4 [64, 4]
000000 e0 7b 71 bc be 64 13 be e5 cf 3a be f1 c9 26 3e
       -0.014739007 -0.14393899 -0.18243368 0.16287972
000010 4d ef fb bd e1 77 35 3e 08 1c 7d bd b5 4c 69 3e
       -0.123015024 0.17721511 -0.06179431 0.22783168
000020 9a 10 0b 3e be 5b 93 bd 1f 96 ff bb be fb a2 3c
       0.13580552 -0.07195233 -0.0077998783 0.01989543
000030 3f 3a 94 bd 0d 3e 2c 3e 31 d1 3e 3e 3e 24 1f be
       -0.07237672 0.16820545 0.18634488 -0.15541169
000040 83 6f 44 be 5a be 67 3c 28 80 72 be 3a e9 6d 3c
       -0.19183163 0.014144504 -0.236817 0.014520938
000050 47 de 38 3d da b2 8a 3a af 3d 04 3e c0 0c 1c 3d
       0.045133855 0.0010581866 0.12914155 0.038098097
000060 7e 7c 1b 3e b5 1d 28 3e 82 14 87 3e 68 6d 43 be
       0.15184209 0.16417582 0.26382834 -0.19084704
000070 51 5e 04 be e1 a5 e4 bd 67 37 47 3c f5 2b 0c be
       -0.12926604 -0.111644514 0.012159205 -0.13688643
000080 e2 60 72 bd c3 8d 92 bd 18 29 60 3e 46 3f 98 ba
       -0.059174426 -0.07155945 0.21890676 -0.0011615537
000090 2a 3c 82 3e ab 40 bc bb 61 d3 9c 3e 7e 33 63 3e
       0.25436527 -0.0057450137 0.3063002 0.22187611
0000a0 19 4c 13 bc 4c 21 13 be b7 82 b9 bc f7 48 cb 3d
       -0.008990311 -0.1436817 -0.022645338 0.09926026
0000b0 4b 64 1d 3e 32 06 04 be d1 0d 54 3e 6c b6 3f 3e
       0.1537029 -0.12892988 0.20708396 0.18721932
0000c0 e8 05 16 be 46 ea 77 bd 2a bc ba 3c 28 cd 4d 3e
       -0.1465069 -0.060526155 0.022794802 0.20097792
0000d0 dd 46 7f be 14 0f a0 3a 52 98 16 bd b6 d7 4e 3d
       -0.24929376 0.0012211525 -0.036766358 0.050498687
0000e0 7c 1a 93 bd 0c d5 72 be e3 2c 9e 3d 92 67 16 be
       -0.07182786 -0.23714083 0.07723405 -0.14687946
0000f0 08 20 86 be 5f 94 a4 bb cc 7c 3e 3e e9 82 74 be
       -0.26196313 -0.00502257 0.18602294 -0.23878063
000100 c3 75 56 3e 5c d8 87 3e 96 c3 74 3e d4 e2 b2 3d
       0.2094336 0.26532257 0.23902735 0.0873467
000110 1e d8 a4 3d 8b 2a ef 3c c1 45 03 be 86 16 7e be
       0.080490336 0.02919509 -0.12819578 -0.2481328
000120 91 c6 2b 3d ae b7 15 3e 55 ea 68 3a 42 d2 fc 3d
       0.041937415 0.1462085 0.0008885016 0.12344791
000130 c3 91 85 be 4e d4 75 3c e2 05 2a 3e d2 e7 55 be
       -0.2608777 0.015004231 0.16603807 -0.20889214
000140 56 17 18 be 74 99 77 3c 1b 11 17 be e5 51 c5 3c
       -0.14852652 0.01511227 -0.14752619 0.024086902
000150 84 20 f8 bd b8 df 81 be 7f c1 31 bc 8d bb 4f bc
       -0.12115577 -0.25365996 -0.010849356 -0.012678993
000160 a6 2b f8 bd df 8e 42 3e f3 32 98 3d d1 bb 80 3d
       -0.121177 0.18999813 0.07431593 0.06285823
000170 a7 f9 ec 3b fc 64 04 3e ff 7a 44 3e 72 a5 8f 3e
       0.0072319093 0.12929147 0.19187544 0.28055912
000180 4f a7 ce 3d b0 01 3d 3d 4d 21 17 bb 0f 52 47 3e
       0.10090505 0.046144187 -0.002306062 0.19464897
000190 ee e5 8b 3d 20 69 09 be ea 66 5a 3d 7b 74 ff 3d
       0.06830965 -0.13419008 0.053320803 0.12473389
0001a0 15 61 15 be 0b 42 85 be 4a 02 04 be 7b 19 f6 bd
       -0.14587815 -0.2602695 -0.12891498 -0.12016579
0001b0 59 1a a4 ba 68 4e 19 bd 9e df c5 3d e1 35 22 3e
       -0.0012520059 -0.03742829 0.09661792 0.15840866
0001c0 95 35 50 3e a8 ff 8f 3e 47 12 19 3e d6 ab 66 bd
       0.2033294 0.28124738 0.14948379 -0.05631622
0001d0 de 11 ce bd 80 11 35 be a0 e2 65 3e 1f 91 7e be
       -0.10062002 -0.17682457 0.22449732 -0.24860047
0001e0 66 06 13 be 3c cc 3f 3e 05 ec 34 3e 1c 5a bc 3c
       -0.1435791 0.18730253 0.1766816 0.022992186
0001f0 66 90 9a 3e f5 ee 6d 3e 7b 56 64 3e 0e cd b4 3c
       0.30188292 0.23235686 0.22298615 0.022070434
000200 b2 70 79 bd e3 c5 3e 3e ef 32 3a 3c 9d 09 4e 3e
       -0.06089849 0.18630175 0.011364683 0.20120855
000210 70 03 48 bc cd 05 86 bd e9 80 d3 bd 0e 8a 56 be
       -0.012207851 -0.06544075 -0.10327322 -0.20951101
000220 42 99 99 3e 02 01 30 be a1 5e 95 3d aa 35 5f 3e
       0.2999974 -0.17187884 0.0729344 0.21797815
000230 1f f8 15 be 0d 2f 5e be 0a ed 73 be 52 19 e4 bd
       -0.14645432 -0.21697636 -0.23820892 -0.11137642
000240 ad 65 c0 3b ed 18 e7 3d 7a 09 9a bd 2b 6f 82 bd
       0.0058714957 0.11284051 -0.07521339 -0.0636886
000250 26 01 16 be b0 3f 37 3e 97 03 07 3e 23 30 62 3e
       -0.14648876 0.17895389 0.13184963 0.22088675
000260 aa 77 09 bd e7 85 66 be 5d fe 35 be cc 53 c6 bd
       -0.033561386 -0.22512017 -0.17772813 -0.09683952
000270 73 d1 95 bd 69 bc 85 be bf a3 3e be 00 c5 0d bd
       -0.0731534 -0.26120308 -0.18617152 -0.034611702
000280 ee cd 39 3d e5 9d 43 3e a4 31 6f 3d ca e7 0a be
       0.045362405 0.191032 0.05839695 -0.13564983
000290 96 4a e7 3d 94 fc eb bc 00 fd 59 3d fb 31 62 be
       0.11293523 -0.028806962 0.053219795 -0.22089379
0002a0 41 62 12 bd e5 72 3a 3e 8e b2 18 bc 58 56 20 3e
       -0.035738233 0.18207891 -0.0093199145 0.15657938
0002b0 ff c5 04 3e ff 0e e1 bc be 69 11 3d 68 f9 6d be
       0.12966155 -0.027472971 0.035501234 -0.23239672
0002c0 1a 1a ac 3b 0a 57 f5 bd da 71 b4 bb c6 e8 71 be
       0.005252135 -0.11979492 -0.005506736 -0.23623952
0002d0 10 39 31 be a6 86 cf bd e1 cc 6d be a3 84 56 3e
       -0.17306924 -0.10133104 -0.23222686 0.20949034
0002e0 7f aa c8 3d c8 d7 ac bd 9c 8a 29 be 83 50 e0 bd
       0.097981445 -0.084395945 -0.16556782 -0.109528564
0002f0 d7 15 fd 3d 2b bc 48 3e bc e1 46 3d 5a 34 ea bd
       0.12357681 0.1960303 0.04855512 -0.114357665
000300 eb 48 08 3e fe 6e 6b be 47 fd 5a bd 78 20 41 be
       0.13309066 -0.22991559 -0.0534642 -0.18860042
000310 36 bc 0e 3e d6 9f 3a be c9 6a 16 3e b1 1a 67 3d
       0.13938984 -0.18225035 0.14689173 0.05642194
000320 d2 e1 4b 3e 7a 05 ef 3d 18 13 58 bd de 49 58 3e
       0.19910362 0.116709664 -0.052752584 0.21121928
000330 04 4c c3 3d 33 44 1c be 69 61 93 3d b9 86 0d be
       0.09535983 -0.15260391 0.07196314 -0.13820924
000340 f1 af d0 3d 71 54 cb 3d 42 63 98 3d 9a 6d 5c 3e
       0.10189808 0.09928215 0.07440807 0.21526185
000350 19 2e 57 be 13 21 93 3d cb f0 b4 bd 5b 1d b3 bd
       -0.21013679 0.07184043 -0.0883499 -0.087458335
000360 7a c3 68 3d f1 d3 8d be f9 e1 18 3e 70 1b 4f be
       0.056827046 -0.2770076 0.14929952 -0.2022531
000370 88 7b ad 3d 34 78 83 3e 89 69 c9 bd 91 1e fb bd
       0.08470827 0.25677645 -0.09834582 -0.122616895
000380 22 61 2b 3e 73 d2 10 bd fd fa f4 3d ed ca 70 3e
       0.16736272 -0.03535695 0.11961935 0.2351491
000390 5b ba 22 3e f9 24 f4 bd 32 ae e9 bd fd e9 32 3e
       0.15891401 -0.119211145 -0.11410178 0.17472072
0003a0 96 d8 4e 3e 8e c9 d5 3d c9 6e d8 bd d1 f0 89 bd
       0.20199808 0.10438834 -0.105680056 -0.06735385
0003b0 2c 27 28 3e 4d b8 53 be ad ac 3c 3d 94 41 c3 bd
       0.16421193 -0.20675774 0.046063114 -0.095339924
0003c0 ca 48 bb bd 19 e3 90 3d 8f ae 99 3e f2 25 38 3e
       -0.09144743 0.070745654 0.3001599 0.17983225
0003d0 27 61 d0 3d 19 a3 71 bd 20 f7 60 bd 75 83 01 3e
       0.1017478 -0.058993433 -0.054923177 0.12647803
0003e0 0e 96 24 bd 58 cb f1 bd 5b 8e 30 be 58 da 49 3d
       -0.040182166 -0.11806363 -0.17241804 0.049280494
0003f0 01 a1 fa bd e9 13 68 bd 39 ab 8e 3d f5 3c 9c bd
       -0.1223774 -0.056659613 0.06966252 -0.07628814

bias f4 [64]
000000 db 6a ba 3e 5b 42 ab be 12 e3 9a 3e cd 2d b3 3e
       0.3640965 -0.33449063 0.30251366 0.3499588
000010 62 b4 5b bc 7a db 8d 3e 49 96 a9 3e b8 6d d3 3e
       -0.013409706 0.2770651 0.3312247 0.41294646
000020 7f 7b 88 3e 43 4e f1 bd 35 1f e8 3d 93 54 38 be
       0.2665672 -0.11782505 0.11334077 -0.18001013
000030 03 b7 6c 3c 73 01 b0 3e 50 92 66 3c 0f e7 15 be
       0.01444793 0.34376106 0.01407297 -0.14638923
000040 1b fc 6b bd 1d 3e 22 be 8e 58 d7 3e d1 a6 9c be
       -0.057613473 -0.15844007 0.4205975 -0.3059602
000050 87 0d 6a be ac 95 a3 be d3 38 8a 3c 91 13 b7 be
       -0.22856723 -0.31950128 0.016872799 -0.35757115
000060 fb cc a1 3e 89 5b fe bd f5 79 a7 3e 0f 2d b5 3e
       0.316017 -0.12419803 0.32710233 0.3538594
000070 b2 e0 2b be c9 61 86 bd 24 d3 75 be fc b2 58 be
       -0.16784933 -0.0656162 -0.24006325 -0.21162027
000080 9d 88 38 bd b9 46 97 be 07 a4 64 3e 39 ed 66 be
       -0.04505216 -0.29546145 0.22328196 -0.22551431
000090 16 89 96 be 06 d8 81 3e 35 17 82 3e 88 93 3f be
       -0.29401463 0.25360125 0.2540833 -0.18708622
0000a0 ee 4d 9f be 05 9d 60 3e 74 29 21 be fa 4a fe 3c
       -0.31114143 0.21934898 -0.1573847 0.031041611
0000b0 21 85 47 3d 2b d7 77 be 94 dc 74 3e 39 62 95 be
       0.048710946 -0.24203174 0.23912269 -0.291765
0000c0 73 f7 74 bd c0 d2 40 bc 2f b4 ad 3e f5 05 88 3d
       -0.0598063 -0.011768997 0.33926532 0.06641761
0000d0 53 d1 11 be 25 20 88 be 9f 4c a0 3d 5c 29 2b 3e
       -0.14240007 -0.26587024 0.07827114 0.16714996
0000e0 3e 7d 45 bd f2 30 b0 bd 86 dc 41 3e 46 dc 33 be
       -0.048215143 -0.086030856 0.1893178 -0.17564496
0000f0 cb 5c 9d 3d 15 29 36 3e 60 f2 19 3d 20 43 cf 3e
       0.076837145 0.17789109 0.037584662 0.404809

weight f4 [64, 7]
000000 60 96 8e 3d fe 55 d7 3d 01 66 a3 bd c9 77 59 3c
       0.069622755 0.105144486 -0.0797844 0.013273188
000010 51 87 20 be 68 fb 36 3d cf 26 2a 3d 39 0a 43 3e
       -0.15676619 0.044673353 0.041540917 0.19046868
000020 60 54 90 be 36 4a e1 3c 79 90 03 3d 1f 76 01 be
       -0.28189373 0.027501207 0.0321202 -0.12642716
000030 a3 b1 37 be 5e 2b aa 3c e5 e6 cd bc 7c 3b 3d be
       -0.17938857 0.020772632 -0.025134513 -0.18479723
000040 de b8 5a 3d 1c 04 2e be 0a 24 6f 3e 1a df 35 3c
       0.05339896 -0.16993755 0.23353592 0.011100555
000050 d4 08 51 be d2 ce ec bc 25 ff 13 be e0 16 16 be
       -0.20413524 -0.028907213 -0.14452799 -0.14657164
000060 c4 41 24 3d 5f a6 38 be fe 7c d4 bd 9c 36 82 3d
       0.04010178 -0.18032216 -0.10375403 0.06358072
000070 b2 fc ce bd 08 30 4e be f5 ba 7f 3b ae 7f 2e be
       -0.101067916 -0.2013551 0.0039021347 -0.17040893
000080 8e 7a 92 bd 18 b7 db bd e8 b4 06 be a8 58 bd 3d
       -0.07152282 -0.10728282 -0.13154948 0.092454255
000090 b6 e1 81 3d a2 ce 5a be 48 04 38 3e 0a d9 1e 3d
       0.06341879 -0.21367887 0.17970383 0.038781203
0000a0 ef c9 a6 bd 50 fb a0 3d 16 66 94 bd 7c 15 47 be
       -0.081439845 0.07860434 -0.07246034 -0.1944179
0000b0 98 59 f2 bd 9b af 2b be 7e cd 6d 3e b1 50 6e 3e
       -0.11833495 -0.16766207 0.2322292 0.23272969
0000c0 95 22 cf 3c 60 59 cb 3d 6e 0f 59 be d7 da da bd
       0.025285045 0.09929156 -0.21197292 -0.10686272
0000d0 08 ec 22 be 39 07 b4 3d d6 df 7f 3c ee f2 96 bb
       -0.15910351 0.0879044 0.0156173315 -0.004606596
0000e0 64 d7 b4 bd 31 87 b0 bd 53 0c 06 be e7 32 d0 bd
       -0.08830145 -0.08619536 -0.13090639 -0.10165959
0000f0 ac c0 0d 3e 4c 95 34 3d 13 6c fc bd 5f 94 56 be
       0.1384303 0.044087693 -0.12325301 -0.20955037
000100 a6 2a 2c be 49 62 d2 bd 1a a8 da 3d 25 62 f3 3d
       -0.16813144 -0.10272653 0.10676594 0.11883954
000110 4f 8b 16 3e 70 2c 91 3d 9c ad f6 bc 00 49 9c 3d
       0.1470158 0.07088554 -0.03011208 0.07631111
000120 99 79 06 3d 96 e6 66 bd 6c 89 01 be 78 f8 ca bd
       0.03283081 -0.056372248 -0.12650079 -0.09910673
000130 a3 c4 f3 3d 79 6d 18 3e 81 3c 6a 3e c4 43 02 be
       0.1190274 0.1488551 0.22874643 -0.12721163
000140 82 4d 22 be e7 be 97 3c 5e 6a 42 3e 4b 76 0b 3d
       -0.1584988 0.018523647 0.18985888 0.03404836
000150 83 b4 f0 bd 92 0b 60 3d f6 46 10 bd a0 31 12 3e
       -0.1175318 0.054698534 -0.035223924 0.14276743
000160 27 1c c7 3d b8 29 62 3e 4a ac a6 3d 8f ef 02 3d
       0.097221665 0.22086227 0.0813833 0.031966742
000170 81 70 4d be 08 78 7c 3d 0b a2 f7 3b 24 2d e6 bc
       -0.20062448 0.06163791 0.007557159 -0.028097697
000180 34 1b 17 3e 73 3e f5 bd 8c 01 48 3d 2d c1 89 3b
       0.14756471 -0.11974802 0.0488296 0.0042039366
000190 96 e2 2d be 5c 53 fd bd d8 a2 21 be 11 51 10 bd
       -0.16980967 -0.12369415 -0.15784776 -0.03523356
0001a0 8f 28 29 bc d0 ce 41 be ae 16 9b bd 74 b7 93 bd
       -0.010324611 -0.18926549 -0.07572685 -0.07212725
0001b0 fe 88 11 3d a0 0f 81 bd 52 d2 d0 3d 6f ea 9c 3c
       0.035531037 -0.06301808 0.101963654 0.019154755
0001c0 66 93 bf bc 4b 1e 47 3e 90 67 7d 3d 87 85 57 bd
       -0.023385715 0.1944515 0.061866343 -0.052617576
0001d0 1e 10 d4 bd 70 f9 b3 bd c8 26 05 3e 2d 17 b3 3d
       -0.103546366 -0.08787811 0.13003075 0.08744655
0001e0 2f 5d ac bd 70 d2 3d 3d 57 13 be bd d5 cf 2a 3d
       -0.08416211 0.046343267 -0.092810325 0.04170211
0001f0 0e f2 be 3c 17 f6 58 3d 61 48 19 bd 7a 21 48 be
       0.02330878 0.052969065 -0.03742254 -0.1954402
000200 58 e5 e0 3d ef 52 2d 3d bc fa 46 3e b7 e8 b4 3b
       0.10981244 0.04231542 0.19431585 0.005520906
000210 99 d6 29 3d a5 32 d5 3d 2d 21 32 3e 71 bd 8d bd
       0.041464422 0.1041005 0.17395468 -0.06920899
000220 9c 01 75 bd 81 39 3f 3b f5 0e 50 bd 1d d9 ec bd
       -0.059815988 0.0029178562 -0.050795514 -0.115648486
000230 43 84 ab bd 7d 5d 10 3e 9f f3 2f 3e a6 ef 12 3d
       -0.08374836 0.14098163 0.17182778 0.035873078
000240 a9 94 d2 3c a5 ef 11 bd d7 91 0e be 35 79 9a 3d
       0.025705652 -0.035628933 -0.13922821 0.0754265
000250 04 17 34 3e 6b 35 31 3e 9e c4 2f 3e 70 f2 bb 3d
       0.17586905 0.17305534 0.17164847 0.09177101
000260 ca f9 01 be 6c 90 53 be 4c ab e6 bc 90 eb 23 3e
       -0.12692943 -0.20660561 -0.028157853 0.16007829
000270 19 7f 8c 3d d7 27 26 3e 69 4b 98 bd ce ae 85 3e
       0.068601795 0.16226135 -0.07436258 0.26109928
000280 e4 6e e0 bc ec 2a b0 3d 20 10 85 3e 0a 5b 56 3e
       -0.027396627 0.08601937 0.25988865 0.20933166
000290 d1 a2 24 bd 13 b8 57 3d 33 73 d9 bb 40 75 6e bd
       -0.040194336 0.05266578 -0.0066360473 -0.058217287
0002a0 b2 5d 38 bd bb 5d 5e 3e f2 3b 5f 3d 66 57 88 bc
       -0.04501123 0.21715443 0.054500528 -0.016643237
0002b0 4a b7 2f be 5e 9e 84 3d 0c 59 a2 bd e9 00 99 bd
       -0.17159763 0.06475519 -0.079271406 -0.07470877
0002c0 bf ee 84 be 5b f2 bf 3b 97 b0 60 3d 9b 34 64 3d
       -0.259634 0.0058577484 0.05485591 0.05571423
0002d0 bc f9 12 be eb 9b 81 3c a6 60 2c 3e 4e ad 14 3d
       -0.14353079 0.015821418 0.16833743 0.03629809
0002e0 28 1b aa 3d 54 df 33 be 3c 31 26 be 55 48 81 bd
       0.08305961 -0.17565662 -0.16229719 -0.06312624
0002f0 d7 af 4f 3d 35 91 82 bd a8 94 e0 bd 16 6d 9e bc
       0.050704803 -0.06375352 -0.10965854 -0.019339126
000300 00 9b 4c be 98 3b 74 3d 5f 2d 42 3d 54 d1 11 3e
       -0.19981003 0.059627146 0.04740655 0.14240009
000310 94 9c 5e 3d 3b 53 04 3e 03 34 54 3e 12 44 f0 3d
       0.054348543 0.12922375 0.20722966 0.117317334
000320 d8 42 a7 bd 7b 1a 6d bc f4 53 59 be c9 ef 20 3e
       -0.08167046 -0.0144716455 -0.21223432 0.15716471
000330 a4 ca b4 3d 42 d4 31 3d c4 dd 22 be d3 4c 58 be
       0.08827713 0.043415315 -0.1590491 -0.21123056
000340 e5 f6 0a 3e bf b6 70 bd b6 00 0f be b8 a6 50 3e
       0.13570745 -0.05876803 -0.13965115 0.20376098
000350 c1 9e 49 be ed 81 3c 3e d0 62 2d 3e 46 3f 39 be
       -0.19689466 0.18408938 0.16932225 -0.18090543
000360 98 2a d8 bd 9d 5f 01 3e 65 95 8f bd 2a a0 b8 3d
       -0.10554999 0.1263413 -0.070109166 0.09014924
000370 4d e4 1e 3e 77 4a 3b 3e 32 75 aa 3c 26 e9 b5 bd
       0.15516777 0.18290125 0.020807836 -0.0888236
000380 e0 1d 37 3e e8 ed 39 be fd f6 a5 bd 59 8e 22 3d
       0.1788249 -0.1815716 -0.0810375 0.039686535
000390 08 a2 9b bd c8 3e c7 3d 26 82 fd bd c9 ef 00 3e
       -0.075992644 0.097287714 -0.123783395 0.12591471
0003a0 95 36 00 be 95 aa 26 bd af 5f 0e 3d 96 08 a3 bd
       -0.12520821 -0.040690023 0.03475922 -0.07960622
0003b0 41 56 05 3e 91 f2 c5 bc fe e2 11 be a9 a9 ae 3d
       0.13021185 -0.024163516 -0.14246747 0.08528454
0003c0 68 4f ca 3c 0e ca ed 3d 0d cb a3 bd b3 5b c3 bc
       0.024696067 0.116108045 -0.07997713 -0.023847437
0003d0 28 bf 4c 3d 07 1d 2d be 84 56 17 3e 5f e8 08 3e
       0.04998699 -0.16905604 0.14779097 0.13369893
0003e0 38 8f a8 3d 17 b4 57 3e dd c2 61 3d 2d 71 29 be
       0.08230442 0.21064793 0.055117477 -0.1654708
0003f0 8d 33 f9 bd df 46 1b 3e b1 36 14 be e1 94 e1 3d
       -0.12168036 0.15163754 -0.14473988 0.110147245

bias f4 [64]
000000 7e c6 80 be cf ce 0d 3e 00 cf 88 be 0d 67 79 3e
       -0.25151438 0.13848422 -0.26720428 0.24355717
000010 27 43 79 3e e7 c3 15 bd 3c c9 4a be 41 32 2e 3d
       0.24342023 -0.03656378 -0.19803327 0.042528395
000020 6f f4 3d 3e ed 0d 5f 3d 2e 0f 89 3d 7b 68 ac be
       0.18550275 0.05445664 0.066923484 -0.33673462
000030 8a c3 3d 3c e0 a7 82 bd d6 f8 9c bd 18 0f 57 3d
       0.011582265 -0.06379676 -0.07664649 0.05250463
000040 a8 f6 11 3e 52 29 d0 bc 2a 3f de 3d 53 03 06 bd
       0.14254248 -0.025410328 0.10851891 -0.032718014
000050 d4 74 be 3c e4 aa 8c 3e 8d 99 02 bd 1e 54 90 3e
       0.023249067 0.2747413 -0.03188472 0.28189176
000060 02 8a 9d bd 2d c5 67 3e 50 a7 12 3e fd 5e bc bd
       -0.076923385 0.2263381 0.14321637 -0.09197805
000070 c5 be 01 3e d9 92 b2 bd 74 a8 41 be ab 20 17 3d
       0.12670429 -0.08719415 -0.18911916 0.03689639
000080 dd f2 bb 3c 6f 3e 7a be b9 c4 08 be 53 57 6b 3e
       0.022942955 -0.24437879 -0.13356294 0.2298253
000090 65 0c 57 3e 8c b0 e3 3d 80 1b 5a 3e c5 45 75 be
       0.21000822 0.11117658 0.21299553 -0.23952396
0000a0 2a 5b 90 3d c3 6e 73 be 7e 1f 1f 3e 87 2e f3 bc
       0.07048638 -0.23772721 0.15539357 -0.029685272
0000b0 74 01 67 be 77 f7 09 3e 0a 22 86 3c e2 cc b3 bc
       -0.22559148 0.13473307 0.016373653 -0.021948282
0000c0 64 5f 71 3e 75 e8 75 be d7 f5 19 3d 6a 8a 21 bd
       0.23571545 -0.24014457 0.037587967 -0.039438643
0000d0 3a 5c b5 bd 4e 0a 2e be 13 cf fb 3d 5b 21 89 3e
       -0.088554814 -0.16996118 0.12295356 0.2678326
0000e0 29 42 8f be 33 af 33 3e 58 de 9e 3d 45 4f 00 be
       -0.27980164 0.17547302 0.077572525 -0.12530239
0000f0 85 5a 6a 3e 49 4a 30 3e 2b 18 ce bd cd a5 41 3e
       0.22886093 0.17215838 -0.100632034 0.18910904

weight f4 [64, 7]
000000 1a cf 3b 3d 76 87 fc bc 9f 7d ad 3c 16 bd 0c 3e
       0.045851804 -0.030826312 0.021178065 0.13744006
000010 c8 83 e0 3b 73 b7 bb bd b6 00 8b bb 9f e0 90 3d
       0.006851647 -0.091658495 -0.004242028 0.07074093
000020 86 dc 3e 3d 97 c9 1f be 7c 64 02 3c 70 6d 88 3a
       0.046597026 -0.15604244 0.007958528 0.0010408591
000030 e9 13 9b bd 5e 5f 2b 3e 32 93 1c be 0c a9 6a 3e
       -0.07572157 0.16735598 -0.15290526 0.22916049
000040 03 7b 2d 3e a4 ae 25 be 3a 73 e7 3b 41 1f ea 3b
       0.16941456 -0.16179901 0.0070632966 0.007144839
000050 8d a1 10 3e 85 22 cb bd 9c a1 09 be 1c 51 81 bd
       0.14124127 -0.099186935 -0.13440555 -0.063142985
000060 f2 52 f5 3d 8f a0 03 3c 0d 5b ed 3d e1 09 0a be
       0.11978711 0.008033886 0.11589632 -0.13480331
000070 c7 89 f2 39 46 86 53 3e 35 85 12 3e cc 88 f8 bc
       0.0004626049 0.2065669 0.14308627 -0.030338667
000080 9b d3 09 3d 6c 47 04 3d 5b 6a 90 3d 95 77 12 3e
       0.03364907 0.032294676 0.07051536 0.1430343
000090 c3 49 25 3d ed 0a 42 3d 5f e2 d0 bd 1f 40 c7 3b
       0.040353548 0.0473737 -0.10199427 0.006080642
0000a0 c7 54 81 bd 29 a4 61 3b 7d 45 88 3c 04 ae 63 3c
       -0.06314998 0.0034430122 0.016634697 0.013896469
0000b0 c5 71 23 be b8 e5 be 3d 84 cd a9 3c fa 27 89 3d
       -0.15961368 0.09321159 0.02072788 0.06697078
0000c0 69 be f2 3d c7 e8 b2 bd 58 fd 88 3d 35 62 36 3d
       0.11852724 -0.08735805 0.066889465 0.04452725
0000d0 49 b9 8f bc da 81 0b 3d 5f ce cf bd 75 f6 02 3e
       -0.017544406 0.034059383 -0.10146784 0.12789328
0000e0 73 56 86 3b d4 3b 74 bd 6e 89 a3 3c 72 1a 7e bd
       0.004099661 -0.05962737 0.019962993 -0.06203694
0000f0 da 25 fd 3c 06 28 0e be 31 dc 82 3d 2e b2 3e bb
       0.030901838 -0.13882455 0.063896544 -0.0029097903
000100 d2 e6 21 3d 20 cc 04 3e dc 61 76 3c db d2 71 3d
       0.039526768 0.12968493 0.01503798 0.059038978
000110 0d 3b 97 3c be 2d 27 be 75 f1 bf bd fe b0 da bc
       0.018460775 -0.16326043 -0.09372226 -0.026695725
000120 cc 47 8f 3d 6d ce 13 3d 94 5e 92 3b 5b 99 a7 3d
       0.06996116 0.036085535 0.004466841 0.08183547
000130 f5 c9 75 3b 70 aa 1a 3e 54 0a 7a bc cc b4 1a be
       0.003750441 0.15104079 -0.0152612515 -0.15108031
000140 ae 20 0a 3e 21 c1 9c 3b 8a 67 6a 3d e1 0e 45 3e
       0.13489029 0.004783765 0.05722765 0.19243957
000150 0c c4 f6 3d f2 33 09 3e c9 99 d1 bd 9c 60 a0 bc
       0.12049112 0.13398722 -0.1023441 -0.019577317
000160 e6 9f ac bc f7 10 85 3c df 89 d4 bd f2 d5 c5 bd
       -0.02107234 0.016243441 -0.10377859 -0.096599475
000170 ec 1c e2 3c 9b 02 f2 3d 92 77 9d 3d a2 88 20 bc
       0.027601682 0.11816903 0.07688822 -0.009798201
000180 a5 88 93 3d 94 29 42 3e 28 a8 50 bd 5d e8 b2 3c
       0.07203797 0.18961173 -0.050941616 0.021839315
000190 3f d3 81 bd 9e 49 85 3d 3b 42 d3 bc bf b4 33 bd
       -0.0633912 0.06508182 -0.025788417 -0.043873545
0001a0 5c f1 a8 bd 5c 13 09 be 99 7c a2 3d 9e 56 2f 3e
       -0.08249161 -0.13386291 0.07933921 0.17122886
0001b0 d5 18 11 bd 63 88 56 3c 89 20 f1 3c ad cd 0e 3c
       -0.035424072 0.013094041 0.02943446 0.008716029
0001c0 86 0e c8 bc a8 f0 cd bd 34 d6 18 3e f9 85 09 bc
       -0.024420988 -0.10055667 0.14925462 -0.008393758
0001d0 8c b2 b0 3c 03 44 42 3d a7 f2 ad 3d 10 0f ba 3d
       0.021569513 0.047428142 0.08493548 0.09084904
0001e0 28 ef 0f 3e 94 c6 ec bd 77 a9 cd bc 45 8a 33 bd
       0.14056075 -0.11561313 -0.025105221 -0.043833036
0001f0 4a 8f 46 bc 0f de 55 be 81 99 86 3b 41 e3 e7 bc
       -0.012119124 -0.2088549 0.0041076546 -0.028306605
000200 63 ba c3 3d f2 1a bb 3d 63 e7 27 bc de 5a 5d 3d
       0.09557035 0.09135999 -0.010248038 0.054041736
000210 76 2e 2b be 1a 98 e3 3d 10 b4 a8 3c 1f c1 02 be
       -0.16716942 0.111129954 0.020593673 -0.12768982
000220 d1 ee 2f be 4f e3 2a bc f6 7b 8b b9 76 ce 16 3b
       -0.17180945 -0.010430171 -0.00026604504 0.0023011244
000230 1c 38 1b 3e 4b 61 a1 bc 03 28 99 3d 8c 5e f7 3c
       0.15158123 -0.019699713 0.07478335 0.03019645
000240 77 89 a8 3b d5 94 4d 3d 51 e1 50 bd f3 03 f8 bd
       0.00514334 0.050190765 -0.05099613 -0.12110128
000250 58 47 81 bd d4 1f 02 3d 4e 37 a1 bc bf 8e b6 bc
       -0.06312436 0.031768635 -0.019679692 -0.022284864
000260 b4 df 17 bc b7 7f 0e 3e 06 9a 9e 3c 7c ff 70 bd
       -0.009269644 0.13915907 0.019360553 -0.0588374
000270 8f a2 c8 bd 6c a5 0d 3b 42 8d 63 bb f5 d5 6a bc
       -0.097966306 0.0021613492 -0.0034721647 -0.014333238
000280 6c 1c 00 3e f9 b8 bb bd 77 93 4c 3d 30 07 e8 bc
       0.12510842 -0.0916614 0.04994532 -0.02832374
000290 86 6a 16 bd e7 cb a8 3c d6 07 ab bd aa 3d c0 3c
       -0.036722682 0.02060504 -0.08351104 0.023466904
0002a0 59 b5 a8 bd 2f b8 32 bd b6 a7 0a 3c d6 f9 27 be
       -0.08237714 -0.043632682 0.008462837 -0.16403899
0002b0 e1 31 0b bc 03 16 d7 bd 99 35 03 3d 62 2b f7 bd
       -0.008495779 -0.10502245 0.032033537 -0.120688215
0002c0 75 31 00 3e d1 eb 77 3d f1 d1 f4 3d 28 d8 0c 3c
       0.12518866 0.060527626 0.11954106 0.008596458
0002d0 6c 4e 8d bd 8d 0f 9a bd 0f 00 4f 3e 6a a8 06 3e
       -0.068997234 -0.07522497 0.20214866 0.13150182
0002e0 bf 99 95 bd 74 3e 90 bd 15 42 44 bd 12 c9 76 bd
       -0.07304715 -0.07043162 -0.047914583 -0.06025035
0002f0 5b 6f 3d be c8 f6 a3 3d 1f 1c ac bc 44 20 c5 3d
       -0.1849951 0.08006054 -0.021009503 0.09625295
000300 3f 37 90 3c 44 97 65 bb f6 9c 99 3d 9f e9 89 bd
       0.017604468 -0.0035032788 0.07500641 -0.06734013
000310 5d d8 d1 bc 35 8c 16 3e da dc 22 3e d9 9c b3 bd
       -0.025615865 0.14701922 0.1590456 -0.08770151
000320 8a 23 86 bd 7a 08 9b 3d 1d 51 0e 3e 12 df c9 3d
       -0.06549747 0.07569976 0.1389813 0.098570004
000330 7c 18 13 3e 84 65 8f 3d 4d 4e f6 3d 8f 27 95 3c
       0.14364809 0.070017844 0.120266534 0.01820734
000340 98 57 22 3e d5 2e 31 be d8 a1 24 3e bd ae 23 be
       0.15853727 -0.17303021 0.16077363 -0.15984626
000350 23 87 6e 3d 4b 61 e3 3c b4 2a 09 bd 83 55 c8 3c
       0.058234345 0.027756354 -0.03348799 0.024454838
000360 fe ca 0f be 58 4d bd bd 3d f8 3a bd b2 fd 80 bd
       -0.14042279 -0.09243268 -0.045646895 -0.062983885
000370 ec 05 60 bd a6 30 64 bd df 64 4f bb 95 27 7b 3e
       -0.054693148 -0.055710457 -0.0031645817 0.24526818
000380 c2 6d bb 3d 5d 30 4c 3d d7 00 bc ba 5f 99 ee 3d
       0.09151794 0.04985081 -0.0014343512 0.11650347
000390 f1 bd b8 bc 5f 3d 65 3d 62 6b 47 be 63 8c 02 be
       -0.022551509 0.05596673 -0.19474557 -0.12748866
0003a0 93 ae 97 3d f9 32 f7 bd 64 e1 60 bc 39 0f 35 bb
       0.07406344 -0.12070269 -0.013725612 -0.0027627482
0003b0 25 70 22 3d 4a f2 b8 3c 2c 2d 25 3e 82 8e e7 3d
       0.03965773 0.02257647 0.16130513 0.11306478
0003c0 f5 ca 7d 3c e5 83 c4 bd f2 54 5a 3b 89 e2 bc 3d
       0.015490283 -0.095954694 0.0033314792 0.09222896
0003d0 2d ea 16 3d 97 52 f1 bd 33 9d a2 3d 32 95 f7 bc
       0.03684442 -0.11783331 0.079401396 -0.030222509
0003e0 8e 53 dc bc 59 20 83 3c 38 63 b7 3d 0d d8 37 3e
       -0.02689531 0.016006636 0.08954471 0.1795351
0003f0 3d e5 85 bc c1 ea dc bd c6 01 0a 3e 09 2b fc bd
       -0.01634466 -0.10786963 0.13477239 -0.12312896

bias f4 [64]
000000 9f ec 37 be ed 05 95 bd 16 95 d8 3d c6 19 a6 be
       -0.17961358 -0.07276521 0.10575311 -0.3244154
000010 aa 7a fc bd f6 ca 3d be 68 f0 03 bd eb 78 41 be
       -0.12328084 -0.18534455 -0.03221169 -0.18893783
000020 93 a4 6a bd 59 8c b3 be 9c ef 9a bd 9e 33 02 be
       -0.057285856 -0.35068014 -0.07565233 -0.12715003
000030 7b 5e 87 3e 79 da 37 bb 48 04 ac bd 5b 96 43 be
       0.2643927 -0.0028053804 -0.08399254 -0.19100325
000040 93 62 89 bd 12 65 7f be c8 c9 18 bc 62 c6 46 be
       -0.06708255 -0.24940899 -0.009325452 -0.19411615
000050 61 a4 76 3d 5f 63 91 be 36 30 f8 3d 2e e1 a6 be
       0.060215358 -0.28396127 0.121185705 -0.32593673
000060 b9 f1 5b be 60 a5 e2 3c 56 c1 4d be b9 c3 6d bd
       -0.21478929 0.027666748 -0.20093283 -0.058047984
000070 a1 df 58 be 6d 2c 97 3d 91 80 23 be 2a 0d 78 be
       -0.21179058 0.073815204 -0.15967013 -0.24223772
000080 50 73 82 be b5 fa 90 bd 64 10 86 be 22 75 2a bd
       -0.254786 -0.070790686 -0.2618438 -0.041615613
000090 3d a7 1a 3e e8 3d 4c be 8c 18 bc 3d 64 34 3a be
       0.15102859 -0.1994549 0.091843694 -0.18184048
0000a0 15 43 94 3c 63 9b f8 3d 2d 75 37 be bd 7b 32 be
       0.018098393 0.12139013 -0.17915793 -0.17430015
0000b0 47 df 71 3e 91 e2 1a 3d bb 83 bc bb 2e 3a 24 be
       0.2362033 0.037813727 -0.005753008 -0.16037819
0000c0 8f 15 47 3e 0f f8 d7 bd 8d 29 8f be e2 01 59 3e
       0.19441818 -0.1054536 -0.27961388 0.21192124
0000d0 75 1a 3f be af 35 0b be 75 b8 ab bd ce cb 51 3d
       -0.18662436 -0.13594697 -0.08384792 0.051219754
0000e0 42 31 4e 3e e9 b8 52 be 36 60 8d 3e c0 2c e0 3d
       0.20135978 -0.2057835 0.27612466 0.109460354
0000f0 27 ec fb bd 6c 51 08 3d 45 34 de bd c3 5c 19 3c
       -0.12300902 0.033280775 -0.10849813 0.009360495

weight f4 [64, 4]
000000 2b f3 38 be c6 f8 59 be 82 89 f4 bc be a9 26 3c
       -0.18061511 -0.21286306 -0.029850725 0.010172306
000010 50 e2 be 3d c4 74 66 bd 17 c0 27 be 2f a5 08 be
       0.093205094 -0.0562637 -0.1638187 -0.13344263
000020 e4 52 44 3e 25 20 da bd 10 10 e6 3d 92 7d 08 bc
       0.19172245 -0.10650662 0.112335324 -0.00833072
000030 a7 e7 84 3c 8b 92 c1 bc 90 49 d3 bd 46 12 db 3c
       0.016223742 -0.023629447 -0.10316765 0.026742112
000040 e6 36 47 be 07 cb b2 3d 36 67 47 be 92 7a 96 3d
       -0.19454536 0.08730131 -0.19472966 0.07347597
000050 de 52 fb 3d 00 dd fb 3c f0 84 1b be 50 50 a2 3d
       0.12271665 0.03074503 -0.1518743 0.07925475
000060 91 ac fb 3d b6 3e 6d 3e 9c cf 7f 3e b4 6a ab 3d
       0.12288774 0.23168454 0.2498154 0.083699614
000070 54 78 6e 3c f0 94 a4 3d e8 be ed 3c 4f 54 a8 bd
       0.014555056 0.0803622 0.029021695 -0.082192056
000080 0e d8 26 3d 3c c0 e1 3d 45 a9 03 3e 07 e3 48 bc
       0.04073339 0.11022994 0.1285754 -0.012261159
000090 01 69 df bd 7b 2d 72 bd cc 9e 8c 3e f7 bb e3 bc
       -0.109087 -0.059125405 0.27464902 -0.02779959
0000a0 fd dc 9c 3c d9 0b c6 b9 81 86 99 bd 52 85 e9 3c
       0.019148344 -0.0003777433 -0.07496358 0.028505955
0000b0 6e af 99 bd bf 95 57 be 2b 46 34 be fb ee 00 3e
       -0.07504164 -0.21053217 -0.17604892 0.12591164
0000c0 01 4a db bd f0 87 7e bd db ea bb bd cd 12 5d 3d
       -0.107074745 -0.06214136 -0.091756545 0.053973008
0000d0 b7 f5 8b 3c f7 4d 9b bd cc c9 a6 3c b9 6e cf bd
       0.01708494 -0.0758323 0.020359896 -0.101285405
0000e0 dd 2a bc bc 52 fd d6 bc 2c 72 d2 3d e1 c9 52 3e
       -0.022969658 -0.02624384 0.10275683 0.20584823
0000f0 f9 c2 26 3d fc 10 52 3d 6a c2 2c be 0c 4e 44 3e
       0.040713284 0.05128573 -0.16871038 0.19170398
000100 dc 8b 43 3e b6 a7 25 be 74 4b 18 be 11 fa 50 3e
       0.19096321 -0.16177258 -0.14872533 0.20407893
000110 55 de 77 3d 6b d4 9a bd 97 e1 0c 3e f1 ad 0b 3e
       0.060514767 -0.07560047 0.1375793 0.13640572
000120 5d 63 e3 3a 14 3c ea 3c e1 9b 13 3c 87 c3 71 3d
       0.0017348338 0.0285931 0.009009332 0.05902436
000130 d1 c9 6d be 6b 90 d2 bc d3 ac d5 3d 79 ea 04 be
       -0.23221518 -0.02570363 0.10433354 -0.12980069
000140 be cc 8e 3c bd d2 97 bd 3c c3 5d 3d 21 a2 48 3d
       0.017431613 -0.07413242 0.054141268 0.048982743
000150 07 7d cb 3d 7a b5 ac bc ad b1 32 be 5e 11 02 be
       0.099359564 -0.021082629 -0.1745059 -0.12701938
000160 82 4a 14 3e 28 20 a3 3d 18 67 1e 3e 8f 8f 84 bd
       0.14481547 0.07965118 0.15469015 -0.06472694
000170 0a a9 8c bc 8b 22 d7 bd 00 c9 2c be ab 0c 0a 3e
       -0.017170448 -0.105046354 -0.1687355 0.13481395
000180 5b 4e 8d 3d 1a 84 2e 3d d7 54 93 3d 0d 32 41 bc
       0.06899711 0.04260645 0.07193916 -0.011791718
000190 99 89 fb 3d 0e 90 db 3d 89 12 ab 3d 65 b9 0c 3c
       0.12282104 0.107208356 0.08353145 0.008589123
0001a0 64 8a e0 bd 7b 2b 5f be e6 13 d5 bd 5d ea b3 bd
       -0.10963896 -0.2179393 -0.10404186 -0.087849356
0001b0 56 0b a9 3d 14 5d 33 be fd 3c 9e 3d 27 3d 0d 3d
       0.08254115 -0.17515975 0.07726476 0.034482148
0001c0 27 d9 0e 3d 1c 64 42 be 05 33 c2 3c 56 40 91 3d
       0.03487506 -0.18983501 0.023705969 0.07092349
0001d0 9e 04 03 3e 98 cd 1e 3d be 46 6c 3e a9 f3 2c bd
       0.1279473 0.03877029 0.23073861 -0.04222456
0001e0 20 33 28 3e 77 5d 0a 3e 1e ad 1c 3e cf 03 05 bd
       0.16425753 0.13512217 0.15300414 -0.032474335
0001f0 b2 d4 eb bd 09 c3 73 3e 9b 61 ac bd 74 9a 09 bb
       -0.11515178 0.23804869 -0.08417054 -0.0020996602
000200 84 67 3d 3e e7 0f b6 bd 1e 7b 2c 3e 45 b2 43 3e
       0.1849652 -0.08889752 0.1684384 0.19110973
000210 78 e3 b0 bd 6e 23 95 3d 5b 53 fe 3d b4 9a 6f bd
       -0.08637136 0.07282148 0.124182425 -0.058497146
000220 3d 07 03 3d 6d 1f 2a 3e 45 a1 2b 3d bd 3a 98 3d
       0.031989325 0.1661355 0.041901845 0.074330784
000230 fa b7 e1 3d b5 59 99 bc 3e 0b 34 be 05 22 8c bb
       0.11021419 -0.018719533 -0.17582414 -0.0042765164
000240 b9 cd ba bc 82 08 7e 3d de 68 e0 bd 0a ab b6 bd
       -0.022803174 0.062019832 -0.10957502 -0.08919342
000250 90 90 12 3e 39 4d b1 bd f7 96 f6 3d 08 ec 7f bd
       0.14312959 -0.08657307 0.12040513 -0.062480956
000260 89 a7 3f 3e 6a b5 04 be 81 8a 3a 3e 4d 8f 12 bd
       0.18716253 -0.12959829 0.18216898 -0.035781194
000270 78 a1 3a 3c 43 66 a6 bd 4a 54 a8 3d 82 9d 51 be
       0.011391036 -0.081249736 0.08219202 -0.2047024
000280 f4 7a 67 bd 33 39 97 3d f8 da c8 3d 49 9d c1 3d
       -0.05651374 0.07383957 0.0980739 0.09453828
000290 d0 82 cd bd 55 d4 b9 bd c3 90 70 bd fe 4b da bd
       -0.10034716 -0.09073702 -0.058731806 -0.106590256
0002a0 3c da a5 3d d8 03 09 be ed 6d 52 3d d7 6a 31 3e
       0.080982655 -0.13380373 0.051374365 0.17325912
0002b0 81 e8 09 bd d4 87 9e bd 4c b3 b4 bd 9d e5 ba 3c
       -0.033669 -0.07740751 -0.08823261 0.022814566
0002c0 92 bb ac 3d a9 85 d8 3c b3 1c 50 be e7 d4 32 bc
       0.08434214 0.026430922 -0.20323448 -0.010915018
0002d0 e4 14 5a be af ba 9f bd fa 1e 12 3e e0 12 46 3d
       -0.21297032 -0.07799279 0.14269629 0.048357844
0002e0 f3 07 9d 3c a0 f3 57 be f7 59 a5 bd 3b a8 78 bd
       0.01916883 -0.2108903 -0.080738 -0.060707312
0002f0 74 ee ae bd 1e 1a 16 3d 38 8b 9f bd 04 b5 71 bc
       -0.08541575 0.036646 -0.07790226 -0.01475263
000300 93 c8 ab bd 2c f6 31 3e 8b d5 51 be e4 fa a7 3d
       -0.08387866 0.17379063 -0.20491616 0.082021505
000310 53 12 1e be 09 5b 47 bd af 59 09 3e 51 35 6d 3d
       -0.15436678 -0.048670802 0.13413118 0.057912175
000320 58 d9 c7 bd 5a e5 ae bd 14 4d 3b 3c 59 e6 67 3e
       -0.09758252 -0.08539839 0.011431951 0.22646464
000330 ef 96 0f 3e b8 be 50 bc c0 2a 13 3e c6 b5 1f 3d
       0.1402242 -0.012740783 0.14371777 0.038991712
000340 5b 62 3e 3e 1a e2 26 bd dc 03 43 3e d3 d0 df 3d
       0.18592207 -0.04074297 0.19044441 0.10928502
000350 84 42 c1 3d 0b c0 2a 3e 4d 61 1a be 31 d3 98 bd
       0.09436515 0.16674821 -0.1507618 -0.074621566
000360 5a ea 50 be 24 2a 77 bd f1 69 20 be d3 67 14 be
       -0.20401898 -0.060342923 -0.15665413 -0.14492731
000370 5a a8 3f 3e ff c3 1a be 23 d1 cc 3c 33 24 41 3e
       0.18716565 -0.15113829 0.025002068 0.18861465
000380 ab 51 00 bd 9f 71 2e be 90 f3 17 be 42 06 0c 3e
       -0.031327885 -0.1703553 -0.14839005 0.13674262
000390 4a cc 18 3d f7 e8 db 3d e9 4f 3b 3e 64 36 32 bd
       0.0373042 0.10737794 0.18292202 -0.043508902
0003a0 64 13 f5 bd fe 5a 06 be 4a e7 88 3d 15 3a a5 3d
       -0.11966589 -0.13120648 0.0668474 0.08067719
0003b0 ca dd a8 3d 01 4a 68 3d b2 c9 9c bd 73 eb ae 3a
       0.08245428 0.0567112 -0.07655658 0.0013345316
0003c0 66 99 0a be f7 24 3c 3d b3 37 2e 3e 59 17 2c 3e
       -0.1353508 0.04593369 0.17013435 0.16805781
0003d0 18 34 f2 3d e5 77 94 3d ce 9c 2e 3d 72 54 33 3d
       0.11826342 0.072494306 0.04263001 0.043781705
0003e0 8d b1 2d 3e 4e 39 aa bd f7 0f 40 be 30 cb cc 3d
       0.16962261 -0.08311711 -0.1875609 0.099996924
0003f0 88 48 6b be 95 ca 22 3e 15 5f 5d bb b2 86 33 3e
       -0.22976887 0.15897591 -0.0033778597 0.17531851

bias f4 [64]
000000 9a 69 66 3d ca b2 55 3e ec 9c 70 3c dc 9b b0 be
       0.056253053 0.20868984 0.014685851 -0.3449391
000010 bb 97 57 3e 76 8d 9c be 84 d8 9c be 67 09 a8 3d
       0.21053974 -0.30576676 -0.30633938 0.08204918
000020 af b7 67 3d 6a d2 4f 3e 84 0a 44 be 41 32 db 3d
       0.05657166 0.2029511 -0.19144636 0.107029445
000030 b6 12 04 bd 6a 69 76 be 21 f9 b2 be 60 00 eb bc
       -0.032244407 -0.2406365 -0.34955695 -0.028686702
000040 bf 21 a0 3e dd 18 a2 3e bb ac 2f 3e b5 76 e8 bd
       0.31275746 0.31659594 0.17155735 -0.113507666
000050 31 7a 36 be 72 ed 82 3e 91 9c 58 be 27 3e 96 be
       -0.1782005 0.2557178 -0.21153475 -0.29344293
000060 39 1f 98 3e 42 45 c5 3e f5 52 8b be 32 69 18 be
       0.2971132 0.38529402 -0.2721173 -0.14883879
000070 36 db b6 3e 66 6c b3 3e ef f4 d0 3e f8 3f c9 3e
       0.3571412 0.3504364 0.4081187 0.39306617
000080 cf 1c 90 be 2a fe 70 3e 5d 44 d8 be 94 88 95 bc
       -0.2814698 0.23534456 -0.42239657 -0.018253602
000090 9e 59 07 3e d2 7e 76 3e d5 47 3a 3e bd 03 68 3d
       0.1321778 0.24071816 0.18191464 0.05664419
0000a0 bb 18 53 3c 9f f2 8a be b8 6e 9b be 07 36 9d 3c
       0.012884314 -0.2713823 -0.3035791 0.019190801
0000b0 ff 79 3a 3e cb 0b 76 bb fa 21 9f 3e 59 9e a3 3d
       0.182106 -0.003754365 0.3108061 0.07989187
0000c0 61 9a cb 3e ea 58 94 3e 62 76 a6 be db cc 79 be
       0.3976622 0.28974086 -0.32512194 -0.24394552
0000d0 aa c7 b9 3e c5 87 06 3c 2f 0f 53 3e a4 12 8f be
       0.36285144 0.008211081 0.20611261 -0.2794391
0000e0 d9 82 5c be 80 68 97 3d 30 a8 59 be 75 ae fe 3d
       -0.2153429 0.07392979 -0.21255565 0.12435619
0000f0 78 66 27 3e 73 6d 38 be b7 44 7d bd c2 12 83 3d
       0.16347682 -0.18010502 -0.06183311 0.06400062

weight f4 [64, 2]
000000 fe bc d0 3d 95 30 04 be a8 f6 6a bd 50 4d 06 3d
       0.101922974 -0.12909158 -0.057364136 0.032788575
000010 d5 44 bf bd 07 da 45 3e f6 8b 37 3e d0 6e 0e 3c
       -0.093393005 0.19321452 0.17924485 0.008693412
000020 81 43 16 be 4d a8 1a be 3d a4 1f 3e 6a 2c 1c 3d
       -0.14674188 -0.15103264 0.15589996 0.038128294
000030 62 10 24 3d 3d a4 ef bc b6 ac 06 bb 75 d5 c3 3d
       0.040054686 -0.02925312 -0.002054972 0.09562198
000040 34 c7 50 3d 11 54 06 bd bf ac 67 be 7e 25 d9 3d
       0.050971225 -0.032795016 -0.22624491 0.10602854
000050 e2 0f c5 3d 60 38 a5 bc ed db c9 3d c0 24 a3 bd
       0.0962217 -0.020168483 0.09856401 -0.07965994
000060 bc a6 40 3e 06 bf 27 3d 27 3d 49 be 97 f6 05 3e
       0.18813604 0.04095366 -0.19652234 0.13082348
000070 9a 26 1b bc 91 1f 5b bd e3 57 04 3d 8c b2 88 bd
       -0.009469653 -0.0534969 0.032310378 -0.0667468
000080 b5 05 4d 3e 02 92 93 3d c0 3e 17 3d fc cb db 3c
       0.20021708 0.07205583 0.036925077 0.026830666
000090 d5 77 03 3e b4 f8 09 3e 76 ab a1 3d a3 86 65 bd
       0.12838681 0.13473779 0.07894032 -0.056036603
0000a0 79 8e 26 be d1 d5 87 bd d2 22 96 3c 61 f0 93 3c
       -0.16265287 -0.06632579 0.01832715 0.018058958
0000b0 44 67 0f 3e 3b 4c 09 be fd a6 0a 3e 0a ef b7 bd
       0.14004236 -0.13407986 0.13540263 -0.0898114
0000c0 3e 87 7b 3c ad 32 04 3e ce 01 05 3e 00 6a a3 3d
       0.0153520685 0.12909956 0.1298897 0.07979202
0000d0 a4 e6 47 be 0d b1 95 bd d7 8f 14 bd de 3a a1 3a
       -0.19521576 -0.073091604 -0.03626999 0.0012300869
0000e0 4d 71 71 be af 0f 7e 3e 0a cb 5c be e0 6f b5 bd
       -0.23578377 0.2481067 -0.21561828 -0.08859229
0000f0 64 96 ad 3d 0b 60 66 3d fd 68 79 be 6d 0a 40 3e
       0.0847595 0.056243937 -0.24356456 0.18753977
000100 04 c0 4d 3e f6 f6 31 3e 28 dd 37 be d5 33 4c bd
       0.2009278 0.17379364 -0.17955458 -0.04985412
000110 f7 06 30 3e 3a a1 21 bd 78 95 23 be c4 c3 10 3e
       0.17190157 -0.0394604 -0.15974987 0.14137179
000120 b7 aa 12 be 88 9a d8 bd c5 1b 3d 3e a4 ab c2 3d
       -0.14322935 -0.105763495 0.18467624 0.09505394
000130 13 23 3d 3e 95 54 9c bd 8c 07 60 3e 2d cc 66 3d
       0.18470411 -0.0763332 0.21877879 0.05634706
000140 3c 00 a1 3c 1f 49 49 3d 30 01 91 3c ce 2b 28 bd
       0.019653432 0.049142 0.017700762 -0.0410574
000150 b8 1e 66 3e 48 e3 30 bd 86 a7 ff 3c 57 dd 66 bd
       0.22472656 -0.043185502 0.031207811 -0.05636343
000160 3a 3f 16 3e 93 37 35 be 8a 40 7d be 0c 67 24 3d
       0.14672557 -0.17696981 -0.24731651 0.040137336
000170 ba 49 a1 3d d9 5a fd 3d 69 ff d9 3d ad f6 20 3d
       0.0787539 0.123708434 0.10644419 0.03929775
000180 62 e1 0d 3e 4a fa 17 bc 5e 81 e6 3d 59 f9 80 3d
       0.13855508 -0.009275982 0.112551436 0.06297559
000190 d7 fe e3 bd 26 68 95 bd f8 ef be bd 31 10 1e bd
       -0.11132591 -0.07295255 -0.09323114 -0.03858966
0001a0 32 1d 5a 3e 97 27 c5 bd 99 7a a5 bd ee 80 5d 3d
       0.213002 -0.09626692 -0.08080024 0.054078035
0001b0 07 f5 56 be 8d ea 69 bd ab 66 55 be b5 8c 04 be
       -0.20991908 -0.05710845 -0.20839946 -0.129443
0001c0 d5 04 4e be 41 7e 25 3d 70 f5 d7 3d f9 bd f0 3d
       -0.20119031 0.04040361 0.1054486 0.117549844
0001d0 7b ef 37 be 41 25 12 be d7 c3 91 3c 27 45 e4 3d
       -0.17962448 -0.14272024 0.017793579 0.11146002
0001e0 d3 a6 81 3d f8 23 5b 3e 8f 06 31 be 91 a4 11 3e
       0.06330647 0.2140044 -0.17287658 0.14222933
0001f0 12 a1 bd 3d db ec 17 3d 69 b4 0a bc 09 9d 52 bd
       0.09259237 0.037091117 -0.008465865 -0.05141929

bias f4 [64]
000000 6b 14 89 3e 1f 59 a6 be 06 03 e5 3d ec 7d e0 be
       0.2677339 -0.3248987 0.11182217 -0.4384607
000010 5a f0 bb be 23 00 df 3d 2a 36 cc be 2f 2d b2 bc
       -0.3670681 0.10888698 -0.39885074 -0.02175006
000020 f4 11 0b 3c d6 b6 4f be e0 ce a4 3b d2 08 ca bd
       0.008488167 -0.2028459 0.0050295442 -0.098649636
000030 1b b1 91 be a0 89 e3 be 02 cb 5a 3c ab 4a 0c bf
       -0.28455433 -0.44440937 0.013354065 -0.54801434
000040 e9 08 0e bf 70 a1 e3 3e 88 c2 fd be 30 1d 24 3e
       -0.55482346 0.44459105 -0.49562478 0.16026759
000050 cc ce 15 be 7c 6f d6 3e c6 5d 9d 3d 92 09 3e 3e
       -0.14629668 0.4188193 0.076839015 0.18558338
000060 32 e1 a9 be cb eb 53 3d 11 b0 58 bc 04 6c 6f bd
       -0.33179623 0.05173854 -0.013225571 -0.05845262
000070 75 d5 b0 3c c3 54 b3 be 3c 81 e6 3e 79 ee 16 bf
       0.02158616 -0.35025606 0.45020473 -0.5895763
000080 5c 8f 6a 3c b9 cf 20 be 33 29 66 be 0d 12 85 be
       0.014316406 -0.1570424 -0.22476654 -0.25990334
000090 83 2b 48 bd f8 fc 0a bf 5a 6c fb 3d 87 b1 8b be
       -0.04886962 -0.5429225 0.12276526 -0.2728388
0000a0 7c 4b cd 3d 4b 3f b0 3d d2 97 3f 3c 7b 50 a9 3e
       0.10024163 0.08605822 0.011693912 0.33069214
0000b0 1c 9c 00 3c ea df 0f 3f e6 ec d8 3e 66 5d 20 3d
       0.007849719 0.5620104 0.4236824 0.03915157
0000c0 e2 a4 13 3f 92 a7 da 3e 28 c7 1e 3c 21 7d b6 3e
       0.57673466 0.4270597 0.009691037 0.3564234
0000d0 b4 b7 00 3f 0c ff a2 be 10 85 16 3e 06 9d 96 3e
       0.5028031 -0.3183521 0.14699197 0.29416674
0000e0 5a 5e 0c be f3 7a a5 3e 01 e0 a5 be 60 e5 8f ba
       -0.13707867 0.32320365 -0.32397464 -0.0010978393
0000f0 c2 61 26 be 64 68 90 3d cf d2 97 be e0 97 ba 3e
       -0.16248229 0.07051161 -0.29653022 0.36443996

weight f4 [64]
000000 42 a0 20 3f f9 51 49 3f 8a cd 4a 3f 7d 75 41 3f
       0.62744534 0.78640705 0.7921988 0.755699
000010 2a eb 39 3f e0 82 fc 3e 99 49 3d 3f 4a 5e 49 3f
       0.72624457 0.493186 0.73940426 0.786595
000020 41 12 15 3f a8 0b 62 3f 34 50 c5 3e 6a e1 38 3f
       0.5823098 0.88299036 0.38537753 0.72218955
000030 ac 25 13 3f 05 30 49 3f a0 46 58 3f 03 20 4e 3f
       0.5747936 0.78588897 0.84482765 0.80517596
000040 2c d5 5d 3f a2 d8 31 3f f9 f1 2b 3f ac a9 5e 3f
       0.866534 0.6947118 0.67166096 0.8697765
000050 bf 81 2d 3f 6a df 19 3f 86 72 38 3f 98 20 52 3f
       0.677761 0.6010653 0.7204975 0.82080984
000060 78 c4 0d 3f 57 0e 4c 3f 72 20 6d 3f 23 ac d3 3e
       0.5537791 0.7970938 0.9262763 0.41342267
000070 51 39 5b 3f c2 09 56 3f c8 f6 2c 3f 6a 21 6b 3f
       0.8563433 0.8360864 0.6756406 0.9184786
000080 57 8d 2f 3f b7 f2 32 3f a9 c1 48 3f 0f 1d 4c 3f
       0.6857504 0.69901603 0.784205 0.7973184
000090 8f 6e dc 3e d0 a4 41 3f 70 b1 65 3f 33 d6 57 3f
       0.430531 0.7564211 0.89723873 0.8431122
0000a0 10 2f 13 3f f6 07 41 3f e2 bf 2f 3f 45 d6 41 3f
       0.57493687 0.7540277 0.68652165 0.75717574
0000b0 d0 ee 3c 3f 51 1a 36 3f 31 df 5a 3f 19 cc 08 3f
       0.738019 0.71133906 0.85496813 0.5343643
0000c0 35 05 63 3f cd 58 2c 3f 0c fb 32 3f 25 5e 00 3f
       0.8867982 0.67323 0.6991432 0.50143653
0000d0 04 97 41 3f 5e 24 4d 3f 46 10 4c 3f 93 47 25 3f
       0.75621057 0.80133617 0.7971233 0.6456234
0000e0 c8 07 4e 3f 41 9f 34 3f b2 27 04 3f 16 2d 32 3f
       0.80480623 0.705555 0.5162307 0.69600046
0000f0 64 9c 2c 3f 88 85 07 3f f9 1d 3f 3f 3e 96 3d 3f
       0.67426133 0.5293813 0.7465511 0.74057376

bias f4 [64]
000000 05 62 c5 bb 36 c0 68 3d 17 a7 c4 bc 68 7a 10 3d
       -0.0060236477 0.05682393 -0.024005456 0.035272986
000010 62 1b b7 bc f6 e0 9f bb a6 52 1b 3c dc c4 2c 3b
       -0.022351924 -0.0048791124 0.009480154 0.0026362455
000020 8f 32 20 bd 4d c9 0a 3b ee ce a3 39 87 79 c9 3c
       -0.039110716 0.0021177114 0.00031243957 0.024594082
000030 0b 23 25 3b 93 af 12 3d e9 0f 9a 3c a7 4e 9a 3d
       0.002519789 0.035811972 0.018806415 0.07534533
000040 f6 9b d0 bb ea 58 07 bd 05 91 e0 bc 95 57 bf 3c
       -0.0063662482 -0.03304378 -0.0274129 0.023357192
000050 49 d0 6d 3d e9 76 4f b9 5f e6 6d bc da f9 dc 3c
       0.058059964 -0.00019785356 -0.014520257 0.026974607
000060 d3 ab 1a bd 68 be 99 bd 61 14 86 3c eb 7a 93 bb
       -0.03776152 -0.0750702 0.01636714 -0.004500737
000070 f7 35 66 bc ec e7 64 3b bf 5d 80 bc 5a 12 dd 3c
       -0.014050952 0.0034928275 -0.015669702 0.02698629
000080 85 6f d6 3c 3e 5b 57 3d 52 d4 f3 3b bc 6f 9f 3c
       0.026176224 0.05257725 0.007441082 0.019462459
000090 5a 82 80 3c f0 cf 63 bc e1 b2 6b bd 2e a8 02 3d
       0.015687156 -0.013904557 -0.05754364 0.03189867
0000a0 46 cd 83 bc 98 30 c0 3c 1c 28 12 3c 86 eb 12 3c
       -0.016089093 0.023460671 0.008920696 0.008967286
0000b0 24 cf 46 bb 0d 39 6e bb d6 16 6a bd f0 4d 44 3c
       -0.0030335868 -0.0036349923 -0.057150684 0.011981472
0000c0 71 1f 8c bd fc 63 64 bd d0 09 66 3c 26 26 17 bd
       -0.068419345 -0.055759415 0.014040425 -0.036901616
0000d0 86 1b a3 bc 25 af 7f 3d 79 a4 53 3c 24 6f 16 bd
       -0.019910585 0.06242289 0.012917631 -0.036727086
0000e0 c9 0b 16 3d 76 85 1c bd d8 23 d2 b8 3a fe b2 3b
       0.036632333 -0.038213216 -0.00010020257 0.005462435
0000f0 a2 4b 57 bc 3d c5 34 bd 1a 28 ee 3c 5f 62 24 bd
       -0.013140591 -0.044133414 0.029071856 -0.040132876

pe f4 [1, 152, 64]
000000 00 00 00 00 00 00 80 3f 00 00 00 00 00 00 80 3f
       0.0 1.0 0.0 1.0
000010 00 00 00 00 00 00 80 3f 00 00 00 00 00 00 80 3f
       0.0 1.0 0.0 1.0
000020 00 00 00 00 00 00 80 3f 00 00 00 00 00 00 80 3f
       0.0 1.0 0.0 1.0
000030 00 00 00 00 00 00 80 3f 00 00 00 00 00 00 80 3f
       0.0 1.0 0.0 1.0
000040 00 00 00 00 00 00 80 3f 00 00 00 00 00 00 80 3f
       0.0 1.0 0.0 1.0
000050 00 00 00 00 00 00 80 3f 00 00 00 00 00 00 80 3f
       0.0 1.0 0.0 1.0
000060 00 00 00 00 00 00 80 3f 00 00 00 00 00 00 80 3f
       0.0 1.0 0.0 1.0
000070 00 00 00 00 00 00 80 3f 00 00 00 00 00 00 80 3f
       0.0 1.0 0.0 1.0
000080 00 00 00 00 00 00 80 3f 00 00 00 00 00 00 80 3f
       0.0 1.0 0.0 1.0
000090 00 00 00 00 00 00 80 3f 00 00 00 00 00 00 80 3f
       0.0 1.0 0.0 1.0
0000a0 00 00 00 00 00 00 80 3f 00 00 00 00 00 00 80 3f
       0.0 1.0 0.0 1.0
0000b0 00 00 00 00 00 00 80 3f 00 00 00 00 00 00 80 3f
       0.0 1.0 0.0 1.0
0000c0 00 00 00 00 00 00 80 3f 00 00 00 00 00 00 80 3f
       0.0 1.0 0.0 1.0
0000d0 00 00 00 00 00 00 80 3f 00 00 00 00 00 00 80 3f
       0.0 1.0 0.0 1.0
0000e0 00 00 00 00 00 00 80 3f 00 00 00 00 00 00 80 3f
       0.0 1.0 0.0 1.0
0000f0 00 00 00 00 00 00 80 3f 00 00 00 00 00 00 80 3f
       0.0 1.0 0.0 1.0
000100 a4 6a 57 3f 41 51 0a 3f ce 7a 2e 3f b0 54 3b 3f
       0.84147096 0.54030234 0.68156135 0.731761
000110 ba 7d 08 3f 0d 94 58 3f f1 90 d1 3e c6 92 69 3f
       0.53316844 0.8460091 0.40930894 0.91239583
000120 3e 39 9f 3e 6b 4e 73 3f 25 8f 70 3e f1 d5 78 3f
       0.3109836 0.9504153 0.23492105 0.9720145
000130 3a 23 35 3e 83 f6 7b 3f f3 25 08 3e 28 ba 7d 3f
       0.17689219 0.9842302 0.13295726 0.99112177
000140 76 75 cc 3d 98 b8 7e 3f 36 6f 99 3d d1 47 7f 3f
       0.099833414 0.9950042 0.07491915 0.9971896
000150 ae 36 66 3d 68 98 7f 3f fa ac 2c 3d bd c5 7f 3f
       0.05620449 0.9984193 0.04215715 0.999111
000160 5b 81 01 3d 3c df 7f 3f a5 3e c2 3c 93 ed 7f 3f
       0.031617504 0.99950004 0.023711512 0.99971884
000170 42 ab 91 3c a3 f5 7f 3f 49 7a 5a 3c 2c fa 7f 3f
       0.017781857 0.99984187 0.013334819 0.99991107
000180 57 d6 23 3c b9 fc 7f 3f 16 b9 f5 3b 28 fe 7f 3f
       0.009999833 0.99995 0.0074988706 0.99997187
000190 5a 44 b8 3b f7 fe 7f 3f 5a 2e 8a 3b 6b ff 7f 3f
       0.0056233825 0.9999842 0.0042169513 0.9999911
0001a0 1c 3e 4f 3b ac ff 7f 3f 03 69 1b 3b d1 ff 7f 3f
       0.0031622713 0.999995 0.0023713715 0.9999972
0001b0 20 15 e9 3a e6 ff 7f 3f 8b c9 ae 3a f1 ff 7f 3f
       0.0017782785 0.99999845 0.0013335211 0.9999991
0001c0 6d 12 83 3a f8 ff 7f 3f 89 94 44 3a fb ff 7f 3f
       0.0009999998 0.9999995 0.000749894 0.9999997
0001d0 13 6a 13 3a fd ff 7f 3f 21 17 dd 39 ff ff 7f 3f
       0.0005623411 0.9999998 0.00042169637 0.99999994
0001e0 61 cb a5 39 ff ff 7f 3f 0d a8 78 39 00 00 80 3f
       0.00031622782 0.99999994 0.00023713727 1.0
0001f0 53 77 3a 39 00 00 80 3f 6d d4 0b 39 00 00 80 3f
       0.00017782794 1.0 0.00013335208 1.0
000200 b7 c7 68 3f 33 11 d5 be d9 5a 7f 3f 53 4d 91 3d
       0.9092974 -0.41614684 0.99748 0.070948265
000210 0a f2 66 3f b2 e8 dc 3e 12 35 3f 3f 02 39 2a 3f
       0.9021307 0.43146282 0.74690354 0.66493237
000220 1b 54 17 3f ec 7b 4e 3f b5 d3 e9 3e 69 be 63 3f
       0.5911271 0.8065784 0.45669332 0.8896242
000230 f6 47 b2 3e a6 fa 6f 3f 82 f0 86 3e f5 f2 76 3f
       0.34820527 0.93741834 0.26355368 0.96464473
000240 f8 6f 4b 3e a5 e5 7a 3f d3 00 19 3e 4f 20 7d 3f
       0.19866931 0.9800666 0.1494172 0.98877424
000250 86 d9 e5 3d f3 61 7e 3f ae 85 ac 3d 0e 17 7f 3f
       0.1122313 0.9936821 0.08423935 0.99644554
000260 c8 70 81 3d f9 7c 7f 3f aa 30 42 3d 4e b6 7f 3f
       0.063203394 0.9980007 0.04740969 0.9988755
000270 5c a5 11 3d 8e d6 7f 3f 50 75 da 3c b1 e8 7f 3f
       0.03555809 0.9993676 0.026667267 0.99964434
000280 3e d4 a3 3c e5 f2 7f 3f 51 b7 75 3c a1 f8 7f 3f
       0.019998666 0.9998 0.014997319 0.9998875
000290 9b 43 38 3c db fb 7f 3f 0a 2e 0a 3c ab fd 7f 3f
       0.011246587 0.99993676 0.008433828 0.9999644
0002a0 d8 3d cf 3b b1 fe 7f 3f e7 68 9b 3b 43 ff 7f 3f
       0.006324511 0.99998003 0.00474273 0.99998873
0002b0 08 15 69 3b 96 ff 7f 3f 80 c9 2e 3b c4 ff 7f 3f
       0.0035565514 0.9999937 0.0026670396 0.9999964
0002c0 68 12 03 3b df ff 7f 3f 85 94 c4 3a ed ff 7f 3f
       0.0019999985 0.99999803 0.0014997876 0.99999887
0002d0 12 6a 93 3a f5 ff 7f 3f 1f 17 5d 3a fa ff 7f 3f
       0.0011246821 0.99999934 0.0008433926 0.99999964
0002e0 60 cb 25 3a fd ff 7f 3f 0c a8 f8 39 fe ff 7f 3f
       0.0006324556 0.9999998 0.0004742745 0.9999999
0002f0 53 77 ba 39 ff ff 7f 3f 6d d4 8b 39 00 00 80 3f
       0.00035565588 0.99999994 0.00026670416 1.0
000300 c3 81 10 3e 26 70 7d bf de 3c 47 3f ce bf 20 bf
       0.14112 -0.9899925 0.7782725 -0.6279267
000310 d7 45 7e 3f ab 7f ed bd 63 21 74 3f 63 18 9a 3e
       0.9932532 -0.11596616 0.95363444 0.3009673
000320 c2 09 50 3f 58 2f 15 3f b7 24 27 3f a2 e7 41 3f
       0.8126489 0.58275366 0.652904 0.7574407
000330 6c 2f 02 3f 29 6d 5c 3f a7 68 c7 3e 37 c9 6b 3f
       0.5085361 0.86104065 0.3894703 0.92103904
000340 6c 4e 97 3e ef 90 74 3f e2 6d 64 3e 92 8c 79 3f
       0.2955202 0.9553365 0.22307542 0.9748012
000350 d7 ee 2b 3e 9e 5d 7c 3f 2c 33 01 3e 43 f4 7d 3f
       0.16790329 0.9858035 0.12617177 0.9920084
000360 c0 ff c1 3d 4f d9 7e 3f 06 93 91 3d 3a 5a 7f 3f
       0.094726086 0.99550337 0.071081206 0.9974705
000370 4e 69 5a 3d c3 a2 7f 3f c5 d1 23 3d 90 cb 7f 3f
       0.053323083 0.9985773 0.039994974 0.99919987
000380 1f b9 f5 3c 83 e2 7f 3f 47 47 b8 3c 6b ef 7f 3f
       0.0299955 0.99955004 0.022494925 0.999747
000390 c6 31 8a 3c ad f6 7f 3f 46 44 4f 3c c1 fa 7f 3f
       0.016869437 0.9998577 0.012650555 0.99991995
0003a0 0d 6e 1b 3c 0d fd 7f 3f 13 1d e9 3b 58 fe 7f 3f
       0.009486687 0.999955 0.0071140616 0.9999747
0003b0 a8 cf ae 3b 11 ff 7f 3f 13 17 83 3b 7a ff 7f 3f
       0.005334813 0.99998575 0.0040005534 0.999992
0003c0 92 9b 44 3b b5 ff 7f 3f 60 6f 13 3b d6 ff 7f 3f
       0.0029999954 0.9999955 0.0022496805 0.9999975
0003d0 17 1f dd 3a e8 ff 7f 3f 56 d1 a5 3a f3 ff 7f 3f
       0.0016870227 0.99999857 0.0012650888 0.9999992
0003e0 10 b1 78 3a f9 ff 7f 3f 09 7e 3a 3a fc ff 7f 3f
       0.00094868336 0.9999996 0.00071141176 0.99999976
0003f0 7e d9 0b 3a fe ff 7f 3f a4 be d1 39 ff ff 7f 3f
       0.0005334838 0.9999999 0.00040005625 0.99999994
