data/td_best_model.pt (torch, 930560 bytes, 57 tensors)

weight f4 [64, 10]
0	0xbe46388d	-0.1935751
1	0xbe265d3b	-0.16246502
2	0x3e010e25	0.12603052
3	0x3e5be51e	0.2147412
4	0xbe4d9b80	-0.2007885
5	0xbdca30d8	-0.098725975
6	0xbc90db9f	-0.017682848
7	0xbb917613	-0.0044391244
8	0xbb7cd7c9	-0.0038580766
9	0x3c2763e7	0.01021669
10	0xbe8193f6	-0.25308198
11	0xbdfd0a32	-0.1235546
12	0x3e1f5af8	0.15562046
13	0x3b83a16e	0.0040170467
14	0x3d38880e	0.045051627
15	0x3e8869bf	0.26643178
16	0xbdae3fce	-0.085082635
17	0xbdec2386	-0.11530213
18	0x3dacf4b7	0.08445113
19	0xbe7ba3f5	-0.24574263
20	0x3ca17414	0.01970867
21	0xbc8b861b	-0.01703172
22	0x3e3d35ed	0.18477602
23	0x3d34aa69	0.04410783
24	0x3dd19911	0.10234273
25	0x3e7f9c1f	0.24961899
26	0xbe62fdcd	-0.2216713
27	0xbd11cff6	-0.035598718
28	0xbe89a3bd	-0.26882735
29	0xbe4739f3	-0.194557
30	0xbdd6b08e	-0.10482894
31	0xbd594d93	-0.053052496
32	0xbafc766a	-0.0019261364
33	0xbe029e42	-0.12755683
34	0x3dc9c919	0.098528095
35	0xbe6046e2	-0.2190204
36	0xbe176d40	-0.1478777
37	0xbdb06b4f	-0.086142175
38	0xbcda620b	-0.026658079
39	0xbe898bb7	-0.26864406
40	0xbc15bb6d	-0.009138924
41	0x3e111b1a	0.14170495
42	0x3e431190	0.19049668
43	0xbcc84fe0	-0.02445215
44	0xbe366c65	-0.17814787
45	0x3e01d9ab	0.1268069
46	0xbe7e80ca	-0.24853817
47	0x3e4ea955	0.20181783
48	0x3dca5b79	0.09880728
49	0xbd8d93df	-0.0691297
50	0x3df5e324	0.12006214
51	0x3e55961d	0.20858045
52	0xbdc344e2	-0.09534623
53	0x3e45c223	0.19312339
54	0x3dc41717	0.095747165
55	0x3dabc2fe	0.08386801
56	0x3d048851	0.032356564
57	0xbd29866e	-0.041387968
58	0xbd356fb4	-0.04429598
59	0xbd9279b2	-0.07152118
60	0x3e18d3bb	0.14924519
61	0xbe106487	-0.14100848
62	0x3da8ef9b	0.08248826
63	0x3e0a9e1f	0.13536881
64	0x3e38069d	0.17971273
65	0xbe34798a	-0.17624488
66	0x3e4a8ff8	0.19781482
67	0xbdf7c86d	-0.12098775
68	0xbe5077cc	-0.20358199
69	0xbd18ff5f	-0.037352916
70	0x3e89004a	0.26758033
71	0x3e1cf034	0.15326005
72	0x3e85d6ff	0.26140592
73	0xbe3ca186	-0.18420991
74	0xbe413830	-0.1886909
75	0x3bdf1023	0.0068073436
76	0x3e515c89	0.20445456
77	0xbe2d4c4b	-0.16923635
78	0x3e86116b	0.26185164
79	0x3d73f0f1	0.05955595
80	0x3e5d9140	0.2163744
81	0xbe86289f	-0.26202866
82	0xbd8e5298	-0.06949347
83	0x3e4ba892	0.19888523
84	0xbe39a719	-0.18130149
85	0xbe481940	-0.19540882
86	0xbd11455e	-0.035466544
87	0xbe0026c0	-0.12514782
88	0xbe64966a	-0.22323003
89	0x3dd1f59e	0.10251926
90	0xbe3483f6	-0.17628464
91	0xbe864b58	-0.26229358
92	0x3e5606db	0.20901053
93	0xbe1c6eff	-0.15276717
94	0x3def5549	0.11686189
95	0x3e42166e	0.18953869
96	0x3be54062	0.0069962004
97	0x3bfe1720	0.0077542216
98	0x3d8f475d	0.06996033
99	0x3e6c79c1	0.2309332
100	0xbdc74895	-0.09730641
101	0xbd36d467	-0.044636156
102	0xbe3686cf	-0.17824863
103	0x3e45aa05	0.19303139
104	0xbe91085d	-0.28326693
105	0xbe345470	-0.17610335
106	0xbe25dcc8	-0.16197503
107	0x3cd9b0c8	0.026573554
108	0x3d8f0617	0.069835834
109	0x3c3d3bef	0.011549934
110	0xbd808268	-0.06274873
111	0x3d6d8208	0.057985336
112	0xbe51a2ff	-0.20472334
113	0x3e8d30c2	0.27576262
114	0x3e3f1e6b	0.18663947
115	0xbdd0a52c	-0.10187754
116	0x3ce952a8	0.028481796
117	0x3e527136	0.20550999
118	0xbe23a697	-0.15981518
119	0x3e2916fc	0.16512674
120	0x3d5ca579	0.053868745
121	0x3d0ac4b2	0.03387899
122	0xbe487125	-0.19574411
123	0x3d3f7521	0.046742562
124	0xbe680619	-0.22658576
125	0xbd49c920	-0.049264073
126	0xbdbf15ef	-0.093303554
127	0x3c4940d4	0.012283523
128	0x3dc70116	0.09717004
129	0xbe5dab98	-0.21647489
130	0xbe340499	-0.17579879
131	0xbd3f4660	-0.046697974
132	0x3e04dfdd	0.12976022
133	0xbdb37cfa	-0.08764072
134	0xbddddfb7	-0.10833686
135	0x3e576074	0.21032888
136	0x3e4eae72	0.20183733
137	0xbc82b73a	-0.01595651
138	0x3e8892ea	0.26674587
139	0xbe9052c9	-0.2818816
140	0xbe19d93e	-0.15024278
141	0xbd81f15c	-0.06344864
142	0xbd4f6a47	-0.050638463
143	0xbe6402ce	-0.22266695
144	0xbddccf05	-0.10781673
145	0xbd4515e3	-0.048116576
146	0x3dc51b8a	0.09624393
147	0xbe224c3e	-0.15849397
148	0xbde979c4	-0.11400178
149	0xbe8b81c8	-0.27247453
150	0xbd688602	-0.056768425
151	0x3e14660e	0.14492056
152	0x3dda4bcb	0.106589876
153	0xbe186028	-0.1488043
154	0x3e16af97	0.1471542
155	0xbda2b088	-0.07943827
156	0x3e5f94d3	0.21834116
157	0x3e483b63	0.19553904
158	0xbd857f28	-0.06518394
159	0x3da9e954	0.08296457
160	0x3e13c782	0.14431575
161	0x3e8e4e21	0.27793983
162	0x3d7d6337	0.061862197
163	0x3d907d32	0.07055129
164	0xbdad7b70	-0.084708095
165	0xbc467d94	-0.012114901
166	0x3e3ac312	0.18238476
167	0xbdce4014	-0.10070816
168	0xbcb8d635	-0.02256308
169	0xbde75c4b	-0.112969
170	0x3d135584	0.035970226
171	0xbe8fa8c2	-0.2805844
172	0x3d9c0745	0.07618574
173	0x3d3cd557	0.046101894
174	0xbe258072	-0.16162279
175	0x3e8038c3	0.25043306
176	0xbe57e1bf	-0.21082209
177	0xbd27fdbe	-0.04101347
178	0x3db4f8ca	0.08836515
179	0xbe8cb6ba	-0.2748316
180	0xbe19690e	-0.14981481
181	0x3c03776c	0.008024078
182	0x3db72a74	0.08943644
183	0x3e7e9965	0.24863203
184	0x3de14469	0.10999376
185	0xbe2ee0a1	-0.17077877
186	0xbdc63548	-0.09678131
187	0x3e545645	0.20736034
188	0xbe84e184	-0.25953305
189	0xbd891bee	-0.0669478
190	0xbe10657f	-0.14101218
191	0x3dd3becf	0.10339128
192	0x3dca716e	0.09884916
193	0x3db44492	0.08802141
194	0x3dba9cc0	0.09111929
195	0x3e03387c	0.12814516
196	0xbd8cd021	-0.06875635
197	0x3e7769cd	0.24161454
198	0xbc7ab6cd	-0.015302372
199	0xbe3ce6e4	-0.18447453
200	0xbe38b662	-0.18038324
201	0x3aaa3d43	0.0012988228
202	0xbe4202f3	-0.18946438
203	0xbe85d599	-0.26139525
204	0xbe4381a9	-0.1909243
205	0x3dc84c15	0.097801365
206	0x3d93c75f	0.072157614
207	0xbd8a50f8	-0.06753725
208	0x3e34e26c	0.17664498
209	0x3e11c788	0.14236271
210	0x3ddd5b8c	0.10808477
211	0x3df3784a	0.11888178
212	0x3e5663db	0.2093653
213	0xbd6bc799	-0.057563398
214	0x3e835f70	0.2565875
215	0xbe81787b	-0.25287232
216	0xbd9a92fe	-0.07547568
217	0x3e516428	0.20448363
218	0x3d35e631	0.04440898
219	0xbd4d4d83	-0.05012275
220	0x3d9d8e58	0.076931655
221	0x3d630b03	0.055430423
222	0xbe78abf3	-0.24284343
223	0xbe905c77	-0.28195545
224	0x3e6ece7f	0.2332096
225	0xbe7a3e01	-0.24437715
226	0x3e410c63	0.18852381
227	0xbdc7dd52	-0.097590104
228	0x3c8c33d2	0.017114554
229	0x3da01978	0.07817358
230	0xbe671c91	-0.22569491
231	0x3e601438	0.21882713
232	0xbe14830a	-0.14503112
233	0x3be09f3f	0.006854921
234	0xbe185520	-0.14876223
235	0xbe8f0b1c	-0.27938163
236	0x3d6170b1	0.05503911
237	0x3bfc779f	0.0077046896
238	0x3d58eedb	0.052962165
239	0x3e2807b4	0.16409189
240	0xbd7c24f8	-0.061558694
241	0xbe44f893	-0.19235449
242	0x3e385ec5	0.18004902
243	0x3e1d0044	0.15332133
244	0xbe651a0a	-0.22373214
245	0xbe635bfa	-0.22203055
246	0x3d8ea050	0.06964171
247	0x3e919d2b	0.28440222
248	0xbe7d2748	-0.24722016
249	0xbe80314c	-0.2503761
250	0x3e84732b	0.25869116
251	0xbe819fae	-0.25317138
252	0x3e860e72	0.26182896
253	0xbe2d633d	-0.16932388
254	0x3d81df26	0.0634139
255	0x3e2bbd0e	0.16771337

bias f4 [64]
0	0xbe7234d8	-0.23652971
1	0x3ddeacc3	0.108727954
2	0xbd794e7e	-0.06086587
3	0x3dc58cbd	0.09645984
4	0xbd5ebcfa	-0.05437944
5	0x3d2a9464	0.041645423
6	0x3dd41066	0.1035469
7	0xbe438004	-0.19091803
8	0x3c1e551d	0.009663847
9	0xbe5db4b6	-0.21650967
10	0xbdddb5ff	-0.108257286
11	0x3cf5ad4b	0.02998986
12	0x3da42efb	0.08016773
13	0x3e525d56	0.20543417
14	0xbe0402e6	-0.1289173
15	0x3e2a6760	0.16640997
16	0x3e7b1795	0.24520715
17	0x3dc2d33a	0.095129445
18	0x3e8d1725	0.2755672
19	0xbe8cb441	-0.27481273
20	0x3db81c38	0.08989757
21	0xbe8635c8	-0.26212907
22	0x3e4b05f6	0.19826493
23	0x3cdb7dde	0.026793417
24	0x3e0da95a	0.13834134
25	0x3e9f38aa	0.3109792
26	0x3e2bcb84	0.16776854
27	0x3e5a323c	0.21308225
28	0xbd9b4b24	-0.07582691
29	0xbc974cae	-0.01846918
30	0x3e4e8f4f	0.20171855
31	0xbe63b3e3	-0.2223659
32	0x3dddb75f	0.10825991
33	0xbcff4d2c	-0.031164728
34	0xbdaeadab	-0.08529218
35	0xbe10d55d	-0.14143892
36	0xbd5e1aa7	-0.054224636
37	0x3dddf2ed	0.1083735
38	0xbe9556fd	-0.2916793
39	0x3de2dfd3	0.11077847
40	0x3d8d0fef	0.06887805
41	0x3dc7f5f8	0.09763712
42	0x3d79273d	0.060828436
43	0x3e3d32bc	0.18476385
44	0x3e5d8a8b	0.21634881
45	0x3bbb52c1	0.005716652
46	0x3db6bba0	0.089225054
47	0x3dad6d93	0.08468165
48	0x3e7be315	0.24598344
49	0xbe361ec2	-0.1778517
50	0x3e46c566	0.19411239
51	0x3dc63880	0.09678745
52	0x3db98cca	0.090600565
53	0x3d9941af	0.07483231
54	0x3e64c2f0	0.22339988
55	0xbcdd3e64	-0.02700729
56	0xbdf61437	-0.120155744
57	0x3daf34b7	0.085549764
58	0xbdea00d4	-0.11425939
59	0xbe3fd6c4	-0.1873427
60	0x3e98e43b	0.29861626
61	0xbe9580f4	-0.29199946
62	0x3e5faba0	0.21842813
63	0x3e647d9f	0.22313546

pe f4 [1, 24, 64]
0	0x00000000	0.0
1	0x3f800000	1.0
2	0x00000000	0.0
3	0x3f800000	1.0
4	0x00000000	0.0
5	0x3f800000	1.0
6	0x00000000	0.0
7	0x3f800000	1.0
8	0x00000000	0.0
9	0x3f800000	1.0
10	0x00000000	0.0
11	0x3f800000	1.0
12	0x00000000	0.0
13	0x3f800000	1.0
14	0x00000000	0.0
15	0x3f800000	1.0
16	0x00000000	0.0
17	0x3f800000	1.0
18	0x00000000	0.0
19	0x3f800000	1.0
20	0x00000000	0.0
21	0x3f800000	1.0
22	0x00000000	0.0
23	0x3f800000	1.0
24	0x00000000	0.0
25	0x3f800000	1.0
26	0x00000000	0.0
27	0x3f800000	1.0
28	0x00000000	0.0
29	0x3f800000	1.0
30	0x00000000	0.0
31	0x3f800000	1.0
32	0x00000000	0.0
33	0x3f800000	1.0
34	0x00000000	0.0
35	0x3f800000	1.0
36	0x00000000	0.0
37	0x3f800000	1.0
38	0x00000000	0.0
39	0x3f800000	1.0
40	0x00000000	0.0
41	0x3f800000	1.0
42	0x00000000	0.0
43	0x3f800000	1.0
44	0x00000000	0.0
45	0x3f800000	1.0
46	0x00000000	0.0
47	0x3f800000	1.0
48	0x00000000	0.0
49	0x3f800000	1.0
50	0x00000000	0.0
51	0x3f800000	1.0
52	0x00000000	0.0
53	0x3f800000	1.0
54	0x00000000	0.0
55	0x3f800000	1.0
56	0x00000000	0.0
57	0x3f800000	1.0
58	0x00000000	0.0
59	0x3f800000	1.0
60	0x00000000	0.0
61	0x3f800000	1.0
62	0x00000000	0.0
63	0x3f800000	1.0
64	0x3f576aa4	0.84147096
65	0x3f0a5141	0.54030234
66	0x3f2e7ace	0.68156135
67	0x3f3b54b0	0.731761
68	0x3f087dba	0.53316844
69	0x3f58940d	0.8460091
70	0x3ed190f1	0.40930894
71	0x3f6992c6	0.91239583
72	0x3e9f393e	0.3109836
73	0x3f734e6b	0.9504153
74	0x3e708f25	0.23492105
75	0x3f78d5f1	0.9720145
76	0x3e35233a	0.17689219
77	0x3f7bf683	0.9842302
78	0x3e0825f3	0.13295726
79	0x3f7dba28	0.99112177
80	0x3dcc7576	0.099833414
81	0x3f7eb898	0.9950042
82	0x3d996f36	0.07491915
83	0x3f7f47d1	0.9971896
84	0x3d6636ae	0.05620449
85	0x3f7f9868	0.9984193
86	0x3d2cacfa	0.04215715
87	0x3f7fc5bd	0.999111
88	0x3d01815b	0.031617504
89	0x3f7fdf3c	0.99950004
90	0x3cc23ea5	0.023711512
91	0x3f7fed93	0.99971884
92	0x3c91ab42	0.017781857
93	0x3f7ff5a3	0.99984187
94	0x3c5a7a49	0.013334819
95	0x3f7ffa2c	0.99991107
96	0x3c23d657	0.009999833
97	0x3f7ffcb9	0.99995
98	0x3bf5b916	0.0074988706
99	0x3f7ffe28	0.99997187
100	0x3bb8445a	0.0056233825
101	0x3f7ffef7	0.9999842
102	0x3b8a2e5a	0.0042169513
103	0x3f7fff6b	0.9999911
104	0x3b4f3e1c	0.0031622713
105	0x3f7fffac	0.999995
106	0x3b1b6903	0.0023713715
107	0x3f7fffd1	0.9999972
108	0x3ae91520	0.0017782785
109	0x3f7fffe6	0.99999845
110	0x3aaec98b	0.0013335211
111	0x3f7ffff1	0.9999991
112	0x3a83126d	0.0009999998
113	0x3f7ffff8	0.9999995
114	0x3a449489	0.000749894
115	0x3f7ffffb	0.9999997
116	0x3a136a13	0.0005623411
117	0x3f7ffffd	0.9999998
118	0x39dd1721	0.00042169637
119	0x3f7fffff	0.99999994
120	0x39a5cb61	0.00031622782
121	0x3f7fffff	0.99999994
122	0x3978a80d	0.00023713727
123	0x3f800000	1.0
124	0x393a7753	0.00017782794
125	0x3f800000	1.0
126	0x390bd46d	0.00013335208
127	0x3f800000	1.0
128	0x3f68c7b7	0.9092974
129	0xbed51133	-0.41614684
130	0x3f7f5ad9	0.99748
131	0x3d914d53	0.070948265
132	0x3f66f20a	0.9021307
133	0x3edce8b2	0.43146282
134	0x3f3f3512	0.74690354
135	0x3f2a3902	0.66493237
136	0x3f17541b	0.5911271
137	0x3f4e7bec	0.8065784
138	0x3ee9d3b5	0.45669332
139	0x3f63be69	0.8896242
140	0x3eb247f6	0.34820527
141	0x3f6ffaa6	0.93741834
142	0x3e86f082	0.26355368
143	0x3f76f2f5	0.96464473
144	0x3e4b6ff8	0.19866931
145	0x3f7ae5a5	0.9800666
146	0x3e1900d3	0.1494172
147	0x3f7d204f	0.98877424
148	0x3de5d986	0.1122313
149	0x3f7e61f3	0.9936821
150	0x3dac85ae	0.08423935
151	0x3f7f170e	0.99644554
152	0x3d8170c8	0.063203394
153	0x3f7f7cf9	0.9980007
154	0x3d4230aa	0.04740969
155	0x3f7fb64e	0.9988755
156	0x3d11a55c	0.03555809
157	0x3f7fd68e	0.9993676
158	0x3cda7550	0.026667267
159	0x3f7fe8b1	0.99964434
160	0x3ca3d43e	0.019998666
161	0x3f7ff2e5	0.9998
162	0x3c75b751	0.014997319
163	0x3f7ff8a1	0.9998875
164	0x3c38439b	0.011246587
165	0x3f7ffbdb	0.99993676
166	0x3c0a2e0a	0.008433828
167	0x3f7ffdab	0.9999644
168	0x3bcf3dd8	0.006324511
169	0x3f7ffeb1	0.99998003
170	0x3b9b68e7	0.00474273
171	0x3f7fff43	0.99998873
172	0x3b691508	0.0035565514
173	0x3f7fff96	0.9999937
174	0x3b2ec980	0.0026670396
175	0x3f7fffc4	0.9999964
176	0x3b031268	0.0019999985
177	0x3f7fffdf	0.99999803
178	0x3ac49485	0.0014997876
179	0x3f7fffed	0.99999887
180	0x3a936a12	0.0011246821
181	0x3f7ffff5	0.99999934
182	0x3a5d171f	0.0008433926
183	0x3f7ffffa	0.99999964
184	0x3a25cb60	0.0006324556
185	0x3f7ffffd	0.9999998
186	0x39f8a80c	0.0004742745
187	0x3f7ffffe	0.9999999
188	0x39ba7753	0.00035565588
189	0x3f7fffff	0.99999994
190	0x398bd46d	0.00026670416
191	0x3f800000	1.0
192	0x3e1081c3	0.14112
193	0xbf7d7026	-0.9899925
194	0x3f473cde	0.7782725
195	0xbf20bfce	-0.6279267
196	0x3f7e45d7	0.9932532
197	0xbded7fab	-0.11596616
198	0x3f742163	0.95363444
199	0x3e9a1863	0.3009673
200	0x3f5009c2	0.8126489
201	0x3f152f58	0.58275366
202	0x3f2724b7	0.652904
203	0x3f41e7a2	0.7574407
204	0x3f022f6c	0.5085361
205	0x3f5c6d29	0.86104065
206	0x3ec768a7	0.3894703
207	0x3f6bc937	0.92103904
208	0x3e974e6c	0.2955202
209	0x3f7490ef	0.9553365
210	0x3e646de2	0.22307542
211	0x3f798c92	0.9748012
212	0x3e2beed7	0.16790329
213	0x3f7c5d9e	0.9858035
214	0x3e01332c	0.12617177
215	0x3f7df443	0.9920084
216	0x3dc1ffc0	0.094726086
217	0x3f7ed94f	0.99550337
218	0x3d919306	0.071081206
219	0x3f7f5a3a	0.9974705
220	0x3d5a694e	0.053323083
221	0x3f7fa2c3	0.9985773
222	0x3d23d1c5	0.039994974
223	0x3f7fcb90	0.99919987
224	0x3cf5b91f	0.0299955
225	0x3f7fe283	0.99955004
226	0x3cb84747	0.022494925
227	0x3f7fef6b	0.999747
228	0x3c8a31c6	0.016869437
229	0x3f7ff6ad	0.9998577
230	0x3c4f4446	0.012650555
231	0x3f7ffac1	0.99991995
232	0x3c1b6e0d	0.009486687
233	0x3f7ffd0d	0.999955
234	0x3be91d13	0.0071140616
235	0x3f7ffe58	0.9999747
236	0x3baecfa8	0.005334813
237	0x3f7fff11	0.99998575
238	0x3b831713	0.0040005534
239	0x3f7fff7a	0.999992
240	0x3b449b92	0.0029999954
241	0x3f7fffb5	0.9999955
242	0x3b136f60	0.0022496805
243	0x3f7fffd6	0.9999975
244	0x3add1f17	0.0016870227
245	0x3f7fffe8	0.99999857
246	0x3aa5d156	0.0012650888
247	0x3f7ffff3	0.9999992
248	0x3a78b110	0.00094868336
249	0x3f7ffff9	0.9999996
250	0x3a3a7e09	0.00071141176
251	0x3f7ffffc	0.99999976
252	0x3a0bd97e	0.0005334838
253	0x3f7ffffe	0.9999999
254	0x39d1bea4	0.00040005625
255	0x3f7fffff	0.99999994

in_proj_weight f4 [192, 64]
0	0x3cd8a459	0.026445555
1	0x3e151f4a	0.14562717
2	0x3d2e842b	0.042606514
3	0xbd1eba9b	-0.03875218
4	0x3d50f01a	0.05101023
5	0xbd3b82e1	-0.045779113
6	0xbd07a7c0	-0.033118963
7	0x3da92f06	0.08260922
8	0x3d10c57e	0.035344593
9	0xbd7396a0	-0.05946982
10	0x3d29a3d3	0.041416
11	0x3dcc1be1	0.09966255
12	0xbe16e719	-0.14736594
13	0x3e05cf43	0.13067345
14	0xbd029fbe	-0.031890623
15	0xbc373bd4	-0.011183698
16	0x3c6a3ee7	0.014297224
17	0xbd66dafc	-0.056361184
18	0xbd81ec90	-0.06343949
19	0xbd3b3432	-0.045704074
20	0xbd92c77b	-0.07166954
21	0x3d9d0914	0.07667747
22	0xbd50c5fe	-0.05097007
23	0xbca87c00	-0.02056694
24	0xbdd3f80c	-0.103500456
25	0xbdff1b24	-0.124563485
26	0x3e0b41bd	0.13599296
27	0xbc4fa52c	-0.012673657
28	0xbd804378	-0.06262869
29	0x3c47dfef	0.012199386
30	0xbd79866b	-0.060919207
31	0x3dd369b0	0.10322893
32	0xbe17fb4b	-0.14841954
33	0x3d727e13	0.059202265
34	0xbdb0ea0b	-0.0863839
35	0xbc583d45	-0.013198202
36	0x3e004cb6	0.12529263
37	0xbddc45df	-0.10755514
38	0xbd3686b9	-0.044562075
39	0xbd9003c6	-0.0703197
40	0x3dda41c7	0.10657077
41	0x3e19c7b5	0.15017588
42	0x3d5197f9	0.051170323
43	0x3df3f1bf	0.11911344
44	0xbe0691ec	-0.13141602
45	0xbd4fa563	-0.050694834
46	0x3d64609d	0.0557562
47	0x3dc44597	0.09583586
48	0xbd5c7d82	-0.05383063
49	0x3d5ba6c3	0.053625833
50	0x3e0feec9	0.14055933
51	0xbe128048	-0.14306748
52	0x3d690a7a	0.056894757
53	0xbc8466f3	-0.016162371
54	0xbc853786	-0.016261827
55	0xbe014362	-0.12623361
56	0x3d32709d	0.043564428
57	0xbe0616ee	-0.13094684
58	0x3d429582	0.047505863
59	0x3ddfdb61	0.10930515
60	0xbe1774ce	-0.14790651
61	0x3dde38d3	0.10850682
62	0x3dd8460d	0.10560236
63	0x3cd8548c	0.026407503
64	0xbd6ba298	-0.05752811
65	0x3de42598	0.11139983
66	0x3cf02d4f	0.02931848
67	0xbd9c3cd5	-0.0762879
68	0xbd8ee3d2	-0.06977047
69	0x3d8575d2	0.06516613
70	0xbdbdea5e	-0.092732176
71	0xbdf3a94c	-0.11897525
72	0xbd59fca9	-0.05321947
73	0xbd57b042	-0.052658327
74	0xbe02eb02	-0.12784961
75	0xbe0f8a91	-0.14017703
76	0xbd1018e8	-0.035180002
77	0x3dca6a87	0.098836
78	0x3d43231b	0.0476409
79	0xbdd0eaef	-0.1020106
80	0xbe0b7cb9	-0.13621797
81	0x3de8a144	0.11358884
82	0x3bbed9ce	0.005824304
83	0xbe0be1b3	-0.13660316
84	0xbd42e5f0	-0.047582567
85	0xbb83866c	-0.004013827
86	0xbe0771d0	-0.1322701
87	0x3e186dd1	0.14885642
88	0xbda908c4	-0.08253625
89	0x3c6d94b5	0.014500787
90	0x3db755d4	0.08951917
91	0xbd5fdb55	-0.05465253
92	0x3ddf146e	0.108925685
93	0x3e15a082	0.1461201
94	0xbe03c88d	-0.12869473
95	0x3e0448d6	0.1291841
96	0x3ae3d309	0.0017381619
97	0x3d248cbf	0.04017329
98	0xbe172011	-0.14758326
99	0xbcbffec5	-0.023436913
100	0xbdf05aef	-0.11736094
101	0xbda57997	-0.08079832
102	0xbd919ab4	-0.071095854
103	0x3c7dbd3b	0.015487011
104	0xbe188843	-0.1489573
105	0x3d8dc966	0.06923179
106	0x3d8ffff8	0.07031244
107	0xbd3ceaac	-0.046122238
108	0xbd903a9e	-0.0704243
109	0xbdea9856	-0.11454837
110	0xbd6c6a0f	-0.057718333
111	0xbd2e30a4	-0.042526856
112	0xbba6d0ec	-0.0050908234
113	0x3d13f62a	0.036123432
114	0x3e0dd7f4	0.13851911
115	0x3db7e8d0	0.08979952
116	0x3ddb4491	0.107064374
117	0x3d231286	0.039812587
118	0x3da71494	0.08158222
119	0x3df94b42	0.121725574
120	0xbd9412fd	-0.07230184
121	0x3d69f834	0.05712147
122	0x3db77b5e	0.08959077
123	0xbdfbd154	-0.122957855
124	0x3dbb2ee7	0.09139805
125	0xbbebb8a9	-0.007193644
126	0xbde87aca	-0.11351545
127	0x3ccf250d	0.025286222
128	0x3df9826a	0.12183078
129	0xbbe3346e	-0.0069337403
130	0xbe175092	-0.14776829
131	0x39d596d3	0.000407389
132	0x3e172c8a	0.14763084
133	0xbbf2251a	-0.0073896768
134	0xbdb9f5f2	-0.090801135
135	0xbd92f3e3	-0.07175424
136	0xbd57f689	-0.05272535
137	0x3da59957	0.08085888
138	0x3dbe5dae	0.09295212
139	0x3dfecf51	0.12441886
140	0xbd28c1fa	-0.041200615
141	0xbe01abc2	-0.12663177
142	0xbdad1d57	-0.08452862
143	0xbdc441c6	-0.09582858
144	0xbca96d77	-0.02068208
145	0x3d964fe8	0.0733946
146	0x3dcd42df	0.1002252
147	0x3dbf8fff	0.09353637
148	0xbddf7b22	-0.109121576
149	0x3dcbac1f	0.09944939
150	0xbdf3905b	-0.11892768
151	0x3b45af1a	0.0030164183
152	0xbd0087d5	-0.03137954
153	0x3d55534c	0.05208139
154	0x3d90a5c5	0.07062868
155	0xbda99356	-0.08280055
156	0xbdc757da	-0.09733553
157	0x3d8d6622	0.06904246
158	0xbd9a0177	-0.07519811
159	0xbd42b8ee	-0.047539644
160	0x3d44be62	0.048033126
161	0x3e1cea9d	0.15323873
162	0x3d7d2362	0.06180132
163	0x3db74163	0.089480184
164	0xbdbcf504	-0.092264205
165	0xbdbb4249	-0.09143502
166	0x3d6de5dd	0.058080543
167	0x3db7c73d	0.089735486
168	0x3d9f063f	0.07764863
169	0xbe0d6570	-0.13808227
170	0x3d39b555	0.045338947
171	0xbcad3cf5	-0.02114723
172	0x3da7a383	0.08185484
173	0xbdc0458e	-0.093882665
174	0x3d9bf222	0.076145425
175	0x3db1c100	0.0867939
176	0x3d282c31	0.04105777
177	0x3d8dd01b	0.069244586
178	0xbd3c36c3	-0.045950662
179	0xbdc4ab60	-0.09603
180	0xbbce053f	-0.0062872465
181	0x3c65fb30	0.014036939
182	0xbd91b679	-0.07114882
183	0xbb761d4a	-0.0037554079
184	0x3dae4219	0.08508701
185	0xbde2f851	-0.11082519
186	0xbdf1bf90	-0.11804116
187	0x3dfaec39	0.12252087
188	0x3d3f35a1	0.046682004
189	0xbdd18605	-0.1023064
190	0x3da75834	0.0817112
191	0xbd606397	-0.054782476
192	0xbd631f35	-0.055449683
193	0x3c50bbeb	0.012740116
194	0xbc4d983e	-0.012548504
195	0x3e03e2e0	0.12879515
196	0xbd445ea2	-0.04794181
197	0x3df947b9	0.12171883
198	0x3dd4d11b	0.10391446
199	0xbe0f8838	-0.14016807
200	0x3da3c608	0.07996756
201	0xbd8199e4	-0.063281804
202	0xbdd83903	-0.10557749
203	0xbe049ea2	-0.12951139
204	0xbbffab65	-0.0078024142
205	0x3c28baea	0.01029847
206	0x3dd009c2	0.10158111
207	0x3d900969	0.07033045
208	0x3d814c35	0.063133635
209	0xbdd87846	-0.10569815
210	0x3d9215c1	0.071330555
211	0xbdfa2bfd	-0.12215421
212	0x3dd7f198	0.10544127
213	0x3e03e40a	0.12879959
214	0xbe057640	-0.1303339
215	0x3df536bd	0.11973331
216	0xbd15c826	-0.03656783
217	0x3d03189e	0.0320059
218	0x3cff2df5	0.031149844
219	0xbdf1c0ee	-0.118043765
220	0xbda2da2b	-0.079517685
221	0xbe09f797	-0.13473354
222	0x3d59d755	0.053183872
223	0x3d5d7f3a	0.05407641
224	0x3c17f29f	0.009274154
225	0xbcda2b86	-0.026632082
226	0x3ded79c8	0.115954936
227	0xbcfe131e	-0.031014975
228	0x3d890f4e	0.06692372
229	0x3d2ad523	0.04170717
230	0x3cbece2b	0.023291668
231	0x3e01c44a	0.12672535
232	0x3e04cf49	0.12969698
233	0x3d5bad1b	0.053631883
234	0xbe138eb6	-0.14409909
235	0xbdfe364e	-0.124127015
236	0x3d3aebc8	0.045635015
237	0xbd7a2a50	-0.06107551
238	0xbdf4affc	-0.11947629
239	0xbd6a2158	-0.057160705
240	0xbdc83b59	-0.09776945
241	0x3ddd92a8	0.10818988
242	0xbacd1297	-0.0015645799
243	0x3e1882d9	0.14893664
244	0x3e0614b4	0.13093835
245	0x3d107e5c	0.035276756
246	0xbd341aa9	-0.043970738
247	0x3d8223d8	0.06354493
248	0xbb9fd43d	-0.0048775957
249	0x3d5ece9d	0.05439626
250	0xbbe0b586	-0.006857577
251	0xbcdd5908	-0.027019992
252	0x3d66d666	0.05635681
253	0x3d01cbab	0.031688374
254	0xbded3ae8	-0.11583501
255	0x3dd3a3a4	0.10333946

in_proj_bias f4 [192]
0	0x3b69a518	0.0035651382
1	0xbb637a4f	-0.0034710353
2	0xba44451f	-0.00074871065
3	0xbb3cb521	-0.0028794485
4	0x3b94beb3	0.0045393347
5	0xb9863dc3	-0.00025604488
6	0x3b6a17b3	0.0035719692
7	0x3aaa592d	0.0012996547
8	0x3a97c56e	0.0011579224
9	0x3b81b19b	0.00395794
10	0x3bc28ee8	0.005937446
11	0x3b575ed1	0.0032862911
12	0xbb9f7a0c	-0.004866844
13	0xbba34cb7	-0.0049835104
14	0x3ad54d42	0.0016273635
15	0x3ac0f4cc	0.0014721393
16	0xbc40ea02	-0.011774542
17	0x3ba30653	0.004975119
18	0x3bff08ae	0.007783017
19	0x39cd6f9a	0.00039183797
20	0xba91a941	-0.0011113064
21	0x3c18ed0b	0.009333859
22	0x3c8d9d21	0.017286839
23	0xbbd2ae7d	-0.006429492
24	0xbc0eb0b4	-0.0087091215
25	0x3c249509	0.010045298
26	0xbb3a89d7	-0.0028463507
27	0x3ae0a6b5	0.0017139526
28	0x3c0ec8e9	0.008714893
29	0xbb830b68	-0.0039991625
30	0xbc08cee6	-0.00835011
31	0xb9e6b1fa	-0.0004400162
32	0xbb86d4a1	-0.004114703
33	0x3b6c411d	0.0036049553
34	0x3ad0ce1a	0.0015930564
35	0xb885a47f	-6.372574e-05
36	0x3a93d011	0.0011277219
37	0x3bc20c82	0.005921901
38	0xbb645df3	-0.0034846037
39	0xbb3634d6	-0.0027802489
40	0xbbe8202c	-0.0070839133
41	0x3b11c9b7	0.0022245476
42	0x39300ae5	0.00016788726
43	0x3b8aaf24	0.004232304
44	0x3bc93dfd	0.006141423
45	0xba2b9c71	-0.0006546444
46	0x3b0282df	0.001991443
47	0xbb61c7da	-0.0034451396
48	0x3bb46e5a	0.005506319
49	0x3c447006	0.011989599
50	0x3bf3d512	0.0074411714
51	0xbaf0214e	-0.0018320472
52	0x3baea150	0.0053292885
53	0xbb0fe69f	-0.002195753
54	0x3c469c65	0.012122248
55	0xbb754ba6	-0.0037429123
56	0xbc6de6dc	-0.014520373
57	0xbc00048d	-0.007813585
58	0xba500432	-0.00079351955
59	0xbb30b51c	-0.0026963418
60	0xba900ace	-0.0010989548
61	0xb9e31741	-0.0004331414
62	0xbaea09de	-0.0017855724
63	0x3b963943	0.004584463
64	0xba23b6d8	-0.00062452024
65	0xba175b8b	-0.0005773834
66	0x3a2be46a	0.00065571687
67	0x381300db	3.5048328e-05
68	0x39f6545a	0.00046983623
69	0xb9f47de2	-0.00046633097
70	0x3a9c0a32	0.0011904894
71	0xba632db4	-0.0008666173
72	0x39a103c2	0.00030711113
73	0x3a862064	0.0010233042
74	0x38c1ee6c	9.247367e-05
75	0x3a7df9db	0.00096884154
76	0xb935c2ea	-0.00017334116
77	0x3aa7990a	0.0012786698
78	0x3a7fde03	0.00097605604
79	0xba055db6	-0.00050875114
80	0xbae1f180	-0.001723811
81	0x3aa2c3bf	0.0012417956
82	0x3a94868c	0.0011331602
83	0xbb1eb614	-0.0024217414
84	0xba9e324b	-0.0012069432
85	0x398f7074	0.0002735887
86	0x3a59b233	0.0008304447
87	0x3b15d0f8	0.002286015
88	0xb983811a	-0.00025082455
89	0x3a765128	0.00093962485
90	0xbb153301	-0.0022765996
91	0x3ac7b07c	0.0015235092
92	0xbae8908c	-0.0017743274
93	0x38e01db4	0.00010686685
94	0x3b41c1b6	0.0029564924
95	0x39ee1fc2	0.0004541856
96	0xba403bf3	-0.0007333152
97	0xbaa5c5a8	-0.0012647407
98	0xb9a3d522	-0.0003124858
99	0x39ee5031	0.00045454645
100	0xb7b6ba76	-2.1782918e-05
101	0xb981e837	-0.0002477781
102	0x3a8059e2	0.0009792412
103	0xb99ecb42	-0.00030287547
104	0x3a2af4fe	0.0006521492
105	0x3a38d5df	0.0007050912
106	0xbaa9244d	-0.0012904495
107	0x3a7b632c	0.0009589668
108	0x3a0398a5	0.0005019999
109	0xbab15f64	-0.0013532457
110	0xba6443fb	-0.00087076396
111	0x3b04db40	0.0020272285
112	0x3a361ec0	0.0006947331
113	0x39d391b9	0.00040353628
114	0x3a3309d2	0.00068297714
115	0xb934db12	-0.00017247748
116	0x3a004b3e	0.00048940245
117	0x3a574cbd	0.0008213034
118	0xb979f69b	-0.00023838358
119	0x3a55b65a	0.00081524777
120	0x3a1e6ad6	0.00060431415
121	0xb9eef8b3	-0.00045580193
122	0x361fa8dc	2.3791135e-06
123	0x3a372800	0.00069868565
124	0x3a165890	0.0005735243
125	0xb99c7ed1	-0.00029849124
126	0xb97cf89b	-0.00024125206
127	0xb535a0c8	-6.766172e-07
128	0x3b0957c5	0.0020956856
129	0xbbab2818	-0.0052232854
130	0x3935b727	0.00017329735
131	0x3a9ddb98	0.0012043593
132	0xbb0bda87	-0.002133997
133	0x3b8ad75b	0.004237098
134	0xbc1aa7f9	-0.009439462
135	0xbbc4a5a0	-0.0060011894
136	0xba14cb16	-0.0005676014
137	0x3c32e4da	0.01091882
138	0x3c030fe0	0.00799939
139	0xbb65ca8e	-0.003506336
140	0x3b50a059	0.0031833856
141	0xbaf88de8	-0.001896319
142	0xbb543197	-0.003237819
143	0xb93d08b0	-0.00018027681
144	0xb9f8be3b	-0.0004744398
145	0x3a07dccf	0.00051827444
146	0x3bcdd6d8	0.006281715
147	0xbbb793bc	-0.005602328
148	0x3ab04830	0.0013449248
149	0xba2e72b5	-0.0006654666
150	0xb8b77706	-8.74829e-05
151	0xbbcba454	-0.006214658
152	0xbc178fd0	-0.009250596
153	0x3bcb96f3	0.006213063
154	0x3ad2962c	0.0016066483
155	0x3c037098	0.00802245
156	0xbba2a0b3	-0.0049630045
157	0xbc11485f	-0.008867352
158	0xbad2ddba	-0.0016087808
159	0xbbe09d77	-0.006854709
160	0xbbcdb11e	-0.0062772175
161	0x3a357cbf	0.00069231907
162	0xbc0c640a	-0.008568773
163	0x3c005571	0.007832871
164	0x3baa2666	0.0051925657
165	0x3c18a309	0.009316214
166	0xba49337d	-0.0007675214
167	0xbaf1eec6	-0.0018458001
168	0x39b1e271	0.00033928783
169	0xbb801c9c	-0.0039096605
170	0x3b44ba42	0.0030018245
171	0x39a4ac16	0.00031408732
172	0x3bd2d526	0.0064341007
173	0x3a61b8b1	0.000861059
174	0x3b59b407	0.0033218877
175	0x3bc7f81f	0.0061025764
176	0xbb8f5c05	-0.0043749833
177	0xbb91885f	-0.0044413055
178	0x3b904db3	0.0044037937
179	0x3b308596	0.0026935092
180	0xba998941	-0.0011713878
181	0x3bd1caf7	0.006402369
182	0x3793de3b	1.762725e-05
183	0xbbdd6491	-0.006756373
184	0x39895932	0.00026197132
185	0x3b2e183e	0.0026564742
186	0xb887d01e	-6.4760665e-05
187	0xba5dc913	-0.00084604434
188	0x3bb90b0b	0.0056470684
189	0xbbb7a5d9	-0.0056044874
190	0xbbec87a1	-0.0072183167
191	0xbb9e15bc	-0.0048243683

weight f4 [64, 64]
0	0x3e1a1a1b	0.15049021
1	0xbe264db2	-0.16240576
2	0x3e3ee04a	0.18640247
3	0xbe59a135	-0.21252902
4	0xbe556305	-0.20838554
5	0xbd378c61	-0.04481161
6	0x3d71319b	0.058885198
7	0x3e064743	0.13113122
8	0xbe4f3207	-0.20233928
9	0xbe435ee8	-0.19079173
10	0x3e314a70	0.17313552
11	0xbd2a4c27	-0.04157653
12	0xbe53faaf	-0.20701097
13	0x3e524bbc	0.20536703
14	0x3d93b294	0.072117954
15	0x3d9cc227	0.07654219
16	0x3df67071	0.12033165
17	0xbdef1dd2	-0.1167561
18	0x3e4fadea	0.20281187
19	0x3a100795	0.0005494294
20	0xbd2f12b3	-0.042742442
21	0xbd0a1393	-0.033710074
22	0xbbe793b5	-0.0070671686
23	0xbe418c07	-0.18901072
24	0xbe3151bd	-0.17316337
25	0xbe297123	-0.16547064
26	0xbc351d65	-0.0110543715
27	0xbbf6a860	-0.007527396
28	0xbe35459a	-0.17702332
29	0x3e136f26	0.14397869
30	0x3d77d169	0.060502443
31	0x3d8cd343	0.068762325
32	0xbcb5e6c8	-0.022204772
33	0x3dacb37b	0.08432671
34	0x3de70666	0.11280517
35	0xbbb2a462	-0.005451725
36	0x3d806bc9	0.062705584
37	0xbd8a54fb	-0.0675449
38	0xbe160569	-0.14650501
39	0xbae32374	-0.0017329291
40	0x3d6c6785	0.05771591
41	0x3e20a45e	0.15687701
42	0xbdc06c3d	-0.09395645
43	0xbb5b1de5	-0.0033434567
44	0x3ddb00e4	0.10693529
45	0xbbe623ce	-0.007023311
46	0x3d466a30	0.048441112
47	0x3e5032f5	0.20331939
48	0xbc60c7ca	-0.013719508
49	0xbdf12c82	-0.11776067
50	0x3b30417b	0.0026894498
51	0x3defbffa	0.117065385
52	0x3e1c2395	0.15247948
53	0xbc0cd725	-0.008596216
54	0x3e0a847f	0.13527106
55	0xbdb840fd	-0.089967705
56	0xbdf92615	-0.12165467
57	0xbdfc447e	-0.12317751
58	0x3e184b0d	0.1487238
59	0x3db0a3d0	0.08624995
60	0x3d1d125d	0.03834759
61	0xbe277eb1	-0.16356923
62	0xbc4dfb73	-0.012572157
63	0x3dbf1c5c	0.09331581
64	0x3e401d89	0.18761267
65	0x3dd5ede1	0.104457624
66	0x3e13c490	0.14430451
67	0xbe0b924c	-0.13630027
68	0x3e323f64	0.17406994
69	0x3cc65238	0.024209127
70	0xbccee60a	-0.025256176
71	0xbd07205d	-0.03298985
72	0x3e524a17	0.20536076
73	0x3d55b78d	0.052177
74	0xbe4037ce	-0.18771288
75	0xbe044bae	-0.12919495
76	0x3e2aba01	0.16672517
77	0x3e205b21	0.15659763
78	0x3da3fb92	0.080069676
79	0x3e56c639	0.20974053
80	0xbe04bdf0	-0.1296308
81	0x3df1604f	0.117859475
82	0xbe5d5fea	-0.2161862
83	0xbe3aaf95	-0.18231042
84	0x3cb5d287	0.022195114
85	0xbdca15ed	-0.09867463
86	0x3e1a8553	0.15089922
87	0x3db1320c	0.08652124
88	0xbd21aa27	-0.03946891
89	0xbd9a7325	-0.07541493
90	0xbdd8682b	-0.105667435
91	0xbe4284f2	-0.18996027
92	0x3db21b10	0.08696568
93	0xbe0b5de6	-0.13610038
94	0x3dc754b6	0.09732954
95	0xbdd2244d	-0.1026083
96	0x3e1ba778	0.15200603
97	0xbd690aa4	-0.056894913
98	0xbd17f048	-0.037094384
99	0x3e0268be	0.12735268
100	0xbe368ed3	-0.1782792
101	0xbe3fb4f3	-0.1872137
102	0x3e50e130	0.20398402
103	0xbdab1364	-0.08353308
104	0xbe20cac3	-0.15702347
105	0xbe140cfc	-0.14458078
106	0xbc63340a	-0.013867388
107	0xbe5bb7e9	-0.21456875
108	0xbe0fdcd0	-0.14049077
109	0x3e0e08f3	0.13870601
110	0x3d362695	0.04447039
111	0x3cd1e758	0.025623009
112	0x3e213eff	0.15746687
113	0xbe312814	-0.17300445
114	0x3d8e6b1e	0.06954025
115	0x3e578c3b	0.21049587
116	0xbc6739c9	-0.014112898
117	0x3e1637d6	0.14669737
118	0x3e1c6d9a	0.15276185
119	0x3e1bbc98	0.15208662
120	0xbe1b3753	-0.15157823
121	0xbb87c325	-0.004143136
122	0xbc8d986c	-0.017284594
123	0x39eac1cb	0.00044776345
124	0xbd8f920a	-0.070102766
125	0xbdc0c38b	-0.09412297
126	0x3d968e08	0.07351309
127	0x3cc08dc3	0.023505097
128	0xbe4c17af	-0.1993091
129	0x3cfd553e	0.030924436
130	0xbe34815a	-0.17627469
131	0x3e40d776	0.18832192
132	0xbd40ef85	-0.047103424
133	0xbe430f70	-0.19048858
134	0x3e39a309	0.18128599
135	0x3d96e35a	0.073675826
136	0x3e114e6a	0.14190069
137	0xbe41c70f	-0.18923591
138	0x3e33e3f9	0.17567433
139	0xbe318532	-0.17335966
140	0x3e01d801	0.12680055
141	0xbc761561	-0.015019746
142	0x3dfc6f0a	0.123258665
143	0x3d16d1ae	0.03682106
144	0xbc95fa60	-0.018307865
145	0xbddf8ceb	-0.1091555
146	0x3d8f5efc	0.07000539
147	0x3e5cbade	0.21555659
148	0xbe1be4ac	-0.1522395
149	0xbe416b7d	-0.1888866
150	0x3cec3c47	0.028837336
151	0x3e284cee	0.16435596
152	0xbdcf75fe	-0.10129927
153	0xbe59eb7d	-0.21281238
154	0x3d6b9593	0.057515692
155	0xbe53fd22	-0.20702031
156	0xbdafa3ee	-0.08576189
157	0x3d02f8c5	0.031975526
158	0x3bba4f7e	0.0056857457
159	0x3e247988	0.16061985
160	0xbdc48e65	-0.09597472
161	0xbd8f1ed5	-0.069883026
162	0xbd985422	-0.07437922
163	0xbe427b91	-0.1899245
164	0xbdd8629a	-0.10565682
165	0xbe3d13c0	-0.18464565
166	0xbdbcb88f	-0.09214889
167	0xbdcddcfc	-0.10051915
168	0xbd984080	-0.074341774
169	0x3e1fefe3	0.15618853
170	0x3ccf9704	0.025340565
171	0x3e23ca43	0.15995125
172	0xbd72cde2	-0.059278376
173	0xbd93c820	-0.07215905
174	0xbc6a8c53	-0.014315682
175	0xbe166132	-0.14685515
176	0x3da5c5c4	0.080943614
177	0xbe434b9a	-0.19071808
178	0x3d08b768	0.033378035
179	0x3e27b8af	0.16379045
180	0x3d595a74	0.05306478
181	0x3e48007e	0.19531438
182	0xbe021316	-0.12702593
183	0xbe14691c	-0.14493221
184	0xbd8db3a5	-0.0691903
185	0xbe3a1a61	-0.18174125
186	0xbe46736e	-0.1937997
187	0x3dcf36c1	0.10117865
188	0xbe31cea2	-0.1736398
189	0xbe0a3859	-0.13498057
190	0x3ba932f8	0.0051635467
191	0xbde63e53	-0.11242356
192	0x3e45dd6f	0.19322751
193	0xbe2500c0	-0.16113567
194	0x3e1aea9b	0.15128557
195	0x3e1e626f	0.15467237
196	0x3d44c6f7	0.04804131
197	0x3d224a70	0.03962177
198	0xbdb99b60	-0.090628386
199	0xbb486a00	-0.003058076
200	0x3e182b17	0.14860187
201	0xbdb4ee40	-0.08834505
202	0x3e4d013d	0.20020004
203	0xbe334a7a	-0.1750888
204	0x3cd84545	0.026400218
205	0xbdbf827f	-0.09351062
206	0x3de7ad45	0.113123454
207	0xbdd94e42	-0.106106296
208	0x3e183ff7	0.1486815
209	0x3e0b2173	0.13586979
210	0xbd587749	-0.052848134
211	0xbe10a112	-0.14123943
212	0xbe15c375	-0.14625342
213	0xbccf4147	-0.025299681
214	0x3dd8f988	0.10594469
215	0xbd6edee0	-0.05831802
216	0x3db58e56	0.08865039
217	0xbde69dee	-0.112605914
218	0x3d3343a0	0.043765664
219	0xbe42a135	-0.19006808
220	0x3e44c443	0.19215493
221	0xbcd9b693	-0.026576316
222	0x3d4401ad	0.04785316
223	0xbe3806f1	-0.17971398
224	0xbe2a6ff2	-0.16644266
225	0x3c1aa412	0.0094385315
226	0xbd2206fe	-0.03955745
227	0xbe0cc6dd	-0.13747735
228	0xbe4e74b2	-0.20161703
229	0x3deedaf8	0.11662859
230	0x3d4f3a30	0.0505926
231	0xbdc57c55	-0.09642855
232	0x3e5ad9b4	0.2137211
233	0x3c532f1d	0.012889651
234	0xbe30f211	-0.17279841
235	0x3e0e2724	0.13882118
236	0x3cba28bd	0.022724504
237	0xbe232b16	-0.15934405
238	0xbe51220c	-0.20423144
239	0x3dafaed4	0.08578268
240	0xbcc83e03	-0.024443632
241	0xbbab674b	-0.0052308193
242	0x3dde0177	0.10840123
243	0xbda0b95b	-0.07847854
244	0x3e121ae4	0.1426807
245	0x3ca621d4	0.020279802
246	0xbe3bc269	-0.1833588
247	0x3dfad88f	0.122483365
248	0xbe253da2	-0.16136792
249	0x3e0224eb	0.12709396
250	0xbddb948b	-0.10721692
251	0x3d0f8747	0.03504112
252	0x3d05ecfd	0.032696713
253	0x3e357157	0.17719017
254	0x3dead78d	0.11466894
255	0xbe45c560	-0.19313574

bias f4 [64]
0	0xbbe7e513	-0.0070768683
1	0xb9794f91	-0.00023776131
2	0xbc317217	-0.010830424
3	0xbb77c381	-0.0037805738
4	0xbb836a26	-0.0040104566
5	0xba95cc42	-0.0011428671
6	0x3b9c75c9	0.0047747833
7	0xbc052f58	-0.008128963
8	0xbbb5f2d7	-0.0055526304
9	0xba72db99	-0.000926429
10	0x38b653a6	8.694017e-05
11	0xbb452f29	-0.0030087924
12	0xbacbee4f	-0.0015558692
13	0xba16ca31	-0.0005752175
14	0x3a5ae298	0.0008349805
15	0x3b14ce82	0.0022706096
16	0x3c239b4e	0.009985758
17	0x3a180450	0.00057989825
18	0x3ba373dc	0.0049881767
19	0xbb90fb72	-0.004424506
20	0x3b6beb91	0.0035998563
21	0xbb3a1200	-0.0028392076
22	0xbaa2617f	-0.0012388675
23	0xb9061ba8	-0.00012789539
24	0x3b1e3ff0	0.0024146996
25	0x3bd638e6	0.0065375445
26	0xbbaae85c	-0.0052156877
27	0x3bc92b5d	0.0061392025
28	0x3b56ea68	0.0032793526
29	0xbbcf090b	-0.0063182167
30	0x3b5c7f37	0.0033645162
31	0xbc03df71	-0.008048878
32	0xbb30ef77	-0.00269982
33	0xbb9a9140	-0.004717022
34	0xbb6ad69b	-0.0035833481
35	0xbbaa7fcb	-0.0052032224
36	0x3b3f8408	0.0029222984
37	0xbb5848ba	-0.0033002333
38	0xbc122b89	-0.008921512
39	0x3b2d89d9	0.0026479869
40	0xbba3576b	-0.0049847863
41	0x3c077fc4	0.008270208
42	0x3ba1a145	0.004932555
43	0x3b5af505	0.0033410203
44	0x3b4d8091	0.003135715
45	0x3c137b99	0.009001636
46	0x3b8b3a21	0.004248873
47	0xba301e7e	-0.0006718411
48	0x3bdb4ff1	0.0066928794
49	0x3bd15b8f	0.0063890885
50	0x3a71cad0	0.0009223642
51	0x3b16a39f	0.002298571
52	0xbb5ed6d3	-0.0034002557
53	0x3b9b11b2	0.004732334
54	0x3bce62a5	0.0062983804
55	0xbb9d2724	-0.0047959257
56	0xbbffcf09	-0.007806663
57	0x3bdb17f0	0.006686203
58	0xbbb3f740	-0.005492121
59	0x3bd8a81d	0.0066118375
60	0x3b083a8b	0.0020786847
61	0xb9a99185	-0.00032342612
62	0x3bc8011f	0.0061036493
63	0x3c33c278	0.010971658

weight f4 [256, 64]
0	0xbde03e83	-0.10949423
1	0x3ceff15a	0.02928989
2	0x3dc8b602	0.0980034
3	0xbd872654	-0.065991074
4	0xbdc7cbb2	-0.09755649
5	0x3da1e273	0.0790452
6	0xbe01990a	-0.12656036
7	0x3df45a75	0.11931316
8	0xbdc05051	-0.09390319
9	0x3dda8400	0.10669708
10	0xbdf856e0	-0.12125945
11	0x3d619e81	0.0550828
12	0xbdf19d81	-0.117976196
13	0x3d155ef2	0.0364675
14	0x3b18128d	0.0023204417
15	0xbdf01f26	-0.11724691
16	0xbd318bf6	-0.043346368
17	0xbce686db	-0.028140476
18	0xbdb8fedb	-0.09032985
19	0x3dc4c07b	0.09607025
20	0xbe002207	-0.1251298
21	0x3c475aff	0.012167691
22	0xbe096c51	-0.13420226
23	0x3d18c250	0.037294686
24	0x3dba5f33	0.09100189
25	0xbdd30609	-0.103038855
26	0x3d542690	0.05179459
27	0x3d6e4b8d	0.05817752
28	0x3d2cf3a8	0.042224556
29	0xbd345e87	-0.04403546
30	0x3d89d1f7	0.06729501
31	0x3c8962d6	0.016770761
32	0x3de35ae8	0.11101323
33	0x3d1cba73	0.03826375
34	0x3d8eada8	0.06966716
35	0xbc1a1f09	-0.009406813
36	0x3dc43bcd	0.095817186
37	0x3dd1bad9	0.102407165
38	0x3cff3218	0.031151816
39	0xbd8c8347	-0.06860977
40	0xbce012d3	-0.027352726
41	0xbdaf8715	-0.08570687
42	0x3c633fbf	0.013870179
43	0x3bea4d4f	0.007150329
44	0xbc74d449	-0.014943191
45	0x3dfdee07	0.12398916
46	0xbd651462	-0.05592764
47	0x3d5787a3	0.052619588
48	0xbdc38e47	-0.095486216
49	0x3ca4c2a0	0.020112336
50	0xbd89fbc7	-0.06737476
51	0xbc7bf34f	-0.0153778335
52	0xbcc4ebec	-0.024038278
53	0x3dfe9583	0.12430861
54	0x3c047230	0.008083865
55	0x3bdcb16f	0.006735019
56	0x3d5375dc	0.05162607
57	0x3de92c61	0.11385418
58	0x3e131311	0.14362742
59	0x3e061864	0.13095242
60	0xbe0299d5	-0.12753995
61	0x3d0db25e	0.034593932
62	0xbdd41eb1	-0.103574164
63	0x3cc1f12c	0.02367457
64	0x3da59c07	0.080864005
65	0xbdd1e0b3	-0.10247936
66	0xbe01726d	-0.12641306
67	0xbcff2ac2	-0.031148318
68	0xbdb03ffb	-0.08605953
69	0x3dbb94e2	0.091592565
70	0x3dff8131	0.12475813
71	0xbc0786dd	-0.0082719
72	0x3d53f88c	0.051750705
73	0xbdaf1a2a	-0.08549912
74	0x3dc429e3	0.09578302
75	0xbccf235e	-0.02528542
76	0xbdd37363	-0.10324743
77	0x3cfd7fd1	0.030944737
78	0xbcd5123b	-0.02600967
79	0xbd4d7a8e	-0.050165705
80	0x3df33f0c	0.118772596
81	0xbda636ab	-0.08115896
82	0x3d050d5b	0.03248344
83	0x3d980ee4	0.07424715
84	0xbdd7fdf6	-0.10546486
85	0xbc7b906c	-0.015354257
86	0xbcb0c415	-0.021577874
87	0xbbcc3d28	-0.0062328763
88	0xbe0f2b9a	-0.13981476
89	0xbdb21f6a	-0.08697398
90	0xbd298e72	-0.041395612
91	0xbc770120	-0.015075952
92	0xbc4e1bca	-0.012579868
93	0x3db249cb	0.08705481
94	0xbd2f808e	-0.04284721
95	0xbcb09223	-0.021554058
96	0x3d7f7823	0.06237043
97	0x3d9165d9	0.07099504
98	0xbda53150	-0.08066046
99	0x3d6c8ffc	0.0577545
100	0x3db3aea8	0.087735474
101	0x3d554658	0.05206904
102	0xbc7284d9	-0.014802181
103	0xbdf64911	-0.12025655
104	0x3c2833fa	0.010266298
105	0xbcf80ab3	-0.03027854
106	0xbda60cd7	-0.08107918
107	0xbdf41b22	-0.11919238
108	0x3dfbf734	0.1230301
109	0xbc596a59	-0.013269984
110	0xbde13127	-0.10995703
111	0xbd2e26ae	-0.042517357
112	0xbd788384	-0.060672298
113	0xbd9083ac	-0.070563644
114	0x3d9ed157	0.07754772
115	0x3d10561e	0.035238378
116	0x3d55e638	0.052221507
117	0xbd5545ab	-0.052068394
118	0x3d032c22	0.03202451
119	0xbce6f959	-0.02819507
120	0xbc681a5a	-0.014166439
121	0xbe070508	-0.13185513
122	0xbdc0ff03	-0.094236396
123	0xbe03252b	-0.12807147
124	0xbdc35dcb	-0.09539374
125	0xbd2d4445	-0.042301435
126	0x3dbe7a0d	0.09300623
127	0x3dc93aee	0.09825693
128	0xbda8a838	-0.0823521
129	0xbdacf3a2	-0.08444907
130	0x3d507841	0.050895933
131	0x3d5735e0	0.052541614
132	0x3dda9ede	0.10674833
133	0x3d5f3af5	0.054499585
134	0xbd9795b5	-0.07401601
135	0x3d8d14e4	0.0688875
136	0xbbbc6996	-0.0057498915
137	0xbd475488	-0.0486646
138	0xbdd2d77c	-0.10295007
139	0xbd384bfb	-0.044994336
140	0x3dabd532	0.08390273
141	0x3d71d04b	0.059036534
142	0x3bf51dde	0.007480367
143	0xbd596857	-0.05307802
144	0x3df9efa6	0.122039124
145	0x3a1b4f71	0.00059246185
146	0x3df136fe	0.11778067
147	0xba95deae	-0.0011434162
148	0x3cf1f788	0.029536977
149	0x3c52ea6e	0.012873275
150	0xbdca8d76	-0.09890263
151	0x3cd9a9bf	0.026570199
152	0x3d8d40a8	0.06897098
153	0xbceb2280	-0.028702974
154	0x3ddffff5	0.10937492
155	0x3d22d792	0.039756365
156	0x3dcf7d0b	0.10131272
157	0x3d36f7b8	0.044669837
158	0xbd12f5f9	-0.03587911
159	0xbbbf9a4f	-0.0058472524
160	0x3e045f18	0.129269
161	0xbcc75d3a	-0.024336446
162	0x3d50e342	0.05099798
163	0x3d9a6e07	0.07540517
164	0x3d6e7952	0.05822117
165	0xbdaddf11	-0.08489812
166	0x3cd0fff8	0.02551268
167	0x3ccdab2e	0.025106039
168	0x3dc8b35d	0.09799836
169	0x3d10c131	0.03534049
170	0xbe061c5c	-0.13096756
171	0x3de4736d	0.11154828
172	0xbd5810c5	-0.052750368
173	0x3da776d4	0.081769615
174	0xbdb884a3	-0.090096734
175	0xbde5a560	-0.112131834
176	0x3d85b377	0.06528371
177	0x3df1167f	0.11771869
178	0xbc801054	-0.015632786
179	0x3de9dcbd	0.114190556
180	0x3bb9bb15	0.005668054
181	0xbbd02d45	-0.006353053
182	0xbdde2505	-0.10846905
183	0x3d2ba591	0.041905943
184	0x3dbbb82d	0.09165988
185	0xbd01597c	-0.03157948
186	0xbe04821b	-0.12940256
187	0x3df2fa70	0.118641734
188	0x3d445b8d	0.047938872
189	0x3c0a7072	0.008449661
190	0xbb730b34	-0.0037085535
191	0x3d7e69ba	0.062112547
192	0xbde8628b	-0.113469206
193	0xbca953c8	-0.020669833
194	0xbe04d9dd	-0.12973733
195	0x3d077803	0.033073436
196	0x3e07cea8	0.13262427
197	0xbdc4f22c	-0.09616503
198	0xbe07b98a	-0.13254371
199	0x3ddcf741	0.107893474
200	0x3dbf39f4	0.093372256
201	0xbbe7c8c8	-0.0070734955
202	0xbd09cee8	-0.033644587
203	0xbd48d278	-0.049028844
204	0x3d35a6f3	0.04434867
205	0x3e05bcf2	0.13060358
206	0xbd352546	-0.044225
207	0x3d8e1546	0.06937651
208	0xbddc2ddf	-0.10750937
209	0x3baab44e	0.0052094823
210	0x3d34637c	0.04404019
211	0xbbacdfac	-0.005275687
212	0xbe004d55	-0.125295
213	0xbdbce069	-0.0922249
214	0xbcd3b2ba	-0.02584206
215	0xbdbb8396	-0.091559574
216	0x3d53c403	0.051700603
217	0xbd8fd894	-0.07023731
218	0x3c3dd8f0	0.011587366
219	0xbdede30c	-0.116155714
220	0xbcc6ec29	-0.024282532
221	0x3d8499e7	0.06474667
222	0xbd67eb75	-0.056621034
223	0xbd73715d	-0.059434284
224	0x3d5d8933	0.05408592
225	0xbb3cd041	-0.0028810652
226	0x3d427334	0.047473148
227	0xbcb8846c	-0.022524081
228	0xbdebaf62	-0.11508061
229	0xbd9ca575	-0.07648746
230	0xbe09b578	-0.13448131
231	0x3d820f77	0.06350606
232	0xbc7ab4d9	-0.0153019065
233	0xbdc29602	-0.09501268
234	0x3de0e091	0.10980333
235	0x3deebece	0.11657487
236	0xbe02dbb7	-0.12779127
237	0x3e0c079f	0.13674782
238	0xbdbdf34c	-0.09274921
239	0x3da8851d	0.08228514
240	0x3b67138f	0.003525946
241	0x3df18802	0.117935196
242	0xbdf8fe18	-0.121578395
243	0xbd1b65b0	-0.037938774
244	0x3df9b62c	0.1219295
245	0x3cb0d7a6	0.021587204
246	0xbdb13154	-0.08651987
247	0xbdaa99d9	-0.08330125
248	0x3be3c1e7	0.006950605
249	0xbd39d696	-0.04537066
250	0xbd11b64b	-0.03557424
251	0xb9ff76fa	-0.00048726035
252	0xbdfa3943	-0.12217953
253	0xbdc55eed	-0.09637246
254	0x3df8e116	0.12152307
255	0xbdeeaada	-0.11653681

bias f4 [256]
0	0x3df7b0f9	0.12094302
1	0x3df569a6	0.119830415
2	0xbdba03d3	-0.09082761
3	0x3d9af237	0.0756573
4	0x3d2e9f7f	0.042632576
5	0xbdff4f51	-0.124663
6	0x3db03859	0.086044975
7	0x3d5bbe33	0.053648185
8	0x3dad10f3	0.084504984
9	0x3cbf8862	0.023380462
10	0xbd2da475	-0.042393167
11	0xbc381c81	-0.011237265
12	0x3d51ee6d	0.05125277
13	0x3db41b55	0.08794276
14	0xbbbf6777	-0.0058411914
15	0xbd8169a8	-0.063189805
16	0x3dabda0f	0.08391201
17	0x3d8455fc	0.06461713
18	0x3d942c70	0.07235038
19	0x3da00709	0.07813842
20	0xbdae5f82	-0.085143104
21	0x3d7a2053	0.061065983
22	0xbd7695ed	-0.060201574
23	0x3dfe192f	0.12407147
24	0x3c80e76b	0.015735349
25	0x3dd36a6c	0.10323033
26	0x3ce4bb2f	0.027921287
27	0xbdd0ef93	-0.10201945
28	0xbda05e50	-0.07830489
29	0xbca4be7a	-0.020110358
30	0xbd169073	-0.03675885
31	0x3df0ae74	0.11752024
32	0xbde93832	-0.113876715
33	0xbdb7e164	-0.08978537
34	0xbd479f26	-0.04873576
35	0x3dd00cad	0.10158668
36	0xbbad7d9f	-0.005294516
37	0xbdc3bff5	-0.09558097
38	0xbdbff512	-0.09372915
39	0x3d44303a	0.047897555
40	0xbded28e9	-0.115800686
41	0x3da866aa	0.082227066
42	0x3df0c7f4	0.11756888
43	0x3a1180ab	0.0005550484
44	0x3d602ffa	0.054733254
45	0x3bd5e6e4	0.0065277684
46	0xbcf34550	-0.029696137
47	0x3cc985d8	0.024599954
48	0xbabfc5b4	-0.0014631064
49	0x3deb53b9	0.11490578
50	0x3c690f43	0.01422483
51	0x3dd9678e	0.106154546
52	0x3d04430d	0.032290507
53	0x3b9a3b18	0.0047067516
54	0x3e045fb7	0.12927137
55	0x3c2c393d	0.010511694
56	0xbd906a84	-0.07051566
57	0x3d3ff64d	0.04686575
58	0x3d9ed3b1	0.07755221
59	0xbde942d3	-0.11389699
60	0xbd6430d3	-0.055710625
61	0x3c0513b5	0.008122374
62	0x3db42b92	0.08797373
63	0x3dab77b7	0.08372443
64	0xbda5827b	-0.08081528
65	0x3deb2035	0.114807524
66	0x3cf957a8	0.030437306
67	0xbdbd769e	-0.0925114
68	0xbcf005d9	-0.029299663
69	0x3cba14c5	0.022714982
70	0xbd24e958	-0.040261596
71	0x3df6e9bb	0.12056299
72	0x3dd2089f	0.102555506
73	0xbd1fe55b	-0.03903709
74	0x3d5640c3	0.052307855
75	0xbd9e0a64	-0.077168256
76	0xbdcaa033	-0.09893837
77	0x3d5a4d75	0.053296525
78	0xba517f11	-0.00079916517
79	0xbc63857b	-0.013886805
80	0xbba810d1	-0.005128958
81	0x3db8f6da	0.09031458
82	0x3da540c0	0.08068991
83	0xbd5a2925	-0.053261895
84	0xbda59038	-0.08084148
85	0x3db266b9	0.08710999
86	0x3d13b3a3	0.036059987
87	0x3dbbdd48	0.091730654
88	0xbbd3f589	-0.006468479
89	0x3c821e94	0.015883721
90	0xbde88a46	-0.113544986
91	0x3d67050d	0.0564013
92	0x3d1a1df2	0.037626214
93	0xbdc5db77	-0.09661
94	0xbd57983d	-0.05263542
95	0x3c2db77e	0.01060283
96	0xbc912d1c	-0.017721705
97	0xbdf5b403	-0.11997225
98	0xbdea1ca2	-0.114312425
99	0x3d96ed01	0.07369424
100	0x3c5ba55f	0.013406127
101	0x3d30508f	0.043045577
102	0xbc61a1e3	-0.013771507
103	0x3cee8e59	0.029120611
104	0x3d3fa2d3	0.04678614
105	0xbdf9e1ae	-0.12201248
106	0xbdfc7272	-0.12326516
107	0xbdbac089	-0.091187544
108	0xbd902214	-0.0703775
109	0xbd5df0c6	-0.054184698
110	0x3de1ed9f	0.11031651
111	0x3c5c9dcd	0.013465357
112	0x3de669bf	0.11250638
113	0xbdd8dfa9	-0.10589535
114	0x3cf35024	0.0297013
115	0xbd9b274b	-0.07575854
116	0xbbc614af	-0.006044946
117	0xbdd1c7c2	-0.10243179
118	0x39a89447	0.00032153932
119	0x3ce17805	0.02752305
120	0x3e0284f9	0.12746038
121	0xbd283088	-0.041061908
122	0x3d9d7ea8	0.076901734
123	0xbca7ac47	-0.02046789
124	0x3dc5e3a2	0.09662558
125	0x3dd3750d	0.1032506
126	0xbd7a2a50	-0.06107551
127	0x3d579e38	0.052641124
128	0xbd631479	-0.055439446
129	0x3d44c681	0.04804087
130	0xbdcf667f	-0.101269715
131	0xbd85df1e	-0.06536697
132	0x3cc190e2	0.023628656
133	0x3ddd802a	0.10815461
134	0x3ca9eebe	0.020743724
135	0xbdaba7ef	-0.0838164
136	0x3bcb860f	0.0062110494
137	0xbd77b796	-0.060477816
138	0x3da43f4d	0.08019886
139	0xbd9d327e	-0.07675646
140	0xbdb75b16	-0.0895292
141	0xbc714423	-0.014725718
142	0x3d3200bf	0.043457743
143	0xbde4c132	-0.111696616
144	0x3dca7158	0.098849
145	0x3ddf45a2	0.10901953
146	0x3d555713	0.052084994
147	0xbd0bcc14	-0.03413017
148	0x3d9a0284	0.07520011
149	0x3d01441f	0.031559106
150	0xbd68074a	-0.056647576
151	0xbdae4ea2	-0.08511092
152	0xbdb1792f	-0.08665692
153	0xbd9a7d0a	-0.075433806
154	0xbdb4bdbc	-0.088252515
155	0x3c5bf8d0	0.013426021
156	0xbc9675ef	-0.018366782
157	0xbc9458d1	-0.018108757
158	0x3d393bf7	0.045223203
159	0xbb4de92a	-0.0031419494
160	0x3d9156fd	0.0709667
161	0xbc9bc67d	-0.019015545
162	0xbbc64f98	-0.006051969
163	0x3ced75d3	0.028986847
164	0xbc34fc9c	-0.011046555
165	0xbcda4adb	-0.026647022
166	0x3dce6b5f	0.10079073
167	0xbc406a19	-0.011744046
168	0xbdbfdb2a	-0.09367974
169	0x3ca8d1c8	0.020607844
170	0x3d0f7f24	0.03503336
171	0xbdb0358b	-0.086039625
172	0xbde7dcf4	-0.1132144
173	0xbdc25463	-0.09488752
174	0x3dc66f15	0.09689156
175	0xbd8e6978	-0.0695371
176	0xbd461969	-0.048364077
177	0x3c9b6e4a	0.018973488
178	0x3dc05017	0.09390276
179	0x3dfcec60	0.123497725
180	0x3db71591	0.0893966
181	0x3cf6afee	0.030113187
182	0xbccb1549	-0.024790423
183	0xbc08ef19	-0.008357787
184	0x3c85fd5c	0.016356163
185	0x3cc7036f	0.02429363
186	0x3d290fc8	0.041274816
187	0xbdafec95	-0.08590046
188	0x3de0ca3b	0.109760724
189	0x3d7894ec	0.060688898
190	0xbaaaf84c	-0.0013043969
191	0xbdaad5ea	-0.08341582
192	0xbb80a352	-0.0039257193
193	0xbd88ef20	-0.066862345
194	0x3da36607	0.079784445
195	0x3d46c932	0.04853172
196	0xbc9a5a95	-0.018842021
197	0xbd678512	-0.05652339
198	0xbd5c8f4f	-0.053847607
199	0x3d60d082	0.05488635
200	0x3ddbd595	0.10734097
201	0x3dd7017c	0.1049833
202	0x3d4c2c05	0.049846668
203	0x3d96ea91	0.07368959
204	0x3d682fc3	0.056686174
205	0xbdf58f68	-0.11990243
206	0xbd9a72fb	-0.07541462
207	0x3c80a654	0.015704311
208	0xbdd74b8e	-0.10512458
209	0x3deea3e9	0.11652357
210	0xbd91cdca	-0.07119329
211	0x3d285933	0.041100692
212	0xbdc4b39f	-0.096045725
213	0x3c39abc6	0.011332458
214	0xbbba09ba	-0.005677429
215	0xbcf0e6c9	-0.029406922
216	0x3d90df77	0.070738725
217	0xbd301140	-0.0429852
218	0x3c9da949	0.01924576
219	0xba883380	-0.0010391325
220	0xbdee2507	-0.11628156
221	0x3d8b04ba	0.06788011
222	0xbd911c28	-0.070854485
223	0xbc0bb2ec	-0.008526545
224	0xbdbc01ca	-0.09180029
225	0xbd358e87	-0.044325378
226	0x3d8f32ef	0.06992137
227	0x3cfbad2a	0.03072222
228	0xbbcd38b2	-0.006262862
229	0xbd860bab	-0.06545194
230	0xbc0695cc	-0.008214425
231	0xbce18a0f	-0.027531652
232	0xbd768a70	-0.060190618
233	0x3d86a343	0.065741085
234	0x3c5166ad	0.0127808275
235	0x3d21af53	0.039473843
236	0x3dbc7378	0.092017114
237	0x3cb80cef	0.022467105
238	0x3b1bf5d2	0.0023797643
239	0x3cc9a99e	0.024617013
240	0xbdd00dc8	-0.101588786
241	0xbcb93933	-0.022610283
242	0xbdcf515c	-0.1012294
243	0x3c798ee5	0.015231823
244	0xbe03f6f4	-0.12887174
245	0xbcd8bfc1	-0.026458623
246	0x3c3c8f90	0.011508837
247	0xbc47b4e7	-0.012189127
248	0xbcb53482	-0.022119764
249	0x3ddb8a89	0.10719783
250	0xbdbbf78e	-0.09178077
251	0xbd022eb4	-0.03178282
252	0xbb4fced4	-0.0031708973
253	0x3d93c7ca	0.07215841
254	0xbc40cf2b	-0.011768143
255	0xbde2b231	-0.110691436
