data/td_best_model.pt (torch, 524216 bytes, 33 tensors)

weight f4 [64, 10]
0	0xbd84de8c	-0.0648776
1	0xbe7fd039	-0.24981774
2	0xbe74473f	-0.23855303
3	0xbe65c988	-0.2244016
4	0xbd7289bc	-0.059213385
5	0x3e681774	0.22665197
6	0xbe1741cc	-0.14771193
7	0xbd1c20a5	-0.03811707
8	0x3e8cda27	0.27510187
9	0x3e63168b	0.22176568
10	0x3e754f52	0.2395604
11	0xbd955955	-0.07292429
12	0x3da6becd	0.08141861
13	0xbdcb5c67	-0.09929734
14	0x3e248c5e	0.16069171
15	0x3e312452	0.17299011
16	0x3e788b06	0.24271783
17	0x3b67ca73	0.0035368472
18	0x3e1dab6b	0.15397422
19	0xbe2d4fd7	-0.16924988
20	0x3e07d91b	0.13266413
21	0x3de5f4db	0.11228343
22	0xbccb6bbc	-0.024831645
23	0xbe0c2c38	-0.13688743
24	0x3e533013	0.20623808
25	0xbe1b11af	-0.15143465
26	0xbe79f589	-0.2441007
27	0x3e3ac107	0.18237697
28	0xbe75403f	-0.23950289
29	0x3d076e6e	0.0330643
30	0x3d7cf526	0.06175723
31	0xbe46ddf6	-0.19420609
32	0xbe08dccc	-0.13365477
33	0x3ca90a77	0.020634873
34	0x3d051572	0.032491155
35	0xbe689764	-0.22714001
36	0xbe8c0029	-0.27343872
37	0x3cf33052	0.029686127
38	0xbe04bf7b	-0.12963669
39	0x3e5af168	0.21381152
40	0xbe2a55b8	-0.16634262
41	0xbe2f3c7f	-0.17112921
42	0xbd7c2be3	-0.06156529
43	0x3e294f32	0.16534117
44	0xbe4692fe	-0.1939201
45	0xbe18e035	-0.14929278
46	0x3e8703b2	0.26370007
47	0xbe5c9bd7	-0.21543823
48	0x3d157a05	0.03649332
49	0xbe643360	-0.22285223
50	0x3e2f92cc	0.17145842
51	0xbe407eac	-0.18798321
52	0x3d59786a	0.05309335
53	0x3e526caf	0.20549272
54	0x3dfd1bd2	0.12358822
55	0xbe80aa7c	-0.2513007
56	0xbd7d9766	-0.061911963
57	0xbe0ffe01	-0.14061739
58	0xbd12416a	-0.035706915
59	0xbe0ef51d	-0.13960691
60	0x3e02af76	0.12762246
61	0x3e6eae6e	0.23308727
62	0xbe79905b	-0.24371473
63	0x3e7e17a3	0.24813704
64	0x3cf1430c	0.029450916
65	0x3e761628	0.2403189
66	0x3e56845c	0.20948929
67	0x3e66eb45	0.22550686
68	0xbe889e91	-0.26683477
69	0xbe42c936	-0.19022068
70	0x3e063275	0.13105185
71	0x3dec6170	0.11542022
72	0x3ddd0cbc	0.107934445
73	0x3e781edd	0.24230523
74	0x3df807ad	0.12110839
75	0x3e260dbf	0.16216181
76	0xbdadc9db	-0.084857665
77	0x3e1c5d77	0.15270029
78	0x3e47a681	0.1949711
79	0x3e813970	0.25239134
80	0xbe11c377	-0.1423472
81	0xbe4a0782	-0.19729427
82	0xbdec7932	-0.11546554
83	0x3dc20cd8	0.09475106
84	0x3d96deea	0.07366736
85	0xbe32cd24	-0.17461067
86	0x3e4801ac	0.19531888
87	0x3c82aea5	0.015952418
88	0x3e4d3048	0.20037949
89	0xbda8fe33	-0.0825161
90	0xbdb0a6cf	-0.08625566
91	0xbd52f90d	-0.051507045
92	0xbd7ff9ad	-0.06249397
93	0xbe134dfb	-0.14385216
94	0x3e819175	0.25306287
95	0x3dc6505b	0.09683295
96	0xbe0a308e	-0.13495085
97	0x3e31ef39	0.17376412
98	0x3e82e293	0.25563487
99	0x3dfbc2c9	0.12293012
100	0xbc7975a3	-0.015225801
101	0xbe11d36a	-0.14240804
102	0xbe4bc3d1	-0.19898917
103	0xbdabb463	-0.083840154
104	0xbdbd98af	-0.09257638
105	0xbe80eb49	-0.25179508
106	0xbd529192	-0.051408358
107	0x3e8eabdb	0.2786549
108	0x3e464e99	0.1936592
109	0x3d96264b	0.073315226
110	0xbe621b84	-0.22080809
111	0xbe729cbb	-0.236926
112	0xbe299826	-0.16561946
113	0x3e195921	0.14975406
114	0x3dfd6df6	0.12374489
115	0x3c3a6496	0.011376521
116	0xbe5d0ba3	-0.2158647
117	0xbd951cea	-0.072809055
118	0x3df0f21f	0.11764931
119	0x3e852fa8	0.2601292
120	0xbe22801d	-0.15869184
121	0xbe8a99f6	-0.27070588
122	0xbd792c41	-0.06083322
123	0x3e58a88b	0.21158044
124	0xbe4586a6	-0.19289646
125	0x3de9acc6	0.11409907
126	0xbe83031c	-0.2558831
127	0xbe33c67c	-0.17556185
128	0x3e2fadff	0.17156218
129	0xbd9aa849	-0.07551629
130	0x3d0389c5	0.03211381
131	0x3e2f059a	0.1709198
132	0x3e245a08	0.16049969
133	0xbdce4310	-0.10071385
134	0xbe38575a	-0.18002072
135	0x3e2beac6	0.16788778
136	0x3db5e5dd	0.088817336
137	0xbe1379d7	-0.14401947
138	0xbe6c98a5	-0.23105104
139	0x3d037e72	0.03210301
140	0xbe57548e	-0.21028349
141	0x3e74ddc4	0.23912722
142	0x3e43542d	0.1907508
143	0xbe600a0e	-0.21878836
144	0x3d2d120f	0.04225355
145	0x3e7f7c7f	0.24949835
146	0x3e4bdd99	0.19908752
147	0xbe0257ad	-0.12728758
148	0x3e694f59	0.22784175
149	0x3e32193d	0.1739244
150	0x3d2ffef9	0.04296777
151	0x3e1de048	0.15417588
152	0xbdaa4608	-0.08314139
153	0xbe3dcd7f	-0.18535422
154	0x3e83fe9f	0.25780198
155	0xbe32609c	-0.17419666
156	0x3db96c97	0.09053915
157	0x3d4f7149	0.050645147
158	0x3e88eb9b	0.26742253
159	0x3e0600db	0.13086264
160	0x3dd58e6e	0.10427557
161	0xbe45255b	-0.19252531
162	0xbc80101a	-0.015632678
163	0xbd79422e	-0.06085413
164	0x3dc697fd	0.09696958
165	0x3d593218	0.05302629
166	0x3cf48fb5	0.029853681
167	0xbe23a274	-0.1597994
168	0xbe0ceaad	-0.13761397
169	0xbc80cc8a	-0.015722532
170	0xbd48b9ea	-0.049005426
171	0x3e8f6a0e	0.280106
172	0xbe1c9336	-0.15290532
173	0xbd3bb9e1	-0.045831565
174	0xbe2d9a1e	-0.16953322
175	0xbe225546	-0.15852842
176	0xbe4fbeb1	-0.20287587
177	0x3e234386	0.15943727
178	0x3e166270	0.14685988
179	0xbd26726f	-0.040636476
180	0xbe899b41	-0.26876262
181	0x3d66cb92	0.056346484
182	0x3e87e167	0.26539156
183	0xbe732891	-0.23745944
184	0xbe4eb19f	-0.20184945
185	0xbc9b4e75	-0.01895831
186	0x3db89823	0.09013393
187	0xbdab718b	-0.08371266
188	0xbcbf6760	-0.023364723
189	0x3e18df00	0.14928818
190	0xbe20494c	-0.1565296
191	0x3e37e53c	0.1795854
192	0xbe032022	-0.12805226
193	0x3e1e86eb	0.15481155
194	0x3e172bd8	0.14762819
195	0xbc8b5930	-0.017010301
196	0x3df438cf	0.11924898
197	0xbdf90bf7	-0.12160485
198	0xbe210c46	-0.15727338
199	0xbe3576e0	-0.17721128
200	0xbe8a7fa3	-0.27050504
201	0xbd10f5ee	-0.035390787
202	0x3e5603c3	0.20899872
203	0x3e6eb1bb	0.23309986
204	0xbe0dd8e9	-0.13852276
205	0x3e1adc71	0.15123154
206	0xbd490f92	-0.049087115
207	0xbe8c1dd6	-0.27366513
208	0x3e810d18	0.25205302
209	0x3b892689	0.004185502
210	0x3e185b6d	0.14878626
211	0xbe806cdf	-0.25083062
212	0x3d636ac7	0.055521753
213	0xbd9633f3	-0.07334127
214	0x3d70534e	0.058673196
215	0xbe51b361	-0.20478584
216	0xbd8a1531	-0.06742323
217	0x3df0273d	0.11726234
218	0x3e599a2e	0.21250221
219	0x3db1f00c	0.086883634
220	0xbe75bf70	-0.23998809
221	0x3e76ad41	0.24089529
222	0x3e39504b	0.18097036
223	0x3db61186	0.08890061
224	0x3e55c446	0.20875654
225	0x3e92c7d6	0.28668088
226	0xbe8042ce	-0.25050968
227	0x3e07be72	0.13256243
228	0xbe471e13	-0.19445066
229	0xbe7a9245	-0.2446986
230	0x3e0ff224	0.14057213
231	0x3e886c17	0.26644966
232	0xbcde75a4	-0.027155705
233	0xbe7881b1	-0.24268223
234	0xbe226514	-0.1585887
235	0x3cb244a4	0.021761246
236	0xbe4bfd7e	-0.19920918
237	0x3da2b251	0.079441674
238	0x3c986406	0.018602382
239	0xbd5150e2	-0.051102526
240	0xbe2f9d0e	-0.17149755
241	0x3e03b17a	0.1286067
242	0x3d885622	0.066570535
243	0x3e131fc7	0.14367591
244	0x3e4d644e	0.20057794
245	0xbe6654af	-0.22493242
246	0xbe764212	-0.24048641
247	0x3e7160bc	0.23572057
248	0x3d190c02	0.037364967
249	0xbe6a272a	-0.22866502
250	0x3e82854d	0.25492325
251	0x3dd47fca	0.10375936
252	0xbc781246	-0.0151410755
253	0xbe8d4225	-0.27589527
254	0xbe07e1e7	-0.13269769
255	0x3e873990	0.26411104

bias f4 [64]
0	0xbd1e7e7d	-0.038694847
1	0xbde1f64f	-0.11033308
2	0xbdadb959	-0.08482618
3	0x3e4dfadd	0.20115228
4	0x3e55212e	0.20813438
5	0x3e784a2f	0.24247049
6	0xbe0f3f58	-0.13989007
7	0xbe14baa5	-0.14524324
8	0xbe4b0dd4	-0.19829494
9	0xbe8f192c	-0.27948892
10	0x3e212170	0.15735412
11	0x3e9f2fa1	0.31091025
12	0x3e905fd3	0.28198108
13	0x3e85e8a8	0.26154065
14	0xbe26c939	-0.16287698
15	0xbe772338	-0.24134529
16	0x3e9930e4	0.29920113
17	0xbe08fa2f	-0.13376687
18	0x3d97a45f	0.07404398
19	0xbe40d492	-0.18831089
20	0xbe02456d	-0.12721796
21	0x3e489285	0.19587143
22	0xbe50c0f4	-0.20386106
23	0x3e1a7ff8	0.15087879
24	0xbe701d6b	-0.23448722
25	0x3df75323	0.12076404
26	0xbe509315	-0.20368607
27	0x3ddd006e	0.107910976
28	0x3da29105	0.079378165
29	0xbea05b8c	-0.31319845
30	0xbd2eef2c	-0.04270856
31	0xbe7fb0da	-0.24969807
32	0x3e7b2122	0.24524358
33	0xbe264e7e	-0.1624088
34	0x3e902bd5	0.2815844
35	0xb980d9eb	-0.00024576424
36	0xbd766626	-0.06015601
37	0xbe3cc01f	-0.18432663
38	0xbdf7e016	-0.12103288
39	0x3e93bbdb	0.2885426
40	0x3e43ccc7	0.19121085
41	0xbd886ead	-0.06661735
42	0x3cd9762a	0.026545603
43	0xbe830dab	-0.25596365
44	0xbe2157b4	-0.15756112
45	0x3e833022	0.2562266
46	0xbe8cf195	-0.27528062
47	0x3ea003b2	0.3125282
48	0x3e196305	0.14979179
49	0xbea41fe1	-0.32055572
50	0x3d3b59c0	0.04573989
51	0x3d7c3a62	0.061579116
52	0x3c970e37	0.018439395
53	0xbe85f2c5	-0.2616178
54	0xbe1b3bcb	-0.15159528
55	0x3d9616f5	0.073285975
56	0xbc4b04c0	-0.012391269
57	0x3ceec313	0.029145753
58	0xbd656b28	-0.056010395
59	0x3e8548cd	0.26032105
60	0xbdd8488f	-0.105607145
61	0xbd7d65a2	-0.061864503
62	0xbe91a9b6	-0.28449792
63	0xbe90e3cf	-0.28298804

pe f4 [1, 24, 64]
0	0x00000000	0.0
1	0x3f800000	1.0
2	0x00000000	0.0
3	0x3f800000	1.0
4	0x00000000	0.0
5	0x3f800000	1.0
6	0x00000000	0.0
7	0x3f800000	1.0
8	0x00000000	0.0
9	0x3f800000	1.0
10	0x00000000	0.0
11	0x3f800000	1.0
12	0x00000000	0.0
13	0x3f800000	1.0
14	0x00000000	0.0
15	0x3f800000	1.0
16	0x00000000	0.0
17	0x3f800000	1.0
18	0x00000000	0.0
19	0x3f800000	1.0
20	0x00000000	0.0
21	0x3f800000	1.0
22	0x00000000	0.0
23	0x3f800000	1.0
24	0x00000000	0.0
25	0x3f800000	1.0
26	0x00000000	0.0
27	0x3f800000	1.0
28	0x00000000	0.0
29	0x3f800000	1.0
30	0x00000000	0.0
31	0x3f800000	1.0
32	0x00000000	0.0
33	0x3f800000	1.0
34	0x00000000	0.0
35	0x3f800000	1.0
36	0x00000000	0.0
37	0x3f800000	1.0
38	0x00000000	0.0
39	0x3f800000	1.0
40	0x00000000	0.0
41	0x3f800000	1.0
42	0x00000000	0.0
43	0x3f800000	1.0
44	0x00000000	0.0
45	0x3f800000	1.0
46	0x00000000	0.0
47	0x3f800000	1.0
48	0x00000000	0.0
49	0x3f800000	1.0
50	0x00000000	0.0
51	0x3f800000	1.0
52	0x00000000	0.0
53	0x3f800000	1.0
54	0x00000000	0.0
55	0x3f800000	1.0
56	0x00000000	0.0
57	0x3f800000	1.0
58	0x00000000	0.0
59	0x3f800000	1.0
60	0x00000000	0.0
61	0x3f800000	1.0
62	0x00000000	0.0
63	0x3f800000	1.0
64	0x3f576aa4	0.84147096
65	0x3f0a5141	0.54030234
66	0x3f2e7ace	0.68156135
67	0x3f3b54b0	0.731761
68	0x3f087dba	0.53316844
69	0x3f58940d	0.8460091
70	0x3ed190f1	0.40930894
71	0x3f6992c6	0.91239583
72	0x3e9f393e	0.3109836
73	0x3f734e6b	0.9504153
74	0x3e708f25	0.23492105
75	0x3f78d5f1	0.9720145
76	0x3e35233a	0.17689219
77	0x3f7bf683	0.9842302
78	0x3e0825f3	0.13295726
79	0x3f7dba28	0.99112177
80	0x3dcc7576	0.099833414
81	0x3f7eb898	0.9950042
82	0x3d996f36	0.07491915
83	0x3f7f47d1	0.9971896
84	0x3d6636ae	0.05620449
85	0x3f7f9868	0.9984193
86	0x3d2cacfa	0.04215715
87	0x3f7fc5bd	0.999111
88	0x3d01815b	0.031617504
89	0x3f7fdf3c	0.99950004
90	0x3cc23ea5	0.023711512
91	0x3f7fed93	0.99971884
92	0x3c91ab42	0.017781857
93	0x3f7ff5a3	0.99984187
94	0x3c5a7a49	0.013334819
95	0x3f7ffa2c	0.99991107
96	0x3c23d657	0.009999833
97	0x3f7ffcb9	0.99995
98	0x3bf5b916	0.0074988706
99	0x3f7ffe28	0.99997187
100	0x3bb8445a	0.0056233825
101	0x3f7ffef7	0.9999842
102	0x3b8a2e5a	0.0042169513
103	0x3f7fff6b	0.9999911
104	0x3b4f3e1c	0.0031622713
105	0x3f7fffac	0.999995
106	0x3b1b6903	0.0023713715
107	0x3f7fffd1	0.9999972
108	0x3ae91520	0.0017782785
109	0x3f7fffe6	0.99999845
110	0x3aaec98b	0.0013335211
111	0x3f7ffff1	0.9999991
112	0x3a83126d	0.0009999998
113	0x3f7ffff8	0.9999995
114	0x3a449489	0.000749894
115	0x3f7ffffb	0.9999997
116	0x3a136a13	0.0005623411
117	0x3f7ffffd	0.9999998
118	0x39dd1721	0.00042169637
119	0x3f7fffff	0.99999994
120	0x39a5cb61	0.00031622782
121	0x3f7fffff	0.99999994
122	0x3978a80d	0.00023713727
123	0x3f800000	1.0
124	0x393a7753	0.00017782794
125	0x3f800000	1.0
126	0x390bd46d	0.00013335208
127	0x3f800000	1.0
128	0x3f68c7b7	0.9092974
129	0xbed51133	-0.41614684
130	0x3f7f5ad9	0.99748
131	0x3d914d53	0.070948265
132	0x3f66f20a	0.9021307
133	0x3edce8b2	0.43146282
134	0x3f3f3512	0.74690354
135	0x3f2a3902	0.66493237
136	0x3f17541b	0.5911271
137	0x3f4e7bec	0.8065784
138	0x3ee9d3b5	0.45669332
139	0x3f63be69	0.8896242
140	0x3eb247f6	0.34820527
141	0x3f6ffaa6	0.93741834
142	0x3e86f082	0.26355368
143	0x3f76f2f5	0.96464473
144	0x3e4b6ff8	0.19866931
145	0x3f7ae5a5	0.9800666
146	0x3e1900d3	0.1494172
147	0x3f7d204f	0.98877424
148	0x3de5d986	0.1122313
149	0x3f7e61f3	0.9936821
150	0x3dac85ae	0.08423935
151	0x3f7f170e	0.99644554
152	0x3d8170c8	0.063203394
153	0x3f7f7cf9	0.9980007
154	0x3d4230aa	0.04740969
155	0x3f7fb64e	0.9988755
156	0x3d11a55c	0.03555809
157	0x3f7fd68e	0.9993676
158	0x3cda7550	0.026667267
159	0x3f7fe8b1	0.99964434
160	0x3ca3d43e	0.019998666
161	0x3f7ff2e5	0.9998
162	0x3c75b751	0.014997319
163	0x3f7ff8a1	0.9998875
164	0x3c38439b	0.011246587
165	0x3f7ffbdb	0.99993676
166	0x3c0a2e0a	0.008433828
167	0x3f7ffdab	0.9999644
168	0x3bcf3dd8	0.006324511
169	0x3f7ffeb1	0.99998003
170	0x3b9b68e7	0.00474273
171	0x3f7fff43	0.99998873
172	0x3b691508	0.0035565514
173	0x3f7fff96	0.9999937
174	0x3b2ec980	0.0026670396
175	0x3f7fffc4	0.9999964
176	0x3b031268	0.0019999985
177	0x3f7fffdf	0.99999803
178	0x3ac49485	0.0014997876
179	0x3f7fffed	0.99999887
180	0x3a936a12	0.0011246821
181	0x3f7ffff5	0.99999934
182	0x3a5d171f	0.0008433926
183	0x3f7ffffa	0.99999964
184	0x3a25cb60	0.0006324556
185	0x3f7ffffd	0.9999998
186	0x39f8a80c	0.0004742745
187	0x3f7ffffe	0.9999999
188	0x39ba7753	0.00035565588
189	0x3f7fffff	0.99999994
190	0x398bd46d	0.00026670416
191	0x3f800000	1.0
192	0x3e1081c3	0.14112
193	0xbf7d7026	-0.9899925
194	0x3f473cde	0.7782725
195	0xbf20bfce	-0.6279267
196	0x3f7e45d7	0.9932532
197	0xbded7fab	-0.11596616
198	0x3f742163	0.95363444
199	0x3e9a1863	0.3009673
200	0x3f5009c2	0.8126489
201	0x3f152f58	0.58275366
202	0x3f2724b7	0.652904
203	0x3f41e7a2	0.7574407
204	0x3f022f6c	0.5085361
205	0x3f5c6d29	0.86104065
206	0x3ec768a7	0.3894703
207	0x3f6bc937	0.92103904
208	0x3e974e6c	0.2955202
209	0x3f7490ef	0.9553365
210	0x3e646de2	0.22307542
211	0x3f798c92	0.9748012
212	0x3e2beed7	0.16790329
213	0x3f7c5d9e	0.9858035
214	0x3e01332c	0.12617177
215	0x3f7df443	0.9920084
216	0x3dc1ffc0	0.094726086
217	0x3f7ed94f	0.99550337
218	0x3d919306	0.071081206
219	0x3f7f5a3a	0.9974705
220	0x3d5a694e	0.053323083
221	0x3f7fa2c3	0.9985773
222	0x3d23d1c5	0.039994974
223	0x3f7fcb90	0.99919987
224	0x3cf5b91f	0.0299955
225	0x3f7fe283	0.99955004
226	0x3cb84747	0.022494925
227	0x3f7fef6b	0.999747
228	0x3c8a31c6	0.016869437
229	0x3f7ff6ad	0.9998577
230	0x3c4f4446	0.012650555
231	0x3f7ffac1	0.99991995
232	0x3c1b6e0d	0.009486687
233	0x3f7ffd0d	0.999955
234	0x3be91d13	0.0071140616
235	0x3f7ffe58	0.9999747
236	0x3baecfa8	0.005334813
237	0x3f7fff11	0.99998575
238	0x3b831713	0.0040005534
239	0x3f7fff7a	0.999992
240	0x3b449b92	0.0029999954
241	0x3f7fffb5	0.9999955
242	0x3b136f60	0.0022496805
243	0x3f7fffd6	0.9999975
244	0x3add1f17	0.0016870227
245	0x3f7fffe8	0.99999857
246	0x3aa5d156	0.0012650888
247	0x3f7ffff3	0.9999992
248	0x3a78b110	0.00094868336
249	0x3f7ffff9	0.9999996
250	0x3a3a7e09	0.00071141176
251	0x3f7ffffc	0.99999976
252	0x3a0bd97e	0.0005334838
253	0x3f7ffffe	0.9999999
254	0x39d1bea4	0.00040005625
255	0x3f7fffff	0.99999994

in_proj_weight f4 [192, 64]
0	0x3db5a434	0.0886921
1	0xbdb8d578	-0.09025091
2	0xbdb831b0	-0.08993852
3	0xbe0830d8	-0.13299882
4	0x3d6c4b40	0.05768895
5	0x3da4683c	0.08027694
6	0xbda05fea	-0.07830794
7	0xbdfbdab9	-0.122975774
8	0x3d02c341	0.03192449
9	0x3d914ea5	0.070950784
10	0xbc9efd30	-0.019407839
11	0xbd7b911f	-0.061417695
12	0x3e07ade9	0.13249935
13	0x3d70f050	0.05882293
14	0xbd313e5f	-0.043272372
15	0xbe04280b	-0.129059
16	0xbcbbbe23	-0.022917813
17	0xbc813248	-0.015771046
18	0xbcabcb9e	-0.020971116
19	0xbce7ca05	-0.028294573
20	0xbd6c1f73	-0.05764718
21	0xbc85991e	-0.016308364
22	0xbd92ac57	-0.071617775
23	0x3c869740	0.016429543
24	0xbd814483	-0.06311896
25	0x3d702b87	0.05863526
26	0x3cd84baf	0.026403276
27	0x3cf1bef5	0.02951
28	0x3ce4b3d4	0.02791778
29	0x3c187ac0	0.00930661
30	0x3dd70467	0.104988866
31	0x3cb9c96d	0.022679055
32	0x3da3e18a	0.080020025
33	0x3ddae2c6	0.10687785
34	0xbd65cadc	-0.056101665
35	0xbd2674a1	-0.04063857
36	0x3cc870a1	0.024467768
37	0x3e017403	0.12641911
38	0xbde66aea	-0.11250861
39	0xbcb750aa	-0.02237733
40	0xbddb7af2	-0.10716809
41	0x3dbaa37e	0.09113215
42	0x3c132f0a	0.008983383
43	0xbd85d526	-0.065347955
44	0xbd3a6728	-0.045508534
45	0xbd90e908	-0.07075697
46	0x3da8ca5a	0.082417205
47	0x3c917d5b	0.01775997
48	0xbd2a80cf	-0.041626748
49	0xbcbbc93c	-0.022923104
50	0x3de16c84	0.11007026
51	0x3c86dc4d	0.01646247
52	0xbc0c8452	-0.0085764695
53	0xbd1d7f3a	-0.03845141
54	0x3e01839b	0.1264786
55	0xbc19e079	-0.009391897
56	0x3b0ad83f	0.0021186022
57	0xbc4802e2	-0.012207719
58	0x3db9fa18	0.09080905
59	0x3db56a8a	0.08858211
60	0xbd85ba55	-0.06529681
61	0x3de5f968	0.11229211
62	0xbd561b63	-0.05227221
63	0xbd8c14f7	-0.06839936
64	0x3deb22dd	0.11481259
65	0x3d46d1ae	0.04853981
66	0xbcb9d579	-0.0226848
67	0xbd8f9f8c	-0.07012853
68	0x3dc8618c	0.097842306
69	0xbd581701	-0.052756313
70	0xbd1dfa45	-0.038568754
71	0xbd4c70c7	-0.04991224
72	0xbd9962e5	-0.07489566
73	0xbcf617d1	-0.030040653
74	0x3e0a9866	0.13534698
75	0xbc8e7405	-0.017389307
76	0x3dfb78c6	0.12278895
77	0xbde3049c	-0.110848635
78	0xbdd9fbcc	-0.106437296
79	0xbdad5cd9	-0.08464975
80	0x3cdeccce	0.027197268
81	0xbde3ba6c	-0.111195415
82	0x3e2439e8	0.16037714
83	0xbc6da297	-0.0145040965
84	0xbddff477	-0.109353
85	0x3dedc6ba	0.1161017
86	0xbdcc9e17	-0.09991091
87	0x3bacfddc	0.005279286
88	0xbd3d0565	-0.046147723
89	0xbd8a432e	-0.06751095
90	0xbd11dba6	-0.035609864
91	0xbd470cfb	-0.048596364
92	0xbdebfd54	-0.11522928
93	0xbdcfd2bb	-0.101476155
94	0xbd073c74	-0.033016637
95	0x3dca35a4	0.098735124
96	0xbc8ccf6d	-0.017188752
97	0xbbe63e29	-0.007026453
98	0x3c900fdc	0.017585687
99	0xbcf0a46d	-0.02937528
100	0xbd7136c7	-0.05889013
101	0x3d522799	0.051307295
102	0xbd2bbc4d	-0.041927624
103	0x3ca66a8a	0.020314474
104	0x3d61da87	0.055140045
105	0x3d0f78a6	0.03502717
106	0xbc858090	-0.016296655
107	0x3d523b24	0.051325932
108	0x3c2c204d	0.010505748
109	0xbde5805d	-0.11206124
110	0xbdf07826	-0.117416665
111	0x3e1229f9	0.14273824
112	0xbdda1aa5	-0.10649613
113	0x3c24997a	0.010046357
114	0x3d272f99	0.040816877
115	0x3ca9e14d	0.020737315
116	0x3bd0e4fd	0.006374954
117	0xbd97d01d	-0.07412741
118	0x3cdbad53	0.026816046
119	0x3e1431f8	0.14472187
120	0x3c615c73	0.013754952
121	0xbdbe1c10	-0.09282696
122	0x3e14ba12	0.14524105
123	0x3c81ded5	0.015853325
124	0xbd7ffe25	-0.06249823
125	0xbdc3671d	-0.09541152
126	0xbe00bbd3	-0.12571649
127	0x3c1bc91f	0.0095084
128	0x3d41d57d	0.04732274
129	0x3e05992a	0.13046709
130	0xbd15b199	-0.036546323
131	0x3ca28bbd	0.019842023
132	0xbe129edd	-0.14318414
133	0x3d4caffa	0.04997251
134	0x3e0da9e1	0.13834335
135	0x3defe86a	0.11714251
136	0x3c912918	0.01771979
137	0xbde18929	-0.11012489
138	0x3d6539f0	0.055963457
139	0xbddb380d	-0.1070405
140	0xbda79547	-0.08182769
141	0xbd93e158	-0.07220715
142	0xbdb28d9c	-0.08718416
143	0x3daee76b	0.08540233
144	0x3d98e229	0.074650116
145	0xbdc1df8c	-0.09466466
146	0xbc529f68	-0.012855388
147	0x3dbcf581	0.09226514
148	0xbdaa83bd	-0.08325908
149	0xbd9c9191	-0.07644952
150	0xbcc70ce2	-0.024298135
151	0xbd9c0525	-0.07618169
152	0x3db487ff	0.08815002
153	0xbd95fdee	-0.07323824
154	0xbdf9e26d	-0.122013904
155	0x3c7d0415	0.015442868
156	0x3cdc1cc1	0.02686918
157	0x3df8b2db	0.12143489
158	0xbc4304d6	-0.011903008
159	0xbd9a24dd	-0.07526562
160	0x3b97b7b4	0.0046300534
161	0xbdf6bcee	-0.12047754
162	0xbd90bfef	-0.070678584
163	0x3d1fea58	0.039041847
164	0xbc202070	-0.009773359
165	0xbdf9ddc2	-0.122005
166	0xb9f8f57b	-0.00047485143
167	0x3dd9a7da	0.10627718
168	0xbd578f01	-0.052626614
169	0x3cd68d16	0.026190322
170	0xbca284c5	-0.0198387
171	0xbd540eb4	-0.051771834
172	0xbdd825eb	-0.10554107
173	0xbe07bf82	-0.13256648
174	0x3d32e3bc	0.043674216
175	0x3dd7d505	0.10538677
176	0x3d2d6f90	0.042342722
177	0xbdcdb2b8	-0.100438535
178	0xbd7f9681	-0.06239939
179	0xbe010e77	-0.12603174
180	0x3d46d14a	0.048539437
181	0xbd955812	-0.07292189
182	0xbb94c95b	-0.004540605
183	0xbcf71b7d	-0.030164475
184	0x3d319942	0.04335905
185	0xbdd189e9	-0.102313824
186	0x3c55d6cb	0.013051699
187	0x3d78c33a	0.060733058
188	0x3ddbcd59	0.10732526
189	0xbe008df5	-0.12554152
190	0x3b71cc7d	0.0036895566
191	0x3d9966e9	0.07490332
192	0x3de2399f	0.110461466
193	0xbc88121f	-0.016610203
194	0xbd96e290	-0.07367432
195	0x3e136a7c	0.1439609
196	0x3dca2c1f	0.09871697
197	0x3d389ebd	0.04507326
198	0xbdb40b0f	-0.08791172
199	0xbd8c7a46	-0.06859259
200	0x3c704d48	0.014666863
201	0x3dbe7240	0.09299135
202	0xbc862782	-0.01637626
203	0x3e0bde8b	0.13659112
204	0xbdc8b63e	-0.09800385
205	0xbd98e956	-0.0746638
206	0x3dd8cc70	0.10585868
207	0xbcb901f1	-0.022583934
208	0x3cfc0840	0.030765653
209	0xbd930118	-0.07177943
210	0xbda8f340	-0.08249521
211	0x3dbcaae5	0.09212283
212	0xbdce9b0c	-0.100881666
213	0x3db47896	0.088120624
214	0xbe1b4250	-0.15162015
215	0xbe06f69b	-0.1318001
216	0xbc2839e1	-0.010267706
217	0x3db80cf1	0.089868434
218	0xbced8b5b	-0.028997114
219	0x3df279fa	0.118396714
220	0x3bfd8687	0.007736984
221	0x3a5bc4ea	0.00083835295
222	0x3cd526f8	0.026019558
223	0xbd37ab55	-0.04484113
224	0xbde77e1a	-0.11303349
225	0xbd4e1370	-0.050311506
226	0x3d8827a6	0.06648187
227	0xbccf629b	-0.025315573
228	0xbde3f6e5	-0.11131076
229	0xbd19302e	-0.037399463
230	0xbd10da61	-0.035364512
231	0xbd506454	-0.05087693
232	0xbc9551e4	-0.018227525
233	0xbe0257d2	-0.12728813
234	0xbe070d1e	-0.13188598
235	0x3dcb6616	0.09931581
236	0x3c715f4c	0.014732193
237	0xbd337d92	-0.043820925
238	0xbe12565c	-0.14290756
239	0x3df19ae5	0.11797122
240	0x3cd3f6df	0.025874553
241	0xbe00bce4	-0.12572056
242	0x3dcec19d	0.100955226
243	0xbd414aa6	-0.04719033
244	0x3b99c328	0.004692454
245	0xbe0d193c	-0.13779157
246	0xbe00f686	-0.12594041
247	0x3d82d942	0.06389095
248	0x3e0614fd	0.13093944
249	0x3be2ef26	0.0069254814
250	0xbd1e26cb	-0.038611215
251	0x3c08cff7	0.008350364
252	0xbcff8c6d	-0.03119489
253	0xbe01cf52	-0.12676743
254	0x3d98981f	0.0745089
255	0xbdd2dd1f	-0.10296082

in_proj_bias f4 [192]
0	0x3ca83d98	0.020537183
1	0x3c8f57c0	0.017497897
2	0xbb4795c7	-0.0030454264
3	0xbc3f9ac7	-0.011694617
4	0x3c72b27a	0.01481306
5	0xbc89e102	-0.016830925
6	0xbc80b358	-0.015710518
7	0xbc567af0	-0.013090834
8	0x3cbab13e	0.022789594
9	0x3bc6afca	0.006063436
10	0x3c29cfc1	0.010364474
11	0x3bd2c5fb	0.0064322925
12	0xbc74b25c	-0.014935102
13	0xbaf6d25e	-0.0018831005
14	0xbb919176	-0.004442389
15	0xbc9401aa	-0.0180672
16	0xbde1b1c8	-0.11020237
17	0x3db5b8ea	0.0887316
18	0xbcafa438	-0.02144061
19	0xbd9369be	-0.07197903
20	0x3dc1eab9	0.09468598
21	0xbba18843	-0.0049295737
22	0x398cdbfa	0.00026866776
23	0xbb7d9ba9	-0.0038697517
24	0x3c8a5a51	0.01688877
25	0x3d6ad385	0.057330627
26	0x3df34f3c	0.11880347
27	0xbd4ef275	-0.050524194
28	0xbb8364d7	-0.004009824
29	0xbda835be	-0.082133755
30	0xbd328761	-0.04358614
31	0xbd589f74	-0.05288644
32	0xbc3a42c7	-0.01136846
33	0xbc909865	-0.017650792
34	0x3a794fa3	0.0009510463
35	0x3c9af2d3	0.018914616
36	0xbd01eef2	-0.031722017
37	0xbcb7d305	-0.02243949
38	0x3bea69ba	0.007153717
39	0x3d5420e5	0.051789183
40	0x3bd5d597	0.006525706
41	0x3910df77	0.00013816157
42	0xbc424866	-0.011858081
43	0xbc6535c3	-0.013989869
44	0x3bcb9bc1	0.0062136357
45	0xbd40f60e	-0.047109656
46	0x3c068c11	0.008212105
47	0xbcb412a9	-0.021981554
48	0xbc031b86	-0.008002168
49	0x3caf6ae7	0.02141328
50	0x3bd67503	0.0065447106
51	0xbaac5947	-0.0013149165
52	0xbcf7737a	-0.03020643
53	0x3bee181f	0.007266059
54	0xbc1310d4	-0.00897618
55	0xbc7093de	-0.014683692
56	0x3c9f3123	0.01943261
57	0x3d200553	0.039067578
58	0x3c2d832a	0.010590354
59	0xba3d6a71	-0.0007225639
60	0xbce856b2	-0.028361652
61	0xbc4d8f0d	-0.012546313
62	0x3b2c464b	0.0026287015
63	0x3c12b230	0.008953616
64	0xba1bc53d	-0.00059421716
65	0xb9b297e4	-0.00034063973
66	0x3a92298e	0.00111513
67	0x38b0d676	8.4322804e-05
68	0xbab61001	-0.0013890268
69	0x3aa62cd4	0.0012678155
70	0x3abff1d3	0.0014644213
71	0xb9b3f021	-0.0003432045
72	0xbaef9135	-0.0018277528
73	0xba4b93e3	-0.0007765872
74	0xb9b58628	-0.00034622964
75	0x39b68455	0.0003481234
76	0x3a5c052e	0.0008393106
77	0xba9e60ca	-0.0012083289
78	0x39c0859d	0.00036720643
79	0x3ae53002	0.0017485621
80	0xbaf91481	-0.0019003303
81	0x391f39ea	0.00015184996
82	0xb9520708	-0.0002002978
83	0x3918b0b4	0.00014561677
84	0xbb159d20	-0.002282925
85	0x39fb9c46	0.00047990883
86	0x396c893e	0.0002255784
87	0xb907f9f4	-0.00012967718
88	0x3a352703	0.0006910415
89	0xbb085927	-0.0020805092
90	0xbb435a67	-0.0029808523
91	0xb9f27778	-0.00046246848
92	0xba544131	-0.00080968725
93	0x3b1c33d3	0.00238346
94	0xba8d5ec0	-0.0010785684
95	0xba1bc61f	-0.0005942303
96	0xb99757be	-0.00028866337
97	0xb90e011e	-0.00013542591
98	0xb9868f45	-0.00025665216
99	0x39ede34d	0.00045373515
100	0xba346d66	-0.0006882757
101	0xb9f48f9b	-0.000466463
102	0x39f975ce	0.00047580752
103	0x39e2b293	0.00043239127
104	0x38563a0f	5.1075647e-05
105	0x3957f2f2	0.00020594502
106	0xb8550012	-5.0783223e-05
107	0xb91112d8	-0.00013835297
108	0x38570f4d	5.1274244e-05
109	0xb9d19c4f	-0.00039980045
110	0xb8f18343	-0.00011516225
111	0xb89597d5	-7.1331546e-05
112	0xb8e1c7ab	-0.00010766027
113	0x38a7d2b5	8.002428e-05
114	0x392717ff	0.000159353
115	0xb905ed1f	-0.00012772203
116	0xb9e440f1	-0.00043535934
117	0xb9d229b8	-0.00040085404
118	0xb982c817	-0.0002494461
119	0x39919828	0.0002776992
120	0xb94acfb5	-0.00019341598
121	0x39c3fe51	0.0003738278
122	0x3a41592d	0.0007375654
123	0x3982e448	0.00024965615
124	0xb797bb42	-1.8087801e-05
125	0xb98bb281	-0.00026645142
126	0xb9c93bf2	-0.0003838237
127	0xb9fa47a7	-0.000477371
128	0xbbb9fe48	-0.0056760646
129	0xbaf7a6f2	-0.0018894358
130	0xbb11e5df	-0.0022262258
131	0xbc43a6e9	-0.01194165
132	0x3c06c8da	0.008226598
133	0x3b5e83c5	0.0033953052
134	0x3c63c88e	0.013902796
135	0x3c246cd3	0.010035711
136	0x3c09f962	0.008421274
137	0xbbd1e6d6	-0.0064056916
138	0xbb441f5e	-0.0029925923
139	0x3bb4f82a	0.0055227475
140	0x3c1f50b9	0.009723836
141	0xbb38fea0	-0.002822794
142	0x3b60a5ed	0.0034278587
143	0x3bc9ee35	0.0061624297
144	0xbc0cd718	-0.008596204
145	0xbbf1ff25	-0.007385152
146	0xbc0336ff	-0.008008718
147	0x3bc01f7e	0.005863129
148	0xbc4e0496	-0.012574336
149	0x3a906aea	0.0011018191
150	0x3b3171fa	0.0027075992
151	0xbc429cf6	-0.011878243
152	0xbc2853fc	-0.01027393
153	0x3ba66558	0.005077999
154	0xbc32f8ba	-0.010923559
155	0x3c2fa4dd	0.010720459
156	0xbb5e20ee	-0.003389414
157	0x3bc12ccb	0.0058952323
158	0xbb0a68f8	-0.0021119695
159	0x3a50aed3	0.0007960621
160	0xbbff5541	-0.0077921455
161	0xbbcdae19	-0.0062768576
162	0xbc51fcbc	-0.012816604
163	0x3bffe1d3	0.0078089028
164	0xbb453ab7	-0.0030094811
165	0x3c694775	0.014238228
166	0x3a3e7997	0.0007266043
167	0xbc71ff13	-0.014770287
168	0x3c6903bd	0.014222083
169	0x3b4d095e	0.00312861
170	0xbb64d1f5	-0.0034915183
171	0xbb884bae	-0.0041594123
172	0x3be4509a	0.0069676163
173	0xbc7d6c05	-0.015467648
174	0xbb11f719	-0.0022272526
175	0xbb80dbbf	-0.003932446
176	0x3bb240e2	0.0054398635
177	0xbbd6a399	-0.006550264
178	0x3b252296	0.0025197617
179	0xbbaea810	-0.005330093
180	0xbbe5f543	-0.007017763
181	0xbbacefc3	-0.0052776053
182	0x3bc7050e	0.0060736006
183	0x3be5be8a	0.0070112394
184	0x3c8d7e11	0.017272027
185	0xbc469d21	-0.012122423
186	0xb9789352	-0.00023706004
187	0x3bdcb49b	0.006735397
188	0x3b33db93	0.002744411
189	0xbc73ed05	-0.014888053
190	0x3c21473c	0.009843644
191	0x3bd32880	0.006444037

weight f4 [64, 64]
0	0xbe2d7c40	-0.16941929
1	0x3cdd840b	0.027040502
2	0xbd082871	-0.033241693
3	0xbd8276d1	-0.06370319
4	0x3d58776a	0.052848257
5	0xbe4118af	-0.18857072
6	0x3e0b6a56	0.13614783
7	0xbe0a4fe7	-0.13507043
8	0xbb9cd868	-0.00478654
9	0xbe4417f4	-0.19149762
10	0xbd1dbb8c	-0.038508937
11	0xbd2dd017	-0.042434778
12	0xbe41a77d	-0.18911548
13	0x3e27dd92	0.16393116
14	0x3e2629ba	0.16226855
15	0x3dbb56d2	0.09147419
16	0xbd0c87f7	-0.034309354
17	0x3e3a688f	0.18203948
18	0xbd546830	-0.051857173
19	0x3e23b4bb	0.15986912
20	0xbe61edc2	-0.22063354
21	0xbe53b4e3	-0.20674472
22	0xbabac0f4	-0.0014248178
23	0x3dc704c0	0.09717703
24	0x3b92726d	0.004469207
25	0xbd2533d5	-0.040332634
26	0xbe30f230	-0.17279887
27	0xbe2bd010	-0.16778588
28	0xbe2dcbd9	-0.16972293
29	0xbd8b993d	-0.06816337
30	0xbe18ed23	-0.1493421
31	0xbc4af388	-0.012387164
32	0xbd50eb57	-0.051005688
33	0xbe27780d	-0.1635439
34	0xbde6e0bc	-0.112733334
35	0xbe19cf1e	-0.15020415
36	0x3e23770f	0.15963386
37	0xbe317e65	-0.17333372
38	0xbe1bc085	-0.15210159
39	0x3c5da481	0.01352799
40	0xbe483c3d	-0.19554229
41	0xbd25753e	-0.040395014
42	0xbc15b551	-0.0091374675
43	0x3d1ce945	0.0383084
44	0x3e086e45	0.13323314
45	0x3db83d3e	0.08996056
46	0xbdcb08e8	-0.09913808
47	0x3e25264f	0.16127895
48	0x3e62431f	0.22095917
49	0x3e51931d	0.20466276
50	0x3d8644fe	0.06556128
51	0xbe36a029	-0.17834534
52	0x3dd82305	0.105535544
53	0xbde2ce89	-0.1107455
54	0xbdd20ad3	-0.10255971
55	0xbde240ea	-0.110475376
56	0xbe1b7d55	-0.15184529
57	0xbd8ce453	-0.06879487
58	0xbe41333b	-0.18867199
59	0xbe2505e6	-0.16115531
60	0xbdf58b26	-0.11989431
61	0xbd7e8c4c	-0.062145516
62	0xbd2110d1	-0.039322678
63	0x3d77590b	0.060387652
64	0xbe1f740b	-0.1557161
65	0xbdf76e5c	-0.12081596
66	0xbdc0efaa	-0.09420712
67	0xbe2083b8	-0.15675247
68	0x3e1db85d	0.1540236
69	0xbe396fae	-0.18109009
70	0x3dd07cf1	0.10180081
71	0x3da51bee	0.08061968
72	0x3b793d47	0.003803091
73	0xbd8ea4ed	-0.06965051
74	0xbe23b192	-0.15985706
75	0x3e250e32	0.16118696
76	0xbbdc828d	-0.00672943
77	0xbdc4c8f7	-0.096086435
78	0xbe353406	-0.17695627
79	0xbdb721aa	-0.08941968
80	0xbdb4a983	-0.08821394
81	0x3e0ed91a	0.13950005
82	0xbe0b67b3	-0.13613777
83	0x3dde26f8	0.108472764
84	0xbda88942	-0.08229305
85	0xbda44ff5	-0.08023063
86	0x3ddc424b	0.10754832
87	0x3dbd4d8d	0.09243307
88	0x3d76038d	0.06006198
89	0x3e21b27b	0.15790741
90	0xbe4c68dc	-0.19961876
91	0xbe52b4cf	-0.20576786
92	0x3d26ba72	0.04070515
93	0x3e60b9ff	0.21945952
94	0x3bf2d356	0.007410447
95	0xbd47ecb0	-0.048809707
96	0xbe1dcffc	-0.15411371
97	0xbda4a063	-0.08038404
98	0xbe244a1b	-0.16043894
99	0x3e020278	0.12696254
100	0x3c4789ca	0.012178848
101	0x3db8970a	0.090131834
102	0xbcb7a610	-0.022418052
103	0x3d5dd936	0.054162227
104	0x3e713066	0.23553619
105	0xbd78601e	-0.06063854
106	0xbd435306	-0.0476866
107	0x3c759632	0.014989423
108	0xbe36d803	-0.1785584
109	0xbe3b3ae7	-0.18284188
110	0x3e1fbdb8	0.15599716
111	0x3e3f6e8f	0.18694519
112	0x3e5648af	0.20926164
113	0xbe5bf82c	-0.21481389
114	0x3caf9762	0.02143449
115	0x3c3daaea	0.011576394
116	0xbdd72640	-0.105053425
117	0xbe58c4fe	-0.21168897
118	0x3cfe4ab5	0.031041482
119	0xbd843c6b	-0.06456836
120	0x3de6bd59	0.11266584
121	0xbe5f7223	-0.21820883
122	0x3e313798	0.17306364
123	0xbd8e44af	-0.06946694
124	0xbc90cd8d	-0.01767614
125	0xbe10f9b4	-0.14157754
126	0x3dd655d3	0.104655884
127	0xbe23ff1a	-0.16015282
128	0x3db7c1e7	0.08972531
129	0x3d278a61	0.040903453
130	0x3e2c364e	0.1681759
131	0xbb871ed1	-0.0041235466
132	0xbd60d74c	-0.054892823
133	0x3ddcd94c	0.107836336
134	0x3d9e3320	0.07724595
135	0x3e13dfdf	0.14440869
136	0xbe502d82	-0.2032986
137	0xbcd6290b	-0.026142618
138	0x3c5b618c	0.013389956
139	0xbe06340b	-0.1310579
140	0xbe58ebe1	-0.2118373
141	0x3daa7257	0.0832259
142	0xbe2469a6	-0.16055927
143	0xbdd80178	-0.10547155
144	0xbdd21e98	-0.102597415
145	0x3dbd8612	0.092540875
146	0x3e640384	0.22266966
147	0x3c80dd47	0.015730513
148	0xbdd01210	-0.10159695
149	0x3e4e16eb	0.2012593
150	0x3cc19a1c	0.023633055
151	0xbe02c9b6	-0.12772259
152	0xbdb38420	-0.08765435
153	0xbdce8e10	-0.1008569
154	0x3dc62274	0.0967454
155	0x3e125367	0.14289628
156	0xbdfc19dc	-0.1230962
157	0xbe0880e5	-0.1333042
158	0x3db14702	0.08656122
159	0xbe43fbdc	-0.19139045
160	0x3e1152a9	0.14191689
161	0xbc490e6c	-0.012271505
162	0x3e15693a	0.14590922
163	0xbdd52066	-0.1040657
164	0xbe56b34d	-0.20966835
165	0x3dc9349a	0.09824486
166	0x3d5ae598	0.053441614
167	0x3e14e987	0.14542209
168	0x3e20cadb	0.15702383
169	0xbe1c9386	-0.1529065
170	0xbe0297f9	-0.12753285
171	0xbe39d258	-0.18146646
172	0xbc85769e	-0.016291913
173	0xbd4b6758	-0.049659103
174	0xbdb240ef	-0.08703791
175	0x3d0fcb41	0.035105947
176	0xbe1bb479	-0.15205564
177	0xbc274c80	-0.01021111
178	0xbe283eca	-0.16430202
179	0x3d236c49	0.03989819
180	0xbd5fb551	-0.054616276
181	0x3e4ddd70	0.20104003
182	0x3b9c74a6	0.0047746478
183	0xbe06eb2c	-0.13175648
184	0x3e2076a3	0.15670256
185	0xbe513b88	-0.20432866
186	0x3c6261b0	0.013817236
187	0xbd329aab	-0.043604534
188	0x3d2b659c	0.04184495
189	0xbe2560ad	-0.1615016
190	0x3d56d143	0.05244566
191	0x3e2f680f	0.17129539
192	0x3c9b5dad	0.018965567
193	0x3b4b0427	0.0030977817
194	0xbd876686	-0.06611352
195	0x3caba219	0.020951318
196	0x3b8d62bb	0.004314748
197	0xbe342177	-0.17590891
198	0xbd03b97b	-0.03215931
199	0x3e049f1d	0.12951322
200	0xbe055e47	-0.13024245
201	0xbe23e73b	-0.16006176
202	0xbdfbe561	-0.1229961
203	0x3db5bd37	0.088739805
204	0x3e1a4c38	0.15068138
205	0xbe310dec	-0.17290467
206	0x3cafb276	0.021447401
207	0xbe3b0777	-0.18264566
208	0xbe02aac7	-0.12760459
209	0xbda0ccbd	-0.07851551
210	0x3e312d16	0.17302355
211	0x3db22594	0.08698574
212	0xbd2a4a98	-0.041575044
213	0x3dc784be	0.097421154
214	0x3e13cdb9	0.14433946
215	0x3dc62e04	0.096767455
216	0x3e715db9	0.23570909
217	0x3db8dbac	0.09026274
218	0xbc712f47	-0.014720744
219	0xbe041f42	-0.12902549
220	0xbd872d0d	-0.0660039
221	0xbbadea79	-0.0053074923
222	0xbe2e2778	-0.17007244
223	0x3d91728d	0.07101927
224	0xbe393e95	-0.1809028
225	0xbe14934b	-0.14509313
226	0x3e2c49f7	0.1682509
227	0xbe4010c0	-0.1875639
228	0x3caa7671	0.02080843
229	0xbd4b1049	-0.049576078
230	0x3d91ff29	0.07128746
231	0x3e24d591	0.16097094
232	0x3e26bca8	0.16282904
233	0xbe200d39	-0.15630044
234	0x3d66b660	0.05632627
235	0x3d0f85bb	0.035039645
236	0x3e2f7ea3	0.17138152
237	0xbcdb6378	-0.026780829
238	0xbdf3fc84	-0.11913398
239	0xbdf249b3	-0.11830463
240	0x3d7dc9df	0.061960097
241	0xbdc6f199	-0.0971405
242	0x3d3b127c	0.045671925
243	0x3e09dd50	0.1346333
244	0x3dcccf19	0.10000438
245	0xbca35946	-0.01994003
246	0x3e32d376	0.17463478
247	0xbd8de703	-0.069288276
248	0x3d2ef287	0.04271176
249	0xbde84cda	-0.11342783
250	0xbe2a2a60	-0.16617727
251	0xbc6059d9	-0.013693296
252	0x3d2765c5	0.04086854
253	0x3dba421d	0.09094641
254	0xbe3aa904	-0.18228537
255	0x3d163dfc	0.036680207

bias f4 [64]
0	0x3be176db	0.0068806238
1	0x3caefd10	0.021360904
2	0x397a4363	0.00023866961
3	0xbc28edff	-0.010310649
4	0x39d9318b	0.00041426378
5	0x3a5f9fab	0.0008530567
6	0x3bd04bdf	0.006356701
7	0xbc1f7239	-0.009731823
8	0xbbb54255	-0.005531589
9	0xbc7a0b6a	-0.01526151
10	0xbc588062	-0.013214203
11	0xbbadd614	-0.005305061
12	0x3b8447c9	0.004036878
13	0xbc0b5631	-0.008504436
14	0xbbc04ce7	-0.0058685425
15	0xbc980b69	-0.018560128
16	0xbb3ac857	-0.002850076
17	0xbae56487	-0.0017501273
18	0xbbd20e18	-0.0064103715
19	0xbb9e11f5	-0.004823918
20	0xbb90b6d7	-0.0044163275
21	0x3af878a1	0.0018956849
22	0xbad0a6f7	-0.00159189
23	0xbbe79edf	-0.0070684995
24	0xbb98a8f2	-0.0046588117
25	0xbbe7f992	-0.0070793116
26	0xbb580226	-0.0032960265
27	0x3c36d1d6	0.011158427
28	0xb83c171a	-4.4844208e-05
29	0x3c27d83f	0.010244428
30	0x3c1bf9fa	0.009520048
31	0x3b167422	0.0022957404
32	0x3c41dd77	0.0118325865
33	0xbb208b27	-0.0024497004
34	0xbc44d49b	-0.01201358
35	0x3c595ba1	0.013266475
36	0xbc1dc7d1	-0.0096301595
37	0xbc47becc	-0.012191486
38	0x3c12bc9f	0.008956104
39	0xbbfa1db7	-0.007632937
40	0x3b75d2c7	0.0037509666
41	0x3cabff4b	0.020995757
42	0x3be03dea	0.006843318
43	0xbc311971	-0.010809288
44	0xbbf7596f	-0.007548503
45	0x3a923e48	0.0011157477
46	0x3b8322d1	0.004001953
47	0x3bd669cb	0.006543373
48	0x3ba52b1b	0.005040539
49	0x3cc31c06	0.023817074
50	0xbaeac360	-0.001791101
51	0x3ba1bb80	0.004935682
52	0x3b559fb5	0.0032596414
53	0x3bc4971b	0.0059994585
54	0xbc1ad3c8	-0.009449907
55	0x3c3016e9	0.01074765
56	0xbb34cdbe	-0.0027588452
57	0xbc1fc8d1	-0.009752468
58	0xbb401a75	-0.0029312645
59	0x3c930608	0.017947212
60	0x3d00c423	0.03143705
61	0x3a552349	0.0008130563
62	0xbbe2aca6	-0.006917554
63	0x3c064133	0.008194256

weight f4 [256, 64]
0	0xbd68f881	-0.056877617
1	0x3e063102	0.13104632
2	0xbdd25886	-0.10270791
3	0xbccf8193	-0.02533034
4	0xbdaade97	-0.08343237
5	0xbdade66f	-0.08491217
6	0xbd1d79ce	-0.03844624
7	0x3da20588	0.07911211
8	0xbd52535f	-0.05134904
9	0x3dc6e457	0.09711521
10	0xbd022e9b	-0.031782728
11	0x3d69a9c2	0.05704666
12	0x3d82dc71	0.06389702
13	0x3da0772b	0.078352295
14	0xbd163a58	-0.036676735
15	0x3c977ce7	0.018492175
16	0xbd12a433	-0.035801124
17	0x3dbf8fbd	0.09353588
18	0xbd8d0383	-0.068854354
19	0xbde3aee1	-0.1111734
20	0x3e0f9a98	0.14023817
21	0x3d7aae2c	0.06120126
22	0xbd6eed0f	-0.058331545
23	0x3d6ebb2a	0.058283962
24	0x3c126518	0.008935235
25	0x3b8af0ef	0.0042401473
26	0x3c17aaa0	0.009256989
27	0x3cd5d982	0.026104692
28	0x3d32737f	0.043567177
29	0x3dbee592	0.09321131
30	0x3db649d4	0.089008
31	0xbc89904b	-0.016792437
32	0x3d51be0a	0.051206626
33	0xbdf72c1c	-0.1206896
34	0xbd572277	-0.052523103
35	0xbdf92eca	-0.121671274
36	0x3d662505	0.05618765
37	0x3d5fbbf3	0.0546226
38	0x3dc436d7	0.09580772
39	0x3e01023a	0.12598506
40	0xbd18e2ee	-0.037325792
41	0x3da61ec1	0.081113346
42	0xbd978b6c	-0.073996395
43	0x3d9fb0a7	0.07797366
44	0x3e098e90	0.1343329
45	0x3c7cfb93	0.015440839
46	0x3cd889d5	0.026432911
47	0xbdc1d81c	-0.09465048
48	0x3d0ff017	0.035141077
49	0x3d625984	0.05526115
50	0x3de8168b	0.11332425
51	0xbd4be506	-0.04977896
52	0x3ca41f55	0.020034472
53	0x3ddb3b7f	0.10704707
54	0xbdb122c2	-0.08649208
55	0x3e075d20	0.13219118
56	0x3d747cdc	0.059689388
57	0x3dc61fca	0.09674032
58	0xbe00bdf4	-0.12572461
59	0x3d95a6ee	0.0730723
60	0x3d97d60a	0.074138716
61	0xbc29bfb5	-0.010360648
62	0x3d4441aa	0.047914185
63	0xbd4755ed	-0.04866593
64	0x3d8ca869	0.06868059
65	0xbdac8975	-0.08424655
66	0x3ddc4396	0.107550785
67	0x3da339c3	0.079700015
68	0x3c0e97cc	0.008703183
69	0x3c342c87	0.010996944
70	0xbde32164	-0.11090353
71	0xbdc146ab	-0.09437307
72	0x3db0689f	0.08613705
73	0x3de56b95	0.1120216
74	0x3d258c62	0.040417083
75	0xbda9e90a	-0.08296402
76	0x3c8b8bcc	0.017034434
77	0xbd6a6b53	-0.05723126
78	0x3ce1749c	0.027521424
79	0x3d167f8d	0.036742736
80	0x3cd025f4	0.025408722
81	0xbc9de8bb	-0.019276014
82	0x3c8fccc7	0.0175537
83	0xbd89b903	-0.06724741
84	0xbc2dceb7	-0.010608367
85	0xbd799ef7	-0.060942616
86	0xbdc96973	-0.09834566
87	0xbe00fe07	-0.12596904
88	0x3d1e2ba1	0.038615827
89	0xbe177240	-0.14789677
90	0xbdef5622	-0.116863504
91	0x3dcc96c6	0.09989695
92	0xbd87d58d	-0.066325285
93	0xbdc756bf	-0.097333424
94	0xbdcd94cf	-0.100381486
95	0xbdc3941e	-0.095497355
96	0xbdd30d2b	-0.10305246
97	0xba5ed06a	-0.0008499684
98	0x3d80ea80	0.06294727
99	0x3ded3890	0.11583054
100	0xbd0cbd79	-0.034360383
101	0xbdbb374f	-0.09141409
102	0x3ae2288d	0.0017254517
103	0x3dcbbbbb	0.09947916
104	0xbde190b0	-0.11013925
105	0x3dc51cc9	0.09624631
106	0x3de09bb4	0.10967198
107	0xbcf90345	-0.030397067
108	0x3c6912a2	0.014225634
109	0x3d13bc91	0.036068503
110	0x3db230cc	0.087007135
111	0x3d37d492	0.044880457
112	0xbddd278a	-0.10798557
113	0xbd7567a4	-0.059913293
114	0xbb01e9e3	-0.0019823245
115	0xbdc41518	-0.09574336
116	0x3c6268e9	0.013818958
117	0xbdf915b9	-0.121623464
118	0xbdb534eb	-0.08847984
119	0xbcee73d2	-0.029107962
120	0xbc0abb90	-0.00846757
121	0xbd9b6d84	-0.07589248
122	0x3bdeaf5c	0.006795807
123	0xbd1e931c	-0.038714513
124	0xbd507ea5	-0.050902028
125	0x3c2c5503	0.010518315
126	0xbdb10292	-0.086430684
127	0xbd68f837	-0.05687734
128	0xbded1441	-0.11576129
129	0xbcc703d5	-0.02429382
130	0xbd4bd68a	-0.049765147
131	0xbc74b226	-0.014935052
132	0xbb1a0a4e	-0.0023504677
133	0xbcb965c0	-0.022631526
134	0x3d7f7102	0.062363632
135	0xbdf07638	-0.117412984
136	0x3dea2cc6	0.11434321
137	0xbdb7a6c5	-0.08967356
138	0xbcd3149b	-0.025766661
139	0x3dcaf129	0.09909279
140	0xbd2122ee	-0.039339952
141	0x3e0a9ee4	0.13537174
142	0xbcb0e079	-0.021591412
143	0xbd896857	-0.06709354
144	0xbd5ab417	-0.053394403
145	0x3c6fc4e8	0.014634348
146	0xbdccfb0b	-0.1000882
147	0xbda396ff	-0.079877846
148	0x3da0ecf3	0.078576945
149	0xbd808965	-0.06276206
150	0x3d806a30	0.06270254
151	0x3df32986	0.11873154
152	0x3d3ee9f0	0.04660982
153	0x3e0805db	0.13283484
154	0x3cfd84db	0.03094714
155	0xbd459b93	-0.04824407
156	0xbde1234c	-0.109930605
157	0xbd135917	-0.035973635
158	0xbd4e2cc0	-0.050335646
159	0xbe0ab04f	-0.13543819
160	0x3d400242	0.046877153
161	0xbe03fc12	-0.12889126
162	0xbdb3a577	-0.08771794
163	0x3d6946e1	0.05695236
164	0x3d91c23b	0.07117125
165	0xbd0590c2	-0.032608755
166	0x3d890cec	0.06691918
167	0xbc96642d	-0.018358314
168	0x3c8aca08	0.01694204
169	0xbd1e74d2	-0.038685627
170	0xbdbd5601	-0.092449196
171	0xbdeac251	-0.11462844
172	0x3ca3bdf9	0.019988047
173	0xbd75ec90	-0.060040057
174	0x3de5c902	0.1121998
175	0xbb7d69df	-0.003866784
176	0x3d879e8e	0.06622039
177	0x3ded3971	0.11583222
178	0x3dec2cd0	0.11531985
179	0xbde854b8	-0.11344284
180	0xbdbbb3ee	-0.09165178
181	0x3d3f2031	0.04666156
182	0x3bff3ac1	0.0077889864
183	0x3da5d69d	0.08097575
184	0xbd206cab	-0.039166134
185	0x3c3287c8	0.010896631
186	0xbd24af2d	-0.040206123
187	0x3d85dfcd	0.06536827
188	0x3cd19c64	0.025587268
189	0x3dc7719c	0.09738466
190	0xbdb54d63	-0.08852651
191	0xb897811d	-7.22429e-05
192	0xbde16556	-0.110056564
193	0xbe0b1054	-0.13580447
194	0xbdadbbe8	-0.08483106
195	0x3d2031c8	0.039109975
196	0x3c407e70	0.011748895
197	0x3db3a124	0.087709695
198	0xbd2ce22c	-0.04220788
199	0xbdcf4f7a	-0.10122581
200	0xbdb6ca66	-0.08925323
201	0x3d9e5810	0.0773164
202	0xb9ab425e	-0.0003266511
203	0x3de3ff33	0.1113266
204	0xbd8d3538	-0.06894916
205	0x3d8cd6c2	0.06876899
206	0x3d8654b3	0.06559124
207	0x3b06b6e2	0.0020555784
208	0x3d6e3d92	0.058164187
209	0xbdef2c97	-0.11678427
210	0x3d00203c	0.03128074
211	0x3de6e192	0.11273493
212	0x3de0989a	0.109666064
213	0x3d4ece71	0.050489847
214	0x3dea75e2	0.114482656
215	0xbca6aa94	-0.02034501
216	0x3d92f679	0.07175917
217	0x3d082899	0.033241842
218	0xbd6894a3	-0.056782376
219	0xbcb8dcad	-0.022566164
220	0xbbb9387e	-0.0056524863
221	0xbd9b2e82	-0.0757723
222	0x3d60cfb7	0.054885592
223	0x3dbbd49a	0.0917141
224	0x3da44054	0.08020082
225	0xbc9ad07a	-0.018898237
226	0xbb846168	-0.004039932
227	0xbdd41db8	-0.10357231
228	0x3c99e293	0.018784797
229	0x3a53a3f7	0.0008073444
230	0xbdde3d0a	-0.10851486
231	0x3ddb7379	0.10715384
232	0x3d1349e2	0.035959132
233	0x3def5448	0.11685997
234	0x3db4d098	0.088288486
235	0xbdbc96d7	-0.09208458
236	0xbdf4bdfb	-0.119502984
237	0xbc81c4d0	-0.015840918
238	0x3db9b8ae	0.09068428
239	0x3c90daf3	0.017682528
240	0xbddd863a	-0.10816617
241	0xbd7f5b06	-0.062342666
242	0x3c8f0faa	0.017463524
243	0xbd6d6cf1	-0.057965223
244	0xbbdca9d1	-0.006734111
245	0x3d10cae4	0.03534974
246	0xbd36ad33	-0.04459877
247	0x3cc75da4	0.024336644
248	0x3d8b71a9	0.06808788
249	0xbcd3fb73	-0.025876736
250	0xbd9228b3	-0.07136669
251	0xbd2ce2b7	-0.0422084
252	0x3d80e995	0.06294552
253	0xbdcc21fe	-0.09967421
254	0x3d674577	0.05646273
255	0x3d8f17b7	0.06986945

bias f4 [256]
0	0x3b972d3e	0.0046135476
1	0x3d2812c8	0.041033536
2	0xbd0cf64e	-0.034414582
3	0x3b739de1	0.003717296
4	0xbb0a35c1	-0.0021089169
5	0x3dc9d73e	0.09855507
6	0x3ca09d41	0.019606235
7	0xbdec339f	-0.115332834
8	0x3d03eaf0	0.032206476
9	0x3d4202be	0.047365896
10	0xbdcfdad0	-0.10149157
11	0xbdbabb4f	-0.091177575
12	0xbd802529	-0.06257088
13	0x3cc8b44c	0.024500035
14	0x3ddf6992	0.10908808
15	0x3bbd7fb9	0.005783048
16	0xbd38865e	-0.045050018
17	0xbdb37ca1	-0.087640055
18	0x3db40c9a	0.08791466
19	0x3a85d5dc	0.001021083
20	0xbcdd1752	-0.026988659
21	0x3b1c91c5	0.0023890596
22	0x3ca55fde	0.020187315
23	0xbdb4148f	-0.08792984
24	0xbde7301e	-0.112884745
25	0xbd7fa21b	-0.062410455
26	0x3d406fa2	0.04698146
27	0x3df10fb2	0.11770572
28	0xbd355893	-0.044273924
29	0xbd9b3290	-0.075780034
30	0xbddb0abb	-0.10695406
31	0x3db43641	0.087994106
32	0xbcf237f7	-0.029567702
33	0x3dc7aed6	0.09750144
34	0xbd1138a5	-0.03545441
35	0xbd92d556	-0.07169597
36	0xbdf6f893	-0.120591305
37	0xbd87cde6	-0.06631069
38	0xbdd55856	-0.10417239
39	0x3d1c66e2	0.038184054
40	0x3d9c6ae1	0.07637573
41	0x3d6fe879	0.058571313
42	0xbd231852	-0.039818116
43	0x3dac6d02	0.08419229
44	0xbdb5cf4e	-0.08877431
45	0xbd9d5655	-0.07682482
46	0x3d182c5d	0.037151683
47	0x3d9fd55f	0.07804369
48	0x3d08ed3f	0.03342938
49	0x3d9f86c4	0.077893764
50	0xbd963a1f	-0.073353045
51	0xbddffd1d	-0.109369494
52	0x3c954b0f	0.018224267
53	0xbcc5c2f2	-0.024140809
54	0x3cfa8406	0.030580532
55	0x3d59c584	0.05316688
56	0x3bc8a34e	0.006122983
57	0xbd8e1ce4	-0.06939104
58	0x3d15ae44	0.036543146
59	0xbd696ebb	-0.056990366
60	0xbe068c4b	-0.13139455
61	0xbdb8d930	-0.090258
62	0xbcb90557	-0.022585554
63	0xbdc16e12	-0.09444822
64	0xbdc11114	-0.094270855
65	0xbd19a1e0	-0.03750789
66	0xbd8d7f2f	-0.06909024
67	0x3dd0dafd	0.10198019
68	0x3c719fa6	0.014747536
69	0xbdcb5b35	-0.09929506
70	0xbd455acd	-0.048182297
71	0x3ce29b91	0.02766207
72	0x3daef926	0.08543615
73	0x3cae14e4	0.021250196
74	0xbd92ec07	-0.07173925
75	0x3d6d7a8f	0.05797821
76	0xbdb9a17e	-0.09064005
77	0xbd9668ee	-0.073442325
78	0xbdc99a67	-0.09843903
79	0x3d63d649	0.05562428
80	0xbd84c3d5	-0.064826645
81	0x3d706150	0.058686554
82	0x3c996dcc	0.018729113
83	0xbd24ce8b	-0.040236037
84	0xbd407c18	-0.046993345
85	0x3d3c0f94	0.045913294
86	0x3d6dd95b	0.058068614
87	0x3de4e4c9	0.1117645
88	0xbc208225	-0.009796654
89	0xbd5e087e	-0.054207318
90	0x3de182cb	0.11011275
91	0x3cd2daea	0.025739152
92	0x3d24ddab	0.04025046
93	0x3d840158	0.06445569
94	0xbd9d8eec	-0.07693276
95	0xbd9064f8	-0.07050508
96	0xbda6ea6f	-0.081501834
97	0xbc1298b8	-0.008947544
98	0x3d9eea20	0.077594995
99	0x3d0db6ba	0.03459809
100	0x3d2fd616	0.042928778
101	0xbde9f477	-0.11423581
102	0xbc2f9104	-0.010715727
103	0xbdf20f68	-0.11819345
104	0xbd8d66b2	-0.06904353
105	0xbb377e4e	-0.0027998867
106	0x3dac43df	0.08411383
107	0xbde3c239	-0.111210294
108	0x3d986c18	0.07442492
109	0x3ddc4573	0.10755434
110	0xbde3e6c2	-0.11127998
111	0x3d53819d	0.05163728
112	0xbd25cc4a	-0.04047803
113	0x3daf2c92	0.08553423
114	0x3d37b0e8	0.044846445
115	0x3d8bcac7	0.06825786
116	0x3decd3b7	0.11563819
117	0xbceeb5da	-0.029139448
118	0xbded542f	-0.11588322
119	0x3b3b1ed7	0.0028552318
120	0x3dd02158	0.1016261
121	0xbdf36f11	-0.118864186
122	0x3d7c041c	0.061527357
123	0x3dcaa216	0.09894197
124	0xbde0c98c	-0.10975942
125	0x3db60f78	0.08889669
126	0x3d6552a4	0.055987015
127	0x3ceeef23	0.029166764
128	0x3b5eb3c6	0.0033981665
129	0x3da52511	0.080637105
130	0x3c8dd23f	0.017312167
131	0xbdd6f044	-0.10495046
132	0x3d4b6b05	0.04966261
133	0x3cab1194	0.020882405
134	0x3cf7bb4e	0.030240681
135	0xbd4d1546	-0.050069116
136	0x3d9a7a6e	0.07542883
137	0x3c64aba4	0.013956938
138	0x3cb7b51c	0.022425227
139	0xbcdac926	-0.026707243
140	0xbcf58ab2	-0.029973362
141	0xbe06a6a6	-0.13149509
142	0x3bbe7355	0.0058120885
143	0x3d9e3cdd	0.077264525
144	0x3a455c73	0.00075287296
145	0x3da08496	0.07837789
146	0xbcde9a1e	-0.027173098
147	0x3b6ad5ec	0.0035833074
148	0xbbbbc2a4	-0.00572999
149	0xbd19794f	-0.037469205
150	0xbdf2556d	-0.118327
151	0x3cb16de9	0.021658855
152	0xbe009351	-0.12556197
153	0x3deb1b59	0.114798255
154	0x3d270795	0.040778715
155	0x3bd84bbe	0.006600826
156	0xbd0fdf21	-0.0351249
157	0xbdf742ec	-0.12073311
158	0xbd24b839	-0.04021475
159	0xbd3c6faa	-0.04600493
160	0x3d97b212	0.07407011
161	0xbd4be3c1	-0.04977775
162	0x3db6d54e	0.089274034
163	0x3e014987	0.12625705
164	0xbdd10497	-0.102059536
165	0x3d97688c	0.073929876
166	0xbd9cdfdc	-0.07659885
167	0x3dcaf9e2	0.099109426
168	0xbcb745ef	-0.022372214
169	0x3dc3622e	0.09540211
170	0x3dd3b747	0.10337692
171	0xbde6f214	-0.112766415
172	0xbdd4ae98	-0.103848636
173	0xbdb6cc6e	-0.089257106
174	0xbca35649	-0.019938605
175	0x3de04489	0.10950572
176	0xbceacf80	-0.028663397
177	0xbdfe30b3	-0.124116324
178	0xbdaa8ff7	-0.0832824
179	0x3dd6a9fa	0.10481639
180	0xbddc6f98	-0.10763472
181	0xbdc3b6e1	-0.09556366
182	0x3de969d6	0.1139714
183	0x3dc31b5b	0.09526702
184	0xbded6ac5	-0.1159263
185	0xbb0b657a	-0.0021270202
186	0x3debc8cc	0.11512908
187	0x3dcf235b	0.101141654
188	0x3cbf3b69	0.023343759
189	0xbd37016a	-0.044679083
190	0x3da1b352	0.07895531
191	0xbc560c57	-0.0130644655
192	0xbd7bc0c3	-0.06146313
193	0xbdcdf63a	-0.100567296
194	0x3d5bd01a	0.053665258
195	0x3d843143	0.064547084
196	0x3c58ca4a	0.013231823
197	0x3c6e8733	0.014558601
198	0xbc72ef68	-0.014827587
199	0xbd581c84	-0.05276157
200	0xbcd3d9e8	-0.025860742
201	0xbd7bccd9	-0.061474655
202	0xbda007b6	-0.07813971
203	0x3db201e9	0.086917706
204	0x3deb6d06	0.11495404
205	0x3d3c11c8	0.045915395
206	0xbde37eee	-0.11108194
207	0x3d206a7e	0.03916406
208	0x3d109ff8	0.035308808
209	0x3c599ba1	0.013281734
210	0x3dc6bc65	0.09703902
211	0x3b929974	0.0044738594
212	0xbd8221b3	-0.06354084
213	0xbcf9d597	-0.030497355
214	0x3c5df42c	0.013546985
215	0xbcf90217	-0.030396504
216	0xbdbbf485	-0.09177498
217	0x3df3cf20	0.1190474
218	0xbdd35642	-0.10319187
219	0xbdb45c04	-0.08806613
220	0x3de58272	0.11206521
221	0x3de1907b	0.110138856
222	0xbdd7c119	-0.10534877
223	0x3c72fb04	0.014830355
224	0x3ddace53	0.106838845
225	0x3dea3c60	0.11437297
226	0x3bb6d759	0.0055798707
227	0xbd38405d	-0.044983257
228	0x3da643a5	0.08118371
229	0x3da6d5f4	0.08146277
230	0xbd0ce402	-0.034397133
231	0x3d901770	0.0703572
232	0x3bebb485	0.0071931505
233	0x3cee94ef	0.029123751
234	0x3d56567b	0.052328568
235	0xbcf0f60f	-0.029414205
236	0xbd83aacf	-0.064290635
237	0x3d0d1e8a	0.034452952
238	0x3d21acf9	0.0394716
239	0xbdd2ddd2	-0.10296215
240	0xbcf611af	-0.03003773
241	0xbd3d2378	-0.046176404
242	0x3dc68397	0.096930675
243	0xbddd4a83	-0.108052276
244	0xbc37ddb0	-0.011222288
245	0x3d3d7bcd	0.046260644
246	0x3d748a5c	0.059702262
247	0xbc738df3	-0.014865386
248	0x3cb48517	0.022036118
249	0x3d42fd6c	0.047604963
250	0xbb6900d7	-0.003555348
251	0xbd457964	-0.04821147
252	0xbd9afc2f	-0.075676315
253	0x3d12067b	0.03565071
254	0x3d492366	0.049106024
255	0x3db5e746	0.088820025
