data/td_best_model.pth (torch, 456913 bytes, 33 tensors)

input.weight f4 [64, 10]
00000000: 3336 5dbd aa6d 20be 1f11 ca3c 3269 75bc
00000010: f800 4a3e d982 6ab8 fd5f f43d 68c3 43be
00000020: 553c 24be 070f c9bc 2edc 923e 9055 e4bd
00000030: f7b4 7d3e d117 273e c66c 473e 2003 8abe
00000040: 87f5 dd3d 7dd3 5cbe 353a 92be 3fb6 b2bd
00000050: 72e6 36bd fbb9 f9bc 85de 253e 804e 683e
00000060: f272 dc3c 4388 3d3e c85a 3e3e 8d6c e83c
00000070: d3ee 0a3e 67d5 3c3e c761 ad3d 31be 353e
00000080: 4c60 793e 6b99 0b3e 71f1 e3b8 902b 413e
00000090: 78b2 88be c057 8abe 6dd3 f83c a352 4c3e
000000a0: 4721 c73b 75dd 6cbd 471a d7bd d685 cc3d
000000b0: c838 62be 3bf0 413e f0a2 7fbd b1e4 65be
000000c0: 5054 83bd 5921 4439 3a9d 543d e2b7 7cbe
000000d0: b7cd 44bc 61b5 833e 38eb 453e 7efc 763e
000000e0: 6aa7 8ebd 5c5b 913d 759e 843e 6d5c 2bbe
000000f0: 312e 87be 33dc d73d 14e6 06be e08a 01ba
00000100: 9157 83be ab73 033e d3f6 15be 9ed4 1a3d
00000110: 03a9 abbd e568 8cbd 5457 4abd ac4a 96bc
00000120: 3318 863e 72c1 3b3e 4780 943e 2fb6 d33d
00000130: 9f74 8b3d dff4 15bd c846 363e 924e 0bbe
00000140: b6c1 d3bd b0fa 303e d574 6b3e 6a71 49be
00000150: 1cdf 4ebd b709 26be 0f82 67be 97f0 2f3c
00000160: 5e69 f13c 68c0 883e b870 ed3c 9b45 013c
00000170: 1d29 303e 7375 12be 40d2 203e d822 803e
00000180: 90fa a43d abf6 693e db1f 37be 9ced 0c3e
00000190: 7216 403d a65d a93c 1c7f 0e3c dd07 a3ba
000001a0: 7b26 3fbe 09a5 2c3d d0cc 1b3d e314 b23d
000001b0: e35b 5f3e 2e2a 0cbe f226 5cbe 34c2 853e
000001c0: a647 11be 6084 1e3d 376d d2bc d657 4bbe
000001d0: 3fba 36be 6777 d1bd 5346 97bd 5970 49be
000001e0: 4540 203e f40b 0dbe fd85 85be 72f9 fe3d
000001f0: 9d5b 41be a8b6 823e 7c10 523e e0ae 313d
00000200: 373e 9b3c 1a2f 47bd 4605 933e a91e 493e
00000210: 25e4 0d3e ea9d 0ebe 3de7 28be 2607 02be
00000220: 7f03 82be 4740 a53d 761a 8e3e d81a 033d
00000230: f1f1 083e 172e 8cbe a5bc 7cbe 5e93 5fbe
00000240: 2953 85be a2f9 d03d 010b b43b 8572 6e3e
00000250: 92d5 3fbe 2b6e 813d c086 5e3e 5c18 0ebe
00000260: 6d23 203e 8ad8 dd3d f26f abbd f28f 243d
00000270: abdf f3bd 1536 153e 9bb0 923e 4558 e63d
00000280: fafc 4dbe 4672 8a3e 70dc 17be d615 8c3e
00000290: fef8 2ebe bd23 41be 5892 38be f716 1abe
000002a0: d2c4 5bbd 3e3f e6bd a335 b5bd 52f6 873e
000002b0: 84b4 79be 749e 603e 50d6 3a3d f148 7bbe
000002c0: ac45 4ebe 2f33 69bd 9988 013e e9ff 40be
000002d0: 5220 833e abcb 813e e60e 823e 9687 87be
000002e0: 1bb4 983d 0670 ef3d b925 9b3d 40dc 00be
000002f0: 0fc0 2abe e530 88bc b3b8 4cbb a194 5cbd
00000300: b1be 033b b60e 79be 730b 89bb 3c4e f6bd
00000310: e71e 78be edd3 7dbe 1331 4cbe ce0c 7fbc
00000320: 0448 f8bd 8b1f df3d 4f5d fe3d 84cf 923d
00000330: 6ffb 36be 17b5 48be 2d8f 83be 9206 173e
00000340: 24b3 0a3e 4e6f 2abe 0ab1 c9bd 44b6 73be
00000350: 10e3 4e3d b329 4c3e 35fc 213e 105b 38be
00000360: 7f08 13be c1df 8d3e b062 323e 6f5e 24be
00000370: 2558 d9bc ec87 333e 3467 313d e8ef 69be
00000380: ad18 d53d 32ab 5ebe f34f 2abe 5522 7c3b
00000390: 3ca1 febd 8bac e33d d14a 2d3e 172d 93bd
000003a0: dedd eb3d d721 e63d 2ef5 eabc 6185 0abe
000003b0: 9dcd 823e 1d89 5cbe 244f 06be 2a4a 75bb
000003c0: 6406 44be 25d0 1a3d 101b 0a3d 615a 61be
000003d0: 2ddc f33d 7756 1fbd cabc a23d 18fc a6bd
000003e0: 21a3 5a3e 8c0e 5c3e 44af 47be 2d77 643e
000003f0: b959 e0bb fc45 1e3e 9351 053d 67ba a13c
-0.054006767 -0.15666834 0.024666367 -0.014978694 0.19726932 -5.591181e-05 0.11932371 -0.1911751
-0.1603864 -0.024543298 0.2868361 -0.11149132 0.24776064 0.16317679 0.19475088 -0.2695551
0.10837846 -0.21565051 -0.28560033 -0.08726167 -0.044653364 -0.03048419 0.16198166 0.22686195
0.026910279 0.18509011 0.18589318 0.028372074 0.13567667 0.18440782 0.08465915 0.17748334
0.2435314 0.13632743 -0.000108691755 0.18864274 -0.2669866 -0.27020073 0.030374253 0.19953398
0.006076965 -0.057828385 -0.10503059 0.09986465 -0.22091973 0.18939297 -0.06241125 -0.2245052
-0.06412566 0.0001870444 0.051907755 -0.2467952 -0.012011937 0.2572432 0.1932801 0.24119756
-0.069655254 0.070975035 0.25902143 -0.16734476 -0.2640243 0.105400465 -0.13173705 -0.00049416535
-0.25652745 0.12837093 -0.14644937 0.037800424 -0.08381846 -0.068559445 -0.04939969 -0.018346153
0.26190338 0.18335512 0.29004118 0.10337483 0.06809353 -0.03661048 0.17800438 -0.13604191
-0.10339682 0.1728313 0.22993787 -0.1967217 -0.050505742 -0.16214643 -0.22608207 0.010738513
0.029469188 0.26709294 0.028984413 0.00789013 0.17203183 -0.14302616 0.15705204 0.25026584
0.080556035 0.22848003 -0.17883246 0.13762516 0.046896406 0.020674538 0.008697297 -0.0012438257
-0.18667023 0.042149577 0.03803712 0.0869539 0.21812396 -0.13687965 -0.21499231 0.26124728
-0.14187488 0.03870046 -0.025686843 -0.19857726 -0.17844485 -0.10227852 -0.0738646 -0.19671763
0.15649517 -0.13774091 -0.26078787 0.12449922 -0.18882604 0.2552998 0.20514101 0.043379664
0.018950565 -0.048628904 0.2871496 0.19640602 0.13856561 -0.13927427 -0.1649446 -0.1269804
-0.25393292 0.080689006 0.27754563 0.032008022 0.13373543 -0.27378914 -0.24681337 -0.2183356
-0.2604001 0.10203864 0.005494476 0.23285873 -0.18733814 0.06319841 0.2173109 -0.1387648
0.15638514 0.10832317 -0.08370961 0.04017634 -0.11907896 0.14571412 0.28650364 0.11247305
-0.20116034 0.2704031 -0.14830184 0.2736041 -0.1708717 -0.1886129 -0.18024576 -0.15047823
-0.0536545 -0.11242531 -0.08848121 0.26555115 -0.24385267 0.21935445 0.04561454 -0.24539544
-0.20143765 -0.056933578 0.12649764 -0.18847622 0.25610596 0.253507 0.25401992 -0.2647063
0.074562274 0.11691289 0.075755544 -0.12584019 -0.16674827 -0.016624877 -0.003123802 -0.05385268
0.0020102675 -0.24322018 -0.004182273 -0.12026641 -0.24230538 -0.24787875 -0.19940595 -0.015567018
-0.12123111 0.10894688 0.12420141 0.07168487 -0.17869352 -0.1960033 -0.25695172 0.147486
0.13544899 -0.16644022 -0.09848221 -0.23799998 0.050509512 0.19937782 0.15818866 -0.18003488
-0.1435871 0.27709773 0.17420459 -0.16051649 -0.026531288 0.17532319 0.043311313 -0.22845423
0.10405097 -0.21744993 -0.1663206 0.0038472612 -0.12433097 0.11116894 0.16923071 -0.071863346
0.11516927 0.11236923 -0.028681364 -0.13527443 0.25547495 -0.2153668 -0.13116127 -0.0037428238
-0.19143063 0.03779616 0.033717215 -0.22007133 0.119072296 -0.03890082 0.07946165 -0.08153552
0.21351291 0.21489924 -0.19500452 0.22311087 -0.0068466333 0.15456384 0.0325485 0.019742204

input.bias f4 [64]
00000000: f197 4e3e 9126 a83d 3025 3dbd c264 f1bd
00000010: 1592 173e 0941 83be 449e 1bbd ee1d 893c
00000020: 2010 45be b231 723e 023b 9fbd b9f9 97be
00000030: f382 623d 46c7 a0be f859 41be 5a5b 3abe
00000040: eb25 2ebd fcd6 5c3e 7860 33be 4cd3 d0bd
00000050: b244 923e c8de 5e3e fa0c a7bd 6115 3d3e
00000060: 5df5 3f3e b2ab afbd e74c 8b3c 9fd4 0cbe
00000070: b79b 7e3d e88d 89be 352f 52be ebbb 243e
00000080: 656d bebd 72e0 163d 75ae f8bc c4b5 553d
00000090: 092c 08bc 5f1d 3f3b 4d49 ce3d 0fdc 9d3b
000000a0: eef7 203e 8dce 433e 0d00 8bbe c9ab fdbd
000000b0: d980 3bbe e6a8 31be 909d e23b 9ddb 5ebd
000000c0: a846 883e 87ab 9abe 143a 813e 55bf 4cbe
000000d0: f363 79bc 0c4d 203e 7be3 de3d aead 07be
000000e0: a9fc 9f3e 3bc5 5f3e 2789 f1bd 369c 3ebd
000000f0: 4846 9ebe 8b2c 8dbe 44e3 7c3e 20d0 083e
0.20175149 0.08210481 -0.046178043 -0.11786796 0.1480182 -0.25635555 -0.03799273 0.016737904
-0.19244432 0.2365177 -0.07774927 -0.2968271 0.055300664 -0.31402034 -0.18881977 -0.1819891
-0.04251663 0.21566385 -0.17517269 -0.10196552 0.28568035 0.21764672 -0.08156772 0.18465187
0.18745942 -0.0857767 0.017004443 -0.13752984 0.06216022 -0.26866078 -0.2052582 0.1608731
-0.09298209 0.03683514 -0.030356625 0.0521753 -0.00831128 0.0029161794 0.10072575 0.004817493
0.15719578 0.19121762 -0.27148476 -0.12386281 -0.1831087 -0.17349586 0.0069157556 -0.05440866
0.26616406 -0.3020899 0.25239623 -0.19994862 -0.015221584 0.15654391 0.10883232 -0.13249847
0.31247452 0.21852581 -0.11793738 -0.046535693 -0.30912995 -0.27573046 0.2469607 0.13360643

pe.pe f4 [1, 24, 64]
00000000: 0000 0000 0000 803f 0000 0000 0000 803f
00000010: 0000 0000 0000 803f 0000 0000 0000 803f
00000020: 0000 0000 0000 803f 0000 0000 0000 803f
00000030: 0000 0000 0000 803f 0000 0000 0000 803f
00000040: 0000 0000 0000 803f 0000 0000 0000 803f
00000050: 0000 0000 0000 803f 0000 0000 0000 803f
00000060: 0000 0000 0000 803f 0000 0000 0000 803f
00000070: 0000 0000 0000 803f 0000 0000 0000 803f
00000080: 0000 0000 0000 803f 0000 0000 0000 803f
00000090: 0000 0000 0000 803f 0000 0000 0000 803f
000000a0: 0000 0000 0000 803f 0000 0000 0000 803f
000000b0: 0000 0000 0000 803f 0000 0000 0000 803f
000000c0: 0000 0000 0000 803f 0000 0000 0000 803f
000000d0: 0000 0000 0000 803f 0000 0000 0000 803f
000000e0: 0000 0000 0000 803f 0000 0000 0000 803f
000000f0: 0000 0000 0000 803f 0000 0000 0000 803f
00000100: a46a 573f 4151 0a3f ce7a 2e3f b054 3b3f
00000110: ba7d 083f 0d94 583f f190 d13e c692 693f
00000120: 3e39 9f3e 6b4e 733f 258f 703e f1d5 783f
00000130: 3a23 353e 83f6 7b3f f325 083e 28ba 7d3f
00000140: 7675 cc3d 98b8 7e3f 366f 993d d147 7f3f
00000150: ae36 663d 6898 7f3f faac 2c3d bdc5 7f3f
00000160: 5b81 013d 3cdf 7f3f a53e c23c 93ed 7f3f
00000170: 42ab 913c a3f5 7f3f 497a 5a3c 2cfa 7f3f
00000180: 57d6 233c b9fc 7f3f 16b9 f53b 28fe 7f3f
00000190: 5a44 b83b f7fe 7f3f 5a2e 8a3b 6bff 7f3f
000001a0: 1c3e 4f3b acff 7f3f 0369 1b3b d1ff 7f3f
000001b0: 2015 e93a e6ff 7f3f 8bc9 ae3a f1ff 7f3f
000001c0: 6d12 833a f8ff 7f3f 8994 443a fbff 7f3f
000001d0: 136a 133a fdff 7f3f 2117 dd39 ffff 7f3f
000001e0: 61cb a539 ffff 7f3f 0da8 7839 0000 803f
000001f0: 5377 3a39 0000 803f 6dd4 0b39 0000 803f
00000200: b7c7 683f 3311 d5be d95a 7f3f 534d 913d
00000210: 0af2 663f b2e8 dc3e 1235 3f3f 0239 2a3f
00000220: 1b54 173f ec7b 4e3f b5d3 e93e 69be 633f
00000230: f647 b23e a6fa 6f3f 82f0 863e f5f2 763f
00000240: f86f 4b3e a5e5 7a3f d300 193e 4f20 7d3f
00000250: 86d9 e53d f361 7e3f ae85 ac3d 0e17 7f3f
00000260: c870 813d f97c 7f3f aa30 423d 4eb6 7f3f
00000270: 5ca5 113d 8ed6 7f3f 5075 da3c b1e8 7f3f
00000280: 3ed4 a33c e5f2 7f3f 51b7 753c a1f8 7f3f
00000290: 9b43 383c dbfb 7f3f 0a2e 0a3c abfd 7f3f
000002a0: d83d cf3b b1fe 7f3f e768 9b3b 43ff 7f3f
000002b0: 0815 693b 96ff 7f3f 80c9 2e3b c4ff 7f3f
000002c0: 6812 033b dfff 7f3f 8594 c43a edff 7f3f
000002d0: 126a 933a f5ff 7f3f 1f17 5d3a faff 7f3f
000002e0: 60cb 253a fdff 7f3f 0ca8 f839 feff 7f3f
000002f0: 5377 ba39 ffff 7f3f 6dd4 8b39 0000 803f
00000300: c381 103e 2670 7dbf de3c 473f cebf 20bf
00000310: d745 7e3f ab7f edbd 6321 743f 6318 9a3e
00000320: c209 503f 582f 153f b724 273f a2e7 413f
00000330: 6c2f 023f 296d 5c3f a768 c73e 37c9 6b3f
00000340: 6c4e 973e ef90 743f e26d 643e 928c 793f
00000350: d7ee 2b3e 9e5d 7c3f 2c33 013e 43f4 7d3f
00000360: c0ff c13d 4fd9 7e3f 0693 913d 3a5a 7f3f
00000370: 4e69 5a3d c3a2 7f3f c5d1 233d 90cb 7f3f
00000380: 1fb9 f53c 83e2 7f3f 4747 b83c 6bef 7f3f
00000390: c631 8a3c adf6 7f3f 4644 4f3c c1fa 7f3f
000003a0: 0d6e 1b3c 0dfd 7f3f 131d e93b 58fe 7f3f
000003b0: a8cf ae3b 11ff 7f3f 1317 833b 7aff 7f3f
000003c0: 929b 443b b5ff 7f3f 606f 133b d6ff 7f3f
000003d0: 171f dd3a e8ff 7f3f 56d1 a53a f3ff 7f3f
000003e0: 10b1 783a f9ff 7f3f 097e 3a3a fcff 7f3f
000003f0: 7ed9 0b3a feff 7f3f a4be d139 ffff 7f3f
0.0 1.0 0.0 1.0 0.0 1.0 0.0 1.0
0.0 1.0 0.0 1.0 0.0 1.0 0.0 1.0
0.0 1.0 0.0 1.0 0.0 1.0 0.0 1.0
0.0 1.0 0.0 1.0 0.0 1.0 0.0 1.0
0.0 1.0 0.0 1.0 0.0 1.0 0.0 1.0
0.0 1.0 0.0 1.0 0.0 1.0 0.0 1.0
0.0 1.0 0.0 1.0 0.0 1.0 0.0 1.0
0.0 1.0 0.0 1.0 0.0 1.0 0.0 1.0
0.84147096 0.54030234 0.68156135 0.731761 0.53316844 0.8460091 0.40930894 0.91239583
0.3109836 0.9504153 0.23492105 0.9720145 0.17689219 0.9842302 0.13295726 0.99112177
0.099833414 0.9950042 0.07491915 0.9971896 0.05620449 0.9984193 0.04215715 0.999111
0.031617504 0.99950004 0.023711512 0.99971884 0.017781857 0.99984187 0.013334819 0.99991107
0.009999833 0.99995 0.0074988706 0.99997187 0.0056233825 0.9999842 0.0042169513 0.9999911
0.0031622713 0.999995 0.0023713715 0.9999972 0.0017782785 0.99999845 0.0013335211 0.9999991
0.0009999998 0.9999995 0.000749894 0.9999997 0.0005623411 0.9999998 0.00042169637 0.99999994
0.00031622782 0.99999994 0.00023713727 1.0 0.00017782794 1.0 0.00013335208 1.0
0.9092974 -0.41614684 0.99748 0.070948265 0.9021307 0.43146282 0.74690354 0.66493237
0.5911271 0.8065784 0.45669332 0.8896242 0.34820527 0.93741834 0.26355368 0.96464473
0.19866931 0.9800666 0.1494172 0.98877424 0.1122313 0.9936821 0.08423935 0.99644554
0.063203394 0.9980007 0.04740969 0.9988755 0.03555809 0.9993676 0.026667267 0.99964434
0.019998666 0.9998 0.014997319 0.9998875 0.011246587 0.99993676 0.008433828 0.9999644
0.006324511 0.99998003 0.00474273 0.99998873 0.0035565514 0.9999937 0.0026670396 0.9999964
0.0019999985 0.99999803 0.0014997876 0.99999887 0.0011246821 0.99999934 0.0008433926 0.99999964
0.0006324556 0.9999998 0.0004742745 0.9999999 0.00035565588 0.99999994 0.00026670416 1.0
0.14112 -0.9899925 0.7782725 -0.6279267 0.9932532 -0.11596616 0.95363444 0.3009673
0.8126489 0.58275366 0.652904 0.7574407 0.5085361 0.86104065 0.3894703 0.92103904
0.2955202 0.9553365 0.22307542 0.9748012 0.16790329 0.9858035 0.12617177 0.9920084
0.094726086 0.99550337 0.071081206 0.9974705 0.053323083 0.9985773 0.039994974 0.99919987
0.0299955 0.99955004 0.022494925 0.999747 0.016869437 0.9998577 0.012650555 0.99991995
0.009486687 0.999955 0.0071140616 0.9999747 0.005334813 0.99998575 0.0040005534 0.999992
0.0029999954 0.9999955 0.0022496805 0.9999975 0.0016870227 0.99999857 0.0012650888 0.9999992
0.00094868336 0.9999996 0.00071141176 0.99999976 0.0005334838 0.9999999 0.00040005625 0.99999994

transformer.layers.0.self_attn.in_proj_weight f4 [192, 64]
00000000: c046 abbd 71d3 c8bc 8b2b f4bc fe06 003d
00000010: 4776 f53d a314 07bd 82cb 08be b28f fdbd
00000020: 97cf a83c 774a ac3d 9c2a 97bd fb88 eb3d
00000030: 6f31 073d ac34 c33d 52d4 563d ccfa 13be
00000040: 0729 983d 517e 0f3e b76d 813b aedb 233d
00000050: 9ed3 023e 195f 8e3d e07a a1bd 071a 993d
00000060: 7911 b5bd a98c 283b e558 dd3d 3efb 993b
00000070: 93d2 c43c f1b7 cdbd a41b dfbd dfb1 023e
00000080: b886 683d da52 ee3b 6a89 ae3d 626a d83d
00000090: 3bbc 12be c327 583d 18e2 0d3d 1979 323d
000000a0: 3c84 913d af96 813d 31d0 c73d a52a 1d3e
000000b0: d509 293d ade1 aabc 35c4 ddbc d2ed 2e3e
000000c0: 6256 83bd 10b7 db3d 641c eb3d 5e1d f33d
000000d0: 7cbe e6bd d2ff 983c 08f7 94bd 3ced e2bc
000000e0: cd1b 0f3e 0798 203e b8bd fbbd c73f 59bd
000000f0: 71c3 0cbe f773 1e3e 7826 f93d 2bfc 40bd
00000100: ef60 8bbd a522 a5bd 226d 59bd 8081 983d
00000110: 92df 9f3d aef1 d5bd 720a 8f3d 9959 a23d
00000120: 2797 3fbd 21ae 0c3d f146 d4bd 3658 ac3d
00000130: 4c11 82bd b0ac 723c d227 0abd 4462 ea3d
00000140: e548 9f3d 678c 43bd c8bc f5bd 4a01 8cbc
00000150: f48a 14be 3228 17bd efe0 00be a5c2 e33c
00000160: 62c2 9fbd 140d fbbd db45 843c 767e fc3b
00000170: e219 58bc aa4e 973d ce80 b23d f8cf 96bc
00000180: 8a9a b6bd 386f 973c f04a 273d 2cf7 20bd
00000190: 1df3 98bd 9d6d 83bd 0e61 d0bd 329b 44bd
000001a0: 220c 383d ef8c 953d d824 6d3d d44e 07bc
000001b0: cc7c c13d 1054 49bd 4898 793d 4da9 ffbd
000001c0: 97bb 763b a62a 8f3d 78c5 dfbd 6dcb 7f3a
000001d0: 4eab f53c f0d2 a4bd 1d90 c0bc ed51 03be
000001e0: e10a 8dbc 3e2e a03d d41e ccbd 2881 0fbd
000001f0: 81db 3cbd 90c0 eebd a6d1 ca3d 2f27 113e
00000200: 9cc6 ed3c 1260 e5bd e416 c0bb 56b3 8abd
00000210: 3394 d1bd 2a94 c83d 0e99 c63c 4747 053d
00000220: 18e5 d9bd a6a9 44bc bbd3 12bd 1b1b 1f3c
00000230: 8641 113d 886c b03c f05e 7a3c 4786 e03d
00000240: be8c edbb 8ab6 863c 3e68 4cbd 3c3b 153d
00000250: f6a9 dfbd 8c3e 07be a717 e93d 00ca e4bd
00000260: 665c 093e e7af 7f3d b84a f03d 083d 1bbe
00000270: 63c8 80bc 6e1b ca3c 3773 a63d a844 293c
00000280: 0466 023d f8e7 063d 9bb4 12be 0b83 513c
00000290: db7c a6bd 5cfd b0bd 7242 063e 02ef c93d
000002a0: fe34 553d 81f2 82bd 6d8f ea3c d7aa 143e
000002b0: d450 81bc bc09 b53d d659 ddbd 20e8 1dbe
000002c0: e898 e7bd 0b4f 08be faa5 c9bd 961e 09be
000002d0: bc3d c7bd ef3f a8bd d6e3 bcbd 7ecc e03d
000002e0: 7959 623c 1b0c e0bc 8111 bebc 60d8 323d
000002f0: 809a aa3c 4790 da3d 3239 1a3c 4614 eebd
00000300: 43c7 57bd 4aa2 cebc 74d6 243e b671 c23d
00000310: ab5d b7bd 6a5a 4abd f7ef 5abd d609 183e
00000320: 2f67 bbbd b1da c13d 3e25 b93d 6e43 e93c
00000330: 6910 aa3d 45e6 ef3d b6c5 debd a98a 643d
00000340: 8b70 4ebd 3269 d6bc 496b a73d 1ec9 933d
00000350: fc1c d53b 17a9 a53d 53d8 9e3d 3396 ec3c
00000360: e6e6 a5bd 41c0 98bd d6ff ee3d 923f a23b
00000370: 10c0 933d 16a1 033d c9f8 c8bd a0dd 203b
00000380: 2103 00be 7050 703b 8c9f 2c3e 36ac aabd
00000390: b86f 6a3c e950 be3d f681 a6bd 9f8a 153e
000003a0: 4a26 bbbd ebb0 433d e930 c3bd 34bc 1abe
000003b0: 4ad6 50bd 51b7 f83c 98ab 34be d180 2b3c
000003c0: 51fd adbd 1812 0f3e a555 ac3d 6910 7f3d
000003d0: a523 1bbd bae4 98bd 9312 553a d196 fb3c
000003e0: 479f 3ebd 2622 ef3d b679 ca3b c2c5 31bd
000003f0: e58a 4abd 9fae 393d d31e df3c 7aed 68bd
-0.08363104 -0.024514886 -0.02980592 0.03125667 0.1198545 -0.032978665 -0.13358882 -0.12380923
0.020606799 0.084126405 -0.07381174 0.11500736 0.033006128 0.09531531 0.05244858 -0.1445114
0.074297 0.1401303 0.0039498466 0.040004425 0.12776038 0.06951732 -0.07884765 0.074756674
-0.08841223 0.0025718606 0.10807971 0.00469914 0.02402619 -0.1004485 -0.10893944 0.12763165
0.056769103 0.0072730603 0.085223034 0.10567166 -0.14329617 0.052772295 0.034639448 0.04357252
0.071053 0.06327569 0.09756506 0.15348299 0.041269142 -0.020859564 -0.027071098 0.17082909
-0.064129606 0.10728276 0.114800245 0.11870836 -0.11266801 0.018676672 -0.0727368 -0.027701013
0.13975449 0.15682994 -0.12292045 -0.05303934 -0.1374643 0.15473925 0.121655405 -0.047115486
-0.06805598 -0.080632485 -0.053082593 0.07446575 0.078063145 -0.10446487 0.06984414 0.07927246
-0.04677501 0.03434575 -0.103650935 0.084152624 -0.06350955 0.01481168 -0.03372938 0.11444524
0.077775754 -0.04774132 -0.11998898 -0.017090458 -0.14506131 -0.036903568 -0.12585805 0.027802775
-0.078007475 -0.12258354 0.016146591 0.007705505 -0.013189765 0.07388051 0.08715974 -0.018409714
-0.08916195 0.01848565 0.04084295 -0.03929822 -0.07468245 -0.064173914 -0.10174762 -0.04799957
0.044933446 0.073022716 0.057896465 -0.00825854 0.09447631 -0.049152434 0.060936242 -0.124834634
0.0037648433 0.069905564 -0.10926336 0.0009757791 0.029988911 -0.08048046 -0.023506219 -0.12824221
-0.017217102 0.0782132 -0.099668175 -0.035035282 -0.046107773 -0.11657822 0.099032685 0.14175104
0.029025368 -0.111999646 -0.005862104 -0.06772487 -0.10233345 0.09793885 0.024242904 0.03253868
-0.10639399 -0.012003338 -0.035846453 0.009711052 0.03546288 0.021536127 0.015281424 0.10963111
-0.007249444 0.016444463 -0.0499041 0.036433443 -0.10921089 -0.13207453 0.113814645 -0.11171341
0.13414153 0.062423613 0.117330015 -0.1516 -0.015720552 0.024671283 0.08127444 0.01033131
0.03183557 0.032936066 -0.14326708 0.012787591 -0.08129283 -0.086420745 0.13111284 0.0986004
0.05205249 -0.0639391 0.028632844 0.14518295 -0.015785612 0.08839747 -0.108081505 -0.1542058
-0.113084614 -0.13311402 -0.09846111 -0.13390574 -0.09728572 -0.08215319 -0.09223144 0.10976504
0.013815277 -0.027349522 -0.023201706 0.043663383 0.020825624 0.1067205 0.0094130505 -0.116249606
-0.052680265 -0.02522387 0.16097432 0.09494345 -0.089534126 -0.04940263 -0.053451505 0.14847502
-0.0915054 0.0946554 0.090403065 0.028474536 0.08303911 0.11713842 -0.10877554 0.0557963
-0.050400298 -0.026173208 0.0817476 0.072160944 0.0065036993 0.08088892 0.07756104 0.028880214
-0.08100681 -0.074585445 0.116698906 0.004951426 0.072143674 0.032136045 -0.09813077 0.0024546161
-0.12501194 0.0036669038 0.16857737 -0.08333628 0.014308862 0.09292776 -0.08130257 0.14603661
-0.091381624 0.047776144 -0.09530813 -0.15110856 -0.050985612 0.03036085 -0.17643583 0.010467724
-0.08495582 0.13971746 0.08414773 0.06227151 -0.03787579 -0.07465501 0.0008128073 0.030711563
-0.046538617 0.11676435 0.00617906 -0.043401487 -0.049448866 0.045332547 0.027236378 -0.0568671

transformer.layers.0.self_attn.in_proj_bias f4 [192]
00000000: 1349 f73c e51a c1bb cb35 3cbc d1a4 903c
00000010: ef5f e4bc 4f29 f33c e09c e33c 34e0 883d
00000020: bb93 a43b b7be 573a 5c0f 4a3c dc0f 05bc
00000030: a7b5 243d 6c46 dd3c f648 2fbd 6cef 973c
00000040: eefb 2dbb a88f 203d 0129 023d 6326 2cbc
00000050: 5ca5 03bb b030 753d 1e5f 8c3b dbc9 5dbd
00000060: 05cf a83c dbfd 5a3c 394c f8bc 730c d5bc
00000070: b106 afbc ed03 a43d dbc0 333d c3e9 35bb
00000080: f637 623c 8911 1dbb f9a7 663d 8296 2cbc
00000090: 0d08 9a3c d655 c9bb 4472 ebbc 7afb d5bc
000000a0: 21f8 303d d7ce 38bd a32a 22bb d9c4 e03c
000000b0: 262d b1bc 2e39 3abc 9c6f 343d b1f3 0dbc
000000c0: 4cf5 043d adbc 49bd bc9b 3d3b a402 64bd
000000d0: 4e75 a93c e534 21bc ce79 9cbd 3663 acbb
000000e0: 5c9e b2bc 0130 763d d334 773c 4444 45bc
000000f0: 8f82 6abd 5b88 0cbd f766 15bd 9f86 f63c
00000100: de07 ba3a b070 afba d54a d9b9 49c5 393b
00000110: 1bf4 25bb 0cf7 243b 1afe 923a 82f9 443b
00000120: fe6c 9aba bf20 c5ba ebf9 e23a 78d6 3a37
00000130: 355c 673b b47e a4b8 a3d4 41bb d9e7 883a
00000140: 3eb5 5639 9c9e 0439 7684 d7b9 cb28 0d38
00000150: 6a11 c4b9 4902 9e39 546a 15b9 a772 35ba
00000160: a7b9 cfb9 c09c 4539 ed79 75ba e553 db39
00000170: b5d7 27b9 535a 3639 81c9 773a 6c77 10b8
00000180: 563f f0b8 d94b d738 03d0 90ba d442 6e39
00000190: 648e 183a 4efb e8b9 aa36 033a 4b27 623a
000001a0: 5a11 38ba 82ea c13a fa77 5a3a 1992 fb39
000001b0: d9bb 40b9 0bd1 c2b9 0ca5 f4ba 1748 90b9
000001c0: 7ec8 a939 c061 b1b9 3034 a6b9 bed8 5d39
000001d0: b48b c3b9 efaa 6c39 62cc 9db9 c0e1 cd38
000001e0: 1088 d939 7856 8fb9 2f8b a438 72bd 9638
000001f0: b946 9239 7da5 13b8 e771 9b39 383f 19b9
00000200: 5c91 063c f825 87b9 6a52 bc3a 91af 35b9
00000210: 0758 94ba 76ef 91bb 2b87 1e3b 18c7 b43b
00000220: 5947 423c ef17 613b bea8 df39 600d af3b
00000230: cbd6 8e3a 67f4 683b a357 de3b e95a a63b
00000240: 317f 11bb b672 8c3b 1ea2 0dbb 5771 4fbc
00000250: 397b f0bb a06e 96bb 9bd0 c0bb 866b 453a
00000260: 6b9f 4f3b 5d9d b8ba 87c5 bcb9 8e48 bc3b
00000270: 5724 f0ba 6079 aebb 2fee 1abc bce5 44bc
00000280: 4a2c aa3a 0c38 95bb af19 2aba f3c5 2fbb
00000290: 829f b0bb c0ae 8ebb a70b fe3a 8a46 dbbb
000002a0: d4f4 803b 4603 6ebb 2180 d33b f8ab 72bc
000002b0: a3c1 113c bd16 69bb 1b4a cf3b bbb1 83bb
000002c0: 9ac0 00bc a8b0 42ba dc30 fdbb 8b00 483a
000002d0: 437b b03b a29e 29ba 5819 0f3c 828f c83a
000002e0: ef31 0b3c 9a41 9e3a 0cdf ae3a cba0 3a3b
000002f0: a00d 8a3b 6588 4c3b 8125 093b 0b63 013c
0.030186212 -0.0058930987 -0.011487435 0.017656716 -0.027877776 0.029682783 0.027784765 0.06683388
0.0050224937 0.0008230018 0.0123327635 -0.008121457 0.0402123 0.027011119 -0.04279419 0.018546782
-0.0026547867 0.0391995 0.031777386 -0.010507199 -0.0020087576 0.059860885 0.0042838 -0.054147583
0.020606527 0.013366188 -0.030309783 -0.026006913 -0.021365495 0.08008561 0.043885093 -0.002775774
0.013807287 -0.002396675 0.056312535 -0.010533931 0.018802667 -0.0061442656 -0.02874101 -0.02612089
0.043205384 -0.045119133 -0.0024744652 0.027437614 -0.021627974 -0.011366172 0.04405175 -0.008664058
0.032460496 -0.0492522 0.0028931936 -0.05566658 0.020685818 -0.009839271 -0.0764042 -0.0052608503
-0.021804027 0.060104374 0.015088278 -0.012040202 -0.057253417 -0.034309726 -0.036475148 0.03009349
0.0014193018 -0.0013385024 -0.0004144522 0.002834635 -0.00253225 0.0025171665 0.0011214644 0.0030055945
-0.001178175 -0.0015039666 0.0017316913 1.1136399e-05 0.0035302762 -7.84373e-05 -0.0029576204 0.0010445073
0.00020476148 0.00012647588 -0.00041106687 3.365501e-05 -0.00037397008 0.0003013781 -0.00014249358 -0.00069216866
-0.00039620438 0.00018845778 -0.00093641767 0.0004183344 -0.00016006718 0.00017390521 0.00094523287 -3.4443496e-05
-0.00011455889 0.000102661266 -0.001104832 0.00022722344 0.00058195577 -0.00044437725 0.0005005399 0.0008627071
-0.00070216286 0.001479462 0.0008333918 0.00047983302 -0.00018380526 -0.00037158313 -0.001866491 -0.0002751953
0.0003238357 -0.000338329 -0.0003170087 0.00021156945 -0.00037297385 0.00022570392 -0.0003009765 9.817211e-05
0.0004149084 -0.0002733951 7.846054e-05 7.187844e-05 0.00027899983 -3.5201654e-05 0.00029648768 -0.00014614768
0.008213367 -0.00025777495 0.0014367823 -0.00017326909 -0.0011317738 -0.004453595 0.0024189453 0.005516898
0.011857831 0.003434654 0.00042659597 0.0053421706 0.0010897754 0.0035546066 0.0067853495 0.0050767553
-0.0022201056 0.0042861355 -0.0021611522 -0.0126613 -0.007338908 -0.0045908242 -0.0058842427 0.0007530976
0.0031680714 -0.0014084984 -0.00036005324 0.005745954 -0.0018321377 -0.0053245276 -0.009456201 -0.012017664
0.001298317 -0.0045538004 -0.00064888125 -0.0026820868 -0.0053901086 -0.004354328 0.0019382135 -0.0066917585
0.003935436 -0.003631787 0.006454483 -0.014811508 0.008896264 -0.0035566532 0.0063259727 -0.00401899
-0.00785842 -0.00074268365 -0.0077267718 0.00076294754 0.0053857877 -0.00064704765 0.00873407 0.0015301558
0.008495792 0.0012073994 0.001334162 0.0028477188 0.00421305 0.0031209227 0.0020926895 0.007897149

transformer.layers.0.self_attn.out_proj.weight f4 [64, 64]
00000000: 9b8f 933b 8f1a 593d afb3 58bd 908d 5ebe
00000010: 3a82 1dbe d9fd 1bbd 0a9c 5a3c cb84 5fb9
00000020: 9651 f3bd 85b2 f7bd 75d4 ba3c 8557 a93d
00000030: a6f9 523e 6a6a e13d 0a64 5f3e b5b5 2b3e
00000040: 4dc7 1bbe d990 11be b631 54bd 3a86 1b3e
00000050: 8ef4 25bd 43e9 a03b 9a46 52be 3472 12be
00000060: a563 15be ab06 2ebe 1cb2 47be 8649 163e
00000070: f426 00bb be01 4a3e c1ac 1fbe eeb6 14be
00000080: ee83 35bd 418a a83d 3b50 1c3e 3dcd 273e
00000090: c027 acbc 0e3f 87bd c477 0b3e 3a6c 7abd
000000a0: 4479 543e 8dff bdbd c894 1d3e 38b9 453e
000000b0: 87fc 10be 1db6 cc3d 5cd8 513e fd54 e8b9
000000c0: a6bd 08be cdc1 b13d 51d4 0bbd 40bc 27be
000000d0: 696a e53c a358 50be dec1 0e3e 56d7 01be
000000e0: 4c70 27be 22d6 94bd f44f 05be 3f90 383e
000000f0: c2be 1b3e c183 913d 0828 16bc e128 74bd
00000100: a087 243d 3883 cc3d 2211 633e 2efd 343e
00000110: 5b1c 303e e400 53bc 3be3 9a3d f289 0cbe
00000120: 8b3c 073e d3d7 c4bd cf12 a93d b3bc cd3c
00000130: cafc 033e 1e05 a8bb 8294 93bc 0d42 2abe
00000140: c806 e43c 2980 043e e97a 4cbd 0671 a5bd
00000150: cce2 81bd 78e8 ea3d 2671 ed3c 2315 0dbe
00000160: c0a7 83bd 1dc0 233e 2b0b 443d 1995 273e
00000170: 52d0 873d 303e 723c 009d 10be f2b3 3fbe
00000180: c3ec f93d 28f4 c83d 8a0c 52bc c2b7 02bd
00000190: 9d3f 27be a81d bbbd c1d7 04be 278e dfbd
000001a0: 513b 1abd f25e 413d 9715 113e 36fa 513e
000001b0: a254 673e aed2 43be d074 e8bb f0ae 1abe
000001c0: 73bb 023e fc1d 49be 7d6f 51be 4b53 103e
000001d0: 048a 0e3e 8db9 1fbe 09f5 803d ad3c 2dbe
000001e0: ebb3 8fbc 979a 4b3d 0d21 75bd b2c7 c93d
000001f0: ca37 7c3d 87a1 373e f7a3 343d bfb2 bebb
00000200: 6765 99bd c228 78bd a25b 173d 9d20 1dbe
00000210: b00a 3a3e d1ed 07bd 37d0 8c3b 0637 533e
00000220: c082 df3d 4423 433e f305 1c3e 1504 e93d
00000230: 2f4d c2bd 893f 66bd 9389 033e 1d63 4c3e
00000240: 6434 6b3d 05f4 853d 100d 143c 284b 16be
00000250: e757 933c 522c 293e 32df 40be a8e8 1f3e
00000260: 827d 4c3d a7bc 4e3c 5342 4a3e 7333 0e3c
00000270: f8ac 50bd 833d 1b3e 1630 b73d 188a 4fbe
00000280: dc32 dbbd 92ea e63d ea37 0f3e d60f 5fbd
00000290: 8ba1 58bd b21b 983d 79a8 103e 860f eb3d
000002a0: 87be 523d 9ba9 4a3e a85e c5bd f633 30bd
000002b0: 7489 f03c 2378 5f3d e6d0 53be f65d 533e
000002c0: 22fc 8dbc ba0a b93c 2955 c7bd 7a78 9bbb
000002d0: db9f 9ebb 950a 3b3e 06af d63d 898f a33d
000002e0: 2970 9bbd 34e3 03bd c14e cabd 6575 0ebe
000002f0: e41f 32be 0da4 6d3c 37c0 96bd 9b18 243e
00000300: 6919 84bd 2eee 13bd 12dd 49be 95e1 423d
00000310: 028c 273d 5cdd 193e 6cee 21be 86e7 67bd
00000320: 1658 f93b 67f7 583c 8ff8 cb3d f0dd a43c
00000330: b38a 5bbe effa 9cbd 6353 57be 9ae0 09bc
00000340: e097 43be cdff 2a3e 16fa 583e 90e7 19bd
00000350: 661d 87bd 4f80 4fbe b360 e2bd a32d 1dbe
00000360: b94d e83d 79ab 413e 24f8 3bbd c01f c8bc
00000370: c28a 173e eaee 8abd 7c16 3ebd 4e4b 183e
00000380: 03a6 ca3c 1ec4 003e b9ac 92bd 1704 40be
00000390: 17c6 093e 1f68 5abe 2624 66bd aa3f 30be
000003a0: 8cab dd3d 0350 333e ec74 9eba 42ad 99bd
000003b0: 6688 68bd da80 023e dd55 45be 8bf7 213e
000003c0: c419 b3bc e3b7 54be ffa4 6a3b 15b7 ab3d
000003d0: 96b2 08be 8487 84bd a2a9 4dbe d1ad e2bd
000003e0: e291 4cbe c590 0d3e 9fa8 c9bb a4a8 26bc
000003f0: c701 12be 1424 74bd aaad 60bd a224 243e
0.004503203 0.053003844 -0.052905735 -0.2173369 -0.15381709 -0.038083885 0.013342867 -0.00021316406
-0.11880796 -0.12094597 0.022806386 0.08268646 0.20603046 0.11006625 0.21815506 0.16768534
-0.15212746 -0.14215411 -0.05180522 0.15187922 -0.04051643 0.0049106195 -0.20534745 -0.14301378
-0.14588793 -0.16994731 -0.19501537 0.14676484 -0.0019554468 0.19727227 -0.15593244 -0.14522907
-0.04431527 0.08229495 0.1526498 0.16386886 -0.021015048 -0.066038236 0.13619906 -0.06113837
0.20749384 -0.09277258 0.15388787 0.19308937 -0.14158832 0.09995673 0.20492691 -0.0004431381
-0.13353595 0.08679543 -0.034138028 -0.16380405 0.028004842 -0.20346312 0.13941142 -0.126798
-0.16351432 -0.07267405 -0.13018781 0.18023776 0.15209487 0.07105208 -0.009164818 -0.059609298
0.040168405 0.099859655 0.22174504 0.17674705 0.17198317 -0.01287863 0.07562872 -0.13724497
0.13206689 -0.09611478 0.082555406 0.025114393 0.128894 -0.005127563 -0.01801515 -0.16626759
0.027835265 0.12939514 -0.049921904 -0.08078198 -0.06342086 0.11470121 0.028984617 -0.13777594
-0.0642848 0.15991254 0.047862213 0.1636547 0.06631531 0.0147853345 -0.14122391 -0.18720987
0.12203362 0.09812194 -0.012820372 -0.031913526 -0.1633286 -0.09136516 -0.12972929 -0.10915785
-0.037654225 0.047209688 0.14168392 0.20505604 0.22590879 -0.19123337 -0.0070940033 -0.15105796
0.12766819 -0.19640344 -0.20452686 0.14094274 0.13919836 -0.15598126 0.06296737 -0.16917677
-0.017541846 0.049707975 -0.059845973 0.09852542 0.061576642 0.17932712 0.04410168 -0.005819648
-0.07490044 -0.060585745 0.036952622 -0.15344472 0.1816814 -0.033185784 0.004297282 0.20626459
0.109136105 0.19056422 0.15236644 0.11377732 -0.09487378 -0.056212936 0.12845449 0.19959684
0.05742301 0.06540684 0.0090363175 -0.14677107 0.017986251 0.16520813 -0.18835142 0.15616095
0.04992438 0.01261822 0.19751863 0.008679259 -0.050946206 0.15160184 0.089447185 -0.20267522
-0.1070306 0.112752095 0.13986173 -0.05445846 -0.052888434 0.074271575 0.14126767 0.1147757
0.051451232 0.19791262 -0.09637195 -0.043018304 0.029362418 0.05455793 -0.20685157 0.20641312
-0.01733214 0.022588123 -0.0973304 -0.0047445865 -0.0048408336 0.18265755 0.10482602 0.079863615
-0.07589752 -0.0321991 -0.09878302 -0.1391197 -0.17394978 0.014504445 -0.07360881 0.16025011
-0.06450159 -0.036115818 -0.19713238 0.047578413 0.040905006 0.15025848 -0.15813607 -0.056617282
0.0076093776 0.013242579 0.09959518 0.02012536 -0.21439628 -0.07665049 -0.21027903 -0.008415366
-0.19100904 0.16699143 0.2118915 -0.03757435 -0.06597404 -0.2026379 -0.110536 -0.1534944
0.113429494 0.18913068 -0.045890942 -0.024429202 0.14799026 -0.067838505 -0.04640816 0.14872476
0.024737364 0.12574813 -0.071618505 -0.1875156 0.13454472 -0.21328782 -0.056186818 -0.17211786
0.108237356 0.17510991 -0.0012089289 -0.075037494 -0.056770705 0.12744465 -0.19271035 0.15817086
-0.021862872 -0.20773272 0.0035803912 0.083845295 -0.13349375 -0.0647116 -0.20084241 -0.11068309
-0.19977525 0.13824756 -0.0061541344 -0.010172043 -0.1425849 -0.05960472 -0.05485312 0.160296

transformer.layers.0.self_attn.out_proj.bias f4 [64]
00000000: 2b0f 093c 2ff8 813c 0d51 633b ced5 32bb
00000010: e865 35bc 2a75 1f3c f1d6 a9bb f0c6 f2b9
00000020: 744c 8c3b e264 1c3c 636a eb3a 2941 62ba
00000030: 0d46 7cbc c5dc 9ebb 41fe 43bc 183f 56bb
00000040: e059 343c 8ed4 343c 46ec 3db9 0026 13bb
00000050: 0c53 38bb 35e7 823a 177f afbb def6 90ba
00000060: 4497 80bb 06a5 de3b 4851 a03a 3879 3bba
00000070: 502e 9bbb 2630 9a3b c2b0 b83b 77c6 b5bb
00000080: 7349 08bc 0220 3e3c 60f2 9d3b f5c5 4c3b
00000090: af0b 043c b5a1 003b 663a 733a fe8f e4ba
000000a0: aa00 3cbc 0e45 da3b 9b15 9d3b 1730 efbb
000000b0: 1c1d 9b3b d428 713a 3f63 d33b a03f a53b
000000c0: 774f 38bc ac13 47bb 37d8 2eb9 a103 d0bb
000000d0: 6226 1f3c 46cb a53a 1478 293b d1da a5bb
000000e0: 3fc9 433c 9cb0 a0bb 4320 f7bb 639e db3b
000000f0: 46b8 38bc ed84 4a3a 52c7 f6bb 350c d239
0.008365433 0.015865413 0.0034685761 -0.0027288082 -0.01107166 0.009732524 -0.0051830937 -0.00046306057
0.004281575 0.009545537 0.0017960783 -0.00086309254 -0.015397561 -0.004848095 -0.011962474 -0.0032691415
0.011007756 0.011037005 -0.00018112463 -0.002245307 -0.0028125672 0.0009987118 -0.0053557265 -0.00110599
-0.0039242823 0.0067945747 0.0012231255 -0.0007151547 -0.0047357455 0.004705447 0.0056363055 -0.0055473405
-0.008318293 0.011604311 0.004820153 0.0031245921 0.008059426 0.0019627635 0.00092784164 -0.0017437933
-0.011474768 0.006661064 0.0047938353 -0.007299434 0.0047336947 0.0009199504 0.00645104 0.005042985
-0.011249415 -0.0030376716 -0.0001667448 -0.006348089 0.009713741 0.0012649081 0.0025858926 -0.0050614853
0.011949836 -0.004903866 -0.0075416877 0.006702231 -0.011274403 0.0007725496 -0.007531085 0.00040063416

transformer.layers.0.linear1.weight f4 [256, 64]
00000000: 7793 83bb e1f4 8c3d fdd5 033c 805c f9bd
00000010: 1abf abbd 7949 ac3d 6797 fabd 2ca4 0c3e
00000020: a3c3 b8bd d879 9f3d 560d 813d c291 863d
00000030: da1b 25bd 5aba 8cbd b8bc 5d3d cd9c db3d
00000040: f991 09be 62b2 e4bd b2ff eabc 6a0b 03be
00000050: aac9 903c f956 19bd 4c51 d53d 4721 edbc
00000060: 0ce3 1e3c 7520 2fbd da9f 713d 7287 d8bc
00000070: a96a 4a3d d76d 823d 1f68 76bc 002f e0bd
00000080: 9e91 023e dfab 593d d0fa a4bd 4b84 acbc
00000090: 992f e3bc 0e6b 94bd 2102 6c3d 5c9c c4bd
000000a0: 5a3e cf3d 6b24 c6bd e0ab 903d 8999 5abd
000000b0: 7b2c 72bd 9c2b 1abd 4150 3bbd 5d5c 39bd
000000c0: 0c72 ffbb 5646 d8bd e6a7 683c 4cad ccbc
000000d0: 12f1 99bd 2d6f a93b 1766 69bd ab4a f93d
000000e0: 4db0 e13d 3be4 f73d 84c4 073d 2a64 9a3d
000000f0: 892c edbd 92fa 303d 452c 0cbe 6242 b23d
00000100: a13b 2f3d aa28 45bd eba1 99bd acac 343d
00000110: 19ac d7bd 2467 19bb f3ce af3d 5787 d9bd
00000120: 3544 6c3d 7498 003e b9f3 46bd 807f f23c
00000130: 961e 89bd d23d f03d 7129 143e e493 f2bd
00000140: b691 fa3d 13d6 9a3d ce90 3c3d 4134 b43d
00000150: c0c8 bdba a7ca cb3c 97e1 b83d 5f8d ebbd
00000160: 4794 213d 4137 aa3d effc 73bd 4742 813d
00000170: f348 0b3e 3a2f 9d3d 356e 043e d78c b6bc
00000180: 8ec4 77bd 23cc 8a3d b644 54bd 7796 d3bd
00000190: 9445 9abd ab18 adbd 52d2 d13c dd73 d63d
000001a0: ceb3 d3bd d4a9 d3bb 682d d23d c282 5e3d
000001b0: fed9 383d c708 b83d cc31 b23d b523 f93d
000001c0: 8814 853d 2148 9abd 2b98 d9bd 8043 8a3d
000001d0: e14e 043e 5296 e9bd 489d cabc f4a1 cb3d
000001e0: 4c36 ae3d 5342 2f3d ecfb 953d f3e4 d23c
000001f0: 763f 133e ca44 b43d bf14 d5bd 85b4 2cbd
00000200: bb6e cb3c edfe 09bc 3514 76bd 31c6 f43d
00000210: 3d11 95bd 41ac 133e 2c13 323d a766 c63d
00000220: 3eab d83c 3d49 f2bd ebc7 023e 5cf8 edbd
00000230: 1f39 aebd 253c e03c f872 debd 3815 143e
00000240: 7d01 c73d 4dde c1bd 2b79 97bd 6a88 023d
00000250: cd66 6f3b bdcf 0ebe af37 0e3c 36e4 7a3d
00000260: af53 9c3b 7d36 fb3d cb35 7abd d17d f93d
00000270: 5ab5 d33d 388a f53c 4040 52bd 43b9 f53d
00000280: cab9 573d d7ff 15be c18d 193d f69b fd3d
00000290: 3ca1 8f3d 43a0 1ebe 27da eebd d42f 813c
000002a0: 406f a83d e236 e23c b9d0 df3d 9be6 863d
000002b0: 0c48 0e3e 82c0 c73d ca1f f1bd c6e9 10be
000002c0: 6108 bb3d a63d 323b c300 0bbe b5a5 b43d
000002d0: 8a78 45bc 31b8 f43c 7b3d 043e 0076 593d
000002e0: 18eb 353d 1696 78bd 78ba b2bd 9644 2e3c
000002f0: c423 e73d 4e8c 9dbd 89e0 01be 9528 94bd
00000300: 4e00 043e 2306 1b3c 099d 10be ed03 d4bd
00000310: 7e75 e93d 5944 c4bd 2410 283c ecb5 b33d
00000320: d91c c83d faa9 51bd 3fc4 01be 78bd f33d
00000330: a31e 01be efa7 4a3d 74a2 f73d ca13 02be
00000340: 1160 273d 19c3 77bd 838a 0fbe 888c 4a3c
00000350: b988 8bbd 1fa9 bfbd 38bb 033e 8448 0abe
00000360: 91f6 3bbd b935 fdbd 5bd0 4cbd 50cc cdbc
00000370: bfe1 babd 12a3 dabb 7dc0 3dbd 6eea 54bd
00000380: 6fc6 e33d f68b 05be 3b98 d1bd 1699 ff3d
00000390: 682d 9cbb 8783 903d edfa 2bbd 5027 e7bd
000003a0: 814b e2bd bbaa 9cbc 42ee 7d3d 6de6 f1bd
000003b0: 7419 fe3d bcf6 eabc 6871 683c 7524 563d
000003c0: 3fcb 60bd e48b 9fbd a544 133d 55a4 0a3e
000003d0: f4cb 35bd 8fa1 93bd b4e6 c73d 3d12 943c
000003e0: 05f1 00be 951e 2bbc 43d5 c3bd e7e2 f0bd
000003f0: 79d7 bc3c 5327 d3bd 3535 a83d 140b eb3d
-0.004015382 0.068826444 0.008046624 -0.12175846 -0.08386059 0.08412451 -0.12235909 0.13734502
-0.0902169 0.07786912 0.06301372 0.0657077 -0.040309764 -0.06871481 0.054135054 0.10723267
-0.1343459 -0.11166836 -0.028686378 -0.12797323 0.017674286 -0.03743646 0.10415897 -0.028946532
0.009697687 -0.042755563 0.058990337 -0.026431773 0.049418125 0.063686065 -0.015039473 -0.109464645
0.12750861 0.053142425 -0.08055651 -0.021059176 -0.027732657 -0.072469816 0.057619218 -0.09600136
0.101193145 -0.09674915 0.070640326 -0.05336908 -0.05912445 -0.037639245 -0.045730833 -0.0452541
-0.007795578 -0.105602905 0.014200186 -0.024984978 -0.07516684 0.005170724 -0.056982126 0.12172445
0.11019955 0.121040784 0.033146396 0.07538636 -0.1158076 0.043207712 -0.13688762 0.08704068
0.042781476 -0.048134483 -0.075015865 0.044109985 -0.10530872 -0.0023407424 0.08584394 -0.10621517
0.057682235 0.12558156 -0.048572276 0.029601812 -0.06695287 0.11730541 0.14468934 -0.11844614
0.122348234 0.07560363 0.046036534 0.08799029 -0.0014479384 0.024876906 0.09027403 -0.11501574
0.03944805 0.0831132 -0.05956739 0.063114695 0.13602047 0.076750234 0.12932666 -0.022283955
-0.060490184 0.06777217 -0.05182334 -0.10331433 -0.07532802 -0.08451971 0.025612984 0.10471318
-0.103370294 -0.006459454 0.10262567 0.05432392 0.04512977 0.08986049 0.08700904 0.12165014
0.06498057 -0.07533289 -0.10624727 0.06751156 0.12920715 -0.114056244 -0.0247332 0.099429995
0.0850645 0.04278786 0.07323441 0.025743937 0.14379677 0.08802183 -0.10404348 -0.042164344
0.024833074 -0.008422595 -0.060077865 0.119518645 -0.072786786 0.14421178 0.043475315 0.09687548
0.026448842 -0.11830375 0.12771575 -0.116196364 -0.08506989 0.02737243 -0.10861772 0.1446122
0.09717081 -0.09466229 -0.07396158 0.031868376 0.003652978 -0.13946433 0.008680268 0.061252795
0.004770718 0.12266252 -0.061086457 0.12182201 0.103373244 0.029973134 -0.051330805 0.119982265
0.052667417 -0.14648376 0.037488703 0.12383263 0.07013175 -0.15490822 -0.11662703 0.015769877
0.08224344 0.02761406 0.109284826 0.06586953 0.13894671 0.09753515 -0.117736414 -0.14151677
0.091324575 0.002719739 -0.1357451 0.088206686 -0.0120526645 0.029872986 0.12914078 0.05309105
0.044413656 -0.060690008 -0.08726972 0.010636469 0.112861186 -0.076927766 -0.1268331 -0.07234303
0.12890741 0.009461912 -0.14122404 -0.10352311 0.11399363 -0.09583349 0.0102577545 0.08774933
0.09771127 -0.051187493 -0.12672518 0.11901373 -0.12609343 0.04947656 0.12091532 -0.12702861
0.0408631 -0.060488794 -0.14017682 0.012362607 -0.06813187 -0.09358429 0.12864387 -0.13504225
-0.04588944 -0.123637624 -0.05000339 -0.025121838 -0.09125089 -0.0066722715 -0.04632615 -0.051981382
0.111218326 -0.13041672 -0.10234114 0.12480371 -0.004766155 0.07056337 -0.04198735 -0.11286795
-0.110495575 -0.01912438 0.0619948 -0.11811528 0.124071985 -0.028682105 0.014187194 0.052280862
-0.05488133 -0.07790354 0.035954136 0.1353925 -0.044383958 -0.07208549 0.097608 0.018075103
-0.12591942 -0.010444303 -0.09562161 -0.11762028 0.023051964 -0.10310235 0.082132734 0.11476722

transformer.layers.0.linear1.bias f4 [256]
00000000: c6c8 e2bc c509 813d 9514 1c3d be7d f9bc
00000010: df14 bb3c 4264 8ebd 2325 9fbd fc9b c5bc
00000020: 83a5 f3bc 4370 123d 5dcc 06bc 35da 253d
00000030: 38f4 693d f62d ccbd 556e bf3d 5443 61bc
00000040: 71da 6abd 75f7 adbd cb3b 243c a2ab 6a3c
00000050: d4ec b93d 8761 1abd 25c8 80bd 3394 e4bd
00000060: bca4 f4bb d4fe 873a 9a13 d0bd 2321 2c3d
00000070: 9372 d33d 26a3 c2bd f209 b33c d7e8 d53d
00000080: bb68 f5bc 0696 a4bd a9ea 9abd 2887 5dbb
00000090: fbb2 003d d138 333d 9e2e 8bbd 5f71 e0bd
000000a0: 481e ca3d c919 debc 9ab5 00be b114 20bd
000000b0: 9b71 dcbd 17cf ccbd 7606 31bd ae1b 983d
000000c0: 5c8b 7a3d 74ce 4c3d 696e 653d 7131 34bd
000000d0: 1bca da3d 4768 5b3c 770e 9e3d 96b8 da3d
000000e0: b418 293d 5f17 84bc 197e c6bd 7ac6 a93d
000000f0: be8b e93d 886f 74bd 889b fb3c c357 813d
00000100: 4764 aa3d 4530 5abd 4d4b 3c3d f8b2 973d
00000110: 1115 a23d 968c e9bd 74fe bebd 600e f8bb
00000120: 3d2f 7a3d ca98 a0bd aa69 2bbd 3500 d9bc
00000130: 970d cabd 4490 9a3d eeb5 bfbd 1f84 183d
00000140: 7fa7 e23d c9ba 68bd b8f3 893d fb90 833d
00000150: f4e8 d63d a0af 62bd 6499 b6bd fe9d b13d
00000160: 3b80 e1b9 28f5 14bc 40a8 98bc 6a73 fd3c
00000170: bb70 9f3d 1a2f d13d a06d da3d fb88 abbd
00000180: e4b7 f7bd 6e8c c7bd 2fa3 453d 3608 ffbc
00000190: eb2b a83d 537a 94bd d5e1 06bd 0e1b b43d
000001a0: ef2d ab3d 9991 02bd a519 c0bd e419 edbc
000001b0: 4522 aabd 29bd d73d 1a8b ed3d 965c b53d
000001c0: b75b ff3c 0698 c3bd 186d cd3d 259d e33d
000001d0: 7793 d63d bf7c 7d3d 50d7 d1bd 71bc 003e
000001e0: 2ab1 fe3d 22eb 8abd 3629 bc3c b3ed 96bd
000001f0: fd66 fc3d 2c26 053e 6aa2 6f3d 9d48 353d
00000200: 0023 15bd 56f5 d43c 4cc1 56bd dc85 243d
00000210: 9ffa 31bc e756 b9bd f14e c4bd c1cd 8e3d
00000220: 6f55 debd 9c83 ac3d ba41 f53d eca2 d5bd
00000230: 1629 03be dcf5 44bd ed44 853c d464 c83c
00000240: 7287 833c d836 df3b 7b88 2d3d 718e 6c3d
00000250: 0fc1 92bd f892 8dbd 78e4 e13d 1266 dc3c
00000260: 2213 613d 91bf 83bd 470b 49bd 7dc6 c43d
00000270: b108 b2bd 6246 45bd b27a c23d f3bc 57bd
00000280: 8ad5 7ebd 29e7 4ebb 09c9 dcbd 8460 703c
00000290: c6ce 9e3d 56e5 cfbd 2d19 3d3b 6a0f 4fbb
000002a0: ffd6 d73d a5cc a23d dc0c 093d 5bbc 883d
000002b0: 0da3 093d a23f 0ebd ca4a 55bd 78e4 013e
000002c0: fabe 513d cf32 6ebb 7388 01be 96ee cabd
000002d0: 8edd ce3c e3f7 eebd 4086 e23d 7cd4 84bc
000002e0: 9ea7 563c 4524 273d 18ea f53d 9ccb adbc
000002f0: 6042 acbc 82d5 2cbd ca06 503d ede8 efbb
00000300: bf1e f13c 0f2d 913d ecb3 c4bd 2820 6d3d
00000310: c00c bdbc de1a 8bbc 3407 f73d bc17 e1bd
00000320: 4f3e eabd 258f 02be 28d2 c93d 4b8c 04be
00000330: a264 6dbd a485 a8bd 09e9 953d e8b0 53bd
00000340: d223 19bb 2ec1 d9bd 98fd 20bd 769f 0f3d
00000350: 2529 e9bd 559a ea3d c4bb e63b 0e43 ef3d
00000360: c7ac 373d 39c0 923c 1b8c 43bd 28f1 ab3d
00000370: c654 5dbd 5dd8 813d dfba 1abd bebb 9b3d
00000380: 5433 92bd 30a2 bcbc 0fe3 003d 80e3 febb
00000390: 22af 4b3d 6a1e cb3c 6b61 85bd b200 443d
000003a0: 6b71 f3bd 8051 aabc 3848 973d 4f73 b1bd
000003b0: f94b cb3d 0d4a 86bd f0c3 ddbd e74b f23d
000003c0: 4f37 d9bd 9a77 ecbd 0135 e9bc f473 9c3d
000003d0: 6613 e73b b842 933c 4ca1 fcbd 59e5 8f3c
000003e0: 5d17 0bbc d778 f6bd a2e4 58bd 9499 df3d
000003f0: 2425 ef3c 5c41 34bd 67ba ccbc 9238 c33d
-0.027683627 0.063006915 0.038105566 -0.030455466 0.0228371 -0.069527164 -0.07770755 -0.02412223
-0.029742008 0.035751592 -0.008227435 0.0404913 0.05711767 -0.09969704 0.09347216 -0.013748962
-0.05733723 -0.08494464 0.010024021 0.014323147 0.090783745 -0.037690666 -0.062881745 -0.11161079
-0.007465927 0.0010375627 -0.10159989 0.04202379 0.10324588 -0.09503774 0.021855328 0.10444801
-0.029957166 -0.08036427 -0.07564289 -0.0033802483 0.03142069 0.043755356 -0.06796001 -0.10959124
0.09869057 -0.027111905 -0.12569275 -0.039082233 -0.10763856 -0.10000437 -0.043219052 0.074271545
0.06116806 0.050001577 0.0560135 -0.043992463 0.1068308 0.013391561 0.07717603 0.10679738
0.041283324 -0.016124425 -0.0969202 0.082898095 0.11403607 -0.059676677 0.030713812 0.06315567
0.08319908 -0.05326869 0.04597025 0.074071825 0.07914174 -0.11403768 -0.09325877 -0.007570073
0.061080206 -0.07841642 -0.041848816 -0.026489357 -0.09865873 0.07547048 -0.09360872 0.037235375
0.110671036 -0.056818757 0.06735939 0.06424137 0.10493651 -0.05534327 -0.08915976 0.08672713
-0.00043010883 -0.009091653 -0.018634915 0.030938823 0.077851735 0.10214062 0.106654406 -0.08375736
-0.12095621 -0.09743582 0.048251327 -0.031131845 0.08211502 -0.07249894 -0.032930214 0.08794223
0.083583705 -0.031877134 -0.09379891 -0.02894301 -0.08307318 0.10534126 0.11598797 0.0885555
0.031171663 -0.095504805 0.100305736 0.11113957 0.104773454 0.061886545 -0.10246146 0.12571885
0.12436135 -0.06783129 0.02296887 -0.07369556 0.12324331 0.13002843 0.0585045 0.044258703
-0.03641033 0.025995892 -0.052430436 0.04016672 -0.010862975 -0.090497784 -0.095853694 0.06972838
-0.10856139 0.0842354 0.11975427 -0.104314655 -0.12808642 -0.048086032 0.016268218 0.024462141
0.016055796 0.006811958 0.042366486 0.05775303 -0.07165729 -0.06912798 0.11029905 0.02690414
0.054949887 -0.06433023 -0.04908302 0.09608171 -0.08693064 -0.048162825 0.094960585 -0.05267043
-0.062215365 -0.0031570888 -0.10780532 0.014671449 0.07754283 -0.10151164 0.0028854117 -0.003159488
0.10539054 0.07949189 0.03345953 0.06676551 0.033602763 -0.034728654 -0.052073278 0.1268481
0.05120752 -0.0036346202 -0.12649707 -0.09908788 0.02525213 -0.116683744 0.110607624 -0.016214602
0.0131014865 0.040806074 0.120075405 -0.021215253 -0.021027744 -0.042195804 0.050787725 -0.007321468
0.029433606 0.07088672 -0.0960463 0.057891995 -0.023077369 -0.016980585 0.12061921 -0.10990855
-0.11437666 -0.12749918 0.09854537 -0.12944143 -0.0579573 -0.08228615 0.073198386 -0.051682383
-0.0023367298 -0.10632549 -0.039304346 0.035064183 -0.11384801 0.11455218 0.0070414264 0.116827115
0.044842508 0.017913925 -0.047741037 0.08395606 -0.054035924 0.06340096 -0.03777587 0.07604168
-0.07138696 -0.023026556 0.03146654 -0.007778585 0.049727567 0.024794776 -0.06512722 0.047852226
-0.11886867 -0.020790815 0.073868215 -0.086645715 0.099266 -0.06557093 -0.10828388 0.118308835
-0.106062524 -0.1154625 -0.028467657 0.07639304 0.007051873 0.01797615 -0.123354524 0.017565416
-0.008489457 -0.12034767 -0.052952416 0.109179646 0.029192515 -0.044007644 -0.024991227 0.09532274
