data/td_best_model.pt (torch, 427968 bytes, 33 tensors)

weight f4 [64, 10]
00000000: 88f9 513e 200e 7f3e 7cb1 4c3e d9e2 5ebd
00000010: ab05 94bd c0ce febd dbaa e4bd d24b 06be
00000020: 538e 5e3e 4f9f 40be 04c0 383d d1cd 65be
00000030: 82c7 b8bd 4102 883e 6f97 b3bd fbdd 99bd
00000040: 021a 5cbe a3d6 6ebe f03a 47be d1c3 8d3d
00000050: ec5d 3b3e d8c0 79bc a4b5 6dbe fc8c 1abe
00000060: 5f7e 4b3e 2b59 0e3e 2220 e63d dc1d 163e
00000070: ee20 16be 7ea6 07be 8c9d b73d e940 74bd
00000080: ae92 bebd fa38 7e3e acb5 ca3c 11d4 66be
00000090: 04a1 2c3e 478a 9f3e ba68 d13c 85bc 3cbe
000000a0: 822e 623d fa9d 9a3d 8bfd 40be c96e 0ebe
000000b0: 3d17 68be 805f 253e 4da8 0bbe 5f6e 843e
000000c0: 94cf 16be 6a95 7cbe b876 823d c619 8dbe
000000d0: f9a9 c43d bba9 80be 9ecb 0abe de6d 083c
000000e0: 3753 823e fb27 98bd 1a03 b2bd 3678 a13d
000000f0: e22b 653e bc82 243e 2577 6fbe 6145 53be
00000100: 8897 fd3d 7741 c73d e392 39be 9ed3 73be
00000110: 2ccf 36be fc59 173e d5b1 183d a655 563e
00000120: aa9e c63d f358 11be ddb8 00bd 9acb 4dbd
00000130: 7f9d b23d 5092 dbbd bc0f 81be 9b6e 0d3d
00000140: d42b 883d 066e 153e ff81 2b3e 9f1e 723d
00000150: 0b12 893d 45ec 6cbe 7a70 09be e201 b43c
00000160: ebf1 dc3d deb1 073e 6114 b13d b760 8ebe
00000170: b865 f6bd d832 65bd c997 2f3d dfe3 33be
00000180: 7554 b13d 0652 843e b9a3 833e a14b ad3d
00000190: 0b52 b7bd 4f73 bdbb e7a7 153e 7d04 fbbd
000001a0: 6d58 d1bd 9d55 363e 0162 41be 245c f33d
000001b0: a2c5 2f3e 1510 49be d6b7 133e 7379 063d
000001c0: 7da1 7a3e a0f2 47be fcb3 68be de62 053d
000001d0: b35a dabd 1245 aa3c 477f 97bd e594 98bd
000001e0: 7fb7 8f3e 2534 28bc 225f 41bd 9658 35be
000001f0: 52b9 14be b041 f7bd 6581 2abd 803b 91bd
00000200: deeb b9bd 11b5 b63c 8a32 2bbe 4fa5 f43d
00000210: 77e0 753e beb7 acbd b2a3 bfbd eb70 b0bc
00000220: c02e 6b3e 477b de3d 9030 c0bd a939 db3d
00000230: 0f63 9bbe b76a a5bd 44e4 f1bb 99cd d83d
00000240: 9810 47bd 1e89 2a3e f250 c6bc 02f8 62be
00000250: 2e8b 133c af76 8cbd a112 803d 3b53 3dbd
00000260: 5497 3e3e 684b 2a3e b7f8 d9bd 202f 8b3e
00000270: 1391 16be cfc6 a03e 4a18 1e3b 1e37 043d
00000280: e535 97be afbe 52be 3f2a 743d 29d1 fa3d
00000290: 08af 13be 2b54 dd3d bae1 50be 6f58 133e
000002a0: a491 75be 88a9 25bd 11fe dd3c fe3b 3dbc
000002b0: 2e26 4b3e 6054 2f3e ec60 333d a3d7 68bd
000002c0: 6d94 1abe a15a 21bd 8cef 6fbd eb1f fc3c
000002d0: 6fab 46be b373 123e 7c1c 31be 0bd1 bf3c
000002e0: 20d1 2fbc af9c ae3d c440 903d 0262 13be
000002f0: 7c8b 193e c83f 1abe 7d5b c0bb d607 07bc
00000300: d6ee 893e ed57 6b3e 6dcb 113d c487 c33c
00000310: fd47 83be fcc8 0dbe 445a 313e ddce 6e3e
00000320: 723d 413e fbcc 7dbe 1028 61be 77bc 633e
00000330: 675a 39be 9b7c 18be 973a 78be 718d 473e
00000340: b171 463d eb0a e73d e1d5 4ebd 61e0 1d3e
00000350: 7d86 5ebe 1d88 a13d 069b 9a3d 3396 aa3d
00000360: cbbf 893c 8c14 833e 852c 4abe 8d9e ed3d
00000370: 30fb c1bd 7f89 81bd d25d 2fbd 02e0 453e
00000380: 4ae7 323e bf95 373e 3497 8fbc 37e2 aebd
00000390: 6d5c 603e 3ea0 3c3e 7dc4 2abb 14dd bf3d
000003a0: 61c9 66be fefc 8c3e c715 ff3d 61b8 e2bd
000003b0: a395 613e 4930 473e a7a2 67be 133f 78be
000003c0: 8cdb 4dbd 86f3 4f3e ea54 58be b780 08be
000003d0: a17f d6bd 65d3 51be c012 53be 15c2 c6bc
000003e0: 3c0f 3a3e b9e9 b4bb 53a7 72be 81e2 823e
000003f0: e327 513e 2689 753d dba3 40bd 5b05 5bbd
0.20505345 0.24907732 0.1998958 -0.054415558 -0.072276436 -0.12441778 -0.111654006 -0.1311486
0.2173398 -0.18810771 0.045104995 -0.22441794 -0.09022428 0.2656422 -0.08769118 -0.075130425
-0.21494296 -0.23324065 -0.19456077 0.06922115 0.18297547 -0.015243731 -0.23213822 -0.15092844
0.19872425 0.13901202 0.112365976 0.14659828 -0.14660999 -0.13247105 0.089655966 -0.059632216
-0.09305321 0.24826422 0.024744831 -0.22541834 0.16858298 0.31160185 0.025562633 -0.1843129
0.055220135 0.07549663 -0.18846719 -0.13909449 -0.22665115 0.16149712 -0.1363842 0.25865456
-0.14727622 -0.24666372 0.063703 -0.27558726 0.09602732 -0.25129494 -0.13554236 0.008326976
0.25454113 -0.07429501 -0.08691998 0.078842565 0.22380021 0.16065496 -0.23385294 -0.20631935
0.12382418 0.09729283 -0.18122439 -0.23811194 -0.17852467 0.1478042 0.03727897 0.2093111
0.096982315 -0.14194088 -0.0314263 -0.050242998 0.08721446 -0.10721266 -0.25207317 0.03452931
0.066489846 0.14592752 0.16748808 0.059111234 0.066928945 -0.23137005 -0.13421813 0.021973554
0.1078833 0.13251445 0.08646465 -0.27808163 -0.1203112 -0.05595669 0.042869363 -0.17567395
0.08658687 0.2584383 0.25710848 0.08461691 -0.08951195 -0.005781568 0.14614831 -0.122567154
-0.10221944 0.17806096 -0.18885042 0.11882809 0.17165235 -0.19635041 0.14425597 0.032830667
0.24475665 -0.19526148 -0.22724909 0.03256499 -0.10661831 0.020784888 -0.07397323 -0.074502744
0.28069684 -0.0102663385 -0.047209866 -0.17709574 -0.14523819 -0.12073076 -0.041627306 -0.07091427
-0.09078191 0.022303136 -0.16718498 0.119455926 0.24011408 -0.084334835 -0.09357394 -0.021538218
0.22967052 0.10863357 -0.093842626 0.10704357 -0.30349013 -0.08076995 -0.0073819477 0.1058609
-0.04859981 0.16653869 -0.02420852 -0.2216492 0.009005351 -0.068585746 0.06253553 -0.046221953
0.18612415 0.16630328 -0.10643142 0.2718439 -0.14703779 0.3140168 0.0024123364 0.032279126
-0.29533306 -0.20580553 0.0596106 0.122469254 -0.14422238 0.108070694 -0.20398608 0.14389203
-0.23981339 -0.04044488 0.027098687 -0.011549948 0.19838783 0.1712203 0.043793604 -0.056846272
-0.15095682 -0.03939307 -0.05857806 0.030776938 -0.19401334 0.14301948 -0.17296022 0.02341511
-0.010731012 0.08525979 0.07043603 -0.14392856 0.14994615 -0.15063393 -0.0058702813 -0.008241614
0.2694003 0.2298276 0.035594393 0.023868449 -0.2564086 -0.138462 0.1731959 0.233211
0.18871096 -0.24785225 -0.21987939 0.22239862 -0.18100892 -0.14891283 -0.242411 0.1948755
0.04844827 0.11281379 -0.05049694 0.15417625 -0.2173099 0.0788729 0.075490996 0.083294295
0.016815087 0.25601614 -0.19743545 0.11602507 -0.09471738 -0.063250534 -0.042814083 0.19323733
0.17471042 0.17928217 -0.017528154 -0.08539241 0.21910258 0.18420503 -0.0026057058 0.09368339
-0.22537757 0.27536768 0.124553256 -0.11070324 0.22029738 0.19452013 -0.2262064 -0.24242811
-0.050258204 0.2030774 -0.21126142 -0.13330351 -0.10473562 -0.20490797 -0.20612621 -0.024262467
0.18169874 -0.005521026 -0.23696642 0.25563434 0.20425372 0.059945248 -0.047031265 -0.053471904

bias f4 [64]
00000000: 7072 33be 611b 65be ce7d 60be e498 ae3e
00000010: 5b3a acbe bd85 84be 44ae 3c3e 5dbe 413e
00000020: 3f69 e93d 5ef9 24be 9a3c 14be a386 30bc
00000030: d84b 8f3e 4857 023e f5b9 9a3e 4a2d 173e
00000040: b705 b3bd e4d5 60bd f057 ae3e 6196 a93e
00000050: 57f3 5ebe 8113 bc3d 77da 963e 34ea 483d
00000060: 6b42 343e 25a6 8fbe 0c01 d6bd 3c14 853e
00000070: a7fb 903e 3b96 9c3d 4505 b63d 5938 a03e
00000080: 37a4 5a3e 09cc 31be 3d35 08bd 2b32 15be
00000090: d23b 923e 6f47 22be 9f78 713e b4b3 003e
000000a0: 0752 19be 171a b93a fc9b c9bd af07 e6bc
000000b0: 3158 74be ca25 5fbd 52ea 6a3d ff0a 53be
000000c0: dda2 27be 9a8c 8a3d a858 2bbd f489 963e
000000d0: 9ed5 733e b4df 97bd 9e4a 13be 4d14 703e
000000e0: fb01 9b3e cacb 9e3d e9a0 55be 648c da3c
000000f0: fb10 f9bb d53b 8cbe 758d 513e 7274 01be
-0.17524123 -0.22373725 -0.2192299 0.3410102 -0.33638272 -0.25883284 0.18425852 0.18920274
0.11397027 -0.16110751 -0.14476243 -0.010774287 0.27987552 0.12728608 0.3022 0.1476337
-0.087413244 -0.054891482 0.34051466 0.33122543 -0.21772514 0.091834076 0.2946355 0.04905148
0.17603461 -0.28056446 -0.104494184 0.25992 0.28316996 0.07645842 0.08887724 0.3129299
0.21351705 -0.1736299 -0.033253897 -0.14569919 0.28561264 -0.15847562 0.2358117 0.12568551
-0.14972697 0.0014122155 -0.09844205 -0.028079836 -0.23861767 -0.054479398 0.05735237 -0.20609663
-0.16370721 0.06765099 -0.041832596 0.29402125 0.23811957 -0.07415715 -0.14383933 0.23445244
0.30274948 0.077537134 -0.20862164 0.026678272 -0.007600901 -0.27389398 0.20464118 -0.12642077

pe f4 [1, 167, 64]
00000000: 0000 0000 0000 803f 0000 0000 0000 803f
00000010: 0000 0000 0000 803f 0000 0000 0000 803f
00000020: 0000 0000 0000 803f 0000 0000 0000 803f
00000030: 0000 0000 0000 803f 0000 0000 0000 803f
00000040: 0000 0000 0000 803f 0000 0000 0000 803f
00000050: 0000 0000 0000 803f 0000 0000 0000 803f
00000060: 0000 0000 0000 803f 0000 0000 0000 803f
00000070: 0000 0000 0000 803f 0000 0000 0000 803f
00000080: 0000 0000 0000 803f 0000 0000 0000 803f
00000090: 0000 0000 0000 803f 0000 0000 0000 803f
000000a0: 0000 0000 0000 803f 0000 0000 0000 803f
000000b0: 0000 0000 0000 803f 0000 0000 0000 803f
000000c0: 0000 0000 0000 803f 0000 0000 0000 803f
000000d0: 0000 0000 0000 803f 0000 0000 0000 803f
000000e0: 0000 0000 0000 803f 0000 0000 0000 803f
000000f0: 0000 0000 0000 803f 0000 0000 0000 803f
00000100: a46a 573f 4151 0a3f ce7a 2e3f b054 3b3f
00000110: ba7d 083f 0d94 583f f190 d13e c692 693f
00000120: 3e39 9f3e 6b4e 733f 258f 703e f1d5 783f
00000130: 3a23 353e 83f6 7b3f f325 083e 28ba 7d3f
00000140: 7675 cc3d 98b8 7e3f 366f 993d d147 7f3f
00000150: ae36 663d 6898 7f3f faac 2c3d bdc5 7f3f
00000160: 5b81 013d 3cdf 7f3f a53e c23c 93ed 7f3f
00000170: 42ab 913c a3f5 7f3f 497a 5a3c 2cfa 7f3f
00000180: 57d6 233c b9fc 7f3f 16b9 f53b 28fe 7f3f
00000190: 5a44 b83b f7fe 7f3f 5a2e 8a3b 6bff 7f3f
000001a0: 1c3e 4f3b acff 7f3f 0369 1b3b d1ff 7f3f
000001b0: 2015 e93a e6ff 7f3f 8bc9 ae3a f1ff 7f3f
000001c0: 6d12 833a f8ff 7f3f 8994 443a fbff 7f3f
000001d0: 136a 133a fdff 7f3f 2117 dd39 ffff 7f3f
000001e0: 61cb a539 ffff 7f3f 0da8 7839 0000 803f
000001f0: 5377 3a39 0000 803f 6dd4 0b39 0000 803f
00000200: b7c7 683f 3311 d5be d95a 7f3f 534d 913d
00000210: 0af2 663f b2e8 dc3e 1235 3f3f 0239 2a3f
00000220: 1b54 173f ec7b 4e3f b5d3 e93e 69be 633f
00000230: f647 b23e a6fa 6f3f 82f0 863e f5f2 763f
00000240: f86f 4b3e a5e5 7a3f d300 193e 4f20 7d3f
00000250: 86d9 e53d f361 7e3f ae85 ac3d 0e17 7f3f
00000260: c870 813d f97c 7f3f aa30 423d 4eb6 7f3f
00000270: 5ca5 113d 8ed6 7f3f 5075 da3c b1e8 7f3f
00000280: 3ed4 a33c e5f2 7f3f 51b7 753c a1f8 7f3f
00000290: 9b43 383c dbfb 7f3f 0a2e 0a3c abfd 7f3f
000002a0: d83d cf3b b1fe 7f3f e768 9b3b 43ff 7f3f
000002b0: 0815 693b 96ff 7f3f 80c9 2e3b c4ff 7f3f
000002c0: 6812 033b dfff 7f3f 8594 c43a edff 7f3f
000002d0: 126a 933a f5ff 7f3f 1f17 5d3a faff 7f3f
000002e0: 60cb 253a fdff 7f3f 0ca8 f839 feff 7f3f
000002f0: 5377 ba39 ffff 7f3f 6dd4 8b39 0000 803f
00000300: c381 103e 2670 7dbf de3c 473f cebf 20bf
00000310: d745 7e3f ab7f edbd 6321 743f 6318 9a3e
00000320: c209 503f 582f 153f b724 273f a2e7 413f
00000330: 6c2f 023f 296d 5c3f a768 c73e 37c9 6b3f
00000340: 6c4e 973e ef90 743f e26d 643e 928c 793f
00000350: d7ee 2b3e 9e5d 7c3f 2c33 013e 43f4 7d3f
00000360: c0ff c13d 4fd9 7e3f 0693 913d 3a5a 7f3f
00000370: 4e69 5a3d c3a2 7f3f c5d1 233d 90cb 7f3f
00000380: 1fb9 f53c 83e2 7f3f 4747 b83c 6bef 7f3f
00000390: c631 8a3c adf6 7f3f 4644 4f3c c1fa 7f3f
000003a0: 0d6e 1b3c 0dfd 7f3f 131d e93b 58fe 7f3f
000003b0: a8cf ae3b 11ff 7f3f 1317 833b 7aff 7f3f
000003c0: 929b 443b b5ff 7f3f 606f 133b d6ff 7f3f
000003d0: 171f dd3a e8ff 7f3f 56d1 a53a f3ff 7f3f
000003e0: 10b1 783a f9ff 7f3f 097e 3a3a fcff 7f3f
000003f0: 7ed9 0b3a feff 7f3f a4be d139 ffff 7f3f
0.0 1.0 0.0 1.0 0.0 1.0 0.0 1.0
0.0 1.0 0.0 1.0 0.0 1.0 0.0 1.0
0.0 1.0 0.0 1.0 0.0 1.0 0.0 1.0
0.0 1.0 0.0 1.0 0.0 1.0 0.0 1.0
0.0 1.0 0.0 1.0 0.0 1.0 0.0 1.0
0.0 1.0 0.0 1.0 0.0 1.0 0.0 1.0
0.0 1.0 0.0 1.0 0.0 1.0 0.0 1.0
0.0 1.0 0.0 1.0 0.0 1.0 0.0 1.0
0.84147096 0.54030234 0.68156135 0.731761 0.53316844 0.8460091 0.40930894 0.91239583
0.3109836 0.9504153 0.23492105 0.9720145 0.17689219 0.9842302 0.13295726 0.99112177
0.099833414 0.9950042 0.07491915 0.9971896 0.05620449 0.9984193 0.04215715 0.999111
0.031617504 0.99950004 0.023711512 0.99971884 0.017781857 0.99984187 0.013334819 0.99991107
0.009999833 0.99995 0.0074988706 0.99997187 0.0056233825 0.9999842 0.0042169513 0.9999911
0.0031622713 0.999995 0.0023713715 0.9999972 0.0017782785 0.99999845 0.0013335211 0.9999991
0.0009999998 0.9999995 0.000749894 0.9999997 0.0005623411 0.9999998 0.00042169637 0.99999994
0.00031622782 0.99999994 0.00023713727 1.0 0.00017782794 1.0 0.00013335208 1.0
0.9092974 -0.41614684 0.99748 0.070948265 0.9021307 0.43146282 0.74690354 0.66493237
0.5911271 0.8065784 0.45669332 0.8896242 0.34820527 0.93741834 0.26355368 0.96464473
0.19866931 0.9800666 0.1494172 0.98877424 0.1122313 0.9936821 0.08423935 0.99644554
0.063203394 0.9980007 0.04740969 0.9988755 0.03555809 0.9993676 0.026667267 0.99964434
0.019998666 0.9998 0.014997319 0.9998875 0.011246587 0.99993676 0.008433828 0.9999644
0.006324511 0.99998003 0.00474273 0.99998873 0.0035565514 0.9999937 0.0026670396 0.9999964
0.0019999985 0.99999803 0.0014997876 0.99999887 0.0011246821 0.99999934 0.0008433926 0.99999964
0.0006324556 0.9999998 0.0004742745 0.9999999 0.00035565588 0.99999994 0.00026670416 1.0
0.14112 -0.9899925 0.7782725 -0.6279267 0.9932532 -0.11596616 0.95363444 0.3009673
0.8126489 0.58275366 0.652904 0.7574407 0.5085361 0.86104065 0.3894703 0.92103904
0.2955202 0.9553365 0.22307542 0.9748012 0.16790329 0.9858035 0.12617177 0.9920084
0.094726086 0.99550337 0.071081206 0.9974705 0.053323083 0.9985773 0.039994974 0.99919987
0.0299955 0.99955004 0.022494925 0.999747 0.016869437 0.9998577 0.012650555 0.99991995
0.009486687 0.999955 0.0071140616 0.9999747 0.005334813 0.99998575 0.0040005534 0.999992
0.0029999954 0.9999955 0.0022496805 0.9999975 0.0016870227 0.99999857 0.0012650888 0.9999992
0.00094868336 0.9999996 0.00071141176 0.99999976 0.0005334838 0.9999999 0.00040005625 0.99999994

in_proj_weight f4 [192, 64]
00000000: bdac 98bc ac7b 063d c2c0 463c a1bd ee3c
00000010: 740a eabd e144 813d ab59 13be cd48 a5bd
00000020: b4ce 98bd fbc0 493c e628 41bd 3b54 f33b
00000030: 7671 86bd b6de 9a3d 59ec 693d 60a0 d439
00000040: 1662 f33c 9a40 2fbc aea1 71bd d9a8 143d
00000050: ab8f 4fbd e283 c33c 152d a8bd 0315 0b3e
00000060: b0b6 eabd 6b34 2cbd c20a cabd 856b 7f3d
00000070: 3402 673d 2d39 debd 7643 04bd 937a 423c
00000080: ce59 143e 8490 c8bc 6f49 b23b 07d7 3c3d
00000090: 9f4c 74bd 2fd2 e3bd fff5 083e be16 0f3e
000000a0: a214 88bd a2b4 1f3e ddfb a1bd ea98 06be
000000b0: a117 e8bd bf33 143e ced3 433d eb58 0e3e
000000c0: b4f3 c53d b6e9 8bbc 8fb3 8d3c 61cd 8cbc
000000d0: 6492 0bbe 2199 5a3d 2dd7 b03b 7002 d7bd
000000e0: 1eaf ac3d 286e 82bd 0f76 20be 7f3d e2bd
000000f0: 1dc5 8fbd 6ab4 8abd 2af1 ea3c 6185 5dbd
00000100: 1a7d c9bd 494f b3bd 9442 00be 4247 9d3d
00000110: 4c9e d13c 4fea 113e 63ab 953d 9a07 04bd
00000120: 00e2 d4bd a629 033e 33a1 a93d 7d06 0ebe
00000130: 965f 183d 8240 d43d 4ba7 7a3d 4fde ddbd
00000140: f319 a13c b29f c4bd 1a42 943d 96d7 07be
00000150: 702d b7bd 640b a7bd aaa9 1a3d 9317 a2bd
00000160: 97ba 04be 09d7 2d3d 47e1 df3d 8f40 743c
00000170: 7fa6 b9bc 73fe 01be a0d4 1bbc 16dc bebd
00000180: 5a94 c1bd 7b55 963d d30a 053d 9961 ecbd
00000190: 3539 17be ec0a 863d d6be 9f3d f65a f1bd
000001a0: fcc9 23bc da9a b83c 1006 f13d be9b 62bd
000001b0: 69cd c9bc 4ee1 0f3e 08e2 e93d 336f 87bd
000001c0: 2ca4 073d 73bd fa3c dee3 9dbb 9d0b 05be
000001d0: a6fb afbc 2a98 373d 9b93 9ebd 8117 983d
000001e0: bbd1 a1bd 2230 0cbe c0df b03a db82 b23d
000001f0: 67e9 e8bd c21e be3d 4a11 8c3d 0680 10be
00000200: 8756 8e3c 6435 193e fc5b ecbc 8536 023e
00000210: 5bae 0bbe b56b cc3d 9261 d4bb de8c 04be
00000220: f107 c83d faa3 b33d aea6 c3bd 24cd e3bd
00000230: 686b 8cbd d884 d9bd ff19 5bbd 7cad 42bd
00000240: ac73 dd3d e1c9 423d 7b8b a43c 95a1 7f3d
00000250: 11eb 413c 337f 1d3e e742 f43b 2695 003d
00000260: 67d0 8dbd 4943 2e3e 2f83 f93d ed65 b63d
00000270: 46ee 1f3e 91ec f33d e1cc 37bd 120a a43c
00000280: fc3f d7bd f5a3 27bc 9439 153e b278 c83d
00000290: a3e4 f23c 93d1 ccbd fc1c f3bd 0a9c bbbc
000002a0: cf8c 0c3e 16b6 8ebc 4b04 643d 11cf e8bd
000002b0: 7c4a d63c 7421 f13d 8a27 b83d aba5 2bbe
000002c0: befb a6bd cf69 9b3c 2125 16be 71b2 9c3b
000002d0: f507 253a 206c 9b3d a86c 1d3d ecaf e13d
000002e0: 21a2 b4bc 6b4e bd3d d5fe 46bd 0e39 be3d
000002f0: 8ca6 c83d 0170 133d 62bf da3d 7958 09be
00000300: 1f41 823d 16dc af3b 52f5 3a3d c0cc 593d
00000310: e07c 6bbb 40f4 c83d 66e5 cebd a6aa 603d
00000320: 1016 003e 9c14 85bd eced f2bd 9b4d c53c
00000330: 9bf9 023e c5b4 fbbd d862 41bb 891b c63c
00000340: 06ec 7fbc ee3a 353e 3533 fcbd 397f e3bc
00000350: 42c3 f73d 6c0b 8fbd da61 eb3c 41ed ab3d
00000360: 837b 39bd 1996 07be 615d bcbd 51e5 e63d
00000370: e302 e4bc 362d 03be 61dc 153e 7a62 b73d
00000380: fc28 ad3d 07dd 463d 808d afbb 4605 5ebc
00000390: 58e6 113e ba03 00be 6f94 f9bd fe54 6c3d
000003a0: f788 15be 0583 8cbd 6680 46bc 8ef7 5c3d
000003b0: ad96 b83d 60a5 94bd 3247 8dbd ba7b 9a3d
000003c0: 5d50 4f3d 9895 2a3d 2e73 d33d c2a5 de3d
000003d0: 2310 90bd 29c2 cb3d a43d a5bb 1cb9 dfbd
000003e0: e80b f53c 0334 0ebe e800 c43d e2e3 9dbd
000003f0: 3afc 1dbe 9cd5 7d3d e35c 993c 2551 b03d
-0.018637056 0.032832786 0.012130918 0.029143156 -0.11427775 0.06311966 -0.14389674 -0.08070526
-0.074613005 0.012314077 -0.047158144 0.0074258125 -0.0656461 0.0756201 0.057110164 0.0004055528
0.029709857 -0.010696555 -0.05899208 0.03629384 -0.05067412 0.023866598 -0.08211724 0.13582234
-0.11460626 -0.042042177 -0.09865333 0.062358398 0.056398585 -0.10850749 -0.0322909 0.011870044
0.14487383 -0.024482973 0.005440883 0.046103504 -0.059643384 -0.11124074 0.1337509 0.13973519
-0.066445604 0.1559625 -0.07909367 -0.1314427 -0.11332632 0.14472865 0.047809415 0.13901107
0.09665623 -0.017079215 0.017297534 -0.017187776 -0.13630062 0.05336869 0.0053967447 -0.10498512
0.084318385 -0.06368667 -0.15670036 -0.11046886 -0.07020018 -0.067726925 0.02867945 -0.05408228
-0.09838314 -0.08755357 -0.12525398 0.07679607 0.025588177 0.14249538 0.0730808 -0.032233812
-0.103946686 0.12808856 0.082826994 -0.13869663 0.037200533 0.103638664 0.0611947 -0.108334176
0.019665694 -0.09600772 0.0723917 -0.13265833 -0.089442134 -0.081564695 0.03775946 -0.07914653
-0.12961803 0.0424414 0.1093164 0.01490797 -0.0226624 -0.12694721 -0.009511143 -0.09319322
-0.09452124 0.07340523 0.032481026 -0.11542053 -0.14767917 0.06545052 0.07800071 -0.117849275
-0.009996887 0.022534776 0.117687345 -0.05532431 -0.02463408 0.1405079 0.11420065 -0.066130064
0.03311555 0.030607915 -0.0048184237 -0.12992711 -0.0214823 0.04482285 -0.07742997 0.07426358
-0.07901331 -0.13690236 0.0013494417 0.08716365 -0.11372643 0.0928321 0.06839235 -0.14111337
0.017375244 0.14961773 -0.028852455 0.1271611 -0.1364073 0.09981481 -0.006481358 -0.12944362
0.0976714 0.087715104 -0.09553276 -0.11123112 -0.068564236 -0.10621041 -0.05349159 -0.04752873
0.10813078 0.047555808 0.02008604 0.062409956 0.011835829 0.15380554 0.0074542644 0.03139224
-0.06924515 0.17017855 0.121832244 0.089061595 0.15618238 0.11910356 -0.044873122 0.020024333
-0.10510251 -0.0102319615 0.14572746 0.09788646 0.029650038 -0.100009106 -0.11870763 -0.022901554
0.13725589 -0.01742081 0.055668157 -0.1136762 0.026158564 0.11773959 0.089919165 -0.16762416
-0.08153485 0.018971352 -0.14662601 0.004782014 0.0006295436 0.075889826 0.0384337 0.110198826
-0.022049965 0.09243473 -0.04858287 0.09288226 0.09797391 0.035995487 0.106810346 -0.13412656
0.06360077 0.0053668125 0.045644112 0.05317378 -0.0035932586 0.09812212 -0.10102348 0.054850243
0.12508416 -0.064980716 -0.11861786 0.024084857 0.1279053 -0.122903384 -0.0029508378 0.024183052
-0.015620237 0.17698261 -0.123144545 -0.027770625 0.12097789 -0.069846004 0.028733183 0.08394862
-0.045283806 -0.13240851 -0.09197498 0.112742074 -0.027833408 -0.12810215 0.14634849 0.0895433
0.08455083 0.04855063 -0.0053574443 -0.013551062 0.14248025 -0.12501422 -0.121865146 0.057698242
-0.14603029 -0.068609275 -0.0121155735 0.053947024 0.09013114 -0.07258105 -0.06898345 0.0754313
0.05061375 0.04164657 0.10324703 0.108714595 -0.07034328 0.099491425 -0.0050427485 -0.10923979
0.029912904 -0.13887028 0.09570485 -0.07709481 -0.15428248 0.061971292 0.01872105 0.08609227

in_proj_bias f4 [192]
00000000: 271e 2e3b 53e2 7dbc c6e4 aeba 9dda 5bbb
00000010: 3624 b73b ceb8 67bc 6040 853b 7fd5 b23a
00000020: f6bb 323c 2d58 3dbc 83b2 04bd 2767 1bbd
00000030: de2b 5ebd 7719 06bb 2ec5 313d fae2 4d3d
00000040: aff2 833b 9599 ea3b 7b90 af3b b7c1 6a3c
00000050: c2fa dabc d993 a63c fda6 a53a 9e44 18bc
00000060: 02e8 5cbc de3c 413c 9cf0 07bb 8eb0 5e3c
00000070: 87dc e83c 1d20 56bc 5fbe 943b c25e 9e3c
00000080: 31f0 223c 8924 da3c a29c 1cbc eeae 38bd
00000090: f60b 46bc 1f10 fd3b 7d5a 02bc baef 4dbc
000000a0: 3891 603b 0451 3dbc d002 97bc 1172 733c
000000b0: e9ce b23c f4a6 6abc f08e 803c b0a7 03bd
000000c0: f44e 443c 61df 93bb 6559 d6bb 0069 99bc
000000d0: d10e 053d 441b c4b9 d397 b0bb 0d0f 8ebc
000000e0: bdfe 573d 6af0 163d d6df 59bc e233 4cbc
000000f0: 60d5 81bc f9a1 f33c ff95 adbc 2db3 a83c
00000100: 61de a7b9 bd3d ffb9 1166 7f39 ab39 8a39
00000110: e641 7e3a 2823 413a c791 7ab8 2b64 38ba
00000120: 6bb5 cab7 778a 9bb9 f00f 9836 a60a e5b9
00000130: d3bc 00ba 0a22 b5b8 b362 043b d262 ea3a
00000140: 9aa9 ee38 000e a538 ba29 0239 33b3 3d3a
00000150: e3f8 84ba 91b5 6cb9 7b06 d6b9 0a63 7cb9
00000160: f82b 3cba be6c f6b9 6320 fdb9 0cf8 ceb9
00000170: 9edb f3b8 ba35 ad39 ca89 fbb9 50c5 32b8
00000180: e883 8538 84fa 403a 3b81 75b8 0e1c 8eb9
00000190: cbc2 293a 6e6a 13ba 91ad b639 a6e1 e839
000001a0: 283f 50b8 59a1 4539 5ca2 ec38 301b de38
000001b0: 25c3 ceb9 0bf0 ab38 007f a237 8588 b1b9
000001c0: 0f0c 4eb9 e98f e239 7547 8cb9 8c2c 3c39
000001d0: ccae f3b7 347d 24ba c01c 07b9 65a1 503a
000001e0: b963 793a fdcc bc3a ff65 1eba ee08 58b9
000001f0: 8c3f 7e39 c9c0 4c3a 0311 f138 45ba f3b9
00000200: 1e09 9eba f0f9 753c c8eb 403b b418 d139
00000210: 1d53 db3c bbca b23b 9f73 8c3c 85bc 243b
00000220: d17c 853c 343e a7bb 4fe3 af3c b017 91bb
00000230: b8aa 43bc deb4 4bbb d39d 223c d5bd 9cb8
00000240: ad05 fbbb 4059 943c 9bd5 093c bec7 b23b
00000250: edf6 c0bc 99d8 153c b6cf 8a3c a49b 1d3b
00000260: 42a5 fbba c16e 833b 0426 b2bc b3d3 d63a
00000270: 9acd c1bc b318 62b8 8fe0 77ba 7b3a a73b
00000280: dfef 963c 01b1 cbbc 4cdd 493c adee 0cbc
00000290: 7879 2dbc 7172 31bc 2f2c 5f3c 187c ae3a
000002a0: b4a7 71bc d204 243b 88e9 9b3b 9c83 ccbc
000002b0: 2d25 173d 1f52 a4bb 90fc ab39 b801 b73a
000002c0: 3b02 433b 7037 263b eb80 3938 2b8a 07bc
000002d0: e0b3 7abc 2931 663c ec9b 073d 4a2e 59bc
000002e0: 7d88 48bb 6116 31bc ea20 6b3b 5e17 82bc
000002f0: 08c0 4f3c 1c26 b13b a23f 28bd 2758 973c
0.0026568265 -0.015495854 -0.0013343326 -0.0033547052 0.0055890335 -0.014143182 0.004066512 0.0013643949
0.010909071 -0.011556667 -0.032396805 -0.03794017 -0.054241054 -0.0020461956 0.043400936 0.05026529
0.004026733 0.0071594217 0.0053577996 0.014328412 -0.026730899 0.020334171 0.0012638267 -0.009293703
-0.013483049 0.011794297 -0.002074278 0.013591899 0.028425468 -0.01306918 0.0045392956 0.019332293
0.009944961 0.02662875 -0.009558829 -0.0450887 -0.012087813 0.007722869 -0.007956144 -0.012569362
0.0034266245 -0.01155496 -0.018433958 0.0148587385 0.021827178 -0.014322031 0.015693158 -0.03214234
0.0119817145 -0.004512713 -0.0065414184 -0.018726826 0.032484833 -0.00037404348 -0.0053891926 -0.017341161
0.05273317 0.03685037 -0.013297996 -0.012463542 -0.015848815 0.02974032 -0.021189688 0.02059325
-0.00032018407 -0.0004868339 0.00024356718 0.00026364377 0.00096991507 0.00073676044 -5.974041e-05 -0.0007033969
-2.4164756e-05 -0.00029667068 4.5318084e-06 -0.00043686217 -0.00049109495 -8.637093e-05 0.002020043 0.0017882234
0.00011380315 7.870421e-05 0.0001241331 0.00072364806 -0.0010144975 -0.00022574353 -0.0004082209 -0.00024069488
-0.0007178183 -0.00047001796 -0.0004828005 -0.0003947619 -0.0001162805 0.0003303716 -0.00047977112 -4.262227e-05
6.366504e-05 0.00073615485 -5.8532907e-05 -0.00027105253 0.0006475865 -0.0005623464 0.00034843062 0.0004441861
-4.9649883e-05 0.0001884749 0.00011283599 0.00010590849 -0.00039436776 8.198627e-05 1.9371044e-05 -0.00033861786
-0.00019650183 0.000432133 -0.0002675612 0.00017945672 -2.9049253e-05 -0.000627476 -0.00012885313 0.000795862
0.0009513456 0.0014404353 -0.000604242 -0.00020602692 0.00024247 0.00078107096 0.00011494944 -0.00046487353
-0.001205716 0.015013203 0.0029437412 0.00039881992 0.02677303 0.0054562963 0.017144976 0.002513678
0.016294869 -0.0051038507 0.021470694 -0.0044278726 -0.011942558 -0.0031083147 0.009925324 -7.474019e-05
-0.0076605887 0.018108964 0.008412744 0.00545594 -0.023555243 0.009145879 0.016944747 0.0024049068
-0.0019199031 0.0040110056 -0.021746643 0.0016389996 -0.023657609 -5.39056e-05 -0.0009455764 0.005103407
0.018424926 -0.024864675 0.012320828 -0.008601827 -0.010588042 -0.010830508 0.013621374 0.0013312129
-0.014749456 0.0025027287 0.0047580637 -0.0249651 0.036900688 -0.0050146724 0.00032803835 0.0013962304
0.0029755968 0.0025362633 4.42275e-05 -0.008272688 -0.015301675 0.014049807 0.033107683 -0.013255665
-0.0030598931 -0.010808558 0.0035877773 -0.015880283 0.012680061 0.0054061543 -0.04107631 0.018474652

weight f4 [64, 64]
00000000: 31fb 44be 4459 13be 3cae 1ebe 5191 d63d
00000010: 05c8 5f3e 3246 173e fc84 2ebe 30a0 16bd
00000020: 1d40 7bbe fb1f 2bbe b272 393e 7013 2e3d
00000030: 8ee9 b83d dcc2 9c3d 4cfa 01be a959 4fbe
00000040: 9bab 293d fd48 233c 79ea 03be b5f1 1b3e
00000050: 3665 0d3e 914c 8cbc 28ee 533c d759 e7bd
00000060: ed7c 4c3e a31c ce3d e7c8 2e3b d000 3c3d
00000070: 09d6 5fbb 844e 5e3e 7cd9 103d 7685 8abd
00000080: e98f 813d 2c08 20bb 9cc7 f6bd f970 723d
00000090: f122 a1bd 176e c4bd 8deb e93c ca8b 073e
000000a0: c230 323d 0a21 06be 0350 06bd ea97 23be
000000b0: 5926 a63d dad4 c5bd fb7d 4cbc 02f3 f73d
000000c0: 3ea3 4b3e fc8b eabd 6e45 97bd 7895 1cbd
000000d0: 9fb2 17be 257d b7bd ff8a d13d 1688 32be
000000e0: fed0 113e 8091 b43c 8558 c63d 2d3e eabd
000000f0: f049 2cbe 8b49 e63b bdf0 d6bd b197 7bbc
00000100: 1829 a6bd 50a9 98bd 0ed6 6abe 6ce5 0b3d
00000110: f666 333c 519a d6bd 5b62 01bd 99e9 d73d
00000120: bae6 2abe 79f0 a9bc 115f 883d 39aa f5bd
00000130: 0f25 b53d a59b 493d fec4 3bbd cb4a 69be
00000140: 85b5 37be 4319 61bd 43bc 703d 2924 0fbe
00000150: 4901 06be ccb6 b5bc ef96 58bd 373d c43d
00000160: de87 93bd 1842 2c3e 9b22 833c 2766 b23d
00000170: 8441 363e 2763 013e f300 55bb 3919 b73d
00000180: e975 02bc eed0 56be ff02 1cbd 9076 253e
00000190: b048 ecbd 79fa b9bc ed90 cbbd 3c63 013d
000001a0: 8c75 03be 49f6 16be db92 24be 6856 88bd
000001b0: 3905 edbc b0cd bfbd 6dd4 463e b204 c3bd
000001c0: 918e 66bd b02a 573e b3bd 143e ae90 0cbe
000001d0: e0de 5d3d 9869 a8bd 2c5c 27be a292 043e
000001e0: 4649 cfbd 0f3a 10be 8c54 2c3e 7613 293d
000001f0: 7901 9a3c 6241 2c3e c3c5 3abd 476a ca3a
00000200: 90f7 763d f095 c8bd a816 b63d 3f4e 923d
00000210: a097 26be 5c63 273e e960 9fbc 1d0b 44bd
00000220: 2f37 41be 6303 fa3b 5d3e 193c 118d 1d3e
00000230: ffd4 613e bfee 95bd 3a93 563e 2354 9b3b
00000240: 0d31 433d 7c48 c4bc c35e debd 70cb bbbd
00000250: c47e f0bd 7184 033d df3e c5bd f0c8 0abe
00000260: 4822 1fbe 819e 2e3e ca85 073e 7397 be3c
00000270: 1611 f1bb b44d 50bd 8913 65bd 7200 10be
00000280: f661 103d 16e8 01be 6367 50bd 10bd 8c3d
00000290: 1b74 963d 8303 d53d 0d03 333e c725 52bd
000002a0: a20d 903d d542 d83c 80cb 253e cebd 07be
000002b0: a158 cfbd e36c 5dbd 5493 3fbe d8bf 12be
000002c0: 767e 1a3e 094f 2e3e 1865 993d d187 21be
000002d0: 7719 273e 4f21 293e 1c11 523c d5bb 3abe
000002e0: a6a9 23bb cf2c aa3d d554 26bd 9839 043e
000002f0: 6dac 16be 17ee 5b3d 2855 253e a682 00bc
00000300: f405 7c3d 7f33 b23d a2aa 37be efa4 073e
00000310: ce1e 01be 6817 613c 89ef eabd b316 02bc
00000320: cc89 64bd 04ae 3ebe 9b23 043e 4e19 e9bd
00000330: 33d3 a53d 41bf 3ebe 93d8 dcbd 5b36 f2bd
00000340: 414e 293e dd22 65bc a197 9dbd 0bd8 1d3d
00000350: f921 083d c391 19be 29e3 4ebe 4d89 103e
00000360: 054e ca3d cc7a adbd 9dc0 663e 05c0 97bd
00000370: 1a99 363e cd2e 5abe c10f 2a3e fde1 67be
00000380: d171 943d 306c d33d eb30 893d 0efe 5dbd
00000390: cb1f 913d 1873 01bd 0ab1 acbd 6023 fcbd
000003a0: f1f3 c93c a700 023e 780e 25be 2174 063e
000003b0: ff4d 4b3e 49c1 5ebe 6290 27bc 6667 34be
000003c0: a539 993d 6f00 7b3c 2397 343e 6ab8 fa3d
000003d0: 9cf1 d3bd 6dd0 09be 4a47 9d3c ca34 09be
000003e0: e1ea c0bc 2dfc 233d c8b0 95bc d26f 043e
000003f0: 75ed 1c3c 39af c2bd 157d 03bb fd5f 39bd
-0.19236447 -0.14389521 -0.15496153 0.10476936 0.21853645 0.14772871 -0.17042917 -0.03677386
-0.24536176 -0.16711418 0.18110159 0.042499006 0.09028922 0.07654354 -0.12693137 -0.20249046
0.04142342 0.009966132 -0.12882413 0.15228923 0.1380814 -0.017126353 0.012935199 -0.112964325
0.1996953 0.10064056 0.002667004 0.045899212 -0.0034154675 0.21709639 0.03536366 -0.06763737
0.06326277 -0.0024418933 -0.12049791 0.05918977 -0.07867993 -0.095913105 0.028554702 0.13236919
0.04350353 -0.13098541 -0.03279115 -0.1597592 0.08112783 -0.09659739 -0.012481208 0.12106897
0.1988649 -0.11452481 -0.073862895 -0.038228482 -0.14814232 -0.08959416 0.102315895 -0.17434725
0.1423988 0.022042036 0.096848525 -0.1143764 -0.1682508 0.00702781 -0.10495136 -0.01535599
-0.08113307 -0.07454169 -0.22933218 0.03415434 0.010949841 -0.10478652 -0.03158794 0.10542602
-0.16689578 -0.02074455 0.066587575 -0.11995358 0.08844959 0.0492207 -0.045842163 -0.22782438
-0.17940338 -0.054955732 0.05877329 -0.13978638 -0.13086428 -0.02218189 -0.052878316 0.09581988
-0.07203649 0.16822088 0.016007712 0.0871089 0.1779843 0.1263548 -0.0032501786 0.08940358
-0.007962682 -0.20978138 -0.038088795 0.16158509 -0.115373015 -0.022702442 -0.09939752 0.031588778
-0.1283781 -0.14742388 -0.16071646 -0.06657106 -0.028933154 -0.09365404 0.19416972 -0.0952238
-0.056288306 0.21012378 0.1452549 -0.13727066 0.05416763 -0.082232654 -0.16343755 0.12946561
-0.10121398 -0.14084648 0.16829127 0.041278325 0.01879953 0.16821817 -0.045598757 0.001544305
0.060294688 -0.09794223 0.0889104 0.071438305 -0.16268778 0.16346496 -0.01945539 -0.04786216
-0.18868707 0.0076297983 0.0093532475 0.15385844 0.22053908 -0.07320928 0.209546 0.0047402545
0.0476542 -0.023960344 -0.10857918 -0.09169662 -0.117429286 0.032108728 -0.09631132 -0.13553214
-0.15540421 0.17052652 0.1323463 0.023265576 -0.007356773 -0.050855353 -0.055926833 -0.1406267
0.035249673 -0.1268619 -0.050879847 0.06871998 0.07346364 0.104010604 0.17481633 -0.05130556
0.0703385 0.026399055 0.1619091 -0.13255998 -0.101243265 -0.05405892 -0.18708545 -0.14330995
0.15087304 0.17022337 0.07489985 -0.15774466 0.16318308 0.16516612 0.012821462 -0.18235715
-0.0024972945 0.08309328 -0.040608246 0.12912595 -0.14714213 0.053693857 0.16145766 -0.007843649
0.061529115 0.08701228 -0.17936185 0.13246511 -0.12609407 0.013738491 -0.11471469 -0.007939982
-0.055795476 -0.18621069 0.12904207 -0.113817796 0.08096924 -0.18627645 -0.10783496 -0.11826774
0.16533758 -0.013985363 -0.076949365 0.038536113 0.033235524 -0.1499701 -0.20203842 0.14114876
0.09878162 -0.08470687 0.22534414 -0.07409672 0.17831841 -0.21306916 0.16607572 -0.22644801
0.07248271 0.103233695 0.066987835 -0.054197364 0.07086142 -0.031603903 -0.08432205 -0.12311435
0.024652453 0.12695561 -0.161188 0.13130237 0.19853972 -0.2175342 -0.010227295 -0.17617568
0.07481698 0.015319928 0.17635779 0.122422054 -0.10348818 -0.13458414 0.019199032 -0.13399044
-0.023549499 0.040035415 -0.018272772 0.12933281 0.009578099 -0.09506077 -0.0020063568 -0.045257557

bias f4 [64]
00000000: 1dcd 03bc 2005 d3bc 933b 6fbb f360 fc3c
00000010: 26f2 42bc 6580 12bd 33f8 793d 1597 f9ba
00000020: ee35 523b 1947 20bd bd42 053d d56d f23c
00000030: 04d6 88bb 6c5a 0d3c 0c37 a03c e078 11bc
00000040: 661f c4bc 04fa 60bd 6135 d43c 7179 d93b
00000050: 7928 30bd 4617 70bc 68e1 b13c 631f 0a3d
00000060: 7c96 52bc afd7 adbc 1b95 a6bc 5965 103d
00000070: 32e6 383c ef9a f2bc 22c5 f7bb 77aa 22bc
00000080: 1ce8 0e3c 475a 11bc af21 00bd 43b8 113c
00000090: 75f2 a33c dfa0 9fbc ed72 163d 01c9 de3c
000000a0: 43e4 053a f092 aebb c8c1 833b 111d 493c
000000b0: b062 acba 4544 abbc 4997 56bd 358e b53c
000000c0: bd71 e6bc 449e f73b 8a17 453d ec6e 143d
000000d0: 111d 963b 0a40 b1bb f9c3 0bb9 c25c 10bb
000000e0: 60cf af3c 47dc e43b 9945 7bba a35d a7bc
000000f0: 83f5 023b 9335 b93b 01c4 053d 1792 f03c
-0.008044508 -0.02575928 -0.0036504015 0.030807948 -0.011898553 -0.035766978 0.061027717 -0.0019042218
0.0032075602 -0.039130304 0.03253435 0.029593388 -0.0041759033 0.008627515 0.019557498 -0.0088789165
-0.023940753 -0.054925933 0.02590436 0.0066367914 -0.043007348 -0.014653986 0.021713927 0.03372134
-0.012853261 -0.02122101 -0.02033477 0.035252903 0.011285352 -0.029614894 -0.007561342 -0.009928337
0.008722331 -0.008871621 -0.031282123 0.008894029 0.020013073 -0.019485889 0.036730696 0.027195456
0.0005107561 -0.005327575 0.0040209033 0.012274996 -0.001315197 -0.020906577 -0.05239037 0.022162536
-0.028130407 0.0075567085 0.04811815 0.036238596 0.0045811017 -0.0054092454 -0.00013329079 -0.0022027944
0.021461189 0.006984267 -0.0009585261 -0.020430392 0.0019982762 0.0056521385 0.032657627 0.029366536

weight f4 [128, 64]
00000000: 9ff1 ba3d ba9e a3bd ce56 adbd 6249 78bd
00000010: 585d c0bc 67b7 2d3e 5f40 07be 1a41 c2bd
00000020: bc74 953d f655 413d 4133 bc3d 0fca b2bd
00000030: 5cf4 fbbd 495d 493d b0b0 e03d 1ad2 3d3e
00000040: 064d a2bd 9a68 883d af9e 3abe 325c 3ebd
00000050: 9bd0 abbc 72ed 81bd b698 0a3e 5738 3cbd
00000060: 8fe7 2f3d 6617 95bd aabc 473d 004a 95bc
00000070: 3d5e 24be 3c28 4a3d 047e df3d d2dd e43c
00000080: c5fc 88bd 1b0b 26bd 6d33 3ebd c858 7abd
00000090: 9a7f dc3d 2de8 c7bd d2ac 0d3e 3b40 823c
000000a0: 449c 4dbd 8cf3 47bd 41d2 07be dc56 bdbd
000000b0: d222 b73d 1954 00be e8eb 013d 2f42 ffbd
000000c0: ce93 c13c 2fac 803d dd83 43bd 4ddb 853d
000000d0: 5539 d93d 4405 94bd 9cb6 963d b5ab 5fbc
000000e0: 5fb2 be3d c922 0dbe 4b85 b0bd dd8a 5bbd
000000f0: bb7a 04bd 1b2d 4a3a d62b e63c 52da 833d
00000100: 9769 a73d 33c5 463d 6044 86bc 4b52 963c
00000110: 9523 12be b840 efbd 4736 eb3d aa63 f23d
00000120: 1f34 9dbc a99f 8ebd 7c68 11bd 4bb0 553d
00000130: 5043 b73d a660 08be 525a fbbb 60e3 b7bd
00000140: 66d1 cf3d c334 1e3e 5293 f73d 86c8 33be
00000150: 7447 e23d ec99 19be adef 02be 7c78 a83d
00000160: 6256 13bd 3b51 cebc a580 193e 355c 3ebe
00000170: 11ae 8ebd 9a4e 9d3d f254 873d 7bd8 19be
00000180: 6ccb c6bc 12ef c9bc cf6a 0b3d df4b 6f3b
00000190: e056 4cbd 4862 1dbe cdf4 e33d e686 c5bd
000001a0: 2982 083e 61af febd 459f ae3d e1cf 0cbe
000001b0: cb12 13bd b36a cb3d 053b 303d 1dcb f03c
000001c0: 5381 f73d 5eae 22bd 7b49 213e c4e5 c7bd
000001d0: 69c1 86bd e946 0d3d 3019 80bd 2a1b d23d
000001e0: b2a2 0a3e a02f 9fbd 83e4 13bd 4482 453d
000001f0: 4a5a 1cbe bc19 093c b90c 9dbd e6a9 6c3d
00000200: 3985 b73c 9b11 81bd e3a6 013d f657 f13d
00000210: 8d34 ca3b 56b2 303e 6193 193e 1b9f ddbd
00000220: 8b16 12be 47dd 183e 6de7 0a3e fbb1 fb3d
00000230: ebdd f6bd 1b29 173d 67d5 32be 223c 08be
00000240: 6e3d 30bd 5d60 de3d e1df dabd c41d ee3b
00000250: 7e47 9dbc f4fb 003c 8cab f03d 96d0 cb3d
00000260: 62ca 07bd ff6f e33d 1e2e dc3d bf00 cc3b
00000270: 9bd4 293d 3c5f cb3b 170e 1a3e be87 943c
00000280: 8511 12be d29e 153e ea9e f73d 2419 ca3d
00000290: 23ac 023e 8f18 bbbd 40a2 f1bc 2bb9 1abe
000002a0: 4d78 69bc 822b b23d 0639 31bd f769 223e
000002b0: c43a b7bd 9917 103d 636e b33c e4d4 93bd
000002c0: 83dc b13d 3db2 1d3d 4565 fd3c a113 bd3d
000002d0: 8f73 9b3c cd6a 84bd 3c97 ac3d 511f 07be
000002e0: b931 10be cf7f 153e ca2e 263d 2985 003e
000002f0: af8c 9dbb 56b4 03be 186d 8fba 503f 2c3d
00000300: 581e ddbd 0bf8 0ebe db4f 80bb 05f2 be3d
00000310: bdbb ce3d 871d e8bd 13eb a53c 692d 2dbc
00000320: 6f64 16be 3e70 263e a792 7c3d edb6 ae3d
00000330: 511a 1e3d 5b68 f2bd 1738 df3d ff09 c1bd
00000340: a2af 40bd 0610 b93a e828 24be 6875 8dbd
00000350: dc5a 353e 89a1 cd3b 3bad ba3c 203a ee3c
00000360: 32de 9fbd 15bd 14be 6b3b a5bd 58ed 6fbd
00000370: 43c5 ebbb 22ff aa3d 69e9 74bd 2078 06be
00000380: 9559 1c3c 0ee0 cd3d 91f5 eb3c 5653 08be
00000390: 727b bcbd 45bb 813d a400 673d 57ca 063d
000003a0: 1abc 013e 9489 fb3d da0f 293e 0c05 0fbe
000003b0: 2523 fcbc 79ef 4bbb 6ef6 9a3d c3c1 c2bd
000003c0: a5da 58bd 8ca8 13be 0bed 06be 1203 4fbe
000003d0: 1c7b ce3d 58fd 4b3e afd6 403e 4afe 713d
000003e0: 486e 153e 9d70 f83b 4194 fd3d bfa3 f83d
000003f0: 0b61 973d 6ffe b43d 906f 14bd 8043 053e
0.09128117 -0.07989259 -0.08463822 -0.06061686 -0.02348201 0.16964494 -0.1320815 -0.094850734
0.07297656 0.04720112 0.091894634 -0.08729946 -0.12302467 0.04916123 0.109712005 0.18537179
-0.07924847 0.06660576 -0.18224595 -0.046474643 -0.020973494 -0.06344117 0.13534817 -0.045952167
0.04294544 -0.072798535 0.04876391 -0.018223763 -0.16051574 0.049354777 0.109127074 0.027937803
-0.06688837 -0.040537935 -0.046435762 -0.061119825 0.107665256 -0.09761081 0.13835457 0.015899768
-0.050197855 -0.04881625 -0.13263799 -0.09245083 0.08942188 -0.1253208 0.03171912 -0.124637954
0.02363005 0.062828414 -0.047733176 0.06535969 0.10606638 -0.07227567 0.07359049 -0.013651778
0.09311365 -0.137828 -0.086191736 -0.053599227 -0.032343607 0.000771241 0.028097074 0.06438126
0.081744365 0.048527908 -0.016390026 0.018349787 -0.14271386 -0.11682266 0.11484962 0.11835416
-0.019189892 -0.069640465 -0.035500035 0.05217008 0.08948386 -0.13318118 -0.007670679 -0.08978915
0.101473615 0.15449814 0.12088646 -0.17556962 0.11048785 -0.15000123 -0.12786742 0.082261056
-0.035971053 -0.025185218 0.1499048 -0.18589862 -0.06966794 0.07681008 0.06607999 -0.15023987
-0.024266921 -0.02465013 0.034037407 0.0036513729 -0.049887538 -0.15369523 0.111306764 -0.096448705
0.13330902 -0.124357946 0.08526472 -0.13751175 -0.035906594 0.09932461 0.043025035 0.029393727
0.120852135 -0.03971707 0.15750687 -0.09760621 -0.06579859 0.034491453 -0.06254804 0.102590874
0.13538626 -0.077727556 -0.036106598 0.048219934 -0.15268818 0.008367952 -0.07668442 0.057779215
0.022402393 -0.06302186 0.031653296 0.11784355 0.0061708153 0.1725553 0.14997627 -0.108213626
-0.14266412 0.1492816 0.13564844 0.122898065 -0.12054046 0.036904436 -0.17464219 -0.13304189
-0.043027334 0.108582236 -0.10687233 0.007266732 -0.01919913 0.00787257 0.1175147 0.09951894
-0.03315199 0.11105346 0.10750984 0.006225675 0.041462522 0.006206421 0.15044437 0.018131133
-0.14264496 0.14611366 0.12090857 0.098680764 0.12760977 -0.091355436 -0.029496312 -0.15109698
-0.014249873 0.08699705 -0.043267272 0.15860735 -0.089467555 0.035178754 0.021903222 -0.0721834
0.086846374 0.03850006 0.030932078 0.092322595 0.018976001 -0.06465683 0.08427283 -0.1319554
-0.14081468 0.14599536 0.040571965 0.12550797 -0.0048080306 -0.12861761 -0.0010942547 0.042052567
-0.10796803 -0.13961808 -0.0039157695 0.09323505 0.10094402 -0.11333757 0.020253694 -0.010569909
-0.1468675 0.16253754 0.061663296 0.08530984 0.038599316 -0.118363105 0.1089937 -0.09425735
-0.047042497 0.0014119155 -0.1603123 -0.06907159 0.17710441 0.00627536 0.02278768 0.02908045
-0.07806052 -0.14525254 -0.08067974 -0.058575958 -0.0071951463 0.08349444 -0.05979291 -0.13131762
0.009542842 0.10052501 0.028803619 -0.1331304 -0.09203233 0.06334547 0.056397095 0.03290781
0.12669411 0.122821 0.16509953 -0.13966769 -0.030778477 -0.0031118079 0.07566534 -0.09509613
-0.05294289 -0.14419764 -0.13176362 -0.20216015 0.10082075 0.19920862 0.18831895 0.0590804
0.1459285 0.007581784 0.12381793 0.12140607 0.07391556 0.08837592 -0.036239207 0.1301403

bias f4 [128]
00000000: 1ddd 03ba f283 9bbb 790d 1cbd 7640 233d
00000010: 0b41 bbbd 26f6 0cbe 16d4 d0bc c2e9 c23d
00000020: 686e 3d3d 1df3 b43c 7c0c 7c3d 8862 bebd
00000030: a609 5b3b ebbc cd3d 435f 8cbc bdf1 e9bd
00000040: b019 af3d 95fa c03c 73b0 133d d1bd dc3b
00000050: 41b0 ab3c 3638 a33d e277 fabd a7fd 97bc
00000060: f212 9f3d 683f ef3b 03d0 303b 3941 e33c
00000070: 2249 bcbd 4a12 cd3d 3bd4 cc3d 8640 ec3c
00000080: f0cc a6bd 9edb d13d f7ae 523d 8725 22bd
00000090: 8bfa a2bd 431e ae3b eb8e c8bd a305 433d
000000a0: 67f6 d23c 8a7c ebbd 4e72 f4bb 0913 bdbd
000000b0: 7639 febd 3ab0 583d dab2 f3bb 573e 323d
000000c0: e9ee 3fbd 80ec 40bd 5e47 1bbd d098 f3bd
000000d0: 4527 00be 9996 1dbe 1c7e cb3d ae45 3bbc
000000e0: 1e1a 0c3d 07aa 963c 82f8 febb 8621 93bc
000000f0: 6c70 9abd 0dac bdbd 34af 0bbe a715 883d
00000100: 6605 96bd c761 863b 5b52 463d 3f7d 9fbb
00000110: e208 443d 95a4 84bd 1f54 a03b 303c cb3c
00000120: 458b 2a3c fe89 403d 1029 d4bd 443b fdbd
00000130: def6 8bbd b39b ad3d 9b60 0bbe 2190 7c3d
00000140: 30b4 18bd 719f 14bd 8119 a3bc 075d 17be
00000150: c191 6a3b a115 3bbc e44b dfbd 7e39 9cbd
00000160: 709e 0fbd 8873 e3bd 1d63 ec3b 08e6 82bd
00000170: 4203 1abe 2235 6cbd afa5 383d 855e b5bd
00000180: 0662 b93d 645a a0bc 2744 babd ac9b 793d
00000190: 6cc3 9c3b e9dd 453d 74a1 073d e92e 383d
000001a0: 4561 4f3d 94be 0cbe 0340 c5bd 9532 8bbd
000001b0: ad55 87bd 2a95 01be 1e2f 9a3d a5b3 8bbd
000001c0: 1e4b 82bd 857d e6bd 48b0 163d d9a5 1c3d
000001d0: e14c 613d ac5f 833c 439b f9bd da29 1dbd
000001e0: 8cdf 3ebd afe9 dcbc c476 653c bf98 61bd
000001f0: da24 17be 1ca5 82bc 09f9 0dbe 0327 11be
-0.0005030202 -0.0047459537 -0.038098786 0.039856397 -0.09143265 -0.13765773 -0.025491755 0.09517242
0.04624787 0.022088582 0.061535344 -0.09296137 0.00334225 0.10045799 -0.017135268 -0.11423061
0.085498214 0.023556987 0.036056947 0.006736495 0.020958068 0.07969706 -0.12229897 -0.018553568
0.077672854 0.00730126 0.0026979453 0.027741062 -0.091936365 0.10013254 0.10001417 0.02883936
-0.081445575 0.10246967 0.05143639 -0.03958657 -0.079579435 0.005313666 -0.097928844 0.047612797
0.02575226 -0.11498363 -0.0074599152 -0.09232146 -0.124133036 0.052902438 -0.0074370923 0.043516483
-0.0468587 -0.047100544 -0.037909858 -0.11894381 -0.1251498 -0.1538948 0.09936163 -0.011430187
0.034204595 0.018391622 -0.0077810893 -0.017960321 -0.07540974 -0.09261332 -0.13641053 0.06644755
-0.073252484 0.0041010114 0.048418384 -0.0048672254 0.047860034 -0.06476704 0.0048928405 0.024808973
0.010409181 0.0470066 -0.103593946 -0.1236482 -0.068341956 0.08476963 -0.13611071 0.06166089
-0.037281215 -0.036284868 -0.019909622 -0.14781581 0.0035792443 -0.011418731 -0.10903147 -0.07628153
-0.035063207 -0.1110602 0.0072139637 -0.06391531 -0.15040305 -0.05766786 0.045079883 -0.08855919
0.090518996 -0.019574352 -0.0909503 0.060939476 0.0047840383 0.048307333 0.033112958 0.044966612
0.050629873 -0.13744575 -0.0963135 -0.06796757 -0.06608138 -0.12654558 0.07528518 -0.06821374
-0.06361984 -0.1125441 0.03678921 0.038244102 0.055004958 0.01603683 -0.12187817 -0.03836999
-0.04659991 -0.026966898 0.014005367 -0.05507731 -0.14760152 -0.01594787 -0.1386453 -0.14175038

weight f4 [64, 128]
00000000: 4e40 14be 9c9a ca3d a354 19be a962 d53d
00000010: 805a 94bd 8adc 02be 51f5 9b3d 7c6d 283d
00000020: 4e8a c3bd 14d7 8c3d ea47 2a3b c091 efbd
00000030: 8023 093e c591 cdbd 5679 22be 4a83 b4bd
00000040: cf31 033e 0956 e0bc 7091 fd3d 60b9 69bc
00000050: 2abd bdbd 8acf 1f3e 77b3 e7bd f27b afbc
00000060: c163 1e3d 3df4 113e dadc 21be 0724 113e
00000070: 866b 0a3e 11a6 b7bc b925 aebd 75ee 493d
00000080: 8597 393d 74d5 5abd 6479 423d 8d71 763d
00000090: 551f 853c 8a66 393d adf4 0fbe 0c5f 77bd
000000a0: 6698 fd3d b0c7 a33b 9ed9 6c3c 9716 4a3d
000000b0: 622f c6bd 5893 4d3d b3fc 0bbd 3610 fb3c
000000c0: bbd4 88bd ce90 b73d 4d8b ab3d de4b fe3d
000000d0: 62d2 c43d e9f7 68bc 8617 c2bb 11e4 193e
000000e0: 0797 25bd 6422 223c a205 9f3d 87c9 8f3d
000000f0: 1f3c acba 47c0 983c 5dc4 373b 068f 443d
00000100: 6d99 11be c0d8 e43d 64cb 10be 8e4b a6bd
00000110: 5e1d 253c ffcb e0bd 40eb 02bd 6e5f 9a3d
00000120: d19d 1abe e3b1 06be 2760 86bd 6409 fabd
00000130: e340 08be c243 b33d 07ba 0abe 1e73 03be
00000140: ca96 ab3d 90aa b8bd 5c84 3bbd 13b9 77bd
00000150: 2600 27bd de3a 8a3d 137b b03d 128f acbd
00000160: 6d9e 0b3b 03db c7bd 3484 46bd c9a5 aa3d
00000170: 5964 c53d 6f31 fa3c bea5 2dbe 5477 35be
00000180: a223 8a3d 2712 183e b122 f33d 55f5 2d3d
00000190: 7f32 2abd 0658 163e e759 31bc 1eec 09be
000001a0: 488b 28bd c905 51bc 5960 0e3e f8eb d13c
000001b0: d05c a03d a5d0 1cbd d1c7 7fbc e51c f03d
000001c0: 6df4 46bd 99b8 d53d c86f 36bd 6760 46bd
000001d0: 39d5 8c3d 33d1 01be 111a 1d3e ea6c 98bd
000001e0: c73e 423c 3bda 1cbe 6898 8dbc 68de 25be
000001f0: 7a05 ab3c 1ec7 f13d 9260 aabc 0604 8dbd
00000200: d646 a43d 10a6 90bd ae5d e93b 6657 073e
00000210: 48ea 8fbd 558a 5bbd f295 c63d 7eb0 11be
00000220: fa98 8dbd 0d2c 22bd 3e0c 093d d085 0a3e
00000230: ea05 943d e73b d7bc c0ed f33d 7771 bdbd
00000240: c9c1 aa3d a12a f3bd ea37 0d3d 4eec 963c
00000250: 1b92 ff3d ba97 a4bd 4892 cebd f688 a73d
00000260: a6f0 f23b 6e5f eebd d5e1 13bd 0a3c a43d
00000270: bb4d e33d aa49 8ebd b9bf 2f3e 802c dcbd
00000280: 906f 35bd af52 0ebd 0f38 bcbd 4a21 6d3d
00000290: db73 d43d a48c 91bd 3df2 a3bd 6669 2f3c
000002a0: 8912 90bd 9b1b ef3d 586b bb3d bdc2 e83c
000002b0: 7e0e 0a3e 5d3b e73d b881 dcbd e293 08bd
000002c0: ea26 b63d 9ab1 9e3d 1b42 1fbb bd9a 413d
000002d0: 1671 0c3e ea51 283e 812f da3d 56db f7bd
000002e0: fe39 8fbc 6769 93bd d818 01be e2d1 3bbc
000002f0: ecef 09be 201e d53c 87f0 51bd 99f9 623c
00000300: 299e 85bd 7fd5 0bbe 03c8 a73c 6932 6d3c
00000310: 44ef 70bb 74cf a8bc e039 2a3d eddc a43d
00000320: 0a92 d8bd 6966 41bd f01c d13d 5462 d23d
00000330: d7ed edbd d2e5 3d3d 4c47 303e 9d50 023e
00000340: 327c 643d 543b 0c3e f305 56bd d00e 1dbe
00000350: b1bb e03d 3cb9 6fbd 3ea7 a13d ef9b f03d
00000360: 52cf 0f3d 6eba f23d d905 bc3d 9fb8 c03d
00000370: f97f 0c3d 6fa8 5dbd effb 38bd 5d92 dcba
00000380: 1b4d 21bd 2a93 773d 4db7 05be 7cac 603d
00000390: bceb 25be e58a 053e 1250 efbd 9657 9c3c
000003a0: 1932 233d af0a c83c 7787 ddbd b850 94bc
000003b0: 8d48 b83d bc54 02bd 12fc afbc 7050 48bb
000003c0: 92b2 e9bb c1d8 bf3d 1a45 05bd a5e8 b1bd
000003d0: b487 133d 4b5e 383d 1a09 613d 2b67 883d
000003e0: 32fc 10be 2dad c0bd 0f5c c13c 7824 14be
000003f0: 39d1 efbd 28f5 c9bd 57aa 413d 72f6 56bd
-0.14477655 0.09892771 -0.14973693 0.104192086 -0.07243824 -0.12779441 0.0761515 0.041120037
-0.09547864 0.068769604 0.0025982806 -0.116977215 0.13392448 -0.10037569 -0.15866598 -0.08814104
0.12811969 -0.027384775 0.123812556 -0.014265388 -0.09264596 0.15606514 -0.11313527 -0.021421406
0.03866935 0.14253326 -0.15806904 0.141739 0.1351758 -0.022418054 -0.08503289 0.049299676
0.045310516 -0.05342622 0.04747905 0.060166884 0.016250292 0.045263804 -0.1405818 -0.06039338
0.12382583 0.00499817 0.014456181 0.04933795 -0.09677006 0.050189346 -0.03417654 0.030647378
-0.066812 0.08963166 0.08376179 0.12416814 0.0961044 -0.014219263 -0.0059232144 0.15028407
-0.040427234 0.009895895 0.07764746 0.0702086 -0.0013140476 0.018646372 0.0028040626 0.04798796
-0.14218684 0.11174154 -0.14140087 -0.0811988 0.010077802 -0.10976409 -0.031962633 0.07537733
-0.15099265 -0.13153796 -0.06561308 -0.12208822 -0.13306002 0.08753158 -0.13547526 -0.12836882
0.0837837 -0.09016907 -0.045780525 -0.060479235 -0.040771626 0.06749509 0.086172245 -0.08425726
0.0021304146 -0.0975857 -0.048465922 0.08332402 0.096382804 0.03054115 -0.16957757 -0.17721301
0.06745078 0.14850675 0.11871851 0.042470295 -0.041552063 0.14682016 -0.010824657 -0.13468978
-0.041148454 -0.012757727 0.13903941 0.025625214 0.078302026 -0.038284916 -0.015611605 0.11724261
-0.048572946 0.104356 -0.044540197 -0.04843178 0.068766065 -0.1267746 0.15341975 -0.07442649
0.011855788 -0.15317623 -0.017284587 -0.16198123 0.020876635 0.11805557 -0.020798001 -0.06885533
0.080213234 -0.07062924 0.007121763 0.13216934 -0.070271075 -0.05359872 0.096965685 -0.14227483
-0.069139436 -0.03959279 0.03345894 0.13527608 0.072276905 -0.02627368 0.119105816 -0.09250157
0.08337743 -0.11873365 0.034477152 0.018423226 0.12479039 -0.08036752 -0.10086495 0.0818042
0.0074139414 -0.116392955 -0.036104042 0.08019264 0.1109881 -0.06947644 0.1716298 -0.10750675
-0.044295847 -0.034746822 -0.0919038 0.057893075 0.1037366 -0.07106903 -0.08005188 0.010706281
-0.07034785 0.11675187 0.091513336 0.028413171 0.13482091 0.112906195 -0.107669294 -0.033344157
0.08894141 0.077487186 -0.0024300877 0.04726671 0.13715014 0.16437498 0.10653592 -0.12102382
-0.017483708 -0.07197838 -0.12607133 -0.011463614 -0.13470429 0.026015341 -0.051254775 0.013853454
-0.06524307 -0.13655661 0.020481115 0.014477351 -0.0036763707 -0.020606734 0.0415591 0.08049951
-0.1057473 -0.047216807 0.102105975 0.10272661 -0.1161763 0.04636175 0.17214698 0.12726064
0.055782504 0.13694507 -0.052251767 -0.15337682 0.10973299 -0.058526263 0.07893227 0.11748492
0.035109825 0.11851965 0.09180803 0.09410214 0.03430173 -0.05411571 -0.045162138 -0.0016828288
-0.039380174 0.06044308 -0.13058205 0.054851994 -0.16203207 0.13041265 -0.11685194 0.019084733
0.0398427 0.024419157 -0.108168535 -0.018104896 0.08998213 -0.03181909 -0.021482501 -0.0030565523
-0.007131883 0.093675144 -0.032536604 -0.086869515 0.03601809 0.0450118 0.05494032 0.06660303
-0.14158705 -0.09408031 0.023603467 -0.14467037 -0.11709828 -0.09861213 0.04728159 -0.052481122

bias f4 [64]
00000000: f67c 92bd 3b54 43bd a3fe 10bc f412 3bbc
00000010: 95cb f03c 3396 35bd bef0 193d 30eb 633d
00000020: 494b 3dbd 630e 6abd 666e 6d3c 0c77 ddbb
00000030: d3b0 9b3c bcac 123b 3e9e b53c 1aa4 28bd
00000040: d399 863b 8b3c 03bd 68ec c93c dee8 f13c
00000050: 0600 e83c 86bb 01bd 47da 973d 4f93 a83d
00000060: eee4 993c 85c2 78bd fc5c c4bc d6c7 bfbc
00000070: d1e7 fa3c 62a2 90bc 838d 393d 0bb4 b13d
00000080: edfc 8cbc 5d48 a0bc 0080 d6bd f2b3 353b
00000090: 93a1 e33b 2ed1 6abd c4ee 883b e5f4 12bd
000000a0: 0e4f 99bd a956 203c 219f 2dbc 23c9 1e3d
000000b0: 98ac 653c f874 b8bd ea25 02be d3d1 223d
000000c0: 65d9 98bd eb65 413c 691e 1f3d 79ad a13c
000000d0: 391b 813d ae42 01bd 6180 64bd 8b3b d8bc
000000e0: 53fc 793d 6aef 543d 191f febc 99de 293c
000000f0: 439d 8fbd f7ed c7bc 6b02 ed3b 1d8b a93d
-0.07152741 -0.04768775 -0.008849773 -0.011418093 0.02939395 -0.044332694 0.037583105 0.055644214
-0.046214376 -0.057142626 0.014491653 -0.0067585763 0.019005215 0.002238079 0.022170182 -0.041172124
0.0041076927 -0.03204016 0.02464886 0.029529985 0.028320324 -0.031672977 0.0741468 0.08231222
0.01878592 -0.060732383 -0.02397012 -0.023410719 0.030628117 -0.017655555 0.04530097 0.086769186
-0.017210448 -0.019565756 -0.10473633 0.0027725664 0.0069467514 -0.057328396 0.0041788537 -0.03587808
-0.074857816 0.009786286 -0.010597021 0.038766038 0.0140182 -0.09006685 -0.12709776 0.039750885
-0.0746334 0.011804084 0.03884736 0.019736039 0.063040204 -0.03155773 -0.055786494 -0.02639558
0.06103165 0.051986136 -0.031020688 0.010368013 -0.07012417 -0.024405463 0.0072329543 0.08278487
