data/td_best_model.pt (torch, 452884 bytes, 21 tensors)

weight f4 [64, 10]
000000 45 06 8d bd 2e 11 2d be bd c9 07 3d ca 46 84 3d
       -0.068859614 -0.16901085 0.033151377 0.064588144
000010 61 48 2f bd 5c 0a d5 3d f5 43 f9 3c 6f 39 86 be
       -0.042793635 0.104023665 0.030427912 -0.26215693
000020 20 6b 31 be dc 8d 77 3a ac 4a 08 3e 96 32 1a 3e
       -0.17326021 0.0009443441 0.13309735 0.1505836
000030 71 22 74 3e c4 f8 7f 3e 50 ce 36 3e 81 d3 90 be
       0.23841263 0.2499724 0.1785214 -0.28286365
000040 25 5e e2 bc d0 36 84 bd 05 1c 99 3d d5 76 a4 3d
       -0.027632782 -0.06455767 0.074760474 0.08030478
000050 2d c7 82 3e 86 9e 6f 3e 93 d4 6b be e6 70 01 3b
       0.25542584 0.23400316 -0.2303031 0.001975113
000060 ed a9 5c 3e b7 e9 09 3e 03 25 7c be 58 4d 8e be
       0.21549197 0.13468061 -0.24623494 -0.27793384
000070 27 bf 54 be 2c 20 0f be 84 91 72 be 38 67 3e 3e
       -0.20776044 -0.13977116 -0.23688322 0.18594062
000080 94 8e 33 be c2 01 dc 3d 39 3f e5 3d b7 e5 1b 3e
       -0.17534858 0.10742523 0.111936994 0.15224348
000090 06 ce 81 be c6 c0 a3 bd d2 dd ed bd c0 80 fb 3d
       -0.25352496 -0.07995753 -0.116145745 0.122804165
0000a0 fc 6d 9d 3d 38 5c 3c 3e d7 6f 2d 3d 7a 06 82 3e
       0.076869935 0.18394554 0.042342987 0.25395566
0000b0 f5 6c bd 3d 2c 2f d8 3d 94 18 13 be 1c 59 b9 bc
       0.092492975 0.10555872 -0.14364845 -0.022625498
0000c0 72 31 97 be fa 17 81 3e 65 39 48 3e e4 28 80 3e
       -0.2952991 0.25213605 0.19553144 0.25031197
0000d0 0d 94 4d be 5f ab fc 3d 24 15 25 be 98 b6 6d be
       -0.20076008 0.12337374 -0.16121346 -0.23214185
0000e0 36 c9 e4 3d b9 56 6b 3e 5e cc e9 bd 87 37 13 be
       0.111711904 0.22982301 -0.11415933 -0.14376651
0000f0 27 cc cf 3d af c5 86 3c a6 f1 87 be bb 9a c9 3d
       0.10146361 0.016451685 -0.2655155 0.098439656
000100 46 01 25 3e 58 1b 70 be 1d 4e 50 be d1 fb a3 bc
       0.16113767 -0.23447931 -0.20342298 -0.020017536
000110 1f 47 19 3e b4 3c fb bd 84 1f 41 be 32 1f 80 3e
       0.14968537 -0.122674376 -0.18859679 0.250238
000120 c4 98 24 3a 6a 65 90 3c 56 29 7f 3e 59 e7 a5 bd
       0.00062788674 0.017626483 0.24918112 -0.08100767
000130 83 fd 81 3e ff ce 40 3e 8e ea d7 3d d0 40 6a 3d
       0.25388727 0.18828963 0.10542785 0.057190716
000140 89 e1 8e be 97 7a d8 bd 66 24 a7 bd b6 61 40 bd
       -0.27906445 -0.10570257 -0.08161239 -0.046968184
000150 18 8f 2c 3e 00 1b b7 bd 9b 59 4d 3e c1 87 b0 3d
       0.16851461 -0.08940697 0.20053713 0.08619643
000160 4a e7 80 be a2 b4 18 3e 9a e6 01 be 02 e3 1f 3e
       -0.2517646 0.14912656 -0.12685624 0.1561394
000170 16 4f 58 be e3 81 7a 3e 1c 7a b0 3b c3 ba 0a be
       -0.21123919 0.2446361 0.0053856503 -0.13547806
000180 a4 08 7c 3e 42 89 ca bc 60 e3 d5 3d a4 46 88 bd
       0.24612671 -0.024723653 0.10443759 -0.06654099
000190 e9 85 7f 3e ad b7 81 be 9e c0 6a 3e 6a dd a5 bc
       0.24953426 -0.25335446 0.2292504 -0.02024718
0001a0 ba 3e 68 be 5f ed 78 3d ac f0 54 be c8 6a b8 bc
       -0.22680178 0.06077325 -0.20794934 -0.022511855
0001b0 8a 52 14 be 9b 9a 8b 3d d6 65 44 be 3c 81 46 3d
       -0.14484611 0.06816598 -0.19179472 0.04846309
0001c0 35 9e 24 3e 18 20 58 3e fb f6 ed 3d 96 a2 78 be
       0.16075976 0.21105993 0.116193734 -0.24280772
0001d0 f7 e8 54 3e fc e4 bb bd 95 6a 0b be f0 9e cb bd
       0.20791994 -0.09174535 -0.13614877 -0.09942424
0001e0 0e bd 8a be 8e f8 09 3e 1d 29 e1 bd 3c fa 46 3e
       -0.27097362 0.13473722 -0.1099417 0.19431394
0001f0 0e 6f 28 bc a2 cd 67 3d 27 e6 04 be 98 12 35 be
       -0.010280384 0.05659259 -0.12978421 -0.17682874
000200 c7 35 48 be 61 2a 52 be f7 56 c8 bd da a8 84 be
       -0.19551764 -0.20523979 -0.09782212 -0.25910074
000210 98 49 b9 bd 6e f3 1b 3d 1b 15 4f 3e 03 06 18 3e
       -0.0904724 0.03807395 0.20222895 0.14846043
000220 23 bc 87 be 21 20 ed 3d eb 57 51 3e 43 9c d7 bd
       -0.26510724 0.11578394 0.20443694 -0.105278514
000230 fa 9e 3a 3e af 55 19 be 0c 16 3d be 56 10 de bd
       0.18224707 -0.14974092 -0.18465441 -0.108429596
000240 79 60 87 be a5 c7 0f be 93 6e 88 bd 77 b5 4f bd
       -0.2644079 -0.14041002 -0.06661715 -0.050710168
000250 5d c7 71 bd 6e 7f d9 bd 84 f0 99 bd 6f 0f 41 bd
       -0.05902802 -0.106200084 -0.07516578 -0.04713386
000260 3e c8 62 be 38 43 6a be f9 ab 87 be fe 9e 5d be
       -0.22146699 -0.22877204 -0.26498392 -0.21642682
000270 bd 4d 33 be fd 17 e2 3b 6a 6a 8c bd 0d 98 ab bd
       -0.17510124 0.0068998323 -0.06856234 -0.08378611
000280 58 43 1b 3e d1 5e 0d 3d 90 b1 b1 bd 02 59 35 be
       0.15162408 0.034514252 -0.086764455 -0.17709735
000290 8f 33 53 3d 87 6a 3e be 0d e9 cf bd 0e ee ed bd
       0.051562842 -0.18595324 -0.10151873 -0.11617671
0002a0 23 e2 6c be 3b db e0 3d 0c 41 43 3e 42 ff 77 bd
       -0.2313314 0.10979315 0.19067782 -0.060546167
0002b0 37 1b 81 3e ca 73 13 3e 0d 39 d2 3d b1 be 95 bd
       0.25216076 0.14399639 0.10264788 -0.07311762
0002c0 ac 75 4d 3e 5e 7e f4 3d e5 16 80 3d 8b 02 17 be
       0.2006442 0.11938165 0.06254367 -0.14747064
0002d0 4c 09 1d 3e ca d0 93 bd 6f ac 92 bd 58 be 54 3e
       0.15335578 -0.07217558 -0.07161795 0.20775735
0002e0 9c d3 5f 3d 23 16 bd 3d cd ca 24 3e 4a c5 5c 3e
       0.054645166 0.09232738 0.16092987 0.21559635
0002f0 b7 0f 3c be 12 01 5a 3d c0 df 0c 3d 24 2a 18 bc
       -0.1836537 0.053223677 0.034393072 -0.009287391
000300 53 27 8f 3e 71 58 1c bd 2c 24 8d 3d e3 69 8e 3e
       0.2795969 -0.03817028 0.06891665 0.2781516
000310 1c 8a 71 be 36 29 a6 3c 39 25 8c 3e 92 6c 57 3d
       -0.23587841 0.020283323 0.2737215 0.052593775
000320 9c 9f 87 3e e4 60 93 3d bc 80 49 3e cd 2a 53 be
       0.2648896 0.07196215 0.19678015 -0.20621796
000330 c6 54 07 be 06 90 c9 bd c2 df 29 be e3 e9 22 3d
       -0.13215932 -0.098419234 -0.16589263 0.039773833
000340 a2 a0 7e be 00 66 31 3d 91 fa 8f 3d 87 fe 0f be
       -0.24865964 0.043310165 0.070302136 -0.14061938
000350 53 9a 36 3e 2e 42 5d bd c2 ad 8d 3e d2 32 29 3e
       0.17832308 -0.054018192 0.2767163 0.16523293
000360 19 5d 6c bd 11 9f 9e ba 59 a6 35 3e 5c ec 85 bd
       -0.057705972 -0.0012101849 0.17739238 -0.065392226
000370 60 41 b3 3d 69 f5 dd 3d 23 53 0e 3e ae b0 c6 bd
       0.08752704 0.10837824 0.13898902 -0.09701668
000380 3b 92 14 3e 31 ab 8a be 1f 74 d0 bd 0c 6e 8c be
       0.14508907 -0.27083734 -0.10178398 -0.2742771
000390 68 69 86 3b a5 86 d9 bc 14 e4 b7 3d fb 40 36 be
       0.004101921 -0.026553461 0.08979049 -0.17798226
0003a0 95 4b b1 bc 6a 10 7f 3d 94 66 07 3e 4b 95 1f 3e
       -0.021642486 0.062271513 0.13222724 0.15584294
0003b0 37 45 44 bc 14 79 47 be 7c 13 cf bd e1 f0 fa bd
       -0.011979393 -0.19479781 -0.10111138 -0.12252975
0003c0 72 c8 04 3d 9d 5d 04 3e 97 cf 83 be ed e0 0e bd
       0.032417722 0.12926336 -0.25744316 -0.034882475
0003d0 9c d5 fc bb eb 09 86 bd 94 2f dd bd 3f 99 64 be
       -0.007715894 -0.065448605 -0.108000904 -0.22324084
0003e0 17 c7 58 3d af 74 1c 3e bc 77 85 3e 20 f3 29 3e
       0.052924242 0.15278886 0.26067913 0.16596651
0003f0 ec c9 b6 3d df 91 43 3e d1 18 1e 3e 66 16 85 3e
       0.08925232 0.19098614 0.15439154 0.2599365

bias f4 [64]
000000 77 08 a6 bc 3e ef 2c 3d b3 6e f1 3d 86 fe 74 be
       -0.020267708 0.042220347 0.11788692 -0.23925218
000010 13 40 3d be bf db eb bc e6 4a 95 39 e4 8a ab 3d
       -0.18481474 -0.028791307 0.00028475298 0.08376101
000020 5c 8a 3b be c7 53 ae be f3 1d 7a 3e be 1b 3a be
       -0.18314499 -0.34048292 0.24425487 -0.18174645
000030 74 b2 b9 be 5e 29 01 3e 74 c2 94 3e b2 fd 85 3d
       -0.3626896 0.12613437 0.29054606 0.06542529
000040 43 6f f2 bd 67 36 16 be 14 18 82 be c5 ca ca bd
       -0.11837628 -0.1466919 -0.25408995 -0.099019565
000050 1f 5a c1 bd 54 94 0c 3e d2 cc dd 3d 86 04 4a 3e
       -0.09441017 0.13728458 0.10830082 0.19728288
000060 b0 fd 37 be 0b 3d 73 bd 33 42 01 3e 43 f6 2e 3d
       -0.17967868 -0.059384387 0.12622909 0.042715322
000070 30 43 53 3d ac 63 f3 3d 09 46 43 bd c1 a4 c9 3d
       0.051577747 0.11884245 -0.047674213 0.098458774
000080 fa c0 5f be a1 20 14 be be 22 92 be 7f ff 8c 3d
       -0.21850958 -0.14465572 -0.2854213 0.068846695
000090 29 d2 00 3e b0 ae e7 bd 5c 01 93 3e 9c 56 57 3e
       0.1258017 -0.11312616 0.28711975 0.21029133
0000a0 8f 64 55 be fd 88 b3 be 91 8c 56 be 2d 9e 80 be
       -0.20839141 -0.3506545 -0.2095206 -0.2512068
0000b0 21 cd 9d be c9 e8 8a be d1 ac 89 3e d1 b9 14 3e
       -0.30820563 -0.27130726 0.2688966 0.14524008
0000c0 b4 03 5c bd 4b da fb bd 08 3d c2 bd 82 34 7f 3d
       -0.05371447 -0.122974955 -0.09484297 0.062305935
0000d0 07 fb 09 be 3c db 82 3d 1d f1 02 3e 6a f1 07 be
       -0.13474666 0.06389472 0.1278729 -0.13275686
0000e0 1e f6 a6 be c1 e7 08 be a8 0e 2b be 6f 74 61 3e
       -0.32609648 -0.13369657 -0.1670481 0.22017072
0000f0 bb 18 80 bd 5e 12 f9 3c bc 5d 95 3d 68 94 02 be
       -0.06254717 0.030404266 0.07293269 -0.12751925

pe f4 [1, 150, 64]
000000 00 00 00 00 00 00 80 3f 00 00 00 00 00 00 80 3f
       0.0 1.0 0.0 1.0
000010 00 00 00 00 00 00 80 3f 00 00 00 00 00 00 80 3f
       0.0 1.0 0.0 1.0
000020 00 00 00 00 00 00 80 3f 00 00 00 00 00 00 80 3f
       0.0 1.0 0.0 1.0
000030 00 00 00 00 00 00 80 3f 00 00 00 00 00 00 80 3f
       0.0 1.0 0.0 1.0
000040 00 00 00 00 00 00 80 3f 00 00 00 00 00 00 80 3f
       0.0 1.0 0.0 1.0
000050 00 00 00 00 00 00 80 3f 00 00 00 00 00 00 80 3f
       0.0 1.0 0.0 1.0
000060 00 00 00 00 00 00 80 3f 00 00 00 00 00 00 80 3f
       0.0 1.0 0.0 1.0
000070 00 00 00 00 00 00 80 3f 00 00 00 00 00 00 80 3f
       0.0 1.0 0.0 1.0
000080 00 00 00 00 00 00 80 3f 00 00 00 00 00 00 80 3f
       0.0 1.0 0.0 1.0
000090 00 00 00 00 00 00 80 3f 00 00 00 00 00 00 80 3f
       0.0 1.0 0.0 1.0
0000a0 00 00 00 00 00 00 80 3f 00 00 00 00 00 00 80 3f
       0.0 1.0 0.0 1.0
0000b0 00 00 00 00 00 00 80 3f 00 00 00 00 00 00 80 3f
       0.0 1.0 0.0 1.0
0000c0 00 00 00 00 00 00 80 3f 00 00 00 00 00 00 80 3f
       0.0 1.0 0.0 1.0
0000d0 00 00 00 00 00 00 80 3f 00 00 00 00 00 00 80 3f
       0.0 1.0 0.0 1.0
0000e0 00 00 00 00 00 00 80 3f 00 00 00 00 00 00 80 3f
       0.0 1.0 0.0 1.0
0000f0 00 00 00 00 00 00 80 3f 00 00 00 00 00 00 80 3f
       0.0 1.0 0.0 1.0
000100 a4 6a 57 3f 41 51 0a 3f ce 7a 2e 3f b0 54 3b 3f
       0.84147096 0.54030234 0.68156135 0.731761
000110 ba 7d 08 3f 0d 94 58 3f f1 90 d1 3e c6 92 69 3f
       0.53316844 0.8460091 0.40930894 0.91239583
000120 3e 39 9f 3e 6b 4e 73 3f 25 8f 70 3e f1 d5 78 3f
       0.3109836 0.9504153 0.23492105 0.9720145
000130 3a 23 35 3e 83 f6 7b 3f f3 25 08 3e 28 ba 7d 3f
       0.17689219 0.9842302 0.13295726 0.99112177
000140 76 75 cc 3d 98 b8 7e 3f 36 6f 99 3d d1 47 7f 3f
       0.099833414 0.9950042 0.07491915 0.9971896
000150 ae 36 66 3d 68 98 7f 3f fa ac 2c 3d bd c5 7f 3f
       0.05620449 0.9984193 0.04215715 0.999111
000160 5b 81 01 3d 3c df 7f 3f a5 3e c2 3c 93 ed 7f 3f
       0.031617504 0.99950004 0.023711512 0.99971884
000170 42 ab 91 3c a3 f5 7f 3f 49 7a 5a 3c 2c fa 7f 3f
       0.017781857 0.99984187 0.013334819 0.99991107
000180 57 d6 23 3c b9 fc 7f 3f 16 b9 f5 3b 28 fe 7f 3f
       0.009999833 0.99995 0.0074988706 0.99997187
000190 5a 44 b8 3b f7 fe 7f 3f 5a 2e 8a 3b 6b ff 7f 3f
       0.0056233825 0.9999842 0.0042169513 0.9999911
0001a0 1c 3e 4f 3b ac ff 7f 3f 03 69 1b 3b d1 ff 7f 3f
       0.0031622713 0.999995 0.0023713715 0.9999972
0001b0 20 15 e9 3a e6 ff 7f 3f 8b c9 ae 3a f1 ff 7f 3f
       0.0017782785 0.99999845 0.0013335211 0.9999991
0001c0 6d 12 83 3a f8 ff 7f 3f 89 94 44 3a fb ff 7f 3f
       0.0009999998 0.9999995 0.000749894 0.9999997
0001d0 13 6a 13 3a fd ff 7f 3f 21 17 dd 39 ff ff 7f 3f
       0.0005623411 0.9999998 0.00042169637 0.99999994
0001e0 61 cb a5 39 ff ff 7f 3f 0d a8 78 39 00 00 80 3f
       0.00031622782 0.99999994 0.00023713727 1.0
0001f0 53 77 3a 39 00 00 80 3f 6d d4 0b 39 00 00 80 3f
       0.00017782794 1.0 0.00013335208 1.0
000200 b7 c7 68 3f 33 11 d5 be d9 5a 7f 3f 53 4d 91 3d
       0.9092974 -0.41614684 0.99748 0.070948265
000210 0a f2 66 3f b2 e8 dc 3e 12 35 3f 3f 02 39 2a 3f
       0.9021307 0.43146282 0.74690354 0.66493237
000220 1b 54 17 3f ec 7b 4e 3f b5 d3 e9 3e 69 be 63 3f
       0.5911271 0.8065784 0.45669332 0.8896242
000230 f6 47 b2 3e a6 fa 6f 3f 82 f0 86 3e f5 f2 76 3f
       0.34820527 0.93741834 0.26355368 0.96464473
000240 f8 6f 4b 3e a5 e5 7a 3f d3 00 19 3e 4f 20 7d 3f
       0.19866931 0.9800666 0.1494172 0.98877424
000250 86 d9 e5 3d f3 61 7e 3f ae 85 ac 3d 0e 17 7f 3f
       0.1122313 0.9936821 0.08423935 0.99644554
000260 c8 70 81 3d f9 7c 7f 3f aa 30 42 3d 4e b6 7f 3f
       0.063203394 0.9980007 0.04740969 0.9988755
000270 5c a5 11 3d 8e d6 7f 3f 50 75 da 3c b1 e8 7f 3f
       0.03555809 0.9993676 0.026667267 0.99964434
000280 3e d4 a3 3c e5 f2 7f 3f 51 b7 75 3c a1 f8 7f 3f
       0.019998666 0.9998 0.014997319 0.9998875
000290 9b 43 38 3c db fb 7f 3f 0a 2e 0a 3c ab fd 7f 3f
       0.011246587 0.99993676 0.008433828 0.9999644
0002a0 d8 3d cf 3b b1 fe 7f 3f e7 68 9b 3b 43 ff 7f 3f
       0.006324511 0.99998003 0.00474273 0.99998873
0002b0 08 15 69 3b 96 ff 7f 3f 80 c9 2e 3b c4 ff 7f 3f
       0.0035565514 0.9999937 0.0026670396 0.9999964
0002c0 68 12 03 3b df ff 7f 3f 85 94 c4 3a ed ff 7f 3f
       0.0019999985 0.99999803 0.0014997876 0.99999887
0002d0 12 6a 93 3a f5 ff 7f 3f 1f 17 5d 3a fa ff 7f 3f
       0.0011246821 0.99999934 0.0008433926 0.99999964
0002e0 60 cb 25 3a fd ff 7f 3f 0c a8 f8 39 fe ff 7f 3f
       0.0006324556 0.9999998 0.0004742745 0.9999999
0002f0 53 77 ba 39 ff ff 7f 3f 6d d4 8b 39 00 00 80 3f
       0.00035565588 0.99999994 0.00026670416 1.0
000300 c3 81 10 3e 26 70 7d bf de 3c 47 3f ce bf 20 bf
       0.14112 -0.9899925 0.7782725 -0.6279267
000310 d7 45 7e 3f ab 7f ed bd 63 21 74 3f 63 18 9a 3e
       0.9932532 -0.11596616 0.95363444 0.3009673
000320 c2 09 50 3f 58 2f 15 3f b7 24 27 3f a2 e7 41 3f
       0.8126489 0.58275366 0.652904 0.7574407
000330 6c 2f 02 3f 29 6d 5c 3f a7 68 c7 3e 37 c9 6b 3f
       0.5085361 0.86104065 0.3894703 0.92103904
000340 6c 4e 97 3e ef 90 74 3f e2 6d 64 3e 92 8c 79 3f
       0.2955202 0.9553365 0.22307542 0.9748012
000350 d7 ee 2b 3e 9e 5d 7c 3f 2c 33 01 3e 43 f4 7d 3f
       0.16790329 0.9858035 0.12617177 0.9920084
000360 c0 ff c1 3d 4f d9 7e 3f 06 93 91 3d 3a 5a 7f 3f
       0.094726086 0.99550337 0.071081206 0.9974705
000370 4e 69 5a 3d c3 a2 7f 3f c5 d1 23 3d 90 cb 7f 3f
       0.053323083 0.9985773 0.039994974 0.99919987
000380 1f b9 f5 3c 83 e2 7f 3f 47 47 b8 3c 6b ef 7f 3f
       0.0299955 0.99955004 0.022494925 0.999747
000390 c6 31 8a 3c ad f6 7f 3f 46 44 4f 3c c1 fa 7f 3f
       0.016869437 0.9998577 0.012650555 0.99991995
0003a0 0d 6e 1b 3c 0d fd 7f 3f 13 1d e9 3b 58 fe 7f 3f
       0.009486687 0.999955 0.0071140616 0.9999747
0003b0 a8 cf ae 3b 11 ff 7f 3f 13 17 83 3b 7a ff 7f 3f
       0.005334813 0.99998575 0.0040005534 0.999992
0003c0 92 9b 44 3b b5 ff 7f 3f 60 6f 13 3b d6 ff 7f 3f
       0.0029999954 0.9999955 0.0022496805 0.9999975
0003d0 17 1f dd 3a e8 ff 7f 3f 56 d1 a5 3a f3 ff 7f 3f
       0.0016870227 0.99999857 0.0012650888 0.9999992
0003e0 10 b1 78 3a f9 ff 7f 3f 09 7e 3a 3a fc ff 7f 3f
       0.00094868336 0.9999996 0.00071141176 0.99999976
0003f0 7e d9 0b 3a fe ff 7f 3f a4 be d1 39 ff ff 7f 3f
       0.0005334838 0.9999999 0.00040005625 0.99999994

in_proj_weight f4 [192, 64]
000000 d6 aa d9 3d 97 dd 49 3d d9 be ee 3d 58 16 46 3d
       0.106282875 0.04928359 0.11657495 0.048361152
000010 82 03 cf bd 5b a4 c4 3d 26 35 05 3d ab ad 5f 3d
       -0.10108091 0.09601661 0.03252139 0.054608982
000020 5c 45 fd bd ac 03 ed 3b ef 0f 44 bc 39 4e c7 3d
       -0.12366745 0.0072331037 -0.0119666895 0.09731717
000030 03 65 22 bc fc 91 82 3d 82 d9 17 be 1c 10 3c bc
       -0.009911778 0.063755006 -0.14829066 -0.01147845
000040 b6 79 ec 3d 93 ba 0a be 61 7f f4 3d bc 40 04 3e
       0.11546652 -0.13547735 0.11938358 0.12915319
000050 e6 4d 62 3d 46 c5 f0 3d d1 02 c0 bd 97 87 56 bd
       0.05525007 0.11756377 -0.09375537 -0.052375402
000060 a0 a0 4d 3d 41 13 e1 bd dd df 0f bd bd 75 9a bd
       0.050202012 -0.109900005 -0.035125602 -0.07541988
000070 84 a6 0d be 26 3c 9a 3d 14 66 9d 3d 3e 64 39 bd
       -0.13833052 0.07531004 0.076854855 -0.045261614
000080 ae 9a b2 3d e2 5a db 3d 27 e7 f0 bd db 85 05 be
       0.08720909 0.10710694 -0.11762839 -0.13039343
000090 24 1f 9d bc e9 b2 3d bd da cb 63 3d ef 24 ce 3d
       -0.019179888 -0.0463132 0.05561433 0.10065638
0000a0 a2 87 8e 3d c1 3f 18 3e 3f 00 fa 3d 20 47 ce bd
       0.06959464 0.1486807 0.12207078 -0.1007216
0000b0 04 4d 19 bc 25 16 49 3d f1 56 1c be bc fe 83 bd
       -0.009356741 0.049093384 -0.1526754 -0.06445071
0000c0 4e 76 06 3d 9d 4e a2 3d 62 38 06 3e 62 41 9a bd
       0.032827668 0.079251505 0.13107446 -0.07532002
0000d0 4d fb fb 3d 7a 42 e8 3d e9 5f c3 3d a9 4d c1 3d
       0.12303791 0.113408044 0.09539778 0.094386406
0000e0 23 b3 f3 bc 3e 10 39 3d 97 41 9c bc e9 cf e0 3d
       -0.029748505 0.045181505 -0.019074244 0.10977156
0000f0 18 a0 4d 3d 45 41 f5 bd 75 8e d0 3c 1f 97 e2 bd
       0.050201505 -0.1197534 0.025458554 -0.1106398
000100 61 ff 9b 3d 1f 38 6c 3d 19 ee 5a 3c 0f 87 32 3c
       0.07617069 0.05767071 0.013362431 0.010896458
000110 ac 17 95 3d 5c e0 ba 3c fd 59 3b bd 2c 7d a1 3c
       0.07279906 0.022812061 -0.045740116 0.019713007
000120 08 24 82 bd 8f db f3 3d 52 f7 93 3c 4f 0e 61 3c
       -0.06354529 0.11907112 0.018062267 0.013736322
000130 f4 0d 23 3e 5d d9 7f bd f3 56 68 bb 23 34 a9 bd
       0.15923291 -0.062463153 -0.0035452216 -0.082618974
000140 34 12 b9 3d 8d 45 66 3d f2 67 55 3d a0 20 e9 3d
       0.09036675 0.056218673 0.052101083 0.11383176
000150 0c 6c 1a bd 06 57 20 be 9b 9a 9f 3d 02 15 6e 3d
       -0.037700698 -0.15658197 0.077931605 0.058125503
000160 b4 79 25 3e 5c b4 0f 3e 01 72 a8 bd f8 df 89 3d
       0.16159707 0.14033645 -0.082248695 0.06732172
000170 9a 99 99 3d 2c d0 ec bd 3c b9 d2 bb 40 9b a6 bd
       0.075 -0.11563143 -0.006430773 -0.0813508
000180 dc 19 a0 bd fc be df bd c0 fc 24 bd cb 54 29 3b
       -0.07817432 -0.10925099 -0.040280104 0.0025837894
000190 8a ce 89 bd 14 e3 09 3d 62 5c bb ba a3 ad b8 bd
       -0.06728847 0.033663824 -0.00142945 -0.090174936
0001a0 5c d8 4c bd 1d d8 0e 3e 05 ae 4c 3d f2 3a ba 3d
       -0.050011024 0.13949628 0.049970645 0.09093274
0001b0 d1 f4 b5 bc d8 06 16 bd 6c 6a be bd b1 e4 20 3d
       -0.022211464 -0.03662762 -0.09297642 0.039280597
0001c0 f2 d2 6c 3d 57 ae 6a 3d 36 51 5b 3d 91 87 6c bd
       0.05781836 0.05729517 0.053544246 -0.057746474
0001d0 5a a5 99 bd c5 d5 4d bd ff 6a 05 be bc f5 2c be
       -0.075022414 -0.050252695 -0.13029097 -0.16890615
0001e0 da 2b 93 b9 99 48 98 3b 62 9e 96 3c 20 74 c8 bd
       -0.00028070697 0.004647326 0.01838607 -0.09787774
0001f0 ca 95 dc 3c c0 15 ef 3d 99 81 8a bc a3 0d 42 3d
       0.026926894 0.1167407 -0.0169075 0.047376286
000200 8a 33 d1 bd b3 7f 0b be 0b 95 e9 bd 17 e0 dd bd
       -0.102149084 -0.13622932 -0.11405381 -0.10833757
000210 96 0e 85 3d 07 e8 09 3e e4 55 f8 bb b8 40 80 bd
       0.06496923 0.13467418 -0.0075785983 -0.06262344
000220 4b 08 1e bd f4 a9 e1 bc b4 d0 79 bd d2 ba e2 bd
       -0.038582128 -0.02754686 -0.06099005 -0.110707894
000230 65 d0 42 bd 31 80 46 bd ea 2b d3 bd 7c 40 72 bc
       -0.04756202 -0.048462097 -0.1031111 -0.014785882
000240 2d 3c 41 3d 9d 2f 99 3d 62 59 8c bc 0d 37 fd 3d
       0.04717653 0.07479785 -0.017132465 0.12364016
000250 88 77 cf 3d b1 49 21 3d 31 b8 c8 3d 42 27 2a 3e
       0.10130221 0.03937692 0.09800757 0.16616538
000260 33 fa ea bc 27 a8 66 bd b8 8e ad bc 34 f4 c4 3d
       -0.028683757 -0.056312706 -0.021186218 0.096168905
000270 e7 21 82 3b 9d a6 cb bd d0 d1 d6 bd 51 57 1e bd
       0.0039713266 -0.09943888 -0.10489237 -0.03865749
000280 c1 4a 99 3d ec 11 15 bd 0c 04 fa 3c 52 16 07 3e
       0.07484961 -0.036394045 0.030519508 0.13192108
000290 ca cf 62 bc a5 33 d6 bc 93 58 01 3e 51 d7 a2 3c
       -0.013843486 -0.026147673 0.12631445 0.019878061
0002a0 62 a3 f4 3b 5b 8a ea bd e1 91 1d be 80 ab 91 bd
       0.007465766 -0.114521705 -0.1538768 -0.07112789
0002b0 f9 d5 b7 3d 07 cf 92 3c 42 ff ed bb 21 3e 26 3e
       0.08976359 0.017920984 -0.007263095 0.16234638
0002c0 7f a7 6f bd ef 9d ba 3d 70 f7 19 be f6 97 fc 3c
       -0.058509346 0.09112155 -0.15035796 0.03083418
0002d0 c6 46 0e 3e 52 8f e8 bd f2 c6 ae 3c 33 d1 fc 3d
       0.13894185 -0.11355461 0.021335099 0.12344589
0002e0 45 5e 75 3d 53 53 30 3d 06 e7 39 bd fa 7c 24 3e
       0.059904356 0.043048214 -0.045386337 0.160633
0002f0 d4 f3 1f bd 4f 39 8f bc c4 bb 7e bd 39 36 19 3e
       -0.039050892 -0.017483382 -0.062190786 0.1496209
000300 e5 f5 77 bd 43 41 e9 bd 35 48 b0 bd d3 ff 07 3d
       -0.060537238 -0.11389401 -0.086075224 0.033202957
000310 be 92 f3 bd 50 a4 95 bd b5 54 db bd 21 32 9b 3d
       -0.11893223 -0.07306731 -0.10709516 0.07577921
000320 c8 06 9c 3d 54 c1 ff bc f4 57 fe 3d fd 2b eb 3d
       0.07618481 -0.031220116 0.124191195 0.114829995
000330 ba bb aa ba 66 5f 49 3d 2d 15 0d be ad d2 ba 3d
       -0.0013025918 0.049163245 -0.13777609 0.091222145
000340 82 e4 a3 3d 95 56 12 be 33 ee eb bd 83 93 b9 3c
       0.08002569 -0.14290841 -0.11520042 0.022653347
000350 05 d4 29 be 36 fa 17 3e 5d 86 0e be 07 54 3d bc
       -0.16584785 0.14841542 -0.13918443 -0.011555678
000360 16 64 0c be b0 af 66 3d 78 f7 7d 3d cb e8 05 3e
       -0.13710055 0.056319892 0.062003583 0.13077085
000370 8c fc ad 3a a0 64 1a 3d dc 36 6d bc 35 ad 88 3d
       0.0013274117 0.03769362 -0.0144784115 0.066736616
000380 20 60 0f 3e 17 55 c9 bd 41 fb 24 be a2 9f ab bd
       0.14001513 -0.09830683 -0.16111471 -0.08380057
000390 13 63 78 3c 74 69 fc 3d eb 3e d8 3d 77 da 52 3d
       0.01516034 0.12324801 0.10558876 0.051477876
0003a0 0b 3e da bd cc 3f 90 bd aa 3a 05 be 02 a4 0e be
       -0.10656365 -0.07043418 -0.1301066 -0.13929752
0003b0 4c 76 94 bb 74 bc aa bc 4b 60 47 bd b1 09 08 3d
       -0.0045307036 -0.020841815 -0.048675817 0.033212367
0003c0 e2 87 02 bc f4 16 0e 3b 6e d1 19 3c 08 47 77 3d
       -0.007966967 0.0021681162 0.009388311 0.060370475
0003d0 9a f2 d3 3d 70 7f bc 3d cd ec ab bb fe 78 b2 3d
       0.10349007 0.09203994 -0.0052467347 0.08714484
0003e0 57 9a 0d be 51 6a 9f bd c5 94 b7 3d c7 af af bb
       -0.13828407 -0.0778395 0.089639224 -0.0053615305
0003f0 57 d8 57 3c c5 c6 03 3e 67 69 50 bd c5 03 bb bd
       0.013174138 0.12868793 -0.05088177 -0.09131578

in_proj_bias f4 [192]
000000 ae 8d e2 bc fb b6 24 bc d4 74 d8 3c 36 26 ac 3b
       -0.027655449 -0.010053392 0.026422895 0.0052535785
000010 47 d6 c9 bb 08 34 4d bc 88 bf 8b bc 9f 6d 31 3c
       -0.006159577 -0.012524612 -0.017059103 0.010829358
000020 f3 26 a7 ba f1 02 49 bc e7 1f 93 bb 9c 40 1c 3b
       -0.0012752697 -0.012268768 -0.004489887 0.002384222
000030 a3 4a b1 3b bc db 24 3c 52 6b 39 bc c9 02 e3 3a
       0.0054105087 0.010062154 -0.011317091 0.0017319556
000040 53 7a 8c 3b d7 89 59 bb d9 e5 18 bc cf 61 ba bb
       0.004287043 -0.0033193731 -0.009332144 -0.005687929
000050 5e 1b 96 3c d1 77 58 bc 07 de 53 bc a6 04 94 3b
       0.018323597 -0.01321216 -0.012931353 0.0045171557
000060 32 dc 2d bc 47 05 b0 bb 30 b2 31 bc d1 95 a9 3b
       -0.010611581 -0.005371723 -0.010845706 0.00517533
000070 5f af 9a 3a 5b 68 dd 3b 22 d5 9c 3a e6 11 16 bb
       0.0011801532 0.006756825 0.0011965374 -0.0022898852
000080 80 73 d3 3b 5d 80 d0 bb da c3 4b 3c 5c 40 48 3b
       0.0064529777 -0.0063629583 0.012436831 0.003055594
000090 fa 65 ac bc 2f df 1c 3b 0b 3f 2e bc 4d f6 ad 3b
       -0.02104472 0.0023936739 -0.010635148 0.0053089024
0000a0 07 ab 11 3c 3d e3 c2 3c eb 73 17 bd f1 92 c5 bc
       0.008890874 0.023789996 -0.036975782 -0.024117919
0000b0 9b f4 97 3c 1a 33 b5 bc 4a 04 5f bc fa 77 9b bc
       0.018549254 -0.022119094 -0.013611862 -0.018978108
0000c0 17 41 d6 3c e2 c2 f0 3b ba 2a 57 bb 3e c6 37 3c
       0.026154084 0.0073474506 -0.0032831864 0.011216698
0000d0 f2 36 b3 bc 34 39 d2 bc 29 ff df ba b3 7f c6 3c
       -0.021876786 -0.025662042 -0.0017089593 0.024230814
0000e0 72 97 08 3c f6 a0 8b 3c 2a c0 dd ba 63 82 28 bc
       0.008336889 0.017044526 -0.0016918231 -0.010284993
0000f0 ec 1e d4 bb db 21 ce 3c 05 4d 0b bc 84 87 d9 3a
       -0.0064734127 0.025162628 -0.00850225 0.0016596173
000100 60 0f 62 38 12 aa ae b9 43 22 c0 ba 19 b5 91 39
       5.3896918e-05 -0.00033314578 -0.0014658648 0.00027791483
000110 ed 67 9e b9 00 5f 0a ba 71 5f 58 b9 b2 7e 3b 3a
       -0.0003021354 -0.00052784383 -0.0002063492 0.0007152363
000120 b2 ec a1 3a a6 55 0b 3b e0 47 5a 39 e9 0e c5 3a
       0.0012353866 0.0021260767 0.00020816876 0.0015034351
000130 0e 23 27 3a f6 75 74 3a ed b6 35 3a 43 dc 85 3a
       0.0006375768 0.0009325439 0.000693186 0.0010212738
000140 3b 4c 40 3a 51 46 66 bb f8 fc 26 bb df b8 16 3b
       0.0007335578 -0.0035137127 -0.002548037 0.0022998375
000150 9b 97 ec 3a 34 51 2b bb db ed 62 bb 49 79 55 3b
       0.0018050553 -0.002614093 -0.0034626636 0.0032573512
000160 10 e6 30 ba 4e a2 b9 ba d0 a4 2d ba 5b 71 8e b7
       -0.0006748149 -0.001416275 -0.0006623985 -1.6980504e-05
000170 10 87 5b 39 71 60 f5 39 1d 8f 2d b9 93 fd d6 39
       0.00020935782 0.00046801896 -0.0001655188 0.00041006188
000180 f6 b9 a7 3a 2d e4 2e ba 56 ce 23 bb 75 ef 4a bb
       0.001279651 -0.0006671574 -0.0024994812 -0.0030965481
000190 7d da c6 ba fb dd b2 ba 84 a8 09 3b ab ed 03 3a
       -0.0015171316 -0.0013646478 0.0021004984 0.00050326687
0001a0 fd da be bb 69 97 a2 b8 06 fd 63 3b e2 03 61 3b
       -0.0058244453 -7.752964e-05 0.0034788265 0.003433459
0001b0 d7 b5 46 39 36 b4 70 3a 81 4c 1e 3b dd 01 58 3b
       0.00018950492 0.0009182127 0.0024154487 0.0032960095
0001c0 91 3c d8 3a 12 ea b7 3a f2 4b 45 bb 34 fd 28 3b
       0.0016497542 0.001403155 -0.0030105081 0.0025785686
0001d0 1f 1f e6 ba a0 17 fa ba c6 f7 c1 ba e2 5b 58 3a
       -0.0017556882 -0.0019080527 -0.0014798574 0.00082534377
0001e0 b9 51 b7 3a a5 bb b8 3a 12 67 4c 3a 60 53 59 b9
       0.0013986147 0.0014094008 0.0007797341 -0.00020725792
0001f0 17 9e 05 bb 3f 34 17 3b 56 0f 80 3a 56 26 4f 3a
       -0.0020388418 0.0023071913 0.0009770195 0.0007902136
000200 85 44 79 3c 84 26 49 3c ea 6f 4f 3c 85 dd 7a 3b
       0.01521409 0.012277249 0.01266096 0.0038279009
000210 31 df d8 bb 13 3f 8f 3c c7 9d ea 3b 06 e4 47 3c
       -0.0066184034 0.01748613 0.007159922 0.012200361
000220 49 67 f4 b9 2e 95 a4 3a 8c 35 c8 b9 dd 96 15 bc
       -0.0004661626 0.0012556666 -0.00038186868 -0.009130207
000230 24 a7 33 3c c4 b4 3e 3c d6 43 7d 3b 61 fa e4 b9
       0.010965142 0.011639778 0.003864517 -0.00043674096
000240 ed a7 92 3b d2 ba a0 3b 28 7b e7 ba b6 60 cc 3b
       0.0044755847 0.004905083 -0.0017660605 0.006237115
000250 d4 4c 1b bc a7 d5 b6 3b c0 1a 20 bc c8 3b b7 bb
       -0.0094787665 0.0055796686 -0.009772003 -0.0055918433
000260 2a 66 2b 3a 2e 05 4f 3c e6 b8 c0 3b 80 23 52 3c
       0.0006538356 0.012635512 0.0058814166 0.012825847
000270 60 3e a0 bc 8e ca ea 3a 18 64 07 bc f9 b0 21 bb
       -0.019560993 0.0017913149 -0.00826361 -0.0024672134
000280 8d ba 8c bb 24 33 23 3a 88 fc e2 3a e9 31 8d bc
       -0.0042946995 0.0006225577 0.0017317692 -0.017235713
000290 f8 a8 98 bb 9f 89 1b 3c 17 39 3f 3c 45 76 b2 bb
       -0.0046588145 0.009493261 0.011671326 -0.0054462277
0002a0 a0 24 13 3a 82 64 1d 3c 15 5a a6 3b e1 5e a1 3c
       0.00056130625 0.009606482 0.0050766566 0.019698562
0002b0 fb e7 9a bb a6 96 9b 3c bb e7 01 bc dc 3c fd ba
       -0.0047273613 0.018992733 -0.007928784 -0.0019320506
0002c0 a2 a0 6a bc 69 1f 00 bb d5 f7 0c 3c ff 2a 94 3c
       -0.014320524 -0.0019549972 0.00860401 0.018086908
0002d0 7f d0 bc 3b ea 96 ae b9 4d 75 c6 ba 1e cb 46 bc
       0.0057621594 -0.00033300306 -0.001514116 -0.012133388
0002e0 7c 1c 8e bb b0 8c 64 3c b5 60 c7 ba f4 6a 92 bb
       -0.0043368917 0.013949558 -0.0015211316 -0.004468316
0002f0 a2 69 48 3c 2a 5d 24 3b 3a 4d 68 3c 2c a3 e8 bb
       0.012232216 0.0025079944 0.0141785685 -0.0070995297

weight f4 [64, 64]
000000 71 f3 30 3e 9a 7a 10 3e 1a f0 0e be 94 bb 23 3e
       0.17280366 0.14109269 -0.13958779 0.15989524
000010 04 df 3e be 27 8c 86 bd 79 40 25 be 95 bf 02 3c
       -0.18639761 -0.06569701 -0.16137876 0.007980247
000020 1f a5 1a 3e 9a c8 a8 bd 75 6d d9 bc 88 d4 0e 3e
       0.15102051 -0.08241387 -0.026541451 0.13948262
000030 a5 ba 6a 3d f8 05 8e bc 20 7a 75 bd ee 99 3f 3e
       0.057306904 -0.01733683 -0.05993092 0.18711063
000040 a4 73 04 3c 2d 10 e0 3b 75 9a 96 3c e7 10 1e be
       0.0080842115 0.006837866 0.018384198 -0.15436135
000050 f5 40 13 3e b2 0f 3d 3e de d7 d6 3d 35 32 af 3d
       0.14380248 0.18463019 0.10490392 0.08554498
000060 11 35 27 be cf 41 9f 3d d2 fb b6 bd 62 78 d5 3c
       -0.16328837 0.07776224 -0.0893475 0.02605838
000070 c3 19 d5 bd ec 5f ee bc 44 08 6c be 31 d1 26 bd
       -0.10405304 -0.029098473 -0.23050028 -0.040726844
000080 54 06 55 3e ca f1 41 be 8c 5a 94 3d b1 41 6e be
       0.20803195 -0.18939891 0.07243833 -0.23267247
000090 a6 73 05 3e 6c 22 b9 bd f8 06 17 3e cb 56 82 bd
       0.13032398 -0.090397686 0.14748752 -0.06364211
0000a0 b8 06 21 3d 52 53 28 3d 9c 2b d0 3a 76 95 12 bd
       0.039313048 0.041095085 0.0015882137 -0.03578707
0000b0 c2 91 2f bd 1a 65 2b 3e 25 ed f5 bd 5c 61 4a be
       -0.042863615 0.16737786 -0.12008122 -0.19763702
0000c0 f0 10 9f 3c a7 07 44 be b6 41 0c be ca ed 31 3e
       0.019417256 -0.19143544 -0.13696942 0.17375866
0000d0 5f 9c 71 bc 53 b8 2a be df 93 95 bd 35 e5 23 be
       -0.014746754 -0.16671877 -0.07303595 -0.16005404
0000e0 01 66 4f 3e 8c 50 0d 3e b8 e4 89 bc 3c 2a 54 bc
       0.20253755 0.13800257 -0.016832694 -0.012949523
0000f0 39 4d aa bd cf af 22 be 2a 1a 5b bb 38 82 31 3e
       -0.0831551 -0.15887378 -0.0033432343 0.17334831
000100 4b 2c 57 3d 01 f1 9b ba 2a 71 d0 bd 90 81 cd 3b
       0.052532475 -0.0011897386 -0.10177834 0.0062715486
000110 61 1f 29 be 8b 4d 11 3d 7a c8 ed 3d 0e ff 01 be
       -0.16515876 0.03547434 0.116105035 -0.12694952
000120 1f fb 5c 3e 25 31 d3 bd 42 d1 ce 3d 58 71 2e be
       0.2158017 -0.10312108 0.100985065 -0.17035425
000130 2f b2 cf 3d 5b 7b 4f be 6d 94 86 bd b2 57 a5 3d
       0.10141408 -0.202619 -0.06571279 0.08073367
000140 f1 cc ba 3d 75 53 84 bd e5 b9 c2 bd f7 0a 95 bc
       0.09121121 -0.06461231 -0.09508113 -0.018193705
000150 95 98 1a bd 67 83 6e bd 1e c8 25 3e 31 2a 3a 3e
       -0.03774317 -0.058230784 0.1618962 0.18180157
000160 41 8a f7 3d 00 8b 1e be e6 a4 50 be 0a 3e 28 be
       0.12086917 -0.15482712 -0.20375404 -0.16429916
000170 eb 77 31 3e ed 00 51 3d f3 89 96 3d 60 73 70 bd
       0.17330901 0.051026274 0.073505305 -0.05870378
000180 25 33 da bd 80 2e de 3d 27 a4 51 be 52 62 a5 bd
       -0.10654286 0.10848713 -0.20472775 -0.08075394
000190 60 a9 49 be dd 3f 2e be dd 53 29 be 41 4c 31 3e
       -0.19693518 -0.1701655 -0.16535898 0.17314245
0001a0 0f 57 2a 3e 96 82 b7 bd 3a 0a 46 be 81 8c d8 bd
       0.16634773 -0.08960454 -0.19339839 -0.10573674
0001b0 ca d2 01 bd 26 d2 2c be d5 c4 14 be 76 cb 14 3d
       -0.031695165 -0.1687704 -0.1452821 0.036326848
0001c0 12 fd 8c 3d 57 ce ca 3d 24 94 1a bd 70 34 25 be
       0.06884207 0.099026375 -0.037738934 -0.16133285
0001d0 c1 06 c6 bd ee 8f 4b 3e 35 22 0a be 5f 88 fb 3d
       -0.09669257 0.19879124 -0.13489611 0.1228187
0001e0 aa e0 6c bc c0 3c 4c 3e 42 74 91 bd ec 64 b6 bd
       -0.014457861 0.1994505 -0.071022525 -0.08905968
0001f0 5f 4b e2 bd c2 76 4d 3e df b6 40 3e 79 ca 4a 3e
       -0.11049532 0.20064834 0.1881976 0.198038
000200 6d 87 d9 bd 8a e6 29 3e 7a 2b 01 be 17 1f 59 3d
       -0.106215335 0.1659185 -0.12614241 0.053008165
000210 77 19 70 3d 91 00 0d 3e 88 a8 30 be be 35 2e 3d
       0.058618035 0.13769747 -0.1725179 0.04253172
000220 d9 ba 46 3e f9 8e 5e bd ec 36 14 3a d7 d3 c0 3d
       0.19407214 -0.054335568 0.0005653936 0.09415405
000230 88 73 00 be c3 3b a8 bc a5 36 ed 3b 2a 92 8c 3c
       -0.12544072 -0.02053631 0.00723918 0.01715954
000240 17 a0 91 3c d4 22 8c bc 69 e4 2f be fa a6 09 be
       0.017776532 -0.017106451 -0.17176975 -0.13442603
000250 c2 59 22 3c 6e 8b 39 be 4d 3f ac bd a2 df 48 be
       0.009909095 -0.18119594 -0.08410511 -0.19616559
000260 d5 e7 49 3e ae 03 b6 3d 37 df c0 3d 68 0a 44 3e
       0.19717343 0.088874206 0.09417575 0.19144595
000270 75 57 18 3e d8 79 3d 3e 74 42 b8 3d 21 a0 b9 3d
       0.14877112 0.18503511 0.0899705 0.09063745
000280 5a 7a 6a ba 1e 0a ff 3d 02 d9 da 3d cc 0e 9c 3b
       -0.00089446234 0.124531016 0.10685922 0.004762506
000290 f9 40 55 bc 04 94 5c 3d c9 04 09 bd e4 bc 12 3d
       -0.013015979 0.053852096 -0.03345183 0.03582467
0002a0 68 e4 0a be 9c a2 15 bd 3a d4 5b 3c 31 61 56 be
       -0.13563693 -0.03653203 0.013417298 -0.20935513
0002b0 f3 5d 33 bd 0c 52 dd 3c bf 4c a1 bd 5b 58 42 3d
       -0.04379077 0.027016662 -0.07875966 0.047447544
0002c0 26 07 63 be b9 da 0c 3e 54 37 59 3e fc de bf bd
       -0.22170696 0.13755311 0.21212512 -0.09368703
0002d0 ae 77 23 3e e8 d5 0c be 52 21 66 3d b6 79 38 bb
       0.15963623 -0.13753474 0.05618412 -0.0028148717
0002e0 a9 77 d2 3d 7f 02 5e 3d 03 b9 45 be c8 e5 a9 3d
       0.102767296 0.0542016 -0.19308858 0.082957804
0002f0 b5 49 73 3d 2e 9a f0 3d 83 4f 26 be 71 74 7e 3d
       0.059396464 0.117481574 -0.16241269 0.062122766
000300 55 b0 8d bd e2 b3 58 be 6a a8 f5 3d 62 30 7e bd
       -0.06918398 -0.2116237 0.11995013 -0.06205786
000310 39 37 4f be a5 03 3f be 86 72 ca 3d 2a 7b 17 bd
       -0.2023591 -0.18653734 0.09885125 -0.036982693
000320 f3 a0 e5 3d ba 66 4d be ba 67 30 be 08 19 49 bd
       0.11212339 -0.20058718 -0.17227069 -0.049096137
000330 4e 76 a0 bd b0 b6 0c be d4 4b a7 3d ec 51 af bc
       -0.07835065 -0.13741565 0.0816876 -0.021401368
000340 30 fa b0 bd 47 03 13 be 5b 35 fa 3a b6 e1 ae bd
       -0.086414695 -0.14356719 0.0019089387 -0.08539145
000350 bc 97 54 3e de 14 1e 3c 9f ec 1f 3e d6 47 d7 bd
       0.20761007 0.00964853 0.15617608 -0.105117485
000360 f3 a3 89 bd af 2d d0 bd ce 51 50 3e c9 4d 39 3e
       -0.06720724 -0.101649635 0.20343706 0.18096079
000370 29 ef c7 3c 22 71 e9 bd 7e 3e 24 3e 21 91 b3 3d
       0.024406033 -0.113985315 0.16039464 0.087679155
000380 c7 cb 59 3e 32 0b 13 be b2 3d 45 3e 3e 2c f7 bd
       0.21269141 -0.1435974 0.19261816 -0.120689854
000390 a1 0e e6 3d ff 11 ea bd 8f 82 40 3e 49 ad 5e be
       0.11233259 -0.11429214 0.18799804 -0.2174579
0003a0 8a 37 3b be b2 e3 05 3e fd da 24 3d 4b 26 ff bc
       -0.18282905 0.1307514 0.040247906 -0.03114619
0003b0 94 d6 24 bd 7d f7 3d 3d 01 6b 2d 3e 1b 1f fe bd
       -0.0402437 0.0463786 0.1693535 -0.12408277
0003c0 2b 3b 6b 3d c3 c0 f9 3c e0 72 3e be 32 f4 24 bc
       0.057429474 0.030487424 -0.18598509 -0.010067986
0003d0 b4 36 d6 bb 0b a8 38 be 28 38 85 3d bf ae c7 bd
       -0.006537283 -0.18032853 0.065048516 -0.09750127
0003e0 b1 26 94 3d 09 0d 3e be 2b 0d 24 be 9f c4 ae bd
       0.07233942 -0.1855966 -0.16020648 -0.08533596
0003f0 ee 40 08 3e 3f 21 d8 bd ea 88 19 be 91 f1 8c 3d
       0.13306019 -0.10553216 -0.14993635 0.06882013

bias f4 [64]
000000 90 1c f8 3c cd c4 61 3c 53 87 e9 3c 73 f4 4d bc
       0.030287057 0.013779831 0.02850691 -0.012570488
000010 1c 9a 70 bc 69 99 4e 3c 16 99 4f 3b 71 11 de 3c
       -0.01468518 0.012609818 0.003167694 0.027107926
000020 79 43 4e bc 1e 1e a6 bc 2d 2f cd 3c 1e 40 8a bc
       -0.012589329 -0.020278033 0.02504691 -0.016876277
000030 d9 7d 01 bd f3 c6 7b 3c 0f f4 31 bb b0 61 1a 3c
       -0.03161416 0.015367257 -0.0027153527 0.009422705
000040 0d 47 e6 ba 49 8d 15 3c 6e 1d 1e bd 41 1a 52 3c
       -0.0017568782 0.009127923 -0.038602285 0.012823642
000050 3e 78 1c bc 73 9f ec 3c 34 29 45 bb 51 63 3d 3d
       -0.009550152 0.028884625 -0.0030084373 0.046237294
000060 53 41 6f bc 27 cd a1 3a 96 15 ab bb 62 68 a6 bc
       -0.014602977 0.0012344465 -0.005221079 -0.020313445
000070 1f 53 38 ba c6 1f c5 ba cf e6 14 3d c3 56 02 bb
       -0.0007031429 -0.0015039376 0.03635293 -0.001988814
000080 b4 35 3b 3b 1e 18 1f bc 1f 35 d9 bc 55 07 ad 3b
       0.0028565945 -0.00971034 -0.026514588 0.005280415
000090 7d f1 01 3d c3 c0 77 bb bb b2 d3 3c 4c 4c 56 3c
       0.03172444 -0.0037804104 0.025842061 0.013079714
0000a0 e1 a5 08 bd a3 78 c2 bc 77 50 c7 bb 99 21 ba bc
       -0.03336132 -0.023739165 -0.00608259 -0.022721099
0000b0 b4 0f a6 bc 7c fa 27 3d f0 1d 21 3c 2e 1a 95 3c
       -0.02027116 0.041010365 0.009833798 0.01820096
0000c0 f5 7c cb bb 95 ac 71 3a ae 13 12 bc 3b 9f 27 3c
       -0.0062099644 0.0009219137 -0.008915825 0.010230835
0000d0 4c 1b e7 3b 52 8a f9 b7 74 15 10 3c 77 0b 7b 3b
       0.0070528146 -2.9747524e-05 0.008794177 0.0038306394
0000e0 47 c0 af bc 78 b9 17 3d 66 ff 48 bc ca 9b a0 3c
       -0.02145399 0.03704211 -0.012267923 0.019605536
0000f0 23 8c 1b bc 7a 34 41 3d 8d 85 78 3b 0e 49 eb bb
       -0.00949386 0.047169186 0.00379214 -0.0071803397

weight f4 [448, 64]
000000 c3 64 f6 bc 6d 17 23 bc 0d bc b5 3d b1 b2 77 3c
       -0.030077344 -0.009954316 0.088737585 0.015118287
000010 10 8f 8e 3d 6b 09 c3 bc 8d b2 7b 3d aa f0 c2 3c
       0.06960881 -0.023808202 0.061449576 0.023796398
000020 ae 60 f2 bc 77 4d 0b 3d 78 fb 56 3c ce 14 ef bc
       -0.029587116 0.034009423 0.013121478 -0.029184725
000030 70 46 f2 3d 7e 36 8e bb 94 44 a7 3d 14 0a 97 3b
       0.11829841 -0.004339992 0.08167377 0.0046093557
000040 60 63 00 3d b4 e7 0f 3d a3 eb 55 bd ed d6 7b 3c
       0.03134477 0.03513308 -0.052226674 0.0153710665
000050 ac df 3c 3d 94 f7 0f bd f4 bd 9c bd 3b f6 24 bd
       0.046111748 -0.03514822 -0.07653418 -0.040273886
000060 3f 82 98 bd d0 07 e0 bd be e6 bb bd b7 87 a7 bd
       -0.074467175 -0.1093899 -0.0917487 -0.081801824
000070 de 2c bf 3d 57 41 b6 3d 64 22 19 bc 1f 22 09 bd
       0.093347296 0.08899181 -0.009346578 -0.033479806
000080 d7 e0 d7 3d 36 29 47 bd c4 dd 99 3d 0e e2 d6 bb
       0.10540932 -0.048623286 0.075130016 -0.0065577095
000090 24 03 b1 3d a1 a7 c2 bd 7c b2 4d bd 65 aa 58 bd
       0.08643177 -0.09504629 -0.050219044 -0.052896876
0000a0 ce b3 8b 3d 3c 33 e8 3d 75 22 37 bd 77 7d 9b bb
       0.068214044 0.11337897 -0.044710595 -0.004745181
0000b0 dd 62 47 3b 37 4d 49 bd 9c f9 4b bb 86 5d 51 bc
       0.0030423917 -0.049145903 -0.003112412 -0.012778645
0000c0 08 d4 e7 3d 7b bb 9e 3c e3 01 9e 3d f1 c9 a1 bb
       0.113197386 0.019376507 0.077152036 -0.0049374034
0000d0 98 e2 92 3d 22 24 62 bc 2c 5d 03 be 25 6f c9 3d
       0.071721256 -0.01380256 -0.12828511 0.09835652
0000e0 9a 3c b0 3d c8 69 31 3d 7b 73 d6 bc ec ec a3 3d
       0.08605309 0.04331377 -0.026178112 0.08004174
0000f0 db 16 ef 3d 12 16 dc bd a7 64 51 bd 26 59 c4 bd
       0.11674281 -0.10746397 -0.05112138 -0.09587316
000100 8b 45 d1 bd 11 72 d5 3d 9e 09 9c bd 07 6e c4 bb
       -0.102183424 0.10422147 -0.07619022 -0.0059945616
000110 b6 36 5b 3d 65 69 49 bc 54 25 5d 3d a3 b8 20 bc
       0.053518973 -0.012293194 0.053990677 -0.009809646
000120 8a 8e 55 3c 8e e6 d2 3d 57 29 97 3d 2b 7f 49 bd
       0.013034472 0.10297881 0.07380932 -0.049193542
000130 77 55 6d 3d 97 00 74 bd 1e 75 47 bd 00 47 b5 bd
       0.057942834 -0.059570875 -0.048695676 -0.08851433
000140 2d df 66 b8 00 2a 83 3c cd a0 cc 3d ae ac 9c bd
       -5.5044122e-05 0.016011238 0.09991608 -0.076501235
000150 39 d5 52 bc b9 df 9a 3c 1c 21 10 bd 46 57 54 3d
       -0.012868219 0.018905507 -0.035187826 0.051841043
000160 aa 55 96 bd c6 53 cb bd 65 38 e2 3c b4 42 ed bb
       -0.07340558 -0.09928088 0.027614782 -0.0072406176
000170 b4 98 c7 3d 62 b0 16 3d 0e b7 bf 3d 84 52 55 bd
       0.09745923 0.036789306 0.09361087 -0.052080646
000180 4a a1 5c 3d 51 4e e2 bd 3a 4e 3a bd 74 ad 87 3d
       0.053864755 -0.11050094 -0.04548476 0.066248804
000190 89 c6 90 3d 6c bd b7 3b b4 51 db bd 98 02 9a bd
       0.070691176 0.0056072976 -0.10708943 -0.07520026
0001a0 81 e2 de 3d 40 13 0a 3d 19 3c 66 3c 9d 4a b5 bc
       0.10883046 0.033709764 0.014052414 -0.022130305
0001b0 c4 1c db bc 86 fc bb 3d b5 d1 30 bb 95 c1 72 bc
       -0.026747115 0.091790244 -0.0026980464 -0.014816661
0001c0 c7 57 de 3b 74 64 2f 3d 0d ec 99 3d 33 e1 bf bd
       0.006785366 0.04282041 0.07515726 -0.09369125
0001d0 df 07 b0 bd 3f 79 76 3c 10 c7 af bd d3 8d 1a bd
       -0.08595251 0.015043556 -0.0858289 -0.03773291
0001e0 df 82 91 3d 1a ae 11 bb f9 84 e4 3c 18 54 fd bd
       0.0710504 -0.0022229017 0.027895438 -0.12369555
0001f0 08 60 78 bc 7e ed 1c 3c 03 8f 48 3d bc 13 bc 3d
       -0.015159614 0.009578107 0.04896451 0.091834515
000200 0e 7c f4 bc eb 81 fe bb 88 bb 0a bd 39 42 d0 bc
       -0.02984431 -0.0077669523 -0.03387025 -0.025422202
000210 9b 4f d0 3c 38 eb c6 bd f5 d2 9b ba ff 08 1c bd
       0.025428584 -0.09712833 -0.0011888432 -0.038094517
000220 5f d7 3b bd d6 8c a1 bd cc 74 2f bc 11 2f aa ba
       -0.04585969 -0.078881904 -0.010708999 -0.0012983998
000230 70 7a 40 ba 83 0f 5e 3d 31 90 9b 3c bc 5c 68 bd
       -0.00073424634 0.054214012 0.018989654 -0.056729063
000240 f7 d1 89 bd 83 1a d5 3d 38 a0 2b bd 59 3e 38 bd
       -0.06729501 0.10405447 -0.041900843 -0.044981334
000250 da 72 08 bd bf 69 8e 3d c5 7c cc 3d db 15 29 3d
       -0.033312656 0.06953763 0.099847354 0.04128061
000260 f8 7d ec 3c 48 de 9f 3d aa ba 97 3d 7d ae aa bd
       0.02886866 0.07806069 0.0740865 -0.08334062
000270 1e b9 a2 3d 2c c5 e7 bc f0 70 ae bd 78 1c cf 3d
       0.079454646 -0.028292261 -0.08517635 0.10112852
000280 56 86 57 3d 37 16 92 bb 14 c5 62 3d 18 8f b2 3d
       0.052618347 -0.0044582146 0.05536373 0.08718699
000290 d1 4e f2 bb 5a e7 9f bd 3c 49 09 bd 91 5d 67 bd
       -0.0073946496 -0.07807799 -0.033517107 -0.056485716
0002a0 92 9c c4 3d c3 71 6c 3c 34 1c 1c bd d8 aa 25 3d
       0.09600176 0.01443142 -0.038112834 0.040446132
0002b0 33 a4 ae 3d 8a f1 a3 3d 17 42 b1 bd 21 bd 0c bd
       0.08527412 0.08005054 -0.08655184 -0.034360055
0002c0 e1 c5 9e bd ce dc 03 bd 77 dd 34 3d 30 6e a1 3d
       -0.07752586 -0.032192998 0.044156518 0.07882345
0002d0 65 ea 8b 3c 2e 5b cd bd 4e 86 89 bd 96 42 b6 3d
       0.017079541 -0.10027157 -0.0671507 0.08899419
0002e0 75 81 a1 bd 8c ce 9b 39 b5 84 32 3d 0d 49 82 3d
       -0.0788602 0.00029717793 0.04358359 0.063615896
0002f0 15 2e 40 3d 17 c4 c6 3c f0 94 c4 bd b8 c0 a9 3c
       0.046918947 0.024263425 -0.0959872 0.020721778
000300 8c 13 3b 3a f7 a4 ac 3d 85 b6 53 bd de 7b d0 b9
       0.00071363966 0.08429902 -0.051687736 -0.0003976514
000310 5a a0 cd bc 17 16 05 bd d7 59 f8 bb 09 8a a5 bc
       -0.025100876 -0.03249177 -0.007579069 -0.020207422
000320 51 6f b4 ba 8e 29 83 bd 0e 60 85 3d 11 6e 76 3d
       -0.0013766085 -0.0640441 0.065124616 0.06016356
000330 0d 6a 99 bc d9 49 73 bd 99 b2 8c 3d 03 80 a8 bd
       -0.018727327 -0.0593966 0.06870002 -0.08227541
000340 48 10 22 bd 39 ae 4b bd 2b b1 fa bc 9d 5b ca bd
       -0.03956631 -0.0497267 -0.030602058 -0.09880755
000350 b8 9b 07 bc 54 ff ae 3d a6 55 93 bc 08 ff 3e 3d
       -0.008276872 0.08544794 -0.017985176 0.046629936
000360 d4 2d 11 bc 73 51 9b 3d 45 c5 98 3d 96 0c 9c bc
       -0.008861024 0.075838946 0.07459501 -0.01904897
000370 69 e0 07 bc aa 28 99 bd ef f0 02 bc 4d da 96 3d
       -0.00829325 -0.07478459 -0.007992013 0.07365856
000380 16 1a 01 be 5d d6 87 3d c0 a2 89 3d d5 d6 ad bd
       -0.12607607 0.066326834 0.06720495 -0.084882416
000390 55 17 c6 bc b1 47 4e bd 72 7d 89 bd d1 6c a2 3c
       -0.024181047 -0.05036134 -0.0671338 0.019827278
0003a0 15 1d 96 bd ab d7 62 3d 56 7e ce bd cf f3 ac 3d
       -0.07329766 0.05538146 -0.100826904 0.0844494
0003b0 98 d2 10 bd 33 b9 a4 3d c1 39 8b bd d5 9b 48 3d
       -0.035357088 0.080431364 -0.06798125 0.048976738
0003c0 55 2a d0 bd ab 79 bc 3d e4 fe f3 3c 74 91 a3 3d
       -0.10164324 0.09202894 0.029784627 0.07986727
0003d0 f2 d0 b4 3c e5 8f 41 3c fb f7 94 3c 1e c8 14 3d
       0.02207229 0.011814092 0.018184653 0.03632366
0003e0 0a cd cf bc ac 0b 3e bd f3 8d 2a bd a5 95 99 bd
       -0.025366325 -0.04639785 -0.04163928 -0.074992456
0003f0 5d 69 96 bb a9 7e 2b 3d bc 89 fb bc b1 11 e9 bd
       -0.004590197 0.04186884 -0.030705325 -0.113803275
