data/td_best_model.pth (torch, 456913 bytes, 33 tensors)

input.weight f4 [64, 10]
000000 47 17 0f be 41 44 13 3e 45 28 9b bd 3c 4b 05 be
       -0.13973723 0.14381506 -0.0757604 -0.13016981
000010 d6 6e 1b 3e 71 00 32 3e cd f7 8d 3e 43 44 27 be
       0.15179 0.17382981 0.2772812 -0.16334634
000020 8c 13 4f bd 49 13 2d be bd 43 21 be 0e 13 1e be
       -0.05055575 -0.16901888 -0.15748496 -0.15436956
000030 e1 5c 6d 3d 06 12 5c 3e 17 01 84 3e 28 96 42 be
       0.057949904 0.2149125 0.2578208 -0.19002593
000040 24 c8 71 be 4f 5a 8c be a9 e9 81 be 04 fc 3c 3e
       -0.23611504 -0.2741265 -0.2537358 0.18455511
000050 9b 2a 6e 3d 52 f7 95 3c f4 6d d8 3c b1 a3 81 3e
       0.0581461 0.018306408 0.026419617 0.253202
000060 05 88 89 be 27 9d 67 3d b0 dc 43 3e ce c3 dd 3d
       -0.26861587 0.056546357 0.19127154 0.108283624
000070 9b b5 4a be ea c7 da 3d 8f a1 ec 3b bb 4c ae bb
       -0.1979584 0.10682662 0.0072214077 -0.0053192056
000080 d7 4c b6 bd 2a aa 81 be 25 0c bb bd 4f 89 6d bd
       -0.08901375 -0.25325137 -0.09133176 -0.057992276
000090 2b af 87 3d f9 75 20 be 9e dd 7e 3d dd 28 d5 3c
       0.066252075 -0.15670003 0.06222307 0.026020462
0000a0 b1 ea 6b be 95 a2 83 3d 99 37 38 3e 67 e3 81 3e
       -0.23038746 0.064274944 0.17989959 0.25368807
0000b0 f3 3e da bb e7 57 22 3e 91 66 18 3c 0f ac 8c 3e
       -0.006660336 0.15853845 0.0093017975 0.2747502
0000c0 5f 8b ef 3c 06 ef a4 3d a0 23 5b 3e 15 96 7b 3e
       0.029241262 0.080534026 0.21400309 0.2456897
0000d0 c2 f2 6b 3e ef 70 22 3e 92 9e 54 be 67 33 d1 3d
       0.23041824 0.15863393 -0.20763615 0.10214882
0000e0 4e 57 93 bc f4 56 e3 3d 1a 65 1d be f0 27 ab bc
       -0.017985966 0.11100569 -0.15370598 -0.020893067
0000f0 99 da 72 3e 00 80 7d be a0 07 b0 bd 6b 96 7f 3e
       0.23716201 -0.2475586 -0.08595204 0.24959724
000100 9a 5e 8e be d3 d4 85 be d7 96 06 3c 0c 8d 63 3e
       -0.2780655 -0.26138934 0.008214674 0.22221774
000110 30 16 13 3d 55 ea 2b be f4 e9 b8 bd ab 2b 67 be
       0.03590983 -0.1678861 -0.09028998 -0.22575252
000120 ca c7 9e bb a4 84 05 3d 24 d4 c7 3d cb 12 db 3d
       -0.004845594 0.0325972 0.097572595 0.10696944
000130 de 15 6c 3e 52 da 20 be 98 5f 28 3d af fa ef 3d
       0.23055217 -0.15708283 0.04110679 0.11717736
000140 c8 d1 8d 3d b2 5a 84 be 8b 5c b6 bd cd e5 ea bd
       0.06924778 -0.25850445 -0.0890437 -0.11469612
000150 75 5f 1a 3e 78 1d 9d bd 11 99 33 be 4b 3a 53 3d
       0.15075476 -0.07671636 -0.17538859 0.051569264
000160 3b da 26 3d e3 41 27 be 14 c2 57 3e af 3e 83 bd
       0.040735465 -0.16333728 0.21070129 -0.0640844
000170 65 ac 2c 3e f6 a4 4a be 86 5c 07 be a6 f9 97 bd
       0.16862638 -0.1978949 -0.13218889 -0.074206635
000180 3b 2f 8b 3e 0b 12 3c be e9 b8 e9 3d fb 1c 46 3e
       0.2718447 -0.18366258 0.11412222 0.19346993
000190 0f 31 44 be 04 c6 41 3e 58 cb 6c be e6 c8 5d bd
       -0.1915934 0.18923193 -0.23124444 -0.05414667
0001a0 55 95 2d be 6a 98 80 3e d2 f5 ca bc 4f 0f 40 be
       -0.16951497 0.25116283 -0.02477542 -0.1875584
0001b0 fb 8d 93 be 8c fe 5c 3e 01 a4 c8 3d fb 47 74 be
       -0.2881926 0.21581477 0.09796906 -0.23855583
0001c0 56 70 ec 3d a5 67 6d be 7c c0 e3 3c 65 03 3c be
       0.11544864 -0.23184069 0.027801745 -0.1836067
0001d0 fe 1d c0 bd 88 16 c4 3d 25 8e d9 bd 95 5f ea 3c
       -0.093807206 0.0957461 -0.10622815 0.02861003
0001e0 87 26 cf bc 64 3f 9d bd 42 d9 3a be 57 45 64 be
       -0.025286926 -0.076781064 -0.1824694 -0.22292076
0001f0 59 2b 76 3e 10 18 95 be 40 f8 14 3c e3 fe 1a 3e
       0.24039973 -0.2911992 0.009092391 0.15136294
000200 f6 60 7b be 1a c6 7b 3e 9d 67 59 be 85 c9 bb bd
       -0.24548706 0.24587288 -0.21230932 -0.09169296
000210 98 67 48 3e 66 30 7a 3e ee 40 15 bc 13 cf 21 3e
       0.19570768 0.24432525 -0.009109719 0.15801649
000220 82 42 02 3e 37 ad 37 3c 7e 64 8a be dc 80 06 bd
       0.12720683 0.011210731 -0.27029794 -0.032837734
000230 bd 31 95 3e c8 9a 61 3d d8 ed 84 bd bf 1a 24 be
       0.2913951 0.05507925 -0.064906776 -0.16025828
000240 f9 43 e3 bc 83 3a 35 3e 77 89 17 be 1a af 73 3d
       -0.027742373 0.17698102 -0.14798532 0.05949316
000250 7d 7b 4a be 5f 31 46 3e d4 f7 4e be f5 a0 95 3e
       -0.1977367 0.19354771 -0.20211726 0.29224363
000260 12 50 08 3e 5c b1 d2 3c c4 26 20 3e 06 85 73 bd
       0.13311794 0.025719337 0.15639788 -0.059453033
000270 6d 26 0a be c2 f9 38 3d 70 56 e3 3b 15 e2 c5 bd
       -0.13491221 0.045160063 0.0069377944 -0.09662262
000280 ff 4b 21 be 9a 7a 5d 3d 93 3d 4d 3e 97 4a be bc
       -0.15751646 0.054072 0.2004302 -0.023228927
000290 b3 81 38 3a 0d 5b 3d 3d 7e 64 3a be a4 27 91 3e
       0.00070383697 0.04622941 -0.18202397 0.28350556
0002a0 d7 02 91 3e 36 23 2b be 55 88 05 3e 70 8f 63 bd
       0.2832248 -0.1671265 0.13040288 -0.055556715
0002b0 fb b3 cb 3d 1d 4d 60 bc 11 0b 54 3c e2 7b 27 be
       0.09946438 -0.01369026 0.012942092 -0.16355851
0002c0 ac 89 88 3c ea 88 77 bc 18 c1 29 be f6 4f 84 be
       0.01666721 -0.015108326 -0.16577566 -0.25842255
0002d0 6d 12 0c bd 8b e5 3f 3e b1 bf 18 be 9f 91 5a be
       -0.03419726 0.18739907 -0.14916874 -0.21344613
0002e0 8c 1f 71 3e 63 9e 7e 3e 96 8e 12 be 5a 56 89 be
       0.2354719 0.24865107 -0.14312205 -0.26823694
0002f0 99 03 21 3e 9a 69 9b 3c 74 b0 53 3e f8 10 49 3e
       0.15724029 0.018971253 0.2067278 0.1963538
000300 2e 03 99 bd e9 cd 3d b9 49 8a 10 3e 4d ca 98 3e
       -0.074713096 -0.00018101152 0.14115252 0.29841843
000310 74 36 14 be 7c 8a 11 3e a5 0e 6e 3e 27 59 03 3e
       -0.14473897 0.14212984 0.23247774 0.12826978
000320 2d ca e0 bd 33 86 3b 3d b3 b2 bb 3d 47 20 34 bc
       -0.10976062 0.04578228 0.091649435 -0.010994024
000330 1e 7c 77 3e 55 67 fc 3d 19 8c 41 3e 03 72 8d bd
       0.2416844 0.123243965 0.189011 -0.06906512
000340 ec 14 54 3e 9f b4 cc bc 3c e8 76 3e a1 e0 82 be
       0.20711106 -0.02498847 0.24112028 -0.25562003
000350 fb c0 93 3a 68 36 6a be fa ac 85 be 0a e7 9f 3d
       0.0011272723 -0.22872317 -0.26108533 0.07807739
000360 ff fa a2 bc a7 a2 87 be 88 28 f7 3d 97 26 f3 bd
       -0.019895075 -0.2649128 0.120682776 -0.11872595
000370 2f 4f 21 3e 40 d8 89 be dc 59 ee bd ce c4 bf 3d
       0.15752862 -0.26922798 -0.11638233 0.093637094
000380 77 12 7c 3e 7f e2 60 be c9 f0 4f be 08 20 56 3e
       0.24616419 -0.21961401 -0.20306696 0.20910656
000390 01 fa 3d 3e 78 f5 83 3e 6f c3 25 bd c0 2f 8b 3e
       0.185524 0.25773215 -0.040469583 0.27184868
0003a0 80 cf 4e be b0 49 77 3e 01 35 15 be 78 ff 80 bc
       -0.20196342 0.24149203 -0.14571 -0.015746817
0003b0 e9 cf d0 bd 16 91 43 be c9 56 1a 3e 7b b7 7f 3e
       -0.10195906 -0.19098315 0.15072168 0.24972336
0003c0 e6 6c 78 3e 45 39 02 be f4 0a 18 be da fa 9b 3d
       0.24260291 -0.12717159 -0.14847928 0.076162055
0003d0 c9 0b ba 3d c6 15 b5 bd 72 33 0b be d4 70 83 bd
       0.09084279 -0.088420436 -0.13593844 -0.06418005
0003e0 b0 a3 9d 3d 66 e9 24 be 0c a1 2a 3e 49 b3 66 3e
       0.076972365 -0.1610466 0.16662997 0.2252933
0003f0 19 da f9 ba 4d c6 df bd 99 05 54 be 6b 2f ad 3c
       -0.001906219 -0.10926495 -0.2070526 0.021140775

input.bias f4 [64]
000000 50 43 f0 3d 0c 27 81 be f6 9d 9b 3e 04 bf e2 bd
       0.11731589 -0.25225103 0.30393952 -0.110715896
000010 42 2b 51 be 93 2e 87 be 79 22 9f be f9 ad 86 3e
       -0.20426658 -0.2640272 -0.31080988 0.26304606
000020 7e 2d 6a 3e 6f 64 e6 3d 67 62 26 be 40 31 89 bc
       0.22868916 0.11249625 -0.16248475 -0.016747117
000030 ed 8c 6f be 58 e7 2d bd 1e 52 4a 3d 24 04 ec bd
       -0.23393603 -0.042456955 0.04939472 -0.11524227
000040 5f 57 73 3e 82 e7 50 3d 3c ea 5b be 1c a1 f3 3d
       0.23763798 0.051002033 -0.21476072 0.118959635
000050 af df 91 be 6d 54 98 be 72 a0 a5 bd 05 74 79 be
       -0.2849097 -0.29751912 -0.08087243 -0.24360664
000060 d5 ab 9d 3d 36 34 b9 bd 64 9c 69 be 0a 61 63 3e
       0.0769879 -0.090431616 -0.22813565 0.22204986
000070 b8 a7 88 3e 3d 26 41 be fd ce f4 3d 4d 3f bd 3d
       0.2669046 -0.18862243 0.119535424 0.09240589
000080 8c 59 85 bd f6 9a 7e be 86 fa 9e bd 18 bb 5f 3e
       -0.0651122 -0.248638 -0.07762627 0.21848714
000090 22 d6 16 be a2 07 92 be cf e4 4e be 89 89 cc 3d
       -0.14730123 -0.28521448 -0.20204471 0.0998717
0000a0 ab 79 b9 bc 05 4b 95 3e 5c 6a 26 3e 8b 33 28 be
       -0.022641024 0.29158798 0.1625151 -0.16425912
0000b0 40 ca 82 be 0a 66 5b be 8e e8 3f bd 72 05 9a be
       -0.2554493 -0.21425644 -0.04685264 -0.3008228
0000c0 91 a4 e9 bd e5 b5 3e be fe 5e 8c be 2c 51 21 3e
       -0.11408342 -0.18624075 -0.27416223 0.15753621
0000d0 ff 0e 0c 3e 87 d3 72 be 7e df ab bd a6 d0 08 3e
       0.13677596 -0.23713504 -0.08392237 0.13360843
0000e0 46 f1 5d be 42 8f 3c 3e 1d 75 ea bd 4c 09 6e be
       -0.2167407 0.18414024 -0.11448119 -0.23245734
0000f0 be 69 c7 bd 9f 2e 03 be 5e 42 36 be 5a 9b 96 bd
       -0.097369656 -0.12810753 -0.17798755 -0.0735385

pe.pe f4 [1, 24, 64]
000000 00 00 00 00 00 00 80 3f 00 00 00 00 00 00 80 3f
       0.0 1.0 0.0 1.0
000010 00 00 00 00 00 00 80 3f 00 00 00 00 00 00 80 3f
       0.0 1.0 0.0 1.0
000020 00 00 00 00 00 00 80 3f 00 00 00 00 00 00 80 3f
       0.0 1.0 0.0 1.0
000030 00 00 00 00 00 00 80 3f 00 00 00 00 00 00 80 3f
       0.0 1.0 0.0 1.0
000040 00 00 00 00 00 00 80 3f 00 00 00 00 00 00 80 3f
       0.0 1.0 0.0 1.0
000050 00 00 00 00 00 00 80 3f 00 00 00 00 00 00 80 3f
       0.0 1.0 0.0 1.0
000060 00 00 00 00 00 00 80 3f 00 00 00 00 00 00 80 3f
       0.0 1.0 0.0 1.0
000070 00 00 00 00 00 00 80 3f 00 00 00 00 00 00 80 3f
       0.0 1.0 0.0 1.0
000080 00 00 00 00 00 00 80 3f 00 00 00 00 00 00 80 3f
       0.0 1.0 0.0 1.0
000090 00 00 00 00 00 00 80 3f 00 00 00 00 00 00 80 3f
       0.0 1.0 0.0 1.0
0000a0 00 00 00 00 00 00 80 3f 00 00 00 00 00 00 80 3f
       0.0 1.0 0.0 1.0
0000b0 00 00 00 00 00 00 80 3f 00 00 00 00 00 00 80 3f
       0.0 1.0 0.0 1.0
0000c0 00 00 00 00 00 00 80 3f 00 00 00 00 00 00 80 3f
       0.0 1.0 0.0 1.0
0000d0 00 00 00 00 00 00 80 3f 00 00 00 00 00 00 80 3f
       0.0 1.0 0.0 1.0
0000e0 00 00 00 00 00 00 80 3f 00 00 00 00 00 00 80 3f
       0.0 1.0 0.0 1.0
0000f0 00 00 00 00 00 00 80 3f 00 00 00 00 00 00 80 3f
       0.0 1.0 0.0 1.0
000100 a4 6a 57 3f 41 51 0a 3f ce 7a 2e 3f b0 54 3b 3f
       0.84147096 0.54030234 0.68156135 0.731761
000110 ba 7d 08 3f 0d 94 58 3f f1 90 d1 3e c6 92 69 3f
       0.53316844 0.8460091 0.40930894 0.91239583
000120 3e 39 9f 3e 6b 4e 73 3f 25 8f 70 3e f1 d5 78 3f
       0.3109836 0.9504153 0.23492105 0.9720145
000130 3a 23 35 3e 83 f6 7b 3f f3 25 08 3e 28 ba 7d 3f
       0.17689219 0.9842302 0.13295726 0.99112177
000140 76 75 cc 3d 98 b8 7e 3f 36 6f 99 3d d1 47 7f 3f
       0.099833414 0.9950042 0.07491915 0.9971896
000150 ae 36 66 3d 68 98 7f 3f fa ac 2c 3d bd c5 7f 3f
       0.05620449 0.9984193 0.04215715 0.999111
000160 5b 81 01 3d 3c df 7f 3f a5 3e c2 3c 93 ed 7f 3f
       0.031617504 0.99950004 0.023711512 0.99971884
000170 42 ab 91 3c a3 f5 7f 3f 49 7a 5a 3c 2c fa 7f 3f
       0.017781857 0.99984187 0.013334819 0.99991107
000180 57 d6 23 3c b9 fc 7f 3f 16 b9 f5 3b 28 fe 7f 3f
       0.009999833 0.99995 0.0074988706 0.99997187
000190 5a 44 b8 3b f7 fe 7f 3f 5a 2e 8a 3b 6b ff 7f 3f
       0.0056233825 0.9999842 0.0042169513 0.9999911
0001a0 1c 3e 4f 3b ac ff 7f 3f 03 69 1b 3b d1 ff 7f 3f
       0.0031622713 0.999995 0.0023713715 0.9999972
0001b0 20 15 e9 3a e6 ff 7f 3f 8b c9 ae 3a f1 ff 7f 3f
       0.0017782785 0.99999845 0.0013335211 0.9999991
0001c0 6d 12 83 3a f8 ff 7f 3f 89 94 44 3a fb ff 7f 3f
       0.0009999998 0.9999995 0.000749894 0.9999997
0001d0 13 6a 13 3a fd ff 7f 3f 21 17 dd 39 ff ff 7f 3f
       0.0005623411 0.9999998 0.00042169637 0.99999994
0001e0 61 cb a5 39 ff ff 7f 3f 0d a8 78 39 00 00 80 3f
       0.00031622782 0.99999994 0.00023713727 1.0
0001f0 53 77 3a 39 00 00 80 3f 6d d4 0b 39 00 00 80 3f
       0.00017782794 1.0 0.00013335208 1.0
000200 b7 c7 68 3f 33 11 d5 be d9 5a 7f 3f 53 4d 91 3d
       0.9092974 -0.41614684 0.99748 0.070948265
000210 0a f2 66 3f b2 e8 dc 3e 12 35 3f 3f 02 39 2a 3f
       0.9021307 0.43146282 0.74690354 0.66493237
000220 1b 54 17 3f ec 7b 4e 3f b5 d3 e9 3e 69 be 63 3f
       0.5911271 0.8065784 0.45669332 0.8896242
000230 f6 47 b2 3e a6 fa 6f 3f 82 f0 86 3e f5 f2 76 3f
       0.34820527 0.93741834 0.26355368 0.96464473
000240 f8 6f 4b 3e a5 e5 7a 3f d3 00 19 3e 4f 20 7d 3f
       0.19866931 0.9800666 0.1494172 0.98877424
000250 86 d9 e5 3d f3 61 7e 3f ae 85 ac 3d 0e 17 7f 3f
       0.1122313 0.9936821 0.08423935 0.99644554
000260 c8 70 81 3d f9 7c 7f 3f aa 30 42 3d 4e b6 7f 3f
       0.063203394 0.9980007 0.04740969 0.9988755
000270 5c a5 11 3d 8e d6 7f 3f 50 75 da 3c b1 e8 7f 3f
       0.03555809 0.9993676 0.026667267 0.99964434
000280 3e d4 a3 3c e5 f2 7f 3f 51 b7 75 3c a1 f8 7f 3f
       0.019998666 0.9998 0.014997319 0.9998875
000290 9b 43 38 3c db fb 7f 3f 0a 2e 0a 3c ab fd 7f 3f
       0.011246587 0.99993676 0.008433828 0.9999644
0002a0 d8 3d cf 3b b1 fe 7f 3f e7 68 9b 3b 43 ff 7f 3f
       0.006324511 0.99998003 0.00474273 0.99998873
0002b0 08 15 69 3b 96 ff 7f 3f 80 c9 2e 3b c4 ff 7f 3f
       0.0035565514 0.9999937 0.0026670396 0.9999964
0002c0 68 12 03 3b df ff 7f 3f 85 94 c4 3a ed ff 7f 3f
       0.0019999985 0.99999803 0.0014997876 0.99999887
0002d0 12 6a 93 3a f5 ff 7f 3f 1f 17 5d 3a fa ff 7f 3f
       0.0011246821 0.99999934 0.0008433926 0.99999964
0002e0 60 cb 25 3a fd ff 7f 3f 0c a8 f8 39 fe ff 7f 3f
       0.0006324556 0.9999998 0.0004742745 0.9999999
0002f0 53 77 ba 39 ff ff 7f 3f 6d d4 8b 39 00 00 80 3f
       0.00035565588 0.99999994 0.00026670416 1.0
000300 c3 81 10 3e 26 70 7d bf de 3c 47 3f ce bf 20 bf
       0.14112 -0.9899925 0.7782725 -0.6279267
000310 d7 45 7e 3f ab 7f ed bd 63 21 74 3f 63 18 9a 3e
       0.9932532 -0.11596616 0.95363444 0.3009673
000320 c2 09 50 3f 58 2f 15 3f b7 24 27 3f a2 e7 41 3f
       0.8126489 0.58275366 0.652904 0.7574407
000330 6c 2f 02 3f 29 6d 5c 3f a7 68 c7 3e 37 c9 6b 3f
       0.5085361 0.86104065 0.3894703 0.92103904
000340 6c 4e 97 3e ef 90 74 3f e2 6d 64 3e 92 8c 79 3f
       0.2955202 0.9553365 0.22307542 0.9748012
000350 d7 ee 2b 3e 9e 5d 7c 3f 2c 33 01 3e 43 f4 7d 3f
       0.16790329 0.9858035 0.12617177 0.9920084
000360 c0 ff c1 3d 4f d9 7e 3f 06 93 91 3d 3a 5a 7f 3f
       0.094726086 0.99550337 0.071081206 0.9974705
000370 4e 69 5a 3d c3 a2 7f 3f c5 d1 23 3d 90 cb 7f 3f
       0.053323083 0.9985773 0.039994974 0.99919987
000380 1f b9 f5 3c 83 e2 7f 3f 47 47 b8 3c 6b ef 7f 3f
       0.0299955 0.99955004 0.022494925 0.999747
000390 c6 31 8a 3c ad f6 7f 3f 46 44 4f 3c c1 fa 7f 3f
       0.016869437 0.9998577 0.012650555 0.99991995
0003a0 0d 6e 1b 3c 0d fd 7f 3f 13 1d e9 3b 58 fe 7f 3f
       0.009486687 0.999955 0.0071140616 0.9999747
0003b0 a8 cf ae 3b 11 ff 7f 3f 13 17 83 3b 7a ff 7f 3f
       0.005334813 0.99998575 0.0040005534 0.999992
0003c0 92 9b 44 3b b5 ff 7f 3f 60 6f 13 3b d6 ff 7f 3f
       0.0029999954 0.9999955 0.0022496805 0.9999975
0003d0 17 1f dd 3a e8 ff 7f 3f 56 d1 a5 3a f3 ff 7f 3f
       0.0016870227 0.99999857 0.0012650888 0.9999992
0003e0 10 b1 78 3a f9 ff 7f 3f 09 7e 3a 3a fc ff 7f 3f
       0.00094868336 0.9999996 0.00071141176 0.99999976
0003f0 7e d9 0b 3a fe ff 7f 3f a4 be d1 39 ff ff 7f 3f
       0.0005334838 0.9999999 0.00040005625 0.99999994

transformer.layers.0.self_attn.in_proj_weight f4 [192, 64]
000000 1b d7 c5 3d fa ad 94 ba bd fc df 3d 79 3b c7 bd
       0.09660169 -0.0011343353 0.10936878 -0.097281404
000010 6e fd 99 3d b3 55 58 3d 81 9c 67 3d f7 18 09 3e
       0.07519041 0.052816104 0.056545738 0.1338843
000020 c9 2b 78 3d e7 9e e8 3c d6 37 e5 bc 11 cb ae bd
       0.06058863 0.028396083 -0.027980726 -0.085348256
000030 b9 b9 bb bd e9 80 a6 bd f2 7f 11 3e 99 88 45 be
       -0.09166283 -0.081300564 0.14208964 -0.19290389
000040 ed 02 91 bd 8c ed 90 3d 1d 47 00 3d 11 84 67 bd
       -0.07080636 0.070765585 0.03131782 -0.056522433
000050 65 b1 0e 3d e7 f0 88 3b 65 61 40 bd 30 57 ab 3b
       0.034837145 0.0041791084 -0.046967883 0.0052288994
000060 b1 c3 04 3c f7 a4 27 bc 67 ec ed bc dc 2d a3 bd
       0.008103297 -0.010232202 -0.02904339 -0.07967731
000070 09 61 24 3e c3 ed 2f 3e ce a2 82 3d 77 53 ac bb
       0.16052641 0.17180543 0.06378709 -0.005258973
000080 23 01 18 be bf 1a b3 bc 5c b5 b9 bd d5 29 d2 3d
       -0.14844184 -0.02186334 -0.09067795 0.10261885
000090 fa c2 ba bd f7 1f 54 3b 75 33 e4 3c c7 ab b8 bb
       -0.0911922 0.0032367685 0.027856568 -0.005635712
0000a0 d2 75 05 3e c9 4d a0 bd f5 02 cf bc 16 41 42 3e
       0.13033226 -0.07827336 -0.025269965 0.18970141
0000b0 a9 20 da bd 9c a7 54 3d a8 c0 28 bd 34 ed a2 3c
       -0.10650761 0.051917657 -0.041199356 0.019888498
0000c0 49 b5 83 bd 33 72 8e 3d 47 21 1e 3d c7 6c 2c 3e
       -0.06431062 0.069553755 0.038605954 0.1683837
0000d0 2f 04 93 bd 7f f6 a5 bb ea 2d 9e bc 0b 02 10 3e
       -0.07178532 -0.005064785 -0.019309003 0.1406328
0000e0 fb 8a 7c 3c 65 39 4d 3d 6d ec 03 3d 68 60 39 bd
       0.015413995 0.050103564 0.032207895 -0.045257956
0000f0 3a c5 94 bd 9e 9e 08 bc d4 45 b2 bd 76 c5 b7 3d
       -0.072641805 -0.008338599 -0.08704725 0.089732096
000100 03 33 51 3d 3c 04 9e bd d0 e0 a3 bd 1d 2b c4 3d
       0.05107404 -0.077156514 -0.08001864 0.09578536
000110 d2 eb 9c 3c 57 29 69 bc f2 45 cf bd 2e 00 14 3d
       0.019155417 -0.014231048 -0.10120763 0.036132984
000120 17 fa ce bb f4 9c a2 3d 21 e3 22 be 1c 23 42 3d
       -0.006316434 0.07940093 -0.15906955 0.047396764
000130 7e 35 bd bd fd a3 0f 3d 62 34 b0 bd 51 bb 26 be
       -0.092387185 0.0350685 -0.08603741 -0.16282393
000140 36 77 3c bd 08 4a 0b be 58 3c 26 3e 76 c9 6e bd
       -0.046012126 -0.1360246 0.16233957 -0.058297597
000150 bf 3f 0b bd b8 a9 03 bd 0d 61 24 3e 85 c7 d8 bd
       -0.03399634 -0.03214428 0.16052647 -0.1058493
000160 f7 7b 17 bd 99 97 11 3d e4 19 19 bb 55 58 5a 3e
       -0.036983456 0.035544965 -0.002336138 0.21322758
000170 f4 73 87 bd b3 a3 f0 3c 05 2b 26 3e f3 bc 4b 3e
       -0.06613913 0.029374933 0.16227348 0.19896297
000180 b9 6d 0f be 6f 09 2c 3e 7d ac 3c 3b ab 5a 5e 3e
       -0.140067 0.16800474 0.0028789334 0.21714275
000190 f4 76 03 3e 90 45 a7 bd 16 6e ea bd d9 33 43 bd
       0.12838346 -0.08167565 -0.114467785 -0.047656868
0001a0 16 b3 0e 3e 69 50 d0 3d 78 25 df bd 14 34 3a 3e
       0.13935503 0.10171587 -0.108958185 0.18183929
0001b0 3d 2a 1e be 34 7f 1a 3e 0f 56 0b 3e ed 47 2b bd
       -0.154458 0.15087587 0.13607047 -0.04181664
0001c0 b8 36 08 be 3e 12 30 3e d9 be 18 be ad 04 47 3e
       -0.13302124 0.17194459 -0.14916553 0.19435377
0001d0 1c c6 40 bc 62 f9 2c 3e d7 12 99 bd bb da b9 bd
       -0.011765983 0.16892007 -0.074742965 -0.09074923
0001e0 78 c1 e4 bd 64 64 30 3e 97 a0 81 3d 53 0c 0c bd
       -0.11169714 0.17225796 0.06329458 -0.03419144
0001f0 59 21 12 3e 6f 33 8f 3c 69 3d 26 3a 0f 19 97 3d
       0.14270534 0.01748058 0.0006341548 0.073778264
000200 64 17 a6 3d 19 8e 57 bd 43 61 b9 bd f8 7f e5 3d
       0.0810993 -0.05262575 -0.09051754 0.11206049
000210 7f d4 22 3d 87 2e a9 bd ab aa 61 3d e4 ad 92 3c
       0.039753433 -0.082608275 0.055094402 0.017905183
000220 1c 02 71 3d 14 97 bf bc 24 16 8e 3d e0 7d f4 bd
       0.058839902 -0.02338747 0.06937817 -0.11938071
000230 cf 8a cd bd a7 98 34 3d cf b2 95 bd 73 83 2a bd
       -0.10036241 0.044090893 -0.07309496 -0.041629266
000240 d2 ba 09 3d bd b8 17 3d e2 ad bf 3d 6c fe 23 3d
       0.03362543 0.037041415 0.093593374 0.040037557
000250 fd 71 45 3d e2 fd ae 3d 78 c4 0f be f1 80 9e bc
       0.04820441 0.08544518 -0.1403979 -0.019348593
000260 d7 ea 72 3d d9 35 0c 3c a5 ce 67 3d c8 ff aa 3d
       0.059305992 0.00855776 0.056593556 0.08349568
000270 3f 93 07 3e 2f 7c 03 3e f8 a9 aa bd 51 28 d7 3d
       0.13239764 0.12840341 -0.083332 0.105057366
000280 49 b3 ea 3d d6 ea 37 bd ed 49 52 3d ea 59 42 3d
       0.11459977 -0.04490169 0.051340032 0.04744903
000290 01 8d 01 3e 77 9f af bd 5a 0a f8 bd fb ba 8d bd
       0.12651445 -0.085753374 -0.121113494 -0.06920429
0002a0 15 1f 55 3c a2 9e 0f 3d 91 05 bd bd 82 16 1c be
       0.013007899 0.035063393 -0.09229577 -0.15242961
0002b0 1e 4b 6a bd e6 04 31 3d 5f e8 30 3d 0b ae 1d 3c
       -0.057200544 0.043217562 0.043190356 0.009624015
0002c0 56 60 cb bc 03 7a 36 bd 41 44 85 3d dc 70 8e bd
       -0.02482621 -0.044549953 0.06507159 -0.0695512
0002d0 d7 0a 0e bd ab b9 93 bd 18 46 86 bc e7 05 d4 3d
       -0.034678306 -0.07213148 -0.016390845 0.10352688
0002e0 87 6a 5a 3d 2b 20 23 3d 3b c8 b5 bd af 44 39 3d
       0.05332425 0.0398256 -0.088760816 0.045231517
0002f0 53 d3 1c 3b 77 59 15 be bb 49 6f 3c 53 6f 13 be
       0.002392967 -0.1458491 0.014604981 -0.14397936
000300 27 95 c0 bd e2 62 78 bd 9f 6d e0 3d 13 0c d1 bc
       -0.094034486 -0.060641177 0.109584086 -0.025518453
000310 6b a9 8a 3d 2f 4f 01 be fe de fd bd 70 cc 14 3e
       0.06770595 -0.12627862 -0.12396048 0.14531112
000320 4f c1 ea bd bc 8b 06 3e c7 10 f2 bd 93 0a de 3d
       -0.11462652 0.13139242 -0.11819606 0.108418606
000330 0f 97 31 bd 2a 0e 2c bc 19 0e 22 3e 62 f5 e6 bd
       -0.04335695 -0.010501424 0.1582569 -0.11277272
000340 fe 1c a3 3c ce e0 99 bd 6f 0b 1f bd 89 fa 28 3d
       0.019911285 -0.07513581 -0.038829263 0.041254554
000350 04 dc 29 bc 1d 76 d3 3d d8 44 61 3d 37 a0 4c 3d
       -0.010367397 0.10325263 0.054997295 0.04995748
000360 00 d1 b6 bd 1c 17 ec bd e9 96 b8 3d 91 4d 1c 3e
       -0.08926582 -0.11527845 0.09013159 0.15263964
000370 50 5e 84 bd 2a a8 00 be 95 b7 cd bd 88 2f 01 3e
       -0.06463301 -0.1256415 -0.10044781 0.12615788
000380 9f 84 04 3d 0c eb d2 3d f8 a2 18 3e 31 c4 93 bd
       0.03235304 0.10298738 0.14905918 -0.07215155
000390 4d 2d 56 3d 50 65 37 bb 3e 8b 08 3e 84 13 70 3d
       0.052289296 -0.002798397 0.13334367 0.05861236
0003a0 d1 4b 79 bd ef 6e b7 3d a0 e3 b9 bd 20 51 f8 3d
       -0.06086332 0.08956706 -0.09076619 0.12124848
0003b0 d6 04 08 be 2a 3d 1d 3e 41 7a e3 3d ba e2 ea bd
       -0.13283095 0.15355363 0.111073025 -0.11469026
0003c0 27 b7 d6 bd 5b d6 9b 3d 8b 24 d6 bd ef 76 ec bd
       -0.10484152 0.076092444 -0.10456189 -0.11546122
0003d0 77 bb 7f bd ff b4 43 bd 49 df ba 3d 21 2d 10 3d
       -0.06243464 -0.047780033 0.091246195 0.03519929
0003e0 76 f8 d9 3d a8 86 a8 3d ad 14 d3 bd 54 92 44 bc
       0.10643093 0.08228809 -0.10306678 -0.011997778
0003f0 a6 d1 03 bd 99 45 d9 bd 72 43 15 3e a5 cb d2 3d
       -0.03218236 -0.10608978 0.1457651 0.10292748

transformer.layers.0.self_attn.in_proj_bias f4 [192]
000000 83 45 3a 3d 57 ce 9a 3d 8d 74 84 bc 11 d8 d4 3c
       0.045476448 0.075588875 -0.016168857 0.025981935
000010 d7 3f f5 3c 41 e3 d7 3b 37 c8 16 bd b8 0b d0 3b
       0.029937668 0.00658837 -0.036812034 0.0063490532
000020 41 34 d5 3c ed 9e df 3c d5 b0 2e bc 97 eb 45 bd
       0.026025893 0.027297461 -0.010662277 -0.04832038
000030 d4 f7 a4 bc 35 28 21 3d 04 2f be 3c f3 73 6f 3d
       -0.020137705 0.039344985 0.023215778 0.058460187
000040 eb ab 0d 3d ca 4c a8 bb 5f 76 3e bd df 11 df bb
       0.034587782 -0.005136107 -0.046499606 -0.0068075503
000050 e9 54 51 3c c1 e8 57 3c 3b 57 d5 3c 83 71 4b bd
       0.012776592 0.013178051 0.026042571 -0.0496688
000060 1d 7d 23 bc 96 b1 35 3d af 07 55 3b 01 7b 30 3d
       -0.00997856 0.044358812 0.00325058 0.043086056
000070 b7 25 ca 3a d5 bd f8 3c 54 50 2d bd 45 00 b0 3b
       0.0015422617 0.030363956 -0.042312935 0.005371126
000080 64 a8 1c 3c 2f f7 d6 bc d3 e1 4b bc 9a 6d 37 ba
       0.009561632 -0.026240913 -0.012443977 -0.0006997228
000090 37 4d b9 bc 87 d7 1a 3c 11 cf dd 3b dd ab 0d bc
       -0.022619827 0.0094508 0.006769069 -0.008646932
0000a0 f7 60 8c bc d0 62 fc 3c 0c 5c ea bb f7 83 ed bc
       -0.01713608 0.030808836 -0.007152086 -0.02899359
0000b0 19 a0 28 bc a0 9b e8 39 e7 0d 93 ba a7 34 b1 bc
       -0.0102920765 0.00044366438 -0.0011219353 -0.021631552
0000c0 0d 1c 54 3c d1 ed 94 bc 6d 60 18 bc ab b7 a9 bb
       0.012946141 -0.018179806 -0.009300333 -0.0051793656
0000d0 52 bc ad 3c 53 4e 93 bc 98 cd d2 bb ad 44 f4 3c
       0.021207962 -0.017981684 -0.0064332 0.029817903
0000e0 b7 02 27 bc 28 8f 6d 3c 99 66 41 bc 1c 97 23 3c
       -0.010193518 0.014499463 -0.011804246 0.009984758
0000f0 16 d4 56 3c ca 0f f5 3b dc f6 05 3c 9b 73 ec 3b
       0.013112089 0.007478689 0.008176532 0.0072159297
000100 62 9b 21 b9 f6 83 d8 b9 81 29 d1 37 b0 ac e8 b8
       -0.00015412041 -0.0004129705 2.4934068e-05 -0.000110947876
000110 bd a3 bd b9 b2 50 a3 b8 00 19 ad 39 a6 21 d0 b8
       -0.00036170884 -7.787476e-05 0.00033015758 -9.9244804e-05
000120 2c f8 eb 37 f3 f9 01 b9 81 25 bc b8 e7 aa db 38
       2.8129747e-05 -0.00012395512 -8.971524e-05 0.00010474567
000130 fe 11 d4 b8 c4 17 69 b9 ff f2 9c b8 f0 d2 02 ba
       -0.00010112299 -0.00022229465 -7.483921e-05 -0.00049905386
000140 53 c6 f8 37 8e 2a 45 37 78 1b dc 38 43 fa 1a b8
       2.9656256e-05 1.1752023e-05 0.00010495534 -3.6949536e-05
000150 fd 47 92 37 12 87 09 38 35 c4 72 b7 d7 01 38 39
       1.7438078e-05 3.278914e-05 -1.4470007e-05 0.00017548293
000160 a4 be e8 37 6c bd bd b8 eb cd 61 b7 22 59 da b8
       2.774533e-05 -9.047505e-05 -1.3458989e-05 -0.00010411652
000170 e2 f0 d4 37 3e 3e c4 34 ec d3 18 38 be da c4 37
       2.538454e-05 3.6553132e-07 3.643699e-05 2.346688e-05
000180 9d 4e 58 38 31 42 a4 36 8c 51 17 b8 d5 4c ec 36
       5.1571627e-05 4.8952866e-06 -3.6077152e-05 7.0422925e-06
000190 65 fe d2 b8 9a 29 e1 37 5d ab b0 b7 50 69 63 b8
       -0.00010060965 2.6841462e-05 -2.1060632e-05 -5.4219097e-05
0001a0 0e e5 e3 37 48 30 e4 38 bf 28 08 39 c4 b2 fc b8
       2.716717e-05 0.0001088088 0.0001298515 -0.00012049594
0001b0 4c 8e 9a b8 7b 57 99 b8 da 8c ef b8 21 41 c0 b8
       -7.369797e-05 -7.311903e-05 -0.00011422644 -9.167405e-05
0001c0 0e 57 1e b9 f9 f5 db 37 44 38 60 b8 a6 21 44 37
       -0.00015100485 2.6221374e-05 -5.3458163e-05 1.1690345e-05
0001d0 aa d2 d7 b8 2c a5 94 b7 49 7b 59 b8 2b 39 5c b9
       -0.00010291238 -1.7719889e-05 -5.185165e-05 -0.00021002132
0001e0 ac 24 c0 b8 d8 a4 8c b8 72 5a 39 38 16 63 21 38
       -9.162104e-05 -6.706425e-05 4.419167e-05 3.8477672e-05
0001f0 80 b2 e8 38 76 53 0a b9 6b 60 ad 38 e0 db b1 37
       0.0001109587 -0.00013191797 8.267242e-05 2.1202432e-05
000200 cc d7 c7 3b 5b 93 9f ba 08 3a 00 3c 4a a4 b6 3b
       0.006098723 -0.0012174653 0.007826336 0.005573784
000210 d8 6e 0c ba e1 16 e0 3b e7 6a 00 3c f7 07 ed bb
       -0.0005357093 0.006838665 0.0078379875 -0.0072336155
000220 01 e5 0f 3b 9a 89 03 b8 b8 9f d7 3b b7 c1 21 3a
       0.0021956565 -3.1360985e-05 0.0065803193 0.00061705284
000230 3f 67 c2 3a 46 ad dc ba 8e 3b bb bb 69 d2 37 bb
       0.0014831795 -0.0016836307 -0.0057138866 -0.0028048998
000240 ba fb 68 3a 83 ec 7a 3a 7e e9 9a 3b 15 b2 0b 3c
       0.0008887608 0.0009571986 0.0047275415 0.008526345
000250 c0 91 99 bb 6e ad f4 ba ad 04 ca bb 50 fe aa ba
       -0.004686564 -0.0018667409 -0.006165108 -0.0013045762
000260 75 9c 28 3b 70 aa 67 3a 3b c9 ae ba 54 f0 89 3b
       0.0025728021 0.0008837348 -0.0013335118 0.0042095575
000270 02 96 1f bb c0 39 c0 ba b3 cd a3 3b d1 b4 6a bb
       -0.0024350886 -0.0014665648 0.0049988865 -0.0035813341
000280 32 b6 ad bb 41 f8 89 bc c1 c0 e8 3b 17 8a 6e bb
       -0.0053012604 -0.01684201 0.007103056 -0.0036398226
000290 cb e6 e6 3a 9b ad 0e 3c e1 1a 6b 39 7d b6 fd 3b
       0.0017616389 0.008708383 0.0002242136 0.0077427016
0002a0 3e 3b a8 ba ce b0 9d 3b 44 6a d2 ba ba 42 df 3b
       -0.0012835038 0.0048123365 -0.0016053398 0.0068133743
0002b0 0a d1 d7 3b 50 c9 8c 3b 29 4b e0 3b 0c 1b 8c ba
       0.0065861987 0.0042964593 0.0068448973 -0.0010689213
0002c0 41 e5 3b bc 8d fe 88 3b bb ac 03 b9 17 5b 8e bb
       -0.011468233 0.0041807354 -0.0001255748 -0.004344355
0002d0 72 7c 01 3c 24 67 b9 3b 1c 8d a4 bb 0e e4 f1 ba
       0.007903205 0.0056580473 -0.0050217044 -0.0018454806
0002e0 91 88 41 3a a1 bd b7 39 76 9b 99 ba dd 19 e1 3a
       0.00073827157 0.00035045765 -0.0011719305 0.0017173846
0002f0 ce 47 f0 3b a5 ab f7 bb 3f 90 9f 3a 43 d6 be bb
       0.0073327785 -0.0075583034 0.0012173726 -0.005823882

transformer.layers.0.self_attn.out_proj.weight f4 [64, 64]
000000 3a 34 14 3e 27 2e 03 3e a2 b5 f1 bd df 77 58 3e
       0.14473048 0.12810574 -0.11802222 0.21139477
000010 aa 5c 88 bd 9b 1b 11 3e 77 8d 46 be a6 87 53 3d
       -0.06658299 0.14170687 -0.19389902 0.051643036
000020 1b 17 12 be 46 3d ca bd 67 07 ba 3b 56 35 ee 3d
       -0.14266627 -0.09874968 0.005677152 0.11631267
000030 b4 a2 30 3e 36 5f 28 bc 96 f3 e9 bd 7f 7c 92 bd
       0.17249566 -0.010276606 -0.114234135 -0.07152652
000040 8f 78 d7 3c ea 78 c9 bd a6 1f c1 3c 91 fe a0 bd
       0.026302604 -0.09837516 0.023574661 -0.07861055
000050 04 f4 f3 bc e5 a0 35 3e 2d 07 45 3e 4d 76 de bd
       -0.029779442 0.17737158 0.19241019 -0.10862408
000060 48 09 98 bc 25 78 0b be 75 75 82 3d fb a2 d9 3d
       -0.018559113 -0.1362005 0.063700594 0.10626789
000070 b7 23 3b bd b4 8b 8d bd 70 7c bd 3d 03 6e a4 3d
       -0.045688357 -0.06911412 0.0925225 0.080287956
000080 82 02 a3 3d bf de 08 3e 3c 65 51 3d 0d 25 3e 3e
       0.07959463 0.13366221 0.051121935 0.18568821
000090 4f c4 c9 3d 8d f9 4b 3e 6e 8e a2 3d e7 bf 63 bd
       0.09851896 0.19919415 0.079373226 -0.055602934
0000a0 5c 58 b9 bc 38 eb ed bd f0 0b 0d be 2f 5d 92 3d
       -0.02262514 -0.1161713 -0.13774085 0.071466796
0000b0 c6 08 0d 3d 3a 91 54 3e 1b c0 09 3c 08 f0 07 be
       0.034432195 0.20758525 0.008407618 -0.13275158
0000c0 66 23 1a bd 26 2f fe bd 57 33 ce 3d 1f de a2 3d
       -0.037631415 -0.124113366 0.10068386 0.079525225
0000d0 33 1c 6f bd d9 66 1e 3e f1 e5 52 be 3c 32 b6 3d
       -0.058376502 0.15468921 -0.20595528 0.088963
0000e0 b8 7f 89 3d dd ab 6a 3d df c1 28 3c 67 09 46 3e
       0.067138135 0.057292808 0.010300129 0.19339524
0000f0 c8 f7 1c be 53 cf 26 be 37 77 4e 3e 88 25 92 bd
       -0.15328896 -0.16290025 0.20162664 -0.07136065
000100 ce 7b 12 be 0e d9 8a 3d a8 45 16 be 7f d6 ec bd
       -0.1430504 0.06779681 -0.14675009 -0.115643494
000110 27 9a e7 3d c6 2c ef 3d 0d 90 b5 bc f6 50 bf 3c
       0.11308699 0.11678462 -0.022163415 0.023354035
000120 a1 23 bb 3d 1d 0d 22 3e 33 8e af bd 99 f8 50 3e
       0.09137655 0.15825315 -0.08572044 0.20407332
000130 7f 9c c8 bc df d0 5a be b9 fd 1e 3e 3b 34 e1 bd
       -0.024488686 -0.2136874 0.15526475 -0.1099629
000140 fb ab 4b bc 7e 0d 20 be 43 0d 0a 3b 52 b0 0c be
       -0.01243114 -0.15630147 0.0021065034 -0.13739136
000150 7f 82 ac bd 3b 62 5d 3d 89 fe 1a 3e 8a 54 e4 bd
       -0.08423328 0.054048758 0.1513616 -0.11148937
000160 9b 69 89 bd 0b 6a ab bd 91 ef 0b 3e 70 df e9 3d
       -0.06709596 -0.083698355 0.13665606 0.114195704
000170 9b 1d f4 3d 0f f2 a9 bc 75 ae 64 3d ad f3 1b be
       0.11919709 -0.020745305 0.055830438 -0.15229674
000180 3a be 53 be b0 bc f8 bd 7d 7e 4f bd 7a 31 b6 bc
       -0.20678034 -0.12145364 -0.050657738 -0.02224039
000190 4f d8 da 3d 12 e7 43 3e fe ca 5a bc d6 e2 44 3e
       0.10685789 0.19131115 -0.013354061 0.19227156
0001a0 8c 09 df 3d 77 40 ee bd fc ad b0 3d 5d af ee bd
       0.10890493 -0.116333894 0.08626935 -0.11654542
0001b0 97 4e 0d be 3b 6a 0b 3e 16 89 9d bd a1 42 13 be
       -0.13799511 0.13614742 -0.07692163 -0.14380886
0001c0 44 0e fc 3c 64 69 96 bd e1 33 ef bd b8 c8 3d 3e
       0.030768521 -0.073443204 -0.11679817 0.185336
0001d0 56 9f 39 be ed 1b dd bd 32 8c eb 3c e4 b9 0f be
       -0.18127188 -0.10796342 0.028753374 -0.14035755
0001e0 ae 45 f5 3c 9a d4 62 be 33 3e 94 3d 2d ec 05 bd
       0.029940452 -0.22151414 0.07238426 -0.032695938
0001f0 6f c4 25 3e 31 7c ff 3d 66 f5 9f 3d 96 81 5c 3e
       0.16188215 0.124748595 0.07810478 0.21533808
000200 ba b8 4f 3e ba 92 41 3d 6e ee 99 bd 57 ab 9f 3d
       0.20285311 0.04725907 -0.0751618 0.07796352
000210 4a 1e 09 be be 9b fc bd b7 67 60 3d 18 47 87 bd
       -0.1339046 -0.12334393 0.05478641 -0.06605357
000220 5c 69 1b 3e cd ca 3d 3e c7 3d 97 3d c7 73 35 be
       0.1517691 0.18534394 0.0738483 -0.17719947
000230 cf 0b 46 3d 86 46 b9 bd d7 7e 5c be dc 44 40 be
       0.048351105 -0.090466544 -0.2153276 -0.18776268
000240 61 1b 78 bd 5f de 17 3d 82 f7 d7 3d 07 5a 7b 3d
       -0.060572986 0.037077304 0.10545255 0.061365154
000250 49 bf 0d bd 6f 50 8f 3c ff 6e 92 3c 13 a2 15 be
       -0.034606252 0.017494408 0.017875193 -0.14612608
000260 5d 8a 34 3e 50 2c 33 be 33 67 35 3d 7e 31 06 be
       0.17630906 -0.17497373 0.04428787 -0.13104817
000270 f2 e2 2e be 46 e0 43 be 7b aa 01 3e f9 15 2a be
       -0.1707876 -0.19128522 0.1266269 -0.16609944
000280 e6 e1 b5 bd 74 c6 31 be b4 72 27 3e 77 66 2a 3e
       -0.08880977 -0.1736086 0.1635235 0.1664065
000290 71 61 a4 bd e9 66 de bb d9 72 76 bd 50 e1 24 3e
       -0.08026398 -0.00678717 -0.06016812 0.16101575
0002a0 40 d9 ef bd 46 01 a3 bd 61 49 66 bd a9 57 4b 3e
       -0.11711359 -0.07959227 -0.056222323 0.19857658
0002b0 3a 9a 4d be 0f 76 64 be 4a fc 29 bd 10 50 92 bd
       -0.20078364 -0.22310661 -0.041500367 -0.07144177
0002c0 e3 ba 8b bd 5d 39 33 3e 38 e9 35 be 76 c9 e8 3d
       -0.06822755 0.17502351 -0.17764747 0.113665506
0002d0 35 ec 44 3d ad d3 55 3e fa 90 e7 3d 85 6c 33 be
       0.048076827 0.20881529 0.11306949 -0.17521866
0002e0 e4 68 73 3d 33 0b 4c 3e 46 3f 2a 3e cb 6f 5e 3e
       0.059426203 0.19926147 0.166257 0.21722333
0002f0 00 63 33 3e 62 7f 91 3d 32 dc 27 be c4 d8 67 bd
       0.17518234 0.071043745 -0.16392592 -0.05660321
000300 c6 13 01 be 9c 61 8b 3d 3b c5 4f 3c 02 c4 9e bc
       -0.12605199 0.06805727 0.012681301 -0.019380573
000310 7b 40 21 3c 3f 33 52 3e 20 6d 5e 3d 3b 23 11 be
       0.0098420335 0.20527361 0.05430329 -0.14173596
000320 f1 11 88 3c 97 42 be 3c 21 9e 11 be 85 7f 41 3e
       0.016610118 0.023225112 -0.14220478 0.18896301
000330 ce a1 49 3d 08 04 e0 bd de 0b f4 bd 5a 3b 11 be
       0.049226575 -0.10938269 -0.11916326 -0.14182797
000340 67 3b 2f 3e 28 e5 00 3b ce 28 b3 bc 08 3e e7 bd
       0.17112504 0.0019667838 -0.021870043 -0.112911284
000350 87 6c 4a be 18 6a 17 be 7e f4 17 be 4d f8 f3 bd
       -0.19767962 -0.14786565 -0.1483936 -0.11912594
000360 f2 74 07 be df 9c 32 be cc 65 f3 bd e3 b4 49 3e
       -0.13228205 -0.17442654 -0.118846506 0.19697909
000370 b2 b3 48 be ab 8e ef 3c 08 c1 56 bc bc e4 bd bd
       -0.19599798 0.029242834 -0.013107546 -0.09272143
000380 bb 82 40 3e 52 9d 74 3d d6 b2 fb 3d f9 e1 e1 bd
       0.1879987 0.059720345 0.122899696 -0.11029429
000390 4e 55 16 3c 8e 88 25 3d 69 33 7f 3d d0 31 d7 3d
       0.009175612 0.04041343 0.062304888 0.10507548
0003a0 6d 1f d9 3c 04 c5 47 be 06 65 53 be 56 a6 8f 3d
       0.026504243 -0.19508749 -0.20644006 0.07014148
0003b0 e8 65 1e 3e e0 58 c0 bd 53 87 2f 3e 4d 57 80 3d
       0.15468562 -0.093919516 0.17141466 0.06266651
0003c0 a5 9a 21 3e fb 8d 78 bd 7c ad 10 bd 79 18 cd 3d
       0.15781648 -0.060682278 -0.035321698 0.100144334
0003d0 49 76 86 3d 52 78 2b be c8 0f 4d 3c e2 44 db bd
       0.0656553 -0.16745117 0.01251597 -0.10706498
0003e0 29 aa 35 be 9c ae c6 3d 1a 15 ca 3d a5 7f dd 3c
       -0.17740692 0.09701273 0.09867306 0.027038405
0003f0 92 7e 75 3d 51 13 43 3e 08 d2 97 bd 58 5a b0 3d
       0.05993516 0.19050337 -0.07413107 0.08610982

transformer.layers.0.self_attn.out_proj.bias f4 [64]
000000 24 e3 6a bb 3c a9 9e bb 7d 17 8c 3c cf b5 32 bc
       -0.0035840953 -0.0048419517 0.017101044 -0.010907604
000010 10 0e df bb 3e 0b c1 3a 1d ac 74 bb bd 07 25 bc
       -0.0068070963 0.0014728082 -0.0037334033 -0.010072646
000020 30 40 e9 3b 52 a5 fa 3b 16 99 d7 ba cb 3a 01 3c
       0.0071182474 0.0076491022 -0.0016448821 0.0078875525
000030 a6 fe 4a bb a5 ff 31 ba 57 dc f2 3a f0 cd 9c 3b
       -0.0030974536 -0.0006790108 0.0018528801 0.004785292
000040 3e c7 4a 3b e5 f3 0c bc 9f 71 03 3c 9e 39 88 39
       0.0030941512 -0.008603071 0.008022695 0.0002598287
000050 25 6e b0 3b b6 3d a5 ba a1 d2 ab 3c 92 26 6d bb
       0.005384224 -0.0012606892 0.02097446 -0.003618632
000060 c3 95 30 3b cf 77 42 3b 5c cd 62 bb f1 73 8a 3a
       0.0026944734 0.0029673462 -0.0034607267 0.0010563118
000070 c9 03 99 3b 3e 81 a0 bb 49 62 ee 3b cb a9 ff ba
       0.0046696407 -0.0048982194 0.0072749 -0.0019505558
000080 f3 b8 2a 3b d9 5d 11 bc 27 d6 d8 bb de 79 70 3b
       0.002605018 -0.008872473 -0.006617326 0.0036693732
000090 48 31 60 3b ab b8 a5 3b c6 51 68 bc 36 fc 85 bb
       0.0034209061 0.0050574145 -0.014179653 -0.004088904
0000a0 28 c9 97 3b 25 6e 91 3b cb 85 7b 3a e1 e9 e8 3b
       0.004632134 0.004438179 0.0009594827 0.0071079587
0000b0 2f 11 10 bb 0b 0e 21 b9 5d 9b 96 bc 1f 0a c8 bb
       -0.0021982898 -0.00015359388 -0.01838463 -0.006104722
0000c0 05 3b 15 bc cc d7 97 ba 1a b1 96 ba 86 0e ed bb
       -0.00910831 -0.0011584698 -0.0011496872 -0.0072343973
0000d0 3d cf bf 3b c0 c1 99 3c b9 48 0d ba 53 6d 85 bb
       0.005853562 0.018769145 -0.00053895597 -0.0040718704
0000e0 d4 e6 83 bb 5a 35 3d 3c b6 10 d8 bb 85 a9 e0 bb
       -0.0040253196 0.011548365 -0.006593789 -0.006856146
0000f0 4e cd ba 3b e6 6d 06 bc 69 d5 8f bb 8d f4 db ba
       0.0057007438 -0.008204913 -0.004389454 -0.0016781256

transformer.layers.0.linear1.weight f4 [256, 64]
000000 74 13 00 bd ab 36 6b bd 28 6a f8 3d 31 ae cc 3d
       -0.031268552 -0.057425182 0.12129623 0.09994162
000010 16 aa 5f bd c6 66 65 3d 8e 10 be 3d 49 69 d5 3d
       -0.054605566 0.056006216 0.09280501 0.10420472
000020 95 ca 2c 3d ff cf 0f 3e d7 f2 33 bd e5 78 97 bd
       0.042185385 0.14044188 -0.043932762 -0.07396106
000030 82 e8 ef bd b4 ef 1d bd c7 53 dd bd 4e 12 c5 bd
       -0.11714269 -0.038558677 -0.10806995 -0.09622632
000040 23 29 07 bd 56 3f 40 3d 4f eb bd 3d 73 cf 36 3d
       -0.032998215 0.0469354 0.09273397 0.044631433
000050 31 2e a9 bd e2 37 e8 bd 96 c2 e3 bd 0a bd 5d bc
       -0.082607634 -0.11338784 -0.11121099 -0.01353384
000060 b9 04 78 3b fb f8 75 3d 2b 51 0c 3a e5 ae 02 be
       0.0037844612 0.0600519 0.0005352671 -0.1276203
000070 02 66 32 bd 1b fe 53 be 14 c0 3e be 64 c5 8a 3d
       -0.043554313 -0.20702402 -0.1862796 0.067759305
000080 fc 49 c1 3d ad 77 67 bd 8c 86 84 bc 2c b7 17 bc
       0.094379395 -0.056510616 -0.016177438 -0.00925998
000090 a0 f5 31 3c fd 0d 30 be 9b 94 16 3e 24 e2 83 3d
       0.010861784 -0.17192836 0.14705126 0.06439617
0000a0 a3 d7 0e 3d 68 9f 2d bd 06 58 26 bd 83 60 4c bd
       0.034873616 -0.04238835 -0.04061129 -0.04989673
0000b0 30 c5 dc 3d 0a 95 a4 bd 9f ab 73 bd 47 59 37 bd
       0.10779798 -0.080362394 -0.059489843 -0.044762876
0000c0 33 90 68 3d 56 5a fc bd f4 4f 0e 3e 28 06 c4 bd
       0.056778144 -0.12321918 0.13897687 -0.09571487
0000d0 73 27 f4 3d 6d 82 e1 3d 2d 81 92 3d 01 3a 8a 3c
       0.11921587 0.11011205 0.071535446 0.016873362
0000e0 94 40 7c 3d 99 1e 51 3c b6 f4 b8 3d 2b 67 26 3d
       0.061585024 0.012763643 0.0903105 0.040625732
0000f0 3a 60 1a 3e e0 30 9c 3d ad 50 3c 3c c2 10 f1 3d
       0.1507577 0.0762651 0.011493844 0.117707744
000100 05 ab a3 3d b0 8e 8e bd 68 31 c0 bb bf 48 37 3c
       0.07991604 -0.06960809 -0.0058652647 0.011186778
000110 d5 ad d7 bc f5 35 db 3d 3f 98 eb bd 31 0e 6d bd
       -0.026328007 0.10703651 -0.11503648 -0.057874862
000120 07 8c 03 3c cd 57 50 3c 5d c0 b2 bb 84 56 71 bd
       0.008028991 0.012716246 -0.0054550604 -0.0589204
000130 27 cb 81 3c ef 91 1f bc 1d c9 9e bd 8a 89 e5 bc
       0.01584394 -0.009739383 -0.07753203 -0.028019685
000140 bc 98 8e bd 64 1e 1e 3d 0c fd dc bd a2 a5 82 3d
       -0.069627255 0.0386032 -0.10790452 0.06379248
000150 76 0f 96 3d 1c 64 61 bd fc 88 eb 3c 5a 53 f5 3d
       0.07327168 -0.055027112 0.028751843 0.11978789
000160 7d 43 08 be 92 f6 76 bd a7 ce f7 3c c9 9d 75 3d
       -0.13306995 -0.06029374 0.030249907 0.05996493
000170 6f 91 75 bd d6 a3 ab bd 31 32 50 3d d3 d1 7a 3d
       -0.05995315 -0.083808586 0.050829116 0.06123526
000180 65 28 3a 3c 8e 08 0a 3c a3 01 10 be 0b 1e 46 bd
       0.01136217 0.008424891 -0.14063124 -0.048368495
000190 b3 3e d5 bd e0 8a 83 bd 81 b8 2c 3d 3b c0 fc bd
       -0.104123496 -0.06422973 0.042168144 -0.123413526
0001a0 15 46 58 bd 84 2d 24 bc d6 8b ab bd 03 ce 6b bc
       -0.05280121 -0.010020617 -0.08376281 -0.014392379
0001b0 87 e7 ca bc 33 32 97 3d 85 5a b7 3d 55 35 53 3d
       -0.024768604 0.073826216 0.08952812 0.051564533
0001c0 5f 4d 05 bc f1 fc 1a 3d c0 e6 9a bc 66 ee 70 bd
       -0.0081361225 0.03783888 -0.018908858 -0.058821104
0001d0 23 59 1a bd c3 4b e6 3d dc 5b 71 3d 0e 8e e5 3d
       -0.037682664 0.11244919 0.058925495 0.112087354
0001e0 d9 48 86 bd 26 e4 58 3d 61 04 11 3e c2 77 9f 3c
       -0.06556863 0.052951954 0.14161827 0.019466285
0001f0 d4 e0 12 3d 5b 56 9b bb 49 78 6c 3d 4f 99 40 bd
       0.035858944 -0.004740519 0.0577319 -0.047021206
000200 f0 2a c3 3d e7 ff fb 3d 19 af b7 bd cb 6f 49 3d
       0.09529674 0.12304669 -0.08968944 0.04917888
000210 d3 c1 cd 3d 50 00 b9 3d 5b 5f d7 3d 58 d6 a9 3d
       0.10046735 0.09033263 0.105162345 0.08292836
000220 c9 51 54 3d 1d e9 8e 3c fd 41 07 be 9a 60 cb 3d
       0.05183581 0.017445141 -0.13208766 0.09930535
000230 32 12 9d 3d b3 5a 1c 3d a2 d1 f5 bd e7 88 4d bd
       0.07669486 0.038172435 -0.12002875 -0.05017939
000240 02 ae a0 3b 5c a8 76 bd c9 61 6b 3d b2 91 e1 bd
       0.004903556 -0.060219154 0.057466302 -0.11014117
000250 70 96 0f 3d 99 7b bf 3d 84 d7 09 be d2 07 ce bd
       0.035055578 0.09349746 -0.13461119 -0.10060085
000260 31 80 d2 3c 1a 4c af 3d 70 94 9c bd b2 65 2e bd
       0.025695892 0.08559437 -0.076455 -0.042577453
000270 24 b3 e2 3c cb 7c 06 be 48 3b fe bd 3b 07 c8 bd
       0.027673312 -0.13133542 -0.12413651 -0.09767004
000280 b7 ec 04 bd e9 0f 30 bd d6 e0 05 be 3c 78 08 3e
       -0.03245231 -0.042983923 -0.1307405 0.13327116
000290 84 83 c4 bd 0b 0d b4 3d 2a d1 2d bc cf 35 86 3d
       -0.09595397 0.0879155 -0.010608951 0.06553232
0002a0 e7 43 0a be 64 a0 a5 3d 9d da 34 3d 7e ae 75 3d
       -0.13502465 0.08087233 0.0441538 0.05998086
0002b0 5d 31 84 bd 22 84 4c 3d 15 72 06 be 43 55 c4 bd
       -0.06454728 0.0499307 -0.13129456 -0.09586575
0002c0 dc 7f 81 3c a1 2b b3 bd 52 db 09 3e f7 01 a1 3a
       0.015808038 -0.08748556 0.1346257 0.0012283911
0002d0 7b 6d 82 bc 8f 80 f8 3d 81 28 05 be 3a 04 31 bd
       -0.015921345 0.121338956 -0.13003732 -0.04321692
0002e0 59 4c b4 bd 99 71 7c bd 72 87 0d bb 8b db c6 bd
       -0.08803625 -0.061631773 -0.0021595624 -0.09709843
0002f0 1a 93 06 3e 58 ae 28 3d 8e 2f a7 3c 3e da 80 bd
       0.13142052 0.041181892 0.020408418 -0.062916264
000300 7f 3a df bd d8 86 5c bd da f7 c3 ba fc a0 6e 3d
       -0.10899829 -0.053839535 -0.0014951185 0.058258995
000310 5e db b4 3c b3 5f c2 3d 74 6a 01 be 31 d6 11 3e
       0.022077259 0.094909094 -0.12638265 0.14241864
000320 c6 7c ab bd bf 9a 0b 3d dd 35 2a bd e7 88 fc 3d
       -0.08373408 0.034083124 -0.041555274 0.123307995
000330 4e 32 ec 36 5f e0 e7 bd 8b 9a 97 bd a3 f9 05 3e
       7.0392043e-06 -0.11322092 -0.074025236 0.1308351
000340 04 a1 99 bd 06 3b fd 3b 70 c1 e4 bb 67 a9 fa 3c
       -0.075014144 0.0077279834 -0.0069810674 0.030598355
000350 f2 84 e2 bd f0 2f 21 bc 71 f4 fd bb a3 65 f5 bd
       -0.110605136 -0.009838089 -0.007750087 -0.11982276
000360 12 22 93 bc 07 0c af bb 2b 50 04 3e a5 66 81 bd
       -0.017960582 -0.00534201 0.12921207 -0.06318406
000370 ee 6b 80 3d 49 41 3a bb 0a 5c 31 bd 90 09 7f 3d
       0.06270586 -0.002842026 -0.043300666 0.06226498
000380 24 0a 71 3d 68 b1 da bd 48 d2 d8 bc 32 a5 00 be
       0.05884756 -0.10678369 -0.026467457 -0.12563017
000390 db 0f 80 bd b9 71 d0 bd ba 3f 98 3d 8e ed 6f 3d
       -0.06253024 -0.10177941 0.0743403 0.05857616
0003a0 24 b1 c6 bc 73 12 ab 3d 1d 2a 26 3c 94 da c1 bd
       -0.02425439 0.08353128 0.0101418765 -0.094655186
0003b0 c2 dc db 3d c9 07 06 3e b8 8a b5 3d 09 18 4f bd
       0.107354656 0.13088907 0.08864349 -0.05056003
0003c0 74 4a b6 3d 44 6f f6 bd d7 b2 03 be 59 20 e6 bd
       0.089009196 -0.12032941 -0.1286119 -0.112366386
0003d0 cb 56 07 3e 20 7e 42 bd 00 3f 73 3d 25 fd 24 3d
       0.13216703 -0.047483563 0.059386253 0.04028048
0003e0 42 b0 67 bd bb 4f 74 3d b5 3d 0e be 9c 0a c1 3d
       -0.056564577 0.05964635 -0.13890727 0.09425852
0003f0 36 a3 14 bb 8e ec d9 bc 8a a7 ed 3d be 20 ca 3c
       -0.002268029 -0.026602056 0.11604221 0.024673816
