data/td_best_model.pt (torch, 561208 bytes, 33 tensors)

weight f4 [64, 10]
000000 31 bf 8d be a9 ff 6e be 76 47 4e 3c 1c 84 fb ba
       -0.2768493 -0.23339714 0.01259028 -0.0019189152
000010 fd 10 ac bd d2 52 ac 3d bf 74 7e 3e a0 46 9c bb
       -0.08401678 0.08414234 0.24849223 -0.0047691613
000020 e2 d8 05 3e d6 b7 c1 3d 16 fe cb 3d b4 ec 76 be
       0.13071015 0.09458892 0.099605724 -0.24113733
000030 09 31 f1 bc ba 69 04 bd ac cc 23 be 94 c9 57 be
       -0.029442327 -0.03232739 -0.15996045 -0.2107299
000040 62 c7 2c 3c fa b4 c3 3d a1 26 31 bd 1b ff 87 be
       0.010545583 0.09556003 -0.04324973 -0.26561818
000050 fd 44 3f 3e 3c 4c 8d 3e 3a d8 06 be a5 39 63 3e
       0.1867866 0.27597225 -0.13168421 0.22189958
000060 af 7c 00 3d 2b 78 2f 3e 17 81 8f be 26 1e 83 be
       0.031368908 0.17135684 -0.28028175 -0.2560894
000070 f5 86 31 be 0a 94 45 3e 73 f7 32 be fa 3f ca bd
       -0.17336638 0.19294754 -0.17477207 -0.09875484
000080 03 0d d6 bd 1b c0 8e 3e ca 76 41 3e cd 46 ba 3d
       -0.104517005 0.2788094 0.1889297 0.090955354
000090 dd c7 2a 3e ed 47 08 be 7d 3f 8f be b7 e8 92 bd
       0.16677804 -0.13308688 -0.27978125 -0.07173293
0000a0 8b e6 61 3e 3d 11 1a 3e 07 24 12 be d7 14 47 be
       0.22060601 0.15045638 -0.14271556 -0.19441544
0000b0 ec 98 09 be a6 f4 1e be 64 82 7e 3e 36 1c 89 be
       -0.13437241 -0.15523013 0.24854428 -0.26779336
0000c0 7f a1 73 3e ca 7c db 3d 52 f4 c6 bd 7e 8e 2c be
       0.23792075 0.10717161 -0.09714569 -0.16851231
0000d0 16 03 8f 3e eb 65 80 3e 77 ec b9 bd 52 d5 20 3e
       0.27932042 0.25077757 -0.09078305 0.15706375
0000e0 24 4b b9 bd e2 f2 d4 bd b0 d9 de bd 4a 39 0c 3e
       -0.09047535 -0.10397889 -0.10881364 0.13693729
0000f0 13 c5 0c 3d 7e 02 04 3e 79 af bf 3c e6 28 8d be
       0.034367632 0.12891576 0.023399102 -0.27570266
000100 04 3b 50 3e c6 7b ff bd 6b 9c 1b be 50 b1 ae 3d
       0.20335013 -0.1247478 -0.15196387 0.085299134
000110 b6 64 f6 3c f4 a9 12 be 71 f1 8c 3e 0e 70 72 be
       0.03007732 -0.14322644 0.27527955 -0.23675558
000120 30 b3 25 be b0 3c 79 bd a4 3d 6d 3c 5c fd b7 3d
       -0.16181636 -0.06084889 0.014480028 0.08983871
000130 f3 30 91 be 91 1d 57 3d 8c a2 8f be 0b 6d 7c 3e
       -0.28357658 0.05251843 -0.280537 0.24650972
000140 23 02 18 3e 43 62 46 3e 10 47 8b be fb 36 ee 3d
       0.14844565 0.19373421 -0.27202654 0.116315804
000150 07 65 06 be 4b 60 9e 3d 5b 24 2c bd aa 5a 90 be
       -0.13124476 0.0773321 -0.04202686 -0.2819417
000160 53 97 67 be 90 2b 81 3e e4 1c 86 3e ee 67 d5 bd
       -0.2261632 0.25228548 0.26193917 -0.10420214
000170 bb 83 53 3e 5d 87 44 be f2 b8 49 3e 49 f1 ea 3d
       0.2065572 -0.19192262 0.19699457 0.11471803
000180 7a fa 65 3e cd 43 d2 3d a4 a8 17 be 20 53 7c be
       0.2245883 0.10266838 -0.14810425 -0.24641085
000190 2e fc 3a be 5e 87 8c 3d 2c 53 74 be 2e d7 d7 bd
       -0.18260261 0.06861757 -0.23859853 -0.10539089
0001a0 be a8 8a be 27 3b 86 be 66 d3 e2 3d 3b 46 0d 3d
       -0.27081865 -0.26217005 0.11075477 0.034490805
0001b0 a2 e8 72 3e 90 27 63 3e e1 76 32 be 3c b0 89 3d
       0.23721555 0.2218306 -0.17428161 0.06723067
0001c0 38 aa 4b be a9 3f 40 be b7 5e d8 bd 01 96 5f 3e
       -0.19889152 -0.18774284 -0.105649404 0.21834566
0001d0 8c 8b fe 3b ae 90 6d 3e 71 5c 18 3d 3a 79 7b 3e
       0.0077681 0.23199722 0.037197534 0.24557963
0001e0 0a 86 12 3e 71 a5 d9 3d db 00 8f 3c 70 9d 7e bd
       0.14308944 0.106272586 0.017456463 -0.062161863
0001f0 6a e5 36 be 16 c2 0e be c5 b4 60 3e 7c a5 74 be
       -0.17860952 -0.13941225 0.21943958 -0.23891252
000200 fb cf 0b 3e 15 c5 d3 bd ca 71 6b 3e 94 a5 75 3e
       0.13653557 -0.10340325 0.22992626 0.23988944
000210 f9 94 a3 3d 39 e5 ce bd 56 e7 df ba 37 48 0d 3e
       0.07987399 -0.101023145 -0.0017082493 0.13797079
000220 6d f9 bd 3d 7a 9d 30 3e ee 49 e6 bd c7 85 4b 3d
       0.0927609 0.17247573 -0.1124457 0.049688127
000230 2f b9 3d 3e a1 42 39 be a4 fa 5c be f2 de 2d bc
       0.18527673 -0.18091823 -0.21579987 -0.010612236
000240 41 25 f4 3d 88 88 42 be 51 33 15 3e 4f 8e 84 3e
       0.11921168 -0.18997395 0.14570357 0.25889823
000250 08 1c 9f 3d c0 d1 84 3e ce 84 99 3d 29 c5 4d be
       0.077690184 0.25941277 0.074960336 -0.20094742
000260 b4 4f 9f bd df 51 76 be 9b f7 0d bd b7 e7 81 be
       -0.07778874 -0.24054669 -0.034659963 -0.25372097
000270 ce c8 77 be e8 42 4a be 5a d0 37 be 84 1b 8b 3e
       -0.24197695 -0.19752085 -0.17950574 0.2716943
000280 6b 1d 8a be cd 28 8b 3e 1c b8 9c bd ca a2 98 bd
       -0.2697557 0.27179566 -0.076523036 -0.074529245
000290 38 0a 5b 3d 4d 0d ad bd b4 07 8b be 80 97 ab bd
       0.053476542 -0.084498025 -0.27154315 -0.08378506
0002a0 a2 50 7b 3e a9 f2 88 3d e5 67 52 3e 7e 24 59 be
       0.24542478 0.06686909 0.20547445 -0.21205327
0002b0 95 8e 1d 3e 6b a8 45 bc 28 64 b3 3d dd 08 bb 3d
       0.15386422 -0.01206408 0.08759338 0.0913255
0002c0 83 98 df 3d 5b 4e 0d bd b5 7c 1d 3e dc 0b cb 3d
       0.10917761 -0.034498554 0.15379603 0.09914371
0002d0 ba ca 7a be b7 86 f8 bd 69 81 33 3e 74 d8 46 be
       -0.24491397 -0.1213507 0.17529835 -0.19418508
0002e0 95 44 40 3d a7 2b ba bd 3b 93 36 be df de 15 be
       0.046940405 -0.09090357 -0.17829601 -0.146358
0002f0 6a 6d 45 bd 9d 0d 6d ba 5d 24 cf 3d 2d 7f 77 bd
       -0.04820005 -0.0009042861 0.101143576 -0.06042402
000300 1d 05 5e 3d 6b ed 5d be ea 07 13 bc b8 88 3c 3e
       0.054204095 -0.21672599 -0.008974055 0.18411529
000310 cf 50 0f 3e ba 9a 37 be 5b 4a 70 bd f4 6d 46 3c
       0.1399567 -0.17930117 -0.05866466 0.012111176
000320 32 7e 15 3d 41 51 61 3e d5 ab a8 3d 90 41 00 bd
       0.036497302 0.22003652 0.08235899 -0.031312525
000330 4d 18 db bd e7 26 4d 3e 8f 1c b4 bd b5 d2 9c bc
       -0.106979944 0.20034371 -0.087945096 -0.019143442
000340 e8 5a 73 be 2e e7 46 bd 95 92 54 3e b6 1a 45 3e
       -0.23765147 -0.048560314 0.20759042 0.1924847
000350 be 54 2d bd 85 5b 3b 3c 06 aa 26 3e 77 64 0e be
       -0.042317145 0.011435394 0.16275796 -0.13905512
000360 fb 6c ea bd 10 1e 2f be 8b 0c 53 3e 02 c1 ba 3d
       -0.114465676 -0.17101312 0.20610254 0.091188446
000370 a9 d0 cd bd eb 6d af bd f0 f8 78 3e 99 24 c7 bd
       -0.100495644 -0.08565887 0.24313712 -0.09723777
000380 4c 25 8c be 08 5a e5 3d 74 dc 05 3e d0 70 8d be
       -0.27372205 0.11198813 0.13072377 -0.27625132
000390 c7 f4 8a be e8 56 85 be f9 f2 e8 bd dc 30 36 3d
       -0.27139875 -0.26042867 -0.11374468 0.04448019
0003a0 3f 7c 03 3d fe 05 8e 3e c7 71 70 be 99 12 01 3d
       0.032100912 0.27738947 -0.23480903 0.031511877
0003b0 81 d8 7a 3e f8 71 09 3d 15 9a 10 3e 88 cb 67 3e
       0.24496652 0.033555955 0.14121278 0.22636235
0003c0 3c 5e 1f 3d c0 65 02 3e 6b d9 80 be 0f 62 4b bd
       0.03890823 0.12734127 -0.25165877 -0.049654063
0003d0 e8 f0 85 be 47 ae dc 3d 73 44 41 be 06 4d 82 3e
       -0.2616036 0.10775428 -0.18873768 0.2544939
0003e0 ad 89 7b bd e9 6c 1f 3e 30 67 0d 3e 7b ef 18 bd
       -0.061410595 0.1556889 0.13808894 -0.03733776
0003f0 4b d3 d2 bd 9b 34 21 3e ce 9a 9b bd 55 cb 25 3e
       -0.10294207 0.15742724 -0.07597886 0.16190846

bias f4 [64]
000000 fc 93 cf bc 95 ab 73 3e fe b3 a2 be 10 74 f6 3c
       -0.02533912 0.23795922 -0.31777948 0.03008464
000010 fc 03 3b 3e 88 3a 3a 3e 70 63 59 3e 9e 04 6b be
       0.18263239 0.1818639 0.21229339 -0.2295098
000020 b3 da 9e 3c 05 a7 d4 3d 4a bf a3 3d 3b 6e 9f be
       0.019391393 0.10383419 0.0799547 -0.31138787
000030 3e 6b 94 be 9e 73 7d be 40 39 8f bc 18 53 20 be
       -0.2898807 -0.24751136 -0.017483354 -0.15656698
000040 62 b7 8b bd 9a 8a a4 be f6 fe 54 be 7d e0 89 3e
       -0.06822087 -0.32136995 -0.20800385 0.26929083
000050 47 6d 00 be 0e 88 3b 3d 16 0e 41 3e 8d 50 44 3e
       -0.12541686 0.04578405 0.1885303 0.19171353
000060 87 04 91 3e 03 e8 4a be 0e fb 95 3e 41 45 83 be
       0.28323767 -0.19815068 0.29293102 -0.25638774
000070 68 af 9d 3c 3e ec df bc 05 3c 52 3e b5 ba 93 be
       0.01924868 -0.027334329 0.20530708 -0.28853384
000080 ae 4d 47 3e 00 6c ca bd 47 c6 18 3d f6 25 99 bb
       0.19463226 -0.098838806 0.037298467 -0.0046737147
000090 c6 2d 53 bc 99 55 69 3e 7a d2 85 bd 0c 42 a0 3e
       -0.012889331 0.22786559 -0.06534286 0.3130039
0000a0 8a 4d 60 be 5d 8a 8c be 9b 08 5c be c1 f6 07 3e
       -0.21904579 -0.27449313 -0.21487658 0.13277723
0000b0 29 5e ec bd b2 50 99 3d e4 f4 18 be 0d dd 14 be
       -0.11541397 0.074860945 -0.14937168 -0.14537449
0000c0 bd 4a 14 3e bd 61 18 3e 6b 1f 8e 3e 9c 68 ce 3d
       0.14481635 0.14881034 0.27758345 0.100785464
0000d0 9b 96 6b be 7e 9c 47 3e be dc 93 be e4 ae 9c 3e
       -0.2300667 0.19493291 -0.2887935 0.3060218
0000e0 57 fd 5b 3e 6e 25 e7 3c df d0 89 be 69 04 4e be
       0.2148336 0.02821609 -0.26917168 -0.2011887
0000f0 6b be 63 be de 3f 74 3b 29 2a 29 be 94 cf 18 3e
       -0.22240607 0.0037269513 -0.16519989 0.14922935

pe f4 [1, 168, 64]
000000 00 00 00 00 00 00 80 3f 00 00 00 00 00 00 80 3f
       0.0 1.0 0.0 1.0
000010 00 00 00 00 00 00 80 3f 00 00 00 00 00 00 80 3f
       0.0 1.0 0.0 1.0
000020 00 00 00 00 00 00 80 3f 00 00 00 00 00 00 80 3f
       0.0 1.0 0.0 1.0
000030 00 00 00 00 00 00 80 3f 00 00 00 00 00 00 80 3f
       0.0 1.0 0.0 1.0
000040 00 00 00 00 00 00 80 3f 00 00 00 00 00 00 80 3f
       0.0 1.0 0.0 1.0
000050 00 00 00 00 00 00 80 3f 00 00 00 00 00 00 80 3f
       0.0 1.0 0.0 1.0
000060 00 00 00 00 00 00 80 3f 00 00 00 00 00 00 80 3f
       0.0 1.0 0.0 1.0
000070 00 00 00 00 00 00 80 3f 00 00 00 00 00 00 80 3f
       0.0 1.0 0.0 1.0
000080 00 00 00 00 00 00 80 3f 00 00 00 00 00 00 80 3f
       0.0 1.0 0.0 1.0
000090 00 00 00 00 00 00 80 3f 00 00 00 00 00 00 80 3f
       0.0 1.0 0.0 1.0
0000a0 00 00 00 00 00 00 80 3f 00 00 00 00 00 00 80 3f
       0.0 1.0 0.0 1.0
0000b0 00 00 00 00 00 00 80 3f 00 00 00 00 00 00 80 3f
       0.0 1.0 0.0 1.0
0000c0 00 00 00 00 00 00 80 3f 00 00 00 00 00 00 80 3f
       0.0 1.0 0.0 1.0
0000d0 00 00 00 00 00 00 80 3f 00 00 00 00 00 00 80 3f
       0.0 1.0 0.0 1.0
0000e0 00 00 00 00 00 00 80 3f 00 00 00 00 00 00 80 3f
       0.0 1.0 0.0 1.0
0000f0 00 00 00 00 00 00 80 3f 00 00 00 00 00 00 80 3f
       0.0 1.0 0.0 1.0
000100 a4 6a 57 3f 41 51 0a 3f ce 7a 2e 3f b0 54 3b 3f
       0.84147096 0.54030234 0.68156135 0.731761
000110 ba 7d 08 3f 0d 94 58 3f f1 90 d1 3e c6 92 69 3f
       0.53316844 0.8460091 0.40930894 0.91239583
000120 3e 39 9f 3e 6b 4e 73 3f 25 8f 70 3e f1 d5 78 3f
       0.3109836 0.9504153 0.23492105 0.9720145
000130 3a 23 35 3e 83 f6 7b 3f f3 25 08 3e 28 ba 7d 3f
       0.17689219 0.9842302 0.13295726 0.99112177
000140 76 75 cc 3d 98 b8 7e 3f 36 6f 99 3d d1 47 7f 3f
       0.099833414 0.9950042 0.07491915 0.9971896
000150 ae 36 66 3d 68 98 7f 3f fa ac 2c 3d bd c5 7f 3f
       0.05620449 0.9984193 0.04215715 0.999111
000160 5b 81 01 3d 3c df 7f 3f a5 3e c2 3c 93 ed 7f 3f
       0.031617504 0.99950004 0.023711512 0.99971884
000170 42 ab 91 3c a3 f5 7f 3f 49 7a 5a 3c 2c fa 7f 3f
       0.017781857 0.99984187 0.013334819 0.99991107
000180 57 d6 23 3c b9 fc 7f 3f 16 b9 f5 3b 28 fe 7f 3f
       0.009999833 0.99995 0.0074988706 0.99997187
000190 5a 44 b8 3b f7 fe 7f 3f 5a 2e 8a 3b 6b ff 7f 3f
       0.0056233825 0.9999842 0.0042169513 0.9999911
0001a0 1c 3e 4f 3b ac ff 7f 3f 03 69 1b 3b d1 ff 7f 3f
       0.0031622713 0.999995 0.0023713715 0.9999972
0001b0 20 15 e9 3a e6 ff 7f 3f 8b c9 ae 3a f1 ff 7f 3f
       0.0017782785 0.99999845 0.0013335211 0.9999991
0001c0 6d 12 83 3a f8 ff 7f 3f 89 94 44 3a fb ff 7f 3f
       0.0009999998 0.9999995 0.000749894 0.9999997
0001d0 13 6a 13 3a fd ff 7f 3f 21 17 dd 39 ff ff 7f 3f
       0.0005623411 0.9999998 0.00042169637 0.99999994
0001e0 61 cb a5 39 ff ff 7f 3f 0d a8 78 39 00 00 80 3f
       0.00031622782 0.99999994 0.00023713727 1.0
0001f0 53 77 3a 39 00 00 80 3f 6d d4 0b 39 00 00 80 3f
       0.00017782794 1.0 0.00013335208 1.0
000200 b7 c7 68 3f 33 11 d5 be d9 5a 7f 3f 53 4d 91 3d
       0.9092974 -0.41614684 0.99748 0.070948265
000210 0a f2 66 3f b2 e8 dc 3e 12 35 3f 3f 02 39 2a 3f
       0.9021307 0.43146282 0.74690354 0.66493237
000220 1b 54 17 3f ec 7b 4e 3f b5 d3 e9 3e 69 be 63 3f
       0.5911271 0.8065784 0.45669332 0.8896242
000230 f6 47 b2 3e a6 fa 6f 3f 82 f0 86 3e f5 f2 76 3f
       0.34820527 0.93741834 0.26355368 0.96464473
000240 f8 6f 4b 3e a5 e5 7a 3f d3 00 19 3e 4f 20 7d 3f
       0.19866931 0.9800666 0.1494172 0.98877424
000250 86 d9 e5 3d f3 61 7e 3f ae 85 ac 3d 0e 17 7f 3f
       0.1122313 0.9936821 0.08423935 0.99644554
000260 c8 70 81 3d f9 7c 7f 3f aa 30 42 3d 4e b6 7f 3f
       0.063203394 0.9980007 0.04740969 0.9988755
000270 5c a5 11 3d 8e d6 7f 3f 50 75 da 3c b1 e8 7f 3f
       0.03555809 0.9993676 0.026667267 0.99964434
000280 3e d4 a3 3c e5 f2 7f 3f 51 b7 75 3c a1 f8 7f 3f
       0.019998666 0.9998 0.014997319 0.9998875
000290 9b 43 38 3c db fb 7f 3f 0a 2e 0a 3c ab fd 7f 3f
       0.011246587 0.99993676 0.008433828 0.9999644
0002a0 d8 3d cf 3b b1 fe 7f 3f e7 68 9b 3b 43 ff 7f 3f
       0.006324511 0.99998003 0.00474273 0.99998873
0002b0 08 15 69 3b 96 ff 7f 3f 80 c9 2e 3b c4 ff 7f 3f
       0.0035565514 0.9999937 0.0026670396 0.9999964
0002c0 68 12 03 3b df ff 7f 3f 85 94 c4 3a ed ff 7f 3f
       0.0019999985 0.99999803 0.0014997876 0.99999887
0002d0 12 6a 93 3a f5 ff 7f 3f 1f 17 5d 3a fa ff 7f 3f
       0.0011246821 0.99999934 0.0008433926 0.99999964
0002e0 60 cb 25 3a fd ff 7f 3f 0c a8 f8 39 fe ff 7f 3f
       0.0006324556 0.9999998 0.0004742745 0.9999999
0002f0 53 77 ba 39 ff ff 7f 3f 6d d4 8b 39 00 00 80 3f
       0.00035565588 0.99999994 0.00026670416 1.0
000300 c3 81 10 3e 26 70 7d bf de 3c 47 3f ce bf 20 bf
       0.14112 -0.9899925 0.7782725 -0.6279267
000310 d7 45 7e 3f ab 7f ed bd 63 21 74 3f 63 18 9a 3e
       0.9932532 -0.11596616 0.95363444 0.3009673
000320 c2 09 50 3f 58 2f 15 3f b7 24 27 3f a2 e7 41 3f
       0.8126489 0.58275366 0.652904 0.7574407
000330 6c 2f 02 3f 29 6d 5c 3f a7 68 c7 3e 37 c9 6b 3f
       0.5085361 0.86104065 0.3894703 0.92103904
000340 6c 4e 97 3e ef 90 74 3f e2 6d 64 3e 92 8c 79 3f
       0.2955202 0.9553365 0.22307542 0.9748012
000350 d7 ee 2b 3e 9e 5d 7c 3f 2c 33 01 3e 43 f4 7d 3f
       0.16790329 0.9858035 0.12617177 0.9920084
000360 c0 ff c1 3d 4f d9 7e 3f 06 93 91 3d 3a 5a 7f 3f
       0.094726086 0.99550337 0.071081206 0.9974705
000370 4e 69 5a 3d c3 a2 7f 3f c5 d1 23 3d 90 cb 7f 3f
       0.053323083 0.9985773 0.039994974 0.99919987
000380 1f b9 f5 3c 83 e2 7f 3f 47 47 b8 3c 6b ef 7f 3f
       0.0299955 0.99955004 0.022494925 0.999747
000390 c6 31 8a 3c ad f6 7f 3f 46 44 4f 3c c1 fa 7f 3f
       0.016869437 0.9998577 0.012650555 0.99991995
0003a0 0d 6e 1b 3c 0d fd 7f 3f 13 1d e9 3b 58 fe 7f 3f
       0.009486687 0.999955 0.0071140616 0.9999747
0003b0 a8 cf ae 3b 11 ff 7f 3f 13 17 83 3b 7a ff 7f 3f
       0.005334813 0.99998575 0.0040005534 0.999992
0003c0 92 9b 44 3b b5 ff 7f 3f 60 6f 13 3b d6 ff 7f 3f
       0.0029999954 0.9999955 0.0022496805 0.9999975
0003d0 17 1f dd 3a e8 ff 7f 3f 56 d1 a5 3a f3 ff 7f 3f
       0.0016870227 0.99999857 0.0012650888 0.9999992
0003e0 10 b1 78 3a f9 ff 7f 3f 09 7e 3a 3a fc ff 7f 3f
       0.00094868336 0.9999996 0.00071141176 0.99999976
0003f0 7e d9 0b 3a fe ff 7f 3f a4 be d1 39 ff ff 7f 3f
       0.0005334838 0.9999999 0.00040005625 0.99999994

in_proj_weight f4 [192, 64]
000000 fd 33 ab 3d bf 4a 0a 3e b1 14 6a 3d 36 83 d1 3d
       0.08359525 0.13505076 0.05714864 0.102301046
000010 1f 19 0a be db 5a 53 3d 83 59 ec 3d 0f bd 8c bd
       -0.13486145 0.05160032 0.115405105 -0.068719976
000020 14 9a e2 3d 23 58 08 bd fd b5 9a bd 99 3c 11 3e
       0.11064544 -0.03328718 -0.07554243 0.14183272
000030 0d 7e 7a bd a8 96 01 3e 6c b5 cd 3d 90 e3 58 3d
       -0.061155368 0.12655127 0.10044369 0.052951396
000040 23 52 11 3e 59 f6 c1 bb fe 6c b0 3d db e2 b8 3d
       0.14191489 -0.0059192595 0.086145386 0.09027644
000050 ff 89 5e 3d cb fd 74 3d 93 50 ad 3d cd 07 7e 3d
       0.054330822 0.05981235 0.08462634 0.06201916
000060 68 0e 1b be 06 ce e8 bd ae 41 25 3d 9c a0 fd 3d
       -0.15142214 -0.11367421 0.04034584 0.123841494
000070 b4 e5 13 3e e9 91 06 be b0 5b 93 bd 60 fd 8a bd
       0.14443094 -0.13141598 -0.071952224 -0.06786609
000080 71 15 11 3e ec da 71 bd 04 d0 b3 bc dd b7 ff 3d
       0.14168335 -0.05904667 -0.021949776 0.12486241
000090 e4 c3 b2 3d 5c b5 1c 3e c8 4b 99 3d c1 49 1f 3e
       0.087287694 0.15303558 0.07485157 0.15555479
0000a0 51 88 84 3c 35 e1 8b 3d 2f f9 9b 3d e2 87 d0 bc
       0.016178282 0.06830064 0.076158874 -0.025455419
0000b0 85 a6 70 bd bd 9c 00 bd fb 80 11 3c 57 42 0b bd
       -0.058752555 -0.031399477 0.008880849 -0.033998813
0000c0 71 42 12 3d 6e 67 42 bd 0d ec ce 3d ae b0 d5 bd
       0.035707895 -0.04746192 0.10103617 -0.104340896
0000d0 bb 37 de 3d d1 a1 0c be 86 22 96 bc 6c 77 0b be
       0.108504735 -0.13733603 -0.018327009 -0.13619775
0000e0 bb 9c 1b 3e a9 b0 6d 3d f5 88 79 3c db 23 05 be
       0.15196507 0.058029804 0.015230407 -0.13001959
0000f0 98 90 d0 bd d2 d4 ec 3d eb 30 20 be 10 7a 80 bc
       -0.10183829 0.1156403 -0.1564366 -0.015683204
000100 18 1b 99 bd 5c b2 36 bd d7 fb 6d bc 85 6e 79 bd
       -0.07475871 -0.04460369 -0.014525375 -0.060896415
000110 1e 13 11 3e 46 28 1f 3d 4c 39 26 3d 92 fe 10 3e
       0.14167449 0.038856767 0.040581986 0.14159611
000120 c4 0b 06 3e 51 c3 ca bd 58 8b dd 3d 0d ac 28 bc
       0.13090426 -0.09900535 0.10817593 -0.010294926
000130 7c d9 13 be 97 4d b5 3d 15 6f d3 bd 4a 66 84 3b
       -0.14438432 0.0885269 -0.103239216 0.004040514
000140 fc ba 02 bc 4b ab c5 bd 33 e7 9b bd 54 f3 a9 bd
       -0.007979151 -0.09651812 -0.07612457 -0.08298364
000150 71 17 88 bb c0 b0 d1 bd 18 44 1a be 40 b1 04 3e
       -0.004153185 -0.102387905 -0.15065038 0.1295824
000160 54 a4 94 3d 98 67 cc 3d f4 05 92 3b d9 b2 0d be
       0.072579056 0.099806964 0.004456276 -0.13837756
000170 10 c9 ee 3d 2b ba 3c 3d fd 33 04 be fa 3b 48 bd
       0.116594434 0.04607598 -0.12910457 -0.048885323
000180 2c f8 f5 bd 97 23 67 bd 14 7b 45 3d 79 f0 dd 3d
       -0.12010226 -0.056430425 0.04821308 0.10836882
000190 1e 85 eb bd fb ca 16 3e 80 a2 d7 3d b4 73 fc bd
       -0.114999995 0.14725868 0.10529041 -0.12326756
0001a0 ac c1 04 bc d2 ca 0a bd 43 24 43 bd 98 c0 0a be
       -0.008102816 -0.03388483 -0.047642004 -0.13550031
0001b0 9e 3d b1 bc 1d 07 60 bd fb 36 48 3d 8a 41 8f 3d
       -0.021635827 -0.054694284 0.04888056 0.069949225
0001c0 b0 10 c9 bc 91 ff 46 3d a6 a6 9e 3d 43 50 48 bc
       -0.02454409 0.04858357 0.077466294 -0.012226167
0001d0 19 aa 74 3d a7 71 93 3c 95 31 04 3e 07 81 9d 3c
       0.05973253 0.01799853 0.12909539 0.019226564
0001e0 f7 81 56 bc 68 17 17 bd 59 b9 f4 bd c9 4f ef 3d
       -0.0130925095 -0.036887556 -0.11949415 0.1168514
0001f0 f3 82 89 3d de 05 1e 3e 6d 78 7d bd fa 4f 8b bd
       0.0671443 0.15431926 -0.061882425 -0.06802364
000200 96 10 15 be de 52 f4 bd a1 77 a5 3c aa 66 d2 3d
       -0.14557108 -0.11929868 0.020198645 0.10273488
000210 cb 8d e4 3d 97 8f e0 3b 9c e6 8a bb 46 8d 03 3e
       0.11159857 0.0068530547 -0.0042389166 0.1284686
000220 06 f3 a8 bd a5 13 01 3e 03 2a 60 3d 1a e2 9d 3d
       -0.08249478 0.1260515 0.054727565 0.07709141
000230 c9 b2 f8 bd 10 ab c0 bc 07 f2 f5 3d 69 2f 27 3c
       -0.121434756 -0.023519069 0.12009054 0.010204175
000240 fc 07 fb bc f6 fb eb bd 8f 9e ac bc a0 43 99 3d
       -0.030643456 -0.11522667 -0.0210717 0.074836016
000250 b2 12 0f 3e 94 d1 92 bd 37 7f 4d 3d c0 05 14 3e
       0.13971975 -0.0716888 0.05017015 0.14455318
000260 46 ea 28 bd 93 ca eb 3d c3 9a 28 bd 4b 22 a6 bd
       -0.041239046 0.11513247 -0.041163217 -0.081120096
000270 38 ad 1f bd 07 7f fe 3d 15 ce ec bc 59 5c c0 3d
       -0.038983554 0.12426572 -0.028906861 0.09392614
000280 31 ef aa bd a3 07 e2 bd 3a 7d 79 bd ff c0 f8 bd
       -0.083464034 -0.11036613 -0.06091044 -0.12146186
000290 bd cf 93 3d 94 b7 fa 3d 4e 85 f7 3b bb ce fa 3d
       0.07217357 0.12242046 0.007553733 0.12246462
0002a0 05 2d ab 3d 94 22 00 3e af 28 a8 3d ab 27 9c bd
       0.08358196 0.1251319 0.08210885 -0.076247536
0002b0 dc 05 87 bd 1d a2 ca 3c 67 cf 0c be 8c 6f b6 bd
       -0.065929145 0.024735505 -0.13750993 -0.08907995
0002c0 2f cb e2 3d 39 4d cf bc 51 01 8e 3d 3e e4 ae bc
       0.110739104 -0.025305377 0.06933845 -0.021349069
0002d0 8c 01 56 bd 0e b2 07 3e c6 45 cd bd 88 ff ef 3d
       -0.05224757 0.13251516 -0.10023074 0.117186606
0002e0 a4 fc 5e 3d bb 9d 18 3e 25 be d0 bc 5f af b6 3d
       0.054440156 0.1490392 -0.025481293 0.08920168
0002f0 56 e9 a9 bd 67 bb 06 3e 00 8b 1f bd 84 a4 c9 3b
       -0.082964584 0.13157426 -0.03895092 0.006153645
000300 47 3d a3 bd 5b 89 db bd be cd 3d 3d 59 8e 3f bd
       -0.07970672 -0.10719558 0.04633879 -0.046766613
000310 b8 08 03 3e d6 7a be bd f0 f0 87 3d d0 45 64 3c
       0.12796295 -0.09300773 0.06637752 0.01393266
000320 17 69 c0 bd 97 4c a0 bd fe aa 66 bd 44 35 f1 bd
       -0.09395044 -0.07827108 -0.056315415 -0.11777738
000330 e2 f6 0c 3e 23 3c 0a 3d 0e f9 1a be af 62 e3 bc
       0.13766053 0.033748757 -0.1513407 -0.027757017
000340 01 1b 15 3e a4 d7 c2 3d 9a 4f 82 3d 28 37 f0 bd
       0.14561082 0.095137864 0.06362839 -0.1172927
000350 56 c0 76 bd af db d4 3d 42 1f 99 3d af 90 97 bd
       -0.06024202 0.10393464 0.07476665 -0.07400643
000360 90 b0 1c 3e 4f e4 83 bc 7d 2e 1b 3e 8f 87 a2 bc
       0.15301728 -0.016100077 0.15154453 -0.01984003
000370 c4 65 b1 bd 33 4f 92 3c 45 d3 e2 bc 75 52 d5 3c
       -0.086619884 0.01786003 -0.027688632 0.026040295
000380 4c 49 7f bd 42 3f 8a bd 6a 69 08 3e ab 66 28 3c
       -0.06232576 -0.06750347 0.13321462 0.010278384
000390 0e d5 ec 3d b6 fc 0f bd 80 5a bb bd 71 89 f4 3d
       0.115640745 -0.035153113 -0.09148121 0.11940277
0003a0 d4 41 4c bd 51 8b 80 bd a3 b0 c3 bd 8a f8 6a bd
       -0.049867466 -0.062765725 -0.09555175 -0.05736593
0003b0 2f 83 e1 3d b8 77 07 be e2 a4 d0 3d 5a eb 8f bc
       0.110113494 -0.13229263 0.10187699 -0.017568279
0003c0 41 84 12 3d 33 61 34 3d eb 84 8b 3d 8c ee 50 bd
       0.03577066 0.04403801 0.068124615 -0.051008746
0003d0 96 e3 cf bd 97 72 0a be b7 8a 9b bd b6 9d d3 3c
       -0.101508304 -0.13520275 -0.07594817 0.025832038
0003e0 47 58 01 3e 31 1a 09 be b1 09 1e 3d f4 cd 19 be
       0.12631331 -0.13388897 0.03858346 -0.15019971
0003f0 28 94 bb 3d 97 cc 76 bd 73 e1 0f bd 7b a9 a2 3b
       0.09159118 -0.060253706 -0.035127115 0.0049640513

in_proj_bias f4 [192]
000000 08 b1 b4 3b d1 0a 7b bb 12 cf 6f 3b 72 e7 81 3b
       0.005514268 -0.0038306008 0.003659193 0.003964358
000010 d7 6c 5a 3b c4 bd c0 3b 79 2d 9d b9 9d e4 4b bb
       0.0033329034 0.005881997 -0.00029979253 -0.0031111606
000020 06 13 84 3b b7 39 25 bb c1 69 a2 bb 48 8f b1 3b
       0.004030588 -0.0025211403 -0.0049564545 0.005418692
000030 b1 8b 9d 3b ac c0 5d 3a d6 d5 97 bb 70 29 74 3b
       0.0048079123 0.00084591913 -0.0046336455 0.0037256144
000040 22 49 1f ba 49 78 12 b9 3c d9 d1 3a b1 fe 74 3b
       -0.0006076266 -0.00013968455 0.0016010175 0.0037383253
000050 eb bb d9 3b 7f 7d e0 39 19 56 82 3a 8c fe 81 b9
       0.006644716 0.0004281811 0.0009943872 -0.0002479445
000060 dc bb 84 3b 30 c1 db ba ad 0a 85 3b fd 9c d4 ba
       0.004050715 -0.0016765948 0.0040601105 -0.0016221103
000070 be 93 33 ba 84 c2 3e 3b 91 25 6b 3b 3c 34 87 39
       -0.00068503234 0.002910764 0.0035880546 0.00025788124
000080 59 7e 08 3b cd 9b 04 3b 73 7c 6a 3b b8 58 07 3b
       0.0020827262 0.0020234466 0.0035779744 0.0020652246
000090 04 7e 5f bb 2b 2b 3f bb 88 18 28 bb 4e f2 22 ba
       -0.003410221 -0.0029170017 -0.0025649387 -0.0006215916
0000a0 1b b2 00 bb 15 5d 01 3b d8 80 16 bb 64 01 f6 ba
       -0.001963741 0.001973932 -0.002296498 -0.0018768725
0000b0 4d 79 2a 3b 6c 8c 37 3b d6 3d 29 3b 81 2c 2d 3b
       0.0026012242 0.0028007282 0.002582421 0.0026424231
0000c0 f4 7d 68 ba 45 f5 08 39 67 8a ff bb 8f 07 f0 ba
       -0.0008868866 0.0001306134 -0.0077984813 -0.00183128
0000d0 06 a9 d5 b8 d5 46 32 39 11 ce 6e b9 b0 df da ba
       -0.000101881145 0.0001700179 -0.00022774214 -0.0016698744
0000e0 43 88 a8 ba a8 3a a6 b9 41 eb f6 3a 7d 8f 1c bb
       -0.0012857992 -0.0003170569 0.0018838422 -0.0023889237
0000f0 68 39 c5 3b b0 d8 a3 3a 30 15 98 3b a9 ab 38 3b
       0.0060188062 0.0012500491 0.0046411976 0.002817849
000100 6e 9c 99 b9 ba 2b 83 39 a4 50 0f 3a 57 77 a0 b9
       -0.00029298983 0.00025018846 0.00054670335 -0.00030606493
000110 84 79 70 b8 27 10 3e b9 c7 b4 10 b7 d0 e9 1d 39
       -5.733363e-05 -0.00018125829 -8.625159e-06 0.00015059789
000120 70 71 e9 39 7a 1f 8e b9 9f 23 70 38 8b a5 0b b9
       0.0004452574 -0.00027107802 5.7253634e-05 -0.00013317743
000130 da 68 81 39 21 a2 ab b9 c8 bd 4e b8 79 08 a2 b8
       0.00024682918 -0.00032736457 -4.9290975e-05 -7.72634e-05
000140 7d 02 45 39 1b c4 db b9 d6 4a e5 b9 06 fe db b9
       0.00018788311 -0.00041917045 -0.0004373404 -0.00041960197
000150 22 ee ca 39 35 06 87 39 90 8c a1 39 cd 7a d6 39
       0.00038705865 0.0002575383 0.0003081304 0.00040908754
000160 a1 b3 07 ba 2b f9 1a ba 92 1e 5e b9 fe 9f 01 ba
       -0.0005176608 -0.0005911763 -0.00021182958 -0.00049448
000170 40 01 fb 38 2c 7f b5 b8 9a 2f a9 39 54 7d dd 39
       0.000119688455 -8.65444e-05 0.00032269658 0.00042245782
000180 47 d3 96 39 68 a2 90 39 1c 69 ee 38 56 9a b1 39
       0.00028767643 0.00027586822 0.000113683025 0.0003387506
000190 32 fa a1 39 e3 c9 e9 b9 91 c5 b9 39 3f be 3b 39
       0.00030894723 -0.0004459164 0.00035433148 0.00017904582
0001a0 71 10 87 b8 26 10 94 b8 80 b9 1b 38 6d 81 df 39
       -6.440364e-05 -7.060198e-05 3.712764e-05 0.00042630304
0001b0 72 85 84 b6 60 1b c3 b8 ea 4a 19 ba 93 15 1b 3a
       -3.9494416e-06 -9.3034236e-05 -0.000584765 0.00059159956
0001c0 07 11 b3 39 9a a7 c3 b9 25 18 3d b8 44 c1 7c b9
       0.00034154227 -0.0003731817 -4.5083598e-05 -0.0002410459
0001d0 7a e3 e8 b9 75 fb bd 39 2d 4f e1 b9 74 3d 9e 38
       -0.00044419972 0.0003623624 -0.00042974335 7.5454736e-05
0001e0 86 88 c1 b9 77 f3 8d 39 bf 44 38 39 b8 62 3a b9
       -0.00036913547 0.0002707501 0.00017573217 -0.00017775118
0001f0 ca 10 b6 39 f0 81 87 b9 07 cd 28 39 ec e9 fa 36
       0.00034726254 -0.00025846018 0.00016098107 7.4778127e-06
000200 00 a2 fd ba 68 9b d4 bb 71 af 11 bb c8 be 5d ba
       -0.0019350648 -0.0064882524 -0.0022229815 -0.00084589096
000210 1b a9 38 ba 1c bc 9e b9 3d 34 5d bb fe 5d 34 3b
       -0.00070442416 -0.0003027626 -0.003375306 0.0027521844
000220 06 32 ae ba c6 83 46 bb 37 e4 8b 38 62 95 2d 38
       -0.0013290055 -0.0030290945 6.670545e-05 4.1385538e-05
000230 e0 b6 52 3b c0 9b 24 3b b4 39 3d bb 90 56 6d bb
       0.003215246 0.0025117248 -0.0028873505 -0.0036214925
000240 89 c1 28 3b 4f 75 a7 bb 40 40 83 ba d8 12 19 3b
       0.0025750122 -0.00511042 -0.0010013655 0.002335718
000250 d8 54 be ba 75 ef 34 3b bf 35 b4 ba 1e 04 a4 3a
       -0.0014521135 0.0027608548 -0.0013748928 0.0012513434
000260 da 42 c0 3b 51 d4 cf ba f2 3a 8c 3b 0a ca 70 bb
       0.0058673443 -0.0015856122 0.0042794878 -0.0036741518
000270 17 f1 0d 3a cb c6 9f ba 5e f3 4f 39 83 ff 44 3b
       0.00054146483 -0.0012189982 0.0001983172 0.0030059523
000280 d9 61 a4 3b 98 71 e1 b9 28 3b 36 3a d6 95 86 3a
       0.005016547 -0.00042999978 0.0006951564 0.0010268043
000290 2a 1f 9f ba 91 a3 aa 3b 90 75 58 bb 79 ca 00 3b
       -0.0012140025 0.005207487 -0.0033029057 0.0019651933
0002a0 24 31 bf 3a 30 57 0c bc 02 b8 22 3b 09 03 1f bb
       0.0014586789 -0.008565709 0.0024828915 -0.0024263284
0002b0 1a b3 fc 3a 60 13 dc 3a 1f 75 65 bb ec cb 25 bb
       0.0019279451 0.0016790442 -0.0035012437 -0.002529855
0002c0 fe 2d 81 bb 22 7d 76 bb 92 e1 86 3b 82 58 ec 3a
       -0.0039422503 -0.0037611206 0.0041162455 0.0018031748
0002d0 75 24 78 bb aa 43 2e 3a 6e 23 0b 3b 8b 68 8d bb
       -0.0037863527 0.0006647656 0.0021230835 -0.004315441
0002e0 4c a8 69 3b 96 9e b6 3a 58 bf 9d ba 2f 28 42 bb
       0.0035653291 0.001393276 -0.0012035174 -0.0029626002
0002f0 4f b8 1f ba ae 76 c2 bb 10 ce 34 3b 45 b6 7c 3a
       -0.0006092833 -0.005934558 0.0027588643 0.00096401974

weight f4 [64, 64]
000000 c7 50 e3 bc 8a 6c 52 be b6 9c 11 3e c8 e4 66 bd
       -0.027748479 -0.20549217 0.14219937 -0.056370527
000010 4a c8 0f bd d9 7a 5d 3e d6 06 5a 3e 92 40 ab bd
       -0.03510312 0.21628894 0.2129167 -0.08361925
000020 79 83 a3 3d 5f 74 52 3e 81 a5 47 3e 1f c3 e9 bd
       0.07984061 0.20552205 0.19496728 -0.114141695
000030 ef 52 e0 3d 79 5c 19 3d e4 56 80 3d a4 2f 68 3b
       0.10953318 0.037441704 0.06266573 0.0035428787
000040 1e 4d f1 3d 77 8f 1a 3e 5f 4d 46 3e e9 30 4b be
       0.11782287 0.1509379 0.19365452 -0.19842876
000050 03 60 35 be f1 82 69 bd 94 f5 8a bd 45 88 58 be
       -0.17712407 -0.05700964 -0.067851216 -0.21145733
000060 60 80 44 be 77 03 16 3c 56 70 6b 3d 96 56 77 3d
       -0.19189596 0.0091560995 0.05748018 0.06038531
000070 18 a6 23 3e 05 8f d2 3d 69 ba f4 3c 88 ae 04 bd
       0.15981328 0.10281185 0.029874044 -0.03239301
000080 04 09 60 be 2f 49 25 3e 90 56 38 3e 44 de 4c 3e
       -0.21878439 0.16141199 0.18001771 0.20006663
000090 f8 84 8d ba cd 43 cc 3c ed d8 31 be 14 b4 76 3d
       -0.0010797074 0.024934674 -0.17367907 0.06023033
0000a0 e8 2b 2e bd 27 0d 70 bd e1 6d 41 3e b2 cf 25 be
       -0.04252234 -0.058606293 0.18889572 -0.1619251
0000b0 83 29 b0 bd 65 37 17 be 8e 23 81 bc 7b 52 10 3c
       -0.08601668 -0.14767225 -0.015764024 0.008808727
0000c0 e4 86 f2 3d 6e ed 97 3d c5 30 23 be f5 18 df bd
       0.118421346 0.07418333 -0.15936573 -0.10893432
0000d0 ec e0 17 3e e3 b5 bd 3d 39 46 1e 3e 9a 3f 00 3d
       0.14831895 0.09263208 0.15456475 0.031310655
0000e0 f2 86 23 3c 18 d5 35 bd ec c8 20 3d 81 2e 1e be
       0.009980904 -0.044392675 0.039254114 -0.15447427
0000f0 4d e1 2f 3d 9a bd 2f bd e4 80 d9 3c 83 53 ec 3c
       0.042939473 -0.042905428 0.026550718 0.028848415
000100 6e 2a f2 3d f8 86 1c 3e ff 1c 2e 3d 16 e6 39 3e
       0.11824499 0.15285861 0.04250812 0.18154177
000110 bf 25 82 bd e2 69 93 bd b4 12 ad bd e3 30 31 3d
       -0.06354856 -0.0719793 -0.08450833 0.043259513
000120 f2 c7 26 3e 22 d0 38 be 93 9b f7 3d e9 00 2f 3b
       0.1628721 -0.18048146 0.1209022 0.0026703423
000130 e1 29 00 be 03 5b 73 3d 2f 70 41 3d e1 1a 34 bd
       -0.12515976 0.059412967 0.047226127 -0.043970946
000140 3b c5 ac 3d 3d 7a 4f 3e 66 fa e4 bd 40 54 1f 3e
       0.08436056 0.20261474 -0.11180572 0.15559483
000150 ac 8e 07 be 57 4e 10 be c0 cd 41 3d 3c bc c4 3d
       -0.13238019 -0.14092384 0.04731536 0.09606215
000160 d0 63 01 be f9 32 84 bc 42 17 d7 3c ab 2b 99 bd
       -0.12635732 -0.016137587 0.026256207 -0.07479032
000170 71 4f a7 bd 41 5f 5b be 48 29 51 3e 3c f4 3c bc
       -0.08169449 -0.21423055 0.20425904 -0.011532839
000180 53 ce 9a bd 0e f4 b5 bc 34 ac 43 be 92 f8 71 bd
       -0.075588845 -0.0222111 -0.19108659 -0.059074946
000190 b1 3a dd bd 2d 74 b5 3d d5 d1 c0 bd 7d e9 4e bd
       -0.1080221 0.088600494 -0.09415022 -0.05051564
0001a0 dd d8 d8 bb 42 37 23 3e 04 9d 27 3e 6a ef 70 bc
       -0.006617649 0.15939048 0.1636849 -0.014705518
0001b0 cc f4 2d 3e 7d 5a 1c be ce ea 46 3e ce b1 e2 bc
       0.16987914 -0.15268894 0.19425508 -0.027672675
0001c0 f7 59 50 be 9c 64 0c 3e 5f 34 e7 bd 51 c5 95 bd
       -0.20346819 0.13710254 -0.11289286 -0.07313026
0001d0 23 26 b8 bd 08 53 09 3e a3 60 45 3e 8e 73 ff 3d
       -0.08991649 0.1341058 0.19275145 0.12473212
0001e0 e1 8a 0b 3e d0 cc 15 3c e6 b7 35 3e 28 ef bb 3b
       0.13627197 0.009143069 0.17745933 0.0057352968
0001f0 ea 57 84 bd 62 d4 1e be 3c 0b 02 3e 19 54 64 3d
       -0.06462081 -0.15510705 0.12699598 0.055744264
000200 1e ce a2 bd 21 de 5b 3e b3 dd 56 3d fe f1 bf bd
       -0.0794947 0.21471454 0.052457523 -0.09372328
000210 5a 7b 8c bd 1f 8b 95 3d d3 9f e3 bc 27 8e a1 3c
       -0.06859465 0.07301926 -0.027786171 0.019721104
000220 c3 96 29 3e ed 97 ad 3d 42 13 45 be ef 8e e0 3c
       0.16561417 0.08476243 -0.19245628 0.027411906
000230 80 aa 91 3d 8c 1d ed 3d 99 89 2c be d5 cc 44 be
       0.071125984 0.11577901 -0.16849364 -0.19218762
000240 de 27 98 3d 6a d0 d3 3d ef 72 10 3d 7b 1c 0a 3e
       0.07429479 0.10342486 0.03526586 0.13487427
000250 65 9e 1a bd 9e 0a 22 3e cd 08 56 3d 97 dd 6e 3c
       -0.037748713 0.15824363 0.052254487 0.014579198
000260 67 26 42 be da 85 b6 3b d0 f3 9f bd 7a 16 8b 3d
       -0.18959962 0.0055701556 -0.078101754 0.067913964
000270 93 19 47 be 59 de 86 bd 19 b3 04 3e e8 b8 b3 bd
       -0.1944335 -0.06585378 0.12958945 -0.087755024
000280 84 3e f5 bd 50 fd 6a bb ae 7f 0f bc 56 ed 65 3d
       -0.119748145 -0.0035856552 -0.008758469 0.056134544
000290 4e af 0c 3e 35 e4 30 be f4 a6 8b bd b7 97 32 3e
       0.13738748 -0.17274554 -0.06818953 0.17440687
0002a0 52 87 8b 3d 3d 63 0a 3e 17 1f ba bd d4 a7 ac 3c
       0.0681292 0.13514419 -0.09087961 0.02107612
0002b0 d3 f5 2f be 3a 91 72 bd e0 28 fe 3d 54 c7 52 3e
       -0.17183618 -0.05922053 0.1241014 0.2058385
0002c0 46 3e 1e 3e a3 35 04 bd 46 dc 77 bd 92 a5 02 3e
       0.15453443 -0.032277714 -0.060512803 0.12758473
0002d0 66 5b 11 3e ea 9a e9 3d f2 d1 d7 3c f7 b4 c6 3d
       0.14195022 0.11406501 0.026345227 0.09702485
0002e0 9c 38 23 be 1e e7 3c be 17 64 fd 3d 2c b2 90 3d
       -0.15939564 -0.18447539 0.12372606 0.070652336
0002f0 2b ea 3e bc f2 54 cb 3d fc 89 aa bc 56 56 ff 3d
       -0.01165251 0.099283114 -0.02081775 0.12467639
000300 da 12 84 bc cb c7 4d 3e 78 ad 94 bd a6 ce 25 be
       -0.01612227 0.20095746 -0.07259649 -0.16192111
000310 28 a2 85 bc c7 5d 45 3e 46 ba 93 bd 66 b3 d7 3d
       -0.016312674 0.19274054 -0.07213263 0.105322644
000320 d6 0f be 3d d3 f6 20 3e 23 a8 a8 bd 8d 63 9f bc
       0.09280364 0.15719156 -0.082351945 -0.01945665
000330 11 f7 de 3d 4b 32 c2 3d d8 5d e3 bd ab a4 f1 bd
       0.10886968 0.09482249 -0.11101884 -0.11798986
000340 cc 24 17 bd 43 2a 09 be d6 b9 30 be b9 00 2d 3e
       -0.036900327 -0.13395028 -0.17258391 0.16894807
000350 e0 03 0c bd 08 73 b5 bd d6 d1 42 be 69 24 d3 bd
       -0.034183383 -0.08859831 -0.19025359 -0.10309679
000360 7c 5b 32 3e 71 56 11 3e 1a 38 21 be 6c 41 49 bd
       0.17417711 0.14193131 -0.15744057 -0.049134657
000370 7f 72 0f be 78 09 9c bd a0 48 3c 3e f5 d6 de bd
       -0.1400852 -0.076189935 0.18387079 -0.108808435
000380 b5 a9 03 be 43 e5 4f be 45 ae 3e 3d c6 ec 58 be
       -0.12857707 -0.203023 0.046552915 -0.21184072
000390 7c b9 d1 3d 0f 44 2a 3e 8e 5f a0 bc 80 ac 8c 3d
       0.102404565 0.16627525 -0.019576814 0.06868839
0003a0 ec 10 ff 3d 3b b6 02 be 38 14 25 3d af 0f 2b be
       0.124543995 -0.12764828 0.040302485 -0.16705202
0003b0 b4 74 18 be 29 b3 2e be 43 9d 26 3e 5a bd 87 3d
       -0.14888269 -0.17060532 0.16270928 0.06627913
0003c0 a6 84 c1 3d b1 87 af bd 6c 7c 07 be bf 3d 30 bd
       0.09449129 -0.08570803 -0.13231057 -0.043027636
0003d0 a0 cd df bc e2 e0 8f bd f4 f4 e8 bd b6 af 38 be
       -0.02731973 -0.07025315 -0.11374846 -0.18035778
0003e0 72 d8 43 3d 1d db db bd 31 63 7d bd 28 89 ca 3d
       0.04781384 -0.10735152 -0.061862174 0.09889442
0003f0 db dc a6 bc 6a ed 08 be 4b 4e a7 3d 80 53 7b 3d
       -0.020368984 -0.13371816 0.0816923 0.06135893

bias f4 [64]
000000 80 9f 17 bb d7 bd f1 3a 03 b4 aa bb 15 87 25 3a
       -0.002313584 0.0018443418 -0.0052094474 0.0006314379
000010 f4 2b 8a bb 63 35 3e bb 13 15 86 3b 4f a6 a4 39
       -0.0042166654 -0.002902352 0.0040918677 0.00031404427
000020 bb 07 0b 3b 51 16 9f b9 a5 5e d4 b9 b6 50 96 3a
       0.0021214325 -0.0003034347 -0.00040506307 0.0011468146
000030 90 2c 5c bb ec eb 7d 3a 49 84 88 3b 4a fe fc bb
       -0.0033595897 0.0009686339 0.0041661602 -0.0077207433
000040 c5 56 27 38 96 6c d8 bb b0 bc a9 3b 45 92 df 3b
       3.9896713e-05 -0.0066047413 0.005179964 0.0068228566
000050 e6 ec 8c bb a4 ba 97 3a 4e 2a 48 ba 1e 56 96 b9
       -0.0043007014 0.0011576009 -0.00076356984 -0.00028674392
000060 df 60 36 ba 0d 35 15 bb 82 15 94 3b 91 3d d9 ba
       -0.0006957184 -0.0022767216 0.0045191655 -0.0016574134
000070 6b 53 bd 3b 7b fa 92 bb 88 3c 7f 3b 82 c7 34 3b
       0.0057777665 -0.004485426 0.0038945992 0.0027584736
000080 d3 e2 bb b9 9a 29 72 3a 5f a0 6c 3b 9b 48 0b 3c
       -0.00035836417 0.00092377665 0.003610633 0.008501197
000090 d5 77 be ba 85 39 a9 3b 42 0e 79 bb cc c0 51 3b
       -0.0014531562 0.0051643276 -0.0038002883 0.0032005785
0000a0 a5 2c b9 3a 54 0a cb ba 2e f3 fd b8 c6 d6 30 ba
       0.0014127685 -0.0015490749 -0.00012109276 -0.0006745871
0000b0 49 3b 3d ba ac 5e b8 3b 51 25 85 3b f9 d9 4f bb
       -0.0007218612 0.00562652 0.0040632864 -0.0031715615
0000c0 bc 79 03 3a c7 f4 31 3b 5c 45 b3 ba 69 0b 61 ba
       0.0005015393 0.0027153955 -0.0013677287 -0.0008584769
0000d0 ee 96 5a b9 2c c2 e2 ba e0 75 8f bb fe d8 48 bb
       -0.00020846326 -0.0017300299 -0.0043780655 -0.0030646916
0000e0 1e 38 ed ba 9e f4 9a 3b 49 a6 69 3b b1 6f cb bb
       -0.0018098389 0.0047288677 0.0035652092 -0.006208383
0000f0 3e fc d6 bb 01 c2 3d 3b 5b dc ff ba c8 e7 92 3a
       -0.0065608313 0.0028954747 -0.0019520627 0.0011207992

weight f4 [256, 64]
000000 14 31 e7 3d 5e c2 57 3d 5f f8 cd 3d 7b c5 22 bd
       0.11288658 0.052675597 0.10057139 -0.039739113
000010 e8 47 ba bc 8a 75 8c 3d f5 18 af bd 26 ef bc 3d
       -0.022739366 0.06858356 -0.08549682 0.092253014
000020 e9 59 c6 bd e5 3f 9f 3a ba ea b9 bd 8a f5 92 bd
       -0.09685118 0.0012149779 -0.09077974 -0.07175739
000030 df 00 c6 3d 1c 58 af bd b6 ab bd 3d cb 17 d8 bd
       0.09668135 -0.085617274 0.09261267 -0.10551413
000040 b3 82 1a 3b 83 a9 13 3d ad cc d5 bd d1 e3 a0 bd
       0.0023576438 0.03605033 -0.104394294 -0.078559525
000050 a3 f7 0f bd 65 4b 35 bc cb 55 e2 3c 97 ae 9f bd
       -0.035148274 -0.011065339 0.0276288 -0.07796972
000060 1f 01 87 3d fd 6f ed bd f6 92 1d bd 74 38 d1 3b
       0.06592011 -0.11593626 -0.03847023 0.0063849036
000070 ab 5d c7 3a 5e a4 90 bd 9c 3e c9 bd 3e 6f d8 bd
       0.001521041 -0.070626006 -0.09826395 -0.10568093
000080 7b 35 0b be 96 b3 4d 3d 49 56 21 bd 70 14 d0 3d
       -0.1359462 0.050220095 -0.03938893 0.10160148
000090 16 03 92 bd 43 24 9f bd 06 50 b8 3c 9d e3 f0 bd
       -0.07129495 -0.07770588 0.022499096 -0.11762164
0000a0 d3 af dd 3d 49 52 08 be 21 95 6b bd 97 e3 78 bb
       0.108245514 -0.1331264 -0.057515267 -0.003797745
0000b0 e0 a5 de 3d fb ef c6 bd 3f 8c 24 3c d8 03 c9 bb
       0.10871482 -0.097137414 0.010043203 -0.0061344914
0000c0 cd 4a 09 3d ae b0 39 bd 48 36 02 bc 6f 19 c3 bd
       0.0335186 -0.04533451 -0.007947512 -0.095263354
0000d0 b9 d8 c2 bd bc e1 66 3d ea 2f 04 3d b8 cb 0b 3e
       -0.09513993 0.05636762 0.032272257 0.13651931
0000e0 2e 3a f1 3d e6 6b 23 bd e2 55 ae 3c df d5 00 3e
       0.11778675 -0.03989782 0.021281186 0.12581585
0000f0 22 8b 58 bc ef 16 33 bc 96 a3 a6 3d ea 0d b7 3d
       -0.013216766 -0.010930761 0.0813667 0.08938201
000100 bc 96 8d 3d 0e c8 93 3d b2 11 5d bc 42 48 a7 bc
       0.06913516 0.07215892 -0.013492988 -0.020420197
000110 4d 84 47 bc e5 96 20 3d 4e b3 d6 3d 50 f4 d2 bd
       -0.012177539 0.039206404 0.104834184 -0.10300505
000120 06 e8 47 bd ec 09 ea 3b 82 69 55 3d 18 b0 34 3d
       -0.04880526 0.007142296 0.052102573 0.04411325
000130 f4 8e a8 3d 09 bb 46 3d db 2e 3d bc f7 8a e8 bd
       0.08230391 0.048518214 -0.011546816 -0.113546304
000140 2f ef 57 bd 2e f4 61 bd 96 7c f8 3d 01 ba f1 bd
       -0.052718338 -0.05516451 0.12133138 -0.118030556
000150 10 d5 57 bd dc ae cd bd b6 0b 11 3d f5 50 62 bd
       -0.052693427 -0.100431174 0.03541156 -0.055252988
000160 aa 2f c0 bb 91 ac 02 be a2 0c bc bd 4d a1 19 3d
       -0.005865057 -0.12761141 -0.09182097 0.037507344
000170 bc f3 05 3d ef 4f d4 bd 8c 67 88 3d d8 7a a1 bd
       0.032703146 -0.103668086 0.06660375 -0.07884759
000180 9f 02 b3 3a 20 1d cb bd 01 c6 52 3d 12 04 86 bc
       0.0013657397 -0.099176645 0.051458362 -0.016359363
000190 76 2f 73 bd 5a 0c 40 3d ae f0 08 be a6 c3 07 bb
       -0.059371434 0.04688678 -0.13373062 -0.002071598
0001a0 04 36 d7 bd 20 e7 29 bd d0 6c e2 3d bb 9d 22 bd
       -0.105083495 -0.041480184 0.110559106 -0.039701205
0001b0 38 d9 0e 3d 4a 4c 73 3c 4d 38 46 3d d4 19 f1 39
       0.034875125 0.014849732 0.048393536 0.00045986346
0001c0 f7 ff d1 bd e9 93 7b bd 46 40 85 3d 12 60 50 3c
       -0.102538995 -0.061420355 0.065064 0.012718217
0001d0 38 44 d5 3d 18 31 a4 bd 16 ca e3 bd a3 10 9b bd
       0.10413402 -0.080171764 -0.11122529 -0.075715326
0001e0 ba f9 e8 bb b0 97 6a bd 2a 5c f7 3d ad 5f 4c 3c
       -0.007109848 -0.057273567 0.12078126 0.012473983
0001f0 05 26 90 bd d0 2f 6d 3d 26 40 84 bc c7 bd 14 3d
       -0.07038502 0.057906926 -0.01614387 0.0363138
000200 12 29 8b bd f0 48 4c bc dc ee a8 3d ff 69 0b be
       -0.06794943 -0.0124685615 0.08248684 -0.13614653
000210 f8 da 78 bd 45 3b ba bd e6 24 6d bd a3 7e fe 3d
       -0.0607557 -0.09093336 -0.057896517 0.12426498
000220 69 92 ee 3b 87 3b f0 3d 7b eb f0 3c 61 e3 d2 bd
       0.007280637 0.11730104 0.02940916 -0.10297275
000230 ca 57 d9 3d 3d d6 42 3d 3a c9 67 bd 29 da a3 bd
       0.106124476 0.047567595 -0.05658839 -0.08000595
000240 c4 1a 22 3d 59 7b fd 3c ad d8 02 be d0 d8 44 bd
       0.039576307 0.030942606 -0.12777968 -0.04805833
000250 9c db 1f bd 7c e9 6c 3c 28 2b ae 3b 06 a9 4a bd
       -0.039027795 0.014459964 0.005315203 -0.0494776
000260 28 f4 4a 3d 01 db 72 bd 44 3a e0 bd 08 65 fb bd
       0.04954925 -0.05929089 -0.10948613 -0.122751296
000270 04 df a5 3c 2b ec 42 3d b1 21 a7 bd d7 78 f3 bc
       0.020247944 0.04758851 -0.08160723 -0.029720707
000280 2f 4d c8 bc 71 d8 97 bd cd 0d d9 bb 7a e9 c2 bd
       -0.024450867 -0.0741433 -0.0066239596 -0.09517188
000290 44 01 ab ba f8 6f 79 bd 50 cc 8a 3d d2 ca 25 3d
       -0.0013046642 -0.060897797 0.06777251 0.040476628
0002a0 1a 6a 18 bc 0a 4e 34 bd d5 0c 11 3e bd de e5 3c
       -0.00930264 -0.044019736 0.14165051 0.028060311
0002b0 f8 b9 f0 bd dc 7f d0 3d 30 fd 44 bd da bd 06 be
       -0.11754221 0.10180637 -0.04809302 -0.1315836
0002c0 d6 55 30 bd 07 30 f8 bc 21 2e 8c bd 26 ac bc 3d
       -0.04305061 -0.030296339 -0.06844736 0.09212522
0002d0 42 38 e1 bd c0 a4 a1 3d a5 28 a5 3d 20 8f 69 3d
       -0.109970585 0.07892752 0.08064393 0.05702126
0002e0 f4 a3 bb bc 11 5d 0b 3e 5f fd a2 bd 27 b8 8f bd
       -0.022905327 0.13609721 -0.07958483 -0.07017546
0002f0 5b 7a 13 bd 01 dd 64 bd 5e a6 cb bc e1 bd 89 3d
       -0.03600536 -0.05587483 -0.024859603 0.0672567
000300 e7 83 a7 bd 22 96 a8 bd d3 46 d0 3c a7 83 f8 bc
       -0.08179455 -0.082317606 0.025424397 -0.030336214
000310 3f 22 2e bd 53 c1 96 3d 0d 6f fd 3d ac f9 e3 3c
       -0.04251313 0.073610924 0.12374697 0.027829014
000320 1a 58 db bc 59 d1 8b 39 83 44 db bd e3 b4 04 3e
       -0.026775409 0.00026668122 -0.10706427 0.12959628
000330 ca a8 06 3d 27 29 d7 3b 8c da b1 3c 9e c0 b1 3c
       0.032875814 0.006566185 0.021710657 0.021698292
000340 1a c0 5a bd 8d ae 0e bd f4 7a 65 bd 32 86 88 3d
       -0.05340586 -0.034834433 -0.05602546 0.06666221
000350 bb 44 9e 3c 0b 1c 72 3d 0b e7 10 bd ea 46 39 bd
       0.019319883 0.059108775 -0.03537659 -0.045233645
000360 a8 be b0 3c 53 e1 51 bd 80 a0 f3 bd a0 0a d2 bd
       0.021575287 -0.051240277 -0.11895847 -0.10255933
000370 f1 22 de bd 59 58 65 3c b9 3a be 3d 04 b3 41 bd
       -0.10846508 0.0139981145 0.09288544 -0.047289863
000380 84 ab 84 bd 73 db 47 bd 49 51 92 3c 7c 7e 05 3e
       -0.064780265 -0.048793267 0.017861025 0.13036531
000390 ce 88 d2 bd e2 3a 9b 3c eb 7a 52 3d 7b 86 04 be
       -0.1028 0.018948976 0.051386755 -0.12941925
0003a0 50 7b 99 3d c8 37 90 bd 09 df f3 3d 53 ed 92 3d
       0.07494223 -0.070418894 0.11907775 0.07174172
0003b0 a0 c3 cb bb 1c 81 0a 3e 10 55 bb 3d 5b ad 10 ba
       -0.0062183887 0.13525814 0.09147084 -0.0005518996
0003c0 21 ce 0a 3e d6 99 af bb 25 cc a3 bd 06 90 b5 3d
       0.13555194 -0.005358915 -0.07997922 0.08865361
0003d0 a2 01 9f bd b3 0c b7 bd 4d db ca 3c 62 3b 02 be
       -0.07763983 -0.08937969 0.024762774 -0.12717965
0003e0 57 89 e6 3c 4e cc f5 bc 77 0c 94 bb 79 2c cf bd
       0.02814166 -0.030004647 -0.0045180875 -0.10115904
0003f0 0a bc 4e 3d 86 c8 30 3d 2d 45 59 3c b0 09 85 bc
       0.050472297 0.043159984 0.013261122 -0.01623997
