data/fine_tuning_data/td_finetuned_model.pt (torch, 822086 bytes, 31 tensors)

att_weights f4 [5]
1.1103139 0.82661474 0.8077883 0.9612739 0.92927444
00000000: c41e 8e3f 069d 533f 37cb 4e3f 0c16 763f
00000010: eee4 6d3f

weight f4 [128, 4]
0.13765597 0.039103504 0.10468501 0.09146683 0.11694952 -0.18438816 0.069348834 -0.058850583
0.11822968 0.2287476 0.16113032 0.14175351 0.10709112 0.19974287 0.16502467 -0.025793733
0.060705516 -0.015483921 -0.06902474 0.18215379 0.19100489 0.12165733 -0.024975287 0.19936061
0.08613045 0.04660174 -0.12105193 0.167011 -0.21511447 -0.04794288 0.10008504 -0.23145822
0.17228535 -0.1481163 -0.042872828 -0.0064094127 0.038249712 0.16592957 0.0016848991 0.07713294
0.08898888 0.1210509 -0.06558151 0.055053875 0.1554035 0.08565114 0.065918565 0.20698604
-0.18582049 0.08106689 -0.095524624 -0.1852203 0.10775457 0.21427676 0.23078646 0.17039171
-0.086971834 -0.01563057 0.13718125 -0.21069598 0.14687756 -0.12596531 -0.21479233 -0.11715033
-0.1308172 0.1840376 -0.09076771 0.17057955 -0.23717971 -0.15605098 -0.26068494 -0.01387532
-0.036780655 0.1949592 0.007573832 0.17358801 0.113567024 -0.12260797 -0.0055711386 0.18725164
0.20999427 0.19332792 -0.049374018 -0.15278536 0.10087644 -0.16400719 -0.24273755 -0.18530993
0.019607972 -0.055217173 -0.24497764 0.04527243 0.17276728 0.2401266 0.1527171 -0.09732165
-0.1728083 -0.0613951 -0.0024776834 -0.18582809 0.1479885 0.14281908 0.14739195 0.14466718
-0.04064341 -0.1360177 0.033650625 -0.05129382 -0.07345337 -0.19312418 -0.08238811 -0.17729127
-0.06923639 -0.112987086 0.088046476 0.06342839 0.12854597 -0.008953455 0.022523964 0.0643385
-0.014427532 -0.1867931 -0.21204059 -0.18702495 0.07137832 -0.13398048 -0.02085019 0.055752695
-0.026069514 -0.020803696 0.09553601 0.062978275 -0.022459129 0.07616609 -0.18465775 0.15631533
-0.22391525 0.12504356 -0.17759348 0.068913214 0.040000245 -0.24388482 -0.21909812 0.023168629
0.22460096 -0.055493534 0.08277161 -0.03823536 -0.10369158 -0.12711167 -0.058130875 -0.0713365
-0.12950857 0.071468696 -0.12793726 0.031725798 -0.073965214 -0.15577789 -0.1504099 0.04125096
0.0842518 0.050516576 0.08378399 0.04736251 -0.11662647 -0.24372642 -0.16971345 0.027523052
0.19500406 0.14072321 0.012035273 -0.002404145 -0.07030062 0.14191525 0.1651447 -0.04735963
-0.24048299 -0.08625938 0.017808339 -0.13425586 0.236565 0.16746375 -0.12959316 0.23572363
0.063753314 -0.1270366 0.16814065 0.024995245 0.17697327 -0.1250814 -0.08388783 -0.14432803
-0.04618489 -0.10679528 0.03321516 0.0038928909 -0.085667886 0.07307634 0.15904625 -0.09970266
0.10369226 0.06328172 0.17463107 -0.020746607 0.12807815 0.22183523 0.1505007 0.08377786
-0.30170092 -0.07385724 -0.21703129 -0.035602804 -0.11294132 -0.17267321 0.048593976 0.11904239
0.119660236 -0.015320834 0.17193365 -0.089507915 -0.010139717 -0.06875101 -0.14210866 -0.10319337
-0.156388 -0.14548676 0.14337634 -0.03466438 0.12246927 -0.00824377 0.096155055 0.20358162
0.16193257 0.0017827579 -0.09032345 0.20484559 0.055963784 -0.14046305 0.1078326 -0.15673685
0.0047224583 0.037385985 0.06438811 -0.02777351 0.05053591 0.045011047 0.1332729 -0.09751874
0.1642186 0.21900271 -0.009996581 0.22938536 0.19878916 -0.061580148 0.1861848 0.107120596
00000000: b0f5 0c3e ff2a 203d 1865 d63d f652 bb3d
00000010: 3b83 ef3d 40d0 3cbe c306 8e3d 4f0d 71bd
00000020: 6722 f23d d03c 6a3e 59ff 243e d527 113e
00000030: 9752 db3d 6589 4c3e 3afc 283e 614d d3bc
00000040: 59a6 783d 46b0 7dbc d85c 8dbd 8686 3a3e
00000050: c996 433e 7a27 f93d f998 ccbc 3025 4c3e
00000060: 2965 b03d 77e1 3e3d 13ea f7bd ee04 2b3e
00000070: f846 5cbe c15f 44bd 63f9 cc3d 6203 6dbe
00000080: 926b 303e cdab 17be 6b9b 2fbd 0d06 d2bb
00000090: bbab 1c3d 71e9 293e d5d7 dc3a e0f7 9d3d
000000a0: cd3f b63d 89e9 f73d 994f 86bd 2c80 613d
000000b0: 1822 1f3e dd69 af3d 5000 873d 26f4 533e
000000c0: ba47 3ebe 6606 a63d 6aa2 c3bd 64aa 3dbe
000000d0: 6eae dc3d 5e6b 5b3e 4953 6c3e 2a7b 2e3e
000000e0: 4a1e b2bd ae0b 80bc 3e79 0c3e b0c0 57be
000000f0: 1267 163e 0dfd 00be 85f2 5bbe 83ec efbd
00000100: f2f4 05be 5a74 3c3e 6ce4 b9bd 68ac 2e3e
00000110: 3ddf 72be d4cb 1fbe 7f78 85be 4f55 63bc
00000120: 50a7 16bd 62a3 473e e82d f83b 0ec1 313e
00000130: d495 e83d e319 fbbd 198e b6bb e5be 3f3e
00000140: bd08 573e c1f7 453e 693c 4abd c473 1cbe
00000150: 4f98 ce3d 80f1 27be 3190 78be e3c1 3dbe
00000160: e6a0 a03c 672b 62bd 6bdb 7abe 956f 393d
00000170: e8e9 303e bfe3 753e df61 1c3e 9350 c7bd
00000180: a9f4 30be 6e79 7bbd a160 22bb b849 3ebe
00000190: 4c8a 173e 2a3f 123e eaed 163e a223 143e
000001a0: b479 26bd 3948 0bbe 3dd5 093d 7819 52bd
000001b0: b86e 96bd 58c2 45be 19bb a8bd d88b 35be
000001c0: cfcb 8dbd c665 e7bd b651 b43d bee6 813d
000001d0: 8ea1 033e 83b1 12bc 2d84 b83c e7c3 833d
000001e0: 7561 6cbc b146 3fbe 2b21 59be 7883 3fbe
000001f0: cc2e 923d 2e32 09be 05ce aabc f05c 643d
00000200: bc8f d5bc 836c aabc 62a8 c33d c1fa 803d
00000210: 35fc b7bc f8fc 9b3d ec16 3dbe 2011 203e
00000220: 0a4a 65be 6b0b 003e 11db 35be 5f22 8d3d
00000230: 4cd7 233d f1bc 79be 425b 60be 23cc bd3c
00000240: cbfd 653e 304d 63bd 2984 a93d ae9c 1cbd
00000250: 405c d4bd 9029 02be a41a 6ebd df18 92bd
00000260: e59d 04be 2e5e 923d fc01 03be e9f2 013d
00000270: 137b 97bd 3d84 1fbe 0e05 1abe c4f6 283d
00000280: 358c ac3d 78ea 4e3d f196 ab3d 31ff 413d
00000290: dcd9 eebd 6b93 79be 5dc9 2dbe 0678 e13c
000002a0: 25af 473e bf19 103e 982f 453c dc8e 1dbb
000002b0: c5f9 8fbd 3b52 113e b11b 293e 2cfc 41bd
000002c0: 2c41 76be c2a8 b0bd cbe2 913c 5e7a 09be
000002d0: 183e 723e 9e7b 2b3e 12b4 04be 8961 713e
000002e0: 1991 823d e215 02be 102d 2c3e d4c2 cc3c
000002f0: 7b38 353e 5715 00be 62cd abbd baca 13be
00000300: 5e2c 3dbd 7cb7 dabd 9f0c 083d df1f 7f3b
00000310: a572 afbd 0ca9 953d 05dd 223e e930 ccbd
00000320: 9c5c d43d d999 813d 7dd2 323e caf4 a9bc
00000330: eb26 033e c628 633e db1c 1a3e ba93 ab3d
00000340: 8b78 9abe 7742 97bd 733d 5ebe 3fd4 11bd
00000350: c74d e7bd 3fd1 30be 7a0a 473d 7fcc f33d
00000360: 6d10 f53d 3c04 7bbc 600f 303e ed4f b7bd
00000370: 0e21 26bc 54cd 8cbd ef84 11be 0c57 d3bd
00000380: 2d24 20be 7bfa 14be 3fd1 123e 3dfc 0dbd
00000390: 2bd1 fa3d e110 07bc f1ec c43d b377 503e
000003a0: a7d1 253e 6eab e93a 80fb b8bd 0bc3 513e
000003b0: 483a 653d 8cd5 0fbe 57d7 dc3d a07f 20be
000003c0: dabe 9a3b 0c22 193d eadd 833d 4685 e3bc
000003d0: befe 4e3d 815d 383d b178 083e e8b7 c7bd
000003e0: ec28 283e 3f42 603e b3c8 23bc ffe3 6a3e
000003f0: 638f 4b3e 773b 7cbd 3aa7 3e3e 0b62 db3d

bias f4 [128]
-0.20440604 0.14047965 -0.12139264 -0.049351767 0.18387696 0.34989294 0.3475781 -0.08842739
-0.0133884195 -0.14134076 0.06595323 0.41364288 0.014372476 0.18299451 -0.1932186 0.37577692
-0.08592895 0.30474815 -0.25373557 -0.321173 0.22300941 -0.016104132 0.38991323 -0.36743128
-0.15333173 0.0045711277 -0.15851311 0.28442803 -0.29498222 0.15738904 0.37175348 0.20120436
0.33550256 0.0076001002 0.44129732 -0.42208648 -0.3596548 0.20913596 0.068853654 0.14576238
0.2043119 -0.3830436 0.0040652035 -0.20258029 0.41168892 -0.37459022 0.4284224 0.044202127
-0.22866026 0.31581658 -0.026344638 -0.4061183 0.283042 -0.14828941 0.18176568 -0.13232386
-0.30802178 -0.4056455 0.41431403 -0.2514852 -0.29338825 -0.20692132 0.37693292 -0.21244961
-0.18526618 0.05786924 0.10293143 0.42701727 0.14387543 0.1797669 -0.002643848 0.18023318
-0.3853151 0.07086804 -0.16081832 -0.052304637 -0.2893388 0.03431668 0.3168625 0.3786186
0.1413306 -0.30910376 0.404546 0.43905523 0.30625752 0.31660318 0.2722915 0.33255133
0.11471193 -0.22847424 -0.15810798 -0.16272523 0.016717926 0.38397107 0.20645559 0.10159547
0.4221893 0.30303046 -0.4249723 0.15428777 0.26070857 -0.08199615 0.23906532 0.13893329
-0.28147808 -0.42772636 -0.28629425 -0.0133512365 0.42677832 -0.107706785 0.18795793 -0.3923373
-0.0065199723 -0.18723929 0.25441122 0.12961297 -0.3135233 -0.39015907 -0.3106706 -0.22725001
-0.3549533 0.2690749 0.073825784 -0.43482718 0.18963936 0.13192527 -0.41087344 -0.391024
00000000: d14f 51be e6d9 0f3e b49c f8bd 1425 4abd
00000010: 3e4a 3c3e 2b25 b33e c2f5 b13e 6b19 b5bd
00000020: 1a5b 5bbc a2bb 10be 7d12 873d 00c9 d33e
00000030: 897a 6b3c ea62 3b3e 19db 45be d565 c03e
00000040: 84fb afbd f307 9c3e a1e9 81be ca70 a4be
00000050: 945c 643e d0ec 83bc b5a2 c73e f41f bcbe
00000060: fe02 1dbe 66c9 953b 4351 22be 8da0 913e
00000070: e907 97be 982a 213e 7956 be3e 8408 4e3e
00000080: fec6 ab3e 430a f93b b9f1 e13e b81b d8be
00000090: ad24 b8be bd27 563e 2503 8d3d bc42 153e
000000a0: 2437 513e 4a1e c4be 6635 853b 3571 4fbe
000000b0: e4c8 d23e 4aca bfbe 2e5a db3e 4a0d 353d
000000c0: ea25 6abe b6b2 a13e b6d0 d7bc bdee cfbe
000000d0: e2ea 903e 2ed9 17be c820 3a3e e87f 07be
000000e0: 08b5 9dbe c4b0 cfbe f820 d43e abc2 80be
000000f0: fc36 96be 2fe3 53be 5afd c03e 648c 59be
00000100: 6bb6 3dbe 4c08 6d3d b7cd d23d 02a2 da3e
00000110: 1554 133e d014 383e 6944 2dbb 0c8f 383e
00000120: 0548 c5be 4323 913d 8fad 24be 633d 56bd
00000130: 3724 94be a68f 0c3d cd3b a23e 4cda c13e
00000140: f8b8 103e d942 9ebe a720 cf3e d9cb e03e
00000150: c9cd 9c3e d019 a23e cb69 8b3e 2b44 aa3e
00000160: 17ee ea3d 27f5 69be 0fe7 21be 71a1 26be
00000170: 08f4 883c db97 c43e 1869 533e 4911 d03d
00000180: 3229 d83e cf26 9b3e f895 d9be 9dfd 1d3e
00000190: 987b 853e 99ed a7bd 8acd 743e 8744 0e3e
000001a0: e51d 90be f3fe dabe 2995 92be 25bf 5abc
000001b0: b082 da3e 6095 dcbd 0b78 403e 6fe0 c8be
000001c0: 7ea5 d5bb a8bb 3fbe 3042 823e 43b9 043e
000001d0: 2086 a0be eec2 c7be 3810 9fbe 3ab4 68be
000001e0: 70bc b5be 2fc4 893e f931 973d aba1 debe
000001f0: d230 423e 6b17 073e 015e d2be 4c34 c8be

weight f4 [128, 7]
-0.14493833 0.056328066 0.13959292 0.054798547 -0.096241 -0.09813133 -0.035852004 -0.059696496
-0.040321965 -0.026492793 -0.08814883 -0.17701261 0.037432894 0.16050665 -0.027261311 0.10337986
-0.036719255 0.16398254 -0.090249255 0.052682977 -0.13588308 -0.06969937 -0.17806679 -0.017684923
-0.1222211 -0.13040306 0.14754236 -0.08137147 -0.13269341 0.1052515 -0.056578353 0.09530808
-0.07669669 0.0151955495 -0.030000126 0.14043452 0.021845827 -0.061226867 0.1395265 -0.015646758
0.17503756 0.14034274 0.07033478 0.1057694 -0.14520836 0.011286844 0.15837121 -0.028435988
0.10528931 -0.13808441 -0.07381488 0.08946584 0.05487334 -0.01416684 -0.0888206 -0.058159046
0.09620139 -0.09964901 0.06067832 0.11149819 0.06309409 0.0014112571 -0.012856389 0.04248253
0.05536155 0.14729784 0.030523637 -0.12187681 -0.076527804 0.08850118 0.10597506 0.07893952
-0.14511439 0.09735921 -0.05298303 -0.13057117 0.09792283 0.046915792 0.064502336 -0.039905887
-0.079665504 -0.10172735 0.0004856303 -0.13877197 0.06785696 -0.0062819542 0.035911705 0.09152693
0.0028708812 -0.11634828 -0.04666137 0.13174419 0.018899973 0.10220638 -0.052818384 0.052324276
-0.060664922 -0.028472576 -0.13743678 -0.085133344 -0.08028063 0.13321729 0.06647121 0.07544423
-0.19023086 -0.12807108 0.08532615 -0.13619268 0.13280778 -0.12879165 0.03945912 0.013010597
-0.0823516 -0.05470837 -0.034103286 -0.14323533 -0.14879592 0.08369389 0.0071210032 0.13104464
-0.017025774 0.13099751 0.040630434 0.01960295 -0.083501674 -0.03413373 0.010712135 0.1750826
0.11583794 0.08014569 -0.039423607 0.029684452 -0.048681702 0.061987095 -0.105505265 -0.004712674
0.13975984 -0.0028206948 -0.10756516 0.0074934205 -0.1339315 0.18286663 0.11799584 0.034737825
0.07430447 -0.14932829 -0.16292018 0.07912547 -0.004561423 0.0052970317 0.13070199 -0.07394365
-0.09611244 -0.071578585 -0.121170565 -0.19464307 0.071736164 -0.044032108 -0.15102512 -0.049849857
-0.11357255 0.03210665 -0.04469615 -0.028330568 0.023848979 0.12119961 -0.057248898 -0.1521348
0.08200474 0.04827892 0.012520423 -0.012180669 -0.056899797 -0.12255513 0.15999348 0.06571525
0.04778988 0.025039895 -0.03621899 -0.04785279 0.08701101 -0.12622948 0.041971385 -0.02148082
-0.07693629 0.007959942 -0.11996089 -0.09223491 -0.14754929 0.047939498 0.0036317 0.0015839194
0.1312682 -0.1659436 0.0005623259 0.012440152 0.099223286 -0.117304966 0.09877733 0.08224587
0.106045134 -0.0695697 0.030575512 0.13435444 0.20238584 -0.084550776 -0.10931839 0.0328006
-0.014670182 -0.055232704 -0.116810285 0.12998195 -0.11477978 0.048509188 -0.038877618 0.13911632
-0.020247925 -0.13672213 0.0014065836 -0.113578446 -0.0070262435 0.16905673 -0.09053747 -0.16480342
0.061321232 0.16012713 -0.062052365 -0.008421436 0.050279327 0.06929778 0.09714237 -0.013725465
-0.11639674 -0.0013816569 0.033140734 -0.14519526 0.10228795 -0.057365365 -0.047283955 0.040161658
-0.15133724 -0.028600607 -0.09600852 -0.13272473 0.13332498 -0.09271787 -0.07824412 0.0077637965
0.011770082 -0.044263706 -0.10426107 -0.036411516 0.117648475 0.10008944 0.061211705 -0.10302606
00000000: b76a 14be 42b8 663d 72f1 0e3e 7174 603d
00000010: 001a c5bd 14f9 c8bd 8dd9 12bd 5084 74bd
00000020: a528 25bd 6a07 d9bc 6087 b4bd cb42 35be
00000030: 3c53 193d db5b 243e 1d53 dfbc d2b8 d33d
00000040: ee66 16bd 0aeb 273e 9ad4 b8bd 1bca 573d
00000050: ef24 0bbe 8bbe 8ebd 2457 36be f9df 90bc
00000060: 0e4f fabd 6188 05be 5815 173e 16a6 a6bd
00000070: c8e0 07be 198e d73d b4be 67bd e230 c33d
00000080: 2713 9dbd c1f6 783c d3c2 f5bc 11ce 0f3e
00000090: 05f6 b23c 06c9 7abd 09e0 0e3e a12d 80bc
000000a0: 0c3d 333e 02b6 0f3e ae0b 903d a19d d83d
000000b0: 80b1 14be 74ec 383c 102c 223e 97f2 e8bc
000000c0: eca1 d73d 0066 0dbe 412c 97bd de39 b73d
000000d0: dec2 603d 091c 68bc 93e7 b5bd 2e38 6ebd
000000e0: 3c05 c53d c814 ccbd d489 783d 2a59 e43d
000000f0: 7937 813d eef9 b83a 9ba3 52bc 2902 2e3d
00000100: cbc2 623d 3fd5 163e b50c fa3c 8d9a f9bd
00000110: 9cba 9cbd 1b40 b53d 7409 d93d 0bab a13d
00000120: de98 14be 4464 c73d bc04 59bd 73b4 05be
00000130: c48b c83d c62a 403d cd19 843d 5b74 23bd
00000140: ab27 a3bd 6e56 d0bd 329c fe39 3d1a 0ebe
00000150: 97f8 8a3d dad8 cdbb 2718 133d 7972 bb3d
00000160: 6525 3c3b 0248 eebd fe1f 3fbd f3e7 063e
00000170: 1ed4 9a3c 9451 d13d 1758 58bd fb51 563d
00000180: c87b 78bd 523f e9bc 3abc 0cbe 645a aebd
00000190: 2c6a a4bd 1d6a 083e 0f22 883d 8182 9a3d
000001a0: e1cb 42be 1125 03be 7abf ae3d 1876 0bbe
000001b0: c3fe 073e f5e1 03be e39f 213d 662a 553c
000001c0: f5a7 a8bd e215 60bd e3af 0bbd 48ac 12be
000001d0: f55d 18be b467 ab3d 4e57 e93b 9130 063e
000001e0: a379 8bbc 3624 063e 196c 263d 5e96 a03c
000001f0: ed02 abbd cfcf 0bbd f381 2f3c da48 333e
00000200: 713c ed3d 6c23 a43d a67a 21bd cf2c f33c
00000210: 7766 47bd 2ee6 7d3d 2513 d8bd c66c 9abb
00000220: 341d 0f3e 68db 38bb 1f4b dcbd 5e8b f53b
00000230: 5725 09be 6441 3b3e cea7 f13d 4049 0e3d
00000240: f12c 983d 84e9 18be 8cd4 26be 890c a23d
00000250: fd77 95bb b992 ad3b bed6 053e c56f 97bd
00000260: 99d6 c4bd cb97 92bd 4628 f8bd 8350 47be
00000270: 69ea 923d 035b 34bd 54a6 1abe 5d2f 4cbd
00000280: ba98 e8bd 4382 033d 4f13 37bd 8215 e8bc
00000290: ef5e c33c 8037 f83d d27d 6abd 3ac9 1bbe
000002a0: 1af2 a73d 1ec0 453d 7622 4d3c 6e91 47bc
000002b0: c30f 69bd 2ffe fabd 55d5 233e b895 863d
000002c0: 52bf 433d 7720 cd3c 5d5a 14bd 4a01 44bd
000002d0: d432 b23d 4d42 01be 30ea 2b3d 8bf8 afbc
000002e0: c690 9dbd 6b6a 023c 0eae f5bd a8e5 bcbd
000002f0: 2917 17be 355c 443d d101 6e3b 849b cf3a
00000300: 2c6b 063e 1eed 29be 0d69 133a c7d1 4b3c
00000310: 9435 cb3d 963d f0bd c54b ca3d 8670 a83d
00000320: 312e d93d 8f7a 8ebd 7f79 fa3c 3694 093e
00000330: 3c3e 4f3e f528 adbd 52e2 dfbd ec59 063d
00000340: 345b 70bc b03b 62bd 3b3a efbd fd19 053e
00000350: a911 ebbd 92b1 463d 233e 1fbd 8274 0e3e
00000360: fade a5bc e300 0cbe 1d5d b83a d19b e8bd
00000370: 673c e6bb 351d 2d3e b66b b9bd 3ac2 28be
00000380: f92b 7b3d 5ef8 233e 9f2a 7ebd 10fa 09bc
00000390: b2f1 4d3d ffeb 8d3d 94f2 c63d c6e0 60bc
000003a0: 6a61 eebd b618 b5ba 94be 073d 11ae 14be
000003b0: 587c d13d f2f7 6abd d2ac 41bd 8d80 243d
000003c0: 26f8 1abe d24b eabc 1da0 c4bd fee8 07be
000003d0: 5886 083e dee2 bdbd 743e a0bd 7267 fe3b
000003e0: 4dd7 403c dc4d 35bd d486 d5bd 3e24 15bd
000003f0: aff1 f03d b1fb cc3d 20b9 7a3d 54ff d2bd

bias f4 [128]
-0.34008858 0.322424 -0.10805324 -0.3527619 -0.22718878 -0.33728874 -0.047940318 -0.105011076
-0.07101037 -0.014101704 -0.30715504 0.22546393 -0.022096625 -0.133822 0.21711561 0.16411045
-0.07185472 -0.29406804 -0.02016946 0.23334733 -0.31781164 0.061998356 0.091842495 -0.10491815
0.23457794 -0.16994132 0.30302113 0.24900022 0.2691057 0.16531976 -0.22120602 0.07530238
0.2395716 0.10498041 0.16012196 0.093420684 -0.014652136 0.34356686 0.27101305 0.070585
-0.15420517 -0.15701132 -0.026200812 0.24290521 -0.2709876 -0.12072135 -0.15745294 -0.0414924
-0.04677017 -0.032965492 -0.16787943 -0.019819263 -0.31146765 -0.26470023 0.33670598 -0.029857695
0.18648781 0.053597923 0.010012964 -0.13484702 -0.04812248 0.14399163 0.031668175 0.007832948
0.309052 -0.25372508 -0.24078493 -0.31073216 -0.1834549 -0.36057404 0.19438659 0.09383108
-0.19947451 0.04728401 0.30628926 0.19577046 -0.120025896 0.20029135 -0.23444542 0.11462447
-0.01058886 0.06886214 0.14446351 0.22505529 0.055935357 -0.2298985 0.3460056 -0.28763247
-0.32797188 0.30677292 0.20440724 -0.06420938 0.3419973 0.046296913 -0.33732376 0.2246425
-0.14904909 0.23098804 -0.022954525 -0.3159126 -0.22440618 0.12836981 -0.33619028 0.2566182
0.26531482 -0.2776644 -0.16262402 -0.047276713 0.29302073 0.17871717 0.07351555 0.1992699
0.3255224 -0.21405698 -0.24288054 0.29489416 -0.13336049 0.08689124 -0.2096741 0.059705686
0.031647027 -0.019432133 -0.039396998 -0.2976718 0.22575435 -0.30238265 -0.27054915 -0.095020756
00000000: 1720 aebe c214 a53e 044b ddbd 359d b4be
00000010: 2da4 68be 1cb1 acbe 115d 44bd 0c10 d7bd
00000020: e36d 91bd d50a 67bc 6d43 9dbe 04e0 663e
00000030: fb03 b5bc a208 09be 8e53 5e3e 920c 283e
00000040: 9128 93bd 1690 96be 6c3a a5bc 9af2 6e3e
00000050: 35b8 a2be fdf1 7d3d eb17 bc3d 54df d6bd
00000060: 3335 703e 1905 2ebe 9625 9b3e eaf9 7e3e
00000070: 39c8 893e 9549 293e d583 62be 2238 9a3d
00000080: 4252 753e f8ff d63d 03f7 233e 5853 bf3d
00000090: 830f 70bc ffe7 af3e 39c2 8a3e de8e 903d
000000a0: f6e7 1dbe 93c7 20be 16a3 d6bc 25bc 783e
000000b0: e3be 8abe c13c f7bd 583b 21be eff3 29bd
000000c0: 1492 3fbd d306 07bd 96e8 2bbe 025c a2bc
000000d0: b078 9fbe ca86 87be ba64 ac3e 2098 f4bc
000000e0: a9f6 3e3e 7f89 5b3d 6a0d 243c 5615 0abe
000000f0: 141c 45bd 8b72 133e 7db6 013d c455 003c
00000100: 103c 9e3e 41e8 81be 5390 76be 4918 9fbe
00000110: 9adb 3bbe 299d b8be 470d 473e 822a c03d
00000120: 0c43 4cbe e1ac 413d f2d1 9c3e 0d78 483e
00000130: 23d0 f5bd 2d19 4d3e 7612 70be 3cc0 ea3d
00000140: e67c 2dbc 9807 8d3d 3eee 133e e574 663e
00000150: 791c 653d 836a 6bbe a527 b13e 9044 93be
00000160: eeeb a7be 5711 9d3e 2250 513e 3580 83bd
00000170: 451a af3e d5a1 3d3d b3b5 acbe af08 663e
00000180: 53a0 18be 2188 6c3e 210b bcbc 4cbf a1be
00000190: bcca 65be 6073 033e 2221 acbe 7663 833e
000001a0: 58d7 873e 072a 8ebe e986 26be 3aa5 41bd
000001b0: d006 963e a201 373e 528f 963d 690d 4c3e
000001c0: dfaa a63e c131 5bbe adb5 78be 5efc 963e
000001d0: a78f 08be 09f4 b13d cfb4 56be f38d 743d
000001e0: 50a0 013d 2330 9fbc bf5e 21bd 7068 98be
000001f0: 262c 673e e6d1 9abe 6b85 8abe 3e9a c2bd

weight f4 [128, 7]
-0.062829666 -0.11501455 0.0027418328 0.038698554 0.16339894 -0.098949306 0.04776129 0.13347834
0.028984977 0.11113036 -0.15192643 -0.018826008 -0.079017684 -0.19381565 -0.013596527 -0.009932363
0.13031618 0.119651385 -0.10352329 -0.09998563 0.15437675 -0.07353043 0.030179106 -0.08483394
0.045394786 -0.1393938 -0.083702035 -0.12525408 -0.03539472 0.041396197 0.09226828 0.09397539
0.0011466461 -0.11944439 0.16307347 -0.098639 -0.11372446 -0.12096051 -0.08556961 0.12565766
-0.17328878 0.035390384 -0.011195401 0.13486768 0.029046083 -0.12944509 0.0082129175 -0.022744088
-0.099850394 -0.08123256 0.07492289 -0.053994726 0.06977193 0.06119282 -0.014917518 -0.08054731
0.08193512 0.12765658 -0.082601234 -0.053009234 0.019678902 -0.04234138 0.10148826 0.02107524
-0.07079816 -0.14773259 0.098166235 -0.08711809 -0.16628946 -0.12781602 -0.016554665 0.054529283
0.0709946 -0.0017180566 -0.053584058 0.03742556 0.06310647 -0.11208097 0.031431016 0.045604933
0.14005473 -0.13079466 0.16095637 -0.08944226 -0.021137264 -0.077716194 -0.17492582 0.0011516565
-0.115958214 0.10943602 -0.10900183 -0.11589807 0.03534001 -0.07432592 0.06997166 0.16373739
0.055095166 -0.14481354 -0.0725219 0.11473718 -0.118795656 0.01620629 0.13034625 0.1182918
0.033329476 0.115130186 0.036148302 -0.12695807 -0.037590347 -0.017539676 0.074127756 -0.050563626
-0.09567981 0.1547093 -0.0127666965 0.1286686 0.05451813 0.03225044 -0.1275145 0.015582101
-0.15905875 0.039665446 0.13554244 -0.027297022 -0.12823653 -0.09823292 0.15018365 -0.09566874
-0.016004207 0.09790639 0.06671036 -0.12377468 0.0801378 0.066786855 -0.107718565 0.0045760665
-0.060874075 0.13064839 -0.002493778 0.11986542 0.08092281 -0.024895377 0.055377677 0.042031214
0.11082756 -0.043865595 0.18357648 0.058216397 -0.094689965 -0.06483804 0.09109368 0.13816063
-0.13782315 -0.11189434 -0.12206383 0.16582528 -0.071245655 0.10734625 -0.08361191 0.07158044
-0.019015647 -0.040199753 0.13001129 -0.040204663 -0.053803273 -0.0031785797 0.087297685 0.014125222
0.12610215 -0.094024055 0.1113446 0.14610194 0.09272783 -0.07015919 -0.11663888 0.108628735
0.11235661 -0.08982628 0.058797415 0.057371043 0.04420781 0.074743204 0.102189645 -0.03347941
0.13567379 -0.121982455 0.08851492 -0.11575434 -0.021757144 0.16292544 0.03464911 -0.056102157
-0.0720751 0.11752329 -0.04106777 -0.07192958 -0.15092318 0.02226602 0.081540346 -0.010430074
0.06702616 0.19075577 0.18523316 0.11829434 0.12862039 0.07655088 0.15852393 -0.006320267
-0.07949114 0.19363478 -0.03789266 0.024511097 -0.13688822 0.050359376 0.013575238 -0.17203584
0.105527624 -0.05028992 0.015095553 -0.06298019 0.06521455 -0.08364163 -0.039522395 -0.032002084
-0.03761856 -0.04364318 -0.13266961 0.07361136 -0.0076230145 0.107504465 0.055455707 0.13489714
0.01967974 -0.07887894 0.061302386 0.11985571 0.057259515 -0.11253759 -0.06850023 0.057355873
0.023837907 -0.11752208 0.1505216 -0.037894994 0.1263494 0.0746668 0.054593448 -0.088910386
0.07711054 0.09493094 -0.09448788 -0.08979052 0.06131297 0.063831896 0.096902415 0.044100713
00000000: d7ac 80bd c08c ebbd 52b0 333b 6082 1e3d
00000010: 0d52 273e efa5 cabd 58a1 433d 8cae 083e
00000020: e771 ed3c 5098 e33d 9a92 1bbe 0039 9abc
00000030: 06d4 a1bd 9c77 46be f8c3 5ebc 5abb 22bc
00000040: 9b71 053e c90b f53d 0504 d4bd 44c5 ccbd
00000050: f014 1e3e 1f97 96bd 2c3a f73c 6bbd adbd
00000060: e2ef 393d 40bd 0ebe f96b abbd 9b42 00be
00000070: 0efa 10bd 0f8f 293d 27f7 bc3d 2b76 c03d
00000080: 0f4b 963a 439f f4bd bbfc 263e 3e03 cabd
00000090: 5fe8 e8bd 25ba f7bd 1f3f afbd 67ac 003e
000000a0: 9d72 31be 82f5 103d ea6c 37bc c11a 0a3e
000000b0: 0df2 ed3c 418d 04be 798f 063c cf51 babc
000000c0: 5d7e ccbd 425d a6bd 2c71 993d 9329 5dbd
000000d0: 96e4 8e3d 53a5 7a3d 9b68 74bc fdf5 a4bd
000000e0: 9acd a73d 68b8 023e d62a a9bd 3620 59bd
000000f0: a635 a13c 286e 2dbd 14d9 cf3d fba5 ac3c
00000100: a0fe 90bd 3647 17be 610b c93d f86a b2bd
00000110: c947 2abe 34e2 02be a69d 87bc 195a 5f3d
00000120: 9e65 913d 6a30 e1ba f57a 5bbd 8b4b 193d
00000130: f73d 813d b58a e5bd cfbd 003d 3dcc 3a3d
00000140: 826a 0f3e 09ef 05be bfd1 243e 812d b7bd
00000150: 0e28 adbc ab29 9fbd c11f 33be 2ef3 963a
00000160: 807b edbd fe1f e03d 5a3c dfbd f85b edbd
00000170: b0c0 103d 3038 98bd 4d4d 8f3d c6aa 273e
00000180: 78ab 613d 004a 14be 5d86 94bd 54fb ea3d
00000190: 234b f3bd 0ec3 843c 7d79 053e f942 f23d
000001a0: 7d84 083d 60c9 eb3d 3e10 143d 4c01 02be
000001b0: 56f8 19bd 5eaf 8fbc 4bd0 973d ce1b 4fbd
000001c0: c7f3 c3bd 1d6c 1e3e 682b 51bc b4c1 033e
000001d0: 674e 5f3d 0a19 043d 2993 02be 124c 7f3c
000001e0: 4ce0 22be 3c78 223d a3cb 0a3e 019e dfbc
000001f0: 7050 03be 572e c9bd bec9 193e f9ed c3bd
00000200: 411b 83bc 2583 c83d 719f 883d 947d fdbd
00000210: 491f a43d 8cc7 883d 8d9b dcbd d4f2 953b
00000220: 1857 79bd b1c8 053e a76e 23bb 007c f53d
00000230: dcba a53d 64f1 cbbc b4d3 623d ec28 2c3d
00000240: 8ff9 e23d 69ac 33bd 79fb 3b3e 5174 6e3d
00000250: d0ec c1bd cec9 84bd 538f ba3d fb79 0d3e
00000260: 8321 0dbe dc28 e5bd 9afc f9bd 1ace 293e
00000270: 3ee9 91bd 5ad8 db3d b93c abbd c498 923d
00000280: b4c6 9bbc 7fa8 24bd ae21 053e a5ad 24bd
00000290: d260 5cbd b84f 50bb 21c9 b23d 7a6d 673c
000002a0: ec20 013e af8f c0bd a308 e43d bf9b 153e
000002b0: 17e8 bd3d 9faf 8fbd 5de0 eebd be78 de3d
000002c0: 391b e63d d7f6 b7bd 8fd5 703d e6fd 6a3d
000002d0: 4013 353d f712 993d ce48 d13d b521 09bd
000002e0: 12ee 0a3e f0d1 f9bd 4f47 b53d 9d10 edbd
000002f0: 0a3c b2bc edd5 263e 3aec 0d3d 60cb 65bd
00000300: 1c9c 93bd 0db0 f03d ae36 28bd d14f 93bd
00000310: 9b8b 1abe 3a67 b63c a0fe a63d e7e2 2abc
00000320: 0345 893d 7b55 433e c3ad 3d3e 4e44 f23d
00000330: 10b5 033e b5c6 9c3d 1954 223e 3e1a cfbb
00000340: 40cc a2bd 3248 463e 5535 1bbd 7fcb c83c
00000350: 6d2c 0cbe a245 4e3d ad6a 5e3c 2a2a 30be
00000360: de1e d83d cefc 4dbd 5753 773c c2fb 80bd
00000370: 358f 853d 4e4c abbd 3ce2 21bd 9e14 03bd
00000380: eb15 1abd 31c3 32bd 8bda 07be 8dc1 963d
00000390: 7bca f9bb 4d2b dc3d 8625 633d 7a22 0a3e
000003a0: 6837 a13c 488b a1bd 3618 7b3d e976 f53d
000003b0: f488 6a3d 1c7a e6bd d949 8cbd feed 6a3d
000003c0: b747 c33c 6baf f0bd 5622 1a3e c837 1bbd
000003d0: bd61 013e e8ea 983d 619d 5f3d a616 b6bd
000003e0: 21ec 9d3d 276b c23d dd82 c1bd 18e4 b7bd
000003f0: 4f23 7b3d 4cba 823d c674 c63d f3a2 343d

bias f4 [128]
-0.1106782 -0.10751967 -0.35097557 -0.054432414 0.17747243 0.12176962 -0.33890137 -0.08060028
-0.03946992 -0.31276536 -0.21390083 0.22108175 0.13746724 -0.12394078 -0.30032694 0.25426638
0.16540629 -0.11680921 -0.09108624 -0.10621788 -0.32116836 0.09154017 -0.29346228 0.010715655
0.18615523 -0.15015729 0.34007353 0.061024394 0.19083756 -0.24784286 -0.2407184 0.1120494
-0.076748736 -0.23842455 -0.10229044 -0.24894802 0.21588862 -0.19505364 0.014383936 -0.0076344726
-0.010470963 0.21486893 0.110343 0.18431212 -0.101454064 0.087347604 0.19999273 0.02122587
0.113025725 -0.3363602 -0.30208024 -0.08258185 0.031085039 0.119099826 -0.3244622 0.16830076
0.11942257 -0.12827782 0.22670127 -0.11309999 -0.06409044 0.22826035 -0.08156534 -0.24290402
-0.19930503 -0.05907762 0.29831964 -0.22396135 -0.05915118 0.093719855 0.37106878 -0.09191534
-0.33978 0.32123744 0.31699678 0.2972184 0.12351022 0.16174991 -0.21086553 0.32567742
0.22380278 -0.051794086 0.04562565 -0.076650776 -0.17847201 -0.2310458 -0.1496922 -0.1394574
-0.12822363 -0.046408758 0.04712509 0.170985 0.19709395 -0.26851654 0.15516135 -0.19038673
0.24279177 0.1860381 -0.1158911 -0.23859148 -0.012171605 -0.26580718 0.10881301 -0.16766493
0.08010099 0.27593368 0.05918339 -0.28598818 0.19533364 0.25565562 0.1102006 -0.10546138
0.044710398 -0.109607294 0.046561934 -0.040088385 0.12279757 0.3256503 -0.24830362 0.1847111
0.31974733 -0.14717817 0.025991568 0.30687475 0.018801162 -0.25968945 -0.09000777 0.22689041
00000000: 41ab e2bd 4633 dcbd 12b3 b3be 86f4 5ebd
00000010: 55bb 353e 5a62 f93d 7b84 adbe c211 a5bd
00000020: 36ab 21bd c822 a0be d208 5bbe 4163 623e
00000030: 36c4 0c3e aad4 fdbd 74c4 99be 342f 823e
00000040: 4460 293e ab39 efbd 6c8b babd c388 d9bd
00000050: 2e70 a4be 6a79 bb3d b040 96be b790 2f3c
00000060: 7a9f 3e3e d5c2 19be 1e1e ae3e b7f4 793d
00000070: ec6a 433e 85ca 7dbe e27e 76be 287a e53d
00000080: 712e 9dbd 9125 74be a67d d1bd 3bec 7ebe
00000090: e811 5d3e 24bc 47be 9aaa 6b3c 992a fabb
000000a0: 678e 2bbc 9a06 5c3e 83fb e13d 51bc 3c3e
000000b0: 26c7 cfbd 4de3 b23d e5ca 4c3e e0e1 ad3c
000000c0: 087a e73d 6737 acbe 43aa 9abe ac20 a9bd
000000d0: 0da6 fe3c 9cea f33d e91f a6be 0957 2c3e
000000e0: d293 f43d 435b 03be 6124 683e f8a0 e7bd
000000f0: d941 83bd 15bd 693e bb0b a7bd d5bb 78be
00000100: 9e16 4cbe 60fb 71bd 5abd 983e 2056 65be
00000110: 8248 72bd 32f0 bf3d bafc bd3e 1c3e bcbd
00000120: a5f7 adbe 3c79 a43e 674d a23e 032d 983e
00000130: edf2 fc3d c5a1 253e 22ed 57be 31bf a63e
00000140: 8e2c 653e 0926 54bd f6e1 3a3d 15fb 9cbd
00000150: 5ec1 36be 4597 6cbe e948 19be eccd 0ebe
00000160: 0e4d 03be 1c17 3ebd 3d06 413d b116 2f3e
00000170: ffd2 493e 007b 89be 9ee2 1e3e bdf4 42be
00000180: 689e 783e c680 3e3e 5058 edbd 5351 74be
00000190: 696b 47bc e117 88be 5bd9 de3d 5bb0 2bbe
000001a0: fd0b a43d 2e47 8d3e 486a 723d 0b6d 92be
000001b0: 8b05 483e 4be5 823e dab0 e13d 23fc d7bd
000001c0: 4022 373d ca79 e0bd bab7 3e3d b833 24bd
000001d0: 4b7d fb3d a3bb a63e 4e43 7ebe e824 3d3e
000001e0: ecb5 a33e e0b5 16be 45ec d43c b01e 9d3e
000001f0: e504 9a3c 04f6 84be fe55 b8bd f655 683e

weight f4 [128, 4]
0.11673597 0.036086608 -0.16656604 0.14368258 0.13100511 0.13359848 -0.17782289 -0.019000197
-0.029540194 -0.17207587 -0.061047323 0.13710809 -0.132104 0.08388116 0.102174394 0.1407001
0.15427782 -0.0067177187 0.14290984 -0.03809924 0.11707557 0.10434226 0.018842997 -0.08991124
-0.14766775 -0.028878363 0.062123425 -0.111166604 -0.0966298 -0.06513347 -0.016556824 -0.12736513
-0.10567875 -0.097227514 0.0499067 -0.1440117 0.11837164 0.2094529 0.14585568 0.14759067
-0.13727601 0.032075066 0.17934884 0.14271313 -0.15324925 -0.0915128 -0.10382271 0.12191828
0.0013257542 -0.1906683 0.04676902 0.13233368 -0.07065114 -0.055231147 -0.047089178 -0.034911584
-0.0038328432 -0.16209817 0.012811928 0.0088592125 0.016315693 -0.19324926 0.010040594 0.005726736
-0.079901844 0.10632839 -0.055559542 0.042135157 -0.013304763 -0.02241645 0.0018817531 -0.030849105
0.14783965 -0.10731768 -0.011061901 0.027739706 0.09219818 0.14278293 0.07671322 -0.1720191
-0.15726209 -0.0662932 -0.01655115 0.13995035 -0.07059907 -0.020442378 -0.07530557 0.16525862
-0.07013468 -0.03339705 -0.053155396 0.06002294 0.1871591 0.048234783 0.14015074 0.1262435
-0.13710305 -0.07218406 -0.020630015 -0.005277911 -0.04689519 0.20343591 -0.07074326 0.09806046
0.084728055 -0.18137029 -0.19477054 -0.0542616 0.05000223 -0.12225786 -0.10114392 -0.12013119
0.12997413 -0.07234264 -0.07599172 -0.018961724 -0.14736918 -0.04660913 -0.17144683 0.047989286
-0.09029707 -0.16893028 -0.16716912 -0.14677173 -0.12621532 0.11561112 0.122125275 0.07093846
-0.113386124 0.047857195 -0.11497675 -0.07978103 -0.1727273 0.025497818 0.14918841 -0.057246637
0.05110134 -0.10670802 0.010189158 -0.10656544 -0.07274353 -0.12202831 0.08743041 0.04867378
0.10989142 0.089659356 0.11759237 0.183192 -0.15999602 0.13829786 0.1195975 -0.01897818
0.012534192 -0.19445868 0.029300908 -0.10792053 -0.1243713 -0.14803174 0.07421282 -0.18219641
0.10136611 -0.0153166475 0.06531418 -0.016099311 -0.1859213 -0.10458391 -0.03354106 0.12702449
-0.12297655 0.068084195 0.10070871 0.03416966 0.124399066 -0.072077766 -0.006769399 0.12825128
-0.04788192 -0.12117707 -0.12809852 -0.14834812 0.18865514 -0.1486957 0.020743541 0.07905041
-0.1694308 0.08188383 -0.072703905 -0.13864855 -0.124998026 -0.09455803 0.085525595 -0.12610221
0.013592157 0.011895955 0.117965765 -0.13843703 0.18570575 0.16402628 0.1124768 0.17444223
0.11681815 0.11947905 0.036731347 -0.11872278 0.030871073 0.06681951 0.18722786 0.051849414
-0.20783743 0.11081509 -0.12441309 -0.075773396 0.1341897 0.015043727 0.044777177 0.076299034
-0.08375208 0.020279977 0.09842888 -0.08247706 0.023672858 0.04884084 0.013713906 -0.123467356
-0.0029554486 0.08165441 -0.09026491 -0.089856476 -0.03458657 0.15092525 0.021830676 0.012278573
-0.081744865 -0.105132505 -0.114213444 0.13550834 -0.18473364 -0.118768655 -0.19241713 -0.17143616
-0.08922265 -0.08138435 -0.0893413 0.15717964 0.14032929 0.1358383 -0.036046058 -0.04185631
0.05397493 0.07788676 -0.009251426 -0.042581264 0.13971466 0.023519995 0.14845045 0.08242546
00000000: 4513 ef3d 8dcf 133d 4a90 2abe 8721 133e
00000010: 3426 063e 0ace 083e 3417 36be 4da6 9bbc
00000020: 47fe f1bc a834 30be c20c 7abd 1066 0c3e
00000030: 4546 07be e3c9 ab3d cf40 d13d b013 103e
00000040: 01fb 1d3e 4f20 dcbb f556 123e f30d 1cbd
00000050: 51c5 ef3d 65b1 d53d a15c 9a3c 6223 b8bd
00000060: 3736 17be 5192 ecbc 2275 7e3d 51ab e3bd
00000070: d8e5 c5bd b264 85bd 2da2 87bc 016c 02be
00000080: 1a6e d8bd 381f c7bd f86a 4c3d ce77 13be
00000090: d56c f23d d27a 563e 315b 153e 0222 173e
000000a0: 1592 0cbe 2561 033d 39a7 373e 6423 123e
000000b0: 5fed 1cbe 106b bbbd 00a1 d4bd 4bb0 f93d
000000c0: eec4 ad3a 8d3e 43be df90 3f3d 7b82 073e
000000d0: 8bb1 90bd 0e3a 62bd 95e0 40bd 73ff 0ebd
000000e0: 7030 7bbb 10fd 25be 1fe9 513c 3b26 113c
000000f0: 7da8 853c 22e3 45be 4e81 243c 58a7 bb3b
00000100: 94a3 a3bd b3c2 d93d 6792 63bd ea95 2c3d
00000110: 38fc 59bc b4a2 b7bc 28a5 f63a 43b7 fcbc
00000120: 4763 173e 5fc9 dbbd fa3c 35bc 613e e33c
00000130: 66d2 bc3d b035 123e d21b 9d3d c625 30be
00000140: 5009 21be bbc4 87bd 4796 87bc 254f 0f3e
00000150: 3f96 90bd c676 a7bc cf39 9abd 8e39 293e
00000160: c5a2 8fbd 58cb 08bd 79b9 59bd 9dda 753d
00000170: a3a6 3f3e d691 453d ad83 0f3e fa45 013e
00000180: be64 0cbe 3dd5 93bd 4700 a9bc 54f2 acbb
00000190: 2c15 40bd 8151 503e d8e1 90bd ecd3 c83d
000001a0: e785 ad3d 22b9 39be ee71 47be 6941 5ebd
000001b0: 23cf 4c3d 5462 fabd 8b24 cfbd 5707 f6bd
000001c0: f017 053e 6128 94bd 8ca1 9bbd 9e55 9bbc
000001d0: f2e7 16be 37e9 3ebd c28f 2fbe 6a90 443d
000001e0: aced b8bd 0ffc 2cbe 622e 2bbe 544b 16be
000001f0: 973e 01be 86c5 ec3d d11c fa3d 2f48 913d
00000200: fc36 e8bd e805 443d ee78 ebbd 3d64 a3bd
00000210: 6ddf 30be cde0 d03c d9c4 183e 737b 6abd
00000220: a44f 513d bc89 dabd 6df0 263c fb3e dabd
00000230: 8ffa 94bd fbe9 f9bd b70e b33d 285e 473d
00000240: c10e e13d 539f b73d 45d4 f03d af96 3b3e
00000250: ffd5 23be f49d 0d3e 89ef f43d 2178 9bbc
00000260: 365c 4d3c 2d20 47be 7508 f03c 7005 ddbd
00000270: 61b6 febd a295 17be e4fc 973d b291 3abe
00000280: 0999 cf3d adf2 7abc 71c3 853d b4e2 83bc
00000290: 2762 3ebe 1730 d6bd 5a62 09bd b512 023e
000002a0: 21db fbbd ba6f 8b3d 5e40 ce3d 7cf5 0b3d
000002b0: f0c4 fe3d 829d 93bd d6d1 ddbb 4e54 033e
000002c0: d51f 44bd af2b f8bd 422c 03be 92e8 17be
000002d0: d02e 413e b043 18be 5cee a93c 2ee5 a13d
000002e0: 457f 2dbe b6b2 a73d c9e5 94bd e3f9 0dbe
000002f0: f7fe ffbd a4a7 c1bd 0b28 af3d f020 01be
00000300: a3b1 5e3c 40e7 423c 0998 f13d 70c2 0dbe
00000310: a629 3e3e 81f6 273e 3d5a e63d fca0 323e
00000320: 5b3e ef3d 6fb1 f43d 9c73 163d ee24 f3bd
00000330: 55e5 fc3c abd8 883d a9b8 3f3e 0d60 543d
00000340: 56d3 54be 06f3 e23d 4acc febd 152f 9bbd
00000350: 0669 093e f779 763c 4668 373d ab42 9c3d
00000360: 3686 abbd 3222 a63c 1595 c93d bce9 a8bd
00000370: 95ed c13c 550d 483d 4ab0 603c 74dc fcbd
00000380: 33b0 41bb 6d3a a73d cfdc b8bd ac06 b8bd
00000390: a6aa 0dbd 268c 1a3e 3fd6 b23c 112c 493c
000003a0: da69 a7bd b64f d7bd bde8 e9bd b3c2 0a3e
000003b0: d12a 3dbe fb3c f3bd ff08 45be f68c 2fbe
000003c0: 5dba b6bd d7ac a6bd 92f8 b6bd b3f3 203e
000003d0: 7bb2 0f3e 3219 0b3e 08a5 13bd 8671 2bbd
000003e0: d114 5d3d 1883 9f3d 4b93 17bc b169 2ebd
000003f0: 5c11 0f3e 01ad c03c 6503 183e aece a83d

bias f4 [128]
-0.3016521 -0.034932666 -0.41683677 -0.34151125 -0.40809467 -0.37682316 0.28711683 0.1427326
-0.25038752 -0.28795183 0.14005412 0.45743603 -0.21109268 -0.105068244 0.1466396 0.08842466
-0.20046444 -0.28820795 0.30079395 0.32644072 -0.4401212 -0.19410022 0.20586863 -0.036900252
0.060024295 0.47174072 -0.4484107 0.33482313 -0.37293297 -0.2000084 0.03335914 -0.18165174
-0.40243125 0.40097526 0.4257213 -0.39906105 0.31392446 -0.18200596 0.23373204 0.17665125
0.36460465 0.39919809 0.3972162 0.20329003 -0.22054811 -0.4455604 -0.25713974 -0.010724628
-0.24250934 -0.37783894 0.19745706 -0.3596813 -0.26411268 -0.23806092 0.32511622 -0.12760288
0.33640432 -0.40288252 0.443766 0.3338785 -0.2945717 -0.23086466 0.17528021 0.19954029
0.037925337 -0.028664177 -0.11854462 0.45600638 -0.12460245 -0.16508621 -0.24587972 -0.2422923
-0.037966195 -0.3271572 0.19440849 0.10473253 0.14674552 0.10964278 0.3244981 -0.19416162
0.29234022 -0.37231478 0.09165194 -0.0040368177 0.2394249 0.33874258 -0.20294113 -0.07491684
0.43642825 0.15242738 -0.115335055 0.018300721 0.015787654 0.23411596 0.11086469 0.25522563
0.30267033 0.06305922 -0.15572426 -0.22754082 -0.37501904 0.16796951 -0.16380677 0.04090202
-0.42759594 0.36470655 0.38801593 -0.12043192 -0.32031506 -0.19692728 -0.41596878 0.0030582373
-0.08328155 0.06629078 0.16309534 -0.42269662 0.2666722 0.3181503 -0.06048163 -0.23147851
-0.32534412 0.1094106 -0.07683223 -0.19847177 0.14092046 -0.13609102 -0.010618101 -0.117575146
00000000: 2572 9abe 8e15 0fbd a16b d5be 90da aebe
00000010: c9f1 d0be f7ee c0be fa00 933e 7f28 123e
00000020: cb32 80be 6c6e 93be 596a 0f3e 0e35 ea3e
00000030: ae28 58be 052e d7bd b128 163e fd17 b53d
00000040: 8d46 4dbe fe8f 93be aa01 9a3e 3d23 a73e
00000050: 9157 e1be 35c2 46be 3acf 523e b824 17bd
00000060: 09dc 753d 0088 f13e 1696 e5be f06d ab3e
00000070: 12f1 bebe 01cf 4cbe 98a3 083d ea02 3abe
00000080: 780b cebe a14c cd3e 24f8 d93e bb51 ccbe
00000090: b5ba a03e c55f 3abe 7457 6f3e 11e4 343e
000000a0: 76ad ba3e b163 cc3e ec5f cb3e 432b 503e
000000b0: 5dd7 61be 7e20 e4be d2a7 83be 5ab6 2fbc
000000c0: 5e54 78be 1b74 c1be 2f32 4a3e 2628 b8be
000000d0: c739 87be 3ec6 73be a275 a63e 54aa 02be
000000e0: 303d ac3e 9e46 cebe 4c35 e33e 1ff2 aa3e
000000f0: 1ad2 96be c967 6cbe a87c 333e 4a54 4c3e
00000100: 9957 1b3d 23d1 eabc 86c7 f2bd ab79 e93e
00000110: 922f ffbd 5c0c 29be e5c7 7bbe 791b 78be
00000120: 7182 1bbd 2681 a7be 0513 473e 027e d63d
00000130: 7544 163e 658c e03d 9d24 a63e 4ed2 46be
00000140: 9ead 953e 0ba0 bebe 03b4 bb3d 4847 84bb
00000150: cd2b 753e ab6f ad3e cdcf 4fbe 006e 99bd
00000160: 8673 df3e ec15 1c3e c934 ecbd 65eb 953c
00000170: 1c55 813c 18bc 6f3e 070d e33d efac 823e
00000180: 9bf7 9a3e 3125 813d 2e76 1fbe 7600 69be
00000190: 7f02 c0be 3300 2c3e f6bc 27be e088 273d
000001a0: dbed dabe d1ba ba3e 06aa c63e 03a5 f6bd
000001b0: 5600 a4be 4ea7 49be dcf9 d4be b56c 483b
000001c0: 848f aabd 76c3 873d 7702 273e b16b d8be
000001d0: 4289 883e 99e4 a23e 96bb 77bd b408 6dbe
000001e0: 8193 a6be aa12 e03d 375a 9dbd 2f3c 4bbe
000001f0: 744d 103e 725b 0bbe 8bf7 2dbc 3dcb f0bd

weight f4 [128, 2]
-0.055771798 0.16235577 -0.1776933 -0.1454739 -0.053274274 -0.112748206 -0.048590336 -0.07619226
-0.14718965 -0.10258069 0.004520319 -0.056212578 0.09597441 -0.05288012 0.091924146 -0.101300195
-0.1016418 -0.036623593 -0.032319184 -0.13046563 -0.13776235 -0.091497526 -0.2099751 -0.047937576
0.012108793 -0.18693163 -0.13625075 0.039941035 -0.20563464 0.19450171 -0.09768313 -0.07734567
-0.12540628 0.14413065 -0.03554119 -0.07532857 0.055155497 0.07985156 -0.1747604 0.12274694
0.1645659 0.16950974 0.026042227 0.13508317 -0.042734805 0.0885508 0.037187025 -0.11913039
-0.19536296 0.07296083 0.0664208 -0.014568606 -0.10039812 0.08175493 -0.15925953 -0.057193425
-0.14621583 0.033398785 -0.12333386 -0.033173636 -0.095466614 -0.07408511 -0.14795527 -0.066733636
0.13947509 0.007408447 -0.19209334 0.106347404 -0.092699446 -0.13605711 0.059220344 -0.15921733
-0.10488735 -0.059922848 0.0066307867 -0.0922714 0.17793874 0.0581276 -0.13095146 -0.07089246
-0.19186155 -0.060620222 0.037767727 -0.07217703 0.13679884 -0.00062398927 -0.030105965 -0.10025651
0.13500215 -0.15084472 0.033393223 -0.08293258 0.009482096 0.006492561 0.1620097 0.14940213
0.014062547 0.045590006 -0.19533962 -0.083990715 0.08432432 0.08663989 0.11670789 -0.016711622
0.07967465 0.13488866 -0.17445363 0.025762957 -0.06325851 -0.15657583 -0.034525473 0.056442745
0.12778503 0.07113439 0.05869107 -0.05428385 0.16823097 0.0143804755 -0.19723229 0.022617696
-0.095781125 0.04119492 -0.11653479 -0.05560651 -0.21144374 0.04568684 -0.0932706 0.05125227
0.10903178 0.124600545 0.06587997 -0.06242462 0.055552 -0.07395477 -0.17286125 0.14513998
-0.07431126 -0.033899244 0.18109582 0.06607286 0.22543874 0.0019131636 -0.18516344 -0.024699194
-0.029117532 0.03453018 -0.021732094 -0.16195445 0.1859355 -0.064313665 0.07263404 0.092450835
-0.057095144 0.027853971 -0.05086823 -0.06949472 -0.014461998 0.11457894 0.036542505 0.07292857
-0.13146296 -0.13056576 -0.077745266 0.025784936 0.03688217 0.020615347 -0.11726952 0.047265846
-0.09671263 0.026861137 0.032350726 0.0038791976 0.15833028 0.10892522 0.13121125 0.026818335
0.111611135 -0.15701914 -0.15524781 0.042057496 0.09423626 -0.011898905 -0.05838179 0.060131144
0.13312745 0.07174767 0.12530051 0.06544736 -0.008885428 -0.0014011245 -0.076400734 0.09433969
0.0031564655 -0.037201762 -0.108529195 -0.08558749 0.06842091 0.017829945 -0.16158552 0.06746375
0.10552596 0.038544517 -0.1269433 0.13770995 -0.1990415 0.028325165 -0.09577907 0.029058233
0.07092236 0.15017325 -0.139062 -0.12847407 0.1889187 -0.032517422 0.01035647 -0.09447873
0.13732843 -0.012148296 0.1447372 0.088270366 0.036116995 -0.09218973 0.04990122 0.14611182
-0.014334925 -0.08141054 0.059065677 0.024899537 0.0042788363 -0.00038465805 -0.19139919 0.12545665
0.11068128 -0.104899704 -0.08928838 -0.0026331488 -0.10078313 -0.01399397 -0.04393274 -0.12491601
0.06700661 -0.047272533 0.061724253 -0.11927073 0.027692577 -0.04609103 -0.13579158 0.124917075
-0.05860574 0.055203218 0.07865807 -0.06624763 0.015777828 -0.116723 0.15090036 0.1102011
00000000: f870 64bd 9740 263e 3cf5 35be 1cf7 14be
00000010: 2036 5abd 88e8 e6bd a906 47bd b00a 9cbd
00000020: e2b8 16be d315 d2bd 2f1f 943b 293f 66bd
00000030: 3b8e c43d d398 58bd ba42 bc3d 7a76 cfbd
00000040: 9329 d0bd 9f02 16bd 1f61 04bd c898 05be
00000050: 9311 0dbe 0e63 bbbd b603 57be 315a 44bd
00000060: f563 463c 016b 3fbe 5185 0bbe 3699 233d
00000070: e391 52be 752b 473e 180e c8bd 6867 9ebd
00000080: 816a 00be fc96 133e a493 11bd de45 9abd
00000090: bbea 613d 3789 a33d 64f4 32be bf62 fb3d
000000a0: f783 283e f693 2d3e 8256 d53c 3e53 0a3e
000000b0: b10a 2fbd 1f5a b53d 6c51 183d a2fa f3bd
000000c0: 3a0d 48be 7d6c 953d a107 883d 2ab1 6ebc
000000d0: 889d cdbd 216f a73d ee14 23be a743 6abd
000000e0: 9ab9 15be 2acd 083d 7696 fcbd 14e1 07bd
000000f0: 0084 c3bd efb9 97bd 9681 17be a5ab 88bd
00000100: 8fd2 0e3e 8fc2 f23b 1eb4 44be abcc d93d
00000110: 35d9 bdbd 8e52 0bbe 0891 723d de09 23be
00000120: 2ecf d6bd a971 75bd 1247 d93b caf8 bcbd
00000130: 9335 363e 3517 6e3d 2418 06be 1130 91bd
00000140: 5b77 44be e94c 78bd 55b2 1a3d 8dd1 93bd
00000150: ff14 0c3e 3693 23ba c9a0 f6bc 4953 cdbd
00000160: 013e 0a3e 0a77 1abe 55c7 083d 8ed8 a9bd
00000170: cb5a 1b3c 8dbf d43b dfe5 253e dffc 183e
00000180: 9966 663c 96bc 3a3d 1c07 48be 5303 acbd
00000190: 3bb2 ac3d 4170 b13d 8c04 ef3d d0e6 88bc
000001a0: 772c a33d 4120 0a3e f9a3 32be d60c d33c
000001b0: ad8d 81bd 6a55 20be 956a 0dbd 8230 673d
000001c0: 14da 023e e8ae 913d 0c66 703d be58 5ebd
000001d0: bd44 2c3e 169c 6b3c 43f7 49be bf48 b93c
000001e0: e528 c4bd 01bc 283d cba9 eebd a7c3 63bd
000001f0: b584 58be 2022 3b3d a804 bfbd e6ed 513d
00000200: 0e4c df3d 922e ff3d 14ec 863d f5b0 7fbd
00000210: 7e8a 633d 9975 97bd 8a02 31be 939f 143e
00000220: 8030 98bd efd9 0abd 2f71 393e 3551 873d
00000230: 6ad9 663e 1ec3 fa3a 7c9b 3dbe f755 cabc
00000240: e487 eebc 856f 0d3d 8107 b2bc 63d7 25be
00000250: e065 3e3e e2b6 83bd 28c1 943d dd56 bd3d
00000260: 99dc 69bd 032e e43c 355b 50bd 3f53 8ebd
00000270: 04f2 6cbc 5da8 ea3d 98ad 153d 935b 953d
00000280: 3a9e 06be 08b3 05be e938 9fbd ee3a d33c
00000290: c211 173d 84e1 a83c 012b f0bd d599 413d
000002a0: 4511 c6bd e30b dc3c 3282 043d 233a 7e3b
000002b0: 5521 223e 3014 df3d 3e5c 063e 20b2 db3c
000002c0: 6194 e43d a0c9 20be 48f9 1ebe 7b44 2c3d
000002d0: f1fe c03d a0f3 42bc be21 6fbd 134c 763d
000002e0: 9052 083e 71f0 923d c74e 003e 4409 863d
000002f0: 3094 11bc f0a5 b7ba fd77 9cbd 2b35 c13d
00000300: b4dc 4e3b e060 18bd 8e44 debd 7e48 afbd
00000310: 4320 8c3d 1b10 923c ad76 25be 6f2a 8a3d
00000320: ff1d d83d dbe0 1d3d 6dfd 01be d603 0d3e
00000330: 89d1 4bbe 2d0a e83c d127 c4bd 880b ee3c
00000340: be3f 913d 04c7 193e 4566 0ebe b58e 03be
00000350: e773 413e fd30 05bd 2fae 293c 107e c1bd
00000360: d39f 0c3e a609 47bc fd35 143e 18c7 b43d
00000370: 6aef 133d f8cd bcbd 3965 4c3d 569e 153e
00000380: 09dd 6abc 92ba a6bd daee 713d 1dfa cb3c
00000390: 7b35 8c3b eeab c9b9 26fe 43be b577 003e
000003a0: deac e23d a8d5 d6bd d4dc b6bd e890 2cbb
000003b0: 6367 cebd f746 65bc d1f2 33bd f7d3 ffbd
000003c0: c33a 893d d8a0 41bd 92d2 7c3d 3644 f4bd
000003d0: 8bdb e23c f3c9 3cbd f30c 0bbe 86d4 ff3d
000003e0: 930c 70bd c51c 623d 7b17 a13d d6ac 87bd
000003f0: 8140 813c 780c efbd a085 1a3e 1db1 e13d

bias f4 [128]
-0.2614093 -0.20923999 0.2632227 0.43768153 -0.38423228 0.5745364 0.12755562 0.3119185
0.29638478 -0.24924116 -0.35208791 -0.2793827 -0.1805151 -0.49770996 0.55547154 -0.35285527
0.22564214 -0.51714367 -0.4745016 -0.47789547 0.34097865 -0.35623914 0.48328465 0.119688354
0.4018179 -0.47359213 0.13317794 0.36950484 -0.5803342 0.54790324 0.67947954 -0.6331369
0.29564625 -0.2936742 -0.5666801 0.60626894 -0.439031 0.25437587 -0.5252375 -0.4068637
-0.041217055 0.12348397 -0.07150504 0.030584369 -0.38036355 0.4005005 0.32546556 -0.31818405
-0.37580726 -0.0020058 -0.59073126 0.14042707 0.37733245 -0.10280753 -0.25936407 -0.030720057
0.16185583 -0.3062571 -0.61345166 0.23380247 -0.18621992 -0.32239348 0.14305541 -0.64627284
0.33631986 -0.013513209 -0.49043748 -0.18652984 0.18024097 -0.19622312 0.1800607 0.102829725
0.5862488 0.5082935 -0.15428078 0.43450418 0.5639785 -0.5235752 0.29452896 -0.23469476
0.41921952 -0.3218808 -0.44694206 -0.5491067 -0.107712634 0.45336673 -0.40793166 0.073296875
0.09039195 0.46012384 -0.6146533 -0.3263879 -0.44611388 0.46254662 0.21757013 -0.22086321
0.37883395 0.20979598 0.3326845 -0.48021263 0.55058736 -0.35405052 -0.62179303 0.26713422
-0.49220213 -0.17111796 0.18774642 0.4474519 -0.08018352 0.5557537 -0.27831975 -0.13814586
0.11177025 -0.33729625 -0.019856157 0.1377087 0.4325881 0.049116958 -0.53989077 0.57556844
0.027550006 -0.22870389 -0.16034114 0.0041043563 0.196391 -0.503725 -0.5625737 -0.3562827
00000000: 71d7 85be 0243 56be 20c5 863e cb17 e03e
00000010: 18ba c4be d114 133f f19d 023e c8b3 9f3e
00000020: bfbf 973e 1339 7fbe de44 b4be 400b 8fbe
00000030: f3d8 38be d7d3 febe 6233 0e3f 72a9 b4be
00000040: bc0e 673e 8763 04bf e0f1 f2be b7ae f4be
00000050: c194 ae3e fa64 b6be 1671 f73e 2b1f f53d
00000060: 13bb cd3e ab7a f2be cc5f 083e bd2f bd3e
00000070: c890 14bf 6343 0c3f 5ff2 2d3f 4315 22bf
00000080: f25e 973e 775c 96be f211 11bf 7134 1b3f
00000090: acc8 e0be 8e3d 823e f775 06bf 7050 d0be
000000a0: 37d3 28bd 2ae5 fc3d 3c71 92bd 128c fa3c
000000b0: 03bf c2be 670e cd3e 6ca3 a63e 05e9 a2be
000000c0: cf69 c0be bd73 03bb 2a3a 17bf 1dcc 0f3e
000000d0: b831 c13e c18c d2bd 5ecb 84be a1a8 fbbc
000000e0: 89bd 253e bbcd 9cbe 2b0b 1dbf ea69 6f3e
000000f0: 6fb0 3ebe c210 a5be 1e7d 123e 2372 25bf
00000100: 1e32 ac3e 8266 5dbc 9f1a fbbe ae01 3fbe
00000110: 1791 383e b7ee 48be d561 383e 6498 d23d
00000120: 6714 163f 861f 023f c8fb 1dbe 5577 de3e
00000130: e560 103f 0609 06bf 80cc 963e d353 70be
00000140: f1a3 d63e 8fcd a4be 97d5 e4be 4292 0cbf
00000150: 7198 dcbd af1f e83e 6bdc d0be ac1c 963d
00000160: 6a1f b93d 5a95 eb3e eb59 1dbf 511c a7be
00000170: 0a69 e4be e9d2 ec3e b4ca 5e3e f729 62be
00000180: 86f6 c13e c2d4 563e 9f55 aa3e 6ede f5be
00000190: 4bf3 0c3f 1c46 b5be d42d 1fbf d1c5 883e
000001a0: eb01 fcbe 8c39 2fbe 9940 403e 6a18 e53e
000001b0: 4237 a4bd e045 0e3f ed7f 8ebe 1c76 0dbe
000001c0: cde7 e43d 18b2 acbe 61a9 a2bc 8203 0d3e
000001d0: 307c dd3e dd2e 493d 4836 0abf 7458 133f
000001e0: 8db0 e13c 5a31 6abe 7830 24be d67d 863b
000001f0: b91a 493e 1ff4 00bf d404 10bf b06a b6be

weight f4 [128]
0.9361003 0.6319608 0.92818683 0.7862716 0.8190096 0.87309337 0.73526525 0.78334945
0.8131013 0.9116227 0.89467824 0.93571895 0.7918989 0.8689022 0.9285051 0.87819475
0.57095987 0.86548126 0.82813287 0.9173169 0.8935565 0.89417833 0.91990006 0.8971189
0.7923852 0.818713 0.85589635 0.84493893 0.8623293 0.8377504 0.9232128 0.8165183
0.8700225 0.56758016 0.8802224 0.86569995 0.82935 0.700149 0.90805995 0.7567433
0.83867335 0.84415793 0.8681488 0.8255119 0.8711189 0.847808 0.8768706 0.77252734
0.69544363 0.5074129 0.83266205 0.8558099 0.8790195 0.8501536 0.8503655 0.737752
0.7996522 0.87187815 0.93622214 0.75135714 0.86606604 0.7395846 0.8542281 0.9216092
0.8528523 0.8240371 0.82876986 0.860975 0.83536553 0.8400504 0.91555214 0.8421485
0.8967885 0.89790064 0.7783439 0.84946924 0.7461185 0.87309724 0.8899616 0.79375523
0.93296266 0.94298166 0.75238305 0.91860056 0.80101466 0.91750157 0.67446816 0.73687017
0.6793185 0.85690975 0.8568249 0.67340297 0.8073104 0.9143737 0.7560712 0.74395925
0.90121794 0.9172953 0.7931574 0.93005633 0.64182216 0.76225764 0.866881 0.7822489
0.7465546 0.8278322 0.61081904 0.82887137 0.8368783 0.8351324 0.8243752 0.8526128
0.8667841 0.8960142 0.7050504 0.8191074 0.7481038 0.91375905 0.910958 0.7081226
0.638336 0.84887415 0.8361768 0.9167368 0.7906417 0.9204108 0.95158744 0.83181727
00000000: 45a4 6f3f 2fc8 213f a79d 6d3f 1849 493f
00000010: 9daa 513f 0c83 5f3f 583a 3c3f 9789 483f
00000020: 6827 503f 1b60 693f a209 653f 478b 6f3f
00000030: e3b9 4a3f 6070 5e3f 83b2 6d3f 5fd1 603f
00000040: 6d2a 123f 2e90 5d3f 8400 543f 48d5 6a3f
00000050: 1ec0 643f dfe8 643f 927e 6b3f 96a9 653f
00000060: c2d9 4a3f 2d97 513f 061c 5b3f eb4d 583f
00000070: 9dc1 5c3f cf76 563f ad57 6c3f 5807 513f
00000080: cbb9 5e3f ef4c 113f 4156 613f 839e 5d3f
00000090: 4850 543f f73c 333f 9e76 683f eeb9 413f
000000a0: 4cb3 563f bc1a 583f 003f 5e3f bf54 533f
000000b0: a601 5f3f f209 593f 977a 603f 5ac4 453f
000000c0: 9808 323f d0e5 013f 5729 553f 5c16 5b3f
000000d0: 6c07 613f aba3 593f 8eb1 593f 51dd 3c3f
000000e0: 02b6 4c3f 6833 5f3f 41ac 6f3f f158 403f
000000f0: 81b6 5d3f 6b55 3d3f b1ae 5a3f 95ee 6b3f
00000100: 8754 5a3f 18f4 523f 432a 543f dc68 5c3f
00000110: 84da 553f 8b0d 573f a061 6a3f 0b97 573f
00000120: ee93 653f d1dc 653f 8c41 473f d176 593f
00000130: 9f01 3f3f 4d83 5f3f 86d4 633f 8b33 4b3f
00000140: a4d6 6e3f 3f67 713f 2d9c 403f 6829 6b3f
00000150: 4c0f 4d3f 62e1 6a3f f2a9 2c3f 86a3 3c3f
00000160: d1e7 2d3f 705e 5b3f e058 5b3f 2364 2c3f
00000170: e5ab 4e3f 6514 6a3f e28d 413f 1d74 3e3f
00000180: 38b6 663f ddd3 6a3f 5d0c 4b3f 2c18 6e3f
00000190: 754e 243f 5123 433f eaeb 5d3f 7741 483f
000001a0: 341e 3f3f d0ec 533f a35e 1c3f ea30 543f
000001b0: a83d 563f 3dcb 553f 410a 533f d544 5a3f
000001c0: 90e5 5d3f 3061 653f 2f7e 343f 06b1 513f
000001d0: bb83 3f3f 1dec 693f 8b34 693f 8647 353f
000001e0: fd69 233f d14f 593f af0f 563f 43af 6a3f
000001f0: 7f67 4a3f 0ba0 6b3f 3c9b 733f faf1 543f
