data/train_data/classification/transformer/1d/td_best_model_1d.pt (torch, 242352 bytes, 29 tensors)

att_weights f4 [4]
0.99686146 0.99688154 1.0019507 0.9973119
00000000: 5032 7f3f a133 7f3f ec3f 803f d54f 7f3f

weight f4 [48, 4]
-0.011844811 0.2380643 -0.21101049 0.32784846 -0.038173884 -0.05190028 -0.30797553 -0.094243765
-0.1698679 0.20438926 0.071528375 0.10330702 0.15802287 0.2091194 0.043086078 0.25179645
0.22703883 -0.006399991 0.23495589 -0.30296528 0.2781297 0.10481626 -0.13164979 -0.25723812
-0.25479695 -0.12991413 0.3298938 0.081757836 0.28255144 0.30521607 -0.10414627 0.29628253
-0.03968841 0.086252905 -0.14788567 -0.026722765 0.24022722 0.20699102 0.14768988 0.25280908
0.09121361 0.186354 -0.015624861 -0.14014816 0.08928204 0.047691155 0.04449136 0.03436231
0.17923802 0.05204223 0.1585638 -0.10970717 -0.32450345 -0.31768167 0.010533427 0.16524549
-0.24348879 0.27531737 0.04600907 -0.17630976 -0.026659785 0.061742567 0.24295641 0.29329193
0.25694472 0.16042043 0.2557355 -0.07698687 -0.24069247 -0.06157858 -0.2920803 0.27921408
0.26858622 -0.041252814 0.2823525 -0.2097238 -0.26768392 -0.26898885 -0.24668773 -0.27532795
0.19677146 -0.2637308 -0.32724565 -0.028672695 0.19065045 -0.14988792 0.15728548 -0.09934188
0.29405135 0.012689432 -0.15833013 0.17338884 -0.11658339 0.30090755 -0.06721928 0.33631214
0.14748567 -0.050166 0.17253403 -0.11237097 0.1596222 0.17147073 -0.33233717 0.15367024
0.23730825 -0.014243961 -0.13004759 -0.078476116 -0.03962247 -0.12574881 0.09540218 -0.023597032
-0.13211179 -0.010372292 -0.24787727 -0.315416 -0.013771844 0.33187973 -0.19343513 -0.04853574
-0.18529353 0.26677588 -0.09790828 0.2878026 0.16329882 0.33587968 -0.14052431 0.1451586
-0.2609457 0.31865606 0.033873815 0.26588604 -0.098837286 -0.17063709 0.026955016 0.18694165
-0.21805196 -0.2814756 -0.18896575 -0.21927382 0.08999563 -0.33242986 -0.18485735 0.028627316
0.28087944 0.122838095 -0.15787104 0.2571939 0.043503087 -0.120777555 -0.23426452 -0.04678401
0.29159787 0.08326803 -0.15491429 0.12833731 -0.10761353 -0.2865793 -0.118809424 0.13536474
-0.26044822 -0.2852815 0.026883116 -0.08446606 0.0929533 0.13809232 -0.088873446 0.17242186
-0.23756106 -0.09230143 -0.2229118 0.003003159 -0.1279307 0.063044764 0.29284278 -0.120344035
-0.17115068 -0.051042426 0.22629572 0.106013276 0.17419423 -0.06344257 0.16056982 -0.26037028
-0.12912764 0.23366636 0.15565224 0.30366746 0.2588995 -0.28220564 0.21682434 -0.27429292
00000000: bd10 42bc 21c7 733e 2213 58be c1db a73e
00000010: 385c 1cbd 6395 54bd f8ae 9dbe e002 c1bd
00000020: daf1 2dbe 6b4b 513e 787d 923d a292 d33d
00000030: bfd0 213e 6523 563e 077b 303d 77eb 803e
00000040: de7c 683e 04b7 d1bb 4798 703e 441e 9bbe
00000050: 0467 8e3e e8a9 d63d 34cf 06be b7b4 83be
00000060: bf74 82be 3608 05be d7e7 a83e a770 a73d
00000070: 95aa 903e 4845 9c3e a44a d5bd 58b2 973e
00000080: 5090 22bd 5da5 b03d 576f 17be b3e9 dabc
00000090: 20fe 753e 74f5 533e 043c 173e 3170 813e
000000a0: 33ce ba3d 95d3 3e3e 6bff 7fbc 0083 0fbe
000000b0: 81d9 b63d cd57 433d 933c 363d 7ebf 0c3d
000000c0: 2c8a 373e 3c2a 553d 8c5e 223e 27ae e0bd
000000d0: 5125 a6be 2ca7 a2be 6594 2c3c 1d36 293e
000000e0: 2055 79be 66f6 8c3e 0274 3c3d 8c8a 34be
000000f0: 9f65 dabc c6e5 7c3d 91c9 783e 5c2a 963e
00000100: 428e 833e 4145 243e c3ef 823e 4bab 9dbd
00000110: 1678 76be d239 7cbd 8d8b 95be 26f5 8e3e
00000120: 2284 893e b6f8 28bd 8290 903e d6c1 56be
00000130: de0d 89be e8b8 89be b59b 7cbe c9f7 8cbe
00000140: 757e 493e b907 87be be8c a7be 00e3 eabc
00000150: df39 433e 387c 19be 720f 213e c173 cbbd
00000160: e68d 963e 56e7 4f3c 4b21 22be d88c 313e
00000170: 46c3 eebd 8e10 9a3e 43aa 89bd 1b31 ac3e
00000180: 7c06 173e dd7a 4dbd c3ac 303e c022 e6bd
00000190: 0174 233e 0696 2f3e 1928 aabe bb5b 1d3e
000001a0: ef00 733e 815f 69bc 322b 05be 16b8 a0bd
000001b0: 2c4b 22bd 4cc4 00be 3862 c33d 904e c1bc
000001c0: 5048 07be 8cf0 29bc 8ad3 7dbe 357e a1be
000001d0: 4da3 61bc 24ec a93e dc13 46be 69cd 46bd
000001e0: 96bd 3dbe d996 883e 2384 c8bd dd5a 933e
000001f0: ce37 273e 6cf8 ab3e 9be5 0fbe 75a4 143e
00000200: ad9a 85be e326 a33e 45bf 0a3d 3722 883e
00000210: 346b cabd 7dbb 2ebe c4d0 dc3c a26d 3f3e
00000220: 0349 5fbe 921d 90be 3d80 41be 5189 60be
00000230: a14f b83d 3f34 aabe 3f4b 3dbe d583 ea3c
00000240: 6ecf 8f3e 8a92 fb3d f2a8 21be ebae 833e
00000250: 4b30 323d 395a f7bd 0ae3 6fbe 97a0 3fbd
00000260: 514c 953e 6e88 aa3d daa1 1ebe db6a 033e
00000270: 7b64 dcbd 86ba 92be 5b52 f3bd 0e9d 0a3e
00000280: 7859 85be 6b10 92be fb39 dc3c 8bfc acbd
00000290: 4d5e be3d 1368 0d3e 4803 b6bd 5b8f 303e
000002a0: 3543 73be 8808 bdbd fe42 64be a6d0 443b
000002b0: 4400 03be 9d1d 813d 7def 953e ef76 f6bd
000002c0: 2042 2fbe dd11 51bd 11ba 673e 7d1d d93d
000002d0: f95f 323e 2eee 81bd 6a6c 243e 414f 85be
000002e0: 093a 04be 3c46 6f3e 4d63 1f3e 4d7a 9b3e
000002f0: 7a8e 843e 427d 90be 3307 5e3e 1f70 8cbe

bias f4 [48]
-0.1585317 0.011221404 0.49240443 0.14634271 -0.18545812 -0.11333712 0.130123 0.1633278
-0.18982269 0.1560099 -0.33973843 0.44972843 0.089199565 -0.10944237 -0.042373672 0.4602515
-0.1211946 0.020814152 -0.2656801 0.280093 0.291347 -0.17146777 -0.10230016 -0.18197373
0.30535012 -0.11250505 0.25417 -0.3081661 -0.4689776 -0.2864291 -0.13147612 -0.37832037
0.43206903 0.2319979 0.45240805 -0.38793388 0.3791707 -0.1477726 0.40246907 -0.15372695
-0.3560695 -0.44206682 -0.40718147 0.25417355 -0.33645895 -0.4157894 0.49217921 -0.22216547
00000000: 2256 22be fbd9 373c 6f1c fc3e ddda 153e
00000010: bce8 3dbe 4b1d e8bd f73e 053e 673f 273e
00000020: e160 42be 0fc1 1f3e 32f2 adbe ce42 e63e
00000030: 43ae b63d 5223 e0bd 0490 2dbd 16a6 eb3e
00000040: e034 f8bd 7182 aa3c 3907 88be 5a68 8f3e
00000050: 6f2b 953e 3f95 2fbe bf82 d1bd 5257 3abe
00000060: da56 9c3e 0c69 e6bd 9222 823e f2c7 9dbe
00000070: d51d f0be d6a6 92be ada1 06be 35b3 c1be
00000080: 2738 dd3e dc90 6d3e 07a2 e73e 459f c6be
00000090: a922 c23e b351 17be 6d10 ce3e 996a 1dbe
000000a0: be4e b6be 9556 e2be 177a d0be 0923 823e
000000b0: 5944 acbe 59e2 d4be eafe fb3e 587f 63be

weight f4 [48, 1]
-0.105719574 -0.014068251 0.050946455 -0.11210481 0.23953983 0.25873956 0.19641262 -0.20213826
0.0013232823 0.20194669 -0.25317296 -0.18668813 0.16457894 -0.14572042 0.13714331 -0.14320374
-0.3319816 0.21599397 0.110445894 0.14782625 -0.23104377 0.22654845 0.23809034 0.17449796
-0.07741516 -0.29262 -0.2119433 0.0067215296 -0.0011810017 0.04736248 -0.07246348 -0.3213926
-0.10070672 0.21952622 -0.33175075 0.1990755 -0.19497326 0.21208213 -0.16729684 -0.12811817
-0.24171889 -0.004148879 0.09294096 0.18989103 -0.18704878 -0.3194581 0.16860713 0.29546687
00000000: 8183 d8bd 857e 66bc 3bad 503d 3597 e5bd
00000010: ee49 753e 8379 843e 6420 493e 55fd 4ebe
00000020: fc71 ad3a 1dcb 4e3e e39f 81be 2c2b 3fbe
00000030: 6287 283e bc37 15be 4c6f 0c3e 00a4 12be
00000040: 7ef9 a9be 862d 5d3e 7531 e23d c45f 173e
00000050: bd96 6cbe 51fc 673e f4cd 733e 98af 323e
00000060: d78b 9ebd 4ad2 95be aa07 59be 4740 dc3b
00000070: d7cb 9aba 29ff 413d bc67 94bd 928d a4be
00000080: 533f cebd 7bcb 603e 3cdb a9be 73da 4b3e
00000090: 12a7 47be 0f2c 593e dd4f 2bbe 6931 03be
000000a0: 2885 77be 52f3 87bb d457 be3d cb72 423e
000000b0: b789 3fbe 0390 a3be 59a7 2c3e 6f47 973e

bias f4 [48]
0.0030398578 0.32127756 -0.6120697 -0.24220443 0.0021082177 0.24969487 0.6367303 -0.4720429
0.915444 0.39590648 -0.23030452 0.9477827 0.092871994 -0.31089967 -0.21905804 0.40207666
0.3393216 -0.57288677 0.22349599 -0.36491635 -0.83576626 0.52122164 0.29454765 -0.24285443
-0.20086232 0.38373747 -0.48625165 0.88190335 0.6224808 0.76394457 0.10914775 -0.8241075
-0.26725438 -0.7951849 -0.48358724 0.73481995 0.2797352 0.7942534 0.8620844 0.7988481
-0.46420315 -0.4163764 -0.8154106 -0.504496 0.2701506 0.15700635 -0.24849086 -0.6294617
00000000: 5a38 473b 7e7e a43e 9ab0 1cbf 7004 78be
00000010: 062a 0a3b 03b0 7f3e c200 233f 9baf f1be
00000020: 8a5a 6a3f 41b4 ca3e f3d4 6bbe e3a1 723f
00000030: ac33 be3d 3e2e 9fbe c050 60be fedc cd3e
00000040: 90bb ad3e b5a8 12bf 22dc 643e 51d6 babe
00000050: c7f4 55bf c86e 053f f3ce 963e d5ae 78be
00000060: daae 4dbe 3d79 c43e faf5 f8be 6bc4 613f
00000070: e75a 1f3f df91 433f db88 df3d b6f8 52bf
00000080: 91d5 88be 3d91 4bbf bf98 f7be 291d 3c3f
00000090: 7439 8f3e 3154 4b3f 90b1 5c3f 4f81 4c3f
000000a0: 09ac edbe 4a2f d5be c0be 50bf a626 01bf
000000b0: 2e51 8a3e 46c6 203e 6374 7ebe 6724 21bf

weight f4 [48, 1]
0.04376768 -0.22544011 0.30907005 -0.13064903 0.32376763 0.18311149 -0.2615535 -0.002824442
-0.14892128 0.32159662 -0.3165711 -0.34518516 0.03781055 0.0109727625 -0.07984132 0.25891718
-0.2962667 0.101609096 -0.21675035 -0.112952754 0.17781785 -0.16188857 0.2963503 0.15642893
-0.17725638 -0.300177 0.3376209 -0.10909102 -0.24881807 0.14549847 -0.34708667 0.22314708
0.34323707 0.29995638 -0.28012016 0.13710138 0.06347941 0.27890402 0.3268497 -0.015375854
-0.04534133 0.17576595 0.03391568 -0.11533652 0.16912608 -0.12328303 -0.15978968 -0.18940984
00000000: bd45 333d c6d9 66be 6e3e 9e3e dcc8 05be
00000010: dfc4 a53e 9481 3b3e 57ea 85be 461a 39bb
00000020: d27e 18be 50a8 a43e 9b15 a2be 1cbc b0be
00000030: 3cdf 1a3d 1ac7 333c d983 a3bd cb90 843e
00000040: 45b0 97be 6e18 d03d cef3 5dbe c653 e7bd
00000050: e215 363e 1ec6 25be 3abb 973e e82e 203e
00000060: b282 35be cdb0 99be a6dc ac3e 1d6b dfbd
00000070: 2aca 7ebe 8dfd 143e 58b5 b1be ab80 643e
00000080: c5bc af3e e293 993e e96b 8fbe 4e64 0c3e
00000090: 7e01 823d 82cc 8e3e d858 a73e 02eb 7bbc
000000a0: d5b7 39bd fdfb 333e 2beb 0a3d 8e35 ecbd
000000b0: 632f 2d3e d07b fcbd e89f 23be a7f4 41be

bias f4 [48]
0.14687179 0.9975655 0.6346334 -0.6601093 -0.9538299 0.29260084 0.3402973 0.4710008
-0.00084835093 -0.29286063 0.18026328 -0.3600936 0.6033737 -0.46403465 -0.57728046 0.094587676
-0.62977856 -0.796468 0.80838984 -0.5787205 0.9326692 0.2550279 -0.27217376 0.41882822
-0.03479726 0.011355613 -0.85833347 0.9618241 -0.08013484 0.41455564 -0.64845675 -0.2505917
0.7156982 -0.083460465 0.774432 0.8379327 0.5811 0.16493987 -0.95002407 -0.3445181
0.74491775 0.2502116 0.67137784 0.80311 0.1906626 0.558435 -0.56661433 -0.5360792
00000000: 8f65 163e 7460 7f3f 5677 223f ecfc 28bf
00000010: 322e 74bf c7cf 953e 733b ae3e 0427 f13e
00000020: de63 5eba d4f1 95be f096 383e 305e b8be
00000030: b376 1a3f f395 edbe a7c8 13bf 2fb7 c13d
00000040: 2b39 21bf 54e5 4bbf a3f2 4e3f 0727 14bf
00000050: 69c3 6e3f 0493 823e 5c5a 8bbe a770 d63e
00000060: 9287 0ebd e50c 3a3c bebb 5bbf 1b3a 763f
00000070: bc1d a4bd a340 d43e 4301 26bf 8e4d 80be
00000080: ff37 373f 52ed aabd 2d41 463f c282 563f
00000090: f8c2 143f ffe5 283e c734 73bf ad64 b0be
000000a0: eeb2 3e3f bc1b 803e 6bdf 2b3f 9e98 4d3f
000000b0: 0e3d 433e 99f5 0e3f a30d 11bf 7d3c 09bf

weight f4 [48, 1]
-0.14299212 -0.12883158 -0.21815617 -0.077097826 0.12334879 0.15719569 0.14376613 -0.12345367
-0.08115278 -0.13340813 0.07054605 0.16607186 -0.14775577 0.29817587 0.26237494 0.13338132
0.117115274 -0.32282895 -0.23097007 -0.054693136 -0.23191392 -0.19477172 -0.016519206 -0.0008369495
-0.11589929 0.27853963 -0.099197544 -0.17372362 0.3125818 -0.15229407 -0.11824638 0.34648147
-0.07217721 -0.22673413 0.24772744 -0.03854484 0.26953572 0.058398284 0.16988826 0.09476774
0.11692039 0.040233795 0.05125103 -0.03461128 0.1906578 -0.101719335 -0.19614689 -0.31317553
00000000: 876c 12be 6dec 03be 5564 5fbe 77e5 9dbd
00000010: 4a9e fc3d e8f7 203e 6e37 133e 47d5 fcbd
00000020: 6e33 a6bd 249c 08be 737a 903d be0e 2a3e
00000030: 4a4d 17be 82aa 983e 0256 863e 1d95 083e
00000040: 22da ef3d d649 a5be 6b83 6cbe e905 60bd
00000050: d87a 6dbe 3d72 47be 4953 87bc bb66 5bba
00000060: 9b5c edbd bf9c 8e3e 1528 cbbd 9be4 31be
00000070: b90a a03e faf2 1bbe 282b f2bd 0566 b13e
00000080: a5d1 93bd fe2c 68be 43ac 7d3e 32e1 1dbd
00000090: 9600 8a3e 0a33 6f3d 30f7 2d3e 9715 c23d
000000a0: f573 ef3d 31cc 243d 9aec 513d 8fc4 0dbd
000000b0: cc3b 433e 3a52 d0bd bbda 48be 8b58 a0be

bias f4 [48]
-0.86491984 -0.90506923 0.21041511 -0.5617242 0.5052677 0.8757663 0.3099537 -0.83342195
-0.462856 -0.4636732 0.5001323 -0.1824287 -0.30830935 0.07169221 -0.86346734 0.268701
-0.6527898 -0.7028743 -0.65772104 -0.20738506 0.40689594 0.12592691 0.3404414 0.5682963
0.30649748 0.17388801 -0.16202725 0.64658034 0.90030366 -0.1830122 -0.6531079 -0.96543807
-0.51170623 -0.21913789 -0.45385092 -0.1282415 0.5214325 -0.063533284 0.07257953 0.033426914
-0.15941113 0.5848518 0.114083976 0.8102925 0.9574444 -0.91966176 0.92120504 -0.36256745
00000000: 636b 5dbf 9eb2 67bf 0f77 573e 28cd 0fbf
00000010: 3959 013f 3832 603f 40b2 9e3e 245b 55bf
00000020: 76fb ecbe 9366 edbe ac08 003f 97ce 3abe
00000030: b9da 9dbe 5ed3 923d 320c 5dbf 2d93 893e
00000040: 3b1d 27bf 92ef 33bf 6860 28bf c05c 54be
00000050: aa54 d03e fcf2 003e 564e ae3e de7b 113f
00000060: 3ded 9c3e b30f 323e 79ea 25be 4a86 253f
00000070: 4d7a 663f 8d67 3bbe 1432 27bf f326 77bf
00000080: 2eff 02bf af65 60be 265f e8be bd51 03be
00000090: 9a7c 053f bd1d 82bd 94a4 943d a9ea 083d
000000a0: ac3c 23be d9b8 153f dca4 e93d 546f 4f3f
000000b0: 141b 753f f46e 6bbf 18d4 6b3f 71a2 b9be

weight f4 [48]
0.9984519 0.9982853 0.9984486 0.9968794 0.9983508 0.9986143 0.9985128 0.9974731
0.9985277 0.9975263 0.9987477 0.99847317 0.9980636 0.99836725 0.99641925 0.997898
0.998316 0.9993313 0.9983735 0.99850386 0.99937576 0.99823177 0.9982825 0.9982246
0.99825794 0.99837303 0.99654084 0.9989909 0.99806094 0.9982249 0.99988073 0.9957101
0.9982356 0.9979199 0.9972392 1.0009165 0.99955654 0.99920887 0.9982821 0.9975289
0.9980982 0.9986231 0.9983562 0.9973924 0.9976906 0.9976923 0.99848855 0.9976449
00000000: 8b9a 7f3f a08f 7f3f 549a 7f3f 7d33 7f3f
00000010: eb93 7f3f 30a5 7f3f 899e 7f3f 665a 7f3f
00000020: 839f 7f3f e25d 7f3f eead 7f3f f09b 7f3f
00000030: 1981 7f3f ff94 7f3f 5515 7f3f 3e76 7f3f
00000040: a391 7f3f 2dd4 7f3f 6895 7f3f f39d 7f3f
00000050: 17d7 7f3f 1e8c 7f3f 718f 7f3f a68b 7f3f
00000060: d58d 7f3f 6095 7f3f 4d1d 7f3f debd 7f3f
00000070: ec80 7f3f ab8b 7f3f 2ff8 7f3f dbe6 7e3f
00000080: 5e8c 7f3f ae77 7f3f 114b 7f3f 081e 803f
00000090: f0e2 7f3f 27cc 7f3f 6a8f 7f3f 0e5e 7f3f
000000a0: 5d83 7f3f c3a5 7f3f 4694 7f3f 1c55 7f3f
000000b0: a768 7f3f c368 7f3f f29c 7f3f a865 7f3f

bias f4 [48]
-6.0438804e-05 0.00011303424 0.0005270498 0.00085444486 -2.1415419e-05 0.00031155912 0.00019517055 0.0005417422
0.00082861 0.0009774016 -0.0003744465 0.00067292125 -0.00027879435 -0.0008100911 0.0011795467 -0.00050397497
2.3468638e-06 -0.0010316168 -0.0005007601 -0.00066966744 0.0013398563 0.00018244157 -0.00059134036 0.000776766
0.00054499356 0.0008742767 0.0015135474 0.0005238111 -6.848725e-05 -6.798185e-05 -0.0011115243 0.00090549805
0.00080778677 0.0006105414 -0.0009583167 0.0018326808 0.0019958094 0.0006827668 -0.0011123322 -0.0013605574
-2.8143117e-05 -0.0010311214 0.0012570112 -0.00076691783 -0.00043954595 0.0012110466 0.001198193 0.0005174769
00000000: ac7f 7db8 cc0c ed38 b729 0a3a d3fc 5f3a
00000010: 43a5 b3b7 c258 a339 b2a6 4c39 b403 0e3a
00000020: 1337 593a 281c 803a 5c51 c4b9 fb66 303a
00000030: 252b 92b9 4b5c 54ba 059b 9a3a 301d 04ba
00000040: d07e 1d36 5137 87ba 7145 03ba 9f8c 2fba
00000050: 1e9e af3a c94d 3f39 2e04 1bba e29f 4b3a
00000060: e6dd 0e3a b72f 653a 3962 c63a 5e50 093a
00000070: d0a0 8fb8 7a91 8eb8 91b0 91ba f25e 6d3a
00000080: a7c1 533a bd0c 203a 8c37 7bba 9036 f03a
00000090: 20cc 023b b4fb 323a adcb 91ba bb54 b2ba
000000a0: e214 ecb7 b126 87ba 4cc2 a43a fc0a 49ba
000000b0: dc72 e6b9 fbbb 9e3a af0c 9d3a 49a7 073a

pe f4 [1, 222, 48]
0.0 1.0 0.0 1.0 0.0 1.0 0.0 1.0
0.0 1.0 0.0 1.0 0.0 1.0 0.0 1.0
0.0 1.0 0.0 1.0 0.0 1.0 0.0 1.0
0.0 1.0 0.0 1.0 0.0 1.0 0.0 1.0
0.0 1.0 0.0 1.0 0.0 1.0 0.0 1.0
0.0 1.0 0.0 1.0 0.0 1.0 0.0 1.0
0.84147096 0.54030234 0.62979716 0.7767596 0.44767085 0.8941984 0.3109836 0.9504153
0.21378067 0.9768817 0.14625347 0.98924714 0.099833414 0.9950042 0.06807652 0.99768007
0.04639923 0.99892294 0.031617504 0.99950004 0.021542681 0.9997679 0.014677466 0.9998923
0.009999833 0.99995 0.0068128672 0.9999768 0.0046415734 0.9999892 0.0031622727 0.999995
0.0021544332 0.9999977 0.0014677987 0.9999989 0.0009999998 0.9999995 0.0006812922 0.99999976
0.00046415895 0.9999999 0.00031622782 0.99999994 0.00021544348 1.0 0.00014677992 1.0
0.9092974 -0.41614684 0.978402 0.20671105 0.8006131 0.59918165 0.5911271 0.8065784
0.41767687 0.9085956 0.28936163 0.95721984 0.19866931 0.9800666 0.13583718 0.9907312
0.09269851 0.9956942 0.063203394 0.9980007 0.043075364 0.99907184 0.029351769 0.9995691
0.019998666 0.9998 0.013625418 0.9999072 0.009283047 0.9999569 0.006324514 0.99998003
0.004308856 0.9999907 0.0029355944 0.9999957 0.0019999985 0.99999803 0.0013625841 0.9999991
0.00092831784 0.9999996 0.0006324556 0.9999998 0.00043088695 0.99999994 0.00029355983 0.99999994
0.14112 -0.9899925 0.89016926 -0.45563003 0.98414314 0.17737612 0.8126489 0.58275366
0.60226107 0.7982992 0.42624688 0.9046069 0.2955202 0.9553365 0.20296758 0.97918546
0.1387981 0.9903207 0.094726086 0.99550337 0.06458805 0.997912 0.044019748 0.99903065
0.0299955 0.99955004 0.020437337 0.99979115 0.01392432 0.9999031 0.009486692 0.999955
0.006463259 0.99997914 0.0044033835 0.9999903 0.0029999954 0.9999955 0.0020438754 0.9999979
0.0013924765 0.99999905 0.00094868336 0.9999996 0.00064633036 0.9999998 0.00044033973 0.9999999
-0.7568025 -0.6536436 0.40449303 -0.91454107 0.9594254 -0.28196275 0.95358074 0.30113748
0.75899875 0.6510921 0.5539654 0.8325397 0.38941833 0.921061 0.26915625 0.9630965
0.18459873 0.98281395 0.12615407 0.99201065 0.08607077 0.996289 0.058678247 0.99827695
0.039989334 0.9992001 0.027248306 0.9996287 0.018565293 0.9998276 0.012648775 0.99992
0.008617632 0.99996287 0.0058711637 0.9999828 0.003999989 0.999992 0.0027251658 0.9999963
0.0018566349 0.9999983 0.0012649109 0.9999992 0.0008617738 0.99999964 0.0005871196 0.9999998
-0.9589243 0.2836622 -0.2617815 -0.96512717 0.73169005 -0.68163747 0.99994653 -0.010342338
0.88064283 0.47378072 0.66977054 0.74256814 0.47942552 0.87758255 0.3340961 0.94253904
00000000: 0000 0000 0000 803f 0000 0000 0000 803f
00000010: 0000 0000 0000 803f 0000 0000 0000 803f
00000020: 0000 0000 0000 803f 0000 0000 0000 803f
00000030: 0000 0000 0000 803f 0000 0000 0000 803f
00000040: 0000 0000 0000 803f 0000 0000 0000 803f
00000050: 0000 0000 0000 803f 0000 0000 0000 803f
00000060: 0000 0000 0000 803f 0000 0000 0000 803f
00000070: 0000 0000 0000 803f 0000 0000 0000 803f
00000080: 0000 0000 0000 803f 0000 0000 0000 803f
00000090: 0000 0000 0000 803f 0000 0000 0000 803f
000000a0: 0000 0000 0000 803f 0000 0000 0000 803f
000000b0: 0000 0000 0000 803f 0000 0000 0000 803f
000000c0: a46a 573f 4151 0a3f 633a 213f b8d9 463f
000000d0: 1d35 e53e 30ea 643f 3e39 9f3e 6b4e 733f
000000e0: 52e9 5a3e eb14 7a3f 78c3 153e 4d3f 7d3f
000000f0: 7675 cc3d 98b8 7e3f b46b 8b3d f667 7f3f
00000100: 1e0d 3e3d 6ab9 7f3f 5b81 013d 3cdf 7f3f
00000110: 477a b03c caf0 7f3f c179 703c f1f8 7f3f
00000120: 57d6 233c b9fc 7f3f 793e df3b 7bfe 7f3f
00000130: 5718 983b 4bff 7f3f 223e 4f3b acff 7f3f
00000140: 6431 0d3b d9ff 7f3f 2763 c03a eeff 7f3f
00000150: 6d12 833a f8ff 7f3f bf98 323a fcff 7f3f
00000160: 5c5a f339 feff 7f3f 61cb a539 ffff 7f3f
00000170: abe8 6139 0000 803f efe8 1939 0000 803f
00000180: b7c7 683f 3311 d5be 8e78 7a3f 10ac 533e
00000190: fbf4 4c3f f863 193f 1b54 173f ec7b 4e3f
000001a0: bed9 d53e b999 683f 3527 943e 5c0c 753f
000001b0: f86f 4b3e a5e5 7a3f e718 0b3e 8fa0 7d3f
000001c0: b7d8 bd3d d1e5 7e3f c870 813d f97c 7f3f
000001d0: cb6f 303d 2cc3 7f3f 1f73 f03c c3e3 7f3f
000001e0: 3ed4 a33c e5f2 7f3f 253d 5f3c ebf9 7f3f
000001f0: ec17 183c 2dfd 7f3f de3d cf3b b1fe 7f3f
00000200: 4e31 8d3b 64ff 7f3f 1a63 403b b8ff 7f3f
00000210: 6812 033b dfff 7f3f bc98 b23a f1ff 7f3f
00000220: 5b5a 733a f9ff 7f3f 60cb 253a fdff 7f3f
00000230: abe8 e139 ffff 7f3f efe8 9939 ffff 7f3f
00000240: c381 103e 2670 7dbf 22e2 633f 5748 e9be
00000250: cef0 7b3f 16a2 353e c209 503f 582f 153f
00000260: c82d 1a3f 565d 4c3f 083d da3e 5194 673f
00000270: 6c4e 973e ef90 743f bcd6 4f3e e6ab 7a3f
00000280: 1721 0e3e a885 7d3f c0ff c13d 4fd9 7e3f
00000290: bd46 843d 2977 7f3f 0d4e 343d 79c0 7f3f
000002a0: 1fb9 f53c 83e2 7f3f 346c a73c 50f2 7f3f
000002b0: d522 643c a6f9 7f3f 126e 1b3c 0dfd 7f3f
000002c0: bfc9 d33b a2fe 7f3f 424a 903b 5dff 7f3f
000002d0: 929b 443b b5ff 7f3f 8af2 053b ddff 7f3f
000002e0: c283 b63a f0ff 7f3f 10b1 783a f9ff 7f3f
000002f0: 7f6e 293a fdff 7f3f 66dd e639 feff 7f3f
00000300: cfbd 41bf 3055 27bf b619 cf3e 5d1f 6abf
00000310: e79c 753f 6c5d 90be de1d 743f b12e 9a3e
00000320: be4d 423f f9ad 263f add0 0d3f 5221 553f
00000330: d761 c73e a7ca 6b3f d9ce 893e 7e8d 763f
00000340: 7307 3d3e b299 7b3f 882e 013e 69f4 7d3f
00000350: df45 b03d cc0c 7f3f 9a58 703d 148f 7f3f
00000360: dbcb 233d 94cb 7f3f d737 df3c abe7 7f3f
00000370: 3e16 983c b4f4 7f3f cf3c 4f3c c2fa 7f3f
00000380: f830 0d3c 91fd 7f3f e462 c03b dffe 7f3f
00000390: 5712 833b 7aff 7f3f b298 323b c2ff 7f3f
000003a0: 545a f33a e3ff 7f3f 5ecb a53a f3ff 7f3f
000003b0: a9e8 613a faff 7f3f eee8 193a fdff 7f3f
000003c0: 107c 75bf 2c3c 913e 3a08 86be 9312 77bf
000003d0: 0a50 3b3f cb7f 2ebf 7ffc 7f3f e972 29bc
000003e0: cf71 613f 6393 f23e 1576 2b3f f218 3e3f
000003f0: 4377 f53e 40a9 603f a50e ab3e 3d4a 713f

in_proj_weight f4 [144, 48]
-0.08643728 -0.057039063 0.04908122 -0.1364499 0.16550797 -0.16719578 -0.08776124 0.072957076
-0.11383563 -0.1324788 -0.094620146 0.026823996 0.1681132 0.15450145 0.0032499465 -0.14403313
0.034359492 -0.15226759 0.08594061 0.056811355 0.020239606 0.018371128 -0.13873719 0.011375145
-0.005583433 0.09586032 0.14057352 0.0121033555 0.09554033 -0.099140726 0.0269479 -0.15968162
-0.038533278 -0.13187252 -0.13645451 0.015644824 0.09060122 0.124053665 -0.015105903 0.15432024
0.04782177 0.1381313 -0.135339 -0.043752577 0.0011502126 -0.09273587 0.14369105 0.01167332
0.03388479 0.08159404 -0.13733304 -0.094241254 0.16677538 0.020285372 0.088656336 -0.020624487
0.17125177 -0.0075764 0.055925146 0.080935806 0.11406915 0.034082368 -0.12172124 0.028682766
-0.15548567 0.16263458 -0.03273128 0.04106283 0.030335402 -0.06850743 0.17015779 -0.09569845
0.14799424 0.09538991 0.06280975 -0.17288475 0.04107386 -0.165912 -0.1425914 -0.06683576
0.08879698 -0.115279414 -0.083374634 -0.14605556 -0.047771323 0.10378413 0.13050497 -0.14252998
0.015849898 -0.08352641 0.15451013 -0.05115087 -0.00647463 -0.08481942 0.06309716 0.051112577
-0.126478 0.03479396 0.14123476 0.004929107 0.13720837 -0.0013539213 0.0035695098 -0.13098644
-0.16463521 0.069493346 -0.025584824 -0.11393976 0.16564658 -0.0063630342 -0.021224676 0.095256574
0.006234827 -0.047503024 0.14931092 -0.032728825 -0.10068194 -0.04241095 0.12767547 -0.024290465
0.1615601 0.10796576 0.048181914 0.13679719 0.17599949 0.124813706 0.074310884 -0.06946421
-0.080642074 -0.016669674 0.090659186 -0.08497174 -0.1044697 -0.00091077207 0.11731363 -0.16765428
-0.030895514 0.015073366 -0.15500596 -0.061281465 0.057617296 -0.12550165 0.1602523 0.097183235
-0.0055933753 -0.09705906 -0.0008494781 -0.08944582 -0.043948792 0.117046595 -0.08493712 -0.04796001
0.08959909 -0.099696614 -0.13010108 -0.16790874 -0.0006441302 0.019657299 -0.11636302 0.06898306
-0.079368405 0.14359199 -0.11559943 -0.029228179 0.07188097 0.09458667 0.08541682 0.13355173
0.111282535 -0.17256795 -0.08482424 0.1544123 0.13819064 -0.16136818 -0.07129462 0.009737452
0.15416184 0.0005052494 -0.01287649 0.054859646 -0.14281948 0.033800166 -0.13934368 0.11532535
0.07451372 0.12699118 -0.05019065 -0.1481015 -0.14777002 -0.10860132 -0.0016407763 0.1056618
-0.036806732 -0.045703508 0.014607629 0.02862162 -0.0625901 -0.13819216 -0.12258147 0.08549464
-0.023964427 0.09444473 -0.13400318 0.14202355 -0.13949011 -0.09207425 0.06440997 -0.05831309
-0.16653658 -0.0752043 -0.06915219 0.11212707 0.0074899555 -0.14966303 -0.13598083 -0.010320023
0.039914485 0.13554324 0.16533072 0.035385817 -0.09988298 0.16870134 -0.018071266 -0.075498454
0.14752556 -0.1132004 -0.048649076 0.05349521 0.14100994 -0.050730657 -0.11884844 0.017884916
-0.033508558 -0.114789285 0.06554772 0.1203507 -0.15270548 0.14440157 0.063932516 -0.062525906
-0.01970913 0.0705431 0.025573917 0.03320759 -0.16068749 -0.08595907 -0.11104094 0.0020797371
-0.11999374 0.05737841 0.013214876 0.1259805 -0.055680577 0.11756443 -0.054419436 -0.14447068
00000000: 0706 b1bd cba1 69bd 6409 493d 86b9 0bbe
00000010: ec7a 293e 5f35 2bbe 2abc b3bd 856a 953d
00000020: a822 e9bd 86a8 07be 35c8 c1bd ffbd db3c
00000030: de25 2c3e a135 1e3e 0efd 543b 6c7d 13be
00000040: 8abc 0c3d 09ec 1bbe a101 b03d 06b3 683d
00000050: 88cd a53c 0c7f 963c 1f11 0ebe d15e 3a3c
00000060: 3bf5 b6bb 6a52 c43d 81f2 0f3e 274d 463c
00000070: a6aa c33d 4b0a cbbd d8c1 dc3c 9483 23be
00000080: 12d5 1dbd 9709 07be bbba 0bbe 9329 803c
00000090: 228d b93d d90f fe3d c07e 77bc 2006 1e3e
000000a0: c3e0 433d 4b72 0d3e 4f96 0abe e735 33bd
000000b0: bbc2 963a 4eec bdbd bf23 133e 7441 3f3c
000000c0: c7ca 0a3d c71a a73d 08a1 0cbe 8f01 c1bd
000000d0: 2ac7 2a3e 822d a63c 7491 b53d aff4 a8bc
000000e0: a05c 2f3e 7343 f8bb c411 653d acc1 a53d
000000f0: 169d e93d f499 0b3d fc48 f9bd 1ff8 ea3c
00000100: a337 1fbe ae89 263e 3c11 06bd 7f31 283d
00000110: f381 f83c a04d 8cbd d83d 2e3e 8dfd c3bd
00000120: cd8b 173e c95b c33d 66a2 803d b308 31be
00000130: 103d 283d d6e4 29be 7b03 12be 30e1 88bd
00000140: 31db b53d 9d17 ecbd 52c0 aabd 978f 15be
00000150: ddab 43bd c68c d43d 18a3 053e 61f3 11be
00000160: a5d7 813c e50f abbd e737 1e3e 9383 51bd
00000170: 2229 d4bb ceb5 adbd 1539 813d 6c5b 513d
00000180: 7383 01be 1d84 0e3d d89f 103e 5984 a13b
00000190: 5a80 0c3e 0f76 b1ba 70ee 693b 4f21 06be
000001a0: 2296 28be 8752 8e3d 4497 d1bc 4059 e9bd
000001b0: 429f 293e 0081 d0bb 5fdf adbc e115 c33d
000001c0: 854d cc3b 8892 42bd f6e4 183e a90e 06bd
000001d0: 5532 cebd 1bb7 2dbd 5cbd 023e ccfc c6bc
000001e0: 0370 253e 271d dd3d 665a 453d 9014 0c3e
000001f0: 3639 343e 549e ff3d 4e30 983d 4043 8ebd
00000200: ac27 a5bd d78e 88bc 86ab b93d aa05 aebd
00000210: 36f4 d5bd e1c0 6eba 2142 f03d 90ad 2bbe
00000220: 9718 fdbc 48f6 763c e2b9 1ebe 4602 7bbd
00000230: 1d00 6c3d 8183 00be 2e19 243e 0108 c73d
00000240: a248 b7bb e7c6 c6bd 83af 5eba 5f2f b7bd
00000250: a603 34bd 20b6 ef3d 83f3 adbd b771 44bd
00000260: ba7f b73d bd2d ccbd 3839 05be 45f0 2bbe
00000270: d9da 28ba 5808 a13c bc4f eebd fe46 8d3d
00000280: e78b a2bd c709 133e 65bf ecbd ef6f efbc
00000290: 5436 933d a8b6 c13d 04ef ae3d c9c1 083e
000002a0: 19e8 e33d a7b5 30be 55b8 adbd 421e 1e3e
000002b0: d981 0d3e b33d 25be ea02 92bd d589 1f3c
000002c0: 9adc 1d3e b772 043a eaf7 52bc 82b4 603d
000002d0: 453f 12be 0b72 0a3d 1cb0 0ebe b22f ec3d
000002e0: a69a 983d fa09 023e b694 4dbd eba7 17be
000002f0: 0651 17be 5e6a debd 510f d7ba 3765 d83d
00000300: a8c2 16bd 9a33 3bbd d654 6f3c e377 ea3c
00000310: 3d2f 80bd 3f82 0dbe fe0b fbbd d017 af3d
00000320: 0c51 c4bc 3d6c c13d 2138 09be 9f6e 113e
00000330: 7fd6 0ebe 6d91 bcbd 60e9 833d b5d9 6ebd
00000340: 9188 2abe b604 9abd aa9f 8dbd e1a2 e53d
00000350: 4d6e f53b 4441 19be 8f3e 0bbe 5015 29bc
00000360: 5f7d 233d d9cb 0a3e 754c 293e b8f0 103d
00000370: 738f ccbd 0bc0 2c3e 310a 94bc ef9e 9abd
00000380: f110 173e 9cd5 e7bd 4144 47bd cb1d 5b3d
00000390: e964 103e f3ca 4fbd d066 f3bd 6383 923c
000003a0: 4540 09bd a516 ebbd e23d 863d 6e7a f63d
000003b0: d35e 1cbe 01de 133e 0def 823d 950d 80bd
000003c0: 0b75 a1bc e778 903d 6480 d13c af04 083d
000003d0: 438b 24be 4f0b b0bd 6f69 e3bd 334c 083b
000003e0: 47bf f5bd a005 6b3d 3583 583c 0801 013e
000003f0: 5111 64bd 9fc5 f03d eae6 5ebd 1ff0 13be

in_proj_bias f4 [144]
9.315995e-06 -1.2243061e-05 -3.017552e-05 -2.4577266e-05 3.2402e-05 2.4053475e-05 -4.5564317e-05 -1.6965821e-06
1.03429265e-05 2.4249191e-05 1.5468526e-05 2.5243879e-05 6.4268343e-06 -2.9786006e-05 -4.3705826e-05 1.3811919e-05
-2.2297932e-05 -1.4513676e-05 7.255783e-06 3.7762986e-06 -1.9141207e-05 -6.2796666e-05 -4.7712052e-05 -3.230855e-05
-2.0130217e-05 -3.280473e-05 5.9778718e-06 3.6947225e-05 2.8777963e-06 -5.9045677e-05 -4.558052e-06 -1.3442636e-05
-1.2314312e-05 1.8021787e-05 -4.0582545e-06 2.4454914e-05 1.329771e-05 7.46547e-06 3.819037e-05 1.7333725e-05
7.5164517e-06 6.809416e-07 -6.165414e-06 -4.8557344e-05 9.270701e-07 -8.866505e-06 -1.1214377e-05 2.3905737e-05
-7.554375e-09 -3.484497e-09 2.828047e-12 3.490658e-09 -6.8280284e-09 -7.0586057e-09 -8.882867e-09 -4.865642e-09
-1.8236994e-09 7.1495028e-09 4.4179704e-09 -7.16813e-09 -1.1867796e-09 5.2794604e-09 -8.435735e-09 6.6746018e-09
-7.604883e-09 -3.4516958e-09 6.281395e-09 1.3872011e-08 1.3142896e-08 3.0779066e-09 4.4569797e-09 -9.085966e-09
-1.4405369e-08 -1.2111051e-08 2.7213825e-09 1.4841929e-08 -9.48822e-09 1.7880799e-08 1.7643118e-09 2.0999908e-08
1.3366419e-08 -2.5109244e-09 1.0677076e-09 -7.1044046e-09 6.2980425e-09 9.524922e-09 -7.7819164e-09 5.621299e-09
4.0968248e-10 2.9135654e-08 1.5433216e-09 2.8207894e-09 5.345739e-10 5.4309637e-09 -1.032169e-08 -9.025478e-09
0.00014288066 -3.722011e-05 -9.5249225e-06 0.00021683905 -6.724708e-05 4.2840446e-05 0.00013719489 -0.00010206432
6.812385e-05 -0.000117546 8.8488436e-05 0.0001287631 2.4414316e-05 0.00016096691 6.156925e-05 -0.0001491241
0.00013678195 -2.597459e-05 -0.00016052808 6.39584e-05 2.0548114e-05 4.4492215e-05 -4.0692146e-07 -0.00011486053
2.0477573e-05 -0.00013200122 6.5135195e-05 5.2085823e-05 -1.6632635e-05 8.062783e-05 1.7665432e-05 1.7760425e-05
-1.7440214e-05 -3.149449e-05 4.31286e-05 0.000112530055 -5.6025627e-05 -0.00012555602 2.3228436e-05 -7.454094e-05
5.5611312e-05 -3.1773772e-05 -0.00014145066 -0.0001448635 -8.130403e-06 -3.1543812e-05 -0.00015820665 0.00023743777
00000000: e54b 1c37 8c67 4db7 7021 fdb7 472b ceb7
00000010: 62e7 0738 72c6 c937 501c 3fb8 1eb6 e3b5
00000020: 8886 2d37 be6a cb37 68c2 8137 d1c2 d337
00000030: 16a6 d736 f6dc f9b7 c650 37b8 beb9 6737
00000040: 720c bbb7 c47f 73b7 b476 f336 516c 7d36
00000050: 6e91 a0b7 b4b1 83b8 6d1e 48b8 0b83 07b8
00000060: 50dd a8b7 d097 09b8 8795 c836 c8f7 1a38
00000070: 2a20 4136 d0a7 77b8 5ef1 98b6 af87 61b7
00000080: 9199 4eb7 7e2d 9737 242c 88b6 8724 cd37
00000090: 3b19 5f37 e67f fa36 992e 2038 e467 9137
000000a0: d435 fc36 f3c9 3635 81e0 ceb6 0daa 4bb8
000000b0: c6db 7835 59c1 14b7 6225 3cb7 2e89 c837
000000c0: 7ec8 01b2 eb73 6fb1 9101 472c 4ee0 6f31
000000d0: f99b eab1 2788 f2b1 439b 18b2 a42e a7b1
000000e0: b8a5 fab0 b1a7 f531 e1cc 9731 8a4b f6b1
000000f0: 181c a3b0 a066 b531 c1ec 10b2 6b56 e531
00000100: a1a6 02b2 e032 6db1 bcd3 d731 c051 6e32
00000110: 11cb 6132 1b83 5331 0224 9931 8018 1cb2
00000120: 7c7b 77b2 f710 50b2 1103 3b31 7efb 7e32
00000130: a201 23b2 4b98 9932 347c f230 4963 b432
00000140: 22a2 6532 a68c 2cb1 9fbe 9230 011b f4b1
00000150: 2b66 d831 0da3 2332 3bb1 05b2 7825 c131
00000160: af39 e12f fb45 fa32 cd1c d430 dad7 4131
00000170: 4bf1 1230 439b ba31 4653 31b2 790e 1bb2
00000180: 3cd2 1539 ca1c 1cb8 3bcd 1fb7 4a5f 6339
00000190: 0007 8db8 94af 3338 f9db 0f39 5d0b d6b8
000001a0: b7dd 8e38 0783 f6b8 de92 b938 9504 0739
000001b0: 58cd cc37 3ac9 2839 bd1e 8138 325e 1cb9
000001c0: 206d 0f39 02e4 d9b7 6e53 28b9 6821 8638
000001d0: bd5e ac37 279d 3a38 dc76 dab4 47e1 f0b8
000001e0: 41c7 ab37 cf69 0ab9 3199 8838 ba76 5a38
000001f0: 5086 8bb7 bd16 a938 3a30 9437 39fc 9437
00000200: 934c 92b7 f318 04b8 fbe4 3438 1dfe eb38
00000210: 0ffd 6ab8 b0a7 03b9 b0da c237 dd52 9cb8
00000220: 3140 6938 d444 05b8 5f52 14b9 80e6 17b9
00000230: d167 08b7 e94d 04b8 46e4 25b9 b7f8 7839

weight f4 [48, 48]
-0.09600318 -0.15742362 -0.15009528 -0.21404278 -0.026954684 0.09995714 0.11059502 -0.11852823
-0.16535337 0.0091468105 0.17652105 0.1635807 -0.057836834 0.0012755531 0.103673674 0.0775551
-0.033418052 0.19049826 0.16501215 -0.061119284 -0.12223362 0.118541725 0.08844123 0.18684117
0.06792499 0.10948638 -0.0635453 0.03539949 -0.024485448 -0.03247091 -0.10748841 -0.24346133
-0.17113127 -0.11034963 0.051560063 -0.21655664 0.12654644 0.1352813 0.18112923 0.04093941
-0.075972155 -0.17618868 0.09175712 0.12296296 0.13895085 -0.054549057 -0.037034303 -0.032377012
-0.12366411 -0.115448885 0.2341365 -0.21035975 -0.16347471 -0.077291384 0.21136914 -0.11228853
0.0890977 0.23383865 0.14346951 0.20210858 0.2039399 -0.17493477 -0.16216773 0.23668803
-0.06970152 0.107306615 -0.043274034 0.1134161 0.1478485 0.15315416 0.15244195 0.07295528
-0.11622853 0.16164732 0.08377234 0.024446584 0.09985468 0.034899514 -0.01668826 0.091948785
-0.051967137 0.073507905 0.1883469 0.121077694 0.096740305 0.017363736 -0.18911147 -0.17846636
0.10871025 0.120968394 0.13648888 -0.1870932 0.03127283 -0.17886977 -0.050207563 -0.11356087
-0.19841315 -0.10369366 -0.0840597 -0.17793846 -0.014855035 0.018904708 0.15272649 -0.1362399
0.019433813 0.10522915 -0.04752633 -0.116722666 0.011096026 0.19780585 0.007972025 -0.22671483
0.094241224 -0.02068594 0.122855596 0.04909896 0.05016184 -0.04890942 0.22723672 -0.034950636
-0.2203528 -0.18440482 -0.07174172 -0.11931623 -0.03441073 -0.17291452 -0.14518584 -0.18879674
0.027506748 -0.09733344 -0.10308524 0.06711675 0.20810185 -0.0956724 -0.16849795 -0.18991297
0.09007436 0.0660068 0.18309541 -0.016825167 0.024170773 0.1853211 -0.10637621 0.23135291
-0.24672598 0.18298408 0.13292816 0.05536448 0.21242838 -0.09869151 0.03966097 -0.17867373
-0.24780771 -0.10875301 0.109382614 -0.01356354 -0.10257106 -0.1450817 -0.023078613 0.09574181
-0.1434468 -0.23084511 -0.09638534 0.025737723 -0.08278881 0.0629884 -0.12888236 0.13670212
-0.21088618 -0.12167945 -0.095727935 -0.16108677 -0.24098924 -0.012782046 -0.182266 -0.2054245
0.010514162 -0.15365854 0.21547385 0.19957991 -0.116225086 -0.24738577 -0.17189094 -0.15608141
0.24145748 0.029698912 -0.19874811 -0.17724866 0.097636715 0.0144955935 0.06283666 -0.19249463
-0.0054927086 -0.09908683 0.11291192 -0.13333392 -0.24795955 0.19728182 0.130725 0.10911059
-0.24536426 0.22901592 0.051555898 0.22409117 0.122547545 -0.24807163 0.17763738 0.2167863
0.18125351 -0.020789113 0.10928834 -0.033316325 -0.18268575 0.10020157 -0.036946405 -0.0541959
-0.10576452 0.029791256 -0.13899396 -0.1964496 0.20758311 0.051288355 0.13448122 -0.1467765
0.07768199 -0.020039162 -0.086770274 -0.068281434 -0.01183743 0.23286548 0.21252632 -0.17705311
0.046162285 0.19818316 0.21361619 0.20256475 0.07713825 -0.17936637 -0.05120834 -0.12081987
0.051975086 0.16390738 -0.054294426 0.098580055 0.24704203 -0.013891771 -0.2353765 -0.044433817
0.08140106 -0.07100606 -0.21081096 -0.18511331 0.15519448 -0.051875405 0.12505248 0.03877407
00000000: 519d c4bd a833 21be 94b2 19be 082e 5bbe
00000010: 12d0 dcbc 54b6 cc3d a47f e23d eebe f2bd
00000020: 6552 29be 81dc 153c efc1 343e b381 273e
00000030: 51e6 6cbd 7630 a73a dd52 d43d 35d5 9e3d
00000040: 5ee1 08bd fa11 433e f2f8 283e 3758 7abd
00000050: 9f55 fabd 01c6 f23d ad20 b53d 4b53 3f3e
00000060: 421c 8b3d 653a e03d 0a24 82bd 0eff 103d
00000070: b595 c8bc 3800 05bd e222 dcbd ed4d 79be
00000080: 093d 2fbe fdfe e1bd a530 533d 06c1 5dbe
00000090: 6495 013e 2e87 0a3e f179 393e 15b0 273d
000000a0: 4a97 9bbd ce6a 34be 28eb bb3d 01d4 fb3d
000000b0: 2249 0e3e d56e 5fbd 48b1 17bd c29d 04bd
000000c0: 9c43 fdbd 7770 ecbd 7bc1 6f3e 8c68 57be
000000d0: ea65 27be f24a 9ebd 2771 583e 87f7 e5bd
000000e0: db78 b63d 6673 6f3e ace9 123e 8df5 4e3e
000000f0: 9fd5 503e 1a22 33be 4c0f 26be 595e 723e
00000100: acbf 8ebd 92c3 db3d 1d40 31bd b346 e83d
00000110: 9965 173e 72d4 1c3e be19 1c3e 9469 953d
00000120: 3909 eebd e086 253e d590 ab3d 3444 c83c
00000130: 9c80 cc3d cbf2 0e3d d1b5 88bc a54f bc3d
00000140: 7edb 54bd 508b 963d 02de 403e 95f7 f73d
00000150: c81f c63d 653e 8e3c 70a6 41be e3bf 36be
00000160: 7ba3 de3d 47be f73d bec3 0b3e 5c95 3fbe
00000170: f017 003d a329 37be 72a6 4dbd 9a92 e8bd
00000180: d12c 4bbe 575d d4bd 7e27 acbd 8035 36be
00000190: 8862 73bc 0cde 9a3c 5564 1c3e 7982 0bbe
000001a0: a933 9f3c 6182 d73d f8aa 42bd 4b0c efbd
000001b0: 1bcc 353c 9e8d 4a3e 199d 023c ef27 68be
000001c0: 8b01 c13d 8f75 a9bc b79b fb3d fe1b 493d
000001d0: 8076 4d3d 3e55 48bd beb0 683e 6628 0fbd
000001e0: 2aa4 61be 9ed4 3cbe 53ed 92bd 115c f4bd
000001f0: 44f2 0cbd 8110 31be 99ab 14be ef53 41be
00000200: d555 e13c c156 c7bd 5b1e d3bd 8274 893d
00000210: a718 553e e4ef c3bd ba8a 2cbe 8c78 42be
00000220: e878 b83d 932e 873d 5d7d 3b3e efd4 89bc
00000230: c901 c63c d0c4 3d3e c5db d9bd c7e7 6c3e
00000240: bca5 7cbe 2e60 3b3e 521e 083e ddc5 623d
00000250: d386 593e c61e cabd 8b73 223d 3ff6 36be
00000260: 4ec1 7dbe e6b9 debd fe03 e03d 9c39 5ebc
00000270: c710 d2bd 4c90 14be 5c0f bdbc 4814 c43d
00000280: b8e3 12be a962 6cbe ad65 c5bd ebd7 d23c
00000290: 2e8d a9bd 1000 813d bdf9 03be a4fb 0b3e
000002a0: 8cf2 57be 1333 f9bd 020d c4bd eef3 24be
000002b0: e2c5 76be c96b 51bc f0a3 3abe cd5a 52be
000002c0: 9743 2c3c aa58 1dbe 2da5 5c3e ad5e 4c3e
000002d0: 6b07 eebd b252 7dbe 2e04 30be ced3 1fbe
000002e0: a140 773e 224b f33c a084 4bbe ac80 35be
000002f0: c2f5 c73d ed7e 6d3c 82b0 803d 501d 45be
00000300: 2efc b3bb 09ee cabd 5d3e e73d b088 08be
00000310: 1ce9 7dbe 3f04 4a3e c6dc 053e 5f75 df3d
00000320: c540 7bbe 2683 6a3e 472c 533d 2878 653e
00000330: 35fa fa3d 7d06 7ebe 93e6 353e 3afd 5d3e
00000340: 859a 393e ee4d aabc 91d2 df3d b376 08bd
00000350: f911 3bbe 7b36 cd3d 1d55 17bd 85fc 5dbd
00000360: 129b d8bd cb0c f43c 6f54 0ebe 152a 49be
00000370: ab90 543e bd13 523d 72b5 093e 944c 16be
00000380: bc17 9f3d 2b29 a4bc 9db4 b1bd 23d7 8bbd
00000390: c8f1 41bc 4a74 6e3e 80a0 593e 694d 35be
000003a0: aa14 3d3d 87f0 4a3e 34be 5a3e 226d 4f3e
000003b0: a9fa 9d3d d1ab 37be d6bf 51bd 6870 f7bd
000003c0: d4e3 543d 56d7 273e d563 5ebd 57e4 c93d
000003d0: 96f8 7c3e 509a 63bc 8a06 71be 3c00 36bd
000003e0: 99b5 a63d a06b 91bd d4de 57be 588e 3dbe
000003f0: 4deb 1e3e 4e7b 54bd c20d 003e 8fd1 1e3d

bias f4 [48]
-3.0444078e-06 -5.2547985e-05 4.7439647e-05 7.801096e-05 -7.223821e-05 8.96873e-05 2.7700105e-06 8.327782e-05
4.0422765e-05 4.6397003e-05 -0.00017527788 9.455973e-05 -9.8165765e-05 -0.00014732486 -2.1833726e-05 -1.9323209e-06
-8.5272455e-05 -0.00023788048 -0.00012102486 -9.517025e-05 2.7868986e-05 7.1981754e-05 -3.0031975e-05 0.000103834675
2.3522329e-05 4.5777455e-05 5.42356e-05 3.448288e-05 -4.205491e-06 -1.6873202e-05 -0.0001476247 3.570071e-05
3.8953363e-05 -1.2887909e-06 -0.0001361366 0.00019487267 0.00046718435 5.5811546e-05 -0.000111126 -0.00014341087
-2.982019e-07 -0.00013320013 9.413489e-05 5.48231e-06 7.870614e-06 0.00019418036 0.0001307448 8.234054e-06
00000000: 874e 4cb6 f866 5cb8 eff9 4638 d199 a338
00000010: 987e 97b8 8116 bc38 6be4 3936 70a5 ae38
00000020: 9d8b 2938 679a 4238 ccca 37b9 5e4e c638
00000030: 58de cdb8 377b 1ab9 9227 b7b7 05ad 01b6
00000040: 4dd4 b2b8 8e6f 79b9 bace fdb8 2496 c7b8
00000050: 31c8 e937 e9f4 9638 2ded fbb7 d1c1 d938
00000060: d151 c537 2b01 4038 087b 6338 b6a1 1038
00000070: e51c 8db6 ed8a 8db7 b4cb 1ab9 58bd 1538
00000080: db61 2338 85fa acb5 e4bf 0eb9 bc56 4c39
00000090: 6cf0 f439 3117 6a38 510c e9b8 9060 16b9
000000a0: 8f18 a0b4 a3ab 0bb9 496a c538 aff4 b736
000000b0: 080c 0437 e59c 4b39 8a18 0939 fe24 0a37

weight f4 [128, 48]
0.09701859 0.056537107 -0.09481623 0.061473433 -0.09963761 -0.016339893 0.018802783 -0.115019456
0.061845224 0.004523619 0.1269822 -0.10527006 0.084454186 -0.028633406 0.09725433 -0.15537801
-0.16880654 -0.10292945 -0.13308646 -0.039103843 -0.040062226 0.1609981 -0.043327346 0.03328295
0.030090883 0.06026015 -0.17535739 0.122459866 0.05815843 0.04345102 0.018477153 0.089118145
0.021326937 -0.05368474 -0.09050309 0.035775896 0.073034026 0.015718382 0.074804 0.0045945086
-0.0759639 0.15623464 0.10341103 0.034285706 -0.008030651 -0.07997418 0.1493047 -0.06332775
0.100000985 0.11706749 -0.17135066 0.13524432 -0.0018819065 0.12857296 -0.15025005 0.075094946
0.09463062 -0.12750073 0.06038645 -0.16227674 -0.10389953 -0.1087583 0.1457965 -0.057607062
-0.14526929 0.16067775 -0.13486215 0.054255042 0.118527345 -0.18284465 0.17616946 0.15930521
-0.08705755 0.10592069 -0.010458514 -0.095400184 -0.03220022 0.18393718 -0.08782687 0.1087401
-0.16799514 0.006742922 -0.15611233 0.086076744 0.017981872 0.011405485 -0.071065865 0.18356793
0.11633346 0.041018672 0.019758416 0.16969323 -0.057451487 0.13104035 0.08956378 0.015656337
0.046099298 0.09073732 -0.06026451 -0.11171553 -0.08606474 0.15931198 -0.09455507 0.06756298
0.1373369 -0.024532974 0.18394102 -0.041459262 0.03951625 -0.077054545 0.018599682 0.036826
0.040515054 0.16818008 -0.17216289 0.1547105 -0.03901519 -0.16688134 0.15674765 -0.036999147
0.032732982 -0.13020104 -0.02672662 -0.03401766 0.14878157 0.060551126 -0.07552107 0.15495871
-0.06879935 0.10664401 -0.0887566 -0.07383899 -0.16773659 0.1697743 0.1332266 -0.16268782
-0.071450576 0.13041627 -0.13056977 -0.025322737 -0.053263117 0.06567354 -0.016139539 0.1177108
-0.12998527 -0.010500241 -0.17674544 -0.03633975 0.06914975 -0.05982558 -0.057812475 0.16646683
-0.16998738 0.11535239 0.15431812 -0.154127 -0.12268965 -0.013062317 0.14323011 0.053916108
-0.17846501 -0.03248945 -0.009832593 0.015339204 0.099391766 -0.008312656 0.09721698 -0.10116599
0.065248534 -0.18131025 -0.14542861 -0.15103039 0.13751781 0.008672894 -0.010047414 0.068892255
-0.12001337 0.13575299 0.021215111 0.14950109 -0.12994556 -0.03634755 -0.12901358 0.1617954
0.061849844 -0.17827484 0.1277358 0.18317603 -0.10466055 -0.14733794 0.16544087 0.1235268
-0.11807006 0.10870661 -0.112160675 0.16886184 0.050334893 0.1570323 -0.1406994 -0.18242875
-0.14992295 -0.14401913 0.12937076 -0.00017412436 -0.058842734 0.18321292 0.089796394 0.07207887
-0.09043822 -0.033877213 -0.070106685 -0.010008835 -0.141629 0.17974228 0.10252805 -0.1583511
-0.04069242 -0.08556481 -0.06319964 -0.009854691 0.16715181 -0.10444655 -0.08059997 -0.14578822
-0.15450272 0.08912215 -0.02491719 -0.17306328 -0.08439562 0.04324721 -0.007159348 -0.071174406
0.049867652 0.005531077 0.11126588 -0.012209347 -0.0047156676 -0.17114538 -0.024234695 0.10171194
0.04908399 -0.073147096 0.10406414 0.07987222 -0.176391 -0.16362485 0.16004847 -0.06164594
-0.074910715 -0.076802306 -0.15624836 -0.031675912 0.026981827 0.03852382 -0.083272606 -0.13119675
00000000: afb1 c63d 7493 673d 032f c2bd 91cb 7b3d
00000010: ce0e ccbd 3ddb 85bc 4b08 9a3c 528f ebbd
00000020: 6b51 7d3d de3a 943b 9f07 023e d497 d7bd
00000030: 51f6 ac3d 9b90 eabc 472d c73d 6a1b 1fbe
00000040: 9fdb 2cbe adcc d2bd d147 08be 5a2b 20bd
00000050: 4a18 24bd b0dc 243e 0478 31bd b453 083d
00000060: 2881 f63c 59d3 763d e390 33be 3dcc fa3d
00000070: 8937 6e3d b2f9 313d 665d 973c 9383 b63d
00000080: d4b5 ae3c 88e4 5bbd af59 b9bd bf89 123d
00000090: dd92 953d d6c3 803c d732 993d 888d 963b
000000a0: f692 9bbd f9fb 1f3e 29c9 d33d 2b6f 0c3d
000000b0: fe92 03bc 81c9 a3bd 55e3 183e fbb1 81bd
000000c0: 51cd cc3d 15c1 ef3d 8c76 2fbe 7d7d 0a3e
000000d0: 4eaa f6ba a1a8 033e 26db 19be 61cb 993d
000000e0: b3cd c13d 8d8f 02be c857 773d e02b 26be
000000f0: 47c9 d4bd acbc debd ad4b 153e 62f5 6bbd
00000100: 79c1 14be b588 243e 4e19 0abe 893a 5e3d
00000110: 77be f23d a13b 3bbe c465 343e e820 233e
00000120: 3b4b b2bd f2ec d83d 305a 2bbc 2c61 c3bd
00000130: 61e4 03bd 075a 3c3e 93de b3bd 21b3 de3d
00000140: eb06 2cbe bbf3 dc3b e9db 1fbe 0149 b03d
00000150: b84e 933c 12de 3a3c fb8a 91bd 3bf9 3b3e
00000160: 3d40 ee3d 3203 283d 67dc a13c 10c4 2d3e
00000170: 4052 6bbd 712f 063e 376d b73d b841 803c
00000180: 9ed2 3c3d 7dd4 b93d ebd7 76bd 1dcb e4bd
00000190: b642 b0bd ae22 233e 17a6 c1bd 765e 8a3d
000001a0: 0ba2 0c3e 60f9 c8bc 095b 3c3e 30d1 29bd
000001b0: cbdb 213d c6ce 9dbd 5c5e 983c dcd6 163d
000001c0: 1df3 253d 6637 2c3e 784b 30be 6e6c 1e3e
000001d0: 64ce 1fbd f1e2 2abe 7582 203e 6b8c 17bd
000001e0: 0513 063d 6c53 05be c9f1 dabc 1a56 0bbd
000001f0: 325a 183e 7504 783d caaa 9abd 7fad 1e3e
00000200: ace6 8cbd 2d68 da3d 05c6 b5bd e538 97bd
00000210: 24c3 2bbe 50d9 2d3e 8e6c 083e a397 26be
00000220: ae54 92bd d88b 053e 15b4 05be a171 cfbc
00000230: 6d2a 5abd d97f 863d 1137 84bc 5c12 f13d
00000240: dc1a 05be 3409 2cbc c2fc 34be fdd8 14bd
00000250: 629e 8d3d ab0b 75bd c6cc 6cbd 4876 2a3e
00000260: 2c11 2ebe e03d ec3d 9205 1e3e 78d3 1dbe
00000270: b644 fbbd 5403 56bc eaaa 123e 23d7 5c3d
00000280: 88bf 36be a813 05bd e218 21bc 4951 7b3c
00000290: e98d cb3d ce31 08bc b219 c73d 1d30 cfbd
000002a0: 06a1 853d 65a9 39be 3deb 14be b6a7 1abe
000002b0: 78d1 0c3e c118 0e3c e99d 24bc 6217 8d3d
000002c0: 92c9 f5bd d502 0b3e 50cb ad3c d016 193e
000002d0: 7310 05be 2be1 14bd 231c 04be b1ad 253e
000002e0: 4356 7d3d ae8d 36be 2ccd 023e 7f92 3b3e
000002f0: 4558 d6bd c2df 16be 5569 293e 9efb fc3d
00000300: b7ce f1bd 92a1 de3d 7fb4 e5bd 1eea 2c3e
00000310: f62b 4e3d 13cd 203e 8113 10be 9ace 3abe
00000320: 6785 19be c079 13be c579 043e 2795 36b9
00000330: 1405 71bd 2b9c 3b3e 2ce7 b73d 169e 933d
00000340: ac37 b9bd d5c2 0abd 1894 8fbd 19fc 23bc
00000350: 3107 11be 5c0e 383e 3afa d13d ca26 22be
00000360: 18ad 26bd 9a3c afbd d06e 81bd 9275 21bc
00000370: d829 2b3e 13e8 d5bd 9911 a5bd 8249 15be
00000380: f635 1ebe ac85 b63d 231f ccbc 8037 31be
00000390: 9cd7 acbd fd23 313d f798 eabb e3c3 91bd
000003a0: 0642 4c3d 093e b53b 5edf e33d b709 48bc
000003b0: e385 9abb bc40 2fbe d787 c6bc 594e d03d
000003c0: 4b0c 493d 25ce 95bd 941f d53d 0c94 a33d
000003d0: d89f 34be 468d 27be bfe3 233e 7480 7cbd
000003e0: ca6a 99bd 874a 9dbd 92ff 1fbe 9abe 01bd
000003f0: fe08 dd3c 27cb 1d3d d48a aabd 7158 06be

bias f4 [128]
-0.047114667 0.061066285 0.12498442 -0.013149212 -0.10317494 -0.10894011 -0.14395428 0.04391451
-0.045377124 0.02504486 -0.044194996 0.13064602 -0.05458343 -0.10658047 -0.08700496 -0.0057615936
0.08951038 -0.056512438 -0.05340621 -0.0574231 0.1076197 0.0941138 0.107323244 0.072900675
-0.106935166 -0.082097024 -0.10307385 0.10266596 0.05818456 -0.09935388 -0.06697784 -0.08975357
-0.044256322 0.13085552 0.10763557 -0.1105094 -0.13493127 -0.10430741 0.123242766 0.1174735
0.08626175 0.0072858604 0.13408718 0.038784202 -0.13424058 0.0014632422 -0.072192326 0.10152974
-0.07070969 -0.12531658 0.050983854 0.14288656 -0.03576374 -0.098888405 0.04341826 0.13731818
0.1342093 -0.08446357 -0.031408824 0.032621037 -0.0034278831 0.034063075 0.05096138 0.020790866
0.086223766 -0.030159274 0.090262055 0.029261243 -0.06449331 0.099992275 -0.108301364 -0.09847371
-0.077617876 0.0074133114 -0.0017116282 0.06297586 0.028052483 -0.035033245 0.011759604 0.12353955
0.112892665 0.057008587 -0.028399365 -0.11579734 0.12800181 -0.08230312 0.069425076 -0.055274047
-0.031279746 0.08673829 0.10801488 -0.112186596 0.040227506 -0.10085641 -0.055652782 -0.009428038
0.12575687 -0.08220447 0.010255659 -0.015915418 0.037932463 -0.0038852703 0.059221577 -0.047018427
-0.12657134 0.019734422 -0.11729817 -0.035239287 0.03699246 -0.12750259 -0.06643198 0.007738316
0.09371114 -0.07677867 -0.055326927 -0.02699724 -0.13398749 0.059855312 0.061196495 -0.11561509
0.023537604 0.041804954 0.06781076 0.006678792 0.11329193 0.0680013 0.04242707 0.087504745
00000000: 4ffb 40bd a420 7a3d d5f7 ff3d cb6f 57bc
00000010: 624d d3bd fe1b dfbd c068 13be b4df 333d
00000020: 5ddd 39bd e12a cd3c d005 35bd 12c8 053e
00000030: e092 5fbd dd46 dabd a82f b2bd c0cb bcbb
00000040: 3851 b73d 9679 67bd 78c0 5abd 7c34 6bbd
00000050: b867 dc3d bcbe c03d 4acc db3d f34c 953d
00000060: d300 dbbd 7c22 a8bd 6218 d3bd 8842 d23d
00000070: ef52 6e3d 0c7a cbbd ae2b 89bd b8d0 b7bd
00000080: 1e46 35bd fdfe 053e 0a70 dc3d c152 e2bd
00000090: 6c2b 0abe 209f d5bd b466 fc3d f295 f03d
000000a0: 00aa b03d 3abe ee3b 264e 093e 2fdc 1e3d
000000b0: 5d76 09be 43ca bf3a 92d9 93bd d3ee cf3d
000000c0: 3ed0 90bd fd52 00be 72d4 503d db50 123e
000000d0: 007d 12bd 0186 cabd 58d7 313d 239d 0c3e
000000e0: 2a6e 093e 3cfb acbd 8aa6 00bd a39d 053d
000000f0: 56a6 60bb b985 0b3d e1bc 503d 9b51 aa3c
00000100: 1696 b03d 9510 f7bc 50db b83d 46b5 ef3c
00000110: 1215 84bd c0c8 cc3d 1bcd ddbd 96ac c9bd
00000120: 1ff6 9ebd 5deb f23b b658 e0ba 7df9 803d
00000130: 52ce e53c 057f 0fbd 5bab 403c 4e02 fd3d
00000140: 4534 e73d d681 693d c9a5 e8bc 2827 edbd
00000150: e812 033e 8a8e a8bd bc2e 8e3d 0a67 62bd
00000160: 311f 00bd d8a3 b13d e836 dd3d 16c2 e5bd
00000170: 99c5 243d ce8d cebd 2cf4 63bd 0f78 1abc
00000180: 69c6 003e d15a a8bd 5a07 283c 0d61 82bc
00000190: 125f 1b3d 05a0 7ebb 5392 723d 6596 40bd
000001a0: eb9b 01be 15aa a13c 063a f0bd 1257 10bd
000001b0: 6885 173d 0a90 02be 7d0d 88bd b391 fd3b
000001c0: a0eb bf3d 233e 9dbd 7d9e 62bd 5129 ddbc
000001d0: 0434 09be d82a 753d 2da9 7a3d 9bc7 ecbd
000001e0: efd1 c03c ac3b 2b3d 5ee0 8a3d c5d9 da3b
000001f0: 9905 e83d 4444 8b3d 02c8 2d3d b035 b33d
