data/train_data/classification/transformer/4h/td_best_model_4h.pt (torch, 247152 bytes, 29 tensors)

att_weights f4 [4]
0	0x3f7a72b2	0.9783126
1	0x3f7ca73e	0.9869269
2	0x3f7c7c8c	0.98627543
3	0x3f8042e4	1.0020413

weight f4 [48, 4]
0	0xbd88fcba	-0.06688829
1	0xbe817de2	-0.25291353
2	0x3e97a996	0.2962157
3	0x3c11bbe3	0.008894893
4	0xbcafbe2c	-0.021452986
5	0xbdb6de05	-0.089290656
6	0xbe365ce2	-0.1780887
7	0x3da8f03e	0.082489476
8	0x3e340ee4	0.17583805
9	0x3db28def	0.08718478
10	0x3db79503	0.089639686
11	0xbe9a95bf	-0.30192372
12	0xbe3a24f1	-0.18178155
13	0xbbbcf537	-0.0057665366
14	0x3e6bf625	0.23043115
15	0xbdb80cae	-0.089867935
16	0x3e83489e	0.2564134
17	0x3c14b627	0.009076632
18	0xbcaf6ea1	-0.021415057
19	0x3df3a618	0.11896914
20	0x3dee1e95	0.11626927
21	0x3e1379c1	0.14401914
22	0xbc4e3fb1	-0.012588427
23	0x3de66d17	0.11251276
24	0xbe17fda6	-0.14842853
25	0x3e1ac692	0.15114811
26	0xbc78159e	-0.015141873
27	0x3e576062	0.21032861
28	0x3e5d8e87	0.21636401
29	0x3e930b9a	0.2871979
30	0x3e903d3a	0.28171712
31	0x3db781f8	0.089603364
32	0x3e56ed9a	0.20989075
33	0x3e6e488c	0.23269862
34	0xbe472a17	-0.1944965
35	0xbd5c0474	-0.053715184
36	0xbd746c46	-0.05967357
37	0x3e0a4058	0.13501108
38	0xbdb458c0	-0.0880599
39	0x3e80befc	0.2514571
40	0x3e3239e1	0.17404892
41	0xbe3b6d79	-0.18303479
42	0x3e2f5a49	0.17124285
43	0xbe65eb89	-0.22453131
44	0x3e404f18	0.18780172
45	0x3e4195c6	0.1890479
46	0xbe6a99bb	-0.22910206
47	0xbe5f09a9	-0.21781029
48	0xbda77c2d	-0.081779815
49	0x3d7e3db9	0.062070582
50	0xbd131ccf	-0.035916146
51	0x3e67aecc	0.22625273
52	0x3d960504	0.073251754
53	0x3bf6bdbe	0.0075299433
54	0x3e119619	0.14217414
55	0x3e25270d	0.16128178
56	0x3e94e424	0.29080307
57	0xbe20796b	-0.15671317
58	0xbe011a3a	-0.12607661
59	0x3daa7cf7	0.083246164
60	0xbe406b9f	-0.18791054
61	0xbe26c098	-0.16284406
62	0xbe354812	-0.17703274
63	0x3e96e2d5	0.29469934
64	0xbda156bb	-0.07877871
65	0x3e8099fb	0.25117478
66	0x3e4ce98c	0.20010966
67	0xbe3494ab	-0.17634837
68	0x3e068fe0	0.13140821
69	0x3da62044	0.08111623
70	0xbd6980a9	-0.057007466
71	0x3e70c0f8	0.23511112
72	0x3dfdb0b4	0.12387219
73	0xbe2b4fa0	-0.16729593
74	0xbe5edccf	-0.2176392
75	0xbd1d1fcf	-0.038360413
76	0x3e769ffc	0.24084467
77	0xbd89f0f0	-0.06735408
78	0x3d36dad6	0.044642292
79	0xbe8bb1b4	-0.27284014
80	0xbe9ae99c	-0.30256355
81	0x3e6dfa92	0.23240116
82	0xbdb3e97b	-0.08784767
83	0xbe7e8548	-0.2485553
84	0x3e990552	0.29886872
85	0xbd6e841b	-0.058231454
86	0xbdd6db2a	-0.10491021
87	0x3e2b8765	0.16750868
88	0x3e13efa2	0.14446881
89	0xbd6ebadb	-0.058283668
90	0x3ea6e971	0.32599977
91	0xbe4bed9b	-0.19914858
92	0xbe78007d	-0.24218936
93	0x3de633a4	0.112403184
94	0x3e048b4a	0.1294376
95	0x3de8f2bb	0.11374422
96	0x3e208610	0.15676141
97	0xbe856071	-0.2605014
98	0xbe116838	-0.14199913
99	0xbc2f8a5d	-0.010714141
100	0x3df8fa6f	0.121571414
101	0x3e0e00f5	0.13867553
102	0x3d65339e	0.05595743
103	0x3e8d1b5b	0.27559933
104	0xbe684de9	-0.2268597
105	0x3e339487	0.17537127
106	0xbddb1df5	-0.10699073
107	0x3dd64ec0	0.10464239
108	0x3e8d00e3	0.2753974
109	0xbe030727	-0.12795697
110	0x3e90c862	0.2827788
111	0xbe818581	-0.25297168
112	0x3c8669cb	0.016407868
113	0x3e5374ae	0.20649979
114	0xbe58b497	-0.2116264
115	0xbd4c6515	-0.049901087
116	0x3d8d6c39	0.069054075
117	0xbe6c8de3	-0.23101
118	0xbe84a5ef	-0.25907847
119	0x3c02c2f1	0.007981048
120	0x3e93aa09	0.28840664
121	0xbe9c38f6	-0.30512208
122	0xbe4e8659	-0.20168437
123	0xbd81ec93	-0.06343951
124	0x3e8c8316	0.2744376
125	0xbd5859dc	-0.05282007
126	0x3d1af935	0.03783532
127	0x3d1674c0	0.036732435
128	0x3e886ecd	0.26647034
129	0xbe274b80	-0.16337395
130	0xbe1a33e0	-0.15058851
131	0x3d9baf55	0.07601801
132	0xbe1dfda2	-0.15428784
133	0x3ceffaa8	0.029294327
134	0x3e4c879e	0.19973609
135	0xbe590eb2	-0.21197012
136	0x3e3a42b0	0.18189502
137	0x3e240530	0.16017604
138	0x3bd2cab8	0.0064328574
139	0xbe4561ca	-0.19275585
140	0x3e720ae7	0.23636971
141	0x3d471ed7	0.048613396
142	0x3de8211a	0.113344386
143	0x3e4ec9db	0.20194189
144	0xbe3f3225	-0.18671472
145	0xbd29d696	-0.04146441
146	0x3e707cb0	0.23485065
147	0xbe45ee02	-0.19329074
148	0xbd9015e9	-0.07035429
149	0xbe22fd6e	-0.15916988
150	0xbd75c0d8	-0.059998363
151	0xbc2f36e8	-0.010694243
152	0x3e378b1e	0.17924163
153	0x3e9d4420	0.30716038
154	0xbe4e899f	-0.20169686
155	0x3e815524	0.2526027
156	0xbcccb2e2	-0.024987642
157	0xbe4df530	-0.20113063
158	0xbbf7df32	-0.0075644488
159	0x3e16bb20	0.1471982
160	0xbcf92457	-0.030412836
161	0xbe6219c9	-0.22080149
162	0xbea77e58	-0.3271358
163	0xbe7ba59b	-0.24574892
164	0x3e8dfd82	0.27732474
165	0xbe63fead	-0.2226512
166	0x3e924cf3	0.28574333
167	0xbe90008b	-0.28125414
168	0x3e39bc0f	0.18138145
169	0x3db0d117	0.08633631
170	0xbe853b0f	-0.2602162
171	0x3d4e3075	0.05033918
172	0xbd9fe311	-0.07806981
173	0xbe687b23	-0.22703223
174	0x3dc8b2de	0.09799741
175	0xbd4f38b1	-0.050591175
176	0xbe98eb81	-0.29867175
177	0xbd681d96	-0.05666884
178	0xbe15bb3c	-0.14622205
179	0xbe3338db	-0.17502157
180	0x3ddb4897	0.10707205
181	0x3cb2a84c	0.021808766
182	0x3e5be3ef	0.21473669
183	0xbb475ce9	-0.003042037
184	0xbe4f121d	-0.20221753
185	0x3e666aef	0.2250173
186	0xbc5535d8	-0.013013326
187	0xbe8ccdbf	-0.27500722
188	0x3da994b4	0.08280316
189	0x3e9f526a	0.31117564
190	0x3e9bf3e0	0.304595
191	0xbe911eb2	-0.2834373

bias f4 [48]
0	0xbe07f7ad	-0.13278075
1	0x3eb84e9f	0.35997483
2	0xbed9939c	-0.4249543
3	0x3e268c5f	0.16264485
4	0xbe97da5d	-0.29658785
5	0xbe8d6963	-0.27619466
6	0xbe1346ba	-0.14382449
7	0xbef15df8	-0.47142005
8	0x3e3edfa8	0.18640006
9	0xbe02fdbf	-0.12792109
10	0xbed9925a	-0.4249447
11	0xbe9ae02c	-0.30249155
12	0xbd87d82a	-0.06633027
13	0xbeb91134	-0.36145937
14	0x3ea029b6	0.31281823
15	0x3ea5718d	0.32313195
16	0x3e965030	0.29358053
17	0xbc854f7c	-0.016273253
18	0x3d78a922	0.060708173
19	0xbe2d759b	-0.16939394
20	0x3d838cc9	0.06423337
21	0xbecb746c	-0.3973726
22	0xbe9b2782	-0.3030358
23	0x3ee9ec36	0.45688027
24	0x3e9544f8	0.2915418
25	0xbe3cfebf	-0.18456553
26	0xbed592aa	-0.41713458
27	0xbe4d1ea7	-0.20031224
28	0x3e97fe5f	0.29686257
29	0x3dbd1333	0.092321776
30	0x3e98e910	0.29865313
31	0xbd361292	-0.044451304
32	0xbdb5c66e	-0.08875738
33	0x3eb0f366	0.34560698
34	0xbe85b769	-0.26116493
35	0x3dc5ffde	0.096679434
36	0xbea15ec6	-0.3151762
37	0x3e5593c1	0.20857145
38	0x3e3b092d	0.18265219
39	0xbeab6ab9	-0.3347986
40	0x3eeff2e3	0.46864995
41	0x3dba07e8	0.09083539
42	0xbe641d27	-0.22276746
43	0xbd4b6a17	-0.049661722
44	0xbe9d3e2b	-0.30711493
45	0xbd8273aa	-0.063697174
46	0xbd8d2bfa	-0.068931535
47	0x3e10aee7	0.1412922

weight f4 [48, 1]
0	0x3e491f9f	0.19640969
1	0x3e9d16b0	0.30681372
2	0x3d9db12f	0.07699811
3	0xbd62c579	-0.055364106
4	0x3e41e2ef	0.18934225
5	0xbd9668b0	-0.07344186
6	0x3e834bf1	0.25643876
7	0xbe5c4616	-0.2151111
8	0x3e60e8e7	0.21963845
9	0xbdbe8486	-0.093026206
10	0xbe32b57c	-0.17452043
11	0x3d5ccd4d	0.053906728
12	0xbab3a6e8	-0.0013706358
13	0x3ea53c76	0.3227269
14	0xbea7048e	-0.32620662
15	0xbd1abf68	-0.037780195
16	0x3e2eec97	0.1708244
17	0x3e55db5a	0.20884457
18	0xbe649411	-0.22322108
19	0xbe7f20ab	-0.24914806
20	0xbea5253d	-0.32254973
21	0x3ea7e622	0.32792765
22	0xbe9f1488	-0.31070352
23	0x3ea70d9a	0.32627565
24	0xbe867787	-0.26263067
25	0x3dc52e70	0.09627998
26	0x3e4862e7	0.19568978
27	0x3e78a527	0.2428175
28	0x3dcd35e7	0.10020047
29	0xbd862d32	-0.06551589
30	0xbe58b18b	-0.21161477
31	0xbe376577	-0.179098
32	0x3e98bd6a	0.2983201
33	0x3e0f85da	0.14015904
34	0xbe983698	-0.29729152
35	0x3e110881	0.141634
36	0x3e991e49	0.29905918
37	0xbea91a58	-0.3302791
38	0x3eafcb98	0.34335017
39	0xbea5cda4	-0.32383454
40	0x3e2e9707	0.170498
41	0xbe133085	-0.14373977
42	0xbe9041a8	-0.28175092
43	0xbe37529d	-0.17902608
44	0xbe004e39	-0.1252984
45	0x3e40f79b	0.18844454
46	0x3e4dbcfd	0.20091625
47	0x3e627794	0.22115928

bias f4 [48]
0	0xbd9bf601	-0.07615281
1	0xbf709de4	-0.9399092
2	0x3df16694	0.11787143
3	0xbf4c86bc	-0.7989309
4	0xbed5975a	-0.41717035
5	0x3ea13d59	0.31492117
6	0xbf2fdf94	-0.6870053
7	0xbe646574	-0.22304326
8	0xbf6ad980	-0.9173813
9	0xbf163a62	-0.58682835
10	0x3ed9d6bf	0.4254665
11	0xbf0d7cac	-0.5526836
12	0xbeb1f048	-0.34753633
13	0xbf2569a4	-0.6461432
14	0x3dda6757	0.10664242
15	0xbf2c9dee	-0.6742848
16	0x3ee76a44	0.45198262
17	0x3f3fe613	0.7496044
18	0x3e84ed31	0.25962213
19	0xbd671e26	-0.056425236
20	0xbf0495c9	-0.51791054
21	0xbf08fe61	-0.5351315
22	0x3f58b2e2	0.84647954
23	0x3d89172e	0.06693874
24	0x3ea0ebdf	0.31429955
25	0x3f4bcdb1	0.79610735
26	0xbf306337	-0.6890139
27	0xbf01e98b	-0.50746983
28	0xbf585f94	-0.8452084
29	0x3ed6faa0	0.41988087
30	0xbf00dbb9	-0.5033527
31	0x3f0b980b	0.54528874
32	0x3e58aa5b	0.21158735
33	0x3f62ae75	0.8854745
34	0x3f073b4d	0.5282486
35	0x3d8358e2	0.064134374
36	0x3ef756c2	0.48308378
37	0xbf0d2159	-0.5512901
38	0x3f1a57fc	0.60290504
39	0xbf08c98a	-0.53432524
40	0x3d4f6a8b	0.050638717
41	0xbe2cb5cb	-0.16866224
42	0x3f0cd488	0.55011797
43	0xbdfbd36a	-0.122961834
44	0x3f49680f	0.78674406
45	0x3eab417e	0.33448404
46	0xbed2e821	-0.41192725
47	0x3f45a5fc	0.772064

weight f4 [48, 1]
0	0xbe1aacc8	-0.15104973
1	0x3e398ce3	0.1812015
2	0x3e87bbfb	0.26510605
3	0x3ead84c7	0.33890364
4	0xbead5f79	-0.33861902
5	0xbdb7789a	-0.0895855
6	0x3e5cd756	0.21566519
7	0xbe3c3b66	-0.18382034
8	0xbe94ed83	-0.29087457
9	0x3e1fbe43	0.15599923
10	0xbb84da0d	-0.004054314
11	0x3e4a9209	0.1978227
12	0xbe8e4263	-0.27785024
13	0xbd41fcbc	-0.047360167
14	0xbe918556	-0.2842204
15	0x3e6bc643	0.2302485
16	0x3d03c979	0.03217456
17	0xbd6dc56b	-0.0580496
18	0xbd24b849	-0.04021481
19	0x3e0bd016	0.13653597
20	0xbe53ebae	-0.20695373
21	0xbea1ab25	-0.31575885
22	0xbe214d07	-0.1575204
23	0x3d43ebb8	0.04783222
24	0x3e7097dc	0.2349543
25	0xbe7107c5	-0.2353812
26	0x3e4dc077	0.20092951
27	0xbe86286e	-0.2620272
28	0xbe723a13	-0.23654966
29	0x3e81fd40	0.25388527
30	0xbe44575f	-0.19173954
31	0xbe9895e2	-0.29801852
32	0x3e751259	0.2393278
33	0x3e353434	0.17695695
34	0xbdd24ed6	-0.10268943
35	0xbd692987	-0.05692437
36	0xbd4ebccd	-0.050473023
37	0x3e37e35d	0.17957826
38	0x3dc5ff38	0.0966782
39	0x3ea2f840	0.31830025
40	0xbd2c3347	-0.04204109
41	0xbd8fac79	-0.070153184
42	0x3e04a3f7	0.12953173
43	0x3eb0d128	0.34534574
44	0x3e06a9ca	0.13150707
45	0xbe1554b5	-0.14583094
46	0xbea62ddc	-0.32456863
47	0xbe558fc5	-0.20855625

bias f4 [48]
0	0x3f1c5c39	0.6107822
1	0xbf190ca4	-0.59784913
2	0x3f36c6ee	0.7139729
3	0x3ee542cd	0.44777527
4	0xbf3f594b	-0.74745625
5	0xbec847b8	-0.39117217
6	0x3ee7def3	0.45287284
7	0x3f73a16f	0.95168203
8	0xbee4c25f	-0.44679543
9	0xbe106787	-0.14101993
10	0xbf69003d	-0.9101599
11	0x3e9002b4	0.28127062
12	0x3c911087	0.017708076
13	0x3e15dcb8	0.14634979
14	0x3ea53cc6	0.3227293
15	0x3df29021	0.11843897
16	0xbeee5f13	-0.4655691
17	0xbee5e1a9	-0.44898728
18	0x3f1b594f	0.6068315
19	0x3e8c5a6f	0.27412745
20	0x3db647ef	0.08900439
21	0x3f02bc35	0.5106843
22	0xbdd16413	-0.10224166
23	0xbf40b34a	-0.75273573
24	0xbe8ba694	-0.27275527
25	0x3e66fd38	0.22557533
26	0x3e63fecb	0.22265165
27	0x3e550882	0.20804027
28	0x3f3bc1e9	0.7334276
29	0xbf4d4aad	-0.8019207
30	0x3ee65955	0.4499003
31	0x3e8d7edd	0.27635852
32	0x3f72438d	0.94634324
33	0xbea9576e	-0.33074516
34	0xbf637493	-0.88849753
35	0xbf6e41c2	-0.9306909
36	0x3ef3b694	0.47600234
37	0xbf464cab	-0.77460736
38	0xbeadbb65	-0.33932033
39	0x3ef45e92	0.477284
40	0x3e644fa8	0.22296011
41	0x3f2828b1	0.6568709
42	0x3e800801	0.25006106
43	0xbf5673c2	-0.8377038
44	0x3eb2694e	0.34845966
45	0xbe0b0bbf	-0.135787
46	0xbcb6d117	-0.022316499
47	0x3f5477d5	0.8299535

weight f4 [48, 1]
0	0xbd8ed9e8	-0.06975156
1	0x3db03f90	0.086058736
2	0xbe94432a	-0.28957492
3	0x3c4fc2fa	0.012680763
4	0x3e560a93	0.20902471
5	0x3d0d7f42	0.03454519
6	0xbd163cba	-0.036679007
7	0x3e81e665	0.2537109
8	0xbe794845	-0.24343975
9	0x3db3e7be	0.08784436
10	0x3ea067cf	0.313292
11	0x3e8fb059	0.2806423
12	0x3eb700f5	0.35742918
13	0xbe48315b	-0.19550078
14	0xbe4ffb5b	-0.20310728
15	0xbe93f800	-0.28900146
16	0xbd96b4cf	-0.07358705
17	0xbdf253d6	-0.11832397
18	0xbe075bf5	-0.13218673
19	0x3e239ea9	0.15978493
20	0xbe9e8fd3	-0.30969104
21	0x3e7a06fa	0.24416724
22	0xbcea6e86	-0.028617155
23	0x3e90e103	0.2829667
24	0xbe951f11	-0.29125264
25	0x3d9c7a8b	0.07640561
26	0x3de82d81	0.11336804
27	0xbe5c0738	-0.21487129
28	0xbe491427	-0.19636594
29	0x3c150e5c	0.009097662
30	0xbe0afe48	-0.13573563
31	0xbd6fd252	-0.058550186
32	0xbe757990	-0.23972154
33	0xbe5f15cf	-0.21785663
34	0x3e95ce12	0.29258782
35	0xbdc6567e	-0.09684466
36	0x3e9abdf1	0.3022304
37	0x3e094801	0.13406374
38	0x3dd24848	0.10267693
39	0xbd0528b8	-0.032509536
40	0x3e69c01f	0.22827195
41	0x3e25bbd7	0.16184936
42	0xbeaf4aaa	-0.34236652
43	0xbe9c366b	-0.30510268
44	0x3e63528c	0.22199458
45	0xbe4ec2f7	-0.2019156
46	0x3e9bf635	0.3046128
47	0xbe4f2e5e	-0.20232531

bias f4 [48]
0	0xbf4c345e	-0.79767406
1	0xbf390dea	-0.72286856
2	0x3ec34049	0.38134983
3	0x3c349758	0.011022411
4	0xbf2ab250	-0.66678333
5	0x3d6ab569	0.057301912
6	0xbe5b5af1	-0.2142141
7	0x3f6f36af	0.93442816
8	0x3d8d24ea	0.068918064
9	0x3efad9b7	0.48994228
10	0xbe9e787d	-0.309513
11	0x3f319f1a	0.69383395
12	0x3e6c2e81	0.23064615
13	0xbee2786a	-0.44232494
14	0xbbd36c1a	-0.0064520957
15	0xbf42cbe4	-0.7609236
16	0x3f426286	0.75931585
17	0x3f1759a6	0.5912117
18	0xbf128b7c	-0.57244086
19	0xbf2bcd10	-0.67109776
20	0xbe096639	-0.13417901
21	0x3f0bbdbd	0.5458639
22	0x3dc59944	0.09648374
23	0x3e79be46	0.2438899
24	0xbf1c8b95	-0.61150485
25	0xbcf70994	-0.030155934
26	0x3f179363	0.5920927
27	0x3f06b9fe	0.5262755
28	0x3f4fe80d	0.81213456
29	0xbf36a088	-0.713387
30	0xbf64397f	-0.8915023
31	0xbe6364dd	-0.22206445
32	0x3f52b643	0.8230936
33	0xbf6e6693	-0.93125266
34	0xbf0de2d8	-0.5542426
35	0x3eb7f15a	0.35926324
36	0xbe9fd443	-0.3121663
37	0x3e674f34	0.22588807
38	0x3e5077ed	0.20358248
39	0xbf09375d	-0.536001
40	0x3dcdd18b	0.10049733
41	0xbdafc2ad	-0.08582053
42	0x3e8be883	0.2732583
43	0xbf3830a0	-0.71949196
44	0xbe7799d2	-0.24179772
45	0xbdd7d2e4	-0.10538271
46	0x3df1f115	0.11813561
47	0x3f550a21	0.8321858

weight f4 [48]
0	0x3f7292e9	0.9475542
1	0x3f78094c	0.96889186
2	0x3f787889	0.9705892
3	0x3f72d8b3	0.94861907
4	0x3f788e01	0.9709168
5	0x3f705a56	0.9388784
6	0x3f7813e0	0.96905327
7	0x3f7c4271	0.9853888
8	0x3f7840bc	0.96973777
9	0x3f75422c	0.95804095
10	0x3f77e77c	0.9683759
11	0x3f7586d5	0.9590886
12	0x3f7648b5	0.9620469
13	0x3f7992db	0.9748971
14	0x3f785707	0.97007793
15	0x3f77240d	0.96539384
16	0x3f770516	0.96492136
17	0x3f764242	0.9619485
18	0x3f767858	0.9627738
19	0x3f74c617	0.9561476
20	0x3f781819	0.9691177
21	0x3f79dee0	0.97605705
22	0x3f7786cf	0.96690077
23	0x3f75a8a9	0.9596048
24	0x3f76e2c9	0.96439797
25	0x3f7732ce	0.96561897
26	0x3f71fde8	0.94528055
27	0x3f731603	0.9495546
28	0x3f7b53fc	0.98175025
29	0x3f7972bf	0.97440714
30	0x3f7480d8	0.955091
31	0x3f78dd63	0.9721281
32	0x3f79d12b	0.9758479
33	0x3f723dd1	0.94625574
34	0x3f75a1ec	0.959502
35	0x3f73db16	0.95256174
36	0x3f7b287b	0.98108643
37	0x3f77a85d	0.96741277
38	0x3f75e118	0.9604659
39	0x3f773498	0.96564627
40	0x3f7aa079	0.9790111
41	0x3f7570e0	0.9587536
42	0x3f77e254	0.96829724
43	0x3f7898b1	0.9710799
44	0x3f747e25	0.9550498
45	0x3f718e44	0.94357705
46	0x3f747bc6	0.95501363
47	0x3f794d13	0.9738323

bias f4 [48]
0	0xbbc9b21b	-0.006155265
1	0x3c2b0929	0.010439196
2	0xbc0b1bf8	-0.008490555
3	0x3a08008b	0.0005188069
4	0x3c16accf	0.009196474
5	0x3bd7d97b	0.006587205
6	0x3b9f9e2e	0.0048711514
7	0xbab3eaa0	-0.001372654
8	0x3bcc853a	0.006241468
9	0xbb720699	-0.0036930202
10	0x3bc0363b	0.00586584
11	0xba5f9b96	-0.0008529959
12	0xbb11b073	-0.0022230416
13	0x3b15c830	0.0022854917
14	0xbb6dc28d	-0.0036279291
15	0x3c3fd1e6	0.0117077585
16	0xbbf0e1b0	-0.007351123
17	0xbbcf741a	-0.006330979
18	0xbab2617e	-0.0013609377
19	0x374194b6	1.1538321e-05
20	0xbc0eaa9d	-0.00870767
21	0xbb95831e	-0.0045627495
22	0xbb6eb1d8	-0.003642192
23	0xbbaf0e55	-0.0053422847
24	0x3b8f1080	0.0043659806
25	0xbc05711e	-0.008144645
26	0x3b9eb38d	0.0048431815
27	0xb9d43315	-0.0004047385
28	0xbb3b1f9e	-0.002855278
29	0xb98eb5fa	-0.00027219934
30	0x3b92fc03	0.0044856085
31	0x3ad53445	0.0016266188
32	0xbb11f77e	-0.002227276
33	0x396736b8	0.00022050261
34	0x3c37a9cc	0.011209916
35	0xbb7a9d00	-0.0038240552
36	0xbb12c2fb	-0.002239405
37	0xba5a6805	-0.000833154
38	0xbbbd10fa	-0.005769846
39	0x3c538ba3	0.01291171
40	0xbb643410	-0.003482107
41	0xbb6e18f7	-0.0036330798
42	0xbb8ad9bd	-0.004237382
43	0x3c70f61e	0.014707116
44	0xbbdae310	-0.0066799
45	0xbc00adf5	-0.007853975
46	0x3bfae21f	0.0076563503
47	0xbc587893	-0.013212341

pe f4 [1, 247, 48]
0	0x00000000	0.0
1	0x3f800000	1.0
2	0x00000000	0.0
3	0x3f800000	1.0
4	0x00000000	0.0
5	0x3f800000	1.0
6	0x00000000	0.0
7	0x3f800000	1.0
8	0x00000000	0.0
9	0x3f800000	1.0
10	0x00000000	0.0
11	0x3f800000	1.0
12	0x00000000	0.0
13	0x3f800000	1.0
14	0x00000000	0.0
15	0x3f800000	1.0
16	0x00000000	0.0
17	0x3f800000	1.0
18	0x00000000	0.0
19	0x3f800000	1.0
20	0x00000000	0.0
21	0x3f800000	1.0
22	0x00000000	0.0
23	0x3f800000	1.0
24	0x00000000	0.0
25	0x3f800000	1.0
26	0x00000000	0.0
27	0x3f800000	1.0
28	0x00000000	0.0
29	0x3f800000	1.0
30	0x00000000	0.0
31	0x3f800000	1.0
32	0x00000000	0.0
33	0x3f800000	1.0
34	0x00000000	0.0
35	0x3f800000	1.0
36	0x00000000	0.0
37	0x3f800000	1.0
38	0x00000000	0.0
39	0x3f800000	1.0
40	0x00000000	0.0
41	0x3f800000	1.0
42	0x00000000	0.0
43	0x3f800000	1.0
44	0x00000000	0.0
45	0x3f800000	1.0
46	0x00000000	0.0
47	0x3f800000	1.0
48	0x3f576aa4	0.84147096
49	0x3f0a5141	0.54030234
50	0x3f213a63	0.62979716
51	0x3f46d9b8	0.7767596
52	0x3ee5351d	0.44767085
53	0x3f64ea30	0.8941984
54	0x3e9f393e	0.3109836
55	0x3f734e6b	0.9504153
56	0x3e5ae952	0.21378067
57	0x3f7a14eb	0.9768817
58	0x3e15c378	0.14625347
59	0x3f7d3f4d	0.98924714
60	0x3dcc7576	0.099833414
61	0x3f7eb898	0.9950042
62	0x3d8b6bb4	0.06807652
63	0x3f7f67f6	0.99768007
64	0x3d3e0d1e	0.04639923
65	0x3f7fb96a	0.99892294
66	0x3d01815b	0.031617504
67	0x3f7fdf3c	0.99950004
68	0x3cb07a47	0.021542681
69	0x3f7ff0ca	0.9997679
70	0x3c7079c1	0.014677466
71	0x3f7ff8f1	0.9998923
72	0x3c23d657	0.009999833
73	0x3f7ffcb9	0.99995
74	0x3bdf3e79	0.0068128672
75	0x3f7ffe7b	0.9999768
76	0x3b981857	0.0046415734
77	0x3f7fff4b	0.9999892
78	0x3b4f3e22	0.0031622727
79	0x3f7fffac	0.999995
80	0x3b0d3164	0.0021544332
81	0x3f7fffd9	0.9999977
82	0x3ac06327	0.0014677987
83	0x3f7fffee	0.9999989
84	0x3a83126d	0.0009999998
85	0x3f7ffff8	0.9999995
86	0x3a3298bf	0.0006812922
87	0x3f7ffffc	0.99999976
88	0x39f35a5c	0.00046415895
89	0x3f7ffffe	0.9999999
90	0x39a5cb61	0.00031622782
91	0x3f7fffff	0.99999994
92	0x3961e8ab	0.00021544348
93	0x3f800000	1.0
94	0x3919e8ef	0.00014677992
95	0x3f800000	1.0
96	0x3f68c7b7	0.9092974
97	0xbed51133	-0.41614684
98	0x3f7a788e	0.978402
99	0x3e53ac10	0.20671105
100	0x3f4cf4fb	0.8006131
101	0x3f1963f8	0.59918165
102	0x3f17541b	0.5911271
103	0x3f4e7bec	0.8065784
104	0x3ed5d9be	0.41767687
105	0x3f6899b9	0.9085956
106	0x3e942735	0.28936163
107	0x3f750c5c	0.95721984
108	0x3e4b6ff8	0.19866931
109	0x3f7ae5a5	0.9800666
110	0x3e0b18e7	0.13583718
111	0x3f7da08f	0.9907312
112	0x3dbdd8b7	0.09269851
113	0x3f7ee5d1	0.9956942
114	0x3d8170c8	0.063203394
115	0x3f7f7cf9	0.9980007
116	0x3d306fcb	0.043075364
117	0x3f7fc32c	0.99907184
118	0x3cf0731f	0.029351769
119	0x3f7fe3c3	0.9995691
120	0x3ca3d43e	0.019998666
121	0x3f7ff2e5	0.9998
122	0x3c5f3d25	0.013625418
123	0x3f7ff9eb	0.9999072
124	0x3c1817ec	0.009283047
125	0x3f7ffd2d	0.9999569
126	0x3bcf3dde	0.006324514
127	0x3f7ffeb1	0.99998003
128	0x3b8d314e	0.004308856
129	0x3f7fff64	0.9999907
130	0x3b40631a	0.0029355944
131	0x3f7fffb8	0.9999957
132	0x3b031268	0.0019999985
133	0x3f7fffdf	0.99999803
134	0x3ab298bc	0.0013625841
135	0x3f7ffff1	0.9999991
136	0x3a735a5b	0.00092831784
137	0x3f7ffff9	0.9999996
138	0x3a25cb60	0.0006324556
139	0x3f7ffffd	0.9999998
140	0x39e1e8ab	0.00043088695
141	0x3f7fffff	0.99999994
142	0x3999e8ef	0.00029355983
143	0x3f7fffff	0.99999994
144	0x3e1081c3	0.14112
145	0xbf7d7026	-0.9899925
146	0x3f63e222	0.89016926
147	0xbee94857	-0.45563003
148	0x3f7bf0ce	0.98414314
149	0x3e35a216	0.17737612
150	0x3f5009c2	0.8126489
151	0x3f152f58	0.58275366
152	0x3f1a2dc8	0.60226107
153	0x3f4c5d56	0.7982992
154	0x3eda3d08	0.42624688
155	0x3f679451	0.9046069
156	0x3e974e6c	0.2955202
157	0x3f7490ef	0.9553365
158	0x3e4fd6bc	0.20296758
159	0x3f7aabe6	0.97918546
160	0x3e0e2117	0.1387981
161	0x3f7d85a8	0.9903207
162	0x3dc1ffc0	0.094726086
163	0x3f7ed94f	0.99550337
164	0x3d8446bd	0.06458805
165	0x3f7f7729	0.997912
166	0x3d344e0d	0.044019748
167	0x3f7fc079	0.99903065
168	0x3cf5b91f	0.0299955
169	0x3f7fe283	0.99955004
170	0x3ca76c34	0.020437337
171	0x3f7ff250	0.99979115
172	0x3c6422d5	0.01392432
173	0x3f7ff9a6	0.9999031
174	0x3c1b6e12	0.009486692
175	0x3f7ffd0d	0.999955
176	0x3bd3c9bf	0.006463259
177	0x3f7ffea2	0.99997914
178	0x3b904a42	0.0044033835
179	0x3f7fff5d	0.9999903
180	0x3b449b92	0.0029999954
181	0x3f7fffb5	0.9999955
182	0x3b05f28a	0.0020438754
183	0x3f7fffdd	0.9999979
184	0x3ab683c2	0.0013924765
185	0x3f7ffff0	0.99999905
186	0x3a78b110	0.00094868336
187	0x3f7ffff9	0.9999996
188	0x3a296e7f	0.00064633036
189	0x3f7ffffd	0.9999998
190	0x39e6dd66	0.00044033973
191	0x3f7ffffe	0.9999999
192	0xbf41bdcf	-0.7568025
193	0xbf275530	-0.6536436
194	0x3ecf19b6	0.40449303
195	0xbf6a1f5d	-0.91454107
196	0x3f759ce7	0.9594254
197	0xbe905d6c	-0.28196275
198	0x3f741dde	0.95358074
199	0x3e9a2eb1	0.30113748
200	0x3f424dbe	0.75899875
201	0x3f26adf9	0.6510921
202	0x3f0dd0ad	0.5539654
203	0x3f552152	0.8325397
204	0x3ec761d7	0.38941833
205	0x3f6bcaa7	0.921061
206	0x3e89ced9	0.26915625
207	0x3f768d7e	0.9630965
208	0x3e3d0773	0.18459873
209	0x3f7b99b2	0.98281395
210	0x3e012e88	0.12615407
211	0x3f7df469	0.99201065
212	0x3db045df	0.08607077
213	0x3f7f0ccc	0.996289
214	0x3d70589a	0.058678247
215	0x3f7f8f14	0.99827695
216	0x3d23cbdb	0.039989334
217	0x3f7fcb94	0.9992001
218	0x3cdf37d7	0.027248306
219	0x3f7fe7ab	0.9996287
220	0x3c98163e	0.018565293
221	0x3f7ff4b4	0.9998276
222	0x3c4f3ccf	0.012648775
223	0x3f7ffac2	0.99992
224	0x3c0d30f8	0.008617632
225	0x3f7ffd91	0.99996287
226	0x3bc062e4	0.0058711637
227	0x3f7ffedf	0.9999828
228	0x3b831257	0.003999989
229	0x3f7fff7a	0.999992
230	0x3b3298b2	0.0027251658
231	0x3f7fffc2	0.9999963
232	0x3af35a54	0.0018566349
233	0x3f7fffe3	0.9999983
234	0x3aa5cb5e	0.0012649109
235	0x3f7ffff3	0.9999992
236	0x3a61e8a9	0.0008617738
237	0x3f7ffffa	0.99999964
238	0x3a19e8ee	0.0005871196
239	0x3f7ffffd	0.9999998
240	0xbf757c10	-0.9589243
241	0x3e913c2c	0.2836622
242	0xbe86083a	-0.2617815
243	0xbf771293	-0.96512717
244	0x3f3b500a	0.73169005
245	0xbf2e7fcb	-0.68163747
246	0x3f7ffc7f	0.99994653
247	0xbc2972e9	-0.010342338
248	0x3f6171cf	0.88064283
249	0x3ef29363	0.47378072
250	0x3f2b7615	0.66977054
251	0x3f3e18f2	0.74256814
252	0x3ef57743	0.47942552
253	0x3f60a940	0.87758255
254	0x3eab0ea5	0.3340961
255	0x3f714a3d	0.94253904

in_proj_weight f4 [144, 48]
0	0xbdf32673	-0.11872568
1	0x3c2c86b2	0.010530161
2	0xbd6f1118	-0.05836591
3	0x3e0e1c22	0.1387792
4	0xbddc7a0a	-0.107654646
5	0xbc257ce4	-0.010100577
6	0x3d2b56f3	0.041830968
7	0x3ca4afc8	0.02010335
8	0xbdbb5d0b	-0.09148606
9	0x3e1777f4	0.14791852
10	0xbd951097	-0.07278555
11	0xbc958de9	-0.018256145
12	0x3dc04e10	0.09389889
13	0xbe1743e7	-0.14771996
14	0x3d800354	0.06250635
15	0xbd515b60	-0.051112533
16	0x3d35dc63	0.04439963
17	0xbc0bef6c	-0.008540969
18	0xbdb77163	-0.08957174
19	0xbcd9112a	-0.026497442
20	0x3d2a20e4	0.041535273
21	0xbdeb0eba	-0.11477418
22	0xbe18a695	-0.14907296
23	0x3daa2218	0.08307284
24	0x3daa41e7	0.08313351
25	0x3d79046c	0.060795233
26	0x3dc0d1d6	0.09415023
27	0xbc732cea	-0.014842251
28	0x3c99ee3f	0.018790362
29	0x3bf669f8	0.0075199567
30	0xbe13bca5	-0.14427431
31	0xbe2b3a4d	-0.16721459
32	0x3e1b7858	0.15182626
33	0x3d74565c	0.05965267
34	0x3c105b8c	0.008810889
35	0x3d831b70	0.06401718
36	0x3d9feca6	0.07808809
37	0xbd0c341c	-0.034229383
38	0xbe13f23e	-0.14447877
39	0x3dccecfa	0.10006137
40	0xbc2d4452	-0.010575371
41	0xbd7858b1	-0.060631458
42	0xbe1ddab7	-0.15415464
43	0x3d0ae093	0.033905577
44	0x3e16d2b7	0.14728819
45	0x3d848b8d	0.0647193
46	0xbe0688a8	-0.13138068
47	0x3e061fb8	0.13098037
48	0xbcdebbc7	-0.027189149
49	0xbce89f39	-0.028396236
50	0xbd40ff3c	-0.04711841
51	0xbc27b30b	-0.010235558
52	0xbde010a3	-0.10940673
53	0x3d0f9350	0.035052598
54	0x3c1ede1a	0.009696508
55	0x3dab3085	0.08358864
56	0x3c03e2b9	0.00804966
57	0xbe16126f	-0.1465547
58	0x3d958bc3	0.07302048
59	0x3dfc0486	0.1230555
60	0x3df6a8ca	0.12043913
61	0x3d577317	0.052599993
62	0x3df3f2ca	0.11911543
63	0xbdf6f776	-0.12058918
64	0xbd406ff6	-0.046981774
65	0x3b090fa9	0.0020913875
66	0xbdb49c47	-0.0881887
67	0xbe12aa50	-0.14322782
68	0x3cc04885	0.02347208
69	0x3c39ebb5	0.011347701
70	0xbdbf55c4	-0.0934253
71	0xbcdebabf	-0.027188657
72	0x3df24f88	0.11831576
73	0xbe161ed4	-0.14660197
74	0x3d87d266	0.06631927
75	0xbe061381	-0.13093378
76	0xbda9ed60	-0.08297229
77	0x3df47be5	0.119376935
78	0xbe21b0c8	-0.15790093
79	0x3e0df655	0.138635
80	0x3dd7b475	0.10532466
81	0xbc2bf1a1	-0.010494621
82	0xbd81c4f7	-0.06336396
83	0xbe210a0c	-0.15726489
84	0xbe0ddfc8	-0.13854897
85	0xbd50a1b8	-0.050935477
86	0x3c21ebde	0.009882895
87	0xbde394d2	-0.111123696
88	0x3d9b59b2	0.075854674
89	0x3e2967b9	0.16543473
90	0x3a4887a6	0.0007649608
91	0xbcf30854	-0.029667057
92	0xbe22a4cd	-0.15883179
93	0x3d8432d3	0.064550065
94	0x3dc3b218	0.09555453
95	0x3df37a5e	0.11888574
96	0x3cfe6e2a	0.03105839
97	0xbe2b1dc9	-0.16710581
98	0x3e178721	0.14797641
99	0xbbeaad41	-0.0071617668
100	0xbd73c49a	-0.059513666
101	0xbdc80ee6	-0.09768467
102	0x3d89af13	0.06722846
103	0xbe1f9186	-0.15582857
104	0xbd123320	-0.035693288
105	0xbe0229ed	-0.12711306
106	0x3e282945	0.16421993
107	0x3d504633	0.050848197
108	0xbdab0eb0	-0.08352411
109	0xbdd9c2c1	-0.106328495
110	0xbca74b7d	-0.020421738
111	0xbcf9a41a	-0.030473758
112	0x3be25102	0.0069066295
113	0x3d734be8	0.05939856
114	0xbc994026	-0.018707346
115	0x3d8712bc	0.0659537
116	0xbcf87731	-0.030330272
117	0xbd560d10	-0.05225855
118	0xbd2fe795	-0.042945463
119	0xbddfeb37	-0.109335355
120	0x3d8ef191	0.06979669
121	0xbdcb6ed8	-0.09933251
122	0xbd7ed2d4	-0.06221278
123	0xbe013ecf	-0.12621616
124	0xbd2ef589	-0.04271463
125	0xbe1fc1f6	-0.15601334
126	0xbd3eb7ff	-0.04656219
127	0x3e0da00c	0.13830584
128	0xbe1a2aa9	-0.15055336
129	0x3dabee7b	0.08395096
130	0xbd402713	-0.046912264
131	0x39b78f53	0.00035011265
132	0x3948c73a	0.00019147704
133	0xbd623edd	-0.055235732
134	0x3cd3b838	0.025844678
135	0xbe078512	-0.13234356
136	0xbd861c13	-0.065483235
137	0x3c80532c	0.01566466
138	0xbd4e7bca	-0.050411023
139	0xbe13cab3	-0.14432792
140	0xbe1e4fc1	-0.15460111
141	0x3e05cc9c	0.13066334
142	0xbe2c88a4	-0.16849
143	0xbe00ff8a	-0.1259748
144	0xbda3ad04	-0.079919845
145	0xbe0b0fb2	-0.13580206
146	0xbe10515c	-0.14093536
147	0xbd2d984a	-0.042381562
148	0x3d0c55ae	0.034261398
149	0xbdbf99db	-0.093555175
150	0x3e04f825	0.12985285
151	0x3d4ed4a1	0.050495747
152	0x3cf9c501	0.030489447
153	0x3dd9871b	0.106214724
154	0x3e168503	0.14699177
155	0xbcd4a1c0	-0.025956035
156	0xbd8da4f8	-0.06916231
157	0x3e26cabf	0.16288279
158	0x3de5a963	0.112139486
159	0x3d022d8a	0.03178171
160	0xbdaf4817	-0.08558672
161	0xbd9aa729	-0.075514145
162	0xbdb313fe	-0.087440476
163	0xbd27885f	-0.040901538
164	0x3dfefff3	0.12451162
165	0x3e0b4a22	0.13602498
166	0x3d8f8205	0.07007221
167	0x3e070b0d	0.1318781
168	0x3cf7b07f	0.030235527
169	0x3d0933dd	0.033496726
170	0xbe112160	-0.14172888
171	0xbdc6e0be	-0.09710835
172	0x3e005324	0.12531716
173	0xbe293f09	-0.16527952
174	0x3e06b3e1	0.13154556
175	0xbbb71e63	-0.005588339
176	0xbe200383	-0.1562634
177	0x3d95fec6	0.07323985
178	0x3ce24f7b	0.02762579
179	0x3e12de52	0.14342621
180	0xbe0617f6	-0.13095078
181	0xbdc5c75e	-0.09657167
182	0x3e136fbb	0.1439809
183	0xbe17c138	-0.14819801
184	0x3d3b155f	0.045674678
185	0x3e1d2f02	0.15349963
186	0xbdbcbffe	-0.09216307
187	0x3e0ac5bf	0.13551997
188	0xbdb17502	-0.086648956
189	0x3ddcc16c	0.1077908
190	0xbd89f092	-0.06735338
191	0xbd9aaa79	-0.07552046
192	0xbdd58fd6	-0.10427825
193	0xbe1728b0	-0.14761615
194	0x3e231a92	0.15928105
195	0xbc57ba9c	-0.01316705
196	0xbd2f068c	-0.042730853
197	0xbd419d6a	-0.047269262
198	0x3c617098	0.013759755
199	0x3dfac3b6	0.1224436
200	0x3e1a3520	0.15059328
201	0xbdd866e8	-0.10566503
202	0x3d521b5a	0.051295616
203	0xbd70e846	-0.058815263
204	0xbdd798f9	-0.10527224
205	0x3cf8bc04	0.03036309
206	0xbdb29588	-0.08719927
207	0x3c9ea0dc	0.019363813
208	0xbcfb108a	-0.030647535
209	0x3c25b1ab	0.01011316
210	0x3dacee1c	0.08443853
211	0xbe1923b7	-0.1495503
212	0xbdb0ec86	-0.08638863
213	0x3e1553d6	0.14582762
214	0xbdf24f18	-0.11831492
215	0x3d1d16e6	0.038351916
216	0xbd178e7c	-0.037001118
217	0xbe0445f5	-0.12917311
218	0xbd104af1	-0.03522772
219	0xbdd55bfc	-0.10417935
220	0xbd21ed40	-0.0395329
221	0x3df18d30	0.117945075
222	0xbd6721d4	-0.056428745
223	0xbd176fc6	-0.03697183
224	0x3d8f52bf	0.069982044
225	0x3de75fd7	0.11297577
226	0xbdec582d	-0.11540256
227	0x3d0cb377	0.03435084
228	0xbe26ddca	-0.16295543
229	0x3c8ec296	0.01742677
230	0xb8efce67	-0.000114348535
231	0xbdb27b15	-0.08714882
232	0x3d5597bf	0.05214667
233	0xbdbc2885	-0.09187416
234	0x3c9e3e0d	0.019316697
235	0xbcbbee47	-0.022940768
236	0x3d2dc415	0.042423327
237	0xbbe5bacd	-0.007010794
238	0xbc785d29	-0.01515893
239	0xbc44d2c4	-0.012013141
240	0xbdb6a811	-0.08918775
241	0x3e290ae5	0.16508062
242	0x3e0891be	0.13336846
243	0x3dfd91ed	0.12381349
244	0xbc6b5061	-0.014362426
245	0xbe086477	-0.13319574
246	0x3d926be6	0.07149486
247	0xbda777c5	-0.08177141
248	0x3e2b3765	0.1672035
249	0x3daa47ce	0.08314477
250	0xbdbe3e25	-0.09289197
251	0xbe1c0679	-0.15236844
252	0x3e0ace7e	0.13555333
253	0xbdd21363	-0.10257604
254	0x3d875172	0.06607331
255	0xbd89314d	-0.066988565

in_proj_bias f4 [144]
0	0xbc24d391	-0.010060207
1	0x3b847b08	0.004042987
2	0x3a02fcdf	0.0004996787
3	0xbbe1f648	-0.006895814
4	0xbb9b3851	-0.004736938
5	0xbc1b5d34	-0.009482671
6	0x3a84f1dd	0.0010142882
7	0x3aca09c3	0.0015414286
8	0x3a8e9853	0.0010879136
9	0xbb2726cc	-0.0025505302
10	0x3c21712b	0.0098536415
11	0x38bebf20	9.095506e-05
12	0x3bfc7ebf	0.007705539
13	0xbbb23d96	-0.0054394705
14	0x3b969b9b	0.0045961863
15	0x3ba8df0b	0.005153542
16	0x3a722488	0.0009237011
17	0xbbbaa6a8	-0.0056961365
18	0x39cd32d3	0.00039138514
19	0x3a53e18b	0.000808262
20	0x3ba2c7d0	0.004967667
21	0xba4245fb	-0.00074109406
22	0x3a76a87e	0.00094092626
23	0xba610e91	-0.00085852394
24	0xb99dcc41	-0.00030097555
25	0xbbbff87a	-0.005858478
26	0xb84d750e	-4.8984824e-05
27	0x3a21b7c7	0.00061690476
28	0xbc09890d	-0.008394492
29	0x3bad5493	0.005289623
30	0xbc125605	-0.0089316415
31	0x3a67a0b0	0.0008835895
32	0x3c0e7401	0.00869465
33	0xba922370	-0.0011149477
34	0xbb85f878	-0.0040884577
35	0x3b2a5660	0.0025991425
36	0x3b88d0b8	0.004175272
37	0xba84ff6f	-0.0010146926
38	0x39d065b3	0.00039748623
39	0x3b03a1b8	0.0020085406
40	0xbb934aa9	-0.004494984
41	0x3c2243e3	0.009903881
42	0xba79241d	-0.00095039775
43	0xbbe7fa6e	-0.007079414
44	0xbb08859d	-0.0020831593
45	0x3b5ad13a	0.003338887
46	0xbbd6e6cb	-0.0065582744
47	0x3ab6acf6	0.0013937044
48	0x38b0c2cf	8.42862e-05
49	0xb8aa7a03	-8.128958e-05
50	0x38ab5fd9	8.1717684e-05
51	0x390d8c4b	0.00013499071
52	0xb9291f23	-0.00016128695
53	0xb7f31545	-2.8977762e-05
54	0x39200ef3	0.00015264358
55	0xb838aff9	-4.4032906e-05
56	0x3902db96	0.00012479568
57	0x36c0e84d	5.7490893e-06
58	0xb7fd1136	-3.0167965e-05
59	0xb8bcc46b	-9.001124e-05
60	0x390e23d3	0.00013555521
61	0x3888a24f	6.515218e-05
62	0x39095d17	0.00013100017
63	0xb8c5c792	-9.430865e-05
64	0x38b0a99b	8.4239255e-05
65	0xb849a435	-4.8075064e-05
66	0x399636d8	0.0002865109
67	0xb8a56bc9	-7.88789e-05
68	0x36c84577	5.9685512e-06
69	0x38f74678	0.000117910036
70	0x37c382c1	2.3306698e-05
71	0x38dfccc4	0.00010671609
72	0xb810b179	-3.449756e-05
73	0x3892abe6	6.993841e-05
74	0xb925a4eb	-0.00015797063
75	0x3904d981	0.00012669527
76	0xb84a1fcd	-4.819017e-05
77	0x390bc535	0.00013329538
78	0xb8df8d25	-0.00010659759
79	0x383ea310	4.5451394e-05
80	0x391af98d	0.0001477955
81	0xb93c2d89	-0.0001794604
82	0x38d53626	0.000101667174
83	0xb6ddcabb	-6.609914e-06
84	0x393592b8	0.00017316162
85	0x39c9377f	0.00038379055
86	0x38cf588b	9.8870216e-05
87	0xb94595d3	-0.00018843198
88	0x399c9635	0.00029866552
89	0x38b5b9de	8.665373e-05
90	0x391091f5	0.00013787283
91	0xb9aa23ac	-0.00032451504
92	0xb9cfed5c	-0.00039658963
93	0x39564f49	0.00020438166
94	0x3891c954	6.951639e-05
95	0xb91e5f91	-0.00015103655
96	0x3c2ef7a7	0.010679162
97	0x3b1cad0a	0.002390685
98	0x3abe0080	0.0014495999
99	0xbb1f81c2	-0.0024338816
100	0x3bb5f8c1	0.0055533354
101	0x3a0533db	0.00050812744
102	0xbb434bc8	-0.0029799808
103	0x3acbb33b	0.0015541086
104	0xbb08eb4b	-0.0020892199
105	0xbb89963f	-0.004198819
106	0x3bdbee2c	0.006711742
107	0xbab88b10	-0.001407953
108	0xbc21ea66	-0.009882545
109	0xbb859655	-0.004076759
110	0xbb60d4f4	-0.0034306617
111	0x3b78be6d	0.00379553
112	0xbaca1634	-0.0015417994
113	0xb9b9d466	-0.000354442
114	0x3b0d4be3	0.0021560125
115	0x3bc3d0a4	0.0059757996
116	0xba004b70	-0.00048940536
117	0x3b1a28db	0.0023522887
118	0x39e220a3	0.00043130395
119	0xbb5c669a	-0.0033630491
120	0x3b322b33	0.0027186393
121	0x39197d1b	0.00014637822
122	0xbad7534e	-0.0016428025
123	0x3ac903af	0.0015336181
124	0xb992e008	-0.00028014206
125	0x3b5a388b	0.0033297862
126	0x3aba7871	0.0014226568
127	0xbc088a9c	-0.008333828
128	0xbb844d97	-0.0040375697
129	0x3bc64eb5	0.006051863
130	0xbb87bc8f	-0.004142351
131	0xbb56b798	-0.003276324
132	0x3bc56d1d	0.00602497
133	0xbb6cca7a	-0.0036131428
134	0x3b3114ae	0.0027020383
135	0x3b116565	0.002218568
136	0xbc38abe6	-0.0112714525
137	0xbb2844cc	-0.0025675772
138	0x3afd5b7e	0.0019329635
139	0xbb382121	-0.0028095918
140	0xbb8994a6	-0.0041986285
141	0xbc138507	-0.009003884
142	0xbb05d6dc	-0.0020422256
143	0x3b433394	0.0029785382

weight f4 [48, 48]
0	0x3ccf1afd	0.025281424
1	0xbdd05cc8	-0.101739466
2	0x3e60b286	0.21943101
3	0xbac03892	-0.0014665297
4	0xbe595fd9	-0.21227969
5	0x3e43cd49	0.19121279
6	0xbd9a71de	-0.0754125
7	0xbe1e3adc	-0.1545214
8	0x3e376dd8	0.17912996
9	0x3e18733c	0.14887708
10	0x3e66171c	0.22469753
11	0x3df62493	0.12018695
12	0xbe76f794	-0.24117881
13	0xbe5833e7	-0.21113549
14	0xbe0afb36	-0.13572392
15	0x3c9f27f7	0.019428236
16	0xbd88a08f	-0.06671249
17	0x3e1934e8	0.14961588
18	0xbe3277aa	-0.1742846
19	0xbcd91bd7	-0.026502533
20	0xbd8421ff	-0.06451797
21	0xbe591150	-0.2119801
22	0x3dba696c	0.09102139
23	0xbd473648	-0.04863575
24	0xbdf458ff	-0.11931037
25	0x3e052462	0.1300216
26	0x3d148230	0.03625697
27	0x3d6a9760	0.05727327
28	0xbe69ef0b	-0.22845094
29	0x3d0307b9	0.031989787
30	0xbe0f2dfd	-0.13982387
31	0xbc59feaa	-0.013305346
32	0x3defda9c	0.11711618
33	0xbd7f271b	-0.062293153
34	0x3e156565	0.1458946
35	0x3dc7d5ad	0.09757552
36	0xbe47c7af	-0.19509767
37	0x3dc3f16b	0.09567531
38	0x3d4cfe2c	0.050047085
39	0x3e2aaee3	0.16668276
40	0x3d6ed21a	0.058305837
41	0x3d988b92	0.07448496
42	0xbd1a680c	-0.037696883
43	0x3e5b2a0f	0.21402763
44	0xbc7454ca	-0.014912793
45	0x3e239eb8	0.15978515
46	0xbdfb6896	-0.122758076
47	0xbe6c07f0	-0.23049903
48	0x3dd971cc	0.10617408
49	0xbe3751c3	-0.17902283
50	0x3e4711ba	0.19440356
51	0x3e160edf	0.1465411
52	0xbcb6ac8c	-0.022299074
53	0x3b45fa12	0.0030208868
54	0xbcd2b82e	-0.02572259
55	0x3d445b8e	0.047938876
56	0xbe1d8ba3	-0.15385298
57	0xbe2f02d4	-0.17090923
58	0xbe07d9bd	-0.13266654
59	0xbb14671d	-0.0022644468
60	0xbe4efc35	-0.20213397
61	0xb94789ee	-0.00019029502
62	0xbd0b2bcf	-0.033977326
63	0xbd70ace8	-0.058758646
64	0xbcaa796b	-0.02080985
65	0xbe1a6c0e	-0.15080282
66	0x3e0f1d48	0.13976014
67	0x3dd0c9f0	0.101947665
68	0xbca1790b	-0.019711038
69	0x3d94e247	0.072697215
70	0x3dbeb12c	0.093111366
71	0x3c9158ca	0.017742533
72	0xbbb215fb	-0.005434749
73	0xbe41a5e7	-0.18910943
74	0xbda054a1	-0.07828642
75	0xbba2270d	-0.004948503
76	0x3e170465	0.1474777
77	0x3dff5d23	0.12468936
78	0xbc3898bc	-0.011266883
79	0x3d82e359	0.063910194
80	0x3d753fcd	0.0598753
81	0xbde731c3	-0.11288788
82	0xbe5457ef	-0.20736669
83	0xbdedd0f8	-0.11612123
84	0xbde78ae4	-0.11305788
85	0x3e3b6700	0.1830101
86	0x3df7fdb2	0.121089354
87	0x3e2eafdb	0.17059271
88	0xbd739005	-0.05946352
89	0x3cf67b75	0.030088166
90	0xbd06f617	-0.032949533
91	0xbe0c3476	-0.13691887
92	0xbb239c7f	-0.0024965105
93	0xbd6575ff	-0.056020733
94	0x3dbf5a04	0.09343341
95	0xbda7b3bc	-0.081885785
96	0xbdc306f2	-0.09522809
97	0xbd57b85f	-0.052666064
98	0xbe08029b	-0.13282244
99	0xbcbb5dd3	-0.022871887
100	0xbe3c91ed	-0.18415041
101	0xbdc27c30	-0.09496343
102	0x3d0127ce	0.0315321
103	0x3e651058	0.22369516
104	0xbe0e4286	-0.13892564
105	0xbe4eefc7	-0.20208655
106	0x3da0a5a0	0.078440905
107	0xbd8fa042	-0.070129886
108	0xbcd025a7	-0.025408579
109	0x3e2680dc	0.16260093
110	0x3e093217	0.13398014
111	0x3e2080d6	0.15674147
112	0x3d6b2345	0.057406683
113	0xbd024b5b	-0.031810146
114	0x3de793b0	0.11307466
115	0x3d832ebc	0.06405398
116	0xbe31582b	-0.1731879
117	0x3e4fb2f6	0.20283112
118	0x3e2a55d9	0.16634311
119	0xbbdbfd70	-0.0067135617
120	0x3e5566cb	0.20839994
121	0x3e11b8e3	0.14230685
122	0xbe366d3d	-0.17815109
123	0x3e0c2d93	0.1368926
124	0xbdb7306c	-0.089447826
125	0xbe3ab480	-0.18232918
126	0x3e3b0262	0.18262628
127	0xbe63ebe2	-0.22257951
128	0x3e095d25	0.13414438
129	0xbddf4f57	-0.10903805
130	0xbcbf5f16	-0.02336077
131	0x3e5edc92	0.21763828
132	0x3c550d6b	0.013003687
133	0xbe07398c	-0.13205546
134	0x3de61e11	0.112362035
135	0x3d992b1a	0.07478924
136	0x3d642d2e	0.05570715
137	0xbe395e97	-0.1810249
138	0x3dd5ec4d	0.104454614
139	0xbc93dbc2	-0.018049125
140	0xbda09a31	-0.0784191
141	0xbda5c96a	-0.08095057
142	0xbda377ca	-0.07981832
143	0xbd5dcb35	-0.05414887
144	0xbe06704b	-0.13128774
145	0xbe1f65bb	-0.15566151
146	0xbdd95d47	-0.10613494
147	0x3e032652	0.12807587
148	0xbd3d6290	-0.046236575
149	0x3dc61cf6	0.096734926
150	0xbda3d9a5	-0.08000497
151	0x3d88a51a	0.066721156
152	0xbd1acf0d	-0.037795115
153	0xbda10d49	-0.07863862
154	0xbd4ac192	-0.04950101
155	0xbe3ec726	-0.18630657
156	0xbdd4a2df	-0.10382628
157	0x3dca54ee	0.0987948
158	0x3e367aa9	0.17820229
159	0xbe45c7db	-0.1931452
160	0xbe2a910e	-0.16656896
161	0x3e3209e5	0.17386587
162	0x3e0c03e5	0.1367336
163	0xbbab318b	-0.005224412
164	0x3d9edd7d	0.07757089
165	0xbe41c2a1	-0.18921901
166	0x3dd377f8	0.103256166
167	0x3e580f97	0.21099697
168	0x3caefd26	0.021360945
169	0x3d2c7551	0.04210407
170	0x3d651f83	0.055938255
171	0xbcc9fe0a	-0.024657268
172	0x3da82dc6	0.082118556
173	0x3e3ac897	0.18240581
174	0xbe2f6b4c	-0.17130774
175	0xbc9c53d0	-0.019082934
176	0xbe1eada7	-0.1549593
177	0xbcc2c251	-0.023774298
178	0x3d32764b	0.043569844
179	0x3e1bebf0	0.15226722
180	0x3e1e67ff	0.15469359
181	0xbd21e0dc	-0.039521083
182	0xbd34d747	-0.044150617
183	0x3e0113a3	0.12605147
184	0xbd71c0ad	-0.05902164
185	0x3d24cfbe	0.04023718
186	0xbe1285c8	-0.14308846
187	0x3e1aeebb	0.15130131
188	0xbe43c732	-0.19118956
189	0x3d1aee22	0.037824757
190	0x3e5716c9	0.21004786
191	0xbd64a687	-0.055822875
192	0x3dd678e6	0.10472278
193	0xbc646f44	-0.013942543
194	0x3e7377a7	0.23776112
195	0xbe569620	-0.20955706
196	0xbd8bf330	-0.06833494
197	0xbe140fbe	-0.1445913
198	0xbdb9830d	-0.09058199
199	0x3e2ee3c7	0.17079078
200	0x3a8ae63d	0.0010597181
201	0x3a773b1d	0.0009431111
202	0x3e6394cc	0.2222473
203	0xbd8b5777	-0.06803792
204	0x3e2c7c92	0.16844395
205	0xbe5f5c92	-0.21812657
206	0x3e13afa3	0.14422469
207	0xbdee1717	-0.11625498
208	0x3d28c7d1	0.041206185
209	0x3db62e1e	0.08895515
210	0x3d344309	0.044009242
211	0xbe46b8d9	-0.19406451
212	0x3d6fc9a4	0.05854191
213	0xbe4dab8d	-0.20084973
214	0xbe02fff3	-0.1279295
215	0x3dffb480	0.124855995
216	0xbd501edb	-0.050810676
217	0x3e0d120f	0.1377642
218	0xbc1e4c38	-0.009661727
219	0xbe3963cf	-0.1810448
220	0x3d6da2b2	0.058016486
221	0x3cd0e0b6	0.025497776
222	0x3cca5318	0.024697825
223	0x3d17989b	0.03701077
224	0x3da72773	0.08161821
225	0x3da3f9f3	0.080066584
226	0xbde9237d	-0.11383722
227	0x3e55dda6	0.20885333
228	0x3d467a2d	0.04845636
229	0xbdca67b4	-0.09883061
230	0x3e0748cc	0.13211364
231	0xbd234e5a	-0.039869644
232	0x3e641a1a	0.22275582
233	0x3e23ccfa	0.15996161
234	0xbd3e5d68	-0.046475798
235	0xbcbfde13	-0.023421323
236	0x3cc31376	0.02381299
237	0xbe2afbed	-0.16697665
238	0x3d860180	0.06543255
239	0xbde22d05	-0.11043743
240	0x3d02ff4d	0.031981755
241	0x3dc5663a	0.09638639
242	0x3dc09549	0.09403474
243	0xbd19233f	-0.03738713
244	0xbe033a5c	-0.12815231
245	0xbe4969f5	-0.19669326
246	0xbe3a05e2	-0.18166307
247	0xbe57dc10	-0.21080041
248	0x3e1a5121	0.1507001
249	0x3d8ab885	0.067734756
250	0xbe3125dd	-0.172996
251	0x3d34027d	0.043947686
252	0xbe15729e	-0.14594504
253	0x3d1f637a	0.038913228
254	0x3c8473fc	0.016168587
255	0x3e143950	0.14474988

bias f4 [48]
0	0xbb9eb820	-0.0048437268
1	0x3bfb5d5f	0.007671043
2	0xb8d8518e	-0.00010314873
3	0x3b8662fc	0.0041011553
4	0xbb8ff2de	-0.0043929657
5	0xbb1d6608	-0.0024017114
6	0x3ba90f48	0.0051592924
7	0x3b27d0fe	0.0025606747
8	0xbb9ef08b	-0.0048504523
9	0xbb8d1500	-0.004305482
10	0xbb2c014d	-0.0026245893
11	0xb9970f07	-0.0002881216
12	0x3a5abd11	0.0008344213
13	0x3a072fe5	0.0005156978
14	0x38a48fb2	7.846895e-05
15	0xbabc3242	-0.001435824
16	0x3a91d9be	0.0011127514
17	0x3a9baf09	0.0011877726
18	0xbb5fe08d	-0.0034160942
19	0xbb4bddf3	-0.0031107634
20	0xbb019b03	-0.0019776232
21	0x3baecdc6	0.0053345887
22	0x3a499c64	0.00076908455
23	0xbae2292f	-0.0017254705
24	0x3a6df1ae	0.00090768456
25	0x3b61879e	0.003441311
26	0x3bfcea51	0.0077183624
27	0x39182f49	0.00014513465
28	0x3b30b71b	0.0026964608
29	0xbbb99379	-0.005663332
30	0x3b8ad7c2	0.004237146
31	0xba44b895	-0.00075043115
32	0x3b87ba6a	0.0041420953
33	0x3b1938f7	0.00233799
34	0x3c0ef562	0.008725496
35	0x3bc81711	0.0061062654
36	0x3b6dc1f7	0.0036278942
37	0xbbafa249	-0.005359922
38	0xbbeeb357	-0.0072845626
39	0x3a21e674	0.0006176003
40	0x3adbef2e	0.0016779655
41	0xb9970f74	-0.00028812478
42	0x3abb9589	0.0014311533
43	0x39dcd869	0.00042122908
44	0x3bb4a53c	0.0055128615
45	0xbb2a1d99	-0.0025957583
46	0x3baac6bb	0.005211679
47	0xbbd0ba8a	-0.0063698934

weight f4 [128, 48]
0	0xbb25cd21	-0.0025299268
1	0x3d1fde95	0.03903063
2	0x3c53c0a3	0.012924346
3	0x3d3ff396	0.04686316
4	0x3dcdcecd	0.1004921
5	0x3d1976f4	0.03746696
6	0x3dc51cd6	0.09624641
7	0x3b1b6ba3	0.002371528
8	0x3df73e86	0.12072472
9	0xbdd555c7	-0.10416751
10	0x3ab15bca	0.0013531384
11	0xbaebac56	-0.0017980437
12	0x3a69b971	0.00089158776
13	0xbd51faa6	-0.051264428
14	0x3cba31ef	0.022728888
15	0xbbcfc888	-0.006341044
16	0xbc91e873	-0.017811036
17	0x3ddb9557	0.10721844
18	0x3d1b2d1f	0.037884828
19	0x3ca02abf	0.019551633
20	0x3cfd4a60	0.030919254
21	0x3bdadc4e	0.0066790944
22	0x3ce48df3	0.027899718
23	0x3cf2f429	0.02965744
24	0xbdb94e1f	-0.090481035
25	0xbdf5c48d	-0.1200038
26	0xbde7818b	-0.11304005
27	0xbd7c4c7e	-0.061596386
28	0x3cd40048	0.02587904
29	0xbb34954a	-0.0027554804
30	0xbcc6242d	-0.024187172
31	0x3acbe824	0.0015556854
32	0xbd989f20	-0.07452226
33	0xba5c4700	-0.0008402914
34	0xb9e5efd9	-0.00043856984
35	0xbb1cbb20	-0.0023915246
36	0xbdd12061	-0.10211254
37	0x3df2424e	0.11829053
38	0x3bc5d131	0.0060369004
39	0xb9f066e3	-0.00045853024
40	0xbcdc86a2	-0.026919667
41	0x3a0660c1	0.0005126112
42	0xbd86cc3c	-0.06581923
43	0xbb9787a2	-0.004624323
44	0x3d94bfc8	0.07263142
45	0xbdcc20fd	-0.099672295
46	0x3c6204de	0.013795106
47	0xbdf0c666	-0.117565915
48	0xbc268a92	-0.010164874
49	0x3d0ef1a3	0.03489841
50	0xbd041afc	-0.032252297
51	0x3e1a796b	0.1508538
52	0xbc4b9bee	-0.012427313
53	0x3c3da8b5	0.011575867
54	0xbe1948cc	-0.14969176
55	0x3de4637a	0.11151786
56	0x3dd9ba13	0.10631194
57	0xbe18b437	-0.14912497
58	0xbdbcaf22	-0.092130914
59	0x3bfba530	0.007679604
60	0xbde1236e	-0.10993086
61	0xbdabd2c4	-0.0838981
62	0xbc8ab7fa	-0.01693343
63	0xbe2fc54b	-0.17165105
64	0xbd2f076b	-0.042731684
65	0x3e1bd0be	0.15216348
66	0x3dbff23c	0.093723744
67	0x3db8e5f6	0.090282366
68	0xbcd48af3	-0.025945162
69	0xbc8582c1	-0.0162977
70	0xbdcebcc8	-0.10094601
71	0x3e1b62e0	0.15174437
72	0x3d845dc9	0.064632006
73	0xbd41d30e	-0.047320418
74	0x3c256b10	0.0100963265
75	0x3d03c0b5	0.0321662
76	0x3d55a1ab	0.05215613
77	0x3c898d52	0.01679102
78	0xbdb35cab	-0.087579094
79	0x3dce0698	0.100598514
80	0xbe076a5e	-0.1322417
81	0x3ddccc32	0.10781135
82	0xbdcb9af8	-0.09941667
83	0xbd9d43bd	-0.07678936
84	0x3d466726	0.048438214
85	0x3dd3e658	0.10346669
86	0xbb066900	-0.0020509362
87	0xbdc4a297	-0.09601324
88	0xbdcf79d0	-0.10130656
89	0x3d224285	0.03961422
90	0x3dff0252	0.124516144
91	0x3c9b92a6	0.018990826
92	0x3cb56c8d	0.022146488
93	0xbd37df5b	-0.044890743
94	0xbe32be14	-0.17455322
95	0x3d9d5ff4	0.07684317
96	0x3da91f5d	0.08257935
97	0x3da716ca	0.081586435
98	0xbd3d6185	-0.04623558
99	0xbd04073b	-0.032233458
100	0xbc8cf3b8	-0.017206058
101	0x3d8afda3	0.067866586
102	0x3c229d84	0.00992525
103	0x3e03a093	0.12854223
104	0x3cf5d466	0.030008506
105	0xbe0e844e	-0.13917658
106	0xbd0371c4	-0.032090917
107	0xbdb001f2	-0.08594121
108	0x3d8e10d8	0.069368064
109	0x3dcbf3e3	0.09958627
110	0x3c84f49c	0.01622992
111	0xbdca112c	-0.098665565
112	0xbc8e2008	-0.017349258
113	0xbd0b3a36	-0.03399106
114	0x3df344ab	0.11878332
115	0xbe1beece	-0.15227816
116	0x3e195ec3	0.14977555
117	0x3ddcb79c	0.10777208
118	0xbd084bf4	-0.03327556
119	0xbd0ce6d7	-0.034399834
120	0xbc06ff6f	-0.008239611
121	0x3dbd1364	0.09232214
122	0x3d7d41e7	0.061830427
123	0x3dfdd3eb	0.12393936
124	0x3c95897c	0.018254034
125	0x3bfd9ffd	0.0077400194
126	0xbdfbd6fd	-0.12296865
127	0x3cf1b646	0.02950586
128	0x3df2bf3c	0.11852881
129	0xbcc9193c	-0.024548166
130	0x3e1e6f32	0.15472105
131	0xbb8ea9fa	-0.004353759
132	0x3decd6e6	0.11564426
133	0xbbda3567	-0.006659198
134	0x3c093de3	0.008376571
135	0x3dd6310a	0.10458572
136	0x3d3bafb6	0.045821868
137	0x3b05f214	0.002043848
138	0xbba1e2ea	-0.0049403803
139	0xbe099d38	-0.1343888
140	0x3c8dc1dc	0.017304353
141	0x3dbf6b48	0.09346634
142	0x3e0b22b9	0.13587464
143	0xbda28579	-0.07935614
144	0xbb03150c	-0.0020001559
145	0xbdc73b63	-0.09728124
146	0xbd99433e	-0.074835286
147	0x3da3328c	0.079686254
148	0xbde63bbe	-0.11241864
149	0xbd060557	-0.032719936
150	0x3d3dc32b	0.046328705
151	0xbdc52e40	-0.09627962
152	0xbdfbc385	-0.12293152
153	0xbe09dd9a	-0.1346344
154	0xbe0e98de	-0.13925502
155	0x3dd3786e	0.103257045
156	0x3de12001	0.109924324
157	0x3d6d7fef	0.057983335
158	0xbd23b38e	-0.03996616
159	0x3d09853a	0.03357432
160	0xbcc8357a	-0.024439562
161	0x3e089806	0.13339242
162	0x3db07f29	0.08618004
163	0xbc8c8cc2	-0.017156962
164	0x3a9b9bd7	0.0011872005
165	0x3da8dd5f	0.08245348
166	0x3d7a3cd5	0.06109317
167	0x3dbb7fb6	0.09155218
168	0x3db36e45	0.087612666
169	0xbc2bd5b4	-0.0104879625
170	0xbdd74a9f	-0.1051228
171	0xbd8c68f2	-0.06855954
172	0xbd141416	-0.036151968
173	0xbdb0ab64	-0.0862644
174	0x3c4e1be5	0.012579893
175	0xbb9dd772	-0.004816943
176	0xbdbf1f44	-0.09332135
177	0x3d5b1d13	0.053494524
178	0xbce60f02	-0.028083328
179	0x3d168e25	0.036756653
180	0x3db01903	0.085985206
181	0x3c85b747	0.016322745
182	0x3e14e86e	0.1454179
183	0x3dc719a2	0.09721686
184	0x3d0a7ca7	0.033810284
185	0x3da01a56	0.07817523
186	0x3df2e483	0.118599914
187	0x3d311b26	0.04323878
188	0x3c9acc65	0.018896291
189	0xbdb5a6b7	-0.08869689
190	0x3d4a1008	0.049331695
191	0xbdede938	-0.116167486
192	0x3e08e0bc	0.1336698
193	0x3e11d7d5	0.1424249
194	0xbe1ab204	-0.1510697
195	0xba364683	-0.0006953256
196	0xbdfc5c5b	-0.12322303
197	0xbd888b9e	-0.06667255
198	0x3cc28238	0.023743734
199	0x3ce5a04e	0.02803054
200	0x3def2bd2	0.1167828
201	0xbd2b1a7a	-0.041773297
202	0x3db1a6ba	0.08674379
203	0x3d976cfc	0.07393834
204	0xbd4bddba	-0.049772
205	0x3d83df8b	0.06439122
206	0x3e08bcd1	0.13353278
207	0xbe26f54e	-0.16304514
208	0xbe0af417	-0.13569675
209	0xbd41eef8	-0.04734704
210	0x3e139c8e	0.1441519
211	0xbdc247eb	-0.094863735
212	0xbd813910	-0.06309712
213	0x3dba9c58	0.091118515
214	0xbcca5951	-0.024700793
215	0xbd2d8d0d	-0.042370845
216	0xbd8c51a9	-0.06851513
217	0x3d34e52a	0.04416386
218	0xbcda5ead	-0.026656473
219	0x3e04e1ba	0.12976733
220	0x3e005c0b	0.12535112
221	0xbd080143	-0.03320433
222	0xbe0f7288	-0.14008534
223	0xbdb78210	-0.08960354
224	0x3d41da6b	0.04732744
225	0x3de5bd5a	0.112177566
226	0x3e2dad1c	0.16960567
227	0xbe09603f	-0.13415621
228	0xbe0597bd	-0.13046165
229	0x3bfb9f51	0.007678904
230	0xbe149a45	-0.14511974
231	0xbc21c472	-0.009873496
232	0xbda3b687	-0.07993799
233	0x3e23ec23	0.16008048
234	0xbd35f9f8	-0.044427842
235	0xbe2bea68	-0.16788638
236	0xbb761630	-0.0037549846
237	0x3d82ee0e	0.063930616
238	0xbc9bce56	-0.019019287
239	0x3e103daa	0.14086023
240	0x3dcaa519	0.09894771
241	0xbd13ac74	-0.036053136
242	0xbe108e95	-0.1411689
243	0x3de8b468	0.11362535
244	0xbcf67df4	-0.030089356
245	0x3d4ca6ff	0.049963947
246	0x3d0ab9eb	0.03386871
247	0xbdcac3f8	-0.09900659
248	0xbbefea56	-0.007321636
249	0x3c9bb039	0.019004928
250	0x3caf0284	0.021363504
251	0x3d1f4bf5	0.038890798
252	0x3cc3047a	0.023805846
253	0xbdf843b2	-0.12122287
254	0xbd8f3a99	-0.069935985
255	0xbb8a1342	-0.0042137215
