data/fine_tuning_data/transformer/td_finetuned_model.pt (torch, 825366 bytes, 33 tensors)

att_weights f4 [6]
000000 97 2f 89 3f 6e 03 4b 3f d8 04 2c 3f ea 3a 75 3f
       1.0717648 0.7930211 0.6719489 0.9579302
000010 30 e6 78 3f 91 5a 74 3f
       0.9722624 0.95450693

weight f4 [128, 4]
000000 fc 30 83 bd 24 80 10 be ac 3a b0 3d ae 90 60 3e
       -0.064058274 -0.14111382 0.08604941 0.21930191
000010 3c 31 0b 3e 24 08 e7 bd 41 92 c2 3d 06 42 10 3e
       0.13593 -0.112808496 0.09500552 0.14087686
000020 e8 df 96 bd fe 11 8f 3d be df 4f be ff b5 24 bd
       -0.073669255 0.069858536 -0.20300195 -0.040212628
000030 27 55 89 3d 50 15 30 3e 02 87 0d bc fd fd d5 bc
       0.06705695 0.1719563 -0.008638145 -0.026122088
000040 9f 0e 00 be 79 f3 4c bc e4 4f 4d 3e 39 84 0b 3e
       -0.12505578 -0.01250922 0.20050007 0.13624658
000050 ca c7 0f 3e b7 a5 6e 3d 68 80 2b 3e 78 ff ad bd
       0.14041057 0.058263507 0.16748202 -0.084959924
000060 03 58 35 be ee 31 b4 bd e5 0f 57 3d 54 88 66 bd
       -0.17709355 -0.08798586 0.052505393 -0.056282356
000070 48 53 d4 bd 8d cb 80 3c 2d 6c 9c bd 8e 54 f3 bb
       -0.10367447 0.01572206 -0.076378204 -0.007425851
000080 4a 89 45 3e ca f7 62 bd 73 55 09 bd e6 52 25 3e
       0.19290653 -0.05541209 -0.033528756 0.16144904
000090 fd f9 0c bd 95 89 b8 3d bb e8 bf bc 83 ec b1 3d
       -0.034418095 0.09010617 -0.023426404 0.08687689
0000a0 e8 83 85 bd 7f 54 e9 3d f3 57 f8 bd 13 26 31 3d
       -0.065193 0.113930695 -0.1212615 0.0432492
0000b0 32 ef aa 3d d0 ad 2a 3e 81 f3 69 3d c8 33 17 be
       0.08346404 0.16667867 0.05711699 -0.14765847
0000c0 ca 5a 45 bd 7a f6 fc bd c7 68 d8 3d b5 94 d0 3d
       -0.048182286 -0.12351699 0.1056686 0.101846136
0000d0 87 81 2a 3e 84 62 f7 3d 3a 72 8d 3d 15 98 0a 3e
       0.16650973 0.12079337 0.069065526 0.13534577
0000e0 f4 f1 82 3d a3 c8 42 be 75 be 10 bd 89 e9 77 bd
       0.06393805 -0.1902185 -0.035337884 -0.06052545
0000f0 6c 7a e9 bd 4e d8 1b be 07 06 80 bb fc 5d 7b 3d
       -0.11400303 -0.15219232 -0.0039069685 0.061368927
000100 1b 8a cb 3c d7 77 07 3c 45 88 e6 bd b6 99 94 3d
       0.024846127 0.008268318 -0.1125646 0.072558805
000110 be 43 1f bd 99 97 3d be 65 11 ea 3d 24 c5 39 be
       -0.038882963 -0.18514861 0.11429099 -0.1814161
000120 6e 5c ae bd ce d9 10 be d3 77 00 3e 8b a2 a1 3a
       -0.08513723 -0.14145586 0.1254571 0.0012331767
000130 3d fd 80 bc 8f 5f ac bd 60 35 d8 3d 1a c6 07 3e
       -0.015745753 -0.08416664 0.105570555 0.13259163
000140 26 84 ca 3c a1 a0 a5 3d 1f bd 57 3e 20 98 bc 3c
       0.024721216 0.08087278 0.21068238 0.023021758
000150 97 f2 0e be f9 cd ac 3d 6c 96 62 bd f0 77 60 3d
       -0.13959728 0.08437724 -0.055319235 0.05480188
000160 64 bf 9b bd 1f bf 42 bd ea 3b 59 bd e7 b5 1a 3e
       -0.07604864 -0.04754555 -0.053035654 0.15108453
000170 8f cf 00 bd 57 cf 27 3e 4f ee e2 3b 77 ea 40 3e
       -0.031447943 0.16387688 0.0069253813 0.18839441
000180 79 94 0e be 8a 02 05 be e4 95 c7 3d 11 bd 4b be
       -0.13923825 -0.1298925 0.09745386 -0.19896342
000190 4a 8c 18 3e 1c 19 12 3e b2 f7 db 3b b8 38 41 3e
       0.14897266 0.14267391 0.006712877 0.18869293
0001a0 b1 52 47 3d 1c bf 3c bd 1c 09 b5 3d 7b 56 f6 3c
       0.048662845 -0.046080694 0.08839628 0.030070534
0001b0 29 52 65 3e a4 06 78 bd 72 c0 cd bc b0 de 11 3d
       0.22394623 -0.060553208 -0.02511618 0.035612762
0001c0 63 27 80 3b 99 f2 20 3e ec 78 1a bd 8e ac ca bc
       0.0039109453 0.15717544 -0.037712976 -0.024740484
0001d0 2d dd aa 3c 59 e1 df 3d bd 0b 42 3e 4a f8 1f 3e
       0.020857418 0.109316535 0.1894979 0.15622059
0001e0 d2 61 69 3d 2b 04 08 be 17 f7 2d be f1 43 33 be
       0.056978054 -0.1328284 -0.16988789 -0.17506386
0001f0 51 cb 64 3e 47 d6 10 3e cc b9 e6 3c 7f 4f 37 3e
       0.22343184 0.1414424 0.028164767 0.17901419
000200 34 71 83 3d 27 7b f4 3d f7 6f 70 3d 04 bf 2d be
       0.06418076 0.11937552 0.058700528 -0.16967398
000210 21 25 c1 3d b1 c6 26 be 77 60 70 bd 41 53 de bd
       0.0943091 -0.16286732 -0.058685746 -0.10855723
000220 b2 59 25 3e b0 4f a5 bd b5 3e 18 be bf 93 bd 3d
       0.16147497 -0.0807184 -0.14867671 0.09256696
000230 bb 81 d4 bd 60 15 2c 3d 08 b3 c8 3d 15 63 e3 3d
       -0.103763066 0.042012572 0.097997725 0.11102883
000240 da 81 78 bd 4e 6b 2e 3e 83 26 09 bc 73 e1 92 3d
       -0.06067071 0.17033121 -0.008370998 0.07171907
000250 88 73 d4 3d 0f 1d 3d 3c 9c 20 30 3e d6 2f 28 3e
       0.10373598 0.011542573 0.1719994 0.16424498
000260 bc 2a f4 3d 4b 12 4c bd bf 07 e0 bd d9 54 3f bd
       0.119222134 -0.049822133 -0.109389775 -0.046711776
000270 03 bb 44 3d 29 c6 29 be fa b5 8c be 70 a8 b2 bd
       0.04802991 -0.16579498 -0.27482587 -0.08723533
000280 e5 4a 75 3d cb 7a a4 bd 4a e2 7c bc d8 02 b5 bd
       0.059885878 -0.080312334 -0.015434811 -0.08838433
000290 05 a9 00 be 6e f5 bf bd f7 51 4b bd 2b ef 2c be
       -0.12564476 -0.09372984 -0.049638715 -0.1688811
0002a0 68 33 36 be 66 6e 12 be ef 7e e1 bd c1 ba 1c be
       -0.17793047 -0.14299926 -0.11010539 -0.15305616
0002b0 ff 90 c5 3d 15 f0 00 be ab f6 74 bc f6 c6 26 be
       0.096467964 -0.12591584 -0.014951388 -0.16286835
0002c0 86 57 83 bd 8d a3 03 3e 28 49 dd bd b1 08 a7 bc
       -0.06413178 0.12855358 -0.10804969 -0.020389887
0002d0 22 bc 44 bc 06 c0 5d 3e 02 1a 29 3e 26 19 50 3e
       -0.012007745 0.21655282 0.16513827 0.20322093
0002e0 13 5f 24 be f3 50 1a be c7 5f 05 bd 08 6c 4c be
       -0.16051893 -0.15069942 -0.032562044 -0.19963086
0002f0 64 59 f6 bd ee d8 1f bd e7 5a 8a bd 31 6c 0a be
       -0.12028769 -0.03902524 -0.067556195 -0.13517834
000300 53 0c ea bb 41 15 c7 bd ec 53 fd bd e1 af 35 be
       -0.0071425824 -0.09720851 -0.123695225 -0.17742874
000310 18 2f 2c 3d e1 8e c2 bd c8 d2 93 bc 93 ee eb bd
       0.0420371 -0.09499908 -0.018044844 -0.11520114
000320 b1 7e 59 bd c0 56 09 be 54 81 44 be e9 13 91 bd
       -0.053099338 -0.13411999 -0.1918996 -0.07083876
000330 b6 0d 2d 3e 28 25 30 3d 9f 6a f6 bd 61 00 40 3e
       0.16899762 0.043004185 -0.12032055 0.18750145
000340 4d e9 25 3c 6c ff 8d bd e6 d5 1c be c9 fe 28 be
       0.010126424 -0.069334835 -0.15315971 -0.16503443
000350 e8 79 13 be b0 6d a5 3d 7c 5f 55 3e 78 df 17 bd
       -0.14401972 0.08077562 0.20837206 -0.03707835
000360 90 4b 51 be 48 e8 64 bd 3c e3 c0 bd 17 d8 9d bd
       -0.20438981 -0.055885583 -0.094183415 -0.077072315
000370 2c 09 92 3c b7 3e a7 bd 60 14 43 be 6d cd 05 be
       0.01782664 -0.08166259 -0.19050741 -0.13066645
000380 2e 67 c6 3d f3 12 47 bb ea 28 a7 b9 6d 9d 08 3e
       0.09687649 -0.0030376285 -0.00031883206 0.13341303
000390 c8 f7 52 bd 89 27 44 3e 2c 74 fa 3d ad ac 17 bd
       -0.051505834 0.19155706 0.12229189 -0.03702991
0003a0 2e 77 a0 3d 44 7c ba 3d 00 cb a5 bd 5c 0b 32 be
       0.07835232 0.09105733 -0.0809536 -0.17387146
0003b0 d9 85 48 bd 54 91 fd 3d 87 3e c6 3d ee 4f 02 bd
       -0.048955772 0.12381235 0.09679895 -0.03181451
0003c0 a2 db 8b bd e6 22 0a be 0d 85 e6 bd bd f7 32 3d
       -0.06829001 -0.13489875 -0.11255846 0.043693293
0003d0 61 65 b4 3d e7 a0 24 be b1 ed a5 bd 80 49 ae bd
       0.08808399 -0.16077004 -0.08101977 -0.08510113
0003e0 1d 19 09 3e f0 1a 41 3e cf 45 80 3d c6 04 db bc
       0.13388486 0.18857932 0.06263315 -0.026735675
0003f0 d4 79 26 be 8a da e0 bc 1d 0c 6a be 80 fa b5 bc
       -0.16257411 -0.027447958 -0.22856183 -0.022214174

bias f4 [128]
000000 08 66 8b be a6 b1 b2 3e d1 00 b1 3e 90 25 9b 3d
       -0.2722628 0.3490116 0.34570935 0.07575524
000010 c1 df 53 3e 0f 52 5b 3d 7e 1e 87 bd e7 0b 9a 3e
       0.20690824 0.053545054 -0.06597613 0.30087206
000020 43 5d 16 3e 3c db 90 3e 55 e3 1a 3d 17 73 81 3d
       0.14684014 0.28292263 0.037814457 0.0632078
000030 1d 45 b6 3e 65 6d 93 3e af e0 89 bc 97 b1 b6 bd
       0.35599604 0.287944 -0.01683077 -0.08920591
000040 df de 87 3e ef 51 35 be 48 5f 15 3e f6 6d 55 be
       0.26537225 -0.17707036 0.14587128 -0.20842728
000050 ec ac d7 3c 5a bb 3a 3e f0 49 ce be f1 dd b2 bd
       0.026327573 0.18235531 -0.40290785 -0.08733738
000060 5a 22 69 be ba 59 42 3d ed e8 82 bd b4 ab 77 be
       -0.2276701 0.04744885 -0.06392083 -0.24186593
000070 0f 3c 4d be fe 86 02 bd 83 40 92 be e9 3e 94 be
       -0.20042442 -0.03186702 -0.28564844 -0.28954247
000080 81 11 cc be c9 b6 32 be 5c 75 0b 3e 23 9c 88 3e
       -0.39857104 -0.1745254 0.13618988 0.26681623
000090 c8 11 09 bc b0 21 96 3d 30 94 92 3e c3 06 a3 bd
       -0.008366056 0.07330644 0.28628683 -0.07960274
0000a0 ee f8 86 be ed 95 2c 3e 8b ff a3 bd 20 9d 54 be
       -0.26361793 0.16854067 -0.08007725 -0.20763063
0000b0 b9 c0 7f 3e 1c 33 81 3e 47 ba 2c be c9 ba 35 3d
       0.24975862 0.25234306 -0.16867934 0.044367585
0000c0 cd 05 b1 be 12 7e e5 3c 62 46 c3 3e 5c 7c 83 3e
       -0.34574738 0.028014217 0.38139635 0.25680816
0000d0 93 08 45 3e da 74 b4 be 6e 95 1a be 2a 39 cd bd
       0.19241552 -0.352454 -0.15096065 -0.10020669
0000e0 25 f3 c1 3d 1a 39 96 be dc 7b f4 3d dc 31 c5 bd
       0.09470204 -0.2934044 0.11937687 -0.096286505
0000f0 21 ab 0b 3e aa 4d f7 3d 31 d8 39 be 1d 39 1e 3e
       0.13639499 0.1207536 -0.18148877 0.15451474
000100 2f 28 93 3e ff 33 57 be f8 7b 7b be c7 98 8c 3e
       0.28741595 -0.21015929 -0.24559009 0.2746031
000110 73 af 39 be 7d 45 a6 be 8f 63 26 be e3 95 13 be
       -0.18133335 -0.3247489 -0.16248916 -0.14412646
000120 4e 11 51 3e 92 90 2c be 9c e5 88 3e dd 27 a2 3e
       0.20416757 -0.16852024 0.26737678 0.31671038
000130 6a c3 3e 3d a8 02 8c 3e 06 ff 8a 3e 1c f7 8e 3e
       0.04657308 0.27345777 0.27147692 0.27922904
000140 fc 7b 48 bd c0 20 78 be e2 e3 76 be 0d 74 0a 3e
       -0.048946366 -0.24231243 -0.24110368 0.13520832
000150 36 1c 81 3d fe 34 90 bd c9 0e 3e 3e 69 85 61 bd
       0.06304209 -0.070413575 0.18560328 -0.05505887
000160 67 94 e0 3c f7 a0 8e be d4 e7 c1 be 28 90 9b be
       0.027414514 -0.2785718 -0.37872183 -0.3038342
000170 1c 59 8e be 63 89 25 3e 14 ac a8 be 42 81 51 be
       -0.2780236 0.1616569 -0.32943785 -0.20459464
000180 c6 d7 79 3e f2 ca 95 3e c9 b0 87 be f3 4f b6 3d
       0.24398717 0.29256397 -0.26502064 0.08901968
000190 b2 07 9d be 85 17 33 bd e8 a7 27 be 08 b8 8f 3d
       -0.30669934 -0.0437236 -0.16372645 0.07017523
0001a0 d5 fb 9b 3e d5 43 fe 3c 0f 9f 41 be 22 13 bb be
       0.3046557 0.031038204 -0.18908332 -0.36538035
0001b0 ed f3 8f 3e b0 9e 04 bd 1f 28 80 3d 5d ba 7b be
       0.28115788 -0.0323779 0.062576525 -0.2458281
0001c0 05 02 68 be 0f 6e 3a 3e 55 4c 2e be d6 3e 44 be
       -0.2265702 0.18206047 -0.17021306 -0.19164595
0001d0 e5 31 23 3e d3 e1 7f be c9 5a a1 3c bd 8c 6c be
       0.15937002 -0.24988489 0.01969661 -0.23100562
0001e0 45 79 b4 be 37 37 6c 3e 29 32 81 3d d5 ec a3 3c
       -0.3524877 0.23067938 0.063083954 0.020010391
0001f0 a8 fa a9 be 62 4c 90 3e a0 d8 37 3e b3 ae 52 bd
       -0.33199048 0.28183275 0.1795373 -0.051436137

weight f4 [128, 7]
000000 08 2c d3 bd 94 34 09 be 58 a5 97 bd 11 ae 00 bc
       -0.10311133 -0.13398963 -0.07404584 -0.007854001
000010 38 7f d4 3c 1d 21 6f 3d 17 84 b4 bd 4b b6 39 bd
       0.025939569 0.05838119 -0.08814257 -0.045339864
000020 98 c4 8b 3c e4 37 e2 bb cc a2 88 3d 9b bb 66 3d
       0.017061517 -0.0069036353 0.06671676 0.05633126
000030 6f b7 48 bc 76 42 e2 3d f5 5b d2 3c a2 2d 31 bc
       -0.012250765 0.11047833 0.025678614 -0.010814102
000040 85 c6 1e bd e5 71 67 3b a0 3d 0b 3c fa 18 4f bc
       -0.03876354 0.003531569 0.008498579 -0.012640232
000050 38 7f 3e 3d f2 34 aa bd ed d0 50 3d f7 a2 de ba
       0.046508044 -0.0831088 0.050980497 -0.0016985823
000060 26 ed 91 3d 48 c4 85 3d e9 a7 5e 3d fc 7d aa 3d
       0.071253106 0.06531578 0.05435935 0.08324811
000070 b6 af 73 3c 35 54 1b 3e 4b ae b1 3d 29 cf d2 3d
       0.014873436 0.15168841 0.08675822 0.10293419
000080 f9 15 9f 3c 15 be 87 3d 23 db 2c be 9c 9d c4 3d
       0.019419657 0.06628052 -0.16880469 0.09600374
000090 4b aa d4 3c b4 12 8a bb 60 82 37 3e 35 b1 2e 3d
       0.025960108 -0.0042136554 0.17920828 0.042649467
0000a0 86 79 a2 bd d2 a8 bb bd ab 72 bd 3c 33 11 c1 3c
       -0.07933335 -0.09163059 0.023125967 0.023567772
0000b0 ed 6f 85 bd 01 db 49 bd cb 15 d9 3d b6 2b 63 3d
       -0.06515489 -0.049281124 0.1059986 0.055461608
0000c0 23 6d 38 3d 7e f3 cf bd 24 a9 16 bd 1d 20 95 bd
       0.045025956 -0.10153864 -0.0367824 -0.07281516
0000d0 e3 50 1e 3e 25 f4 9a bd 99 51 a1 3d 25 02 01 bd
       0.15460543 -0.07566098 0.07876892 -0.031496186
0000e0 43 22 f8 3c 51 43 30 bd 4c 3c 66 bd 66 eb 57 3d
       0.030289775 -0.043032948 -0.056209847 0.052714728
0000f0 cd a4 4b 3d fa 45 a6 bc 08 98 6b 3d e0 dc 09 be
       0.049717713 -0.02029704 0.057518035 -0.13463163
000100 d4 27 17 be b7 81 f4 3d 3b 0c 91 bd 3f c1 c7 bb
       -0.14761287 0.11938804 -0.07082411 -0.006096035
000110 54 ed b6 3d 6a a0 b9 3d 09 73 a0 bd 47 5b 8d 3c
       0.089319855 0.090638 -0.07834441 0.017255438
000120 1d 69 61 3d 1f ad 22 3d 2d 5e e9 3c 0e 1c be 3d
       0.055031884 0.039715882 0.02848729 0.09282695
000130 b9 77 bd bd dc 60 9d bd a8 70 11 3e 67 25 3e bc
       -0.09251351 -0.0768449 0.14203131 -0.011605597
000140 ad 52 62 bc 2b 0b 8e bd 11 a6 a2 3c 68 00 ab 3d
       -0.013813657 -0.06935724 0.019854577 0.08349687
000150 35 e9 cd 3d 3d c7 d4 3d 3d c3 98 3c 8a 23 8f bd
       0.10054246 0.10389564 0.018647784 -0.069892004
000160 58 ca 80 bd fe 60 0a 3d 2c 38 a8 bd 97 a9 63 3d
       -0.06288594 0.033783905 -0.08213839 0.055581655
000170 a4 ba c5 3d 66 54 71 3d 22 e1 45 bd 34 bc db 3d
       0.096547395 0.05891838 -0.048310407 0.10729256
000180 7a d0 ab bd 6f 67 dd 3d ba 28 23 bd 35 6c 23 be
       -0.08389373 0.10810744 -0.03983376 -0.15959246
000190 f6 62 5e bd d5 67 81 3d b1 13 9e 3d 4e 3c 0e bc
       -0.054293595 0.063186325 0.077185996 -0.00868137
0001a0 39 87 75 bd a9 7f 6d bc cc b5 59 be fb 98 de bd
       -0.05994341 -0.014495769 -0.21260756 -0.108690225
0001b0 81 28 b5 bb 75 cc 77 3b b8 d2 87 b9 d7 fc c6 bd
       -0.00552851 0.0037811075 -0.00025906204 -0.09716194
0001c0 75 97 a5 bc 5b 2a e8 3d 18 74 b4 3d 87 ca 7d bd
       -0.020213822 0.11336204 0.088112056 -0.061960723
0001d0 d0 97 e2 bc 94 9f d5 bc 9f 99 dc bc 65 25 b1 3d
       -0.02766028 -0.02607707 -0.026928721 0.086497106
0001e0 59 9e 96 3d e4 61 76 3b 13 51 8e 3a 45 15 9f bd
       0.07354421 0.0037594968 0.0010857902 -0.07767729
0001f0 3a 6e 66 bd f0 dd e9 3d 88 0d 6e bd 52 59 9b 3d
       -0.056257464 0.11419284 -0.058118373 0.07585396
000200 f3 05 9c 3d 23 b3 bb 3c 69 ef 9b 3d 2c 93 0b bd
       0.07618322 0.022912567 0.07614023 -0.0340759
000210 0a 9c f4 3d 1c 18 a4 3c cb 21 57 3d 80 49 12 3e
       0.119438246 0.020031027 0.05252246 0.1428585
000220 d9 32 cc 3d 7e fc cd bd a4 0a 58 bd 8c 8c a9 bd
       0.09970636 -0.10057925 -0.052744523 -0.0827876
000230 9f db be bc 8b 6c de 3c 64 34 e0 3d d2 72 62 3c
       -0.023298083 0.027151367 0.10947493 0.013821321
000240 08 3a 7f bd cc a6 e6 3c f1 b5 8c 3d eb 0f 70 bd
       -0.062311202 0.028155707 0.0687064 -0.05860893
000250 46 ab 51 bd 45 34 d2 bc ed 37 1b 3d 37 c0 71 b9
       -0.05118873 -0.02565969 0.03789513 -0.00023055157
000260 34 eb 44 bd e2 c7 21 bd 90 cc 7d bd 37 2b 5a 3d
       -0.04807587 -0.039497264 -0.061962664 0.05326387
000270 8b 9b 84 3d 96 7b fd 3d 41 1b 13 be 4c 65 59 3d
       0.0647498 0.12377088 -0.14365865 0.05307512
000280 ab bc e3 3d d9 a7 d9 3c cb 94 04 3e 4a ef 09 3e
       0.1111997 0.026569294 0.12947385 0.13470188
000290 51 cc 09 bd 3f ec 72 bd 0e 29 79 bd 6c 3b 4c 3c
       -0.033642117 -0.059307333 -0.06083017 0.012465339
0002a0 b7 de 89 3d d5 8f 55 bd 02 4a 54 bd e8 17 67 3c
       0.067319326 -0.052139122 -0.05182839 0.014104821
0002b0 27 27 c1 b9 2c 3a 7b bb d0 67 7d bc 9c 7b a2 bd
       -0.00036841 -0.0038334234 -0.015466645 -0.07933733
0002c0 d1 95 4c bd 12 a1 60 3d 4d b5 86 3c 21 89 cc bc
       -0.049947564 0.05484111 0.016443873 -0.024967732
0002d0 69 20 48 3d 33 5e 83 bc 6c 57 48 3d ce e4 e1 bd
       0.048859034 -0.016036129 0.048911497 -0.11029969
0002e0 6f 33 ed bd 57 22 da 3c c8 b2 00 3e 96 fc dd 3c
       -0.11582076 0.026627703 0.125682 0.027097981
0002f0 77 96 f7 bd 1f 3e 8b 3d 7d f1 23 3c dd 80 9d bd
       -0.12089246 0.06798958 0.010006306 -0.07690594
000300 96 22 5e 3d 11 2c a8 3d 29 d6 66 bd d2 a5 74 bd
       0.054232202 0.0821153 -0.056356583 -0.05972845
000310 98 5c a1 3d 33 49 d7 bd 62 51 ca bd df 96 30 bd
       0.07878989 -0.105120085 -0.09878804 -0.043112632
000320 d3 d1 33 3a b3 82 2a bd b6 15 18 3e a3 d3 f9 bc
       0.00068595744 -0.04162855 0.14852032 -0.030496424
000330 ad a6 04 bd 30 e5 ee 3d 7b 29 4d bd 79 0f 89 3d
       -0.032385517 0.11664808 -0.050088387 0.06692404
000340 ae 81 79 bd 44 da 53 bd b3 d8 a1 3d c1 fb 0f 3c
       -0.060914688 -0.051721826 0.0790266 0.00878805
000350 03 c7 dc bd 76 8d 5e 3d 05 f7 08 3e 47 97 14 bd
       -0.10780146 0.054334126 0.1337548 -0.03627708
000360 e9 60 a2 3c 89 98 ed 3d 61 2f b1 3d ff df 96 bc
       0.019821601 0.116013594 0.08651615 -0.018417357
000370 fe b6 e9 3d 94 b9 4b bd 64 d3 0a 3c 79 62 b4 bd
       0.11411856 -0.049737528 0.008473251 -0.08807845
000380 4c 35 81 3d 0b 31 0e be 1f 01 12 3e 61 39 e8 bd
       0.06308994 -0.13885896 0.1425824 -0.11339069
000390 9f 22 b2 3c 56 7f 39 bb 63 ed 56 bc 14 a4 39 bd
       0.021745024 -0.0028304658 -0.013118121 -0.045322493
0003a0 4e d3 5a bd 08 3d c7 3d 84 50 e5 bc 96 42 8a bd
       -0.053424172 0.09728438 -0.027992494 -0.067509815
0003b0 17 14 12 bc 3c 61 a9 bd 66 c0 bd 3d 25 1e dd 3d
       -0.008915923 -0.08270499 0.09265213 0.10796765
0003c0 ce 71 34 3d c6 43 c8 bd 45 2f b4 bd 62 79 c5 3d
       0.044053845 -0.09778552 -0.087980784 0.096422926
0003d0 9e bf ce 3d 5a 0f 81 3d 3e 3f ee 3c 59 51 8e bd
       0.10095142 0.06301756 0.02908289 -0.069491096
0003e0 73 7f fb 3d 75 db 0a 3e 58 15 d1 3d c3 c1 1b be
       0.122801684 0.13560279 0.10209149 -0.15210633
0003f0 82 e1 71 bd a1 bf 8b 3d 6f ed b1 bb e4 50 db 3c
       -0.05905295 0.0682366 -0.0054299156 0.02677197

bias f4 [128]
000000 7d 7e 99 3e 42 a1 e6 3c 61 59 68 bc c7 5b ba 3d
       0.29979315 0.028153066 -0.014181466 0.090995364
000010 d2 7e 8d 3d 80 e9 42 be 9f 3b ee 3d 91 58 76 bd
       0.06908955 -0.19034386 0.116324656 -0.060143057
000020 30 62 8a 3d 18 98 37 be b3 e3 e7 bd f4 c6 88 bd
       0.06757009 -0.17929113 -0.11322727 -0.06678572
000030 e8 73 aa 3d c9 e5 45 be b7 9c 1d 3e fc 7d c8 3c
       0.083228886 -0.19325937 0.15391813 0.024474137
000040 88 98 19 be cb 3f 69 3e 62 45 b3 bd b0 e2 ea bc
       -0.14999592 0.22778241 -0.08753468 -0.028672546
000050 48 c9 dd bd 7d 68 22 be bc 72 a0 be 00 de e4 bd
       -0.10829407 -0.15860172 -0.31337535 -0.11175156
000060 0a 4e 32 3e 16 1a b8 3c 26 5a 9c 3d 38 e2 6a be
       0.17412582 0.022473376 0.07634382 -0.22937858
000070 b5 17 a8 bd 01 64 8a be 33 28 79 3c 99 db 11 be
       -0.08207647 -0.27029422 0.015207338 -0.14243926
000080 1f 17 1a 3e 8d 21 3f 3e ad 50 34 be 4e d3 88 bd
       0.15047882 0.18665142 -0.176089 -0.06680928
000090 84 c4 84 3e a4 ec 1e be f4 97 13 3d 5b 17 08 3e
       0.2593118 -0.15519959 0.036033586 0.1329016
0000a0 3c 80 9d 3e a2 42 51 bd c3 0b d9 bd f6 e0 4c 3e
       0.30761898 -0.051088937 -0.105979465 0.20007691
0000b0 44 af 48 3e b6 1b 8c 3e 1a 3c 56 3e 17 00 2f 3e
       0.19598109 0.27364892 0.20921364 0.17089878
0000c0 1b 63 b2 3e 92 56 5e be 92 66 0b 3e 7d 20 32 be
       0.34841236 -0.21712711 0.13613346 -0.17395206
0000d0 0c fd 10 bd 5d 3f f3 3d d9 ce 4b be e5 42 73 be
       -0.035397574 0.1187732 -0.19903125 -0.23755987
0000e0 95 f9 77 3d 96 a0 00 be 6d 06 3c 3e cf 27 3c be
       0.060540754 -0.12561259 0.18361826 -0.18374561
0000f0 5b 63 d5 bd 13 98 6b 3e 91 8b 94 3e c1 3c 69 bd
       -0.10419341 0.2300723 0.2901273 -0.056942705
000100 69 71 36 3e 3f 25 c7 3d 61 49 81 3e 65 59 5a be
       0.178167 0.09723901 0.25251296 -0.21323164
000110 6b b9 13 3c 4d c4 69 be b1 ce b3 bd 03 88 84 3e
       0.009016375 -0.22828789 -0.08779658 0.2588502
000120 58 7b cb bd 97 39 7d 3e 21 b9 be 3d ab 65 cf 3d
       -0.09935635 0.24729 0.09312654 0.101268135
000130 4a 13 5e be 03 0d ec 3d 8d 51 5f be 05 17 96 3d
       -0.21687046 0.11525919 -0.21808453 0.073286094
000140 fc 05 9c be 07 61 31 3e ff 82 f9 3d 4f 6b e2 bd
       -0.30473316 0.17322169 0.12183189 -0.11055624
000150 b3 01 9b be 5c 38 75 3e 08 8f 35 3b 36 a0 19 3e
       -0.30274734 0.2394728 0.0027703661 0.15002522
000160 c8 1a 20 be bb bb 52 3e d6 e5 b2 3d 8c ad 7b be
       -0.15635216 0.20579426 0.08735244 -0.24577922
000170 ad c0 51 3d 31 a8 f7 bd f8 19 1d 3e bb 5c e5 bd
       0.05120914 -0.12092627 0.15341938 -0.111993276
000180 06 7b 81 be d8 97 1f be 48 04 83 3d cc 97 39 bd
       -0.25289172 -0.15585268 0.06397301 -0.04531078
000190 64 f4 9e 3e 90 22 9f bc 46 92 72 3e 87 1c d0 3d
       0.3104583 -0.01942566 0.23688611 0.10161691
0001a0 89 c7 95 bd 5f 7a 1e 3e af 82 29 be ad a9 da 3d
       -0.07313449 0.15476368 -0.16553758 0.10676894
0001b0 b2 16 8e bc fb ad 73 be 2d eb 0e bd 89 95 35 be
       -0.017344806 -0.23796837 -0.03489225 -0.17732824
0001c0 d8 10 8a be fe 85 eb bd e5 ff 47 3d 7a 40 00 3e
       -0.26965976 -0.11500166 0.048828024 0.12524596
0001d0 e0 f6 c4 3d 21 2b 1c 3e d2 07 14 3e 8e e8 0b 3e
       0.096174 0.15250827 0.14456108 0.13662931
0001e0 96 9d 02 3e 29 98 f5 3d b8 33 62 be 6a 6b 95 3d
       0.12755427 0.11991913 -0.22090042 0.07295878
0001f0 a4 07 78 be 25 85 69 be 63 09 f5 bd 58 84 3a be
       -0.24221665 -0.22804697 -0.11964681 -0.18214548

weight f4 [128, 7]
000000 6f 23 85 bd 92 6d 8e 3d e1 17 bf 3d 94 6c 9e bd
       -0.06500899 0.06954493 0.093307264 -0.077355534
000010 0a cd 21 bd 76 e5 9b 3c 5c e9 b0 3d b5 8c 68 3d
       -0.03950218 0.019030314 0.0863826 0.056774814
000020 2c 98 bc bd fe 35 80 3d d2 f6 40 bd ee 97 4e 3d
       -0.09208712 0.06260298 -0.047110386 0.05043786
000030 8c 10 72 3c 4c 4b 22 3d 2d bd 1d bd a6 4b 85 3d
       0.014774453 0.03962259 -0.03851049 0.065085694
000040 2c de c8 bc 38 80 75 bd bd 3e 31 bc f6 1f 97 bd
       -0.024520002 -0.059936732 -0.010818181 -0.07379143
000050 b1 dc 9a 3c c7 83 e8 bd 13 40 8f bd 29 a2 05 3e
       0.018904062 -0.113532595 -0.06994643 0.1305014
000060 7e bf cf bd 44 d9 30 bd 1b 23 6f 3d cf 30 e5 3d
       -0.10143946 -0.04317595 0.05838309 0.1119095
000070 22 da 7c bd d4 cc 17 39 a7 45 5a bd d6 55 ab 3c
       -0.061731465 0.00014476787 -0.053289082 0.020914953
000080 b3 e9 7c bc 12 71 5e 3c 25 58 44 3d 3b 38 60 ba
       -0.015436578 0.013576763 0.047935624 -0.0008553301
000090 80 20 dd bd 55 fa 71 3c 5f b2 ef 3c 4b cd a6 bb
       -0.107972145 0.014769156 0.029259859 -0.005090391
0000a0 f1 f6 28 3d 46 f9 12 3e 5c 33 b3 3d 43 9c 45 bd
       0.041251127 0.14352903 0.087500304 -0.048244726
0000b0 12 6b 2e bd d5 de ac bd 8c 45 12 bd 07 a2 db bd
       -0.04258258 -0.08440939 -0.035710856 -0.10724264
0000c0 dc f5 bd bc 99 f7 37 3c 53 eb f9 bc a2 47 20 be
       -0.023188524 0.0112284655 -0.03050772 -0.15652326
0000d0 2d e1 57 bc 56 ca 5e 3d 2e 48 ca 3d 79 07 3a 3c
       -0.013176245 0.05439218 0.098770484 0.011354321
0000e0 ff aa 28 bd ca dd 09 3d e9 68 e5 bd 7b 15 65 3c
       -0.0411787 0.03365878 -0.11201651 0.013982172
0000f0 75 6e 8f bc df fe 1b 3c 51 ee 20 3d 17 5c 8b bd
       -0.017508725 0.009521215 0.039289776 -0.06804674
000100 d8 d6 91 bd f4 54 d6 3d c1 d0 b3 ba 55 dd 83 bd
       -0.07121056 0.10465422 -0.001371883 -0.064387
000110 58 e7 41 3d 83 46 cd 3d 07 74 32 3c 43 35 8f 3b
       0.047339767 0.10023215 0.010891921 0.004370363
000120 bb 8a 85 3c 17 25 8a bc da c3 6b bc e9 dd 8d 3d
       0.016301503 -0.016863389 -0.014389956 0.06927092
000130 e0 79 3c bd d4 f5 11 3d 35 21 30 bd b2 53 53 3b
       -0.046014667 0.03563483 -0.04300042 0.0032245931
000140 be 3c 72 3d 60 04 45 3b 74 22 0a 3d 99 b0 1c bd
       0.05913996 0.0030062422 0.033724263 -0.038254354
000150 4f 2a 7b bc 2d 70 f6 3b 32 24 58 3d fc 3b a6 3d
       -0.015329911 0.0075206966 0.052768894 0.0811691
000160 38 fd 40 bd 2f 4e 8d 3d 46 c8 b7 3d db a2 bf 3d
       -0.04711649 0.06899678 0.08973746 0.09357234
000170 99 fe c6 bd 3e f4 a0 bd b5 a8 00 bd 18 ec ce bb
       -0.097165294 -0.078590855 -0.03141089 -0.0063147657
000180 1a 99 b6 bb b3 ae a4 bd 58 03 57 bc 3f ad 35 bd
       -0.0055724503 -0.08041134 -0.013123356 -0.044354673
000190 54 13 73 bd 15 78 b4 3d 91 c3 9d 3d c6 6d 75 3d
       -0.059344605 0.08811966 0.07703317 0.05991914
0001a0 5e f6 c9 bc 45 c1 9b bd 67 92 e7 3d a6 8d 21 bd
       -0.02465361 -0.076052226 0.11307221 -0.039441727
0001b0 26 93 86 bd bb 7b fe 3c 81 f9 90 3d 99 d9 24 ba
       -0.06571035 0.031064859 0.07078839 -0.0006288528
0001c0 f4 20 b6 3d 1b 56 9c bd a3 b5 01 3d 27 2a 96 3d
       0.08893004 -0.07633611 0.031667363 0.07332259
0001d0 b9 be a7 bd ff 9a fd bc 20 4e ed bd 2c d6 55 bc
       -0.08190674 -0.030957697 -0.11587167 -0.013051551
0001e0 75 ec 30 bd 28 65 e9 3d f6 3a dd bd c6 50 1a 3c
       -0.043194253 0.11396247 -0.108022615 0.009418672
0001f0 6c e7 b3 bd af 67 9d 3d a5 73 84 bd b8 be b5 bd
       -0.087843746 0.07685792 -0.0646737 -0.08874267
000200 69 66 87 3d 96 4a ca bc 36 fd 05 3d 9e 18 8e bd
       0.0661133 -0.024693768 0.032712184 -0.06938289
000210 7c 3f 01 be e3 af 1e 3d 48 72 bb bd 2b a4 ea bd
       -0.12621874 0.038741957 -0.09152657 -0.11457094
000220 1f b7 9a 3c e2 60 a2 3b 1a 2f e6 bb 81 b0 c6 bc
       0.018886147 0.004955397 -0.007024658 -0.024254085
000230 3e 87 47 bc 80 6c 0b bd 3f b5 52 bd 76 f6 87 bd
       -0.01217824 -0.03403902 -0.05144238 -0.066388056
000240 c5 81 96 bb d3 aa 14 3d ba a4 9a 3c 49 b7 c2 bd
       -0.0045931065 0.036295723 0.018877376 -0.09507615
000250 d1 ce b2 bd 53 c0 1d 3d 44 bb 8b bd 3f 8f 82 bd
       -0.08730853 0.038513493 -0.068228275 -0.06374978
000260 74 d7 f3 bd bd da 74 3d a3 95 07 3e 06 3c ae 3d
       -0.11906329 0.059778918 0.13240676 0.08507542
000270 36 95 2a bd 68 18 b0 bd 22 b7 43 bd de d3 3a bd
       -0.041646205 -0.08598405 -0.04778207 -0.04561221
000280 b9 4c 1e 3d 4f c3 ff bd f7 3b b6 3d aa 43 02 3d
       0.038647387 -0.12488424 0.08898156 0.03180281
000290 f7 4d a1 bd 80 69 b7 3c 7a bc 93 bd 1c fb 5b bd
       -0.07876199 0.022389174 -0.072136834 -0.053706273
0002a0 0a b0 8b bd d3 da a9 3d 29 0e 10 bd 47 e8 b0 bd
       -0.06820686 0.082936905 -0.035169754 -0.086380534
0002b0 f8 b9 c3 bb 99 a7 e5 3c cb 12 20 be 8a 0c fe 3b
       -0.005973097 0.028034018 -0.15632169 0.0077529596
0002c0 41 d0 ef bc 19 1b fe bc 08 3a 44 bd 39 90 42 3d
       -0.029274108 -0.03101878 -0.047906905 0.047500823
0002d0 66 4e ba bd 87 39 8e 3d 5b 68 79 bd 26 dc 53 bc
       -0.090969846 0.06944566 -0.060890537 -0.012930905
0002e0 12 3a 67 3c e3 f7 b2 bc 98 2c a2 bd 13 8e 9a bd
       0.014112966 -0.021846717 -0.07918662 -0.0754663
0002f0 e5 75 3c 3d a1 6b c4 bd 89 f3 24 3d 27 dc 94 3b
       0.04601087 -0.09590841 0.040271316 0.0045428458
000300 81 0f f3 3b ca 3f c2 3c af c0 ca bc 99 fb 07 bd
       0.0074176197 0.023712058 -0.024750082 -0.033198927
000310 56 a4 d8 bd e0 d5 4b bd 3e 65 bf 3d 84 9b c2 bd
       -0.105782196 -0.049764514 0.09345482 -0.095023185
000320 52 10 a3 bc cb 9e 83 3d b9 5d 00 bd 10 ae 0f bd
       -0.019905243 0.06426772 -0.03133938 -0.03507811
000330 e5 38 b4 3d fc e3 89 3d 99 6b a3 3b f7 37 7d bc
       0.08799914 0.06732938 0.004987192 -0.015455238
000340 87 a2 99 bc 77 37 b5 3c 30 2f 2d 3d e5 6b 88 3d
       -0.018754257 0.022121174 0.04228133 0.06661204
000350 0d 51 56 bd 46 e7 81 ba 3a ab 1a 3d e8 cb 3d bd
       -0.05232339 -0.0009910844 0.03776095 -0.04633704
000360 e1 f8 10 bd 3a 96 ba bb 8f 23 0b 3d 0e 03 a8 3c
       -0.0353936 -0.005694178 0.03396946 0.02050927
000370 ed 69 08 bd 54 99 12 3d c8 16 e4 3d 0a 76 06 3e
       -0.033304144 0.035790756 0.11137158 0.13130966
000380 fe a2 41 3d e9 8c ed bd 03 ab 63 3d fc 81 b7 bd
       0.047274582 -0.11599142 0.05558301 -0.089603394
000390 7f 04 02 bd 5b 56 c9 3c 73 f5 b2 bc 93 23 2c 3d
       -0.03174257 0.02457731 -0.021845555 0.042026114
0003a0 09 80 3d 3d 93 45 76 3d 72 33 af bb fb 50 b2 3d
       0.046264682 0.060124945 -0.005346709 0.08706852
0003b0 65 c6 7e bd 91 63 46 bd 20 88 a1 3d ad 8a 11 bd
       -0.062200923 -0.048434798 0.07887292 -0.035532642
0003c0 d5 b5 81 bd 3c a5 ca bc 76 94 3a bd 01 6a bb 3c
       -0.0633351 -0.024736993 -0.04555174 0.022877695
0003d0 f0 a2 b8 bc 09 38 8a bb 04 98 76 bd 89 82 be bd
       -0.022538632 -0.0042181057 -0.060203567 -0.09302241
0003e0 c1 6a fe bc 66 af 40 3d ac 61 57 bd 63 03 c9 bd
       -0.031056764 0.047042273 -0.05258338 -0.09815099
0003f0 86 13 00 bd a3 c4 79 3d 6f bd 04 3d e5 91 e7 bd
       -0.03126862 0.060978543 0.03240722 -0.11307124

bias f4 [128]
000000 35 e7 88 3e 2a f8 48 be 9a 73 88 be fd 02 1c be
       0.26738897 -0.19625917 -0.26650697 -0.15235515
000010 9c 1f 9b 3d ce 33 34 3e 3c c7 27 be ac 22 ee bd
       0.075743884 0.17597887 -0.16384596 -0.11627707
000020 92 d4 c7 bd 01 f4 eb 3d 6c 18 4a bd ee 9e 32 3e
       -0.097573414 0.115211494 -0.049339697 0.1744344
000030 e2 d1 81 3d 42 75 4f 3c 64 1c f1 3d 54 da b6 bd
       0.0633886 0.012662234 0.11772993 -0.089283615
000040 8b 17 82 3e d4 51 fe bd e5 6d 1f 3e 4c 10 62 3e
       0.25408587 -0.12417951 0.15569265 0.2207653
000050 9f a4 20 be 82 33 26 3e c5 00 7e 3e 81 45 f4 bd
       -0.15687798 0.16230586 0.24804981 -0.11927319
000060 09 6e 97 3e b6 65 04 be 55 d0 0a 3d fd b0 1b be
       0.29576138 -0.12929425 0.033890087 -0.15204234
000070 80 4e d5 bc bc 09 b1 3d f8 58 00 3e 1c 36 36 3c
       -0.026038408 0.08644435 0.12533939 0.011121299
000080 a1 bd 62 be 44 50 6c 3e 4b a5 b1 3d 7a de 5e 3e
       -0.2214265 0.23077494 0.08674105 0.21764556
000090 8e ea 3f bd f7 1f 26 3e 4b e8 59 bd 05 84 71 3e
       -0.04685455 0.16223131 -0.053200047 0.23585518
0000a0 20 bf 7b 3c 9d e0 76 3e aa 12 70 3e c7 65 68 bc
       0.015365392 0.2410912 0.2344462 -0.014184422
0000b0 e3 92 05 be cb 9a 8d 3e 5d 1a 14 be 7a f4 ae 3d
       -0.13044314 0.2765716 -0.14463182 0.08542724
0000c0 c2 36 7e 3e 85 b0 18 3d 92 99 12 3e dc 08 83 bc
       0.24825576 0.037277717 0.14316395 -0.015995435
0000d0 61 5b 25 3e 2a d1 fa 3d 4a 9a 69 be 65 16 95 3e
       0.1614814 0.12246926 -0.22812763 0.29118648
0000e0 4f 78 9b be b9 5d c1 bd b5 94 8d 3e 9c 19 2d 3e
       -0.30365226 -0.09441704 0.27652517 0.169043
0000f0 b8 9a 08 be ab b9 32 be 3b db 05 be cc a3 d3 3c
       -0.1334027 -0.17453639 -0.13071911 0.02583494
000100 c8 cc 36 bd 7d ce e6 bc cd 24 61 3d 13 b7 30 3e
       -0.04462889 -0.028174633 0.054966737 0.17257337
000110 e9 ed 83 3e 03 e7 f1 bc 9c df 73 3d c4 fe af 3c
       0.2576745 -0.0295291 0.059539422 0.021483786
000120 b2 3f 5f be 5c ee e3 bd 57 26 9b be b2 96 5d be
       -0.21801642 -0.11129448 -0.30302688 -0.21639517
000130 14 f2 c3 bd f1 b7 6c be 17 98 14 3e 14 01 08 be
       -0.09567657 -0.23117043 0.14511143 -0.13281661
000140 e4 34 b4 3c 0a 10 1b 3e 7e 89 de 3d cc de 90 be
       0.021997876 0.15142837 0.10866068 -0.2829498
000150 4e 9a 7f be dd d6 e3 bd 96 83 8f bd 39 e9 8a 3d
       -0.24961206 -0.11124966 -0.0700752 0.06782765
000160 e8 3e 29 be 12 22 a8 3d 6e 50 5f bd fa 21 21 3e
       -0.16527903 0.082096234 -0.054520063 0.15735617
000170 ee df 76 3e aa a7 57 be 49 a4 af bc 81 c6 c6 ba
       0.2410886 -0.21060053 -0.021440642 -0.001516536
000180 40 f6 01 3e 41 ee 17 be 80 d0 98 bd 0e 1f ff bd
       0.12691593 -0.1483698 -0.07461643 -0.12457095
000190 30 b4 4c 3e 8c 2b 6e 3e 9b f3 42 3e 43 17 36 be
       0.19990611 0.232588 0.1903824 -0.17782311
0001a0 4c 61 95 be bd 4d 51 3d 2e 80 72 3e c9 80 c5 bd
       -0.29175794 0.051099528 0.23681709 -0.096437044
0001b0 11 00 15 3e 0f 6e 83 be d4 09 15 3e b7 cf fc 3d
       0.14550807 -0.25669906 0.1455453 0.12344306
0001c0 77 b0 52 3e a6 f4 c4 bd 9b b8 2f 3e ad e0 92 3e
       0.20575128 -0.096169755 0.17160265 0.2868704
0001d0 d1 d7 b4 3d 3c b9 b8 bd ba 07 0a bd 5e fa 89 3d
       0.08830226 -0.09019706 -0.033698775 0.06737207
0001e0 44 20 99 3e 24 de 37 be cd 88 0a bd 77 87 35 be
       0.2990743 -0.17955834 -0.03382187 -0.17727457
0001f0 38 1e 69 be 1b df 20 be 38 0d 18 be a3 74 1b 3d
       -0.22765434 -0.15710108 -0.14848793 0.03795303

weight f4 [128, 4]
000000 d8 a5 0c be 9e 8b cf bd a7 ee 80 3d 73 85 10 3d
       -0.1373514 -0.10134052 0.06295519 0.035283517
000010 cb de 16 3e e7 93 d7 3d 2b 0a 9d bd 05 32 f5 bc
       0.14733426 0.10526257 -0.07667955 -0.029931078
000020 c6 2f 90 bd 1a c7 c6 3c 0a cf e5 bd 55 a7 6d bd
       -0.07040362 0.02426486 -0.1122113 -0.05802091
000030 f0 dd 0e be 74 19 b5 3d 96 2b cb 3d d6 cd 16 3c
       -0.1395185 0.088427454 0.09920423 0.009204349
000040 d7 be e4 bd 73 0a 6d 3c 04 2e aa bd 74 70 d9 bc
       -0.11169212 0.014467823 -0.08309558 -0.02654288
000050 45 6e 3e bd d0 99 3c 3e 3f 8a a3 bd 22 a2 d0 3d
       -0.04649188 0.1841805 -0.07985353 0.101871744
000060 3c 51 6c bd 81 45 95 3c 11 db bb bd 0a 34 5b 3d
       -0.05769466 0.018221619 -0.09172643 0.053516425
000070 33 8d b5 bd 4a 14 00 bd 37 d5 a9 3c 29 17 90 bc
       -0.08864822 -0.03126935 0.020731552 -0.017589169
000080 61 66 cc 3d 4d 67 bc 3d 2f 99 89 3d 1c d1 9f 3b
       0.09980465 0.091993906 0.067186706 0.0048772227
000090 01 85 15 3e 58 6a b6 3c 02 2b b3 3d a5 2b d1 bd
       0.14601518 0.022267506 0.087484375 -0.10213403
0000a0 8e 0f e7 bd eb 15 af bd 1f 77 06 bd 0c 7a 18 ba
       -0.11282264 -0.085491024 -0.032828446 -0.0005816526
0000b0 a4 d4 c9 3d 8f ad 9d 3d e5 a9 a2 3d ea 3f f3 bd
       0.09855011 0.07699119 0.07942561 -0.11877425
0000c0 ae 18 0b 3d 01 9f a3 3d 48 4a cb 3d ca d8 5b bc
       0.033959083 0.07989312 0.099262774 -0.013418386
0000d0 b5 d8 c1 bd 20 0d 82 3d 1e 5c d7 3d 58 7c 89 bc
       -0.09465162 0.0635016 0.10515617 -0.016782925
0000e0 bf 2b cd bd 91 f2 94 3c 44 b4 e3 bd e6 b4 c7 bd
       -0.100181095 0.01818207 -0.11118367 -0.097513005
0000f0 49 1e 8a 3c c6 ce c0 bd a4 89 92 3d cd 59 02 3d
       0.016860144 -0.09414439 0.07155159 0.031823922
000100 82 b8 10 be a0 7d 22 bc 51 46 9a 3d 84 d1 59 3d
       -0.14132884 -0.009917647 0.07532943 0.053178325
000110 55 66 b3 bc 68 47 27 bd ad d8 d7 3d 5b b8 90 bd
       -0.021899382 -0.040839583 0.105393745 -0.07066413
000120 cf a1 21 bd 7f a3 9a bc 05 1b 9f 3d 6a cf ef bd
       -0.039460953 -0.01887679 0.077688254 -0.11709483
000130 75 ea 92 bc e1 fc 1d bb 1b c9 74 3d 7d 2e 96 3b
       -0.017934063 -0.0024107026 0.0597621 0.0045831786
000140 6e 34 e6 3c 9b d0 0e 3e 5e c4 96 3d 59 03 43 3b
       0.028101172 0.13946764 0.07361673 0.0029756634
000150 6d 0a c7 bc 2e 29 ef bc 87 1e 56 3d 82 3e b6 3d
       -0.024296964 -0.02919444 0.052275207 0.08898641
000160 c8 a9 27 3e f0 94 e7 bc 94 f3 da bd 82 9c a3 3d
       0.1637336 -0.028269261 -0.1069099 0.07988836
000170 a4 68 f6 3c bb 47 7c 3d 5b fc 87 bd 5f 69 d0 3d
       0.030079193 0.061591845 -0.0663993 0.10176348
000180 be dc 39 bd 42 7d fe bd 0d 07 1f bc 75 00 24 3e
       -0.04537653 -0.12426235 -0.009706271 0.160158
000190 06 9c 91 bd 4d 71 99 3c ac 55 e5 3c 6e cf 9d 3d
       -0.07109837 0.018730784 0.027994953 0.0770558
0001a0 35 23 2d bd c1 19 47 bd 72 16 89 bd bf 40 55 bb
       -0.042269904 -0.048608545 -0.06693734 -0.0032539812
0001b0 60 a3 09 3e 37 cb 2d 3d e2 50 a0 bb 23 3c 0f 3e
       0.13441229 0.04243013 -0.0048924545 0.13987784
0001c0 d5 c5 78 3d 33 b4 57 3d 5c 28 09 3d 53 ef 1b bd
       0.060735542 0.052662086 0.033485755 -0.038070034
0001d0 12 4b 9e 3d 16 82 1c bb 95 39 92 3d 0f 90 99 3d
       0.07729162 -0.0023881248 0.07139889 0.0749818
0001e0 fc 91 4c 3d a4 da 0b be bb 17 9a bd c9 3c a2 bd
       0.04994391 -0.13657624 -0.075240575 -0.0792175
0001f0 8e 6a 94 bd 60 95 d4 bc bf d7 1c 3e 1d bd 24 be
       -0.07246886 -0.025950134 0.15316676 -0.16087766
000200 bc 02 ed bd 2c 77 1c bd 5f 32 36 bd ea 16 88 bd
       -0.11572787 -0.03819959 -0.04448163 -0.066449955
000210 b1 67 18 be b0 85 e9 bd 66 b3 2a be 59 88 e2 bd
       -0.14883305 -0.11402452 -0.16669998 -0.110611625
000220 a8 e1 93 3d 11 7a 1e bd e3 fd 21 3e fb 3a d7 ba
       0.07220775 -0.03869063 0.15819506 -0.0016420776
000230 ac fb da bd e3 b6 84 bc d4 8f 9c 3d 0d 4f 53 3d
       -0.10692534 -0.016200488 0.076446205 0.05158906
000240 bd 9b bd 3d 25 de 9b 3d 2b 52 96 3b 62 02 fb 3d
       0.0925822 0.0761073 0.004587432 0.12256314
000250 2e 90 01 3d 48 fd be bc de ae 9b bd 2a 7e b2 3d
       0.03163164 -0.023314133 -0.07601713 0.0871547
000260 b5 3e 89 bc d0 b4 1b 3d f3 29 67 bd 4d fa 55 3d
       -0.016753534 0.038014233 -0.05643649 0.05224066
000270 70 95 04 bd 6f 64 e3 bb 53 8e f5 3c b4 af f3 3b
       -0.032369077 -0.006939463 0.029975092 0.007436717
000280 8d b2 1c 3d 8b a3 12 bd 4f 97 6f bd 5e ef 43 bc
       0.038256217 -0.035800498 -0.05849391 -0.011958925
000290 e0 6e b2 3d 48 24 06 3c 75 9c 1a be 3a 31 c6 bd
       0.08712554 0.008187361 -0.15098746 -0.09677358
0002a0 80 2c e6 3d b1 21 3b be 71 0a 8a bd bd 77 0d 3e
       0.112389565 -0.18274571 -0.06740273 0.13815208
0002b0 e8 36 dd 3d 9d 7c 97 3d 17 a9 79 bb c7 49 67 3a
       0.10801488 0.07396815 -0.003809517 0.00088229444
0002c0 fc cc e1 bd 42 8e ca bc f0 6e 34 3d c7 eb a1 3d
       -0.11025426 -0.024726037 0.04405111 0.07906299
0002d0 c9 e6 b9 3c 60 f6 01 3d 9b 37 98 3c eb 5c d8 bb
       0.022693055 0.031729102 0.018581202 -0.0066028736
0002e0 b8 98 8c bd 14 13 2d 3d 21 a7 05 be e0 a3 0d 3d
       -0.06865066 0.042254522 -0.13052036 0.03458011
0002f0 c8 8f bf bd 11 45 ad 3c 18 0f 60 bd 03 82 3b bd
       -0.09353596 0.021151097 -0.054701895 -0.045778286
000300 f3 93 eb 3d 6b cc 30 3d 8c 72 d3 bc 9f 81 f4 3d
       0.115028284 0.0431637 -0.025811456 0.11938786
000310 97 36 5c bd e4 d4 b8 3d cd 6b 21 3d 29 77 a3 bd
       -0.053763 0.09024981 0.039409447 -0.07981712
000320 d3 a9 ce bc 01 4d 11 be a1 92 e7 bd d3 57 ce bc
       -0.025227463 -0.14189531 -0.11307264 -0.025188362
000330 50 72 d1 bc b3 48 e4 3c e1 5b 2e bd f1 8a 64 bc
       -0.025567204 0.027866697 -0.04256809 -0.013949142
000340 82 84 c4 3c e9 89 d1 bd fd 78 84 bd 5f 8b f7 bd
       0.023988966 -0.102313824 -0.06468389 -0.1208713
000350 49 e0 0f 3d 82 2e 03 3c fb 9a 7d 3d a1 86 91 3d
       0.035126004 0.008006694 0.06191538 0.071057566
000360 0b 4d 05 be c3 a5 f3 bc 4c 52 f0 3b 59 01 5a 3d
       -0.13017671 -0.029742127 0.0073340293 0.05322394
000370 6e 7c f2 3c 28 15 8a bd 38 97 82 bc 46 08 11 bd
       0.029600348 -0.067423165 -0.015941247 -0.03540828
000380 d9 51 6e 3d 79 99 e6 bd f7 56 b1 3d 55 64 1f bd
       0.058183525 -0.11259741 0.08659165 -0.038914043
000390 ec 6d 3e 3d 21 bf 97 3d 8b 78 27 3c 15 0a c3 bc
       0.04649155 0.07409502 0.010221611 -0.023808518
0003a0 4c 75 89 bd 45 18 19 be a5 0c 2d bd 5e 3d 98 3d
       -0.06711826 -0.14950664 -0.042248387 0.0743358
0003b0 51 7e 5d 3d d8 9a 57 3d b9 3a 36 3c ec d9 fd 3c
       0.054075543 0.052637905 0.011122399 0.030987702
0003c0 27 c5 8f 3d 5b 8d 07 be be 44 53 bc 21 f7 0f 3e
       0.07020026 -0.13237517 -0.012894807 0.14059116
0003d0 11 a8 e2 bc 24 e6 41 3c 7b 6b 95 bd ed 35 0e be
       -0.027668031 0.011834655 -0.07295891 -0.13887759
0003e0 08 dc bd 3d 07 1b f2 3d c6 2a e8 3d 21 6d ad bd
       0.09270483 0.11821561 0.113362834 -0.0846808
0003f0 d1 9e ed bd c4 69 eb bd 0d 91 f4 bd 5c 36 5f 3d
       -0.116025575 -0.114947826 -0.11941729 0.0544952

bias f4 [128]
000000 c7 73 cc 3d 3e 03 b3 3e 81 d2 fd bc 4d e3 a9 3e
       0.0998302 0.3496341 -0.030984165 0.3318123
000010 36 b6 42 be 59 95 ce be e3 df 4e be 13 79 7f be
       -0.1901482 -0.40348318 -0.20202594 -0.2494853
000020 c2 d9 ae be 54 a8 3e 3e b9 bb a4 3e b4 3b c2 3e
       -0.3415051 0.186189 0.3217447 0.37936175
000030 38 34 76 be 92 74 92 3e 13 1c 82 bd 3c d7 83 be
       -0.24043357 0.2860456 -0.06353011 -0.25750148
000040 0f 5e 58 be cc 8e 2c 3e 19 70 8d 3e 09 77 83 be
       -0.2112963 0.16851348 0.27624586 -0.25676754
000050 08 ec 82 be 97 1d 15 be ea 52 a4 3c c6 6d bb 3e
       -0.25570703 -0.14562069 0.020059068 0.36607188
000060 77 5e a8 3d 87 e4 74 be ed 68 80 bd 60 e7 41 3e
       0.08221143 -0.23915301 -0.06270013 0.18935919
000070 24 e8 12 3e 72 9d bb 3e 5c de b2 3e ec 37 09 be
       0.14346367 0.3664356 0.34935272 -0.13400239
000080 a2 0d c2 be ca 72 4c be d0 dc c5 3d f6 d7 9e be
       -0.37901026 -0.19965664 0.09661257 -0.3102414
000090 6f 92 86 3e 02 80 55 be 60 29 22 be 99 6a bc 3e
       0.26283595 -0.20849612 -0.15836096 0.36800078
0000a0 d3 8b b8 bd 8d 5f c9 bc 9e ee 84 3e b8 ff 6a be
       -0.09011044 -0.024581695 0.259633 -0.22949111
0000b0 96 8d 38 bd 08 71 0c be fa 98 72 be 8e 92 27 3e
       -0.045056902 -0.13714993 -0.23691168 0.163645
0000c0 06 e4 67 be 6f 99 56 be 6a 5b d4 3d 05 f9 6c be
       -0.22645578 -0.20956968 0.10368998 -0.23141868
0000d0 d0 75 43 be e4 14 75 be 91 de 78 3e 7e f4 7a bd
       -0.1908791 -0.2393375 0.24303652 -0.061268322
0000e0 4c ea 54 be a0 68 c2 3e 1a 71 41 bd 8a ed cd 3d
       -0.20792502 0.37970448 -0.047227003 0.100550726
0000f0 2d 92 dd 3c 6a 57 be 3c 0d 76 c1 3e 7e 42 ab be
       0.027047241 0.023235042 0.37785378 -0.33449167
000100 b0 77 76 bd db 71 aa 3d 4a 7b e5 3d 59 48 c4 be
       -0.060172737 0.083224975 0.11205156 -0.38336447
000110 d8 93 3b 3c ad ad 94 be 12 be db bd 85 6c 98 be
       0.011448823 -0.29038754 -0.107296124 -0.29770294
000120 c6 ea 7e 3e 8d 55 77 3e b3 83 34 3c c5 6b ae be
       0.24894246 0.24153729 0.011017728 -0.34066597
000130 81 51 d0 3e 9d 00 54 3e 08 82 67 3d d9 c5 54 be
       0.40687183 0.20703359 0.05652049 -0.20778598
000140 6d b6 b7 3e 01 94 14 be 61 7b 67 3d e5 b7 be bd
       0.35881367 -0.14509584 0.056514148 -0.09312419
000150 19 78 4b be fc 81 55 be 52 a7 d5 bd a3 55 9b 3e
       -0.19870032 -0.20850366 -0.104323044 0.30338773
000160 fa cd 30 3e b1 5a e4 be 71 fa a0 bd b0 5d 82 3e
       0.17266074 -0.44600442 -0.07860268 0.25462103
000170 ee ad 22 bc b2 21 4e 3e b0 c3 88 3e 0a 99 16 3e
       -0.009929163 0.20130041 0.26711798 0.14706817
000180 95 e8 8c be 45 6d 45 3d 22 93 62 bd 2c 91 d7 bc
       -0.27521196 0.04819991 -0.055316098 -0.02631434
000190 98 19 b7 3e 0a fe 22 3d 87 11 51 bc 54 eb 3e 3e
       0.35761714 0.03979305 -0.0127605265 0.18644458
0001a0 4b 91 a7 3e 35 c7 93 3e 06 e4 a1 3e 7b 00 82 be
       0.32728037 0.2886292 0.3161928 -0.25390992
0001b0 bc 06 37 bb 88 3d ab 3e 8d a5 96 3e db 97 15 bc
       -0.0027927598 0.33445382 0.2942318 -0.009130443
0001c0 f0 03 88 3a 56 dc 68 bd f9 5d 3f be 70 07 49 3e
       0.001037715 -0.056850754 -0.18688191 0.19631743
0001d0 2d 59 a0 be d4 27 2b bd c0 f3 73 3e 38 b9 c3 3e
       -0.31318036 -0.04178603 0.23823452 0.38227248
0001e0 d4 1c df 3d 10 3c b5 3d 5e 74 57 3e b6 e9 7a 3e
       0.108941704 0.08849347 0.21040484 0.24503216
0001f0 51 07 a0 be 13 59 99 3e f8 65 15 be 6d 36 52 3e
       -0.31255582 0.2995077 -0.14589679 0.20528574

weight f4 [128, 4]
000000 db ea e0 bc d9 92 bb 3d d3 48 aa 3d 27 69 5e 3d
       -0.027455738 0.09158868 0.08314671 0.0542995
000010 b8 51 e9 bd 3f 84 5a bc e5 ec 02 3d 3e e8 04 be
       -0.1139254 -0.013337194 0.0319642 -0.12979218
000020 af 03 31 3b ba 2b ba 3d b3 91 9a bd d4 3c 55 bd
       0.0027010252 0.090903714 -0.07547321 -0.052059963
000030 d4 80 14 3d 92 ba ca 3c 3b 10 f9 bd 86 db 6c bd
       0.036255673 0.024747167 -0.12161299 -0.05782654
000040 5f 09 75 bd 0e c1 73 3b c3 4d 6b bd d7 a2 0c 3e
       -0.05982339 0.0037193927 -0.057447206 0.13733993
000050 aa 1e 94 bd 2b cf be 3d 5a 32 53 3e c7 4d 11 bd
       -0.07232411 0.09316858 0.20624676 -0.035474565
000060 f3 c4 1d 3e 8f 0e 93 bd 15 c9 16 bd 9e 08 b5 3c
       0.15407161 -0.07180511 -0.03681286 0.022098836
000070 94 3a db bb f0 33 8c 3d 48 7f cb bc 8d 91 81 3d
       -0.0066903327 0.06845844 -0.024840966 0.0632659
000080 39 03 1f 3d b1 f4 f2 bb fa 29 a3 3d cb 26 1b 3c
       0.038821433 -0.0074144234 0.07966991 0.009469698
000090 bb a8 c3 bd 28 df c3 3d f1 ad cf bd d8 02 07 3d
       -0.09553667 0.09564048 -0.101405986 0.032961696
0000a0 18 10 ae 3d 7b aa ae bb 49 8a 25 be 4a 97 75 3d
       0.084991634 -0.0053303814 -0.16166033 0.059958734
0000b0 db 27 9d 3d e0 71 8a 3d d4 e7 aa 3d 21 11 15 be
       0.076736175 0.06760001 0.08344999 -0.14557315
0000c0 94 8e 89 3d 97 c1 0b bb e1 e6 38 3e 14 52 10 be
       0.06716648 -0.0021325105 0.18056823 -0.1409381
0000d0 96 66 f8 bd 2a 28 bd 3c 3b 01 e5 3d ff 90 16 3d
       -0.12128942 0.02309044 0.11181875 0.036759373
0000e0 97 f5 8c 3a 23 cd 15 bc d1 84 29 bd e4 da e3 3c
       0.0010754344 -0.009143147 -0.04138643 0.027814336
0000f0 9e a8 78 bd d7 32 5d 3d 7f ba 0d be 17 c6 5f 3b
       -0.06070768 0.054003563 -0.13840674 0.003414517
000100 c3 c5 9c 3c 1c cf c6 3c 3e 0a 18 be 37 01 6d bd
       0.019137269 0.02426868 -0.14847657 -0.057862487
000110 69 c3 c1 3d 61 bb b9 bc f4 6b 3d 3c e4 10 1d be
       0.094611 -0.022672357 0.011561383 -0.15338475
000120 96 6a c9 bd f3 d3 c5 3d c9 a8 97 bd 0e 63 96 3d
       -0.09834783 0.09659567 -0.0740524 0.07343112
000130 b1 86 63 3d 22 b6 8a 3d c9 5a cc bc 8d 76 bd 3d
       0.055548374 0.0677302 -0.024945633 0.092511274
000140 8a be 12 3e 78 06 87 3d 2a 9a af bd 31 56 00 be
       0.14330497 0.06593031 -0.08574326 -0.1253288
000150 b2 0c 23 bd 05 87 87 3d b6 57 38 bd 1a 70 75 3d
       -0.03980703 0.0661755 -0.045005523 0.05992136
000160 0f 16 a9 3d 59 2b 8f bc 58 c0 2e be 59 cd 05 be
       0.082561605 -0.017476724 -0.17065561 -0.13066615
000170 98 81 d7 3d 8d 13 40 bc f4 15 00 3d 0c b5 4c 3d
       0.10522765 -0.011723411 0.031270936 0.049977347
000180 ff 34 13 3d ed 06 09 3d 65 0e 02 be c2 b2 38 3c
       0.035939213 0.03345387 -0.12700804 0.011273088
000190 5f fd e9 bd 0d a1 36 bd 6b 1d 81 bd 09 b1 0c 3e
       -0.1142528 -0.044587184 -0.06304439 0.13739409
0001a0 80 cd b4 3d 6d ca eb bc b7 34 e0 bc 6d 6b 42 3b
       0.088282585 -0.028783048 -0.027368886 0.0029666082
0001b0 93 18 5e 3c 2d b7 c7 bd 05 6d 61 3d 5a 1e e8 bc
       0.013555664 -0.09751735 0.05503561 -0.028334785
0001c0 65 24 87 3d 3a a8 9e bd 8b a6 ee 3d 28 42 f7 bc
       0.065987386 -0.077469304 0.11652859 -0.030182913
0001d0 95 18 c7 bd be 45 5c bd b1 1c d0 bd b4 ca 61 bd
       -0.097214855 -0.05377745 -0.101617225 -0.055124953
0001e0 bf e3 db bd 75 24 7f bc b4 f8 cf bc 8f 08 7b 3d
       -0.107367985 -0.015572657 -0.025387146 0.06128746
0001f0 48 3a c8 3d 41 3e e4 3d 0a 44 da 3d 25 4a 80 bd
       0.09776741 0.111446865 0.10657509 -0.06264142
000200 e2 5a ab bd 7e c1 e1 bd ab 95 27 bd 32 3e bb bd
       -0.08366944 -0.11023234 -0.04091422 -0.09142722
000210 3d 0e 76 3d c1 aa 56 bd 84 3e b1 bd 08 87 81 3d
       0.060072172 -0.052408937 -0.08654502 0.06324583
000220 4a 5e b0 3d e6 1a 86 bd 2a c0 f7 bd 77 bd 09 3e
       0.08611734 -0.06548099 -0.12097199 0.13451181
000230 23 1f 6d 3d 32 c3 12 3d 26 08 75 3d 92 c8 b2 bc
       0.057891022 0.035830684 0.059822224 -0.021824155
000240 0c 57 25 3c 19 09 53 bc a4 57 cc bd 52 0f 36 3d
       0.010091554 -0.012880587 -0.099776536 0.044448204
000250 ee 88 c8 3d 4a 01 77 3c eb cb dc 3c 89 66 98 bc
       0.09791742 0.015075991 0.026952704 -0.01860358
000260 19 bb 14 3d 5d f1 85 bb db ed 20 be 5f 6c 9f 3d
       0.036311243 -0.0040876106 -0.15715735 0.07784342
000270 a1 4f 06 3e 1f 06 f5 bc a3 43 a0 ba 9a 64 0b bd
       0.13116314 -0.029910145 -0.0012227189 -0.034031488
000280 c8 25 d2 bd ac 06 a1 bd 33 5e 2b be ad 89 62 bd
       -0.102611125 -0.07862601 -0.16735153 -0.05530708
000290 81 05 3c be 8c 9a e8 3b e0 2a c2 bd a6 ec 0f be
       -0.18361475 0.0070985015 -0.09480834 -0.14055118
0002a0 34 81 18 3d 79 29 4d bd b4 5e b4 3d 7f c6 50 bc
       0.037232593 -0.05008838 0.08807126 -0.012742638
0002b0 0f 5a 77 bd ec 3f 79 bd cd 86 08 be c4 8a e1 3d
       -0.06038862 -0.060851976 -0.13332672 0.110127956
0002c0 7f cd 32 bd c4 6d 92 bd e4 30 cb 3d 44 41 a8 3d
       -0.043653008 -0.071498424 0.099214345 0.082155734
0002d0 11 6d 9d bd ba 21 0c be a0 06 ef 3c 65 ad 10 3d
       -0.076868184 -0.1368474 0.029177964 0.035321612
0002e0 8e 7f 2b 3e a8 8b c1 3c c0 17 b4 3d 81 94 6a bd
       0.16747877 0.023626164 0.087935925 -0.05727053
0002f0 3b d6 57 3d c7 c7 67 3d 04 07 1a 3e a6 92 a7 bd
       0.05269454 0.056587007 0.15041739 -0.08182268
000300 ef d7 61 3e b3 db e3 3d 78 3f bd bd 52 f9 81 bc
       0.22055028 0.11125889 -0.09240621 -0.015865956
000310 00 a4 c5 bb 71 7f 34 bd cb ba ee bb dd 7d f4 bb
       -0.006031513 -0.04406685 -0.007285451 -0.007461293
000320 f3 b7 b9 bd c3 a7 66 3d 88 48 e8 39 e3 64 78 3d
       -0.09068289 0.056312334 0.00044304528 0.060643088
000330 9f f3 ff bd 45 f9 47 bd 74 a9 b1 bc 9a 25 c7 3d
       -0.12497639 -0.048821706 -0.021687247 0.09723969
000340 4a c7 0f 3e 45 06 ad 3d d8 5f 0e be 20 3e 3e 3d
       0.14040866 0.084484614 -0.13903749 0.046445966
000350 d2 32 ba 3d 85 bc 4d 3c ca 31 59 bd 50 91 11 3d
       0.090917245 0.012557154 -0.053026 0.03553897
000360 64 e1 4c 3d e9 05 27 bc 0a 09 25 be e9 f6 10 3d
       0.050019637 -0.01019428 -0.1611673 0.035391722
000370 fc 70 33 3d 33 d4 21 bd 99 0f 38 be df 7b 08 3d
       0.043808922 -0.03950901 -0.179747 0.033321258
000380 ef 30 38 3e 4e e6 36 ba ff 4a c3 bd e5 44 19 3d
       0.17987417 -0.0006977067 -0.09535789 0.03741922
000390 b2 0f 22 be 82 55 48 bd 99 13 a9 bc 08 39 af bb
       -0.158263 -0.04890967 -0.020639228 -0.005347375
0003a0 e0 1c cf 3d 70 74 70 3d dd be 8b bd 6e 9d 2c bd
       0.10112929 0.058704793 -0.06823514 -0.042142324
0003b0 15 4f ab 3d ac 8d 6c 3d 7a ad 00 3e 76 50 f9 3c
       0.08364693 0.057752296 0.12566176 0.030433875
0003c0 ad 0d 29 3e 82 cb 84 3d 99 06 3a 3c 62 fb 3b 3a
       0.16509123 0.064841285 0.011354112 0.0007170943
0003d0 f9 9a bc 3d 6a 1d 9b 3d c1 c6 5d bd 75 95 f0 3d
       0.09209246 0.0757397 -0.054144625 0.11747257
0003e0 ab 71 75 3d f9 28 99 3a 12 25 26 3c 8f eb 36 be
       0.059922855 0.0011685184 0.010140674 -0.17863296
0003f0 50 71 80 3d 5c 91 9a bc be 40 06 be 36 2b ca 3d
       0.06271613 -0.01886814 -0.13110635 0.09871523
